…
I0704 08:30:49.974586 18982 net.cpp:52] Initializing net from parameters:
state {
phase: TRAIN
}
layer {
name: "data"
type: "Data"
top: "data"
include {
phase: TRAIN
}
transform_param {
mean_file: "/home/ffw/scratch/plantClef/scatnet_output/train/a4_m3_s1s2s4_f2/lmdb_mean_coeff.binaryproto"
}
data_param {
source: "/home/ffw/scratch/plantClef/scatnet_output/train/a4_m3_s1s2s4_f2/lmdb_data"
batch_size: 32
backend: LMDB
}
}
layer {
name: "label"
type: "Data"
top: "label"
include {
phase: TRAIN
}
data_param {
source: "/home/ffw/scratch/plantClef/scatnet_output/train/a4_m3_s1s2s4_f2/lmdb_labels"
batch_size: 32
backend: LMDB
}
}
layer {
name: "pool1"
type: "Pooling"
bottom: "data"
top: "pool1"
pooling_param {
pool: MAX
kernel_size: 3
stride: 2
}
}
layer {
name: "conv3"
type: "Convolution"
bottom: "pool1"
top: "conv3"
param {
lr_mult: 1
decay_mult: 1
}
param {
lr_mult: 2
decay_mult: 0
}
convolution_param {
num_output: 384
pad: 1
kernel_size: 3
weight_filler {
type: "gaussian"
std: 0.01
}
bias_filler {
type: "constant"
value: 0
}
}
}
layer {
name: "relu3"
type: "ReLU"
bottom: "conv3"
top: "conv3"
}
layer {
name: "conv4"
type: "Convolution"
bottom: "conv3"
top: "conv4"
param {
lr_mult: 1
decay_mult: 1
}
param {
lr_mult: 2
decay_mult: 0
}
convolution_param {
num_output: 384
pad: 1
kernel_size: 3
group: 2
weight_filler {
type: "gaussian"
std: 0.01
}
bias_filler {
type: "constant"
value: 0.1
}
}
}
layer {
name: "relu4"
type: "ReLU"
bottom: "conv4"
top: "conv4"
}
layer {
name: "conv5"
type: "Convolution"
bottom: "conv4"
top: "conv5"
param {
lr_mult: 1
decay_mult: 1
}
param {
lr_mult: 2
decay_mult: 0
}
convolution_param {
num_output: 256
pad: 1
kernel_size: 3
group: 1
weight_filler {
type: "gaussian"
std: 0.01
}
bias_filler {
type: "constant"
value: 0.1
}
}
}
layer {
name: "relu5"
type: "ReLU"
bottom: "conv5"
top: "conv5"
}
layer {
name: "pool5"
type: "Pooling"
bottom: "conv5"
top: "pool5"
pooling_param {
pool: MAX
kernel_size: 3
stride: 2
}
}
layer {
name: "fc6"
type: "InnerProduct"
bottom: "pool5"
top: "fc6"
param {
lr_mult: 1
decay_mult: 1
}
param {
lr_mult: 2
decay_mult: 0
}
inner_product_param {
num_output: 4096
weight_filler {
type: "gaussian"
std: 0.005
}
bias_filler {
type: "constant"
value: 0.1
}
}
}
layer {
name: "relu6"
type: "ReLU"
bottom: "fc6"
top: "fc6"
}
layer {
name: "drop6"
type: "Dropout"
bottom: "fc6"
top: "fc6"
dropout_param {
dropout_ratio: 0.5
}
}
layer {
name: "fc7"
type: "InnerProduct"
bottom: "fc6"
top: "fc7"
param {
lr_mult: 1
decay_mult: 1
}
param {
lr_mult: 2
decay_mult: 0
}
inner_product_param {
num_output: 4096
weight_filler {
type: "gaussian"
std: 0.005
}
bias_filler {
type: "constant"
value: 0.1
}
}
}
layer {
name: "relu7"
type: "ReLU"
bottom: "fc7"
top: "fc7"
}
layer {
name: "drop7"
type: "Dropout"
bottom: "fc7"
top: "fc7"
dropout_param {
dropout_ratio: 0.5
}
}
layer {
name: "fc8_species"
type: "InnerProduct"
bottom: "fc7"
top: "fc8_species"
param {
lr_mult: 1
decay_mult: 1
}
param {
lr_mult: 2
decay_mult: 0
}
inner_product_param {
num_output: 967
weight_filler {
type: "gaussian"
std: 0.005
}
bias_filler {
type: "constant"
value: 0.1
}
}
}
layer {
name: "loss"
type: "SoftmaxWithLoss"
bottom: "fc8_species"
bottom: "label"
top: "loss"
}
I0704 08:30:49.974639 18982 layer_factory.hpp:76] Creating layer data
I0704 08:30:49.975505 18982 net.cpp:109] Creating Layer data
I0704 08:30:49.975512 18982 net.cpp:414] data -> data
I0704 08:30:49.975793 18982 data_transformer.cpp:25] Loading mean file from: /home/ffw/scratch/plantClef/scatnet_output/train/a4_m3_s1s2s4_f2/lmdb_mean_coeff.binaryproto
I0704 08:30:49.979147 18994 db_lmdb.cpp:36] Opened lmdb /home/ffw/scratch/plantClef/scatnet_output/train/a4_m3_s1s2s4_f2/lmdb_data
I0704 08:30:49.987695 18982 data_layer.cpp:45] output data size: 32,375,47,47
I0704 08:30:50.108952 18982 net.cpp:153] Setting up data
I0704 08:30:50.108983 18982 net.cpp:160] Top shape: 32 375 47 47 (26508000)
I0704 08:30:50.108985 18982 net.cpp:168] Memory required for data: 106032000
I0704 08:30:50.108990 18982 layer_factory.hpp:76] Creating layer label
I0704 08:30:50.109030 18982 net.cpp:109] Creating Layer label
I0704 08:30:50.109045 18982 net.cpp:414] label -> label
I0704 08:30:50.111023 18996 db_lmdb.cpp:36] Opened lmdb /home/ffw/scratch/plantClef/scatnet_output/train/a4_m3_s1s2s4_f2/lmdb_labels
I0704 08:30:50.119168 18982 data_layer.cpp:45] output data size: 32,1,1,1
I0704 08:30:50.119267 18982 net.cpp:153] Setting up label
I0704 08:30:50.119274 18982 net.cpp:160] Top shape: 32 1 1 1 (32)
I0704 08:30:50.119277 18982 net.cpp:168] Memory required for data: 106032128
I0704 08:30:50.119279 18982 layer_factory.hpp:76] Creating layer pool1
I0704 08:30:50.119292 18982 net.cpp:109] Creating Layer pool1
I0704 08:30:50.119294 18982 net.cpp:457] pool1 <- data
I0704 08:30:50.119302 18982 net.cpp:414] pool1 -> pool1
I0704 08:30:50.119344 18982 net.cpp:153] Setting up pool1
I0704 08:30:50.119349 18982 net.cpp:160] Top shape: 32 375 23 23 (6348000)
I0704 08:30:50.119351 18982 net.cpp:168] Memory required for data: 131424128
I0704 08:30:50.119354 18982 layer_factory.hpp:76] Creating layer conv3
I0704 08:30:50.119359 18982 net.cpp:109] Creating Layer conv3
I0704 08:30:50.119361 18982 net.cpp:457] conv3 <- pool1
I0704 08:30:50.119365 18982 net.cpp:414] conv3 -> conv3
I0704 08:30:50.146071 18982 net.cpp:153] Setting up conv3
I0704 08:30:50.146090 18982 net.cpp:160] Top shape: 32 384 23 23 (6500352)
I0704 08:30:50.146091 18982 net.cpp:168] Memory required for data: 157425536
I0704 08:30:50.146101 18982 layer_factory.hpp:76] Creating layer relu3
I0704 08:30:50.146111 18982 net.cpp:109] Creating Layer relu3
I0704 08:30:50.146114 18982 net.cpp:457] relu3 <- conv3
I0704 08:30:50.146117 18982 net.cpp:400] relu3 -> conv3 (in-place)
I0704 08:30:50.146126 18982 net.cpp:153] Setting up relu3
I0704 08:30:50.146128 18982 net.cpp:160] Top shape: 32 384 23 23 (6500352)
I0704 08:30:50.146131 18982 net.cpp:168] Memory required for data: 183426944
I0704 08:30:50.146132 18982 layer_factory.hpp:76] Creating layer conv4
I0704 08:30:50.146137 18982 net.cpp:109] Creating Layer conv4
I0704 08:30:50.146139 18982 net.cpp:457] conv4 <- conv3
I0704 08:30:50.146142 18982 net.cpp:414] conv4 -> conv4
I0704 08:30:50.159185 18982 net.cpp:153] Setting up conv4
I0704 08:30:50.159204 18982 net.cpp:160] Top shape: 32 384 23 23 (6500352)
I0704 08:30:50.159206 18982 net.cpp:168] Memory required for data: 209428352
I0704 08:30:50.159214 18982 layer_factory.hpp:76] Creating layer relu4
I0704 08:30:50.159219 18982 net.cpp:109] Creating Layer relu4
I0704 08:30:50.159221 18982 net.cpp:457] relu4 <- conv4
I0704 08:30:50.159225 18982 net.cpp:400] relu4 -> conv4 (in-place)
I0704 08:30:50.159245 18982 net.cpp:153] Setting up relu4
I0704 08:30:50.159248 18982 net.cpp:160] Top shape: 32 384 23 23 (6500352)
I0704 08:30:50.159250 18982 net.cpp:168] Memory required for data: 235429760
I0704 08:30:50.159251 18982 layer_factory.hpp:76] Creating layer conv5
I0704 08:30:50.159257 18982 net.cpp:109] Creating Layer conv5
I0704 08:30:50.159258 18982 net.cpp:457] conv5 <- conv4
I0704 08:30:50.159261 18982 net.cpp:414] conv5 -> conv5
I0704 08:30:50.177058 18982 net.cpp:153] Setting up conv5
I0704 08:30:50.177076 18982 net.cpp:160] Top shape: 32 256 23 23 (4333568)
I0704 08:30:50.177078 18982 net.cpp:168] Memory required for data: 252764032
I0704 08:30:50.177086 18982 layer_factory.hpp:76] Creating layer relu5
I0704 08:30:50.177094 18982 net.cpp:109] Creating Layer relu5
I0704 08:30:50.177098 18982 net.cpp:457] relu5 <- conv5
I0704 08:30:50.177101 18982 net.cpp:400] relu5 -> conv5 (in-place)
I0704 08:30:50.177108 18982 net.cpp:153] Setting up relu5
I0704 08:30:50.177109 18982 net.cpp:160] Top shape: 32 256 23 23 (4333568)
I0704 08:30:50.177111 18982 net.cpp:168] Memory required for data: 270098304
I0704 08:30:50.177114 18982 layer_factory.hpp:76] Creating layer pool5
I0704 08:30:50.177117 18982 net.cpp:109] Creating Layer pool5
I0704 08:30:50.177119 18982 net.cpp:457] pool5 <- conv5
I0704 08:30:50.177121 18982 net.cpp:414] pool5 -> pool5
I0704 08:30:50.177142 18982 net.cpp:153] Setting up pool5
I0704 08:30:50.177145 18982 net.cpp:160] Top shape: 32 256 11 11 (991232)
I0704 08:30:50.177147 18982 net.cpp:168] Memory required for data: 274063232
I0704 08:30:50.177150 18982 layer_factory.hpp:76] Creating layer fc6
I0704 08:30:50.177160 18982 net.cpp:109] Creating Layer fc6
I0704 08:30:50.177162 18982 net.cpp:457] fc6 <- pool5
I0704 08:30:50.177165 18982 net.cpp:414] fc6 -> fc6
I0704 08:30:52.584349 18982 net.cpp:153] Setting up fc6
I0704 08:30:52.584368 18982 net.cpp:160] Top shape: 32 4096 (131072)
I0704 08:30:52.584372 18982 net.cpp:168] Memory required for data: 274587520
I0704 08:30:52.584377 18982 layer_factory.hpp:76] Creating layer relu6
I0704 08:30:52.584383 18982 net.cpp:109] Creating Layer relu6
I0704 08:30:52.584386 18982 net.cpp:457] relu6 <- fc6
I0704 08:30:52.584391 18982 net.cpp:400] relu6 -> fc6 (in-place)
I0704 08:30:52.584398 18982 net.cpp:153] Setting up relu6
I0704 08:30:52.584400 18982 net.cpp:160] Top shape: 32 4096 (131072)
I0704 08:30:52.584403 18982 net.cpp:168] Memory required for data: 275111808
I0704 08:30:52.584404 18982 layer_factory.hpp:76] Creating layer drop6
I0704 08:30:52.584836 18982 net.cpp:109] Creating Layer drop6
I0704 08:30:52.584854 18982 net.cpp:457] drop6 <- fc6
I0704 08:30:52.584857 18982 net.cpp:400] drop6 -> fc6 (in-place)
I0704 08:30:52.584887 18982 net.cpp:153] Setting up drop6
I0704 08:30:52.584892 18982 net.cpp:160] Top shape: 32 4096 (131072)
I0704 08:30:52.584893 18982 net.cpp:168] Memory required for data: 275636096
I0704 08:30:52.584895 18982 layer_factory.hpp:76] Creating layer fc7
I0704 08:30:52.584900 18982 net.cpp:109] Creating Layer fc7
I0704 08:30:52.584903 18982 net.cpp:457] fc7 <- fc6
I0704 08:30:52.584905 18982 net.cpp:414] fc7 -> fc7
I0704 08:30:52.902746 18982 net.cpp:153] Setting up fc7
I0704 08:30:52.902766 18982 net.cpp:160] Top shape: 32 4096 (131072)
I0704 08:30:52.902768 18982 net.cpp:168] Memory required for data: 276160384
I0704 08:30:52.902776 18982 layer_factory.hpp:76] Creating layer relu7
I0704 08:30:52.902783 18982 net.cpp:109] Creating Layer relu7
I0704 08:30:52.902786 18982 net.cpp:457] relu7 <- fc7
I0704 08:30:52.902791 18982 net.cpp:400] relu7 -> fc7 (in-place)
I0704 08:30:52.902797 18982 net.cpp:153] Setting up relu7
I0704 08:30:52.902801 18982 net.cpp:160] Top shape: 32 4096 (131072)
I0704 08:30:52.902801 18982 net.cpp:168] Memory required for data: 276684672
I0704 08:30:52.902803 18982 layer_factory.hpp:76] Creating layer drop7
I0704 08:30:52.902807 18982 net.cpp:109] Creating Layer drop7
I0704 08:30:52.902809 18982 net.cpp:457] drop7 <- fc7
I0704 08:30:52.902812 18982 net.cpp:400] drop7 -> fc7 (in-place)
I0704 08:30:52.902848 18982 net.cpp:153] Setting up drop7
I0704 08:30:52.902854 18982 net.cpp:160] Top shape: 32 4096 (131072)
I0704 08:30:52.902858 18982 net.cpp:168] Memory required for data: 277208960
I0704 08:30:52.902861 18982 layer_factory.hpp:76] Creating layer fc8_species
I0704 08:30:52.902869 18982 net.cpp:109] Creating Layer fc8_species
I0704 08:30:52.902873 18982 net.cpp:457] fc8_species <- fc7
I0704 08:30:52.902878 18982 net.cpp:414] fc8_species -> fc8_species
I0704 08:30:52.981371 18982 net.cpp:153] Setting up fc8_species
I0704 08:30:52.981390 18982 net.cpp:160] Top shape: 32 967 (30944)
I0704 08:30:52.981394 18982 net.cpp:168] Memory required for data: 277332736
I0704 08:30:52.981398 18982 layer_factory.hpp:76] Creating layer loss
I0704 08:30:52.981411 18982 net.cpp:109] Creating Layer loss
I0704 08:30:52.981415 18982 net.cpp:457] loss <- fc8_species
I0704 08:30:52.981417 18982 net.cpp:457] loss <- label
I0704 08:30:52.981421 18982 net.cpp:414] loss -> loss
I0704 08:30:52.981427 18982 layer_factory.hpp:76] Creating layer loss
…
I0704 08:30:52.986945 18982 net.cpp:52] Initializing net from parameters:
state {
phase: TEST
}
layer {
name: "data"
type: "Data"
top: "data"
include {
phase: TEST
}
transform_param {
mean_file: "/home/ffw/scratch/plantClef/scatnet_output/train/a4_m3_s1s2s4_f2/lmdb_mean_coeff.binaryproto"
}
data_param {
source: "/home/ffw/scratch/plantClef/scatnet_output/test/a4_m3_s1s2s4_f2/lmdb_data"
batch_size: 32
backend: LMDB
}
}
layer {
name: "label"
type: "Data"
top: "label"
include {
phase: TEST
}
data_param {
source: "/home/ffw/scratch/plantClef/scatnet_output/test/a4_m3_s1s2s4_f2/lmdb_labels"
batch_size: 32
backend: LMDB
}
}
layer {
name: "pool1"
type: "Pooling"
bottom: "data"
top: "pool1"
pooling_param {
pool: MAX
kernel_size: 3
stride: 2
}
}
layer {
name: "conv3"
type: "Convolution"
bottom: "pool1"
top: "conv3"
param {
lr_mult: 1
decay_mult: 1
}
param {
lr_mult: 2
decay_mult: 0
}
convolution_param {
num_output: 384
pad: 1
kernel_size: 3
weight_filler {
type: "gaussian"
std: 0.01
}
bias_filler {
type: "constant"
value: 0
}
}
}
layer {
name: "relu3"
type: "ReLU"
bottom: "conv3"
top: "conv3"
}
layer {
name: "conv4"
type: "Convolution"
bottom: "conv3"
top: "conv4"
param {
lr_mult: 1
decay_mult: 1
}
param {
lr_mult: 2
decay_mult: 0
}
convolution_param {
num_output: 384
pad: 1
kernel_size: 3
group: 2
weight_filler {
type: "gaussian"
std: 0.01
}
bias_filler {
type: "constant"
value: 0.1
}
}
}
layer {
name: "relu4"
type: "ReLU"
bottom: "conv4"
top: "conv4"
}
layer {
name: "conv5"
type: "Convolution"
bottom: "conv4"
top: "conv5"
param {
lr_mult: 1
decay_mult: 1
}
param {
lr_mult: 2
decay_mult: 0
}
convolution_param {
num_output: 256
pad: 1
kernel_size: 3
group: 1
weight_filler {
type: "gaussian"
std: 0.01
}
bias_filler {
type: "constant"
value: 0.1
}
}
}
layer {
name: "relu5"
type: "ReLU"
bottom: "conv5"
top: "conv5"
}
layer {
name: "pool5"
type: "Pooling"
bottom: "conv5"
top: "pool5"
pooling_param {
pool: MAX
kernel_size: 3
stride: 2
}
}
layer {
name: "fc6"
type: "InnerProduct"
bottom: "pool5"
top: "fc6"
param {
lr_mult: 1
decay_mult: 1
}
param {
lr_mult: 2
decay_mult: 0
}
inner_product_param {
num_output: 4096
weight_filler {
type: "gaussian"
std: 0.005
}
bias_filler {
type: "constant"
value: 0.1
}
}
}
layer {
name: "relu6"
type: "ReLU"
bottom: "fc6"
top: "fc6"
}
layer {
name: "drop6"
type: "Dropout"
bottom: "fc6"
top: "fc6"
dropout_param {
dropout_ratio: 0.5
}
}
layer {
name: "fc7"
type: "InnerProduct"
bottom: "fc6"
top: "fc7"
param {
lr_mult: 1
decay_mult: 1
}
param {
lr_mult: 2
decay_mult: 0
}
inner_product_param {
num_output: 4096
weight_filler {
type: "gaussian"
std: 0.005
}
bias_filler {
type: "constant"
value: 0.1
}
}
}
layer {
name: "relu7"
type: "ReLU"
bottom: "fc7"
top: "fc7"
}
layer {
name: "drop7"
type: "Dropout"
bottom: "fc7"
top: "fc7"
dropout_param {
dropout_ratio: 0.5
}
}
layer {
name: "fc8_species"
type: "InnerProduct"
bottom: "fc7"
top: "fc8_species"
param {
lr_mult: 1
decay_mult: 1
}
param {
lr_mult: 2
decay_mult: 0
}
inner_product_param {
num_output: 967
weight_filler {
type: "gaussian"
std: 0.005
}
bias_filler {
type: "constant"
value: 0.1
}
}
}
layer {
name: "loss"
type: "SoftmaxWithLoss"
bottom: "fc8_species"
bottom: "label"
top: "loss"
}
layer {
name: "accuracy"
type: "Accuracy"
bottom: "fc8_species"
bottom: "label"
top: "accuracy"
include {
phase: TEST
}
}
I0704 08:30:52.987010 18982 layer_factory.hpp:76] Creating layer data
I0704 08:30:52.987059 18982 net.cpp:109] Creating Layer data
I0704 08:30:52.987063 18982 net.cpp:414] data -> data
I0704 08:30:52.987069 18982 data_transformer.cpp:25] Loading mean file from: /home/ffw/scratch/plantClef/scatnet_output/train/a4_m3_s1s2s4_f2/lmdb_mean_coeff.binaryproto
I0704 08:30:53.043243 18998 db_lmdb.cpp:36] Opened lmdb /home/ffw/scratch/plantClef/scatnet_output/test/a4_m3_s1s2s4_f2/lmdb_data
I0704 08:30:53.090212 18982 data_layer.cpp:45] output data size: 32,375,47,47
I0704 08:30:53.205273 18982 net.cpp:153] Setting up data
I0704 08:30:53.205291 18982 net.cpp:160] Top shape: 32 375 47 47 (26508000)
I0704 08:30:53.205294 18982 net.cpp:168] Memory required for data: 106032000
I0704 08:30:53.205298 18982 layer_factory.hpp:76] Creating layer label
I0704 08:30:53.205453 18982 net.cpp:109] Creating Layer label
I0704 08:30:53.205461 18982 net.cpp:414] label -> label
I0704 08:30:53.208703 19000 db_lmdb.cpp:36] Opened lmdb /home/ffw/scratch/plantClef/scatnet_output/test/a4_m3_s1s2s4_f2/lmdb_labels
I0704 08:30:53.215400 18982 data_layer.cpp:45] output data size: 32,1,1,1
I0704 08:30:53.215562 18982 net.cpp:153] Setting up label
I0704 08:30:53.215572 18982 net.cpp:160] Top shape: 32 1 1 1 (32)
I0704 08:30:53.215575 18982 net.cpp:168] Memory required for data: 106032128
I0704 08:30:53.215579 18982 layer_factory.hpp:76] Creating layer label_label_0_split
I0704 08:30:53.215646 18982 net.cpp:109] Creating Layer label_label_0_split
I0704 08:30:53.215656 18982 net.cpp:457] label_label_0_split <- label
I0704 08:30:53.215661 18982 net.cpp:414] label_label_0_split -> label_label_0_split_0
I0704 08:30:53.215675 18982 net.cpp:414] label_label_0_split -> label_label_0_split_1
I0704 08:30:53.215773 18982 net.cpp:153] Setting up label_label_0_split
I0704 08:30:53.215782 18982 net.cpp:160] Top shape: 32 1 1 1 (32)
I0704 08:30:53.215785 18982 net.cpp:160] Top shape: 32 1 1 1 (32)
I0704 08:30:53.215787 18982 net.cpp:168] Memory required for data: 106032384
I0704 08:30:53.215790 18982 layer_factory.hpp:76] Creating layer pool1
I0704 08:30:53.215795 18982 net.cpp:109] Creating Layer pool1
I0704 08:30:53.215798 18982 net.cpp:457] pool1 <- data
I0704 08:30:53.215802 18982 net.cpp:414] pool1 -> pool1
I0704 08:30:53.215826 18982 net.cpp:153] Setting up pool1
I0704 08:30:53.215829 18982 net.cpp:160] Top shape: 32 375 23 23 (6348000)
I0704 08:30:53.215831 18982 net.cpp:168] Memory required for data: 131424384
I0704 08:30:53.215833 18982 layer_factory.hpp:76] Creating layer conv3
I0704 08:30:53.215840 18982 net.cpp:109] Creating Layer conv3
I0704 08:30:53.215842 18982 net.cpp:457] conv3 <- pool1
I0704 08:30:53.215845 18982 net.cpp:414] conv3 -> conv3
I0704 08:30:53.241497 18982 net.cpp:153] Setting up conv3
I0704 08:30:53.241518 18982 net.cpp:160] Top shape: 32 384 23 23 (6500352)
I0704 08:30:53.241521 18982 net.cpp:168] Memory required for data: 157425792
I0704 08:30:53.241530 18982 layer_factory.hpp:76] Creating layer relu3
I0704 08:30:53.241538 18982 net.cpp:109] Creating Layer relu3
I0704 08:30:53.241540 18982 net.cpp:457] relu3 <- conv3
I0704 08:30:53.241544 18982 net.cpp:400] relu3 -> conv3 (in-place)
I0704 08:30:53.241551 18982 net.cpp:153] Setting up relu3
I0704 08:30:53.241554 18982 net.cpp:160] Top shape: 32 384 23 23 (6500352)
I0704 08:30:53.241555 18982 net.cpp:168] Memory required for data: 183427200
I0704 08:30:53.241557 18982 layer_factory.hpp:76] Creating layer conv4
I0704 08:30:53.241564 18982 net.cpp:109] Creating Layer conv4
I0704 08:30:53.241565 18982 net.cpp:457] conv4 <- conv3
I0704 08:30:53.241569 18982 net.cpp:414] conv4 -> conv4
I0704 08:30:53.254894 18982 net.cpp:153] Setting up conv4
I0704 08:30:53.254910 18982 net.cpp:160] Top shape: 32 384 23 23 (6500352)
I0704 08:30:53.254914 18982 net.cpp:168] Memory required for data: 209428608
I0704 08:30:53.254922 18982 layer_factory.hpp:76] Creating layer relu4
I0704 08:30:53.254930 18982 net.cpp:109] Creating Layer relu4
I0704 08:30:53.254932 18982 net.cpp:457] relu4 <- conv4
I0704 08:30:53.254936 18982 net.cpp:400] relu4 -> conv4 (in-place)
I0704 08:30:53.254943 18982 net.cpp:153] Setting up relu4
I0704 08:30:53.254945 18982 net.cpp:160] Top shape: 32 384 23 23 (6500352)
I0704 08:30:53.254947 18982 net.cpp:168] Memory required for data: 235430016
I0704 08:30:53.254950 18982 layer_factory.hpp:76] Creating layer conv5
I0704 08:30:53.254956 18982 net.cpp:109] Creating Layer conv5
I0704 08:30:53.254958 18982 net.cpp:457] conv5 <- conv4
I0704 08:30:53.254962 18982 net.cpp:414] conv5 -> conv5
I0704 08:30:53.272960 18982 net.cpp:153] Setting up conv5
I0704 08:30:53.272979 18982 net.cpp:160] Top shape: 32 256 23 23 (4333568)
I0704 08:30:53.272981 18982 net.cpp:168] Memory required for data: 252764288
I0704 08:30:53.272991 18982 layer_factory.hpp:76] Creating layer relu5
I0704 08:30:53.272999 18982 net.cpp:109] Creating Layer relu5
I0704 08:30:53.273001 18982 net.cpp:457] relu5 <- conv5
I0704 08:30:53.273006 18982 net.cpp:400] relu5 -> conv5 (in-place)
I0704 08:30:53.273031 18982 net.cpp:153] Setting up relu5
I0704 08:30:53.273036 18982 net.cpp:160] Top shape: 32 256 23 23 (4333568)
I0704 08:30:53.273037 18982 net.cpp:168] Memory required for data: 270098560
I0704 08:30:53.273039 18982 layer_factory.hpp:76] Creating layer pool5
I0704 08:30:53.273043 18982 net.cpp:109] Creating Layer pool5
I0704 08:30:53.273046 18982 net.cpp:457] pool5 <- conv5
I0704 08:30:53.273049 18982 net.cpp:414] pool5 -> pool5
I0704 08:30:53.273092 18982 net.cpp:153] Setting up pool5
I0704 08:30:53.273102 18982 net.cpp:160] Top shape: 32 256 11 11 (991232)
I0704 08:30:53.273104 18982 net.cpp:168] Memory required for data: 274063488
I0704 08:30:53.273108 18982 layer_factory.hpp:76] Creating layer fc6
I0704 08:30:53.273115 18982 net.cpp:109] Creating Layer fc6
I0704 08:30:53.273119 18982 net.cpp:457] fc6 <- pool5
I0704 08:30:53.273124 18982 net.cpp:414] fc6 -> fc6
I0704 08:30:53.441334 18999 blocking_queue.cpp:50] Waiting for data
I0704 08:30:55.667476 18982 net.cpp:153] Setting up fc6
I0704 08:30:55.667495 18982 net.cpp:160] Top shape: 32 4096 (131072)
I0704 08:30:55.667498 18982 net.cpp:168] Memory required for data: 274587776
I0704 08:30:55.667503 18982 layer_factory.hpp:76] Creating layer relu6
I0704 08:30:55.667510 18982 net.cpp:109] Creating Layer relu6
I0704 08:30:55.667513 18982 net.cpp:457] relu6 <- fc6
I0704 08:30:55.667517 18982 net.cpp:400] relu6 -> fc6 (in-place)
I0704 08:30:55.667526 18982 net.cpp:153] Setting up relu6
I0704 08:30:55.667527 18982 net.cpp:160] Top shape: 32 4096 (131072)
I0704 08:30:55.667529 18982 net.cpp:168] Memory required for data: 275112064
I0704 08:30:55.667531 18982 layer_factory.hpp:76] Creating layer drop6
I0704 08:30:55.667536 18982 net.cpp:109] Creating Layer drop6
I0704 08:30:55.667537 18982 net.cpp:457] drop6 <- fc6
I0704 08:30:55.667539 18982 net.cpp:400] drop6 -> fc6 (in-place)
I0704 08:30:55.667559 18982 net.cpp:153] Setting up drop6
I0704 08:30:55.667562 18982 net.cpp:160] Top shape: 32 4096 (131072)
I0704 08:30:55.667564 18982 net.cpp:168] Memory required for data: 275636352
I0704 08:30:55.667567 18982 layer_factory.hpp:76] Creating layer fc7
I0704 08:30:55.667570 18982 net.cpp:109] Creating Layer fc7
I0704 08:30:55.667572 18982 net.cpp:457] fc7 <- fc6
I0704 08:30:55.667575 18982 net.cpp:414] fc7 -> fc7
I0704 08:30:55.984603 18982 net.cpp:153] Setting up fc7
I0704 08:30:55.984622 18982 net.cpp:160] Top shape: 32 4096 (131072)
I0704 08:30:55.984623 18982 net.cpp:168] Memory required for data: 276160640
I0704 08:30:55.984632 18982 layer_factory.hpp:76] Creating layer relu7
I0704 08:30:55.984638 18982 net.cpp:109] Creating Layer relu7
I0704 08:30:55.984642 18982 net.cpp:457] relu7 <- fc7
I0704 08:30:55.984644 18982 net.cpp:400] relu7 -> fc7 (in-place)
I0704 08:30:55.984650 18982 net.cpp:153] Setting up relu7
I0704 08:30:55.984653 18982 net.cpp:160] Top shape: 32 4096 (131072)
I0704 08:30:55.984654 18982 net.cpp:168] Memory required for data: 276684928
I0704 08:30:55.984657 18982 layer_factory.hpp:76] Creating layer drop7
I0704 08:30:55.984661 18982 net.cpp:109] Creating Layer drop7
I0704 08:30:55.984663 18982 net.cpp:457] drop7 <- fc7
I0704 08:30:55.984665 18982 net.cpp:400] drop7 -> fc7 (in-place)
I0704 08:30:55.984683 18982 net.cpp:153] Setting up drop7
I0704 08:30:55.984685 18982 net.cpp:160] Top shape: 32 4096 (131072)
I0704 08:30:55.984686 18982 net.cpp:168] Memory required for data: 277209216
I0704 08:30:55.984688 18982 layer_factory.hpp:76] Creating layer fc8_species
I0704 08:30:55.984694 18982 net.cpp:109] Creating Layer fc8_species
I0704 08:30:55.984694 18982 net.cpp:457] fc8_species <- fc7
I0704 08:30:55.984697 18982 net.cpp:414] fc8_species -> fc8_species
I0704 08:30:56.095327 18982 net.cpp:153] Setting up fc8_species
I0704 08:30:56.095345 18982 net.cpp:160] Top shape: 32 967 (30944)
I0704 08:30:56.095348 18982 net.cpp:168] Memory required for data: 277332992
I0704 08:30:56.095353 18982 layer_factory.hpp:76] Creating layer fc8_species_fc8_species_0_split
I0704 08:30:56.095360 18982 net.cpp:109] Creating Layer fc8_species_fc8_species_0_split
I0704 08:30:56.095378 18982 net.cpp:457] fc8_species_fc8_species_0_split <- fc8_species
I0704 08:30:56.095382 18982 net.cpp:414] fc8_species_fc8_species_0_split -> fc8_species_fc8_species_0_split_0
I0704 08:30:56.095387 18982 net.cpp:414] fc8_species_fc8_species_0_split -> fc8_species_fc8_species_0_split_1
I0704 08:30:56.095412 18982 net.cpp:153] Setting up fc8_species_fc8_species_0_split
I0704 08:30:56.095414 18982 net.cpp:160] Top shape: 32 967 (30944)
I0704 08:30:56.095417 18982 net.cpp:160] Top shape: 32 967 (30944)
I0704 08:30:56.095418 18982 net.cpp:168] Memory required for data: 277580544
I0704 08:30:56.095420 18982 layer_factory.hpp:76] Creating layer loss
I0704 08:30:56.095423 18982 net.cpp:109] Creating Layer loss
I0704 08:30:56.095425 18982 net.cpp:457] loss <- fc8_species_fc8_species_0_split_0
I0704 08:30:56.095428 18982 net.cpp:457] loss <- label_label_0_split_0
I0704 08:30:56.095430 18982 net.cpp:414] loss -> loss
…
