…
I0706 13:34:00.081965  1643 net.cpp:52] Initializing net from parameters:
state {
phase: TRAIN
}
layer {
name: "data"
type: "Data"
top: "data"
include {
phase: TRAIN
}
transform_param {
mean_file: "/home/ffw/scratch/plantClef/scatnet_output/train/a4_m3_s1s2s4_f2/lmdb_mean_coeff.binaryproto"
}
data_param {
source: "/home/ffw/scratch/plantClef/scatnet_output/train/a4_m3_s1s2s4_f2/lmdb_data"
batch_size: 64
backend: LMDB
}
}
layer {
name: "label"
type: "Data"
top: "label"
include {
phase: TRAIN
}
data_param {
source: "/home/ffw/scratch/plantClef/scatnet_output/train/a4_m3_s1s2s4_f2/lmdb_labels"
batch_size: 64
backend: LMDB
}
}
layer {
name: "pool1"
type: "Pooling"
bottom: "data"
top: "pool1"
pooling_param {
pool: MAX
kernel_size: 6
stride: 5
}
}
layer {
name: "conv3"
type: "Convolution"
bottom: "pool1"
top: "conv3"
param {
lr_mult: 1
decay_mult: 1
}
param {
lr_mult: 2
decay_mult: 0
}
convolution_param {
num_output: 384
pad: 1
kernel_size: 3
weight_filler {
type: "gaussian"
std: 0.01
}
bias_filler {
type: "constant"
value: 0
}
}
}
layer {
name: "relu3"
type: "ReLU"
bottom: "conv3"
top: "conv3"
}
layer {
name: "conv4"
type: "Convolution"
bottom: "conv3"
top: "conv4"
param {
lr_mult: 1
decay_mult: 1
}
param {
lr_mult: 2
decay_mult: 0
}
convolution_param {
num_output: 384
pad: 1
kernel_size: 3
group: 2
weight_filler {
type: "gaussian"
std: 0.01
}
bias_filler {
type: "constant"
value: 0.1
}
}
}
layer {
name: "relu4"
type: "ReLU"
bottom: "conv4"
top: "conv4"
}
layer {
name: "conv5"
type: "Convolution"
bottom: "conv4"
top: "conv5"
param {
lr_mult: 1
decay_mult: 1
}
param {
lr_mult: 2
decay_mult: 0
}
convolution_param {
num_output: 256
pad: 1
kernel_size: 3
group: 1
weight_filler {
type: "gaussian"
std: 0.01
}
bias_filler {
type: "constant"
value: 0.1
}
}
}
layer {
name: "relu5"
type: "ReLU"
bottom: "conv5"
top: "conv5"
}
layer {
name: "pool5"
type: "Pooling"
bottom: "conv5"
top: "pool5"
pooling_param {
pool: MAX
kernel_size: 3
stride: 2
}
}
layer {
name: "fc6"
type: "InnerProduct"
bottom: "pool5"
top: "fc6"
param {
lr_mult: 1
decay_mult: 1
}
param {
lr_mult: 2
decay_mult: 0
}
inner_product_param {
num_output: 4096
weight_filler {
type: "gaussian"
std: 0.005
}
bias_filler {
type: "constant"
value: 0.1
}
}
}
layer {
name: "relu6"
type: "ReLU"
bottom: "fc6"
top: "fc6"
}
layer {
name: "drop6"
type: "Dropout"
bottom: "fc6"
top: "fc6"
dropout_param {
dropout_ratio: 0.5
}
}
layer {
name: "fc7"
type: "InnerProduct"
bottom: "fc6"
top: "fc7"
param {
lr_mult: 1
decay_mult: 1
}
param {
lr_mult: 2
decay_mult: 0
}
inner_product_param {
num_output: 4096
weight_filler {
type: "gaussian"
std: 0.005
}
bias_filler {
type: "constant"
value: 0.1
}
}
}
layer {
name: "relu7"
type: "ReLU"
bottom: "fc7"
top: "fc7"
}
layer {
name: "drop7"
type: "Dropout"
bottom: "fc7"
top: "fc7"
dropout_param {
dropout_ratio: 0.5
}
}
layer {
name: "fc8_species"
type: "InnerProduct"
bottom: "fc7"
top: "fc8_species"
param {
lr_mult: 1
decay_mult: 1
}
param {
lr_mult: 2
decay_mult: 0
}
inner_product_param {
num_output: 967
weight_filler {
type: "gaussian"
std: 0.005
}
bias_filler {
type: "constant"
value: 0.1
}
}
}
layer {
name: "loss"
type: "SoftmaxWithLoss"
bottom: "fc8_species"
bottom: "label"
top: "loss"
}
I0706 13:34:00.082020  1643 layer_factory.hpp:76] Creating layer data
I0706 13:34:00.082092  1643 net.cpp:109] Creating Layer data
I0706 13:34:00.082105  1643 net.cpp:414] data -> data
I0706 13:34:00.082118  1643 data_transformer.cpp:25] Loading mean file from: /home/ffw/scratch/plantClef/scatnet_output/train/a4_m3_s1s2s4_f2/lmdb_mean_coeff.binaryproto
I0706 13:34:00.086784  1655 db_lmdb.cpp:36] Opened lmdb /home/ffw/scratch/plantClef/scatnet_output/train/a4_m3_s1s2s4_f2/lmdb_data
I0706 13:34:00.099761  1643 data_layer.cpp:45] output data size: 64,375,47,47
I0706 13:34:00.322435  1643 net.cpp:153] Setting up data
I0706 13:34:00.322468  1643 net.cpp:160] Top shape: 64 375 47 47 (53016000)
I0706 13:34:00.322471  1643 net.cpp:168] Memory required for data: 212064000
I0706 13:34:00.322475  1643 layer_factory.hpp:76] Creating layer label
I0706 13:34:00.322640  1643 net.cpp:109] Creating Layer label
I0706 13:34:00.322649  1643 net.cpp:414] label -> label
I0706 13:34:00.328887  1657 db_lmdb.cpp:36] Opened lmdb /home/ffw/scratch/plantClef/scatnet_output/train/a4_m3_s1s2s4_f2/lmdb_labels
I0706 13:34:00.341603  1643 data_layer.cpp:45] output data size: 64,1,1,1
I0706 13:34:00.341734  1643 net.cpp:153] Setting up label
I0706 13:34:00.341742  1643 net.cpp:160] Top shape: 64 1 1 1 (64)
I0706 13:34:00.341745  1643 net.cpp:168] Memory required for data: 212064256
I0706 13:34:00.341748  1643 layer_factory.hpp:76] Creating layer pool1
I0706 13:34:00.341758  1643 net.cpp:109] Creating Layer pool1
I0706 13:34:00.341759  1643 net.cpp:457] pool1 <- data
I0706 13:34:00.341768  1643 net.cpp:414] pool1 -> pool1
I0706 13:34:00.341809  1643 net.cpp:153] Setting up pool1
I0706 13:34:00.341812  1643 net.cpp:160] Top shape: 64 375 10 10 (2400000)
I0706 13:34:00.341814  1643 net.cpp:168] Memory required for data: 221664256
I0706 13:34:00.341816  1643 layer_factory.hpp:76] Creating layer conv3
I0706 13:34:00.341822  1643 net.cpp:109] Creating Layer conv3
I0706 13:34:00.341825  1643 net.cpp:457] conv3 <- pool1
I0706 13:34:00.341827  1643 net.cpp:414] conv3 -> conv3
I0706 13:34:00.367624  1643 net.cpp:153] Setting up conv3
I0706 13:34:00.367645  1643 net.cpp:160] Top shape: 64 384 10 10 (2457600)
I0706 13:34:00.367647  1643 net.cpp:168] Memory required for data: 231494656
I0706 13:34:00.367660  1643 layer_factory.hpp:76] Creating layer relu3
I0706 13:34:00.367669  1643 net.cpp:109] Creating Layer relu3
I0706 13:34:00.367672  1643 net.cpp:457] relu3 <- conv3
I0706 13:34:00.367676  1643 net.cpp:400] relu3 -> conv3 (in-place)
I0706 13:34:00.367686  1643 net.cpp:153] Setting up relu3
I0706 13:34:00.367688  1643 net.cpp:160] Top shape: 64 384 10 10 (2457600)
I0706 13:34:00.367691  1643 net.cpp:168] Memory required for data: 241325056
I0706 13:34:00.367692  1643 layer_factory.hpp:76] Creating layer conv4
I0706 13:34:00.367698  1643 net.cpp:109] Creating Layer conv4
I0706 13:34:00.367700  1643 net.cpp:457] conv4 <- conv3
I0706 13:34:00.367704  1643 net.cpp:414] conv4 -> conv4
I0706 13:34:00.380962  1643 net.cpp:153] Setting up conv4
I0706 13:34:00.380981  1643 net.cpp:160] Top shape: 64 384 10 10 (2457600)
I0706 13:34:00.380983  1643 net.cpp:168] Memory required for data: 251155456
I0706 13:34:00.380993  1643 layer_factory.hpp:76] Creating layer relu4
I0706 13:34:00.381001  1643 net.cpp:109] Creating Layer relu4
I0706 13:34:00.381006  1643 net.cpp:457] relu4 <- conv4
I0706 13:34:00.381009  1643 net.cpp:400] relu4 -> conv4 (in-place)
I0706 13:34:00.381041  1643 net.cpp:153] Setting up relu4
I0706 13:34:00.381044  1643 net.cpp:160] Top shape: 64 384 10 10 (2457600)
I0706 13:34:00.381047  1643 net.cpp:168] Memory required for data: 260985856
I0706 13:34:00.381048  1643 layer_factory.hpp:76] Creating layer conv5
I0706 13:34:00.381054  1643 net.cpp:109] Creating Layer conv5
I0706 13:34:00.381057  1643 net.cpp:457] conv5 <- conv4
I0706 13:34:00.381060  1643 net.cpp:414] conv5 -> conv5
I0706 13:34:00.398676  1643 net.cpp:153] Setting up conv5
I0706 13:34:00.398694  1643 net.cpp:160] Top shape: 64 256 10 10 (1638400)
I0706 13:34:00.398696  1643 net.cpp:168] Memory required for data: 267539456
I0706 13:34:00.398705  1643 layer_factory.hpp:76] Creating layer relu5
I0706 13:34:00.398713  1643 net.cpp:109] Creating Layer relu5
I0706 13:34:00.398717  1643 net.cpp:457] relu5 <- conv5
I0706 13:34:00.398721  1643 net.cpp:400] relu5 -> conv5 (in-place)
I0706 13:34:00.398728  1643 net.cpp:153] Setting up relu5
I0706 13:34:00.398732  1643 net.cpp:160] Top shape: 64 256 10 10 (1638400)
I0706 13:34:00.398733  1643 net.cpp:168] Memory required for data: 274093056
I0706 13:34:00.398736  1643 layer_factory.hpp:76] Creating layer pool5
I0706 13:34:00.398741  1643 net.cpp:109] Creating Layer pool5
I0706 13:34:00.398742  1643 net.cpp:457] pool5 <- conv5
I0706 13:34:00.398746  1643 net.cpp:414] pool5 -> pool5
I0706 13:34:00.398775  1643 net.cpp:153] Setting up pool5
I0706 13:34:00.398778  1643 net.cpp:160] Top shape: 64 256 5 5 (409600)
I0706 13:34:00.398780  1643 net.cpp:168] Memory required for data: 275731456
I0706 13:34:00.398782  1643 layer_factory.hpp:76] Creating layer fc6
I0706 13:34:00.398787  1643 net.cpp:109] Creating Layer fc6
I0706 13:34:00.398790  1643 net.cpp:457] fc6 <- pool5
I0706 13:34:00.398793  1643 net.cpp:414] fc6 -> fc6
I0706 13:34:00.595369  1656 blocking_queue.cpp:50] Waiting for data
I0706 13:34:00.890580  1643 net.cpp:153] Setting up fc6
I0706 13:34:00.890596  1643 net.cpp:160] Top shape: 64 4096 (262144)
I0706 13:34:00.890599  1643 net.cpp:168] Memory required for data: 276780032
I0706 13:34:00.890604  1643 layer_factory.hpp:76] Creating layer relu6
I0706 13:34:00.890610  1643 net.cpp:109] Creating Layer relu6
I0706 13:34:00.890614  1643 net.cpp:457] relu6 <- fc6
I0706 13:34:00.890616  1643 net.cpp:400] relu6 -> fc6 (in-place)
I0706 13:34:00.890624  1643 net.cpp:153] Setting up relu6
I0706 13:34:00.890625  1643 net.cpp:160] Top shape: 64 4096 (262144)
I0706 13:34:00.890627  1643 net.cpp:168] Memory required for data: 277828608
I0706 13:34:00.890630  1643 layer_factory.hpp:76] Creating layer drop6
I0706 13:34:00.890637  1643 net.cpp:109] Creating Layer drop6
I0706 13:34:00.890640  1643 net.cpp:457] drop6 <- fc6
I0706 13:34:00.890642  1643 net.cpp:400] drop6 -> fc6 (in-place)
I0706 13:34:00.890657  1643 net.cpp:153] Setting up drop6
I0706 13:34:00.890661  1643 net.cpp:160] Top shape: 64 4096 (262144)
I0706 13:34:00.890662  1643 net.cpp:168] Memory required for data: 278877184
I0706 13:34:00.890664  1643 layer_factory.hpp:76] Creating layer fc7
I0706 13:34:00.890668  1643 net.cpp:109] Creating Layer fc7
I0706 13:34:00.890671  1643 net.cpp:457] fc7 <- fc6
I0706 13:34:00.890673  1643 net.cpp:414] fc7 -> fc7
I0706 13:34:01.193694  1643 net.cpp:153] Setting up fc7
I0706 13:34:01.193711  1643 net.cpp:160] Top shape: 64 4096 (262144)
I0706 13:34:01.193712  1643 net.cpp:168] Memory required for data: 279925760
I0706 13:34:01.193720  1643 layer_factory.hpp:76] Creating layer relu7
I0706 13:34:01.193727  1643 net.cpp:109] Creating Layer relu7
I0706 13:34:01.193728  1643 net.cpp:457] relu7 <- fc7
I0706 13:34:01.193732  1643 net.cpp:400] relu7 -> fc7 (in-place)
I0706 13:34:01.193738  1643 net.cpp:153] Setting up relu7
I0706 13:34:01.193742  1643 net.cpp:160] Top shape: 64 4096 (262144)
I0706 13:34:01.193742  1643 net.cpp:168] Memory required for data: 280974336
I0706 13:34:01.193744  1643 layer_factory.hpp:76] Creating layer drop7
I0706 13:34:01.193748  1643 net.cpp:109] Creating Layer drop7
I0706 13:34:01.193750  1643 net.cpp:457] drop7 <- fc7
I0706 13:34:01.193765  1643 net.cpp:400] drop7 -> fc7 (in-place)
I0706 13:34:01.193778  1643 net.cpp:153] Setting up drop7
I0706 13:34:01.193781  1643 net.cpp:160] Top shape: 64 4096 (262144)
I0706 13:34:01.193783  1643 net.cpp:168] Memory required for data: 282022912
I0706 13:34:01.193784  1643 layer_factory.hpp:76] Creating layer fc8_species
I0706 13:34:01.193790  1643 net.cpp:109] Creating Layer fc8_species
I0706 13:34:01.193791  1643 net.cpp:457] fc8_species <- fc7
I0706 13:34:01.193794  1643 net.cpp:414] fc8_species -> fc8_species
I0706 13:34:01.270161  1643 net.cpp:153] Setting up fc8_species
I0706 13:34:01.270179  1643 net.cpp:160] Top shape: 64 967 (61888)
I0706 13:34:01.270181  1643 net.cpp:168] Memory required for data: 282270464
I0706 13:34:01.270187  1643 layer_factory.hpp:76] Creating layer loss
I0706 13:34:01.270195  1643 net.cpp:109] Creating Layer loss
I0706 13:34:01.270197  1643 net.cpp:457] loss <- fc8_species
I0706 13:34:01.270201  1643 net.cpp:457] loss <- label
I0706 13:34:01.270205  1643 net.cpp:414] loss -> loss
I0706 13:34:01.270220  1643 layer_factory.hpp:76] Creating layer loss
…
I0706 13:34:01.272586  1643 net.cpp:52] Initializing net from parameters:
state {
phase: TEST
}
layer {
name: "data"
type: "Data"
top: "data"
include {
phase: TEST
}
transform_param {
mean_file: "/home/ffw/scratch/plantClef/scatnet_output/train/a4_m3_s1s2s4_f2/lmdb_mean_coeff.binaryproto"
}
data_param {
source: "/home/ffw/scratch/plantClef/scatnet_output/test/a4_m3_s1s2s4_f2/lmdb_data"
batch_size: 64
backend: LMDB
}
}
layer {
name: "label"
type: "Data"
top: "label"
include {
phase: TEST
}
data_param {
source: "/home/ffw/scratch/plantClef/scatnet_output/test/a4_m3_s1s2s4_f2/lmdb_labels"
batch_size: 64
backend: LMDB
}
}
layer {
name: "pool1"
type: "Pooling"
bottom: "data"
top: "pool1"
pooling_param {
pool: MAX
kernel_size: 6
stride: 5
}
}
layer {
name: "conv3"
type: "Convolution"
bottom: "pool1"
top: "conv3"
param {
lr_mult: 1
decay_mult: 1
}
param {
lr_mult: 2
decay_mult: 0
}
convolution_param {
num_output: 384
pad: 1
kernel_size: 3
weight_filler {
type: "gaussian"
std: 0.01
}
bias_filler {
type: "constant"
value: 0
}
}
}
layer {
name: "relu3"
type: "ReLU"
bottom: "conv3"
top: "conv3"
}
layer {
name: "conv4"
type: "Convolution"
bottom: "conv3"
top: "conv4"
param {
lr_mult: 1
decay_mult: 1
}
param {
lr_mult: 2
decay_mult: 0
}
convolution_param {
num_output: 384
pad: 1
kernel_size: 3
group: 2
weight_filler {
type: "gaussian"
std: 0.01
}
bias_filler {
type: "constant"
value: 0.1
}
}
}
layer {
name: "relu4"
type: "ReLU"
bottom: "conv4"
top: "conv4"
}
layer {
name: "conv5"
type: "Convolution"
bottom: "conv4"
top: "conv5"
param {
lr_mult: 1
decay_mult: 1
}
param {
lr_mult: 2
decay_mult: 0
}
convolution_param {
num_output: 256
pad: 1
kernel_size: 3
group: 1
weight_filler {
type: "gaussian"
std: 0.01
}
bias_filler {
type: "constant"
value: 0.1
}
}
}
layer {
name: "relu5"
type: "ReLU"
bottom: "conv5"
top: "conv5"
}
layer {
name: "pool5"
type: "Pooling"
bottom: "conv5"
top: "pool5"
pooling_param {
pool: MAX
kernel_size: 3
stride: 2
}
}
layer {
name: "fc6"
type: "InnerProduct"
bottom: "pool5"
top: "fc6"
param {
lr_mult: 1
decay_mult: 1
}
param {
lr_mult: 2
decay_mult: 0
}
inner_product_param {
num_output: 4096
weight_filler {
type: "gaussian"
std: 0.005
}
bias_filler {
type: "constant"
value: 0.1
}
}
}
layer {
name: "relu6"
type: "ReLU"
bottom: "fc6"
top: "fc6"
}
layer {
name: "drop6"
type: "Dropout"
bottom: "fc6"
top: "fc6"
dropout_param {
dropout_ratio: 0.5
}
}
layer {
name: "fc7"
type: "InnerProduct"
bottom: "fc6"
top: "fc7"
param {
lr_mult: 1
decay_mult: 1
}
param {
lr_mult: 2
decay_mult: 0
}
inner_product_param {
num_output: 4096
weight_filler {
type: "gaussian"
std: 0.005
}
bias_filler {
type: "constant"
value: 0.1
}
}
}
layer {
name: "relu7"
type: "ReLU"
bottom: "fc7"
top: "fc7"
}
layer {
name: "drop7"
type: "Dropout"
bottom: "fc7"
top: "fc7"
dropout_param {
dropout_ratio: 0.5
}
}
layer {
name: "fc8_species"
type: "InnerProduct"
bottom: "fc7"
top: "fc8_species"
param {
lr_mult: 1
decay_mult: 1
}
param {
lr_mult: 2
decay_mult: 0
}
inner_product_param {
num_output: 967
weight_filler {
type: "gaussian"
std: 0.005
}
bias_filler {
type: "constant"
value: 0.1
}
}
}
layer {
name: "loss"
type: "SoftmaxWithLoss"
bottom: "fc8_species"
bottom: "label"
top: "loss"
}
layer {
name: "accuracy"
type: "Accuracy"
bottom: "fc8_species"
bottom: "label"
top: "accuracy"
include {
phase: TEST
}
}
I0706 13:34:01.272651  1643 layer_factory.hpp:76] Creating layer data
I0706 13:34:01.272716  1643 net.cpp:109] Creating Layer data
I0706 13:34:01.272722  1643 net.cpp:414] data -> data
I0706 13:34:01.272727  1643 data_transformer.cpp:25] Loading mean file from: /home/ffw/scratch/plantClef/scatnet_output/train/a4_m3_s1s2s4_f2/lmdb_mean_coeff.binaryproto
I0706 13:34:01.276962  1659 db_lmdb.cpp:36] Opened lmdb /home/ffw/scratch/plantClef/scatnet_output/test/a4_m3_s1s2s4_f2/lmdb_data
I0706 13:34:01.286473  1643 data_layer.cpp:45] output data size: 64,375,47,47
I0706 13:34:01.505431  1643 net.cpp:153] Setting up data
I0706 13:34:01.505448  1643 net.cpp:160] Top shape: 64 375 47 47 (53016000)
I0706 13:34:01.505451  1643 net.cpp:168] Memory required for data: 212064000
I0706 13:34:01.505455  1643 layer_factory.hpp:76] Creating layer label
I0706 13:34:01.505506  1643 net.cpp:109] Creating Layer label
I0706 13:34:01.505534  1643 net.cpp:414] label -> label
I0706 13:34:01.699642  1661 db_lmdb.cpp:36] Opened lmdb /home/ffw/scratch/plantClef/scatnet_output/test/a4_m3_s1s2s4_f2/lmdb_labels
I0706 13:34:01.744729  1643 data_layer.cpp:45] output data size: 64,1,1,1
I0706 13:34:01.744979  1643 net.cpp:153] Setting up label
I0706 13:34:01.744992  1643 net.cpp:160] Top shape: 64 1 1 1 (64)
I0706 13:34:01.744994  1643 net.cpp:168] Memory required for data: 212064256
I0706 13:34:01.744998  1643 layer_factory.hpp:76] Creating layer label_label_0_split
I0706 13:34:01.745012  1643 net.cpp:109] Creating Layer label_label_0_split
I0706 13:34:01.745018  1643 net.cpp:457] label_label_0_split <- label
I0706 13:34:01.745021  1643 net.cpp:414] label_label_0_split -> label_label_0_split_0
I0706 13:34:01.745038  1643 net.cpp:414] label_label_0_split -> label_label_0_split_1
I0706 13:34:01.745241  1643 net.cpp:153] Setting up label_label_0_split
I0706 13:34:01.745262  1643 net.cpp:160] Top shape: 64 1 1 1 (64)
I0706 13:34:01.745265  1643 net.cpp:160] Top shape: 64 1 1 1 (64)
I0706 13:34:01.745267  1643 net.cpp:168] Memory required for data: 212064768
I0706 13:34:01.745270  1643 layer_factory.hpp:76] Creating layer pool1
I0706 13:34:01.745276  1643 net.cpp:109] Creating Layer pool1
I0706 13:34:01.745288  1643 net.cpp:457] pool1 <- data
I0706 13:34:01.745292  1643 net.cpp:414] pool1 -> pool1
I0706 13:34:01.745318  1643 net.cpp:153] Setting up pool1
I0706 13:34:01.745321  1643 net.cpp:160] Top shape: 64 375 10 10 (2400000)
I0706 13:34:01.745323  1643 net.cpp:168] Memory required for data: 221664768
I0706 13:34:01.745326  1643 layer_factory.hpp:76] Creating layer conv3
I0706 13:34:01.745332  1643 net.cpp:109] Creating Layer conv3
I0706 13:34:01.745344  1643 net.cpp:457] conv3 <- pool1
I0706 13:34:01.745347  1643 net.cpp:414] conv3 -> conv3
I0706 13:34:01.771412  1643 net.cpp:153] Setting up conv3
I0706 13:34:01.771442  1643 net.cpp:160] Top shape: 64 384 10 10 (2457600)
I0706 13:34:01.771446  1643 net.cpp:168] Memory required for data: 231495168
I0706 13:34:01.771455  1643 layer_factory.hpp:76] Creating layer relu3
I0706 13:34:01.771461  1643 net.cpp:109] Creating Layer relu3
I0706 13:34:01.771464  1643 net.cpp:457] relu3 <- conv3
I0706 13:34:01.771468  1643 net.cpp:400] relu3 -> conv3 (in-place)
I0706 13:34:01.771484  1643 net.cpp:153] Setting up relu3
I0706 13:34:01.771487  1643 net.cpp:160] Top shape: 64 384 10 10 (2457600)
I0706 13:34:01.771489  1643 net.cpp:168] Memory required for data: 241325568
I0706 13:34:01.771492  1643 layer_factory.hpp:76] Creating layer conv4
I0706 13:34:01.771497  1643 net.cpp:109] Creating Layer conv4
I0706 13:34:01.771499  1643 net.cpp:457] conv4 <- conv3
I0706 13:34:01.771502  1643 net.cpp:414] conv4 -> conv4
I0706 13:34:01.784982  1643 net.cpp:153] Setting up conv4
I0706 13:34:01.785001  1643 net.cpp:160] Top shape: 64 384 10 10 (2457600)
I0706 13:34:01.785003  1643 net.cpp:168] Memory required for data: 251155968
I0706 13:34:01.785013  1643 layer_factory.hpp:76] Creating layer relu4
I0706 13:34:01.785022  1643 net.cpp:109] Creating Layer relu4
I0706 13:34:01.785025  1643 net.cpp:457] relu4 <- conv4
I0706 13:34:01.785030  1643 net.cpp:400] relu4 -> conv4 (in-place)
I0706 13:34:01.785037  1643 net.cpp:153] Setting up relu4
I0706 13:34:01.785040  1643 net.cpp:160] Top shape: 64 384 10 10 (2457600)
I0706 13:34:01.785043  1643 net.cpp:168] Memory required for data: 260986368
I0706 13:34:01.785045  1643 layer_factory.hpp:76] Creating layer conv5
I0706 13:34:01.785053  1643 net.cpp:109] Creating Layer conv5
I0706 13:34:01.785054  1643 net.cpp:457] conv5 <- conv4
I0706 13:34:01.785059  1643 net.cpp:414] conv5 -> conv5
I0706 13:34:01.802928  1643 net.cpp:153] Setting up conv5
I0706 13:34:01.802945  1643 net.cpp:160] Top shape: 64 256 10 10 (1638400)
I0706 13:34:01.802948  1643 net.cpp:168] Memory required for data: 267539968
I0706 13:34:01.802968  1643 layer_factory.hpp:76] Creating layer relu5
I0706 13:34:01.802978  1643 net.cpp:109] Creating Layer relu5
I0706 13:34:01.802981  1643 net.cpp:457] relu5 <- conv5
I0706 13:34:01.803004  1643 net.cpp:400] relu5 -> conv5 (in-place)
I0706 13:34:01.803021  1643 net.cpp:153] Setting up relu5
I0706 13:34:01.803025  1643 net.cpp:160] Top shape: 64 256 10 10 (1638400)
I0706 13:34:01.803035  1643 net.cpp:168] Memory required for data: 274093568
I0706 13:34:01.803037  1643 layer_factory.hpp:76] Creating layer pool5
I0706 13:34:01.803042  1643 net.cpp:109] Creating Layer pool5
I0706 13:34:01.803045  1643 net.cpp:457] pool5 <- conv5
I0706 13:34:01.803048  1643 net.cpp:414] pool5 -> pool5
I0706 13:34:01.803084  1643 net.cpp:153] Setting up pool5
I0706 13:34:01.803088  1643 net.cpp:160] Top shape: 64 256 5 5 (409600)
I0706 13:34:01.803091  1643 net.cpp:168] Memory required for data: 275731968
I0706 13:34:01.803092  1643 layer_factory.hpp:76] Creating layer fc6
I0706 13:34:01.803097  1643 net.cpp:109] Creating Layer fc6
I0706 13:34:01.803099  1643 net.cpp:457] fc6 <- pool5
I0706 13:34:01.803102  1643 net.cpp:414] fc6 -> fc6
I0706 13:34:02.324744  1643 net.cpp:153] Setting up fc6
I0706 13:34:02.324762  1643 net.cpp:160] Top shape: 64 4096 (262144)
I0706 13:34:02.324764  1643 net.cpp:168] Memory required for data: 276780544
I0706 13:34:02.324770  1643 layer_factory.hpp:76] Creating layer relu6
I0706 13:34:02.324776  1643 net.cpp:109] Creating Layer relu6
I0706 13:34:02.324779  1643 net.cpp:457] relu6 <- fc6
I0706 13:34:02.324784  1643 net.cpp:400] relu6 -> fc6 (in-place)
I0706 13:34:02.324790  1643 net.cpp:153] Setting up relu6
I0706 13:34:02.324792  1643 net.cpp:160] Top shape: 64 4096 (262144)
I0706 13:34:02.324795  1643 net.cpp:168] Memory required for data: 277829120
I0706 13:34:02.324795  1643 layer_factory.hpp:76] Creating layer drop6
I0706 13:34:02.324800  1643 net.cpp:109] Creating Layer drop6
I0706 13:34:02.324801  1643 net.cpp:457] drop6 <- fc6
I0706 13:34:02.324805  1643 net.cpp:400] drop6 -> fc6 (in-place)
I0706 13:34:02.324816  1643 net.cpp:153] Setting up drop6
I0706 13:34:02.324820  1643 net.cpp:160] Top shape: 64 4096 (262144)
I0706 13:34:02.324820  1643 net.cpp:168] Memory required for data: 278877696
I0706 13:34:02.324822  1643 layer_factory.hpp:76] Creating layer fc7
I0706 13:34:02.324827  1643 net.cpp:109] Creating Layer fc7
I0706 13:34:02.324828  1643 net.cpp:457] fc7 <- fc6
I0706 13:34:02.324831  1643 net.cpp:414] fc7 -> fc7
I0706 13:34:02.651509  1643 net.cpp:153] Setting up fc7
I0706 13:34:02.651525  1643 net.cpp:160] Top shape: 64 4096 (262144)
I0706 13:34:02.651527  1643 net.cpp:168] Memory required for data: 279926272
I0706 13:34:02.651535  1643 layer_factory.hpp:76] Creating layer relu7
I0706 13:34:02.651551  1643 net.cpp:109] Creating Layer relu7
I0706 13:34:02.651554  1643 net.cpp:457] relu7 <- fc7
I0706 13:34:02.651559  1643 net.cpp:400] relu7 -> fc7 (in-place)
I0706 13:34:02.651567  1643 net.cpp:153] Setting up relu7
I0706 13:34:02.651569  1643 net.cpp:160] Top shape: 64 4096 (262144)
I0706 13:34:02.651571  1643 net.cpp:168] Memory required for data: 280974848
I0706 13:34:02.651573  1643 layer_factory.hpp:76] Creating layer drop7
I0706 13:34:02.651578  1643 net.cpp:109] Creating Layer drop7
I0706 13:34:02.651590  1643 net.cpp:457] drop7 <- fc7
I0706 13:34:02.651593  1643 net.cpp:400] drop7 -> fc7 (in-place)
I0706 13:34:02.651617  1643 net.cpp:153] Setting up drop7
I0706 13:34:02.651619  1643 net.cpp:160] Top shape: 64 4096 (262144)
I0706 13:34:02.651620  1643 net.cpp:168] Memory required for data: 282023424
I0706 13:34:02.651623  1643 layer_factory.hpp:76] Creating layer fc8_species
I0706 13:34:02.651628  1643 net.cpp:109] Creating Layer fc8_species
I0706 13:34:02.651629  1643 net.cpp:457] fc8_species <- fc7
I0706 13:34:02.651633  1643 net.cpp:414] fc8_species -> fc8_species
I0706 13:34:02.730448  1643 net.cpp:153] Setting up fc8_species
I0706 13:34:02.730469  1643 net.cpp:160] Top shape: 64 967 (61888)
I0706 13:34:02.730473  1643 net.cpp:168] Memory required for data: 282270976
I0706 13:34:02.730478  1643 layer_factory.hpp:76] Creating layer fc8_species_fc8_species_0_split
I0706 13:34:02.730484  1643 net.cpp:109] Creating Layer fc8_species_fc8_species_0_split
I0706 13:34:02.730511  1643 net.cpp:457] fc8_species_fc8_species_0_split <- fc8_species
I0706 13:34:02.730516  1643 net.cpp:414] fc8_species_fc8_species_0_split -> fc8_species_fc8_species_0_split_0
I0706 13:34:02.730521  1643 net.cpp:414] fc8_species_fc8_species_0_split -> fc8_species_fc8_species_0_split_1
I0706 13:34:02.730553  1643 net.cpp:153] Setting up fc8_species_fc8_species_0_split
I0706 13:34:02.730556  1643 net.cpp:160] Top shape: 64 967 (61888)
I0706 13:34:02.730559  1643 net.cpp:160] Top shape: 64 967 (61888)
I0706 13:34:02.730561  1643 net.cpp:168] Memory required for data: 282766080
I0706 13:34:02.730562  1643 layer_factory.hpp:76] Creating layer loss
I0706 13:34:02.730566  1643 net.cpp:109] Creating Layer loss
I0706 13:34:02.730567  1643 net.cpp:457] loss <- fc8_species_fc8_species_0_split_0
I0706 13:34:02.730569  1643 net.cpp:457] loss <- label_label_0_split_0
I0706 13:34:02.730572  1643 net.cpp:414] loss -> loss
…
