…
I0705 21:48:48.503046 12905 net.cpp:325] The NetState phase (0) differed from the phase (1) specified by a rule in layer accuracy
I0705 21:48:48.503258 12905 net.cpp:52] Initializing net from parameters:
state {
phase: TRAIN
}
layer {
name: "train-data"
type: "Data"
top: "data"
top: "label"
include {
phase: TRAIN
}
transform_param {
mirror: true
crop_size: 227
mean_file: "/home/zml374/workspace/DIGITS/digits/jobs/20160704-085910-0cc9/mean.binaryproto"
}
data_param {
source: "/home/zml374/workspace/DIGITS/digits/jobs/20160704-085910-0cc9/train_db"
batch_size: 200
backend: LMDB
}
}
layer {
name: "conv1"
type: "Convolution"
bottom: "data"
top: "conv1"
param {
lr_mult: 1
decay_mult: 1
}
param {
lr_mult: 2
decay_mult: 0
}
convolution_param {
num_output: 96
kernel_size: 11
stride: 4
weight_filler {
type: "gaussian"
std: 0.01
}
bias_filler {
type: "constant"
value: 0
}
}
}
layer {
name: "relu1"
type: "ReLU"
bottom: "conv1"
top: "conv1"
}
layer {
name: "norm1"
type: "LRN"
bottom: "conv1"
top: "norm1"
lrn_param {
local_size: 5
alpha: 0.0001
beta: 0.75
}
}
layer {
name: "pool1"
type: "Pooling"
bottom: "norm1"
top: "pool1"
pooling_param {
pool: MAX
kernel_size: 3
stride: 2
}
}
layer {
name: "conv2"
type: "Convolution"
bottom: "pool1"
top: "conv2"
param {
lr_mult: 1
decay_mult: 1
}
param {
lr_mult: 2
decay_mult: 0
}
convolution_param {
num_output: 256
pad: 2
kernel_size: 5
group: 2
weight_filler {
type: "gaussian"
std: 0.01
}
bias_filler {
type: "constant"
value: 0.1
}
}
}
layer {
name: "relu2"
type: "ReLU"
bottom: "conv2"
top: "conv2"
}
layer {
name: "norm2"
type: "LRN"
bottom: "conv2"
top: "norm2"
lrn_param {
local_size: 5
alpha: 0.0001
beta: 0.75
}
}
layer {
name: "pool2"
type: "Pooling"
bottom: "norm2"
top: "pool2"
pooling_param {
pool: MAX
kernel_size: 3
stride: 2
}
}
layer {
name: "conv3"
type: "Convolution"
bottom: "pool2"
top: "conv3"
param {
lr_mult: 1
decay_mult: 1
}
param {
lr_mult: 2
decay_mult: 0
}
convolution_param {
num_output: 384
pad: 1
kernel_size: 3
weight_filler {
type: "gaussian"
std: 0.01
}
bias_filler {
type: "constant"
value: 0
}
}
}
layer {
name: "relu3"
type: "ReLU"
bottom: "conv3"
top: "conv3"
}
layer {
name: "conv4_clean"
type: "Convolution"
bottom: "conv3"
top: "conv4_clean"
param {
lr_mult: 1
decay_mult: 1
}
param {
lr_mult: 2
decay_mult: 0
}
convolution_param {
num_output: 384
pad: 1
kernel_size: 3
group: 2
weight_filler {
type: "gaussian"
std: 0.01
}
bias_filler {
type: "constant"
value: 0.1
}
}
}
layer {
name: "relu4"
type: "ReLU"
bottom: "conv4_clean"
top: "conv4_clean"
}
layer {
name: "conv5_clean"
type: "Convolution"
bottom: "conv4_clean"
top: "conv5_clean"
param {
lr_mult: 1
decay_mult: 1
}
param {
lr_mult: 2
decay_mult: 0
}
convolution_param {
num_output: 256
pad: 1
kernel_size: 3
group: 2
weight_filler {
type: "gaussian"
std: 0.01
}
bias_filler {
type: "constant"
value: 0.1
}
}
}
layer {
name: "relu5"
type: "ReLU"
bottom: "conv5_clean"
top: "conv5_clean"
}
layer {
name: "pool5"
type: "Pooling"
bottom: "conv5_clean"
top: "pool5"
pooling_param {
pool: MAX
kernel_size: 3
stride: 2
}
}
layer {
name: "fc6_clean"
type: "InnerProduct"
bottom: "pool5"
top: "fc6_clean"
param {
lr_mult: 1
decay_mult: 1
}
param {
lr_mult: 2
decay_mult: 0
}
inner_product_param {
num_output: 4096
weight_filler {
type: "gaussian"
std: 0.005
}
bias_filler {
type: "constant"
value: 0.1
}
}
}
layer {
name: "relu6"
type: "ReLU"
bottom: "fc6_clean"
top: "fc6_clean"
}
layer {
name: "drop6"
type: "Dropout"
bottom: "fc6_clean"
top: "fc6_clean"
dropout_param {
dropout_ratio: 0.5
}
}
layer {
name: "fc7_clean"
type: "InnerProduct"
bottom: "fc6_clean"
top: "fc7_clean"
param {
lr_mult: 1
decay_mult: 1
}
param {
lr_mult: 2
decay_mult: 0
}
inner_product_param {
num_output: 4096
weight_filler {
type: "gaussian"
std: 0.005
}
bias_filler {
type: "constant"
value: 0.1
}
}
}
layer {
name: "relu7"
type: "ReLU"
bottom: "fc7_clean"
top: "fc7_clean"
}
layer {
name: "drop7"
type: "Dropout"
bottom: "fc7_clean"
top: "fc7_clean"
dropout_param {
dropout_ratio: 0.5
}
}
layer {
name: "fc8_clean"
type: "InnerProduct"
bottom: "fc7_clean"
top: "fc8_clean"
param {
lr_mult: 1
decay_mult: 1
}
param {
lr_mult: 2
decay_mult: 0
}
inner_product_param {
num_output: 967
weight_filler {
type: "gaussian"
std: 0.01
}
bias_filler {
type: "constant"
value: 0
}
}
}
layer {
name: "loss"
type: "SoftmaxWithLoss"
bottom: "fc8_clean"
bottom: "label"
top: "loss"
}
I0705 21:48:48.503393 12905 layer_factory.hpp:76] Creating layer train-data
I0705 21:48:48.504014 12905 net.cpp:109] Creating Layer train-data
I0705 21:48:48.504029 12905 net.cpp:414] train-data -> data
I0705 21:48:48.504055 12905 net.cpp:414] train-data -> label
I0705 21:48:48.504070 12905 data_transformer.cpp:25] Loading mean file from: /home/zml374/workspace/DIGITS/digits/jobs/20160704-085910-0cc9/mean.binaryproto
I0705 21:48:48.506217 12933 db_lmdb.cpp:36] Opened lmdb /home/zml374/workspace/DIGITS/digits/jobs/20160704-085910-0cc9/train_db
I0705 21:48:48.512234 12905 data_layer.cpp:45] output data size: 200,3,227,227
I0705 21:48:48.826061 12905 net.cpp:153] Setting up train-data
I0705 21:48:48.826151 12905 net.cpp:160] Top shape: 200 3 227 227 (30917400)
I0705 21:48:48.826162 12905 net.cpp:160] Top shape: 200 (200)
I0705 21:48:48.826169 12905 net.cpp:168] Memory required for data: 123670400
I0705 21:48:48.826181 12905 layer_factory.hpp:76] Creating layer conv1
I0705 21:48:48.826207 12905 net.cpp:109] Creating Layer conv1
I0705 21:48:48.826215 12905 net.cpp:457] conv1 <- data
I0705 21:48:48.826232 12905 net.cpp:414] conv1 -> conv1
I0705 21:48:48.829941 12905 net.cpp:153] Setting up conv1
I0705 21:48:48.829958 12905 net.cpp:160] Top shape: 200 96 55 55 (58080000)
I0705 21:48:48.829964 12905 net.cpp:168] Memory required for data: 355990400
I0705 21:48:48.829984 12905 layer_factory.hpp:76] Creating layer relu1
I0705 21:48:48.829998 12905 net.cpp:109] Creating Layer relu1
I0705 21:48:48.830004 12905 net.cpp:457] relu1 <- conv1
I0705 21:48:48.830013 12905 net.cpp:400] relu1 -> conv1 (in-place)
I0705 21:48:48.830029 12905 net.cpp:153] Setting up relu1
I0705 21:48:48.830037 12905 net.cpp:160] Top shape: 200 96 55 55 (58080000)
I0705 21:48:48.830042 12905 net.cpp:168] Memory required for data: 588310400
I0705 21:48:48.830047 12905 layer_factory.hpp:76] Creating layer norm1
I0705 21:48:48.830067 12905 net.cpp:109] Creating Layer norm1
I0705 21:48:48.830072 12905 net.cpp:457] norm1 <- conv1
I0705 21:48:48.830095 12905 net.cpp:414] norm1 -> norm1
I0705 21:48:48.830157 12905 net.cpp:153] Setting up norm1
I0705 21:48:48.830168 12905 net.cpp:160] Top shape: 200 96 55 55 (58080000)
I0705 21:48:48.830173 12905 net.cpp:168] Memory required for data: 820630400
I0705 21:48:48.830219 12905 layer_factory.hpp:76] Creating layer pool1
I0705 21:48:48.830232 12905 net.cpp:109] Creating Layer pool1
I0705 21:48:48.830238 12905 net.cpp:457] pool1 <- norm1
I0705 21:48:48.830246 12905 net.cpp:414] pool1 -> pool1
I0705 21:48:48.830299 12905 net.cpp:153] Setting up pool1
I0705 21:48:48.830310 12905 net.cpp:160] Top shape: 200 96 27 27 (13996800)
I0705 21:48:48.830315 12905 net.cpp:168] Memory required for data: 876617600
I0705 21:48:48.830320 12905 layer_factory.hpp:76] Creating layer conv2
I0705 21:48:48.830332 12905 net.cpp:109] Creating Layer conv2
I0705 21:48:48.830338 12905 net.cpp:457] conv2 <- pool1
I0705 21:48:48.830345 12905 net.cpp:414] conv2 -> conv2
I0705 21:48:48.846485 12905 net.cpp:153] Setting up conv2
I0705 21:48:48.846504 12905 net.cpp:160] Top shape: 200 256 27 27 (37324800)
I0705 21:48:48.846509 12905 net.cpp:168] Memory required for data: 1025916800
I0705 21:48:48.846523 12905 layer_factory.hpp:76] Creating layer relu2
I0705 21:48:48.846532 12905 net.cpp:109] Creating Layer relu2
I0705 21:48:48.846537 12905 net.cpp:457] relu2 <- conv2
I0705 21:48:48.846546 12905 net.cpp:400] relu2 -> conv2 (in-place)
I0705 21:48:48.846556 12905 net.cpp:153] Setting up relu2
I0705 21:48:48.846562 12905 net.cpp:160] Top shape: 200 256 27 27 (37324800)
I0705 21:48:48.846567 12905 net.cpp:168] Memory required for data: 1175216000
I0705 21:48:48.846572 12905 layer_factory.hpp:76] Creating layer norm2
I0705 21:48:48.846581 12905 net.cpp:109] Creating Layer norm2
I0705 21:48:48.846586 12905 net.cpp:457] norm2 <- conv2
I0705 21:48:48.846592 12905 net.cpp:414] norm2 -> norm2
I0705 21:48:48.846640 12905 net.cpp:153] Setting up norm2
I0705 21:48:48.846649 12905 net.cpp:160] Top shape: 200 256 27 27 (37324800)
I0705 21:48:48.846653 12905 net.cpp:168] Memory required for data: 1324515200
I0705 21:48:48.846658 12905 layer_factory.hpp:76] Creating layer pool2
I0705 21:48:48.846669 12905 net.cpp:109] Creating Layer pool2
I0705 21:48:48.846674 12905 net.cpp:457] pool2 <- norm2
I0705 21:48:48.846681 12905 net.cpp:414] pool2 -> pool2
I0705 21:48:48.846724 12905 net.cpp:153] Setting up pool2
I0705 21:48:48.846731 12905 net.cpp:160] Top shape: 200 256 13 13 (8652800)
I0705 21:48:48.846736 12905 net.cpp:168] Memory required for data: 1359126400
I0705 21:48:48.846740 12905 layer_factory.hpp:76] Creating layer conv3
I0705 21:48:48.846752 12905 net.cpp:109] Creating Layer conv3
I0705 21:48:48.846757 12905 net.cpp:457] conv3 <- pool2
I0705 21:48:48.846766 12905 net.cpp:414] conv3 -> conv3
I0705 21:48:48.880461 12905 net.cpp:153] Setting up conv3
I0705 21:48:48.880480 12905 net.cpp:160] Top shape: 200 384 13 13 (12979200)
I0705 21:48:48.880484 12905 net.cpp:168] Memory required for data: 1411043200
I0705 21:48:48.880496 12905 layer_factory.hpp:76] Creating layer relu3
I0705 21:48:48.880506 12905 net.cpp:109] Creating Layer relu3
I0705 21:48:48.880511 12905 net.cpp:457] relu3 <- conv3
I0705 21:48:48.880518 12905 net.cpp:400] relu3 -> conv3 (in-place)
I0705 21:48:48.880527 12905 net.cpp:153] Setting up relu3
I0705 21:48:48.880534 12905 net.cpp:160] Top shape: 200 384 13 13 (12979200)
I0705 21:48:48.880538 12905 net.cpp:168] Memory required for data: 1462960000
I0705 21:48:48.880543 12905 layer_factory.hpp:76] Creating layer conv4_clean
I0705 21:48:48.880554 12905 net.cpp:109] Creating Layer conv4_clean
I0705 21:48:48.880558 12905 net.cpp:457] conv4_clean <- conv3
I0705 21:48:48.880565 12905 net.cpp:414] conv4_clean -> conv4_clean
I0705 21:48:48.905809 12905 net.cpp:153] Setting up conv4_clean
I0705 21:48:48.905825 12905 net.cpp:160] Top shape: 200 384 13 13 (12979200)
I0705 21:48:48.905830 12905 net.cpp:168] Memory required for data: 1514876800
I0705 21:48:48.905839 12905 layer_factory.hpp:76] Creating layer relu4
I0705 21:48:48.905848 12905 net.cpp:109] Creating Layer relu4
I0705 21:48:48.905853 12905 net.cpp:457] relu4 <- conv4_clean
I0705 21:48:48.905861 12905 net.cpp:400] relu4 -> conv4_clean (in-place)
I0705 21:48:48.905870 12905 net.cpp:153] Setting up relu4
I0705 21:48:48.905876 12905 net.cpp:160] Top shape: 200 384 13 13 (12979200)
I0705 21:48:48.905900 12905 net.cpp:168] Memory required for data: 1566793600
I0705 21:48:48.905906 12905 layer_factory.hpp:76] Creating layer conv5_clean
I0705 21:48:48.905918 12905 net.cpp:109] Creating Layer conv5_clean
I0705 21:48:48.905923 12905 net.cpp:457] conv5_clean <- conv4_clean
I0705 21:48:48.905932 12905 net.cpp:414] conv5_clean -> conv5_clean
I0705 21:48:48.922945 12905 net.cpp:153] Setting up conv5_clean
I0705 21:48:48.922960 12905 net.cpp:160] Top shape: 200 256 13 13 (8652800)
I0705 21:48:48.922966 12905 net.cpp:168] Memory required for data: 1601404800
I0705 21:48:48.922978 12905 layer_factory.hpp:76] Creating layer relu5
I0705 21:48:48.922987 12905 net.cpp:109] Creating Layer relu5
I0705 21:48:48.922992 12905 net.cpp:457] relu5 <- conv5_clean
I0705 21:48:48.923001 12905 net.cpp:400] relu5 -> conv5_clean (in-place)
I0705 21:48:48.923010 12905 net.cpp:153] Setting up relu5
I0705 21:48:48.923017 12905 net.cpp:160] Top shape: 200 256 13 13 (8652800)
I0705 21:48:48.923020 12905 net.cpp:168] Memory required for data: 1636016000
I0705 21:48:48.923025 12905 layer_factory.hpp:76] Creating layer pool5
I0705 21:48:48.923033 12905 net.cpp:109] Creating Layer pool5
I0705 21:48:48.923038 12905 net.cpp:457] pool5 <- conv5_clean
I0705 21:48:48.923044 12905 net.cpp:414] pool5 -> pool5
I0705 21:48:48.923089 12905 net.cpp:153] Setting up pool5
I0705 21:48:48.923096 12905 net.cpp:160] Top shape: 200 256 6 6 (1843200)
I0705 21:48:48.923101 12905 net.cpp:168] Memory required for data: 1643388800
I0705 21:48:48.923106 12905 layer_factory.hpp:76] Creating layer fc6_clean
I0705 21:48:48.923118 12905 net.cpp:109] Creating Layer fc6_clean
I0705 21:48:48.923123 12905 net.cpp:457] fc6_clean <- pool5
I0705 21:48:48.923132 12905 net.cpp:414] fc6_clean -> fc6_clean
I0705 21:48:50.378692 12905 net.cpp:153] Setting up fc6_clean
I0705 21:48:50.378736 12905 net.cpp:160] Top shape: 200 4096 (819200)
I0705 21:48:50.378742 12905 net.cpp:168] Memory required for data: 1646665600
I0705 21:48:50.378756 12905 layer_factory.hpp:76] Creating layer relu6
I0705 21:48:50.378772 12905 net.cpp:109] Creating Layer relu6
I0705 21:48:50.378779 12905 net.cpp:457] relu6 <- fc6_clean
I0705 21:48:50.378790 12905 net.cpp:400] relu6 -> fc6_clean (in-place)
I0705 21:48:50.378808 12905 net.cpp:153] Setting up relu6
I0705 21:48:50.378813 12905 net.cpp:160] Top shape: 200 4096 (819200)
I0705 21:48:50.378818 12905 net.cpp:168] Memory required for data: 1649942400
I0705 21:48:50.378823 12905 layer_factory.hpp:76] Creating layer drop6
I0705 21:48:50.378847 12905 net.cpp:109] Creating Layer drop6
I0705 21:48:50.378854 12905 net.cpp:457] drop6 <- fc6_clean
I0705 21:48:50.378860 12905 net.cpp:400] drop6 -> fc6_clean (in-place)
I0705 21:48:50.378896 12905 net.cpp:153] Setting up drop6
I0705 21:48:50.378904 12905 net.cpp:160] Top shape: 200 4096 (819200)
I0705 21:48:50.378912 12905 net.cpp:168] Memory required for data: 1653219200
I0705 21:48:50.378919 12905 layer_factory.hpp:76] Creating layer fc7_clean
I0705 21:48:50.378932 12905 net.cpp:109] Creating Layer fc7_clean
I0705 21:48:50.378937 12905 net.cpp:457] fc7_clean <- fc6_clean
I0705 21:48:50.378945 12905 net.cpp:414] fc7_clean -> fc7_clean
I0705 21:48:51.029073 12905 net.cpp:153] Setting up fc7_clean
I0705 21:48:51.029119 12905 net.cpp:160] Top shape: 200 4096 (819200)
I0705 21:48:51.029124 12905 net.cpp:168] Memory required for data: 1656496000
I0705 21:48:51.029137 12905 layer_factory.hpp:76] Creating layer relu7
I0705 21:48:51.029155 12905 net.cpp:109] Creating Layer relu7
I0705 21:48:51.029160 12905 net.cpp:457] relu7 <- fc7_clean
I0705 21:48:51.029172 12905 net.cpp:400] relu7 -> fc7_clean (in-place)
I0705 21:48:51.029189 12905 net.cpp:153] Setting up relu7
I0705 21:48:51.029196 12905 net.cpp:160] Top shape: 200 4096 (819200)
I0705 21:48:51.029201 12905 net.cpp:168] Memory required for data: 1659772800
I0705 21:48:51.029204 12905 layer_factory.hpp:76] Creating layer drop7
I0705 21:48:51.029216 12905 net.cpp:109] Creating Layer drop7
I0705 21:48:51.029220 12905 net.cpp:457] drop7 <- fc7_clean
I0705 21:48:51.029271 12905 net.cpp:400] drop7 -> fc7_clean (in-place)
I0705 21:48:51.029310 12905 net.cpp:153] Setting up drop7
I0705 21:48:51.029319 12905 net.cpp:160] Top shape: 200 4096 (819200)
I0705 21:48:51.029323 12905 net.cpp:168] Memory required for data: 1663049600
I0705 21:48:51.029328 12905 layer_factory.hpp:76] Creating layer fc8_clean
I0705 21:48:51.029340 12905 net.cpp:109] Creating Layer fc8_clean
I0705 21:48:51.029345 12905 net.cpp:457] fc8_clean <- fc7_clean
I0705 21:48:51.029353 12905 net.cpp:414] fc8_clean -> fc8_clean
I0705 21:48:51.179069 12905 net.cpp:153] Setting up fc8_clean
I0705 21:48:51.179085 12905 net.cpp:160] Top shape: 200 967 (193400)
I0705 21:48:51.179090 12905 net.cpp:168] Memory required for data: 1663823200
I0705 21:48:51.179100 12905 layer_factory.hpp:76] Creating layer loss
I0705 21:48:51.179122 12905 net.cpp:109] Creating Layer loss
I0705 21:48:51.179128 12905 net.cpp:457] loss <- fc8_clean
I0705 21:48:51.179134 12905 net.cpp:457] loss <- label
I0705 21:48:51.179141 12905 net.cpp:414] loss -> loss
I0705 21:48:51.179153 12905 layer_factory.hpp:76] Creating layer loss
…
I0705 21:48:51.181097 12905 net.cpp:325] The NetState phase (1) differed from the phase (0) specified by a rule in layer train-data
I0705 21:48:51.181318 12905 net.cpp:52] Initializing net from parameters:
state {
phase: TEST
}
layer {
name: "val-data"
type: "Data"
top: "data"
top: "label"
include {
phase: TEST
}
transform_param {
crop_size: 227
mean_file: "/home/zml374/workspace/DIGITS/digits/jobs/20160704-085910-0cc9/mean.binaryproto"
}
data_param {
source: "/home/zml374/workspace/DIGITS/digits/jobs/20160704-085910-0cc9/val_db"
batch_size: 200
backend: LMDB
}
}
layer {
name: "conv1"
type: "Convolution"
bottom: "data"
top: "conv1"
param {
lr_mult: 1
decay_mult: 1
}
param {
lr_mult: 2
decay_mult: 0
}
convolution_param {
num_output: 96
kernel_size: 11
stride: 4
weight_filler {
type: "gaussian"
std: 0.01
}
bias_filler {
type: "constant"
value: 0
}
}
}
layer {
name: "relu1"
type: "ReLU"
bottom: "conv1"
top: "conv1"
}
layer {
name: "norm1"
type: "LRN"
bottom: "conv1"
top: "norm1"
lrn_param {
local_size: 5
alpha: 0.0001
beta: 0.75
}
}
layer {
name: "pool1"
type: "Pooling"
bottom: "norm1"
top: "pool1"
pooling_param {
pool: MAX
kernel_size: 3
stride: 2
}
}
layer {
name: "conv2"
type: "Convolution"
bottom: "pool1"
top: "conv2"
param {
lr_mult: 1
decay_mult: 1
}
param {
lr_mult: 2
decay_mult: 0
}
convolution_param {
num_output: 256
pad: 2
kernel_size: 5
group: 2
weight_filler {
type: "gaussian"
std: 0.01
}
bias_filler {
type: "constant"
value: 0.1
}
}
}
layer {
name: "relu2"
type: "ReLU"
bottom: "conv2"
top: "conv2"
}
layer {
name: "norm2"
type: "LRN"
bottom: "conv2"
top: "norm2"
lrn_param {
local_size: 5
alpha: 0.0001
beta: 0.75
}
}
layer {
name: "pool2"
type: "Pooling"
bottom: "norm2"
top: "pool2"
pooling_param {
pool: MAX
kernel_size: 3
stride: 2
}
}
layer {
name: "conv3"
type: "Convolution"
bottom: "pool2"
top: "conv3"
param {
lr_mult: 1
decay_mult: 1
}
param {
lr_mult: 2
decay_mult: 0
}
convolution_param {
num_output: 384
pad: 1
kernel_size: 3
weight_filler {
type: "gaussian"
std: 0.01
}
bias_filler {
type: "constant"
value: 0
}
}
}
layer {
name: "relu3"
type: "ReLU"
bottom: "conv3"
top: "conv3"
}
layer {
name: "conv4_clean"
type: "Convolution"
bottom: "conv3"
top: "conv4_clean"
param {
lr_mult: 1
decay_mult: 1
}
param {
lr_mult: 2
decay_mult: 0
}
convolution_param {
num_output: 384
pad: 1
kernel_size: 3
group: 2
weight_filler {
type: "gaussian"
std: 0.01
}
bias_filler {
type: "constant"
value: 0.1
}
}
}
layer {
name: "relu4"
type: "ReLU"
bottom: "conv4_clean"
top: "conv4_clean"
}
layer {
name: "conv5_clean"
type: "Convolution"
bottom: "conv4_clean"
top: "conv5_clean"
param {
lr_mult: 1
decay_mult: 1
}
param {
lr_mult: 2
decay_mult: 0
}
convolution_param {
num_output: 256
pad: 1
kernel_size: 3
group: 2
weight_filler {
type: "gaussian"
std: 0.01
}
bias_filler {
type: "constant"
value: 0.1
}
}
}
layer {
name: "relu5"
type: "ReLU"
bottom: "conv5_clean"
top: "conv5_clean"
}
layer {
name: "pool5"
type: "Pooling"
bottom: "conv5_clean"
top: "pool5"
pooling_param {
pool: MAX
kernel_size: 3
stride: 2
}
}
layer {
name: "fc6_clean"
type: "InnerProduct"
bottom: "pool5"
top: "fc6_clean"
param {
lr_mult: 1
decay_mult: 1
}
param {
lr_mult: 2
decay_mult: 0
}
inner_product_param {
num_output: 4096
weight_filler {
type: "gaussian"
std: 0.005
}
bias_filler {
type: "constant"
value: 0.1
}
}
}
layer {
name: "relu6"
type: "ReLU"
bottom: "fc6_clean"
top: "fc6_clean"
}
layer {
name: "drop6"
type: "Dropout"
bottom: "fc6_clean"
top: "fc6_clean"
dropout_param {
dropout_ratio: 0.5
}
}
layer {
name: "fc7_clean"
type: "InnerProduct"
bottom: "fc6_clean"
top: "fc7_clean"
param {
lr_mult: 1
decay_mult: 1
}
param {
lr_mult: 2
decay_mult: 0
}
inner_product_param {
num_output: 4096
weight_filler {
type: "gaussian"
std: 0.005
}
bias_filler {
type: "constant"
value: 0.1
}
}
}
layer {
name: "relu7"
type: "ReLU"
bottom: "fc7_clean"
top: "fc7_clean"
}
layer {
name: "drop7"
type: "Dropout"
bottom: "fc7_clean"
top: "fc7_clean"
dropout_param {
dropout_ratio: 0.5
}
}
layer {
name: "fc8_clean"
type: "InnerProduct"
bottom: "fc7_clean"
top: "fc8_clean"
param {
lr_mult: 1
decay_mult: 1
}
param {
lr_mult: 2
decay_mult: 0
}
inner_product_param {
num_output: 967
weight_filler {
type: "gaussian"
std: 0.01
}
bias_filler {
type: "constant"
value: 0
}
}
}
layer {
name: "accuracy"
type: "Accuracy"
bottom: "fc8_clean"
bottom: "label"
top: "accuracy"
include {
phase: TEST
}
}
layer {
name: "loss"
type: "SoftmaxWithLoss"
bottom: "fc8_clean"
bottom: "label"
top: "loss"
}
I0705 21:48:51.181468 12905 layer_factory.hpp:76] Creating layer val-data
I0705 21:48:51.181704 12905 net.cpp:109] Creating Layer val-data
I0705 21:48:51.181718 12905 net.cpp:414] val-data -> data
I0705 21:48:51.181730 12905 net.cpp:414] val-data -> label
I0705 21:48:51.181740 12905 data_transformer.cpp:25] Loading mean file from: /home/zml374/workspace/DIGITS/digits/jobs/20160704-085910-0cc9/mean.binaryproto
I0705 21:48:51.183173 12935 db_lmdb.cpp:36] Opened lmdb /home/zml374/workspace/DIGITS/digits/jobs/20160704-085910-0cc9/val_db
I0705 21:48:51.188102 12905 data_layer.cpp:45] output data size: 200,3,227,227
I0705 21:48:51.504634 12905 net.cpp:153] Setting up val-data
I0705 21:48:51.504679 12905 net.cpp:160] Top shape: 200 3 227 227 (30917400)
I0705 21:48:51.504688 12905 net.cpp:160] Top shape: 200 (200)
I0705 21:48:51.504693 12905 net.cpp:168] Memory required for data: 123670400
I0705 21:48:51.504703 12905 layer_factory.hpp:76] Creating layer label_val-data_1_split
I0705 21:48:51.504720 12905 net.cpp:109] Creating Layer label_val-data_1_split
I0705 21:48:51.504727 12905 net.cpp:457] label_val-data_1_split <- label
I0705 21:48:51.504739 12905 net.cpp:414] label_val-data_1_split -> label_val-data_1_split_0
I0705 21:48:51.504751 12905 net.cpp:414] label_val-data_1_split -> label_val-data_1_split_1
I0705 21:48:51.504904 12905 net.cpp:153] Setting up label_val-data_1_split
I0705 21:48:51.504915 12905 net.cpp:160] Top shape: 200 (200)
I0705 21:48:51.504922 12905 net.cpp:160] Top shape: 200 (200)
I0705 21:48:51.504927 12905 net.cpp:168] Memory required for data: 123672000
I0705 21:48:51.504932 12905 layer_factory.hpp:76] Creating layer conv1
I0705 21:48:51.504950 12905 net.cpp:109] Creating Layer conv1
I0705 21:48:51.504954 12905 net.cpp:457] conv1 <- data
I0705 21:48:51.504964 12905 net.cpp:414] conv1 -> conv1
I0705 21:48:51.506779 12905 net.cpp:153] Setting up conv1
I0705 21:48:51.506794 12905 net.cpp:160] Top shape: 200 96 55 55 (58080000)
I0705 21:48:51.506799 12905 net.cpp:168] Memory required for data: 355992000
I0705 21:48:51.506816 12905 layer_factory.hpp:76] Creating layer relu1
I0705 21:48:51.506829 12905 net.cpp:109] Creating Layer relu1
I0705 21:48:51.506834 12905 net.cpp:457] relu1 <- conv1
I0705 21:48:51.506842 12905 net.cpp:400] relu1 -> conv1 (in-place)
I0705 21:48:51.506855 12905 net.cpp:153] Setting up relu1
I0705 21:48:51.506861 12905 net.cpp:160] Top shape: 200 96 55 55 (58080000)
I0705 21:48:51.506865 12905 net.cpp:168] Memory required for data: 588312000
I0705 21:48:51.506870 12905 layer_factory.hpp:76] Creating layer norm1
I0705 21:48:51.506883 12905 net.cpp:109] Creating Layer norm1
I0705 21:48:51.506888 12905 net.cpp:457] norm1 <- conv1
I0705 21:48:51.506896 12905 net.cpp:414] norm1 -> norm1
I0705 21:48:51.506949 12905 net.cpp:153] Setting up norm1
I0705 21:48:51.506958 12905 net.cpp:160] Top shape: 200 96 55 55 (58080000)
I0705 21:48:51.506963 12905 net.cpp:168] Memory required for data: 820632000
I0705 21:48:51.506968 12905 layer_factory.hpp:76] Creating layer pool1
I0705 21:48:51.506978 12905 net.cpp:109] Creating Layer pool1
I0705 21:48:51.506983 12905 net.cpp:457] pool1 <- norm1
I0705 21:48:51.506990 12905 net.cpp:414] pool1 -> pool1
I0705 21:48:51.507038 12905 net.cpp:153] Setting up pool1
I0705 21:48:51.507047 12905 net.cpp:160] Top shape: 200 96 27 27 (13996800)
I0705 21:48:51.507091 12905 net.cpp:168] Memory required for data: 876619200
I0705 21:48:51.507097 12905 layer_factory.hpp:76] Creating layer conv2
I0705 21:48:51.507108 12905 net.cpp:109] Creating Layer conv2
I0705 21:48:51.507113 12905 net.cpp:457] conv2 <- pool1
I0705 21:48:51.507123 12905 net.cpp:414] conv2 -> conv2
I0705 21:48:51.522747 12905 net.cpp:153] Setting up conv2
I0705 21:48:51.522768 12905 net.cpp:160] Top shape: 200 256 27 27 (37324800)
I0705 21:48:51.522773 12905 net.cpp:168] Memory required for data: 1025918400
I0705 21:48:51.522785 12905 layer_factory.hpp:76] Creating layer relu2
I0705 21:48:51.522795 12905 net.cpp:109] Creating Layer relu2
I0705 21:48:51.522800 12905 net.cpp:457] relu2 <- conv2
I0705 21:48:51.522809 12905 net.cpp:400] relu2 -> conv2 (in-place)
I0705 21:48:51.522819 12905 net.cpp:153] Setting up relu2
I0705 21:48:51.522825 12905 net.cpp:160] Top shape: 200 256 27 27 (37324800)
I0705 21:48:51.522830 12905 net.cpp:168] Memory required for data: 1175217600
I0705 21:48:51.522835 12905 layer_factory.hpp:76] Creating layer norm2
I0705 21:48:51.522845 12905 net.cpp:109] Creating Layer norm2
I0705 21:48:51.522850 12905 net.cpp:457] norm2 <- conv2
I0705 21:48:51.522856 12905 net.cpp:414] norm2 -> norm2
I0705 21:48:51.522907 12905 net.cpp:153] Setting up norm2
I0705 21:48:51.522915 12905 net.cpp:160] Top shape: 200 256 27 27 (37324800)
I0705 21:48:51.522922 12905 net.cpp:168] Memory required for data: 1324516800
I0705 21:48:51.522927 12905 layer_factory.hpp:76] Creating layer pool2
I0705 21:48:51.522936 12905 net.cpp:109] Creating Layer pool2
I0705 21:48:51.522941 12905 net.cpp:457] pool2 <- norm2
I0705 21:48:51.522949 12905 net.cpp:414] pool2 -> pool2
I0705 21:48:51.522992 12905 net.cpp:153] Setting up pool2
I0705 21:48:51.523001 12905 net.cpp:160] Top shape: 200 256 13 13 (8652800)
I0705 21:48:51.523005 12905 net.cpp:168] Memory required for data: 1359128000
I0705 21:48:51.523010 12905 layer_factory.hpp:76] Creating layer conv3
I0705 21:48:51.523022 12905 net.cpp:109] Creating Layer conv3
I0705 21:48:51.523026 12905 net.cpp:457] conv3 <- pool2
I0705 21:48:51.523036 12905 net.cpp:414] conv3 -> conv3
I0705 21:48:51.557014 12905 net.cpp:153] Setting up conv3
I0705 21:48:51.557030 12905 net.cpp:160] Top shape: 200 384 13 13 (12979200)
I0705 21:48:51.557035 12905 net.cpp:168] Memory required for data: 1411044800
I0705 21:48:51.557047 12905 layer_factory.hpp:76] Creating layer relu3
I0705 21:48:51.557056 12905 net.cpp:109] Creating Layer relu3
I0705 21:48:51.557061 12905 net.cpp:457] relu3 <- conv3
I0705 21:48:51.557070 12905 net.cpp:400] relu3 -> conv3 (in-place)
I0705 21:48:51.557080 12905 net.cpp:153] Setting up relu3
I0705 21:48:51.557085 12905 net.cpp:160] Top shape: 200 384 13 13 (12979200)
I0705 21:48:51.557090 12905 net.cpp:168] Memory required for data: 1462961600
I0705 21:48:51.557095 12905 layer_factory.hpp:76] Creating layer conv4_clean
I0705 21:48:51.557106 12905 net.cpp:109] Creating Layer conv4_clean
I0705 21:48:51.557111 12905 net.cpp:457] conv4_clean <- conv3
I0705 21:48:51.557118 12905 net.cpp:414] conv4_clean -> conv4_clean
I0705 21:48:51.582619 12905 net.cpp:153] Setting up conv4_clean
I0705 21:48:51.582634 12905 net.cpp:160] Top shape: 200 384 13 13 (12979200)
I0705 21:48:51.582639 12905 net.cpp:168] Memory required for data: 1514878400
I0705 21:48:51.582648 12905 layer_factory.hpp:76] Creating layer relu4
I0705 21:48:51.582658 12905 net.cpp:109] Creating Layer relu4
I0705 21:48:51.582662 12905 net.cpp:457] relu4 <- conv4_clean
I0705 21:48:51.582670 12905 net.cpp:400] relu4 -> conv4_clean (in-place)
I0705 21:48:51.582679 12905 net.cpp:153] Setting up relu4
I0705 21:48:51.582685 12905 net.cpp:160] Top shape: 200 384 13 13 (12979200)
I0705 21:48:51.582690 12905 net.cpp:168] Memory required for data: 1566795200
I0705 21:48:51.582695 12905 layer_factory.hpp:76] Creating layer conv5_clean
I0705 21:48:51.582706 12905 net.cpp:109] Creating Layer conv5_clean
I0705 21:48:51.582710 12905 net.cpp:457] conv5_clean <- conv4_clean
I0705 21:48:51.582718 12905 net.cpp:414] conv5_clean -> conv5_clean
I0705 21:48:51.600075 12905 net.cpp:153] Setting up conv5_clean
I0705 21:48:51.600090 12905 net.cpp:160] Top shape: 200 256 13 13 (8652800)
I0705 21:48:51.600095 12905 net.cpp:168] Memory required for data: 1601406400
I0705 21:48:51.600107 12905 layer_factory.hpp:76] Creating layer relu5
I0705 21:48:51.600116 12905 net.cpp:109] Creating Layer relu5
I0705 21:48:51.600122 12905 net.cpp:457] relu5 <- conv5_clean
I0705 21:48:51.600131 12905 net.cpp:400] relu5 -> conv5_clean (in-place)
I0705 21:48:51.600139 12905 net.cpp:153] Setting up relu5
I0705 21:48:51.600145 12905 net.cpp:160] Top shape: 200 256 13 13 (8652800)
I0705 21:48:51.600150 12905 net.cpp:168] Memory required for data: 1636017600
I0705 21:48:51.600155 12905 layer_factory.hpp:76] Creating layer pool5
I0705 21:48:51.600167 12905 net.cpp:109] Creating Layer pool5
I0705 21:48:51.600172 12905 net.cpp:457] pool5 <- conv5_clean
I0705 21:48:51.600179 12905 net.cpp:414] pool5 -> pool5
I0705 21:48:51.600226 12905 net.cpp:153] Setting up pool5
I0705 21:48:51.600235 12905 net.cpp:160] Top shape: 200 256 6 6 (1843200)
I0705 21:48:51.600239 12905 net.cpp:168] Memory required for data: 1643390400
I0705 21:48:51.600244 12905 layer_factory.hpp:76] Creating layer fc6_clean
I0705 21:48:51.600256 12905 net.cpp:109] Creating Layer fc6_clean
I0705 21:48:51.600261 12905 net.cpp:457] fc6_clean <- pool5
I0705 21:48:51.600270 12905 net.cpp:414] fc6_clean -> fc6_clean
I0705 21:48:53.054060 12905 net.cpp:153] Setting up fc6_clean
I0705 21:48:53.054102 12905 net.cpp:160] Top shape: 200 4096 (819200)
I0705 21:48:53.054108 12905 net.cpp:168] Memory required for data: 1646667200
I0705 21:48:53.054121 12905 layer_factory.hpp:76] Creating layer relu6
I0705 21:48:53.054137 12905 net.cpp:109] Creating Layer relu6
I0705 21:48:53.054146 12905 net.cpp:457] relu6 <- fc6_clean
I0705 21:48:53.054157 12905 net.cpp:400] relu6 -> fc6_clean (in-place)
I0705 21:48:53.054174 12905 net.cpp:153] Setting up relu6
I0705 21:48:53.054182 12905 net.cpp:160] Top shape: 200 4096 (819200)
I0705 21:48:53.054185 12905 net.cpp:168] Memory required for data: 1649944000
I0705 21:48:53.054190 12905 layer_factory.hpp:76] Creating layer drop6
I0705 21:48:53.054200 12905 net.cpp:109] Creating Layer drop6
I0705 21:48:53.054205 12905 net.cpp:457] drop6 <- fc6_clean
I0705 21:48:53.054213 12905 net.cpp:400] drop6 -> fc6_clean (in-place)
I0705 21:48:53.054250 12905 net.cpp:153] Setting up drop6
I0705 21:48:53.054260 12905 net.cpp:160] Top shape: 200 4096 (819200)
I0705 21:48:53.054263 12905 net.cpp:168] Memory required for data: 1653220800
I0705 21:48:53.054268 12905 layer_factory.hpp:76] Creating layer fc7_clean
I0705 21:48:53.054281 12905 net.cpp:109] Creating Layer fc7_clean
I0705 21:48:53.054286 12905 net.cpp:457] fc7_clean <- fc6_clean
I0705 21:48:53.054296 12905 net.cpp:414] fc7_clean -> fc7_clean
I0705 21:48:53.700606 12905 net.cpp:153] Setting up fc7_clean
I0705 21:48:53.700647 12905 net.cpp:160] Top shape: 200 4096 (819200)
I0705 21:48:53.700654 12905 net.cpp:168] Memory required for data: 1656497600
I0705 21:48:53.700666 12905 layer_factory.hpp:76] Creating layer relu7
I0705 21:48:53.700682 12905 net.cpp:109] Creating Layer relu7
I0705 21:48:53.700690 12905 net.cpp:457] relu7 <- fc7_clean
I0705 21:48:53.700701 12905 net.cpp:400] relu7 -> fc7_clean (in-place)
I0705 21:48:53.700718 12905 net.cpp:153] Setting up relu7
I0705 21:48:53.700724 12905 net.cpp:160] Top shape: 200 4096 (819200)
I0705 21:48:53.700728 12905 net.cpp:168] Memory required for data: 1659774400
I0705 21:48:53.700733 12905 layer_factory.hpp:76] Creating layer drop7
I0705 21:48:53.700744 12905 net.cpp:109] Creating Layer drop7
I0705 21:48:53.700748 12905 net.cpp:457] drop7 <- fc7_clean
I0705 21:48:53.700757 12905 net.cpp:400] drop7 -> fc7_clean (in-place)
I0705 21:48:53.700796 12905 net.cpp:153] Setting up drop7
I0705 21:48:53.700805 12905 net.cpp:160] Top shape: 200 4096 (819200)
I0705 21:48:53.700809 12905 net.cpp:168] Memory required for data: 1663051200
I0705 21:48:53.700814 12905 layer_factory.hpp:76] Creating layer fc8_clean
I0705 21:48:53.700827 12905 net.cpp:109] Creating Layer fc8_clean
I0705 21:48:53.700871 12905 net.cpp:457] fc8_clean <- fc7_clean
I0705 21:48:53.700881 12905 net.cpp:414] fc8_clean -> fc8_clean
I0705 21:48:53.850621 12905 net.cpp:153] Setting up fc8_clean
I0705 21:48:53.850651 12905 net.cpp:160] Top shape: 200 967 (193400)
I0705 21:48:53.850656 12905 net.cpp:168] Memory required for data: 1663824800
I0705 21:48:53.850667 12905 layer_factory.hpp:76] Creating layer fc8_clean_fc8_clean_0_split
I0705 21:48:53.850679 12905 net.cpp:109] Creating Layer fc8_clean_fc8_clean_0_split
I0705 21:48:53.850685 12905 net.cpp:457] fc8_clean_fc8_clean_0_split <- fc8_clean
I0705 21:48:53.850695 12905 net.cpp:414] fc8_clean_fc8_clean_0_split -> fc8_clean_fc8_clean_0_split_0
I0705 21:48:53.850705 12905 net.cpp:414] fc8_clean_fc8_clean_0_split -> fc8_clean_fc8_clean_0_split_1
I0705 21:48:53.850757 12905 net.cpp:153] Setting up fc8_clean_fc8_clean_0_split
I0705 21:48:53.850766 12905 net.cpp:160] Top shape: 200 967 (193400)
I0705 21:48:53.850774 12905 net.cpp:160] Top shape: 200 967 (193400)
I0705 21:48:53.850777 12905 net.cpp:168] Memory required for data: 1665372000
I0705 21:48:53.850782 12905 layer_factory.hpp:76] Creating layer accuracy
I0705 21:48:53.850792 12905 net.cpp:109] Creating Layer accuracy
I0705 21:48:53.850797 12905 net.cpp:457] accuracy <- fc8_clean_fc8_clean_0_split_0
I0705 21:48:53.850803 12905 net.cpp:457] accuracy <- label_val-data_1_split_0
I0705 21:48:53.850811 12905 net.cpp:414] accuracy -> accuracy
…
