…
I0706 03:15:44.615775 19622 net.cpp:52] Initializing net from parameters:
state {
phase: TRAIN
}
layer {
name: "data"
type: "Data"
top: "data"
include {
phase: TRAIN
}
transform_param {
mean_file: "/home/ffw/scratch/plantClef/scatnet_output/train/a4_m2_s1s2_f2/lmdb_mean_coeff.binaryproto"
}
data_param {
source: "/home/ffw/scratch/plantClef/scatnet_output/train/a4_m2_s1s2_f2/lmdb_data"
batch_size: 32
backend: LMDB
}
}
layer {
name: "label"
type: "Data"
top: "label"
include {
phase: TRAIN
}
data_param {
source: "/home/ffw/scratch/plantClef/scatnet_output/train/a4_m2_s1s2_f2/lmdb_labels"
batch_size: 32
backend: LMDB
}
}
layer {
name: "pool1"
type: "Pooling"
bottom: "data"
top: "pool1"
pooling_param {
pool: MAX
kernel_size: 6
stride: 5
}
}
layer {
name: "conv5"
type: "Convolution"
bottom: "pool1"
top: "conv5"
param {
lr_mult: 1
decay_mult: 1
}
param {
lr_mult: 2
decay_mult: 0
}
convolution_param {
num_output: 256
pad: 1
kernel_size: 3
group: 1
weight_filler {
type: "gaussian"
std: 0.01
}
bias_filler {
type: "constant"
value: 0.1
}
}
}
layer {
name: "relu5"
type: "ReLU"
bottom: "conv5"
top: "conv5"
}
layer {
name: "pool5"
type: "Pooling"
bottom: "conv5"
top: "pool5"
pooling_param {
pool: MAX
kernel_size: 3
stride: 2
}
}
layer {
name: "fc6"
type: "InnerProduct"
bottom: "pool5"
top: "fc6"
param {
lr_mult: 1
decay_mult: 1
}
param {
lr_mult: 2
decay_mult: 0
}
inner_product_param {
num_output: 4096
weight_filler {
type: "gaussian"
std: 0.005
}
bias_filler {
type: "constant"
value: 0.1
}
}
}
layer {
name: "relu6"
type: "ReLU"
bottom: "fc6"
top: "fc6"
}
layer {
name: "drop6"
type: "Dropout"
bottom: "fc6"
top: "fc6"
dropout_param {
dropout_ratio: 0.5
}
}
layer {
name: "fc7"
type: "InnerProduct"
bottom: "fc6"
top: "fc7"
param {
lr_mult: 1
decay_mult: 1
}
param {
lr_mult: 2
decay_mult: 0
}
inner_product_param {
num_output: 4096
weight_filler {
type: "gaussian"
std: 0.005
}
bias_filler {
type: "constant"
value: 0.1
}
}
}
layer {
name: "relu7"
type: "ReLU"
bottom: "fc7"
top: "fc7"
}
layer {
name: "drop7"
type: "Dropout"
bottom: "fc7"
top: "fc7"
dropout_param {
dropout_ratio: 0.5
}
}
layer {
name: "fc8_species"
type: "InnerProduct"
bottom: "fc7"
top: "fc8_species"
param {
lr_mult: 1
decay_mult: 1
}
param {
lr_mult: 2
decay_mult: 0
}
inner_product_param {
num_output: 967
weight_filler {
type: "gaussian"
std: 0.005
}
bias_filler {
type: "constant"
value: 0.1
}
}
}
layer {
name: "loss"
type: "SoftmaxWithLoss"
bottom: "fc8_species"
bottom: "label"
top: "loss"
}
I0706 03:15:44.615813 19622 layer_factory.hpp:76] Creating layer data
I0706 03:15:44.615874 19622 net.cpp:109] Creating Layer data
I0706 03:15:44.615877 19622 net.cpp:414] data -> data
I0706 03:15:44.615895 19622 data_transformer.cpp:25] Loading mean file from: /home/ffw/scratch/plantClef/scatnet_output/train/a4_m2_s1s2_f2/lmdb_mean_coeff.binaryproto
I0706 03:15:44.621373 19634 db_lmdb.cpp:36] Opened lmdb /home/ffw/scratch/plantClef/scatnet_output/train/a4_m2_s1s2_f2/lmdb_data
I0706 03:15:44.634071 19622 data_layer.cpp:45] output data size: 32,75,105,105
I0706 03:15:44.746496 19622 net.cpp:153] Setting up data
I0706 03:15:44.746526 19622 net.cpp:160] Top shape: 32 75 105 105 (26460000)
I0706 03:15:44.746528 19622 net.cpp:168] Memory required for data: 105840000
I0706 03:15:44.746534 19622 layer_factory.hpp:76] Creating layer label
I0706 03:15:44.746577 19622 net.cpp:109] Creating Layer label
I0706 03:15:44.746592 19622 net.cpp:414] label -> label
I0706 03:15:44.749470 19636 db_lmdb.cpp:36] Opened lmdb /home/ffw/scratch/plantClef/scatnet_output/train/a4_m2_s1s2_f2/lmdb_labels
I0706 03:15:44.757102 19622 data_layer.cpp:45] output data size: 32,1,1,1
I0706 03:15:44.757228 19622 net.cpp:153] Setting up label
I0706 03:15:44.757246 19622 net.cpp:160] Top shape: 32 1 1 1 (32)
I0706 03:15:44.757249 19622 net.cpp:168] Memory required for data: 105840128
I0706 03:15:44.757252 19622 layer_factory.hpp:76] Creating layer pool1
I0706 03:15:44.757261 19622 net.cpp:109] Creating Layer pool1
I0706 03:15:44.757263 19622 net.cpp:457] pool1 <- data
I0706 03:15:44.757271 19622 net.cpp:414] pool1 -> pool1
I0706 03:15:44.757344 19622 net.cpp:153] Setting up pool1
I0706 03:15:44.757350 19622 net.cpp:160] Top shape: 32 75 21 21 (1058400)
I0706 03:15:44.757351 19622 net.cpp:168] Memory required for data: 110073728
I0706 03:15:44.757354 19622 layer_factory.hpp:76] Creating layer conv5
I0706 03:15:44.757359 19622 net.cpp:109] Creating Layer conv5
I0706 03:15:44.757361 19622 net.cpp:457] conv5 <- pool1
I0706 03:15:44.757364 19622 net.cpp:414] conv5 -> conv5
I0706 03:15:44.761626 19622 net.cpp:153] Setting up conv5
I0706 03:15:44.761643 19622 net.cpp:160] Top shape: 32 256 21 21 (3612672)
I0706 03:15:44.761646 19622 net.cpp:168] Memory required for data: 124524416
I0706 03:15:44.761656 19622 layer_factory.hpp:76] Creating layer relu5
I0706 03:15:44.761664 19622 net.cpp:109] Creating Layer relu5
I0706 03:15:44.761667 19622 net.cpp:457] relu5 <- conv5
I0706 03:15:44.761669 19622 net.cpp:400] relu5 -> conv5 (in-place)
I0706 03:15:44.761678 19622 net.cpp:153] Setting up relu5
I0706 03:15:44.761682 19622 net.cpp:160] Top shape: 32 256 21 21 (3612672)
I0706 03:15:44.761683 19622 net.cpp:168] Memory required for data: 138975104
I0706 03:15:44.761685 19622 layer_factory.hpp:76] Creating layer pool5
I0706 03:15:44.761689 19622 net.cpp:109] Creating Layer pool5
I0706 03:15:44.761690 19622 net.cpp:457] pool5 <- conv5
I0706 03:15:44.761693 19622 net.cpp:414] pool5 -> pool5
I0706 03:15:44.761720 19622 net.cpp:153] Setting up pool5
I0706 03:15:44.761723 19622 net.cpp:160] Top shape: 32 256 10 10 (819200)
I0706 03:15:44.761725 19622 net.cpp:168] Memory required for data: 142251904
I0706 03:15:44.761728 19622 layer_factory.hpp:76] Creating layer fc6
I0706 03:15:44.761731 19622 net.cpp:109] Creating Layer fc6
I0706 03:15:44.761734 19622 net.cpp:457] fc6 <- pool5
I0706 03:15:44.761736 19622 net.cpp:414] fc6 -> fc6
I0706 03:15:46.720882 19622 net.cpp:153] Setting up fc6
I0706 03:15:46.720901 19622 net.cpp:160] Top shape: 32 4096 (131072)
I0706 03:15:46.720903 19622 net.cpp:168] Memory required for data: 142776192
I0706 03:15:46.720911 19622 layer_factory.hpp:76] Creating layer relu6
I0706 03:15:46.720917 19622 net.cpp:109] Creating Layer relu6
I0706 03:15:46.720921 19622 net.cpp:457] relu6 <- fc6
I0706 03:15:46.720924 19622 net.cpp:400] relu6 -> fc6 (in-place)
I0706 03:15:46.720932 19622 net.cpp:153] Setting up relu6
I0706 03:15:46.720934 19622 net.cpp:160] Top shape: 32 4096 (131072)
I0706 03:15:46.720935 19622 net.cpp:168] Memory required for data: 143300480
I0706 03:15:46.720937 19622 layer_factory.hpp:76] Creating layer drop6
I0706 03:15:46.720948 19622 net.cpp:109] Creating Layer drop6
I0706 03:15:46.720950 19622 net.cpp:457] drop6 <- fc6
I0706 03:15:46.720952 19622 net.cpp:400] drop6 -> fc6 (in-place)
I0706 03:15:46.720990 19622 net.cpp:153] Setting up drop6
I0706 03:15:46.720993 19622 net.cpp:160] Top shape: 32 4096 (131072)
I0706 03:15:46.720995 19622 net.cpp:168] Memory required for data: 143824768
I0706 03:15:46.720998 19622 layer_factory.hpp:76] Creating layer fc7
I0706 03:15:46.721001 19622 net.cpp:109] Creating Layer fc7
I0706 03:15:46.721004 19622 net.cpp:457] fc7 <- fc6
I0706 03:15:46.721006 19622 net.cpp:414] fc7 -> fc7
I0706 03:15:47.023799 19622 net.cpp:153] Setting up fc7
I0706 03:15:47.023818 19622 net.cpp:160] Top shape: 32 4096 (131072)
I0706 03:15:47.023821 19622 net.cpp:168] Memory required for data: 144349056
I0706 03:15:47.023828 19622 layer_factory.hpp:76] Creating layer relu7
I0706 03:15:47.023835 19622 net.cpp:109] Creating Layer relu7
I0706 03:15:47.023838 19622 net.cpp:457] relu7 <- fc7
I0706 03:15:47.023844 19622 net.cpp:400] relu7 -> fc7 (in-place)
I0706 03:15:47.023849 19622 net.cpp:153] Setting up relu7
I0706 03:15:47.023852 19622 net.cpp:160] Top shape: 32 4096 (131072)
I0706 03:15:47.023854 19622 net.cpp:168] Memory required for data: 144873344
I0706 03:15:47.023855 19622 layer_factory.hpp:76] Creating layer drop7
I0706 03:15:47.023859 19622 net.cpp:109] Creating Layer drop7
I0706 03:15:47.023860 19622 net.cpp:457] drop7 <- fc7
I0706 03:15:47.023862 19622 net.cpp:400] drop7 -> fc7 (in-place)
I0706 03:15:47.023880 19622 net.cpp:153] Setting up drop7
I0706 03:15:47.023881 19622 net.cpp:160] Top shape: 32 4096 (131072)
I0706 03:15:47.023883 19622 net.cpp:168] Memory required for data: 145397632
I0706 03:15:47.023885 19622 layer_factory.hpp:76] Creating layer fc8_species
I0706 03:15:47.023890 19622 net.cpp:109] Creating Layer fc8_species
I0706 03:15:47.023891 19622 net.cpp:457] fc8_species <- fc7
I0706 03:15:47.023895 19622 net.cpp:414] fc8_species -> fc8_species
I0706 03:15:47.096169 19622 net.cpp:153] Setting up fc8_species
I0706 03:15:47.096186 19622 net.cpp:160] Top shape: 32 967 (30944)
I0706 03:15:47.096189 19622 net.cpp:168] Memory required for data: 145521408
I0706 03:15:47.096194 19622 layer_factory.hpp:76] Creating layer loss
I0706 03:15:47.096206 19622 net.cpp:109] Creating Layer loss
I0706 03:15:47.096210 19622 net.cpp:457] loss <- fc8_species
I0706 03:15:47.096212 19622 net.cpp:457] loss <- label
I0706 03:15:47.096215 19622 net.cpp:414] loss -> loss
I0706 03:15:47.096222 19622 layer_factory.hpp:76] Creating layer loss
…
I0706 03:15:47.097406 19622 net.cpp:52] Initializing net from parameters:
state {
phase: TEST
}
layer {
name: "data"
type: "Data"
top: "data"
include {
phase: TEST
}
transform_param {
mean_file: "/home/ffw/scratch/plantClef/scatnet_output/train/a4_m2_s1s2_f2/lmdb_mean_coeff.binaryproto"
}
data_param {
source: "/home/ffw/scratch/plantClef/scatnet_output/test/a4_m2_s1s2_f2/lmdb_data"
batch_size: 32
backend: LMDB
}
}
layer {
name: "label"
type: "Data"
top: "label"
include {
phase: TEST
}
data_param {
source: "/home/ffw/scratch/plantClef/scatnet_output/test/a4_m2_s1s2_f2/lmdb_labels"
batch_size: 32
backend: LMDB
}
}
layer {
name: "pool1"
type: "Pooling"
bottom: "data"
top: "pool1"
pooling_param {
pool: MAX
kernel_size: 6
stride: 5
}
}
layer {
name: "conv5"
type: "Convolution"
bottom: "pool1"
top: "conv5"
param {
lr_mult: 1
decay_mult: 1
}
param {
lr_mult: 2
decay_mult: 0
}
convolution_param {
num_output: 256
pad: 1
kernel_size: 3
group: 1
weight_filler {
type: "gaussian"
std: 0.01
}
bias_filler {
type: "constant"
value: 0.1
}
}
}
layer {
name: "relu5"
type: "ReLU"
bottom: "conv5"
top: "conv5"
}
layer {
name: "pool5"
type: "Pooling"
bottom: "conv5"
top: "pool5"
pooling_param {
pool: MAX
kernel_size: 3
stride: 2
}
}
layer {
name: "fc6"
type: "InnerProduct"
bottom: "pool5"
top: "fc6"
param {
lr_mult: 1
decay_mult: 1
}
param {
lr_mult: 2
decay_mult: 0
}
inner_product_param {
num_output: 4096
weight_filler {
type: "gaussian"
std: 0.005
}
bias_filler {
type: "constant"
value: 0.1
}
}
}
layer {
name: "relu6"
type: "ReLU"
bottom: "fc6"
top: "fc6"
}
layer {
name: "drop6"
type: "Dropout"
bottom: "fc6"
top: "fc6"
dropout_param {
dropout_ratio: 0.5
}
}
layer {
name: "fc7"
type: "InnerProduct"
bottom: "fc6"
top: "fc7"
param {
lr_mult: 1
decay_mult: 1
}
param {
lr_mult: 2
decay_mult: 0
}
inner_product_param {
num_output: 4096
weight_filler {
type: "gaussian"
std: 0.005
}
bias_filler {
type: "constant"
value: 0.1
}
}
}
layer {
name: "relu7"
type: "ReLU"
bottom: "fc7"
top: "fc7"
}
layer {
name: "drop7"
type: "Dropout"
bottom: "fc7"
top: "fc7"
dropout_param {
dropout_ratio: 0.5
}
}
layer {
name: "fc8_species"
type: "InnerProduct"
bottom: "fc7"
top: "fc8_species"
param {
lr_mult: 1
decay_mult: 1
}
param {
lr_mult: 2
decay_mult: 0
}
inner_product_param {
num_output: 967
weight_filler {
type: "gaussian"
std: 0.005
}
bias_filler {
type: "constant"
value: 0.1
}
}
}
layer {
name: "loss"
type: "SoftmaxWithLoss"
bottom: "fc8_species"
bottom: "label"
top: "loss"
}
layer {
name: "accuracy"
type: "Accuracy"
bottom: "fc8_species"
bottom: "label"
top: "accuracy"
include {
phase: TEST
}
}
I0706 03:15:47.097447 19622 layer_factory.hpp:76] Creating layer data
I0706 03:15:47.097591 19622 net.cpp:109] Creating Layer data
I0706 03:15:47.097607 19622 net.cpp:414] data -> data
I0706 03:15:47.097612 19622 data_transformer.cpp:25] Loading mean file from: /home/ffw/scratch/plantClef/scatnet_output/train/a4_m2_s1s2_f2/lmdb_mean_coeff.binaryproto
I0706 03:15:47.103492 19639 db_lmdb.cpp:36] Opened lmdb /home/ffw/scratch/plantClef/scatnet_output/test/a4_m2_s1s2_f2/lmdb_data
I0706 03:15:47.139282 19622 data_layer.cpp:45] output data size: 32,75,105,105
I0706 03:15:47.244593 19622 net.cpp:153] Setting up data
I0706 03:15:47.244611 19622 net.cpp:160] Top shape: 32 75 105 105 (26460000)
I0706 03:15:47.244614 19622 net.cpp:168] Memory required for data: 105840000
I0706 03:15:47.244617 19622 layer_factory.hpp:76] Creating layer label
I0706 03:15:47.244673 19622 net.cpp:109] Creating Layer label
I0706 03:15:47.244678 19622 net.cpp:414] label -> label
I0706 03:15:47.269495 19640 blocking_queue.cpp:50] Waiting for data
I0706 03:15:47.280481 19641 db_lmdb.cpp:36] Opened lmdb /home/ffw/scratch/plantClef/scatnet_output/test/a4_m2_s1s2_f2/lmdb_labels
I0706 03:15:47.288473 19622 data_layer.cpp:45] output data size: 32,1,1,1
I0706 03:15:47.288632 19622 net.cpp:153] Setting up label
I0706 03:15:47.288642 19622 net.cpp:160] Top shape: 32 1 1 1 (32)
I0706 03:15:47.288645 19622 net.cpp:168] Memory required for data: 105840128
I0706 03:15:47.288648 19622 layer_factory.hpp:76] Creating layer label_label_0_split
I0706 03:15:47.288656 19622 net.cpp:109] Creating Layer label_label_0_split
I0706 03:15:47.288658 19622 net.cpp:457] label_label_0_split <- label
I0706 03:15:47.288662 19622 net.cpp:414] label_label_0_split -> label_label_0_split_0
I0706 03:15:47.288667 19622 net.cpp:414] label_label_0_split -> label_label_0_split_1
I0706 03:15:47.288769 19622 net.cpp:153] Setting up label_label_0_split
I0706 03:15:47.288779 19622 net.cpp:160] Top shape: 32 1 1 1 (32)
I0706 03:15:47.288781 19622 net.cpp:160] Top shape: 32 1 1 1 (32)
I0706 03:15:47.288782 19622 net.cpp:168] Memory required for data: 105840384
I0706 03:15:47.288785 19622 layer_factory.hpp:76] Creating layer pool1
I0706 03:15:47.288790 19622 net.cpp:109] Creating Layer pool1
I0706 03:15:47.288792 19622 net.cpp:457] pool1 <- data
I0706 03:15:47.288796 19622 net.cpp:414] pool1 -> pool1
I0706 03:15:47.288818 19622 net.cpp:153] Setting up pool1
I0706 03:15:47.288822 19622 net.cpp:160] Top shape: 32 75 21 21 (1058400)
I0706 03:15:47.288823 19622 net.cpp:168] Memory required for data: 110073984
I0706 03:15:47.288825 19622 layer_factory.hpp:76] Creating layer conv5
I0706 03:15:47.288831 19622 net.cpp:109] Creating Layer conv5
I0706 03:15:47.288833 19622 net.cpp:457] conv5 <- pool1
I0706 03:15:47.288836 19622 net.cpp:414] conv5 -> conv5
I0706 03:15:47.292457 19622 net.cpp:153] Setting up conv5
I0706 03:15:47.292465 19622 net.cpp:160] Top shape: 32 256 21 21 (3612672)
I0706 03:15:47.292466 19622 net.cpp:168] Memory required for data: 124524672
I0706 03:15:47.292472 19622 layer_factory.hpp:76] Creating layer relu5
I0706 03:15:47.292476 19622 net.cpp:109] Creating Layer relu5
I0706 03:15:47.292479 19622 net.cpp:457] relu5 <- conv5
I0706 03:15:47.292481 19622 net.cpp:400] relu5 -> conv5 (in-place)
I0706 03:15:47.292485 19622 net.cpp:153] Setting up relu5
I0706 03:15:47.292487 19622 net.cpp:160] Top shape: 32 256 21 21 (3612672)
I0706 03:15:47.292490 19622 net.cpp:168] Memory required for data: 138975360
I0706 03:15:47.292490 19622 layer_factory.hpp:76] Creating layer pool5
I0706 03:15:47.292495 19622 net.cpp:109] Creating Layer pool5
I0706 03:15:47.292495 19622 net.cpp:457] pool5 <- conv5
I0706 03:15:47.292498 19622 net.cpp:414] pool5 -> pool5
I0706 03:15:47.292517 19622 net.cpp:153] Setting up pool5
I0706 03:15:47.292520 19622 net.cpp:160] Top shape: 32 256 10 10 (819200)
I0706 03:15:47.292521 19622 net.cpp:168] Memory required for data: 142252160
I0706 03:15:47.292523 19622 layer_factory.hpp:76] Creating layer fc6
I0706 03:15:47.292528 19622 net.cpp:109] Creating Layer fc6
I0706 03:15:47.292529 19622 net.cpp:457] fc6 <- pool5
I0706 03:15:47.292532 19622 net.cpp:414] fc6 -> fc6
I0706 03:15:49.245390 19622 net.cpp:153] Setting up fc6
I0706 03:15:49.245409 19622 net.cpp:160] Top shape: 32 4096 (131072)
I0706 03:15:49.245411 19622 net.cpp:168] Memory required for data: 142776448
I0706 03:15:49.245419 19622 layer_factory.hpp:76] Creating layer relu6
I0706 03:15:49.245426 19622 net.cpp:109] Creating Layer relu6
I0706 03:15:49.245429 19622 net.cpp:457] relu6 <- fc6
I0706 03:15:49.245434 19622 net.cpp:400] relu6 -> fc6 (in-place)
I0706 03:15:49.245440 19622 net.cpp:153] Setting up relu6
I0706 03:15:49.245442 19622 net.cpp:160] Top shape: 32 4096 (131072)
I0706 03:15:49.245445 19622 net.cpp:168] Memory required for data: 143300736
I0706 03:15:49.245445 19622 layer_factory.hpp:76] Creating layer drop6
I0706 03:15:49.245450 19622 net.cpp:109] Creating Layer drop6
I0706 03:15:49.245466 19622 net.cpp:457] drop6 <- fc6
I0706 03:15:49.245471 19622 net.cpp:400] drop6 -> fc6 (in-place)
I0706 03:15:49.245491 19622 net.cpp:153] Setting up drop6
I0706 03:15:49.245493 19622 net.cpp:160] Top shape: 32 4096 (131072)
I0706 03:15:49.245496 19622 net.cpp:168] Memory required for data: 143825024
I0706 03:15:49.245496 19622 layer_factory.hpp:76] Creating layer fc7
I0706 03:15:49.245501 19622 net.cpp:109] Creating Layer fc7
I0706 03:15:49.245503 19622 net.cpp:457] fc7 <- fc6
I0706 03:15:49.245506 19622 net.cpp:414] fc7 -> fc7
I0706 03:15:49.552006 19622 net.cpp:153] Setting up fc7
I0706 03:15:49.552027 19622 net.cpp:160] Top shape: 32 4096 (131072)
I0706 03:15:49.552031 19622 net.cpp:168] Memory required for data: 144349312
I0706 03:15:49.552038 19622 layer_factory.hpp:76] Creating layer relu7
I0706 03:15:49.552045 19622 net.cpp:109] Creating Layer relu7
I0706 03:15:49.552048 19622 net.cpp:457] relu7 <- fc7
I0706 03:15:49.552052 19622 net.cpp:400] relu7 -> fc7 (in-place)
I0706 03:15:49.552059 19622 net.cpp:153] Setting up relu7
I0706 03:15:49.552063 19622 net.cpp:160] Top shape: 32 4096 (131072)
I0706 03:15:49.552064 19622 net.cpp:168] Memory required for data: 144873600
I0706 03:15:49.552067 19622 layer_factory.hpp:76] Creating layer drop7
I0706 03:15:49.552070 19622 net.cpp:109] Creating Layer drop7
I0706 03:15:49.552073 19622 net.cpp:457] drop7 <- fc7
I0706 03:15:49.552074 19622 net.cpp:400] drop7 -> fc7 (in-place)
I0706 03:15:49.552093 19622 net.cpp:153] Setting up drop7
I0706 03:15:49.552096 19622 net.cpp:160] Top shape: 32 4096 (131072)
I0706 03:15:49.552098 19622 net.cpp:168] Memory required for data: 145397888
I0706 03:15:49.552100 19622 layer_factory.hpp:76] Creating layer fc8_species
I0706 03:15:49.552104 19622 net.cpp:109] Creating Layer fc8_species
I0706 03:15:49.552106 19622 net.cpp:457] fc8_species <- fc7
I0706 03:15:49.552109 19622 net.cpp:414] fc8_species -> fc8_species
I0706 03:15:49.624828 19622 net.cpp:153] Setting up fc8_species
I0706 03:15:49.624850 19622 net.cpp:160] Top shape: 32 967 (30944)
I0706 03:15:49.624853 19622 net.cpp:168] Memory required for data: 145521664
I0706 03:15:49.624858 19622 layer_factory.hpp:76] Creating layer fc8_species_fc8_species_0_split
I0706 03:15:49.624864 19622 net.cpp:109] Creating Layer fc8_species_fc8_species_0_split
I0706 03:15:49.624867 19622 net.cpp:457] fc8_species_fc8_species_0_split <- fc8_species
I0706 03:15:49.624872 19622 net.cpp:414] fc8_species_fc8_species_0_split -> fc8_species_fc8_species_0_split_0
I0706 03:15:49.624877 19622 net.cpp:414] fc8_species_fc8_species_0_split -> fc8_species_fc8_species_0_split_1
I0706 03:15:49.624904 19622 net.cpp:153] Setting up fc8_species_fc8_species_0_split
I0706 03:15:49.624908 19622 net.cpp:160] Top shape: 32 967 (30944)
I0706 03:15:49.624910 19622 net.cpp:160] Top shape: 32 967 (30944)
I0706 03:15:49.624912 19622 net.cpp:168] Memory required for data: 145769216
I0706 03:15:49.624913 19622 layer_factory.hpp:76] Creating layer loss
I0706 03:15:49.624917 19622 net.cpp:109] Creating Layer loss
I0706 03:15:49.624919 19622 net.cpp:457] loss <- fc8_species_fc8_species_0_split_0
I0706 03:15:49.624922 19622 net.cpp:457] loss <- label_label_0_split_0
I0706 03:15:49.624924 19622 net.cpp:414] loss -> loss
…
