…
I0706 00:52:10.832109 13669 net.cpp:325] The NetState phase (0) differed from the phase (1) specified by a rule in layer accuracy
I0706 00:52:10.832314 13669 net.cpp:52] Initializing net from parameters:
state {
phase: TRAIN
}
layer {
name: "train-data"
type: "Data"
top: "data"
top: "label"
include {
phase: TRAIN
}
transform_param {
mirror: true
crop_size: 227
mean_file: "/home/zml374/workspace/DIGITS/digits/jobs/20160704-085910-0cc9/mean.binaryproto"
}
data_param {
source: "/home/zml374/workspace/DIGITS/digits/jobs/20160704-085910-0cc9/train_db"
batch_size: 200
backend: LMDB
}
}
layer {
name: "conv1"
type: "Convolution"
bottom: "data"
top: "conv1"
param {
lr_mult: 1
decay_mult: 1
}
param {
lr_mult: 2
decay_mult: 0
}
convolution_param {
num_output: 96
kernel_size: 11
stride: 4
weight_filler {
type: "gaussian"
std: 0.01
}
bias_filler {
type: "constant"
value: 0
}
}
}
layer {
name: "relu1"
type: "ReLU"
bottom: "conv1"
top: "conv1"
}
layer {
name: "norm1"
type: "LRN"
bottom: "conv1"
top: "norm1"
lrn_param {
local_size: 5
alpha: 0.0001
beta: 0.75
}
}
layer {
name: "pool1"
type: "Pooling"
bottom: "norm1"
top: "pool1"
pooling_param {
pool: MAX
kernel_size: 3
stride: 2
}
}
layer {
name: "conv2_clean"
type: "Convolution"
bottom: "pool1"
top: "conv2_clean"
param {
lr_mult: 1
decay_mult: 1
}
param {
lr_mult: 2
decay_mult: 0
}
convolution_param {
num_output: 256
pad: 2
kernel_size: 5
group: 2
weight_filler {
type: "gaussian"
std: 0.01
}
bias_filler {
type: "constant"
value: 0.1
}
}
}
layer {
name: "relu2"
type: "ReLU"
bottom: "conv2_clean"
top: "conv2_clean"
}
layer {
name: "norm2"
type: "LRN"
bottom: "conv2_clean"
top: "norm2"
lrn_param {
local_size: 5
alpha: 0.0001
beta: 0.75
}
}
layer {
name: "pool2"
type: "Pooling"
bottom: "norm2"
top: "pool2"
pooling_param {
pool: MAX
kernel_size: 3
stride: 2
}
}
layer {
name: "conv3_clean"
type: "Convolution"
bottom: "pool2"
top: "conv3_clean"
param {
lr_mult: 1
decay_mult: 1
}
param {
lr_mult: 2
decay_mult: 0
}
convolution_param {
num_output: 384
pad: 1
kernel_size: 3
weight_filler {
type: "gaussian"
std: 0.01
}
bias_filler {
type: "constant"
value: 0
}
}
}
layer {
name: "relu3"
type: "ReLU"
bottom: "conv3_clean"
top: "conv3_clean"
}
layer {
name: "conv4_clean"
type: "Convolution"
bottom: "conv3_clean"
top: "conv4_clean"
param {
lr_mult: 1
decay_mult: 1
}
param {
lr_mult: 2
decay_mult: 0
}
convolution_param {
num_output: 384
pad: 1
kernel_size: 3
group: 2
weight_filler {
type: "gaussian"
std: 0.01
}
bias_filler {
type: "constant"
value: 0.1
}
}
}
layer {
name: "relu4"
type: "ReLU"
bottom: "conv4_clean"
top: "conv4_clean"
}
layer {
name: "conv5_clean"
type: "Convolution"
bottom: "conv4_clean"
top: "conv5_clean"
param {
lr_mult: 1
decay_mult: 1
}
param {
lr_mult: 2
decay_mult: 0
}
convolution_param {
num_output: 256
pad: 1
kernel_size: 3
group: 2
weight_filler {
type: "gaussian"
std: 0.01
}
bias_filler {
type: "constant"
value: 0.1
}
}
}
layer {
name: "relu5"
type: "ReLU"
bottom: "conv5_clean"
top: "conv5_clean"
}
layer {
name: "pool5"
type: "Pooling"
bottom: "conv5_clean"
top: "pool5"
pooling_param {
pool: MAX
kernel_size: 3
stride: 2
}
}
layer {
name: "fc6_clean"
type: "InnerProduct"
bottom: "pool5"
top: "fc6_clean"
param {
lr_mult: 1
decay_mult: 1
}
param {
lr_mult: 2
decay_mult: 0
}
inner_product_param {
num_output: 4096
weight_filler {
type: "gaussian"
std: 0.005
}
bias_filler {
type: "constant"
value: 0.1
}
}
}
layer {
name: "relu6"
type: "ReLU"
bottom: "fc6_clean"
top: "fc6_clean"
}
layer {
name: "drop6"
type: "Dropout"
bottom: "fc6_clean"
top: "fc6_clean"
dropout_param {
dropout_ratio: 0.5
}
}
layer {
name: "fc7_clean"
type: "InnerProduct"
bottom: "fc6_clean"
top: "fc7_clean"
param {
lr_mult: 1
decay_mult: 1
}
param {
lr_mult: 2
decay_mult: 0
}
inner_product_param {
num_output: 4096
weight_filler {
type: "gaussian"
std: 0.005
}
bias_filler {
type: "constant"
value: 0.1
}
}
}
layer {
name: "relu7"
type: "ReLU"
bottom: "fc7_clean"
top: "fc7_clean"
}
layer {
name: "drop7"
type: "Dropout"
bottom: "fc7_clean"
top: "fc7_clean"
dropout_param {
dropout_ratio: 0.5
}
}
layer {
name: "fc8_clean"
type: "InnerProduct"
bottom: "fc7_clean"
top: "fc8_clean"
param {
lr_mult: 1
decay_mult: 1
}
param {
lr_mult: 2
decay_mult: 0
}
inner_product_param {
num_output: 967
weight_filler {
type: "gaussian"
std: 0.01
}
bias_filler {
type: "constant"
value: 0
}
}
}
layer {
name: "loss"
type: "SoftmaxWithLoss"
bottom: "fc8_clean"
bottom: "label"
top: "loss"
}
I0706 00:52:10.832453 13669 layer_factory.hpp:76] Creating layer train-data
I0706 00:52:10.833068 13669 net.cpp:109] Creating Layer train-data
I0706 00:52:10.833082 13669 net.cpp:414] train-data -> data
I0706 00:52:10.833107 13669 net.cpp:414] train-data -> label
I0706 00:52:10.833120 13669 data_transformer.cpp:25] Loading mean file from: /home/zml374/workspace/DIGITS/digits/jobs/20160704-085910-0cc9/mean.binaryproto
I0706 00:52:10.834741 13697 db_lmdb.cpp:36] Opened lmdb /home/zml374/workspace/DIGITS/digits/jobs/20160704-085910-0cc9/train_db
I0706 00:52:10.841461 13669 data_layer.cpp:45] output data size: 200,3,227,227
I0706 00:52:11.166980 13669 net.cpp:153] Setting up train-data
I0706 00:52:11.167037 13669 net.cpp:160] Top shape: 200 3 227 227 (30917400)
I0706 00:52:11.167047 13669 net.cpp:160] Top shape: 200 (200)
I0706 00:52:11.167052 13669 net.cpp:168] Memory required for data: 123670400
I0706 00:52:11.167065 13669 layer_factory.hpp:76] Creating layer conv1
I0706 00:52:11.167090 13669 net.cpp:109] Creating Layer conv1
I0706 00:52:11.167098 13669 net.cpp:457] conv1 <- data
I0706 00:52:11.167115 13669 net.cpp:414] conv1 -> conv1
I0706 00:52:11.171098 13669 net.cpp:153] Setting up conv1
I0706 00:52:11.171116 13669 net.cpp:160] Top shape: 200 96 55 55 (58080000)
I0706 00:52:11.171121 13669 net.cpp:168] Memory required for data: 355990400
I0706 00:52:11.171144 13669 layer_factory.hpp:76] Creating layer relu1
I0706 00:52:11.171156 13669 net.cpp:109] Creating Layer relu1
I0706 00:52:11.171161 13669 net.cpp:457] relu1 <- conv1
I0706 00:52:11.171169 13669 net.cpp:400] relu1 -> conv1 (in-place)
I0706 00:52:11.171185 13669 net.cpp:153] Setting up relu1
I0706 00:52:11.171191 13669 net.cpp:160] Top shape: 200 96 55 55 (58080000)
I0706 00:52:11.171196 13669 net.cpp:168] Memory required for data: 588310400
I0706 00:52:11.171201 13669 layer_factory.hpp:76] Creating layer norm1
I0706 00:52:11.171229 13669 net.cpp:109] Creating Layer norm1
I0706 00:52:11.171236 13669 net.cpp:457] norm1 <- conv1
I0706 00:52:11.171244 13669 net.cpp:414] norm1 -> norm1
I0706 00:52:11.171329 13669 net.cpp:153] Setting up norm1
I0706 00:52:11.171339 13669 net.cpp:160] Top shape: 200 96 55 55 (58080000)
I0706 00:52:11.171344 13669 net.cpp:168] Memory required for data: 820630400
I0706 00:52:11.171388 13669 layer_factory.hpp:76] Creating layer pool1
I0706 00:52:11.171401 13669 net.cpp:109] Creating Layer pool1
I0706 00:52:11.171406 13669 net.cpp:457] pool1 <- norm1
I0706 00:52:11.171416 13669 net.cpp:414] pool1 -> pool1
I0706 00:52:11.171469 13669 net.cpp:153] Setting up pool1
I0706 00:52:11.171480 13669 net.cpp:160] Top shape: 200 96 27 27 (13996800)
I0706 00:52:11.171485 13669 net.cpp:168] Memory required for data: 876617600
I0706 00:52:11.171491 13669 layer_factory.hpp:76] Creating layer conv2_clean
I0706 00:52:11.171505 13669 net.cpp:109] Creating Layer conv2_clean
I0706 00:52:11.171509 13669 net.cpp:457] conv2_clean <- pool1
I0706 00:52:11.171519 13669 net.cpp:414] conv2_clean -> conv2_clean
I0706 00:52:11.188190 13669 net.cpp:153] Setting up conv2_clean
I0706 00:52:11.188211 13669 net.cpp:160] Top shape: 200 256 27 27 (37324800)
I0706 00:52:11.188216 13669 net.cpp:168] Memory required for data: 1025916800
I0706 00:52:11.188230 13669 layer_factory.hpp:76] Creating layer relu2
I0706 00:52:11.188238 13669 net.cpp:109] Creating Layer relu2
I0706 00:52:11.188244 13669 net.cpp:457] relu2 <- conv2_clean
I0706 00:52:11.188252 13669 net.cpp:400] relu2 -> conv2_clean (in-place)
I0706 00:52:11.188262 13669 net.cpp:153] Setting up relu2
I0706 00:52:11.188269 13669 net.cpp:160] Top shape: 200 256 27 27 (37324800)
I0706 00:52:11.188274 13669 net.cpp:168] Memory required for data: 1175216000
I0706 00:52:11.188278 13669 layer_factory.hpp:76] Creating layer norm2
I0706 00:52:11.188288 13669 net.cpp:109] Creating Layer norm2
I0706 00:52:11.188292 13669 net.cpp:457] norm2 <- conv2_clean
I0706 00:52:11.188300 13669 net.cpp:414] norm2 -> norm2
I0706 00:52:11.188345 13669 net.cpp:153] Setting up norm2
I0706 00:52:11.188354 13669 net.cpp:160] Top shape: 200 256 27 27 (37324800)
I0706 00:52:11.188359 13669 net.cpp:168] Memory required for data: 1324515200
I0706 00:52:11.188364 13669 layer_factory.hpp:76] Creating layer pool2
I0706 00:52:11.188375 13669 net.cpp:109] Creating Layer pool2
I0706 00:52:11.188380 13669 net.cpp:457] pool2 <- norm2
I0706 00:52:11.188387 13669 net.cpp:414] pool2 -> pool2
I0706 00:52:11.188428 13669 net.cpp:153] Setting up pool2
I0706 00:52:11.188437 13669 net.cpp:160] Top shape: 200 256 13 13 (8652800)
I0706 00:52:11.188441 13669 net.cpp:168] Memory required for data: 1359126400
I0706 00:52:11.188446 13669 layer_factory.hpp:76] Creating layer conv3_clean
I0706 00:52:11.188457 13669 net.cpp:109] Creating Layer conv3_clean
I0706 00:52:11.188462 13669 net.cpp:457] conv3_clean <- pool2
I0706 00:52:11.188470 13669 net.cpp:414] conv3_clean -> conv3_clean
I0706 00:52:11.222188 13669 net.cpp:153] Setting up conv3_clean
I0706 00:52:11.222204 13669 net.cpp:160] Top shape: 200 384 13 13 (12979200)
I0706 00:52:11.222209 13669 net.cpp:168] Memory required for data: 1411043200
I0706 00:52:11.222220 13669 layer_factory.hpp:76] Creating layer relu3
I0706 00:52:11.222229 13669 net.cpp:109] Creating Layer relu3
I0706 00:52:11.222234 13669 net.cpp:457] relu3 <- conv3_clean
I0706 00:52:11.222242 13669 net.cpp:400] relu3 -> conv3_clean (in-place)
I0706 00:52:11.222251 13669 net.cpp:153] Setting up relu3
I0706 00:52:11.222257 13669 net.cpp:160] Top shape: 200 384 13 13 (12979200)
I0706 00:52:11.222261 13669 net.cpp:168] Memory required for data: 1462960000
I0706 00:52:11.222265 13669 layer_factory.hpp:76] Creating layer conv4_clean
I0706 00:52:11.222276 13669 net.cpp:109] Creating Layer conv4_clean
I0706 00:52:11.222281 13669 net.cpp:457] conv4_clean <- conv3_clean
I0706 00:52:11.222290 13669 net.cpp:414] conv4_clean -> conv4_clean
I0706 00:52:11.247623 13669 net.cpp:153] Setting up conv4_clean
I0706 00:52:11.247639 13669 net.cpp:160] Top shape: 200 384 13 13 (12979200)
I0706 00:52:11.247644 13669 net.cpp:168] Memory required for data: 1514876800
I0706 00:52:11.247653 13669 layer_factory.hpp:76] Creating layer relu4
I0706 00:52:11.247660 13669 net.cpp:109] Creating Layer relu4
I0706 00:52:11.247665 13669 net.cpp:457] relu4 <- conv4_clean
I0706 00:52:11.247673 13669 net.cpp:400] relu4 -> conv4_clean (in-place)
I0706 00:52:11.247699 13669 net.cpp:153] Setting up relu4
I0706 00:52:11.247707 13669 net.cpp:160] Top shape: 200 384 13 13 (12979200)
I0706 00:52:11.247711 13669 net.cpp:168] Memory required for data: 1566793600
I0706 00:52:11.247716 13669 layer_factory.hpp:76] Creating layer conv5_clean
I0706 00:52:11.247727 13669 net.cpp:109] Creating Layer conv5_clean
I0706 00:52:11.247732 13669 net.cpp:457] conv5_clean <- conv4_clean
I0706 00:52:11.247741 13669 net.cpp:414] conv5_clean -> conv5_clean
I0706 00:52:11.264755 13669 net.cpp:153] Setting up conv5_clean
I0706 00:52:11.264770 13669 net.cpp:160] Top shape: 200 256 13 13 (8652800)
I0706 00:52:11.264775 13669 net.cpp:168] Memory required for data: 1601404800
I0706 00:52:11.264786 13669 layer_factory.hpp:76] Creating layer relu5
I0706 00:52:11.264796 13669 net.cpp:109] Creating Layer relu5
I0706 00:52:11.264801 13669 net.cpp:457] relu5 <- conv5_clean
I0706 00:52:11.264807 13669 net.cpp:400] relu5 -> conv5_clean (in-place)
I0706 00:52:11.264816 13669 net.cpp:153] Setting up relu5
I0706 00:52:11.264822 13669 net.cpp:160] Top shape: 200 256 13 13 (8652800)
I0706 00:52:11.264827 13669 net.cpp:168] Memory required for data: 1636016000
I0706 00:52:11.264832 13669 layer_factory.hpp:76] Creating layer pool5
I0706 00:52:11.264840 13669 net.cpp:109] Creating Layer pool5
I0706 00:52:11.264844 13669 net.cpp:457] pool5 <- conv5_clean
I0706 00:52:11.264852 13669 net.cpp:414] pool5 -> pool5
I0706 00:52:11.264895 13669 net.cpp:153] Setting up pool5
I0706 00:52:11.264904 13669 net.cpp:160] Top shape: 200 256 6 6 (1843200)
I0706 00:52:11.264909 13669 net.cpp:168] Memory required for data: 1643388800
I0706 00:52:11.264914 13669 layer_factory.hpp:76] Creating layer fc6_clean
I0706 00:52:11.264927 13669 net.cpp:109] Creating Layer fc6_clean
I0706 00:52:11.264932 13669 net.cpp:457] fc6_clean <- pool5
I0706 00:52:11.264940 13669 net.cpp:414] fc6_clean -> fc6_clean
I0706 00:52:12.725244 13669 net.cpp:153] Setting up fc6_clean
I0706 00:52:12.725286 13669 net.cpp:160] Top shape: 200 4096 (819200)
I0706 00:52:12.725292 13669 net.cpp:168] Memory required for data: 1646665600
I0706 00:52:12.725307 13669 layer_factory.hpp:76] Creating layer relu6
I0706 00:52:12.725322 13669 net.cpp:109] Creating Layer relu6
I0706 00:52:12.725329 13669 net.cpp:457] relu6 <- fc6_clean
I0706 00:52:12.725342 13669 net.cpp:400] relu6 -> fc6_clean (in-place)
I0706 00:52:12.725358 13669 net.cpp:153] Setting up relu6
I0706 00:52:12.725364 13669 net.cpp:160] Top shape: 200 4096 (819200)
I0706 00:52:12.725369 13669 net.cpp:168] Memory required for data: 1649942400
I0706 00:52:12.725374 13669 layer_factory.hpp:76] Creating layer drop6
I0706 00:52:12.725399 13669 net.cpp:109] Creating Layer drop6
I0706 00:52:12.725404 13669 net.cpp:457] drop6 <- fc6_clean
I0706 00:52:12.725412 13669 net.cpp:400] drop6 -> fc6_clean (in-place)
I0706 00:52:12.725448 13669 net.cpp:153] Setting up drop6
I0706 00:52:12.725457 13669 net.cpp:160] Top shape: 200 4096 (819200)
I0706 00:52:12.725462 13669 net.cpp:168] Memory required for data: 1653219200
I0706 00:52:12.725466 13669 layer_factory.hpp:76] Creating layer fc7_clean
I0706 00:52:12.725479 13669 net.cpp:109] Creating Layer fc7_clean
I0706 00:52:12.725483 13669 net.cpp:457] fc7_clean <- fc6_clean
I0706 00:52:12.725492 13669 net.cpp:414] fc7_clean -> fc7_clean
I0706 00:52:13.374938 13669 net.cpp:153] Setting up fc7_clean
I0706 00:52:13.374977 13669 net.cpp:160] Top shape: 200 4096 (819200)
I0706 00:52:13.374984 13669 net.cpp:168] Memory required for data: 1656496000
I0706 00:52:13.374997 13669 layer_factory.hpp:76] Creating layer relu7
I0706 00:52:13.375012 13669 net.cpp:109] Creating Layer relu7
I0706 00:52:13.375020 13669 net.cpp:457] relu7 <- fc7_clean
I0706 00:52:13.375031 13669 net.cpp:400] relu7 -> fc7_clean (in-place)
I0706 00:52:13.375048 13669 net.cpp:153] Setting up relu7
I0706 00:52:13.375054 13669 net.cpp:160] Top shape: 200 4096 (819200)
I0706 00:52:13.375059 13669 net.cpp:168] Memory required for data: 1659772800
I0706 00:52:13.375063 13669 layer_factory.hpp:76] Creating layer drop7
I0706 00:52:13.375114 13669 net.cpp:109] Creating Layer drop7
I0706 00:52:13.375120 13669 net.cpp:457] drop7 <- fc7_clean
I0706 00:52:13.375128 13669 net.cpp:400] drop7 -> fc7_clean (in-place)
I0706 00:52:13.375167 13669 net.cpp:153] Setting up drop7
I0706 00:52:13.375176 13669 net.cpp:160] Top shape: 200 4096 (819200)
I0706 00:52:13.375181 13669 net.cpp:168] Memory required for data: 1663049600
I0706 00:52:13.375186 13669 layer_factory.hpp:76] Creating layer fc8_clean
I0706 00:52:13.375198 13669 net.cpp:109] Creating Layer fc8_clean
I0706 00:52:13.375203 13669 net.cpp:457] fc8_clean <- fc7_clean
I0706 00:52:13.375217 13669 net.cpp:414] fc8_clean -> fc8_clean
I0706 00:52:13.525416 13669 net.cpp:153] Setting up fc8_clean
I0706 00:52:13.525434 13669 net.cpp:160] Top shape: 200 967 (193400)
I0706 00:52:13.525439 13669 net.cpp:168] Memory required for data: 1663823200
I0706 00:52:13.525447 13669 layer_factory.hpp:76] Creating layer loss
I0706 00:52:13.525459 13669 net.cpp:109] Creating Layer loss
I0706 00:52:13.525463 13669 net.cpp:457] loss <- fc8_clean
I0706 00:52:13.525470 13669 net.cpp:457] loss <- label
I0706 00:52:13.525477 13669 net.cpp:414] loss -> loss
I0706 00:52:13.525490 13669 layer_factory.hpp:76] Creating layer loss
…
I0706 00:52:13.527420 13669 net.cpp:325] The NetState phase (1) differed from the phase (0) specified by a rule in layer train-data
I0706 00:52:13.527643 13669 net.cpp:52] Initializing net from parameters:
state {
phase: TEST
}
layer {
name: "val-data"
type: "Data"
top: "data"
top: "label"
include {
phase: TEST
}
transform_param {
crop_size: 227
mean_file: "/home/zml374/workspace/DIGITS/digits/jobs/20160704-085910-0cc9/mean.binaryproto"
}
data_param {
source: "/home/zml374/workspace/DIGITS/digits/jobs/20160704-085910-0cc9/val_db"
batch_size: 200
backend: LMDB
}
}
layer {
name: "conv1"
type: "Convolution"
bottom: "data"
top: "conv1"
param {
lr_mult: 1
decay_mult: 1
}
param {
lr_mult: 2
decay_mult: 0
}
convolution_param {
num_output: 96
kernel_size: 11
stride: 4
weight_filler {
type: "gaussian"
std: 0.01
}
bias_filler {
type: "constant"
value: 0
}
}
}
layer {
name: "relu1"
type: "ReLU"
bottom: "conv1"
top: "conv1"
}
layer {
name: "norm1"
type: "LRN"
bottom: "conv1"
top: "norm1"
lrn_param {
local_size: 5
alpha: 0.0001
beta: 0.75
}
}
layer {
name: "pool1"
type: "Pooling"
bottom: "norm1"
top: "pool1"
pooling_param {
pool: MAX
kernel_size: 3
stride: 2
}
}
layer {
name: "conv2_clean"
type: "Convolution"
bottom: "pool1"
top: "conv2_clean"
param {
lr_mult: 1
decay_mult: 1
}
param {
lr_mult: 2
decay_mult: 0
}
convolution_param {
num_output: 256
pad: 2
kernel_size: 5
group: 2
weight_filler {
type: "gaussian"
std: 0.01
}
bias_filler {
type: "constant"
value: 0.1
}
}
}
layer {
name: "relu2"
type: "ReLU"
bottom: "conv2_clean"
top: "conv2_clean"
}
layer {
name: "norm2"
type: "LRN"
bottom: "conv2_clean"
top: "norm2"
lrn_param {
local_size: 5
alpha: 0.0001
beta: 0.75
}
}
layer {
name: "pool2"
type: "Pooling"
bottom: "norm2"
top: "pool2"
pooling_param {
pool: MAX
kernel_size: 3
stride: 2
}
}
layer {
name: "conv3_clean"
type: "Convolution"
bottom: "pool2"
top: "conv3_clean"
param {
lr_mult: 1
decay_mult: 1
}
param {
lr_mult: 2
decay_mult: 0
}
convolution_param {
num_output: 384
pad: 1
kernel_size: 3
weight_filler {
type: "gaussian"
std: 0.01
}
bias_filler {
type: "constant"
value: 0
}
}
}
layer {
name: "relu3"
type: "ReLU"
bottom: "conv3_clean"
top: "conv3_clean"
}
layer {
name: "conv4_clean"
type: "Convolution"
bottom: "conv3_clean"
top: "conv4_clean"
param {
lr_mult: 1
decay_mult: 1
}
param {
lr_mult: 2
decay_mult: 0
}
convolution_param {
num_output: 384
pad: 1
kernel_size: 3
group: 2
weight_filler {
type: "gaussian"
std: 0.01
}
bias_filler {
type: "constant"
value: 0.1
}
}
}
layer {
name: "relu4"
type: "ReLU"
bottom: "conv4_clean"
top: "conv4_clean"
}
layer {
name: "conv5_clean"
type: "Convolution"
bottom: "conv4_clean"
top: "conv5_clean"
param {
lr_mult: 1
decay_mult: 1
}
param {
lr_mult: 2
decay_mult: 0
}
convolution_param {
num_output: 256
pad: 1
kernel_size: 3
group: 2
weight_filler {
type: "gaussian"
std: 0.01
}
bias_filler {
type: "constant"
value: 0.1
}
}
}
layer {
name: "relu5"
type: "ReLU"
bottom: "conv5_clean"
top: "conv5_clean"
}
layer {
name: "pool5"
type: "Pooling"
bottom: "conv5_clean"
top: "pool5"
pooling_param {
pool: MAX
kernel_size: 3
stride: 2
}
}
layer {
name: "fc6_clean"
type: "InnerProduct"
bottom: "pool5"
top: "fc6_clean"
param {
lr_mult: 1
decay_mult: 1
}
param {
lr_mult: 2
decay_mult: 0
}
inner_product_param {
num_output: 4096
weight_filler {
type: "gaussian"
std: 0.005
}
bias_filler {
type: "constant"
value: 0.1
}
}
}
layer {
name: "relu6"
type: "ReLU"
bottom: "fc6_clean"
top: "fc6_clean"
}
layer {
name: "drop6"
type: "Dropout"
bottom: "fc6_clean"
top: "fc6_clean"
dropout_param {
dropout_ratio: 0.5
}
}
layer {
name: "fc7_clean"
type: "InnerProduct"
bottom: "fc6_clean"
top: "fc7_clean"
param {
lr_mult: 1
decay_mult: 1
}
param {
lr_mult: 2
decay_mult: 0
}
inner_product_param {
num_output: 4096
weight_filler {
type: "gaussian"
std: 0.005
}
bias_filler {
type: "constant"
value: 0.1
}
}
}
layer {
name: "relu7"
type: "ReLU"
bottom: "fc7_clean"
top: "fc7_clean"
}
layer {
name: "drop7"
type: "Dropout"
bottom: "fc7_clean"
top: "fc7_clean"
dropout_param {
dropout_ratio: 0.5
}
}
layer {
name: "fc8_clean"
type: "InnerProduct"
bottom: "fc7_clean"
top: "fc8_clean"
param {
lr_mult: 1
decay_mult: 1
}
param {
lr_mult: 2
decay_mult: 0
}
inner_product_param {
num_output: 967
weight_filler {
type: "gaussian"
std: 0.01
}
bias_filler {
type: "constant"
value: 0
}
}
}
layer {
name: "accuracy"
type: "Accuracy"
bottom: "fc8_clean"
bottom: "label"
top: "accuracy"
include {
phase: TEST
}
}
layer {
name: "loss"
type: "SoftmaxWithLoss"
bottom: "fc8_clean"
bottom: "label"
top: "loss"
}
I0706 00:52:13.527793 13669 layer_factory.hpp:76] Creating layer val-data
I0706 00:52:13.528024 13669 net.cpp:109] Creating Layer val-data
I0706 00:52:13.528038 13669 net.cpp:414] val-data -> data
I0706 00:52:13.528049 13669 net.cpp:414] val-data -> label
I0706 00:52:13.528060 13669 data_transformer.cpp:25] Loading mean file from: /home/zml374/workspace/DIGITS/digits/jobs/20160704-085910-0cc9/mean.binaryproto
I0706 00:52:13.530781 13699 db_lmdb.cpp:36] Opened lmdb /home/zml374/workspace/DIGITS/digits/jobs/20160704-085910-0cc9/val_db
I0706 00:52:13.534807 13669 data_layer.cpp:45] output data size: 200,3,227,227
I0706 00:52:13.847373 13669 net.cpp:153] Setting up val-data
I0706 00:52:13.847420 13669 net.cpp:160] Top shape: 200 3 227 227 (30917400)
I0706 00:52:13.847429 13669 net.cpp:160] Top shape: 200 (200)
I0706 00:52:13.847434 13669 net.cpp:168] Memory required for data: 123670400
I0706 00:52:13.847443 13669 layer_factory.hpp:76] Creating layer label_val-data_1_split
I0706 00:52:13.847462 13669 net.cpp:109] Creating Layer label_val-data_1_split
I0706 00:52:13.847468 13669 net.cpp:457] label_val-data_1_split <- label
I0706 00:52:13.847481 13669 net.cpp:414] label_val-data_1_split -> label_val-data_1_split_0
I0706 00:52:13.847493 13669 net.cpp:414] label_val-data_1_split -> label_val-data_1_split_1
I0706 00:52:13.847597 13669 net.cpp:153] Setting up label_val-data_1_split
I0706 00:52:13.847610 13669 net.cpp:160] Top shape: 200 (200)
I0706 00:52:13.847616 13669 net.cpp:160] Top shape: 200 (200)
I0706 00:52:13.847621 13669 net.cpp:168] Memory required for data: 123672000
I0706 00:52:13.847626 13669 layer_factory.hpp:76] Creating layer conv1
I0706 00:52:13.847643 13669 net.cpp:109] Creating Layer conv1
I0706 00:52:13.847648 13669 net.cpp:457] conv1 <- data
I0706 00:52:13.847657 13669 net.cpp:414] conv1 -> conv1
I0706 00:52:13.849225 13669 net.cpp:153] Setting up conv1
I0706 00:52:13.849238 13669 net.cpp:160] Top shape: 200 96 55 55 (58080000)
I0706 00:52:13.849243 13669 net.cpp:168] Memory required for data: 355992000
I0706 00:52:13.849258 13669 layer_factory.hpp:76] Creating layer relu1
I0706 00:52:13.849268 13669 net.cpp:109] Creating Layer relu1
I0706 00:52:13.849273 13669 net.cpp:457] relu1 <- conv1
I0706 00:52:13.849282 13669 net.cpp:400] relu1 -> conv1 (in-place)
I0706 00:52:13.849292 13669 net.cpp:153] Setting up relu1
I0706 00:52:13.849298 13669 net.cpp:160] Top shape: 200 96 55 55 (58080000)
I0706 00:52:13.849303 13669 net.cpp:168] Memory required for data: 588312000
I0706 00:52:13.849308 13669 layer_factory.hpp:76] Creating layer norm1
I0706 00:52:13.849320 13669 net.cpp:109] Creating Layer norm1
I0706 00:52:13.849324 13669 net.cpp:457] norm1 <- conv1
I0706 00:52:13.849331 13669 net.cpp:414] norm1 -> norm1
I0706 00:52:13.849380 13669 net.cpp:153] Setting up norm1
I0706 00:52:13.849390 13669 net.cpp:160] Top shape: 200 96 55 55 (58080000)
I0706 00:52:13.849393 13669 net.cpp:168] Memory required for data: 820632000
I0706 00:52:13.849398 13669 layer_factory.hpp:76] Creating layer pool1
I0706 00:52:13.849409 13669 net.cpp:109] Creating Layer pool1
I0706 00:52:13.849455 13669 net.cpp:457] pool1 <- norm1
I0706 00:52:13.849464 13669 net.cpp:414] pool1 -> pool1
I0706 00:52:13.849512 13669 net.cpp:153] Setting up pool1
I0706 00:52:13.849521 13669 net.cpp:160] Top shape: 200 96 27 27 (13996800)
I0706 00:52:13.849525 13669 net.cpp:168] Memory required for data: 876619200
I0706 00:52:13.849530 13669 layer_factory.hpp:76] Creating layer conv2_clean
I0706 00:52:13.849542 13669 net.cpp:109] Creating Layer conv2_clean
I0706 00:52:13.849546 13669 net.cpp:457] conv2_clean <- pool1
I0706 00:52:13.849555 13669 net.cpp:414] conv2_clean -> conv2_clean
I0706 00:52:13.863708 13669 net.cpp:153] Setting up conv2_clean
I0706 00:52:13.863726 13669 net.cpp:160] Top shape: 200 256 27 27 (37324800)
I0706 00:52:13.863731 13669 net.cpp:168] Memory required for data: 1025918400
I0706 00:52:13.863744 13669 layer_factory.hpp:76] Creating layer relu2
I0706 00:52:13.863754 13669 net.cpp:109] Creating Layer relu2
I0706 00:52:13.863759 13669 net.cpp:457] relu2 <- conv2_clean
I0706 00:52:13.863768 13669 net.cpp:400] relu2 -> conv2_clean (in-place)
I0706 00:52:13.863778 13669 net.cpp:153] Setting up relu2
I0706 00:52:13.863785 13669 net.cpp:160] Top shape: 200 256 27 27 (37324800)
I0706 00:52:13.863788 13669 net.cpp:168] Memory required for data: 1175217600
I0706 00:52:13.863793 13669 layer_factory.hpp:76] Creating layer norm2
I0706 00:52:13.863802 13669 net.cpp:109] Creating Layer norm2
I0706 00:52:13.863807 13669 net.cpp:457] norm2 <- conv2_clean
I0706 00:52:13.863814 13669 net.cpp:414] norm2 -> norm2
I0706 00:52:13.863864 13669 net.cpp:153] Setting up norm2
I0706 00:52:13.863874 13669 net.cpp:160] Top shape: 200 256 27 27 (37324800)
I0706 00:52:13.863880 13669 net.cpp:168] Memory required for data: 1324516800
I0706 00:52:13.863885 13669 layer_factory.hpp:76] Creating layer pool2
I0706 00:52:13.863894 13669 net.cpp:109] Creating Layer pool2
I0706 00:52:13.863899 13669 net.cpp:457] pool2 <- norm2
I0706 00:52:13.863906 13669 net.cpp:414] pool2 -> pool2
I0706 00:52:13.863950 13669 net.cpp:153] Setting up pool2
I0706 00:52:13.863957 13669 net.cpp:160] Top shape: 200 256 13 13 (8652800)
I0706 00:52:13.863962 13669 net.cpp:168] Memory required for data: 1359128000
I0706 00:52:13.863966 13669 layer_factory.hpp:76] Creating layer conv3_clean
I0706 00:52:13.863978 13669 net.cpp:109] Creating Layer conv3_clean
I0706 00:52:13.863982 13669 net.cpp:457] conv3_clean <- pool2
I0706 00:52:13.863991 13669 net.cpp:414] conv3_clean -> conv3_clean
I0706 00:52:13.897781 13669 net.cpp:153] Setting up conv3_clean
I0706 00:52:13.897796 13669 net.cpp:160] Top shape: 200 384 13 13 (12979200)
I0706 00:52:13.897801 13669 net.cpp:168] Memory required for data: 1411044800
I0706 00:52:13.897814 13669 layer_factory.hpp:76] Creating layer relu3
I0706 00:52:13.897822 13669 net.cpp:109] Creating Layer relu3
I0706 00:52:13.897827 13669 net.cpp:457] relu3 <- conv3_clean
I0706 00:52:13.897835 13669 net.cpp:400] relu3 -> conv3_clean (in-place)
I0706 00:52:13.897845 13669 net.cpp:153] Setting up relu3
I0706 00:52:13.897850 13669 net.cpp:160] Top shape: 200 384 13 13 (12979200)
I0706 00:52:13.897855 13669 net.cpp:168] Memory required for data: 1462961600
I0706 00:52:13.897858 13669 layer_factory.hpp:76] Creating layer conv4_clean
I0706 00:52:13.897868 13669 net.cpp:109] Creating Layer conv4_clean
I0706 00:52:13.897872 13669 net.cpp:457] conv4_clean <- conv3_clean
I0706 00:52:13.897881 13669 net.cpp:414] conv4_clean -> conv4_clean
I0706 00:52:13.923272 13669 net.cpp:153] Setting up conv4_clean
I0706 00:52:13.923287 13669 net.cpp:160] Top shape: 200 384 13 13 (12979200)
I0706 00:52:13.923292 13669 net.cpp:168] Memory required for data: 1514878400
I0706 00:52:13.923300 13669 layer_factory.hpp:76] Creating layer relu4
I0706 00:52:13.923310 13669 net.cpp:109] Creating Layer relu4
I0706 00:52:13.923315 13669 net.cpp:457] relu4 <- conv4_clean
I0706 00:52:13.923322 13669 net.cpp:400] relu4 -> conv4_clean (in-place)
I0706 00:52:13.923331 13669 net.cpp:153] Setting up relu4
I0706 00:52:13.923337 13669 net.cpp:160] Top shape: 200 384 13 13 (12979200)
I0706 00:52:13.923359 13669 net.cpp:168] Memory required for data: 1566795200
I0706 00:52:13.923365 13669 layer_factory.hpp:76] Creating layer conv5_clean
I0706 00:52:13.923377 13669 net.cpp:109] Creating Layer conv5_clean
I0706 00:52:13.923382 13669 net.cpp:457] conv5_clean <- conv4_clean
I0706 00:52:13.923389 13669 net.cpp:414] conv5_clean -> conv5_clean
I0706 00:52:13.940603 13669 net.cpp:153] Setting up conv5_clean
I0706 00:52:13.940618 13669 net.cpp:160] Top shape: 200 256 13 13 (8652800)
I0706 00:52:13.940623 13669 net.cpp:168] Memory required for data: 1601406400
I0706 00:52:13.940635 13669 layer_factory.hpp:76] Creating layer relu5
I0706 00:52:13.940644 13669 net.cpp:109] Creating Layer relu5
I0706 00:52:13.940649 13669 net.cpp:457] relu5 <- conv5_clean
I0706 00:52:13.940656 13669 net.cpp:400] relu5 -> conv5_clean (in-place)
I0706 00:52:13.940665 13669 net.cpp:153] Setting up relu5
I0706 00:52:13.940672 13669 net.cpp:160] Top shape: 200 256 13 13 (8652800)
I0706 00:52:13.940676 13669 net.cpp:168] Memory required for data: 1636017600
I0706 00:52:13.940680 13669 layer_factory.hpp:76] Creating layer pool5
I0706 00:52:13.940691 13669 net.cpp:109] Creating Layer pool5
I0706 00:52:13.940696 13669 net.cpp:457] pool5 <- conv5_clean
I0706 00:52:13.940702 13669 net.cpp:414] pool5 -> pool5
I0706 00:52:13.940749 13669 net.cpp:153] Setting up pool5
I0706 00:52:13.940758 13669 net.cpp:160] Top shape: 200 256 6 6 (1843200)
I0706 00:52:13.940762 13669 net.cpp:168] Memory required for data: 1643390400
I0706 00:52:13.940768 13669 layer_factory.hpp:76] Creating layer fc6_clean
I0706 00:52:13.940779 13669 net.cpp:109] Creating Layer fc6_clean
I0706 00:52:13.940784 13669 net.cpp:457] fc6_clean <- pool5
I0706 00:52:13.940793 13669 net.cpp:414] fc6_clean -> fc6_clean
I0706 00:52:15.440593 13669 net.cpp:153] Setting up fc6_clean
I0706 00:52:15.440640 13669 net.cpp:160] Top shape: 200 4096 (819200)
I0706 00:52:15.440646 13669 net.cpp:168] Memory required for data: 1646667200
I0706 00:52:15.440660 13669 layer_factory.hpp:76] Creating layer relu6
I0706 00:52:15.440675 13669 net.cpp:109] Creating Layer relu6
I0706 00:52:15.440683 13669 net.cpp:457] relu6 <- fc6_clean
I0706 00:52:15.440695 13669 net.cpp:400] relu6 -> fc6_clean (in-place)
I0706 00:52:15.440711 13669 net.cpp:153] Setting up relu6
I0706 00:52:15.440717 13669 net.cpp:160] Top shape: 200 4096 (819200)
I0706 00:52:15.440721 13669 net.cpp:168] Memory required for data: 1649944000
I0706 00:52:15.440726 13669 layer_factory.hpp:76] Creating layer drop6
I0706 00:52:15.440737 13669 net.cpp:109] Creating Layer drop6
I0706 00:52:15.440742 13669 net.cpp:457] drop6 <- fc6_clean
I0706 00:52:15.440747 13669 net.cpp:400] drop6 -> fc6_clean (in-place)
I0706 00:52:15.440788 13669 net.cpp:153] Setting up drop6
I0706 00:52:15.440796 13669 net.cpp:160] Top shape: 200 4096 (819200)
I0706 00:52:15.440801 13669 net.cpp:168] Memory required for data: 1653220800
I0706 00:52:15.440805 13669 layer_factory.hpp:76] Creating layer fc7_clean
I0706 00:52:15.440819 13669 net.cpp:109] Creating Layer fc7_clean
I0706 00:52:15.440824 13669 net.cpp:457] fc7_clean <- fc6_clean
I0706 00:52:15.440831 13669 net.cpp:414] fc7_clean -> fc7_clean
I0706 00:52:16.090517 13669 net.cpp:153] Setting up fc7_clean
I0706 00:52:16.090560 13669 net.cpp:160] Top shape: 200 4096 (819200)
I0706 00:52:16.090566 13669 net.cpp:168] Memory required for data: 1656497600
I0706 00:52:16.090579 13669 layer_factory.hpp:76] Creating layer relu7
I0706 00:52:16.090595 13669 net.cpp:109] Creating Layer relu7
I0706 00:52:16.090602 13669 net.cpp:457] relu7 <- fc7_clean
I0706 00:52:16.090613 13669 net.cpp:400] relu7 -> fc7_clean (in-place)
I0706 00:52:16.090629 13669 net.cpp:153] Setting up relu7
I0706 00:52:16.090636 13669 net.cpp:160] Top shape: 200 4096 (819200)
I0706 00:52:16.090641 13669 net.cpp:168] Memory required for data: 1659774400
I0706 00:52:16.090646 13669 layer_factory.hpp:76] Creating layer drop7
I0706 00:52:16.090656 13669 net.cpp:109] Creating Layer drop7
I0706 00:52:16.090659 13669 net.cpp:457] drop7 <- fc7_clean
I0706 00:52:16.090667 13669 net.cpp:400] drop7 -> fc7_clean (in-place)
I0706 00:52:16.090756 13669 net.cpp:153] Setting up drop7
I0706 00:52:16.090767 13669 net.cpp:160] Top shape: 200 4096 (819200)
I0706 00:52:16.090772 13669 net.cpp:168] Memory required for data: 1663051200
I0706 00:52:16.090777 13669 layer_factory.hpp:76] Creating layer fc8_clean
I0706 00:52:16.090790 13669 net.cpp:109] Creating Layer fc8_clean
I0706 00:52:16.090795 13669 net.cpp:457] fc8_clean <- fc7_clean
I0706 00:52:16.090803 13669 net.cpp:414] fc8_clean -> fc8_clean
I0706 00:52:16.240960 13669 net.cpp:153] Setting up fc8_clean
I0706 00:52:16.240988 13669 net.cpp:160] Top shape: 200 967 (193400)
I0706 00:52:16.240993 13669 net.cpp:168] Memory required for data: 1663824800
I0706 00:52:16.241004 13669 layer_factory.hpp:76] Creating layer fc8_clean_fc8_clean_0_split
I0706 00:52:16.241015 13669 net.cpp:109] Creating Layer fc8_clean_fc8_clean_0_split
I0706 00:52:16.241021 13669 net.cpp:457] fc8_clean_fc8_clean_0_split <- fc8_clean
I0706 00:52:16.241031 13669 net.cpp:414] fc8_clean_fc8_clean_0_split -> fc8_clean_fc8_clean_0_split_0
I0706 00:52:16.241042 13669 net.cpp:414] fc8_clean_fc8_clean_0_split -> fc8_clean_fc8_clean_0_split_1
I0706 00:52:16.241094 13669 net.cpp:153] Setting up fc8_clean_fc8_clean_0_split
I0706 00:52:16.241104 13669 net.cpp:160] Top shape: 200 967 (193400)
I0706 00:52:16.241111 13669 net.cpp:160] Top shape: 200 967 (193400)
I0706 00:52:16.241114 13669 net.cpp:168] Memory required for data: 1665372000
I0706 00:52:16.241119 13669 layer_factory.hpp:76] Creating layer accuracy
I0706 00:52:16.241130 13669 net.cpp:109] Creating Layer accuracy
I0706 00:52:16.241135 13669 net.cpp:457] accuracy <- fc8_clean_fc8_clean_0_split_0
I0706 00:52:16.241142 13669 net.cpp:457] accuracy <- label_val-data_1_split_0
I0706 00:52:16.241149 13669 net.cpp:414] accuracy -> accuracy
…
