…
I0625 08:30:50.254111  5799 net.cpp:325] The NetState phase (0) differed from the phase (1) specified by a rule in layer data
I0625 08:30:50.254122  5799 net.cpp:325] The NetState phase (0) differed from the phase (1) specified by a rule in layer accuracy
I0625 08:30:50.254212  5799 net.cpp:52] Initializing net from parameters:
state {
phase: TRAIN
}
layer {
name: "data"
type: "Data"
top: "data"
top: "label"
include {
phase: TRAIN
}
transform_param {
mirror: true
crop_size: 227
mean_file: "/usr/share/digits/digits/jobs/20160624-120053-bb9a/mean.binaryproto"
}
data_param {
source: "/usr/share/digits/digits/jobs/20160624-120053-bb9a/train_db"
batch_size: 100
backend: LMDB
}
}
layer {
name: "conv1"
type: "Convolution"
bottom: "data"
top: "conv1"
param {
lr_mult: 1
decay_mult: 1
}
param {
lr_mult: 2
decay_mult: 0
}
convolution_param {
num_output: 96
kernel_size: 11
stride: 4
weight_filler {
type: "gaussian"
std: 0.01
}
bias_filler {
type: "constant"
value: 0
}
}
}
layer {
name: "relu1"
type: "ReLU"
bottom: "conv1"
top: "conv1"
}
layer {
name: "norm1"
type: "LRN"
bottom: "conv1"
top: "norm1"
lrn_param {
local_size: 5
alpha: 0.0001
beta: 0.75
}
}
layer {
name: "pool1"
type: "Pooling"
bottom: "norm1"
top: "pool1"
pooling_param {
pool: MAX
kernel_size: 3
stride: 2
}
}
layer {
name: "conv2"
type: "Convolution"
bottom: "pool1"
top: "conv2"
param {
lr_mult: 1
decay_mult: 1
}
param {
lr_mult: 2
decay_mult: 0
}
convolution_param {
num_output: 256
pad: 2
kernel_size: 5
group: 2
weight_filler {
type: "gaussian"
std: 0.01
}
bias_filler {
type: "constant"
value: 0.1
}
}
}
layer {
name: "relu2"
type: "ReLU"
bottom: "conv2"
top: "conv2"
}
layer {
name: "norm2"
type: "LRN"
bottom: "conv2"
top: "norm2"
lrn_param {
local_size: 5
alpha: 0.0001
beta: 0.75
}
}
layer {
name: "pool2"
type: "Pooling"
bottom: "norm2"
top: "pool2"
pooling_param {
pool: MAX
kernel_size: 3
stride: 2
}
}
layer {
name: "conv3"
type: "Convolution"
bottom: "pool2"
top: "conv3"
param {
lr_mult: 1
decay_mult: 1
}
param {
lr_mult: 2
decay_mult: 0
}
convolution_param {
num_output: 384
pad: 1
kernel_size: 3
weight_filler {
type: "gaussian"
std: 0.01
}
bias_filler {
type: "constant"
value: 0
}
}
}
layer {
name: "relu3"
type: "ReLU"
bottom: "conv3"
top: "conv3"
}
layer {
name: "conv4"
type: "Convolution"
bottom: "conv3"
top: "conv4"
param {
lr_mult: 1
decay_mult: 1
}
param {
lr_mult: 2
decay_mult: 0
}
convolution_param {
num_output: 384
pad: 1
kernel_size: 3
group: 2
weight_filler {
type: "gaussian"
std: 0.01
}
bias_filler {
type: "constant"
value: 0.1
}
}
}
layer {
name: "relu4"
type: "ReLU"
bottom: "conv4"
top: "conv4"
}
layer {
name: "conv5"
type: "Convolution"
bottom: "conv4"
top: "conv5"
param {
lr_mult: 1
decay_mult: 1
}
param {
lr_mult: 2
decay_mult: 0
}
convolution_param {
num_output: 256
pad: 1
kernel_size: 3
group: 2
weight_filler {
type: "gaussian"
std: 0.01
}
bias_filler {
type: "constant"
value: 0.1
}
}
}
layer {
name: "relu5"
type: "ReLU"
bottom: "conv5"
top: "conv5"
}
layer {
name: "pool5"
type: "Pooling"
bottom: "conv5"
top: "pool5"
pooling_param {
pool: MAX
kernel_size: 3
stride: 2
}
}
layer {
name: "fc6"
type: "InnerProduct"
bottom: "pool5"
top: "fc6"
param {
lr_mult: 1
decay_mult: 1
}
param {
lr_mult: 2
decay_mult: 0
}
inner_product_param {
num_output: 4096
weight_filler {
type: "gaussian"
std: 0.005
}
bias_filler {
type: "constant"
value: 0.1
}
}
}
layer {
name: "relu6"
type: "ReLU"
bottom: "fc6"
top: "fc6"
}
layer {
name: "drop6"
type: "Dropout"
bottom: "fc6"
top: "fc6"
dropout_param {
dropout_ratio: 0.5
}
}
layer {
name: "fc7"
type: "InnerProduct"
bottom: "fc6"
top: "fc7"
param {
lr_mult: 1
decay_mult: 1
}
param {
lr_mult: 2
decay_mult: 0
}
inner_product_param {
num_output: 4096
weight_filler {
type: "gaussian"
std: 0.005
}
bias_filler {
type: "constant"
value: 0.1
}
}
}
layer {
name: "relu7"
type: "ReLU"
bottom: "fc7"
top: "fc7"
}
layer {
name: "drop7"
type: "Dropout"
bottom: "fc7"
top: "fc7"
dropout_param {
dropout_ratio: 0.5
}
}
layer {
name: "fc8_species"
type: "InnerProduct"
bottom: "fc7"
top: "fc8_species"
param {
lr_mult: 1
decay_mult: 1
}
param {
lr_mult: 2
decay_mult: 0
}
inner_product_param {
num_output: 967
weight_filler {
type: "gaussian"
std: 0.01
}
bias_filler {
type: "constant"
value: 0
}
}
}
layer {
name: "loss"
type: "SoftmaxWithLoss"
bottom: "fc8_species"
bottom: "label"
top: "loss"
}
I0625 08:30:50.254286  5799 layer_factory.hpp:76] Creating layer data
I0625 08:30:50.254362  5799 net.cpp:109] Creating Layer data
I0625 08:30:50.254366  5799 net.cpp:414] data -> data
I0625 08:30:50.254377  5799 net.cpp:414] data -> label
I0625 08:30:50.254382  5799 data_transformer.cpp:25] Loading mean file from: /usr/share/digits/digits/jobs/20160624-120053-bb9a/mean.binaryproto
I0625 08:30:50.255120  5811 db_lmdb.cpp:36] Opened lmdb /usr/share/digits/digits/jobs/20160624-120053-bb9a/train_db
I0625 08:30:50.257824  5799 data_layer.cpp:45] output data size: 100,3,227,227
I0625 08:30:50.321147  5799 net.cpp:153] Setting up data
I0625 08:30:50.321169  5799 net.cpp:160] Top shape: 100 3 227 227 (15458700)
I0625 08:30:50.321173  5799 net.cpp:160] Top shape: 100 (100)
I0625 08:30:50.321176  5799 net.cpp:168] Memory required for data: 61835200
I0625 08:30:50.321180  5799 layer_factory.hpp:76] Creating layer conv1
I0625 08:30:50.321189  5799 net.cpp:109] Creating Layer conv1
I0625 08:30:50.321192  5799 net.cpp:457] conv1 <- data
I0625 08:30:50.321198  5799 net.cpp:414] conv1 -> conv1
I0625 08:30:50.322497  5799 net.cpp:153] Setting up conv1
I0625 08:30:50.322505  5799 net.cpp:160] Top shape: 100 96 55 55 (29040000)
I0625 08:30:50.322507  5799 net.cpp:168] Memory required for data: 177995200
I0625 08:30:50.322515  5799 layer_factory.hpp:76] Creating layer relu1
I0625 08:30:50.322520  5799 net.cpp:109] Creating Layer relu1
I0625 08:30:50.322521  5799 net.cpp:457] relu1 <- conv1
I0625 08:30:50.322525  5799 net.cpp:400] relu1 -> conv1 (in-place)
I0625 08:30:50.322533  5799 net.cpp:153] Setting up relu1
I0625 08:30:50.322536  5799 net.cpp:160] Top shape: 100 96 55 55 (29040000)
I0625 08:30:50.322538  5799 net.cpp:168] Memory required for data: 294155200
I0625 08:30:50.322540  5799 layer_factory.hpp:76] Creating layer norm1
I0625 08:30:50.322545  5799 net.cpp:109] Creating Layer norm1
I0625 08:30:50.322546  5799 net.cpp:457] norm1 <- conv1
I0625 08:30:50.322548  5799 net.cpp:414] norm1 -> norm1
I0625 08:30:50.322573  5799 net.cpp:153] Setting up norm1
I0625 08:30:50.322576  5799 net.cpp:160] Top shape: 100 96 55 55 (29040000)
I0625 08:30:50.322577  5799 net.cpp:168] Memory required for data: 410315200
I0625 08:30:50.322579  5799 layer_factory.hpp:76] Creating layer pool1
I0625 08:30:50.322583  5799 net.cpp:109] Creating Layer pool1
I0625 08:30:50.322585  5799 net.cpp:457] pool1 <- norm1
I0625 08:30:50.322588  5799 net.cpp:414] pool1 -> pool1
I0625 08:30:50.322620  5799 net.cpp:153] Setting up pool1
I0625 08:30:50.322623  5799 net.cpp:160] Top shape: 100 96 27 27 (6998400)
I0625 08:30:50.322625  5799 net.cpp:168] Memory required for data: 438308800
I0625 08:30:50.322628  5799 layer_factory.hpp:76] Creating layer conv2
I0625 08:30:50.322631  5799 net.cpp:109] Creating Layer conv2
I0625 08:30:50.322633  5799 net.cpp:457] conv2 <- pool1
I0625 08:30:50.322636  5799 net.cpp:414] conv2 -> conv2
I0625 08:30:50.329151  5799 net.cpp:153] Setting up conv2
I0625 08:30:50.329159  5799 net.cpp:160] Top shape: 100 256 27 27 (18662400)
I0625 08:30:50.329161  5799 net.cpp:168] Memory required for data: 512958400
I0625 08:30:50.329166  5799 layer_factory.hpp:76] Creating layer relu2
I0625 08:30:50.329170  5799 net.cpp:109] Creating Layer relu2
I0625 08:30:50.329172  5799 net.cpp:457] relu2 <- conv2
I0625 08:30:50.329175  5799 net.cpp:400] relu2 -> conv2 (in-place)
I0625 08:30:50.329180  5799 net.cpp:153] Setting up relu2
I0625 08:30:50.329182  5799 net.cpp:160] Top shape: 100 256 27 27 (18662400)
I0625 08:30:50.329185  5799 net.cpp:168] Memory required for data: 587608000
I0625 08:30:50.329185  5799 layer_factory.hpp:76] Creating layer norm2
I0625 08:30:50.329190  5799 net.cpp:109] Creating Layer norm2
I0625 08:30:50.329190  5799 net.cpp:457] norm2 <- conv2
I0625 08:30:50.329193  5799 net.cpp:414] norm2 -> norm2
I0625 08:30:50.329213  5799 net.cpp:153] Setting up norm2
I0625 08:30:50.329216  5799 net.cpp:160] Top shape: 100 256 27 27 (18662400)
I0625 08:30:50.329217  5799 net.cpp:168] Memory required for data: 662257600
I0625 08:30:50.329219  5799 layer_factory.hpp:76] Creating layer pool2
I0625 08:30:50.329223  5799 net.cpp:109] Creating Layer pool2
I0625 08:30:50.329224  5799 net.cpp:457] pool2 <- norm2
I0625 08:30:50.329227  5799 net.cpp:414] pool2 -> pool2
I0625 08:30:50.329243  5799 net.cpp:153] Setting up pool2
I0625 08:30:50.329246  5799 net.cpp:160] Top shape: 100 256 13 13 (4326400)
I0625 08:30:50.329247  5799 net.cpp:168] Memory required for data: 679563200
I0625 08:30:50.329249  5799 layer_factory.hpp:76] Creating layer conv3
I0625 08:30:50.329253  5799 net.cpp:109] Creating Layer conv3
I0625 08:30:50.329254  5799 net.cpp:457] conv3 <- pool2
I0625 08:30:50.329257  5799 net.cpp:414] conv3 -> conv3
I0625 08:30:50.345242  5799 net.cpp:153] Setting up conv3
I0625 08:30:50.345257  5799 net.cpp:160] Top shape: 100 384 13 13 (6489600)
I0625 08:30:50.345259  5799 net.cpp:168] Memory required for data: 705521600
I0625 08:30:50.345268  5799 layer_factory.hpp:76] Creating layer relu3
I0625 08:30:50.345273  5799 net.cpp:109] Creating Layer relu3
I0625 08:30:50.345275  5799 net.cpp:457] relu3 <- conv3
I0625 08:30:50.345279  5799 net.cpp:400] relu3 -> conv3 (in-place)
I0625 08:30:50.345284  5799 net.cpp:153] Setting up relu3
I0625 08:30:50.345288  5799 net.cpp:160] Top shape: 100 384 13 13 (6489600)
I0625 08:30:50.345288  5799 net.cpp:168] Memory required for data: 731480000
I0625 08:30:50.345290  5799 layer_factory.hpp:76] Creating layer conv4
I0625 08:30:50.345295  5799 net.cpp:109] Creating Layer conv4
I0625 08:30:50.345298  5799 net.cpp:457] conv4 <- conv3
I0625 08:30:50.345300  5799 net.cpp:414] conv4 -> conv4
I0625 08:30:50.357394  5799 net.cpp:153] Setting up conv4
I0625 08:30:50.357410  5799 net.cpp:160] Top shape: 100 384 13 13 (6489600)
I0625 08:30:50.357412  5799 net.cpp:168] Memory required for data: 757438400
I0625 08:30:50.357417  5799 layer_factory.hpp:76] Creating layer relu4
I0625 08:30:50.357424  5799 net.cpp:109] Creating Layer relu4
I0625 08:30:50.357426  5799 net.cpp:457] relu4 <- conv4
I0625 08:30:50.357429  5799 net.cpp:400] relu4 -> conv4 (in-place)
I0625 08:30:50.357435  5799 net.cpp:153] Setting up relu4
I0625 08:30:50.357437  5799 net.cpp:160] Top shape: 100 384 13 13 (6489600)
I0625 08:30:50.357439  5799 net.cpp:168] Memory required for data: 783396800
I0625 08:30:50.357440  5799 layer_factory.hpp:76] Creating layer conv5
I0625 08:30:50.357446  5799 net.cpp:109] Creating Layer conv5
I0625 08:30:50.357447  5799 net.cpp:457] conv5 <- conv4
I0625 08:30:50.357468  5799 net.cpp:414] conv5 -> conv5
I0625 08:30:50.365545  5799 net.cpp:153] Setting up conv5
I0625 08:30:50.365552  5799 net.cpp:160] Top shape: 100 256 13 13 (4326400)
I0625 08:30:50.365555  5799 net.cpp:168] Memory required for data: 800702400
I0625 08:30:50.365561  5799 layer_factory.hpp:76] Creating layer relu5
I0625 08:30:50.365566  5799 net.cpp:109] Creating Layer relu5
I0625 08:30:50.365568  5799 net.cpp:457] relu5 <- conv5
I0625 08:30:50.365571  5799 net.cpp:400] relu5 -> conv5 (in-place)
I0625 08:30:50.365576  5799 net.cpp:153] Setting up relu5
I0625 08:30:50.365577  5799 net.cpp:160] Top shape: 100 256 13 13 (4326400)
I0625 08:30:50.365579  5799 net.cpp:168] Memory required for data: 818008000
I0625 08:30:50.365581  5799 layer_factory.hpp:76] Creating layer pool5
I0625 08:30:50.365584  5799 net.cpp:109] Creating Layer pool5
I0625 08:30:50.365586  5799 net.cpp:457] pool5 <- conv5
I0625 08:30:50.365588  5799 net.cpp:414] pool5 -> pool5
I0625 08:30:50.365608  5799 net.cpp:153] Setting up pool5
I0625 08:30:50.365612  5799 net.cpp:160] Top shape: 100 256 6 6 (921600)
I0625 08:30:50.365612  5799 net.cpp:168] Memory required for data: 821694400
I0625 08:30:50.365614  5799 layer_factory.hpp:76] Creating layer fc6
I0625 08:30:50.365620  5799 net.cpp:109] Creating Layer fc6
I0625 08:30:50.365622  5799 net.cpp:457] fc6 <- pool5
I0625 08:30:50.365625  5799 net.cpp:414] fc6 -> fc6
I0625 08:30:51.046022  5799 net.cpp:153] Setting up fc6
I0625 08:30:51.046038  5799 net.cpp:160] Top shape: 100 4096 (409600)
I0625 08:30:51.046041  5799 net.cpp:168] Memory required for data: 823332800
I0625 08:30:51.046046  5799 layer_factory.hpp:76] Creating layer relu6
I0625 08:30:51.046052  5799 net.cpp:109] Creating Layer relu6
I0625 08:30:51.046056  5799 net.cpp:457] relu6 <- fc6
I0625 08:30:51.046061  5799 net.cpp:400] relu6 -> fc6 (in-place)
I0625 08:30:51.046067  5799 net.cpp:153] Setting up relu6
I0625 08:30:51.046069  5799 net.cpp:160] Top shape: 100 4096 (409600)
I0625 08:30:51.046072  5799 net.cpp:168] Memory required for data: 824971200
I0625 08:30:51.046073  5799 layer_factory.hpp:76] Creating layer drop6
I0625 08:30:51.046082  5799 net.cpp:109] Creating Layer drop6
I0625 08:30:51.046084  5799 net.cpp:457] drop6 <- fc6
I0625 08:30:51.046087  5799 net.cpp:400] drop6 -> fc6 (in-place)
I0625 08:30:51.046104  5799 net.cpp:153] Setting up drop6
I0625 08:30:51.046108  5799 net.cpp:160] Top shape: 100 4096 (409600)
I0625 08:30:51.046109  5799 net.cpp:168] Memory required for data: 826609600
I0625 08:30:51.046110  5799 layer_factory.hpp:76] Creating layer fc7
I0625 08:30:51.046115  5799 net.cpp:109] Creating Layer fc7
I0625 08:30:51.046116  5799 net.cpp:457] fc7 <- fc6
I0625 08:30:51.046119  5799 net.cpp:414] fc7 -> fc7
I0625 08:30:51.347259  5799 net.cpp:153] Setting up fc7
I0625 08:30:51.347278  5799 net.cpp:160] Top shape: 100 4096 (409600)
I0625 08:30:51.347281  5799 net.cpp:168] Memory required for data: 828248000
I0625 08:30:51.347287  5799 layer_factory.hpp:76] Creating layer relu7
I0625 08:30:51.347295  5799 net.cpp:109] Creating Layer relu7
I0625 08:30:51.347297  5799 net.cpp:457] relu7 <- fc7
I0625 08:30:51.347302  5799 net.cpp:400] relu7 -> fc7 (in-place)
I0625 08:30:51.347309  5799 net.cpp:153] Setting up relu7
I0625 08:30:51.347312  5799 net.cpp:160] Top shape: 100 4096 (409600)
I0625 08:30:51.347314  5799 net.cpp:168] Memory required for data: 829886400
I0625 08:30:51.347316  5799 layer_factory.hpp:76] Creating layer drop7
I0625 08:30:51.347319  5799 net.cpp:109] Creating Layer drop7
I0625 08:30:51.347321  5799 net.cpp:457] drop7 <- fc7
I0625 08:30:51.347323  5799 net.cpp:400] drop7 -> fc7 (in-place)
I0625 08:30:51.347342  5799 net.cpp:153] Setting up drop7
I0625 08:30:51.347345  5799 net.cpp:160] Top shape: 100 4096 (409600)
I0625 08:30:51.347347  5799 net.cpp:168] Memory required for data: 831524800
I0625 08:30:51.347349  5799 layer_factory.hpp:76] Creating layer fc8_species
I0625 08:30:51.347353  5799 net.cpp:109] Creating Layer fc8_species
I0625 08:30:51.347355  5799 net.cpp:457] fc8_species <- fc7
I0625 08:30:51.347375  5799 net.cpp:414] fc8_species -> fc8_species
I0625 08:30:51.418665  5799 net.cpp:153] Setting up fc8_species
I0625 08:30:51.418681  5799 net.cpp:160] Top shape: 100 967 (96700)
I0625 08:30:51.418684  5799 net.cpp:168] Memory required for data: 831911600
I0625 08:30:51.418690  5799 layer_factory.hpp:76] Creating layer loss
I0625 08:30:51.418702  5799 net.cpp:109] Creating Layer loss
I0625 08:30:51.418706  5799 net.cpp:457] loss <- fc8_species
I0625 08:30:51.418710  5799 net.cpp:457] loss <- label
I0625 08:30:51.418714  5799 net.cpp:414] loss -> loss
I0625 08:30:51.418720  5799 layer_factory.hpp:76] Creating layer loss
…
I0625 08:30:51.419602  5799 solver.cpp:187] Creating test net (#0) specified by net file: train_val.prototxt
I0625 08:30:51.419636  5799 net.cpp:325] The NetState phase (1) differed from the phase (0) specified by a rule in layer data
I0625 08:30:51.419746  5799 net.cpp:52] Initializing net from parameters:
state {
phase: TEST
}
layer {
name: "data"
type: "Data"
top: "data"
top: "label"
include {
phase: TEST
}
transform_param {
crop_size: 227
mean_file: "/usr/share/digits/digits/jobs/20160624-120053-bb9a/mean.binaryproto"
}
data_param {
source: "/usr/share/digits/digits/jobs/20160624-120053-bb9a/val_db"
batch_size: 100
backend: LMDB
}
}
layer {
name: "conv1"
type: "Convolution"
bottom: "data"
top: "conv1"
param {
lr_mult: 1
decay_mult: 1
}
param {
lr_mult: 2
decay_mult: 0
}
convolution_param {
num_output: 96
kernel_size: 11
stride: 4
weight_filler {
type: "gaussian"
std: 0.01
}
bias_filler {
type: "constant"
value: 0
}
}
}
layer {
name: "relu1"
type: "ReLU"
bottom: "conv1"
top: "conv1"
}
layer {
name: "norm1"
type: "LRN"
bottom: "conv1"
top: "norm1"
lrn_param {
local_size: 5
alpha: 0.0001
beta: 0.75
}
}
layer {
name: "pool1"
type: "Pooling"
bottom: "norm1"
top: "pool1"
pooling_param {
pool: MAX
kernel_size: 3
stride: 2
}
}
layer {
name: "conv2"
type: "Convolution"
bottom: "pool1"
top: "conv2"
param {
lr_mult: 1
decay_mult: 1
}
param {
lr_mult: 2
decay_mult: 0
}
convolution_param {
num_output: 256
pad: 2
kernel_size: 5
group: 2
weight_filler {
type: "gaussian"
std: 0.01
}
bias_filler {
type: "constant"
value: 0.1
}
}
}
layer {
name: "relu2"
type: "ReLU"
bottom: "conv2"
top: "conv2"
}
layer {
name: "norm2"
type: "LRN"
bottom: "conv2"
top: "norm2"
lrn_param {
local_size: 5
alpha: 0.0001
beta: 0.75
}
}
layer {
name: "pool2"
type: "Pooling"
bottom: "norm2"
top: "pool2"
pooling_param {
pool: MAX
kernel_size: 3
stride: 2
}
}
layer {
name: "conv3"
type: "Convolution"
bottom: "pool2"
top: "conv3"
param {
lr_mult: 1
decay_mult: 1
}
param {
lr_mult: 2
decay_mult: 0
}
convolution_param {
num_output: 384
pad: 1
kernel_size: 3
weight_filler {
type: "gaussian"
std: 0.01
}
bias_filler {
type: "constant"
value: 0
}
}
}
layer {
name: "relu3"
type: "ReLU"
bottom: "conv3"
top: "conv3"
}
layer {
name: "conv4"
type: "Convolution"
bottom: "conv3"
top: "conv4"
param {
lr_mult: 1
decay_mult: 1
}
param {
lr_mult: 2
decay_mult: 0
}
convolution_param {
num_output: 384
pad: 1
kernel_size: 3
group: 2
weight_filler {
type: "gaussian"
std: 0.01
}
bias_filler {
type: "constant"
value: 0.1
}
}
}
layer {
name: "relu4"
type: "ReLU"
bottom: "conv4"
top: "conv4"
}
layer {
name: "conv5"
type: "Convolution"
bottom: "conv4"
top: "conv5"
param {
lr_mult: 1
decay_mult: 1
}
param {
lr_mult: 2
decay_mult: 0
}
convolution_param {
num_output: 256
pad: 1
kernel_size: 3
group: 2
weight_filler {
type: "gaussian"
std: 0.01
}
bias_filler {
type: "constant"
value: 0.1
}
}
}
layer {
name: "relu5"
type: "ReLU"
bottom: "conv5"
top: "conv5"
}
layer {
name: "pool5"
type: "Pooling"
bottom: "conv5"
top: "pool5"
pooling_param {
pool: MAX
kernel_size: 3
stride: 2
}
}
layer {
name: "fc6"
type: "InnerProduct"
bottom: "pool5"
top: "fc6"
param {
lr_mult: 1
decay_mult: 1
}
param {
lr_mult: 2
decay_mult: 0
}
inner_product_param {
num_output: 4096
weight_filler {
type: "gaussian"
std: 0.005
}
bias_filler {
type: "constant"
value: 0.1
}
}
}
layer {
name: "relu6"
type: "ReLU"
bottom: "fc6"
top: "fc6"
}
layer {
name: "drop6"
type: "Dropout"
bottom: "fc6"
top: "fc6"
dropout_param {
dropout_ratio: 0.5
}
}
layer {
name: "fc7"
type: "InnerProduct"
bottom: "fc6"
top: "fc7"
param {
lr_mult: 1
decay_mult: 1
}
param {
lr_mult: 2
decay_mult: 0
}
inner_product_param {
num_output: 4096
weight_filler {
type: "gaussian"
std: 0.005
}
bias_filler {
type: "constant"
value: 0.1
}
}
}
layer {
name: "relu7"
type: "ReLU"
bottom: "fc7"
top: "fc7"
}
layer {
name: "drop7"
type: "Dropout"
bottom: "fc7"
top: "fc7"
dropout_param {
dropout_ratio: 0.5
}
}
layer {
name: "fc8_species"
type: "InnerProduct"
bottom: "fc7"
top: "fc8_species"
param {
lr_mult: 1
decay_mult: 1
}
param {
lr_mult: 2
decay_mult: 0
}
inner_product_param {
num_output: 967
weight_filler {
type: "gaussian"
std: 0.01
}
bias_filler {
type: "constant"
value: 0
}
}
}
layer {
name: "loss"
type: "SoftmaxWithLoss"
bottom: "fc8_species"
bottom: "label"
top: "loss"
}
layer {
name: "accuracy"
type: "Accuracy"
bottom: "fc8_species"
bottom: "label"
top: "accuracy"
include {
phase: TEST
}
}
I0625 08:30:51.419847  5799 layer_factory.hpp:76] Creating layer data
I0625 08:30:51.420013  5799 net.cpp:109] Creating Layer data
I0625 08:30:51.420018  5799 net.cpp:414] data -> data
I0625 08:30:51.420023  5799 net.cpp:414] data -> label
I0625 08:30:51.420027  5799 data_transformer.cpp:25] Loading mean file from: /usr/share/digits/digits/jobs/20160624-120053-bb9a/mean.binaryproto
I0625 08:30:51.420754  5813 db_lmdb.cpp:36] Opened lmdb /usr/share/digits/digits/jobs/20160624-120053-bb9a/val_db
I0625 08:30:51.423413  5799 data_layer.cpp:45] output data size: 100,3,227,227
I0625 08:30:51.486582  5799 net.cpp:153] Setting up data
I0625 08:30:51.486603  5799 net.cpp:160] Top shape: 100 3 227 227 (15458700)
I0625 08:30:51.486608  5799 net.cpp:160] Top shape: 100 (100)
I0625 08:30:51.486609  5799 net.cpp:168] Memory required for data: 61835200
I0625 08:30:51.486613  5799 layer_factory.hpp:76] Creating layer label_data_1_split
I0625 08:30:51.486620  5799 net.cpp:109] Creating Layer label_data_1_split
I0625 08:30:51.486624  5799 net.cpp:457] label_data_1_split <- label
I0625 08:30:51.486627  5799 net.cpp:414] label_data_1_split -> label_data_1_split_0
I0625 08:30:51.486634  5799 net.cpp:414] label_data_1_split -> label_data_1_split_1
I0625 08:30:51.486670  5799 net.cpp:153] Setting up label_data_1_split
I0625 08:30:51.486675  5799 net.cpp:160] Top shape: 100 (100)
I0625 08:30:51.486676  5799 net.cpp:160] Top shape: 100 (100)
I0625 08:30:51.486678  5799 net.cpp:168] Memory required for data: 61836000
I0625 08:30:51.486680  5799 layer_factory.hpp:76] Creating layer conv1
I0625 08:30:51.486686  5799 net.cpp:109] Creating Layer conv1
I0625 08:30:51.486688  5799 net.cpp:457] conv1 <- data
I0625 08:30:51.486691  5799 net.cpp:414] conv1 -> conv1
I0625 08:30:51.487540  5799 net.cpp:153] Setting up conv1
I0625 08:30:51.487547  5799 net.cpp:160] Top shape: 100 96 55 55 (29040000)
I0625 08:30:51.487550  5799 net.cpp:168] Memory required for data: 177996000
I0625 08:30:51.487555  5799 layer_factory.hpp:76] Creating layer relu1
I0625 08:30:51.487560  5799 net.cpp:109] Creating Layer relu1
I0625 08:30:51.487562  5799 net.cpp:457] relu1 <- conv1
I0625 08:30:51.487565  5799 net.cpp:400] relu1 -> conv1 (in-place)
I0625 08:30:51.487570  5799 net.cpp:153] Setting up relu1
I0625 08:30:51.487572  5799 net.cpp:160] Top shape: 100 96 55 55 (29040000)
I0625 08:30:51.487574  5799 net.cpp:168] Memory required for data: 294156000
I0625 08:30:51.487576  5799 layer_factory.hpp:76] Creating layer norm1
I0625 08:30:51.487581  5799 net.cpp:109] Creating Layer norm1
I0625 08:30:51.487583  5799 net.cpp:457] norm1 <- conv1
I0625 08:30:51.487586  5799 net.cpp:414] norm1 -> norm1
I0625 08:30:51.487608  5799 net.cpp:153] Setting up norm1
I0625 08:30:51.487612  5799 net.cpp:160] Top shape: 100 96 55 55 (29040000)
I0625 08:30:51.487613  5799 net.cpp:168] Memory required for data: 410316000
I0625 08:30:51.487615  5799 layer_factory.hpp:76] Creating layer pool1
I0625 08:30:51.487619  5799 net.cpp:109] Creating Layer pool1
I0625 08:30:51.487622  5799 net.cpp:457] pool1 <- norm1
I0625 08:30:51.487623  5799 net.cpp:414] pool1 -> pool1
I0625 08:30:51.487642  5799 net.cpp:153] Setting up pool1
I0625 08:30:51.487644  5799 net.cpp:160] Top shape: 100 96 27 27 (6998400)
I0625 08:30:51.487645  5799 net.cpp:168] Memory required for data: 438309600
I0625 08:30:51.487648  5799 layer_factory.hpp:76] Creating layer conv2
I0625 08:30:51.487653  5799 net.cpp:109] Creating Layer conv2
I0625 08:30:51.487654  5799 net.cpp:457] conv2 <- pool1
I0625 08:30:51.487656  5799 net.cpp:414] conv2 -> conv2
I0625 08:30:51.494626  5799 net.cpp:153] Setting up conv2
I0625 08:30:51.494632  5799 net.cpp:160] Top shape: 100 256 27 27 (18662400)
I0625 08:30:51.494634  5799 net.cpp:168] Memory required for data: 512959200
I0625 08:30:51.494639  5799 layer_factory.hpp:76] Creating layer relu2
I0625 08:30:51.494643  5799 net.cpp:109] Creating Layer relu2
I0625 08:30:51.494645  5799 net.cpp:457] relu2 <- conv2
I0625 08:30:51.494648  5799 net.cpp:400] relu2 -> conv2 (in-place)
I0625 08:30:51.494664  5799 net.cpp:153] Setting up relu2
I0625 08:30:51.494668  5799 net.cpp:160] Top shape: 100 256 27 27 (18662400)
I0625 08:30:51.494668  5799 net.cpp:168] Memory required for data: 587608800
I0625 08:30:51.494670  5799 layer_factory.hpp:76] Creating layer norm2
I0625 08:30:51.494675  5799 net.cpp:109] Creating Layer norm2
I0625 08:30:51.494676  5799 net.cpp:457] norm2 <- conv2
I0625 08:30:51.494679  5799 net.cpp:414] norm2 -> norm2
I0625 08:30:51.494700  5799 net.cpp:153] Setting up norm2
I0625 08:30:51.494704  5799 net.cpp:160] Top shape: 100 256 27 27 (18662400)
I0625 08:30:51.494704  5799 net.cpp:168] Memory required for data: 662258400
I0625 08:30:51.494707  5799 layer_factory.hpp:76] Creating layer pool2
I0625 08:30:51.494710  5799 net.cpp:109] Creating Layer pool2
I0625 08:30:51.494712  5799 net.cpp:457] pool2 <- norm2
I0625 08:30:51.494714  5799 net.cpp:414] pool2 -> pool2
I0625 08:30:51.494731  5799 net.cpp:153] Setting up pool2
I0625 08:30:51.494735  5799 net.cpp:160] Top shape: 100 256 13 13 (4326400)
I0625 08:30:51.494735  5799 net.cpp:168] Memory required for data: 679564000
I0625 08:30:51.494737  5799 layer_factory.hpp:76] Creating layer conv3
I0625 08:30:51.494741  5799 net.cpp:109] Creating Layer conv3
I0625 08:30:51.494743  5799 net.cpp:457] conv3 <- pool2
I0625 08:30:51.494746  5799 net.cpp:414] conv3 -> conv3
I0625 08:30:51.510829  5799 net.cpp:153] Setting up conv3
I0625 08:30:51.510844  5799 net.cpp:160] Top shape: 100 384 13 13 (6489600)
I0625 08:30:51.510846  5799 net.cpp:168] Memory required for data: 705522400
I0625 08:30:51.510854  5799 layer_factory.hpp:76] Creating layer relu3
I0625 08:30:51.510860  5799 net.cpp:109] Creating Layer relu3
I0625 08:30:51.510864  5799 net.cpp:457] relu3 <- conv3
I0625 08:30:51.510867  5799 net.cpp:400] relu3 -> conv3 (in-place)
I0625 08:30:51.510874  5799 net.cpp:153] Setting up relu3
I0625 08:30:51.510875  5799 net.cpp:160] Top shape: 100 384 13 13 (6489600)
I0625 08:30:51.510876  5799 net.cpp:168] Memory required for data: 731480800
I0625 08:30:51.510879  5799 layer_factory.hpp:76] Creating layer conv4
I0625 08:30:51.510884  5799 net.cpp:109] Creating Layer conv4
I0625 08:30:51.510885  5799 net.cpp:457] conv4 <- conv3
I0625 08:30:51.510888  5799 net.cpp:414] conv4 -> conv4
I0625 08:30:51.523102  5799 net.cpp:153] Setting up conv4
I0625 08:30:51.523118  5799 net.cpp:160] Top shape: 100 384 13 13 (6489600)
I0625 08:30:51.523119  5799 net.cpp:168] Memory required for data: 757439200
I0625 08:30:51.523124  5799 layer_factory.hpp:76] Creating layer relu4
I0625 08:30:51.523129  5799 net.cpp:109] Creating Layer relu4
I0625 08:30:51.523133  5799 net.cpp:457] relu4 <- conv4
I0625 08:30:51.523136  5799 net.cpp:400] relu4 -> conv4 (in-place)
I0625 08:30:51.523140  5799 net.cpp:153] Setting up relu4
I0625 08:30:51.523144  5799 net.cpp:160] Top shape: 100 384 13 13 (6489600)
I0625 08:30:51.523144  5799 net.cpp:168] Memory required for data: 783397600
I0625 08:30:51.523146  5799 layer_factory.hpp:76] Creating layer conv5
I0625 08:30:51.523151  5799 net.cpp:109] Creating Layer conv5
I0625 08:30:51.523152  5799 net.cpp:457] conv5 <- conv4
I0625 08:30:51.523155  5799 net.cpp:414] conv5 -> conv5
I0625 08:30:51.531322  5799 net.cpp:153] Setting up conv5
I0625 08:30:51.531332  5799 net.cpp:160] Top shape: 100 256 13 13 (4326400)
I0625 08:30:51.531334  5799 net.cpp:168] Memory required for data: 800703200
I0625 08:30:51.531340  5799 layer_factory.hpp:76] Creating layer relu5
I0625 08:30:51.531345  5799 net.cpp:109] Creating Layer relu5
I0625 08:30:51.531347  5799 net.cpp:457] relu5 <- conv5
I0625 08:30:51.531350  5799 net.cpp:400] relu5 -> conv5 (in-place)
I0625 08:30:51.531355  5799 net.cpp:153] Setting up relu5
I0625 08:30:51.531358  5799 net.cpp:160] Top shape: 100 256 13 13 (4326400)
I0625 08:30:51.531358  5799 net.cpp:168] Memory required for data: 818008800
I0625 08:30:51.531360  5799 layer_factory.hpp:76] Creating layer pool5
I0625 08:30:51.531365  5799 net.cpp:109] Creating Layer pool5
I0625 08:30:51.531368  5799 net.cpp:457] pool5 <- conv5
I0625 08:30:51.531384  5799 net.cpp:414] pool5 -> pool5
I0625 08:30:51.531410  5799 net.cpp:153] Setting up pool5
I0625 08:30:51.531414  5799 net.cpp:160] Top shape: 100 256 6 6 (921600)
I0625 08:30:51.531415  5799 net.cpp:168] Memory required for data: 821695200
I0625 08:30:51.531417  5799 layer_factory.hpp:76] Creating layer fc6
I0625 08:30:51.531422  5799 net.cpp:109] Creating Layer fc6
I0625 08:30:51.531424  5799 net.cpp:457] fc6 <- pool5
I0625 08:30:51.531427  5799 net.cpp:414] fc6 -> fc6
I0625 08:30:52.217219  5799 net.cpp:153] Setting up fc6
I0625 08:30:52.217236  5799 net.cpp:160] Top shape: 100 4096 (409600)
I0625 08:30:52.217237  5799 net.cpp:168] Memory required for data: 823333600
I0625 08:30:52.217242  5799 layer_factory.hpp:76] Creating layer relu6
I0625 08:30:52.217248  5799 net.cpp:109] Creating Layer relu6
I0625 08:30:52.217252  5799 net.cpp:457] relu6 <- fc6
I0625 08:30:52.217255  5799 net.cpp:400] relu6 -> fc6 (in-place)
I0625 08:30:52.217262  5799 net.cpp:153] Setting up relu6
I0625 08:30:52.217263  5799 net.cpp:160] Top shape: 100 4096 (409600)
I0625 08:30:52.217265  5799 net.cpp:168] Memory required for data: 824972000
I0625 08:30:52.217267  5799 layer_factory.hpp:76] Creating layer drop6
I0625 08:30:52.217270  5799 net.cpp:109] Creating Layer drop6
I0625 08:30:52.217272  5799 net.cpp:457] drop6 <- fc6
I0625 08:30:52.217274  5799 net.cpp:400] drop6 -> fc6 (in-place)
I0625 08:30:52.217289  5799 net.cpp:153] Setting up drop6
I0625 08:30:52.217293  5799 net.cpp:160] Top shape: 100 4096 (409600)
I0625 08:30:52.217294  5799 net.cpp:168] Memory required for data: 826610400
I0625 08:30:52.217295  5799 layer_factory.hpp:76] Creating layer fc7
I0625 08:30:52.217300  5799 net.cpp:109] Creating Layer fc7
I0625 08:30:52.217301  5799 net.cpp:457] fc7 <- fc6
I0625 08:30:52.217304  5799 net.cpp:414] fc7 -> fc7
I0625 08:30:52.518730  5799 net.cpp:153] Setting up fc7
I0625 08:30:52.518748  5799 net.cpp:160] Top shape: 100 4096 (409600)
I0625 08:30:52.518750  5799 net.cpp:168] Memory required for data: 828248800
I0625 08:30:52.518755  5799 layer_factory.hpp:76] Creating layer relu7
I0625 08:30:52.518761  5799 net.cpp:109] Creating Layer relu7
I0625 08:30:52.518765  5799 net.cpp:457] relu7 <- fc7
I0625 08:30:52.518769  5799 net.cpp:400] relu7 -> fc7 (in-place)
I0625 08:30:52.518775  5799 net.cpp:153] Setting up relu7
I0625 08:30:52.518777  5799 net.cpp:160] Top shape: 100 4096 (409600)
I0625 08:30:52.518779  5799 net.cpp:168] Memory required for data: 829887200
I0625 08:30:52.518781  5799 layer_factory.hpp:76] Creating layer drop7
I0625 08:30:52.518784  5799 net.cpp:109] Creating Layer drop7
I0625 08:30:52.518786  5799 net.cpp:457] drop7 <- fc7
I0625 08:30:52.518788  5799 net.cpp:400] drop7 -> fc7 (in-place)
I0625 08:30:52.518805  5799 net.cpp:153] Setting up drop7
I0625 08:30:52.518807  5799 net.cpp:160] Top shape: 100 4096 (409600)
I0625 08:30:52.518810  5799 net.cpp:168] Memory required for data: 831525600
I0625 08:30:52.518811  5799 layer_factory.hpp:76] Creating layer fc8_species
I0625 08:30:52.518815  5799 net.cpp:109] Creating Layer fc8_species
I0625 08:30:52.518816  5799 net.cpp:457] fc8_species <- fc7
I0625 08:30:52.518820  5799 net.cpp:414] fc8_species -> fc8_species
I0625 08:30:52.590183  5799 net.cpp:153] Setting up fc8_species
I0625 08:30:52.590200  5799 net.cpp:160] Top shape: 100 967 (96700)
I0625 08:30:52.590203  5799 net.cpp:168] Memory required for data: 831912400
I0625 08:30:52.590209  5799 layer_factory.hpp:76] Creating layer fc8_species_fc8_species_0_split
I0625 08:30:52.590214  5799 net.cpp:109] Creating Layer fc8_species_fc8_species_0_split
I0625 08:30:52.590217  5799 net.cpp:457] fc8_species_fc8_species_0_split <- fc8_species
I0625 08:30:52.590221  5799 net.cpp:414] fc8_species_fc8_species_0_split -> fc8_species_fc8_species_0_split_0
I0625 08:30:52.590226  5799 net.cpp:414] fc8_species_fc8_species_0_split -> fc8_species_fc8_species_0_split_1
I0625 08:30:52.590250  5799 net.cpp:153] Setting up fc8_species_fc8_species_0_split
I0625 08:30:52.590252  5799 net.cpp:160] Top shape: 100 967 (96700)
I0625 08:30:52.590267  5799 net.cpp:160] Top shape: 100 967 (96700)
I0625 08:30:52.590268  5799 net.cpp:168] Memory required for data: 832686000
I0625 08:30:52.590270  5799 layer_factory.hpp:76] Creating layer loss
I0625 08:30:52.590275  5799 net.cpp:109] Creating Layer loss
I0625 08:30:52.590276  5799 net.cpp:457] loss <- fc8_species_fc8_species_0_split_0
I0625 08:30:52.590278  5799 net.cpp:457] loss <- label_data_1_split_0
I0625 08:30:52.590281  5799 net.cpp:414] loss -> loss
…
