…
I0704 09:06:20.712635  4926 net.cpp:325] The NetState phase (0) differed from the phase (1) specified by a rule in layer accuracy
I0704 09:06:20.713068  4926 net.cpp:52] Initializing net from parameters:
state {
phase: TRAIN
}
layer {
name: "train-data"
type: "Data"
top: "data"
top: "label"
include {
phase: TRAIN
}
transform_param {
mirror: true
crop_size: 227
mean_file: "/home/zml374/workspace/DIGITS/digits/jobs/20160704-085910-0cc9/mean.binaryproto"
}
data_param {
source: "/home/zml374/workspace/DIGITS/digits/jobs/20160704-085910-0cc9/train_db"
batch_size: 64
backend: LMDB
}
}
layer {
name: "conv1"
type: "Convolution"
bottom: "data"
top: "conv1"
param {
lr_mult: 1
decay_mult: 1
}
param {
lr_mult: 2
decay_mult: 0
}
convolution_param {
num_output: 96
kernel_size: 11
stride: 4
weight_filler {
type: "gaussian"
std: 0.01
}
bias_filler {
type: "constant"
value: 0
}
}
}
layer {
name: "relu1"
type: "ReLU"
bottom: "conv1"
top: "conv1"
}
layer {
name: "norm1"
type: "LRN"
bottom: "conv1"
top: "norm1"
lrn_param {
local_size: 5
alpha: 0.0001
beta: 0.75
}
}
layer {
name: "pool1"
type: "Pooling"
bottom: "norm1"
top: "pool1"
pooling_param {
pool: MAX
kernel_size: 3
stride: 2
}
}
layer {
name: "conv2"
type: "Convolution"
bottom: "pool1"
top: "conv2"
param {
lr_mult: 1
decay_mult: 1
}
param {
lr_mult: 2
decay_mult: 0
}
convolution_param {
num_output: 256
pad: 2
kernel_size: 5
group: 2
weight_filler {
type: "gaussian"
std: 0.01
}
bias_filler {
type: "constant"
value: 0.1
}
}
}
layer {
name: "relu2"
type: "ReLU"
bottom: "conv2"
top: "conv2"
}
layer {
name: "norm2"
type: "LRN"
bottom: "conv2"
top: "norm2"
lrn_param {
local_size: 5
alpha: 0.0001
beta: 0.75
}
}
layer {
name: "pool2"
type: "Pooling"
bottom: "norm2"
top: "pool2"
pooling_param {
pool: MAX
kernel_size: 3
stride: 2
}
}
layer {
name: "conv3"
type: "Convolution"
bottom: "pool2"
top: "conv3"
param {
lr_mult: 1
decay_mult: 1
}
param {
lr_mult: 2
decay_mult: 0
}
convolution_param {
num_output: 384
pad: 1
kernel_size: 3
weight_filler {
type: "gaussian"
std: 0.01
}
bias_filler {
type: "constant"
value: 0
}
}
}
layer {
name: "relu3"
type: "ReLU"
bottom: "conv3"
top: "conv3"
}
layer {
name: "conv4"
type: "Convolution"
bottom: "conv3"
top: "conv4"
param {
lr_mult: 1
decay_mult: 1
}
param {
lr_mult: 2
decay_mult: 0
}
convolution_param {
num_output: 384
pad: 1
kernel_size: 3
group: 2
weight_filler {
type: "gaussian"
std: 0.01
}
bias_filler {
type: "constant"
value: 0.1
}
}
}
layer {
name: "relu4"
type: "ReLU"
bottom: "conv4"
top: "conv4"
}
layer {
name: "conv5"
type: "Convolution"
bottom: "conv4"
top: "conv5"
param {
lr_mult: 1
decay_mult: 1
}
param {
lr_mult: 2
decay_mult: 0
}
convolution_param {
num_output: 256
pad: 1
kernel_size: 3
group: 2
weight_filler {
type: "gaussian"
std: 0.01
}
bias_filler {
type: "constant"
value: 0.1
}
}
}
layer {
name: "relu5"
type: "ReLU"
bottom: "conv5"
top: "conv5"
}
layer {
name: "pool5"
type: "Pooling"
bottom: "conv5"
top: "pool5"
pooling_param {
pool: MAX
kernel_size: 3
stride: 2
}
}
layer {
name: "fc6"
type: "InnerProduct"
bottom: "pool5"
top: "fc6"
param {
lr_mult: 1
decay_mult: 1
}
param {
lr_mult: 2
decay_mult: 0
}
inner_product_param {
num_output: 4096
weight_filler {
type: "gaussian"
std: 0.005
}
bias_filler {
type: "constant"
value: 0.1
}
}
}
layer {
name: "relu6"
type: "ReLU"
bottom: "fc6"
top: "fc6"
}
layer {
name: "drop6"
type: "Dropout"
bottom: "fc6"
top: "fc6"
dropout_param {
dropout_ratio: 0.5
}
}
layer {
name: "fc7"
type: "InnerProduct"
bottom: "fc6"
top: "fc7"
param {
lr_mult: 1
decay_mult: 1
}
param {
lr_mult: 2
decay_mult: 0
}
inner_product_param {
num_output: 4096
weight_filler {
type: "gaussian"
std: 0.005
}
bias_filler {
type: "constant"
value: 0.1
}
}
}
layer {
name: "relu7"
type: "ReLU"
bottom: "fc7"
top: "fc7"
}
layer {
name: "drop7"
type: "Dropout"
bottom: "fc7"
top: "fc7"
dropout_param {
dropout_ratio: 0.5
}
}
layer {
name: "fc8_clean"
type: "InnerProduct"
bottom: "fc7"
top: "fc8_clean"
param {
lr_mult: 1
decay_mult: 1
}
param {
lr_mult: 2
decay_mult: 0
}
inner_product_param {
num_output: 967
weight_filler {
type: "gaussian"
std: 0.01
}
bias_filler {
type: "constant"
value: 0
}
}
}
layer {
name: "loss"
type: "SoftmaxWithLoss"
bottom: "fc8_clean"
bottom: "label"
top: "loss"
}
I0704 09:06:20.713404  4926 layer_factory.hpp:76] Creating layer train-data
I0704 09:06:20.749124  4956 db_lmdb.cpp:36] Opened lmdb /home/zml374/workspace/DIGITS/digits/jobs/20160704-085910-0cc9/train_db
I0704 09:06:20.749955  4926 net.cpp:109] Creating Layer train-data
I0704 09:06:20.749976  4926 net.cpp:414] train-data -> data
I0704 09:06:20.750334  4926 net.cpp:414] train-data -> label
I0704 09:06:20.750367  4926 data_transformer.cpp:25] Loading mean file from: /home/zml374/workspace/DIGITS/digits/jobs/20160704-085910-0cc9/mean.binaryproto
I0704 09:06:20.785948  4926 data_layer.cpp:45] output data size: 64,3,227,227
I0704 09:06:20.875321  4926 net.cpp:153] Setting up train-data
I0704 09:06:20.875371  4926 net.cpp:160] Top shape: 64 3 227 227 (9893568)
I0704 09:06:20.875388  4926 net.cpp:160] Top shape: 64 (64)
I0704 09:06:20.875393  4926 net.cpp:168] Memory required for data: 39574528
I0704 09:06:20.875404  4926 layer_factory.hpp:76] Creating layer conv1
I0704 09:06:20.875428  4926 net.cpp:109] Creating Layer conv1
I0704 09:06:20.875435  4926 net.cpp:457] conv1 <- data
I0704 09:06:20.875457  4926 net.cpp:414] conv1 -> conv1
I0704 09:06:20.895237  4957 blocking_queue.cpp:50] Waiting for data
I0704 09:06:20.897969  4926 net.cpp:153] Setting up conv1
I0704 09:06:20.897987  4926 net.cpp:160] Top shape: 64 96 55 55 (18585600)
I0704 09:06:20.897992  4926 net.cpp:168] Memory required for data: 113916928
I0704 09:06:20.898012  4926 layer_factory.hpp:76] Creating layer relu1
I0704 09:06:20.898025  4926 net.cpp:109] Creating Layer relu1
I0704 09:06:20.898030  4926 net.cpp:457] relu1 <- conv1
I0704 09:06:20.898037  4926 net.cpp:400] relu1 -> conv1 (in-place)
I0704 09:06:20.898056  4926 net.cpp:153] Setting up relu1
I0704 09:06:20.898062  4926 net.cpp:160] Top shape: 64 96 55 55 (18585600)
I0704 09:06:20.898066  4926 net.cpp:168] Memory required for data: 188259328
I0704 09:06:20.898072  4926 layer_factory.hpp:76] Creating layer norm1
I0704 09:06:20.898329  4926 net.cpp:109] Creating Layer norm1
I0704 09:06:20.898344  4926 net.cpp:457] norm1 <- conv1
I0704 09:06:20.898352  4926 net.cpp:414] norm1 -> norm1
I0704 09:06:20.898437  4926 net.cpp:153] Setting up norm1
I0704 09:06:20.898447  4926 net.cpp:160] Top shape: 64 96 55 55 (18585600)
I0704 09:06:20.898452  4926 net.cpp:168] Memory required for data: 262601728
I0704 09:06:20.898458  4926 layer_factory.hpp:76] Creating layer pool1
I0704 09:06:20.898504  4926 net.cpp:109] Creating Layer pool1
I0704 09:06:20.898511  4926 net.cpp:457] pool1 <- norm1
I0704 09:06:20.898519  4926 net.cpp:414] pool1 -> pool1
I0704 09:06:20.898589  4926 net.cpp:153] Setting up pool1
I0704 09:06:20.898600  4926 net.cpp:160] Top shape: 64 96 27 27 (4478976)
I0704 09:06:20.898605  4926 net.cpp:168] Memory required for data: 280517632
I0704 09:06:20.898609  4926 layer_factory.hpp:76] Creating layer conv2
I0704 09:06:20.898620  4926 net.cpp:109] Creating Layer conv2
I0704 09:06:20.898624  4926 net.cpp:457] conv2 <- pool1
I0704 09:06:20.898633  4926 net.cpp:414] conv2 -> conv2
I0704 09:06:20.912287  4926 net.cpp:153] Setting up conv2
I0704 09:06:20.912302  4926 net.cpp:160] Top shape: 64 256 27 27 (11943936)
I0704 09:06:20.912307  4926 net.cpp:168] Memory required for data: 328293376
I0704 09:06:20.912318  4926 layer_factory.hpp:76] Creating layer relu2
I0704 09:06:20.912328  4926 net.cpp:109] Creating Layer relu2
I0704 09:06:20.912333  4926 net.cpp:457] relu2 <- conv2
I0704 09:06:20.912339  4926 net.cpp:400] relu2 -> conv2 (in-place)
I0704 09:06:20.912348  4926 net.cpp:153] Setting up relu2
I0704 09:06:20.912354  4926 net.cpp:160] Top shape: 64 256 27 27 (11943936)
I0704 09:06:20.912359  4926 net.cpp:168] Memory required for data: 376069120
I0704 09:06:20.912364  4926 layer_factory.hpp:76] Creating layer norm2
I0704 09:06:20.912371  4926 net.cpp:109] Creating Layer norm2
I0704 09:06:20.912375  4926 net.cpp:457] norm2 <- conv2
I0704 09:06:20.912381  4926 net.cpp:414] norm2 -> norm2
I0704 09:06:20.912441  4926 net.cpp:153] Setting up norm2
I0704 09:06:20.912451  4926 net.cpp:160] Top shape: 64 256 27 27 (11943936)
I0704 09:06:20.912454  4926 net.cpp:168] Memory required for data: 423844864
I0704 09:06:20.912458  4926 layer_factory.hpp:76] Creating layer pool2
I0704 09:06:20.912467  4926 net.cpp:109] Creating Layer pool2
I0704 09:06:20.912472  4926 net.cpp:457] pool2 <- norm2
I0704 09:06:20.912479  4926 net.cpp:414] pool2 -> pool2
I0704 09:06:20.912531  4926 net.cpp:153] Setting up pool2
I0704 09:06:20.912539  4926 net.cpp:160] Top shape: 64 256 13 13 (2768896)
I0704 09:06:20.912544  4926 net.cpp:168] Memory required for data: 434920448
I0704 09:06:20.912549  4926 layer_factory.hpp:76] Creating layer conv3
I0704 09:06:20.912557  4926 net.cpp:109] Creating Layer conv3
I0704 09:06:20.912564  4926 net.cpp:457] conv3 <- pool2
I0704 09:06:20.912570  4926 net.cpp:414] conv3 -> conv3
I0704 09:06:20.947685  4926 net.cpp:153] Setting up conv3
I0704 09:06:20.947700  4926 net.cpp:160] Top shape: 64 384 13 13 (4153344)
I0704 09:06:20.947705  4926 net.cpp:168] Memory required for data: 451533824
I0704 09:06:20.947715  4926 layer_factory.hpp:76] Creating layer relu3
I0704 09:06:20.947723  4926 net.cpp:109] Creating Layer relu3
I0704 09:06:20.947728  4926 net.cpp:457] relu3 <- conv3
I0704 09:06:20.947736  4926 net.cpp:400] relu3 -> conv3 (in-place)
I0704 09:06:20.947744  4926 net.cpp:153] Setting up relu3
I0704 09:06:20.947751  4926 net.cpp:160] Top shape: 64 384 13 13 (4153344)
I0704 09:06:20.947756  4926 net.cpp:168] Memory required for data: 468147200
I0704 09:06:20.947759  4926 layer_factory.hpp:76] Creating layer conv4
I0704 09:06:20.947767  4926 net.cpp:109] Creating Layer conv4
I0704 09:06:20.947772  4926 net.cpp:457] conv4 <- conv3
I0704 09:06:20.947778  4926 net.cpp:414] conv4 -> conv4
I0704 09:06:20.974226  4926 net.cpp:153] Setting up conv4
I0704 09:06:20.974242  4926 net.cpp:160] Top shape: 64 384 13 13 (4153344)
I0704 09:06:20.974247  4926 net.cpp:168] Memory required for data: 484760576
I0704 09:06:20.974256  4926 layer_factory.hpp:76] Creating layer relu4
I0704 09:06:20.974263  4926 net.cpp:109] Creating Layer relu4
I0704 09:06:20.974268  4926 net.cpp:457] relu4 <- conv4
I0704 09:06:20.974275  4926 net.cpp:400] relu4 -> conv4 (in-place)
I0704 09:06:20.974283  4926 net.cpp:153] Setting up relu4
I0704 09:06:20.974290  4926 net.cpp:160] Top shape: 64 384 13 13 (4153344)
I0704 09:06:20.974295  4926 net.cpp:168] Memory required for data: 501373952
I0704 09:06:20.974299  4926 layer_factory.hpp:76] Creating layer conv5
I0704 09:06:20.974326  4926 net.cpp:109] Creating Layer conv5
I0704 09:06:20.974333  4926 net.cpp:457] conv5 <- conv4
I0704 09:06:20.974339  4926 net.cpp:414] conv5 -> conv5
I0704 09:06:20.992233  4926 net.cpp:153] Setting up conv5
I0704 09:06:20.992246  4926 net.cpp:160] Top shape: 64 256 13 13 (2768896)
I0704 09:06:20.992251  4926 net.cpp:168] Memory required for data: 512449536
I0704 09:06:20.992264  4926 layer_factory.hpp:76] Creating layer relu5
I0704 09:06:20.992272  4926 net.cpp:109] Creating Layer relu5
I0704 09:06:20.992277  4926 net.cpp:457] relu5 <- conv5
I0704 09:06:20.992285  4926 net.cpp:400] relu5 -> conv5 (in-place)
I0704 09:06:20.992293  4926 net.cpp:153] Setting up relu5
I0704 09:06:20.992300  4926 net.cpp:160] Top shape: 64 256 13 13 (2768896)
I0704 09:06:20.992305  4926 net.cpp:168] Memory required for data: 523525120
I0704 09:06:20.992308  4926 layer_factory.hpp:76] Creating layer pool5
I0704 09:06:20.992316  4926 net.cpp:109] Creating Layer pool5
I0704 09:06:20.992321  4926 net.cpp:457] pool5 <- conv5
I0704 09:06:20.992327  4926 net.cpp:414] pool5 -> pool5
I0704 09:06:20.992385  4926 net.cpp:153] Setting up pool5
I0704 09:06:20.992394  4926 net.cpp:160] Top shape: 64 256 6 6 (589824)
I0704 09:06:20.992398  4926 net.cpp:168] Memory required for data: 525884416
I0704 09:06:20.992403  4926 layer_factory.hpp:76] Creating layer fc6
I0704 09:06:20.992420  4926 net.cpp:109] Creating Layer fc6
I0704 09:06:20.992425  4926 net.cpp:457] fc6 <- pool5
I0704 09:06:20.992434  4926 net.cpp:414] fc6 -> fc6
I0704 09:06:22.477869  4926 net.cpp:153] Setting up fc6
I0704 09:06:22.477915  4926 net.cpp:160] Top shape: 64 4096 (262144)
I0704 09:06:22.477921  4926 net.cpp:168] Memory required for data: 526932992
I0704 09:06:22.477936  4926 layer_factory.hpp:76] Creating layer relu6
I0704 09:06:22.477952  4926 net.cpp:109] Creating Layer relu6
I0704 09:06:22.477960  4926 net.cpp:457] relu6 <- fc6
I0704 09:06:22.477970  4926 net.cpp:400] relu6 -> fc6 (in-place)
I0704 09:06:22.477989  4926 net.cpp:153] Setting up relu6
I0704 09:06:22.477995  4926 net.cpp:160] Top shape: 64 4096 (262144)
I0704 09:06:22.478000  4926 net.cpp:168] Memory required for data: 527981568
I0704 09:06:22.478005  4926 layer_factory.hpp:76] Creating layer drop6
I0704 09:06:22.478720  4926 net.cpp:109] Creating Layer drop6
I0704 09:06:22.478736  4926 net.cpp:457] drop6 <- fc6
I0704 09:06:22.478747  4926 net.cpp:400] drop6 -> fc6 (in-place)
I0704 09:06:22.478804  4926 net.cpp:153] Setting up drop6
I0704 09:06:22.478814  4926 net.cpp:160] Top shape: 64 4096 (262144)
I0704 09:06:22.478819  4926 net.cpp:168] Memory required for data: 529030144
I0704 09:06:22.478824  4926 layer_factory.hpp:76] Creating layer fc7
I0704 09:06:22.478837  4926 net.cpp:109] Creating Layer fc7
I0704 09:06:22.478842  4926 net.cpp:457] fc7 <- fc6
I0704 09:06:22.478852  4926 net.cpp:414] fc7 -> fc7
I0704 09:06:23.140434  4926 net.cpp:153] Setting up fc7
I0704 09:06:23.140475  4926 net.cpp:160] Top shape: 64 4096 (262144)
I0704 09:06:23.140481  4926 net.cpp:168] Memory required for data: 530078720
I0704 09:06:23.140494  4926 layer_factory.hpp:76] Creating layer relu7
I0704 09:06:23.140512  4926 net.cpp:109] Creating Layer relu7
I0704 09:06:23.140519  4926 net.cpp:457] relu7 <- fc7
I0704 09:06:23.140532  4926 net.cpp:400] relu7 -> fc7 (in-place)
I0704 09:06:23.140547  4926 net.cpp:153] Setting up relu7
I0704 09:06:23.140554  4926 net.cpp:160] Top shape: 64 4096 (262144)
I0704 09:06:23.140558  4926 net.cpp:168] Memory required for data: 531127296
I0704 09:06:23.140563  4926 layer_factory.hpp:76] Creating layer drop7
I0704 09:06:23.140573  4926 net.cpp:109] Creating Layer drop7
I0704 09:06:23.140578  4926 net.cpp:457] drop7 <- fc7
I0704 09:06:23.140583  4926 net.cpp:400] drop7 -> fc7 (in-place)
I0704 09:06:23.140624  4926 net.cpp:153] Setting up drop7
I0704 09:06:23.140632  4926 net.cpp:160] Top shape: 64 4096 (262144)
I0704 09:06:23.140636  4926 net.cpp:168] Memory required for data: 532175872
I0704 09:06:23.140642  4926 layer_factory.hpp:76] Creating layer fc8_clean
I0704 09:06:23.140699  4926 net.cpp:109] Creating Layer fc8_clean
I0704 09:06:23.140705  4926 net.cpp:457] fc8_clean <- fc7
I0704 09:06:23.140713  4926 net.cpp:414] fc8_clean -> fc8_clean
I0704 09:06:23.296947  4926 net.cpp:153] Setting up fc8_clean
I0704 09:06:23.296983  4926 net.cpp:160] Top shape: 64 967 (61888)
I0704 09:06:23.296989  4926 net.cpp:168] Memory required for data: 532423424
I0704 09:06:23.297000  4926 layer_factory.hpp:76] Creating layer loss
I0704 09:06:23.297379  4926 net.cpp:109] Creating Layer loss
I0704 09:06:23.297395  4926 net.cpp:457] loss <- fc8_clean
I0704 09:06:23.297405  4926 net.cpp:457] loss <- label
I0704 09:06:23.297413  4926 net.cpp:414] loss -> loss
I0704 09:06:23.297435  4926 layer_factory.hpp:76] Creating layer loss
…
I0704 09:06:23.299640  4926 net.cpp:325] The NetState phase (1) differed from the phase (0) specified by a rule in layer train-data
I0704 09:06:23.300053  4926 net.cpp:52] Initializing net from parameters:
state {
phase: TEST
}
layer {
name: "val-data"
type: "Data"
top: "data"
top: "label"
include {
phase: TEST
}
transform_param {
crop_size: 227
mean_file: "/home/zml374/workspace/DIGITS/digits/jobs/20160704-085910-0cc9/mean.binaryproto"
}
data_param {
source: "/home/zml374/workspace/DIGITS/digits/jobs/20160704-085910-0cc9/val_db"
batch_size: 32
backend: LMDB
}
}
layer {
name: "conv1"
type: "Convolution"
bottom: "data"
top: "conv1"
param {
lr_mult: 1
decay_mult: 1
}
param {
lr_mult: 2
decay_mult: 0
}
convolution_param {
num_output: 96
kernel_size: 11
stride: 4
weight_filler {
type: "gaussian"
std: 0.01
}
bias_filler {
type: "constant"
value: 0
}
}
}
layer {
name: "relu1"
type: "ReLU"
bottom: "conv1"
top: "conv1"
}
layer {
name: "norm1"
type: "LRN"
bottom: "conv1"
top: "norm1"
lrn_param {
local_size: 5
alpha: 0.0001
beta: 0.75
}
}
layer {
name: "pool1"
type: "Pooling"
bottom: "norm1"
top: "pool1"
pooling_param {
pool: MAX
kernel_size: 3
stride: 2
}
}
layer {
name: "conv2"
type: "Convolution"
bottom: "pool1"
top: "conv2"
param {
lr_mult: 1
decay_mult: 1
}
param {
lr_mult: 2
decay_mult: 0
}
convolution_param {
num_output: 256
pad: 2
kernel_size: 5
group: 2
weight_filler {
type: "gaussian"
std: 0.01
}
bias_filler {
type: "constant"
value: 0.1
}
}
}
layer {
name: "relu2"
type: "ReLU"
bottom: "conv2"
top: "conv2"
}
layer {
name: "norm2"
type: "LRN"
bottom: "conv2"
top: "norm2"
lrn_param {
local_size: 5
alpha: 0.0001
beta: 0.75
}
}
layer {
name: "pool2"
type: "Pooling"
bottom: "norm2"
top: "pool2"
pooling_param {
pool: MAX
kernel_size: 3
stride: 2
}
}
layer {
name: "conv3"
type: "Convolution"
bottom: "pool2"
top: "conv3"
param {
lr_mult: 1
decay_mult: 1
}
param {
lr_mult: 2
decay_mult: 0
}
convolution_param {
num_output: 384
pad: 1
kernel_size: 3
weight_filler {
type: "gaussian"
std: 0.01
}
bias_filler {
type: "constant"
value: 0
}
}
}
layer {
name: "relu3"
type: "ReLU"
bottom: "conv3"
top: "conv3"
}
layer {
name: "conv4"
type: "Convolution"
bottom: "conv3"
top: "conv4"
param {
lr_mult: 1
decay_mult: 1
}
param {
lr_mult: 2
decay_mult: 0
}
convolution_param {
num_output: 384
pad: 1
kernel_size: 3
group: 2
weight_filler {
type: "gaussian"
std: 0.01
}
bias_filler {
type: "constant"
value: 0.1
}
}
}
layer {
name: "relu4"
type: "ReLU"
bottom: "conv4"
top: "conv4"
}
layer {
name: "conv5"
type: "Convolution"
bottom: "conv4"
top: "conv5"
param {
lr_mult: 1
decay_mult: 1
}
param {
lr_mult: 2
decay_mult: 0
}
convolution_param {
num_output: 256
pad: 1
kernel_size: 3
group: 2
weight_filler {
type: "gaussian"
std: 0.01
}
bias_filler {
type: "constant"
value: 0.1
}
}
}
layer {
name: "relu5"
type: "ReLU"
bottom: "conv5"
top: "conv5"
}
layer {
name: "pool5"
type: "Pooling"
bottom: "conv5"
top: "pool5"
pooling_param {
pool: MAX
kernel_size: 3
stride: 2
}
}
layer {
name: "fc6"
type: "InnerProduct"
bottom: "pool5"
top: "fc6"
param {
lr_mult: 1
decay_mult: 1
}
param {
lr_mult: 2
decay_mult: 0
}
inner_product_param {
num_output: 4096
weight_filler {
type: "gaussian"
std: 0.005
}
bias_filler {
type: "constant"
value: 0.1
}
}
}
layer {
name: "relu6"
type: "ReLU"
bottom: "fc6"
top: "fc6"
}
layer {
name: "drop6"
type: "Dropout"
bottom: "fc6"
top: "fc6"
dropout_param {
dropout_ratio: 0.5
}
}
layer {
name: "fc7"
type: "InnerProduct"
bottom: "fc6"
top: "fc7"
param {
lr_mult: 1
decay_mult: 1
}
param {
lr_mult: 2
decay_mult: 0
}
inner_product_param {
num_output: 4096
weight_filler {
type: "gaussian"
std: 0.005
}
bias_filler {
type: "constant"
value: 0.1
}
}
}
layer {
name: "relu7"
type: "ReLU"
bottom: "fc7"
top: "fc7"
}
layer {
name: "drop7"
type: "Dropout"
bottom: "fc7"
top: "fc7"
dropout_param {
dropout_ratio: 0.5
}
}
layer {
name: "fc8_clean"
type: "InnerProduct"
bottom: "fc7"
top: "fc8_clean"
param {
lr_mult: 1
decay_mult: 1
}
param {
lr_mult: 2
decay_mult: 0
}
inner_product_param {
num_output: 967
weight_filler {
type: "gaussian"
std: 0.01
}
bias_filler {
type: "constant"
value: 0
}
}
}
layer {
name: "accuracy"
type: "Accuracy"
bottom: "fc8_clean"
bottom: "label"
top: "accuracy"
include {
phase: TEST
}
}
layer {
name: "loss"
type: "SoftmaxWithLoss"
bottom: "fc8_clean"
bottom: "label"
top: "loss"
}
I0704 09:06:23.300384  4926 layer_factory.hpp:76] Creating layer val-data
I0704 09:06:23.301241  4926 net.cpp:109] Creating Layer val-data
I0704 09:06:23.301306  4926 net.cpp:414] val-data -> data
I0704 09:06:23.301318  4926 net.cpp:414] val-data -> label
I0704 09:06:23.301329  4926 data_transformer.cpp:25] Loading mean file from: /home/zml374/workspace/DIGITS/digits/jobs/20160704-085910-0cc9/mean.binaryproto
I0704 09:06:23.307205  4958 db_lmdb.cpp:36] Opened lmdb /home/zml374/workspace/DIGITS/digits/jobs/20160704-085910-0cc9/val_db
I0704 09:06:23.311874  4926 data_layer.cpp:45] output data size: 32,3,227,227
I0704 09:06:23.363387  4926 net.cpp:153] Setting up val-data
I0704 09:06:23.363432  4926 net.cpp:160] Top shape: 32 3 227 227 (4946784)
I0704 09:06:23.363440  4926 net.cpp:160] Top shape: 32 (32)
I0704 09:06:23.363445  4926 net.cpp:168] Memory required for data: 19787264
I0704 09:06:23.363453  4926 layer_factory.hpp:76] Creating layer label_val-data_1_split
I0704 09:06:23.363477  4926 net.cpp:109] Creating Layer label_val-data_1_split
I0704 09:06:23.363484  4926 net.cpp:457] label_val-data_1_split <- label
I0704 09:06:23.363493  4926 net.cpp:414] label_val-data_1_split -> label_val-data_1_split_0
I0704 09:06:23.363507  4926 net.cpp:414] label_val-data_1_split -> label_val-data_1_split_1
I0704 09:06:23.363976  4926 net.cpp:153] Setting up label_val-data_1_split
I0704 09:06:23.364028  4926 net.cpp:160] Top shape: 32 (32)
I0704 09:06:23.364042  4926 net.cpp:160] Top shape: 32 (32)
I0704 09:06:23.364053  4926 net.cpp:168] Memory required for data: 19787520
I0704 09:06:23.364066  4926 layer_factory.hpp:76] Creating layer conv1
I0704 09:06:23.364104  4926 net.cpp:109] Creating Layer conv1
I0704 09:06:23.364115  4926 net.cpp:457] conv1 <- data
I0704 09:06:23.364136  4926 net.cpp:414] conv1 -> conv1
I0704 09:06:23.368307  4926 net.cpp:153] Setting up conv1
I0704 09:06:23.368338  4926 net.cpp:160] Top shape: 32 96 55 55 (9292800)
I0704 09:06:23.368348  4926 net.cpp:168] Memory required for data: 56958720
I0704 09:06:23.368376  4926 layer_factory.hpp:76] Creating layer relu1
I0704 09:06:23.368397  4926 net.cpp:109] Creating Layer relu1
I0704 09:06:23.368407  4926 net.cpp:457] relu1 <- conv1
I0704 09:06:23.368422  4926 net.cpp:400] relu1 -> conv1 (in-place)
I0704 09:06:23.368443  4926 net.cpp:153] Setting up relu1
I0704 09:06:23.368455  4926 net.cpp:160] Top shape: 32 96 55 55 (9292800)
I0704 09:06:23.368464  4926 net.cpp:168] Memory required for data: 94129920
I0704 09:06:23.368474  4926 layer_factory.hpp:76] Creating layer norm1
I0704 09:06:23.368495  4926 net.cpp:109] Creating Layer norm1
I0704 09:06:23.368505  4926 net.cpp:457] norm1 <- conv1
I0704 09:06:23.368520  4926 net.cpp:414] norm1 -> norm1
I0704 09:06:23.368656  4926 net.cpp:153] Setting up norm1
I0704 09:06:23.368675  4926 net.cpp:160] Top shape: 32 96 55 55 (9292800)
I0704 09:06:23.368685  4926 net.cpp:168] Memory required for data: 131301120
I0704 09:06:23.368695  4926 layer_factory.hpp:76] Creating layer pool1
I0704 09:06:23.368713  4926 net.cpp:109] Creating Layer pool1
I0704 09:06:23.368722  4926 net.cpp:457] pool1 <- norm1
I0704 09:06:23.368736  4926 net.cpp:414] pool1 -> pool1
I0704 09:06:23.368862  4926 net.cpp:153] Setting up pool1
I0704 09:06:23.368880  4926 net.cpp:160] Top shape: 32 96 27 27 (2239488)
I0704 09:06:23.368888  4926 net.cpp:168] Memory required for data: 140259072
I0704 09:06:23.368898  4926 layer_factory.hpp:76] Creating layer conv2
I0704 09:06:23.368917  4926 net.cpp:109] Creating Layer conv2
I0704 09:06:23.368927  4926 net.cpp:457] conv2 <- pool1
I0704 09:06:23.368943  4926 net.cpp:414] conv2 -> conv2
I0704 09:06:23.392187  4926 net.cpp:153] Setting up conv2
I0704 09:06:23.392215  4926 net.cpp:160] Top shape: 32 256 27 27 (5971968)
I0704 09:06:23.392221  4926 net.cpp:168] Memory required for data: 164146944
I0704 09:06:23.392238  4926 layer_factory.hpp:76] Creating layer relu2
I0704 09:06:23.392300  4926 net.cpp:109] Creating Layer relu2
I0704 09:06:23.392308  4926 net.cpp:457] relu2 <- conv2
I0704 09:06:23.392319  4926 net.cpp:400] relu2 -> conv2 (in-place)
I0704 09:06:23.392333  4926 net.cpp:153] Setting up relu2
I0704 09:06:23.392341  4926 net.cpp:160] Top shape: 32 256 27 27 (5971968)
I0704 09:06:23.392346  4926 net.cpp:168] Memory required for data: 188034816
I0704 09:06:23.392352  4926 layer_factory.hpp:76] Creating layer norm2
I0704 09:06:23.392364  4926 net.cpp:109] Creating Layer norm2
I0704 09:06:23.392370  4926 net.cpp:457] norm2 <- conv2
I0704 09:06:23.392379  4926 net.cpp:414] norm2 -> norm2
I0704 09:06:23.392467  4926 net.cpp:153] Setting up norm2
I0704 09:06:23.392479  4926 net.cpp:160] Top shape: 32 256 27 27 (5971968)
I0704 09:06:23.392484  4926 net.cpp:168] Memory required for data: 211922688
I0704 09:06:23.392490  4926 layer_factory.hpp:76] Creating layer pool2
I0704 09:06:23.392503  4926 net.cpp:109] Creating Layer pool2
I0704 09:06:23.392508  4926 net.cpp:457] pool2 <- norm2
I0704 09:06:23.392518  4926 net.cpp:414] pool2 -> pool2
I0704 09:06:23.392592  4926 net.cpp:153] Setting up pool2
I0704 09:06:23.392602  4926 net.cpp:160] Top shape: 32 256 13 13 (1384448)
I0704 09:06:23.392608  4926 net.cpp:168] Memory required for data: 217460480
I0704 09:06:23.392614  4926 layer_factory.hpp:76] Creating layer conv3
I0704 09:06:23.392629  4926 net.cpp:109] Creating Layer conv3
I0704 09:06:23.392635  4926 net.cpp:457] conv3 <- pool2
I0704 09:06:23.392644  4926 net.cpp:414] conv3 -> conv3
I0704 09:06:23.444003  4926 net.cpp:153] Setting up conv3
I0704 09:06:23.444034  4926 net.cpp:160] Top shape: 32 384 13 13 (2076672)
I0704 09:06:23.444041  4926 net.cpp:168] Memory required for data: 225767168
I0704 09:06:23.444061  4926 layer_factory.hpp:76] Creating layer relu3
I0704 09:06:23.444074  4926 net.cpp:109] Creating Layer relu3
I0704 09:06:23.444082  4926 net.cpp:457] relu3 <- conv3
I0704 09:06:23.444092  4926 net.cpp:400] relu3 -> conv3 (in-place)
I0704 09:06:23.444106  4926 net.cpp:153] Setting up relu3
I0704 09:06:23.444114  4926 net.cpp:160] Top shape: 32 384 13 13 (2076672)
I0704 09:06:23.444119  4926 net.cpp:168] Memory required for data: 234073856
I0704 09:06:23.444125  4926 layer_factory.hpp:76] Creating layer conv4
I0704 09:06:23.444139  4926 net.cpp:109] Creating Layer conv4
I0704 09:06:23.444144  4926 net.cpp:457] conv4 <- conv3
I0704 09:06:23.444154  4926 net.cpp:414] conv4 -> conv4
I0704 09:06:23.482857  4926 net.cpp:153] Setting up conv4
I0704 09:06:23.482880  4926 net.cpp:160] Top shape: 32 384 13 13 (2076672)
I0704 09:06:23.482887  4926 net.cpp:168] Memory required for data: 242380544
I0704 09:06:23.482898  4926 layer_factory.hpp:76] Creating layer relu4
I0704 09:06:23.482910  4926 net.cpp:109] Creating Layer relu4
I0704 09:06:23.482918  4926 net.cpp:457] relu4 <- conv4
I0704 09:06:23.482928  4926 net.cpp:400] relu4 -> conv4 (in-place)
I0704 09:06:23.482939  4926 net.cpp:153] Setting up relu4
I0704 09:06:23.482946  4926 net.cpp:160] Top shape: 32 384 13 13 (2076672)
I0704 09:06:23.482952  4926 net.cpp:168] Memory required for data: 250687232
I0704 09:06:23.482957  4926 layer_factory.hpp:76] Creating layer conv5
I0704 09:06:23.482970  4926 net.cpp:109] Creating Layer conv5
I0704 09:06:23.482976  4926 net.cpp:457] conv5 <- conv4
I0704 09:06:23.482985  4926 net.cpp:414] conv5 -> conv5
I0704 09:06:23.509024  4926 net.cpp:153] Setting up conv5
I0704 09:06:23.509047  4926 net.cpp:160] Top shape: 32 256 13 13 (1384448)
I0704 09:06:23.509053  4926 net.cpp:168] Memory required for data: 256225024
I0704 09:06:23.509071  4926 layer_factory.hpp:76] Creating layer relu5
I0704 09:06:23.509083  4926 net.cpp:109] Creating Layer relu5
I0704 09:06:23.509089  4926 net.cpp:457] relu5 <- conv5
I0704 09:06:23.509099  4926 net.cpp:400] relu5 -> conv5 (in-place)
I0704 09:06:23.509111  4926 net.cpp:153] Setting up relu5
I0704 09:06:23.509119  4926 net.cpp:160] Top shape: 32 256 13 13 (1384448)
I0704 09:06:23.509125  4926 net.cpp:168] Memory required for data: 261762816
I0704 09:06:23.509178  4926 layer_factory.hpp:76] Creating layer pool5
I0704 09:06:23.509197  4926 net.cpp:109] Creating Layer pool5
I0704 09:06:23.509203  4926 net.cpp:457] pool5 <- conv5
I0704 09:06:23.509212  4926 net.cpp:414] pool5 -> pool5
I0704 09:06:23.509407  4926 net.cpp:153] Setting up pool5
I0704 09:06:23.509449  4926 net.cpp:160] Top shape: 32 256 6 6 (294912)
I0704 09:06:23.509459  4926 net.cpp:168] Memory required for data: 262942464
I0704 09:06:23.509470  4926 layer_factory.hpp:76] Creating layer fc6
I0704 09:06:23.509492  4926 net.cpp:109] Creating Layer fc6
I0704 09:06:23.509505  4926 net.cpp:457] fc6 <- pool5
I0704 09:06:23.509521  4926 net.cpp:414] fc6 -> fc6
I0704 09:06:24.995779  4926 net.cpp:153] Setting up fc6
I0704 09:06:24.995826  4926 net.cpp:160] Top shape: 32 4096 (131072)
I0704 09:06:24.995831  4926 net.cpp:168] Memory required for data: 263466752
I0704 09:06:24.995849  4926 layer_factory.hpp:76] Creating layer relu6
I0704 09:06:24.995867  4926 net.cpp:109] Creating Layer relu6
I0704 09:06:24.995873  4926 net.cpp:457] relu6 <- fc6
I0704 09:06:24.995884  4926 net.cpp:400] relu6 -> fc6 (in-place)
I0704 09:06:24.995900  4926 net.cpp:153] Setting up relu6
I0704 09:06:24.995906  4926 net.cpp:160] Top shape: 32 4096 (131072)
I0704 09:06:24.995911  4926 net.cpp:168] Memory required for data: 263991040
I0704 09:06:24.995915  4926 layer_factory.hpp:76] Creating layer drop6
I0704 09:06:24.995926  4926 net.cpp:109] Creating Layer drop6
I0704 09:06:24.995930  4926 net.cpp:457] drop6 <- fc6
I0704 09:06:24.995939  4926 net.cpp:400] drop6 -> fc6 (in-place)
I0704 09:06:24.995995  4926 net.cpp:153] Setting up drop6
I0704 09:06:24.996003  4926 net.cpp:160] Top shape: 32 4096 (131072)
I0704 09:06:24.996007  4926 net.cpp:168] Memory required for data: 264515328
I0704 09:06:24.996013  4926 layer_factory.hpp:76] Creating layer fc7
I0704 09:06:24.996026  4926 net.cpp:109] Creating Layer fc7
I0704 09:06:24.996031  4926 net.cpp:457] fc7 <- fc6
I0704 09:06:24.996037  4926 net.cpp:414] fc7 -> fc7
I0704 09:06:25.654973  4926 net.cpp:153] Setting up fc7
I0704 09:06:25.655014  4926 net.cpp:160] Top shape: 32 4096 (131072)
I0704 09:06:25.655019  4926 net.cpp:168] Memory required for data: 265039616
I0704 09:06:25.655033  4926 layer_factory.hpp:76] Creating layer relu7
I0704 09:06:25.655050  4926 net.cpp:109] Creating Layer relu7
I0704 09:06:25.655056  4926 net.cpp:457] relu7 <- fc7
I0704 09:06:25.655066  4926 net.cpp:400] relu7 -> fc7 (in-place)
I0704 09:06:25.655086  4926 net.cpp:153] Setting up relu7
I0704 09:06:25.655092  4926 net.cpp:160] Top shape: 32 4096 (131072)
I0704 09:06:25.655097  4926 net.cpp:168] Memory required for data: 265563904
I0704 09:06:25.655102  4926 layer_factory.hpp:76] Creating layer drop7
I0704 09:06:25.655112  4926 net.cpp:109] Creating Layer drop7
I0704 09:06:25.655117  4926 net.cpp:457] drop7 <- fc7
I0704 09:06:25.655123  4926 net.cpp:400] drop7 -> fc7 (in-place)
I0704 09:06:25.655171  4926 net.cpp:153] Setting up drop7
I0704 09:06:25.655180  4926 net.cpp:160] Top shape: 32 4096 (131072)
I0704 09:06:25.655185  4926 net.cpp:168] Memory required for data: 266088192
I0704 09:06:25.655189  4926 layer_factory.hpp:76] Creating layer fc8_clean
I0704 09:06:25.655200  4926 net.cpp:109] Creating Layer fc8_clean
I0704 09:06:25.655205  4926 net.cpp:457] fc8_clean <- fc7
I0704 09:06:25.655212  4926 net.cpp:414] fc8_clean -> fc8_clean
I0704 09:06:25.811760  4926 net.cpp:153] Setting up fc8_clean
I0704 09:06:25.811800  4926 net.cpp:160] Top shape: 32 967 (30944)
I0704 09:06:25.811805  4926 net.cpp:168] Memory required for data: 266211968
I0704 09:06:25.811816  4926 layer_factory.hpp:76] Creating layer fc8_clean_fc8_clean_0_split
I0704 09:06:25.811830  4926 net.cpp:109] Creating Layer fc8_clean_fc8_clean_0_split
I0704 09:06:25.811836  4926 net.cpp:457] fc8_clean_fc8_clean_0_split <- fc8_clean
I0704 09:06:25.811846  4926 net.cpp:414] fc8_clean_fc8_clean_0_split -> fc8_clean_fc8_clean_0_split_0
I0704 09:06:25.811857  4926 net.cpp:414] fc8_clean_fc8_clean_0_split -> fc8_clean_fc8_clean_0_split_1
I0704 09:06:25.811975  4926 net.cpp:153] Setting up fc8_clean_fc8_clean_0_split
I0704 09:06:25.811986  4926 net.cpp:160] Top shape: 32 967 (30944)
I0704 09:06:25.811991  4926 net.cpp:160] Top shape: 32 967 (30944)
I0704 09:06:25.811996  4926 net.cpp:168] Memory required for data: 266459520
I0704 09:06:25.812000  4926 layer_factory.hpp:76] Creating layer accuracy
I0704 09:06:25.812021  4926 net.cpp:109] Creating Layer accuracy
I0704 09:06:25.812026  4926 net.cpp:457] accuracy <- fc8_clean_fc8_clean_0_split_0
I0704 09:06:25.812031  4926 net.cpp:457] accuracy <- label_val-data_1_split_0
I0704 09:06:25.812038  4926 net.cpp:414] accuracy -> accuracy
…
