…
I0704 06:31:13.622006 17136 net.cpp:52] Initializing net from parameters:
state {
phase: TRAIN
}
layer {
name: "data"
type: "Data"
top: "data"
include {
phase: TRAIN
}
transform_param {
mean_file: "/home/ffw/scratch/plantClef/scatnet_output/train/a4_m3_s1s2s4_f2/lmdb_mean_coeff.binaryproto"
}
data_param {
source: "/home/ffw/scratch/plantClef/scatnet_output/train/a4_m3_s1s2s4_f2/lmdb_data"
batch_size: 100
backend: LMDB
}
}
layer {
name: "label"
type: "Data"
top: "label"
include {
phase: TRAIN
}
data_param {
source: "/home/ffw/scratch/plantClef/scatnet_output/train/a4_m3_s1s2s4_f2/lmdb_labels"
batch_size: 100
backend: LMDB
}
}
layer {
name: "pool1"
type: "Pooling"
bottom: "data"
top: "pool1"
pooling_param {
pool: MAX
kernel_size: 6
stride: 5
}
}
layer {
name: "conv3"
type: "Convolution"
bottom: "pool1"
top: "conv3"
param {
lr_mult: 1
decay_mult: 1
}
param {
lr_mult: 2
decay_mult: 0
}
convolution_param {
num_output: 384
pad: 1
kernel_size: 3
weight_filler {
type: "gaussian"
std: 0.01
}
bias_filler {
type: "constant"
value: 0
}
}
}
layer {
name: "relu3"
type: "ReLU"
bottom: "conv3"
top: "conv3"
}
layer {
name: "conv4"
type: "Convolution"
bottom: "conv3"
top: "conv4"
param {
lr_mult: 1
decay_mult: 1
}
param {
lr_mult: 2
decay_mult: 0
}
convolution_param {
num_output: 384
pad: 1
kernel_size: 3
group: 2
weight_filler {
type: "gaussian"
std: 0.01
}
bias_filler {
type: "constant"
value: 0.1
}
}
}
layer {
name: "relu4"
type: "ReLU"
bottom: "conv4"
top: "conv4"
}
layer {
name: "conv5"
type: "Convolution"
bottom: "conv4"
top: "conv5"
param {
lr_mult: 1
decay_mult: 1
}
param {
lr_mult: 2
decay_mult: 0
}
convolution_param {
num_output: 256
pad: 1
kernel_size: 3
group: 1
weight_filler {
type: "gaussian"
std: 0.01
}
bias_filler {
type: "constant"
value: 0.1
}
}
}
layer {
name: "relu5"
type: "ReLU"
bottom: "conv5"
top: "conv5"
}
layer {
name: "pool5"
type: "Pooling"
bottom: "conv5"
top: "pool5"
pooling_param {
pool: MAX
kernel_size: 3
stride: 2
}
}
layer {
name: "fc6"
type: "InnerProduct"
bottom: "pool5"
top: "fc6"
param {
lr_mult: 1
decay_mult: 1
}
param {
lr_mult: 2
decay_mult: 0
}
inner_product_param {
num_output: 4096
weight_filler {
type: "gaussian"
std: 0.005
}
bias_filler {
type: "constant"
value: 0.1
}
}
}
layer {
name: "relu6"
type: "ReLU"
bottom: "fc6"
top: "fc6"
}
layer {
name: "drop6"
type: "Dropout"
bottom: "fc6"
top: "fc6"
dropout_param {
dropout_ratio: 0.5
}
}
layer {
name: "fc7"
type: "InnerProduct"
bottom: "fc6"
top: "fc7"
param {
lr_mult: 1
decay_mult: 1
}
param {
lr_mult: 2
decay_mult: 0
}
inner_product_param {
num_output: 4096
weight_filler {
type: "gaussian"
std: 0.005
}
bias_filler {
type: "constant"
value: 0.1
}
}
}
layer {
name: "relu7"
type: "ReLU"
bottom: "fc7"
top: "fc7"
}
layer {
name: "drop7"
type: "Dropout"
bottom: "fc7"
top: "fc7"
dropout_param {
dropout_ratio: 0.5
}
}
layer {
name: "fc8_species"
type: "InnerProduct"
bottom: "fc7"
top: "fc8_species"
param {
lr_mult: 1
decay_mult: 1
}
param {
lr_mult: 2
decay_mult: 0
}
inner_product_param {
num_output: 967
weight_filler {
type: "gaussian"
std: 0.005
}
bias_filler {
type: "constant"
value: 0.1
}
}
}
layer {
name: "loss"
type: "SoftmaxWithLoss"
bottom: "fc8_species"
bottom: "label"
top: "loss"
}
I0704 06:31:13.622061 17136 layer_factory.hpp:76] Creating layer data
I0704 06:31:13.622151 17136 net.cpp:109] Creating Layer data
I0704 06:31:13.622156 17136 net.cpp:414] data -> data
I0704 06:31:13.622167 17136 data_transformer.cpp:25] Loading mean file from: /home/ffw/scratch/plantClef/scatnet_output/train/a4_m3_s1s2s4_f2/lmdb_mean_coeff.binaryproto
I0704 06:31:13.624531 17148 db_lmdb.cpp:36] Opened lmdb /home/ffw/scratch/plantClef/scatnet_output/train/a4_m3_s1s2s4_f2/lmdb_data
I0704 06:31:13.640446 17136 data_layer.cpp:45] output data size: 100,375,47,47
I0704 06:31:13.989912 17136 net.cpp:153] Setting up data
I0704 06:31:13.989934 17136 net.cpp:160] Top shape: 100 375 47 47 (82837500)
I0704 06:31:13.989938 17136 net.cpp:168] Memory required for data: 331350000
I0704 06:31:13.989944 17136 layer_factory.hpp:76] Creating layer label
I0704 06:31:13.990006 17136 net.cpp:109] Creating Layer label
I0704 06:31:13.990011 17136 net.cpp:414] label -> label
I0704 06:31:13.993088 17150 db_lmdb.cpp:36] Opened lmdb /home/ffw/scratch/plantClef/scatnet_output/train/a4_m3_s1s2s4_f2/lmdb_labels
I0704 06:31:14.019012 17136 data_layer.cpp:45] output data size: 100,1,1,1
I0704 06:31:14.019237 17136 net.cpp:153] Setting up label
I0704 06:31:14.019246 17136 net.cpp:160] Top shape: 100 1 1 1 (100)
I0704 06:31:14.019248 17136 net.cpp:168] Memory required for data: 331350400
I0704 06:31:14.019253 17136 layer_factory.hpp:76] Creating layer pool1
I0704 06:31:14.019261 17136 net.cpp:109] Creating Layer pool1
I0704 06:31:14.019263 17136 net.cpp:457] pool1 <- data
I0704 06:31:14.019273 17136 net.cpp:414] pool1 -> pool1
I0704 06:31:14.019348 17136 net.cpp:153] Setting up pool1
I0704 06:31:14.019354 17136 net.cpp:160] Top shape: 100 375 10 10 (3750000)
I0704 06:31:14.019356 17136 net.cpp:168] Memory required for data: 346350400
I0704 06:31:14.019358 17136 layer_factory.hpp:76] Creating layer conv3
I0704 06:31:14.019364 17136 net.cpp:109] Creating Layer conv3
I0704 06:31:14.019366 17136 net.cpp:457] conv3 <- pool1
I0704 06:31:14.019369 17136 net.cpp:414] conv3 -> conv3
I0704 06:31:14.046069 17136 net.cpp:153] Setting up conv3
I0704 06:31:14.046087 17136 net.cpp:160] Top shape: 100 384 10 10 (3840000)
I0704 06:31:14.046090 17136 net.cpp:168] Memory required for data: 361710400
I0704 06:31:14.046102 17136 layer_factory.hpp:76] Creating layer relu3
I0704 06:31:14.046110 17136 net.cpp:109] Creating Layer relu3
I0704 06:31:14.046113 17136 net.cpp:457] relu3 <- conv3
I0704 06:31:14.046116 17136 net.cpp:400] relu3 -> conv3 (in-place)
I0704 06:31:14.046126 17136 net.cpp:153] Setting up relu3
I0704 06:31:14.046129 17136 net.cpp:160] Top shape: 100 384 10 10 (3840000)
I0704 06:31:14.046131 17136 net.cpp:168] Memory required for data: 377070400
I0704 06:31:14.046133 17136 layer_factory.hpp:76] Creating layer conv4
I0704 06:31:14.046139 17136 net.cpp:109] Creating Layer conv4
I0704 06:31:14.046140 17136 net.cpp:457] conv4 <- conv3
I0704 06:31:14.046144 17136 net.cpp:414] conv4 -> conv4
I0704 06:31:14.060454 17136 net.cpp:153] Setting up conv4
I0704 06:31:14.060482 17136 net.cpp:160] Top shape: 100 384 10 10 (3840000)
I0704 06:31:14.060489 17136 net.cpp:168] Memory required for data: 392430400
I0704 06:31:14.060513 17136 layer_factory.hpp:76] Creating layer relu4
I0704 06:31:14.060525 17136 net.cpp:109] Creating Layer relu4
I0704 06:31:14.060531 17136 net.cpp:457] relu4 <- conv4
I0704 06:31:14.060537 17136 net.cpp:400] relu4 -> conv4 (in-place)
I0704 06:31:14.060569 17136 net.cpp:153] Setting up relu4
I0704 06:31:14.060572 17136 net.cpp:160] Top shape: 100 384 10 10 (3840000)
I0704 06:31:14.060575 17136 net.cpp:168] Memory required for data: 407790400
I0704 06:31:14.060576 17136 layer_factory.hpp:76] Creating layer conv5
I0704 06:31:14.060581 17136 net.cpp:109] Creating Layer conv5
I0704 06:31:14.060583 17136 net.cpp:457] conv5 <- conv4
I0704 06:31:14.060587 17136 net.cpp:414] conv5 -> conv5
I0704 06:31:14.079188 17136 net.cpp:153] Setting up conv5
I0704 06:31:14.079215 17136 net.cpp:160] Top shape: 100 256 10 10 (2560000)
I0704 06:31:14.079217 17136 net.cpp:168] Memory required for data: 418030400
I0704 06:31:14.079226 17136 layer_factory.hpp:76] Creating layer relu5
I0704 06:31:14.079236 17136 net.cpp:109] Creating Layer relu5
I0704 06:31:14.079241 17136 net.cpp:457] relu5 <- conv5
I0704 06:31:14.079246 17136 net.cpp:400] relu5 -> conv5 (in-place)
I0704 06:31:14.079252 17136 net.cpp:153] Setting up relu5
I0704 06:31:14.079255 17136 net.cpp:160] Top shape: 100 256 10 10 (2560000)
I0704 06:31:14.079258 17136 net.cpp:168] Memory required for data: 428270400
I0704 06:31:14.079260 17136 layer_factory.hpp:76] Creating layer pool5
I0704 06:31:14.079265 17136 net.cpp:109] Creating Layer pool5
I0704 06:31:14.079267 17136 net.cpp:457] pool5 <- conv5
I0704 06:31:14.079270 17136 net.cpp:414] pool5 -> pool5
I0704 06:31:14.079310 17136 net.cpp:153] Setting up pool5
I0704 06:31:14.079315 17136 net.cpp:160] Top shape: 100 256 5 5 (640000)
I0704 06:31:14.079318 17136 net.cpp:168] Memory required for data: 430830400
I0704 06:31:14.079319 17136 layer_factory.hpp:76] Creating layer fc6
I0704 06:31:14.079326 17136 net.cpp:109] Creating Layer fc6
I0704 06:31:14.079329 17136 net.cpp:457] fc6 <- pool5
I0704 06:31:14.079331 17136 net.cpp:414] fc6 -> fc6
I0704 06:31:14.616603 17136 net.cpp:153] Setting up fc6
I0704 06:31:14.616628 17136 net.cpp:160] Top shape: 100 4096 (409600)
I0704 06:31:14.616632 17136 net.cpp:168] Memory required for data: 432468800
I0704 06:31:14.616638 17136 layer_factory.hpp:76] Creating layer relu6
I0704 06:31:14.616646 17136 net.cpp:109] Creating Layer relu6
I0704 06:31:14.616649 17136 net.cpp:457] relu6 <- fc6
I0704 06:31:14.616654 17136 net.cpp:400] relu6 -> fc6 (in-place)
I0704 06:31:14.616662 17136 net.cpp:153] Setting up relu6
I0704 06:31:14.616665 17136 net.cpp:160] Top shape: 100 4096 (409600)
I0704 06:31:14.616667 17136 net.cpp:168] Memory required for data: 434107200
I0704 06:31:14.616669 17136 layer_factory.hpp:76] Creating layer drop6
I0704 06:31:14.616683 17136 net.cpp:109] Creating Layer drop6
I0704 06:31:14.616685 17136 net.cpp:457] drop6 <- fc6
I0704 06:31:14.616689 17136 net.cpp:400] drop6 -> fc6 (in-place)
I0704 06:31:14.616722 17136 net.cpp:153] Setting up drop6
I0704 06:31:14.616726 17136 net.cpp:160] Top shape: 100 4096 (409600)
I0704 06:31:14.616729 17136 net.cpp:168] Memory required for data: 435745600
I0704 06:31:14.616731 17136 layer_factory.hpp:76] Creating layer fc7
I0704 06:31:14.616739 17136 net.cpp:109] Creating Layer fc7
I0704 06:31:14.616740 17136 net.cpp:457] fc7 <- fc6
I0704 06:31:14.616744 17136 net.cpp:414] fc7 -> fc7
I0704 06:31:14.932257 17136 net.cpp:153] Setting up fc7
I0704 06:31:14.932278 17136 net.cpp:160] Top shape: 100 4096 (409600)
I0704 06:31:14.932281 17136 net.cpp:168] Memory required for data: 437384000
I0704 06:31:14.932288 17136 layer_factory.hpp:76] Creating layer relu7
I0704 06:31:14.932296 17136 net.cpp:109] Creating Layer relu7
I0704 06:31:14.932298 17136 net.cpp:457] relu7 <- fc7
I0704 06:31:14.932301 17136 net.cpp:400] relu7 -> fc7 (in-place)
I0704 06:31:14.932308 17136 net.cpp:153] Setting up relu7
I0704 06:31:14.932310 17136 net.cpp:160] Top shape: 100 4096 (409600)
I0704 06:31:14.932312 17136 net.cpp:168] Memory required for data: 439022400
I0704 06:31:14.932314 17136 layer_factory.hpp:76] Creating layer drop7
I0704 06:31:14.932317 17136 net.cpp:109] Creating Layer drop7
I0704 06:31:14.932319 17136 net.cpp:457] drop7 <- fc7
I0704 06:31:14.932322 17136 net.cpp:400] drop7 -> fc7 (in-place)
I0704 06:31:14.932354 17136 net.cpp:153] Setting up drop7
I0704 06:31:14.932358 17136 net.cpp:160] Top shape: 100 4096 (409600)
I0704 06:31:14.932359 17136 net.cpp:168] Memory required for data: 440660800
I0704 06:31:14.932361 17136 layer_factory.hpp:76] Creating layer fc8_species
I0704 06:31:14.932368 17136 net.cpp:109] Creating Layer fc8_species
I0704 06:31:14.932368 17136 net.cpp:457] fc8_species <- fc7
I0704 06:31:14.932371 17136 net.cpp:414] fc8_species -> fc8_species
I0704 06:31:15.003921 17136 net.cpp:153] Setting up fc8_species
I0704 06:31:15.003942 17136 net.cpp:160] Top shape: 100 967 (96700)
I0704 06:31:15.003944 17136 net.cpp:168] Memory required for data: 441047600
I0704 06:31:15.003949 17136 layer_factory.hpp:76] Creating layer loss
I0704 06:31:15.003955 17136 net.cpp:109] Creating Layer loss
I0704 06:31:15.003958 17136 net.cpp:457] loss <- fc8_species
I0704 06:31:15.003962 17136 net.cpp:457] loss <- label
I0704 06:31:15.003965 17136 net.cpp:414] loss -> loss
I0704 06:31:15.003973 17136 layer_factory.hpp:76] Creating layer loss
…
I0704 06:31:15.004978 17136 net.cpp:52] Initializing net from parameters:
state {
phase: TEST
}
layer {
name: "data"
type: "Data"
top: "data"
include {
phase: TEST
}
transform_param {
mean_file: "/home/ffw/scratch/plantClef/scatnet_output/train/a4_m3_s1s2s4_f2/lmdb_mean_coeff.binaryproto"
}
data_param {
source: "/home/ffw/scratch/plantClef/scatnet_output/test/a4_m3_s1s2s4_f2/lmdb_data"
batch_size: 100
backend: LMDB
}
}
layer {
name: "label"
type: "Data"
top: "label"
include {
phase: TEST
}
data_param {
source: "/home/ffw/scratch/plantClef/scatnet_output/test/a4_m3_s1s2s4_f2/lmdb_labels"
batch_size: 100
backend: LMDB
}
}
layer {
name: "pool1"
type: "Pooling"
bottom: "data"
top: "pool1"
pooling_param {
pool: MAX
kernel_size: 6
stride: 5
}
}
layer {
name: "conv3"
type: "Convolution"
bottom: "pool1"
top: "conv3"
param {
lr_mult: 1
decay_mult: 1
}
param {
lr_mult: 2
decay_mult: 0
}
convolution_param {
num_output: 384
pad: 1
kernel_size: 3
weight_filler {
type: "gaussian"
std: 0.01
}
bias_filler {
type: "constant"
value: 0
}
}
}
layer {
name: "relu3"
type: "ReLU"
bottom: "conv3"
top: "conv3"
}
layer {
name: "conv4"
type: "Convolution"
bottom: "conv3"
top: "conv4"
param {
lr_mult: 1
decay_mult: 1
}
param {
lr_mult: 2
decay_mult: 0
}
convolution_param {
num_output: 384
pad: 1
kernel_size: 3
group: 2
weight_filler {
type: "gaussian"
std: 0.01
}
bias_filler {
type: "constant"
value: 0.1
}
}
}
layer {
name: "relu4"
type: "ReLU"
bottom: "conv4"
top: "conv4"
}
layer {
name: "conv5"
type: "Convolution"
bottom: "conv4"
top: "conv5"
param {
lr_mult: 1
decay_mult: 1
}
param {
lr_mult: 2
decay_mult: 0
}
convolution_param {
num_output: 256
pad: 1
kernel_size: 3
group: 1
weight_filler {
type: "gaussian"
std: 0.01
}
bias_filler {
type: "constant"
value: 0.1
}
}
}
layer {
name: "relu5"
type: "ReLU"
bottom: "conv5"
top: "conv5"
}
layer {
name: "pool5"
type: "Pooling"
bottom: "conv5"
top: "pool5"
pooling_param {
pool: MAX
kernel_size: 3
stride: 2
}
}
layer {
name: "fc6"
type: "InnerProduct"
bottom: "pool5"
top: "fc6"
param {
lr_mult: 1
decay_mult: 1
}
param {
lr_mult: 2
decay_mult: 0
}
inner_product_param {
num_output: 4096
weight_filler {
type: "gaussian"
std: 0.005
}
bias_filler {
type: "constant"
value: 0.1
}
}
}
layer {
name: "relu6"
type: "ReLU"
bottom: "fc6"
top: "fc6"
}
layer {
name: "drop6"
type: "Dropout"
bottom: "fc6"
top: "fc6"
dropout_param {
dropout_ratio: 0.5
}
}
layer {
name: "fc7"
type: "InnerProduct"
bottom: "fc6"
top: "fc7"
param {
lr_mult: 1
decay_mult: 1
}
param {
lr_mult: 2
decay_mult: 0
}
inner_product_param {
num_output: 4096
weight_filler {
type: "gaussian"
std: 0.005
}
bias_filler {
type: "constant"
value: 0.1
}
}
}
layer {
name: "relu7"
type: "ReLU"
bottom: "fc7"
top: "fc7"
}
layer {
name: "drop7"
type: "Dropout"
bottom: "fc7"
top: "fc7"
dropout_param {
dropout_ratio: 0.5
}
}
layer {
name: "fc8_species"
type: "InnerProduct"
bottom: "fc7"
top: "fc8_species"
param {
lr_mult: 1
decay_mult: 1
}
param {
lr_mult: 2
decay_mult: 0
}
inner_product_param {
num_output: 967
weight_filler {
type: "gaussian"
std: 0.005
}
bias_filler {
type: "constant"
value: 0.1
}
}
}
layer {
name: "loss"
type: "SoftmaxWithLoss"
bottom: "fc8_species"
bottom: "label"
top: "loss"
}
layer {
name: "accuracy"
type: "Accuracy"
bottom: "fc8_species"
bottom: "label"
top: "accuracy"
include {
phase: TEST
}
}
I0704 06:31:15.005039 17136 layer_factory.hpp:76] Creating layer data
I0704 06:31:15.005110 17136 net.cpp:109] Creating Layer data
I0704 06:31:15.005115 17136 net.cpp:414] data -> data
I0704 06:31:15.005120 17136 data_transformer.cpp:25] Loading mean file from: /home/ffw/scratch/plantClef/scatnet_output/train/a4_m3_s1s2s4_f2/lmdb_mean_coeff.binaryproto
I0704 06:31:15.006244 17152 db_lmdb.cpp:36] Opened lmdb /home/ffw/scratch/plantClef/scatnet_output/test/a4_m3_s1s2s4_f2/lmdb_data
I0704 06:31:15.010133 17136 data_layer.cpp:45] output data size: 100,375,47,47
I0704 06:31:15.375926 17136 net.cpp:153] Setting up data
I0704 06:31:15.375943 17136 net.cpp:160] Top shape: 100 375 47 47 (82837500)
I0704 06:31:15.375947 17136 net.cpp:168] Memory required for data: 331350000
I0704 06:31:15.375952 17136 layer_factory.hpp:76] Creating layer label
I0704 06:31:15.376013 17136 net.cpp:109] Creating Layer label
I0704 06:31:15.376042 17136 net.cpp:414] label -> label
I0704 06:31:15.377298 17154 db_lmdb.cpp:36] Opened lmdb /home/ffw/scratch/plantClef/scatnet_output/test/a4_m3_s1s2s4_f2/lmdb_labels
I0704 06:31:15.403249 17136 data_layer.cpp:45] output data size: 100,1,1,1
I0704 06:31:15.403337 17136 net.cpp:153] Setting up label
I0704 06:31:15.403344 17136 net.cpp:160] Top shape: 100 1 1 1 (100)
I0704 06:31:15.403347 17136 net.cpp:168] Memory required for data: 331350400
I0704 06:31:15.403348 17136 layer_factory.hpp:76] Creating layer label_label_0_split
I0704 06:31:15.403353 17136 net.cpp:109] Creating Layer label_label_0_split
I0704 06:31:15.403357 17136 net.cpp:457] label_label_0_split <- label
I0704 06:31:15.403359 17136 net.cpp:414] label_label_0_split -> label_label_0_split_0
I0704 06:31:15.403363 17136 net.cpp:414] label_label_0_split -> label_label_0_split_1
I0704 06:31:15.403393 17136 net.cpp:153] Setting up label_label_0_split
I0704 06:31:15.403398 17136 net.cpp:160] Top shape: 100 1 1 1 (100)
I0704 06:31:15.403399 17136 net.cpp:160] Top shape: 100 1 1 1 (100)
I0704 06:31:15.403401 17136 net.cpp:168] Memory required for data: 331351200
I0704 06:31:15.403403 17136 layer_factory.hpp:76] Creating layer pool1
I0704 06:31:15.403409 17136 net.cpp:109] Creating Layer pool1
I0704 06:31:15.403410 17136 net.cpp:457] pool1 <- data
I0704 06:31:15.403412 17136 net.cpp:414] pool1 -> pool1
I0704 06:31:15.403432 17136 net.cpp:153] Setting up pool1
I0704 06:31:15.403435 17136 net.cpp:160] Top shape: 100 375 10 10 (3750000)
I0704 06:31:15.403437 17136 net.cpp:168] Memory required for data: 346351200
I0704 06:31:15.403439 17136 layer_factory.hpp:76] Creating layer conv3
I0704 06:31:15.403445 17136 net.cpp:109] Creating Layer conv3
I0704 06:31:15.403447 17136 net.cpp:457] conv3 <- pool1
I0704 06:31:15.403450 17136 net.cpp:414] conv3 -> conv3
I0704 06:31:15.428504 17136 net.cpp:153] Setting up conv3
I0704 06:31:15.428525 17136 net.cpp:160] Top shape: 100 384 10 10 (3840000)
I0704 06:31:15.428529 17136 net.cpp:168] Memory required for data: 361711200
I0704 06:31:15.428539 17136 layer_factory.hpp:76] Creating layer relu3
I0704 06:31:15.428545 17136 net.cpp:109] Creating Layer relu3
I0704 06:31:15.428549 17136 net.cpp:457] relu3 <- conv3
I0704 06:31:15.428553 17136 net.cpp:400] relu3 -> conv3 (in-place)
I0704 06:31:15.428560 17136 net.cpp:153] Setting up relu3
I0704 06:31:15.428562 17136 net.cpp:160] Top shape: 100 384 10 10 (3840000)
I0704 06:31:15.428565 17136 net.cpp:168] Memory required for data: 377071200
I0704 06:31:15.428565 17136 layer_factory.hpp:76] Creating layer conv4
I0704 06:31:15.428571 17136 net.cpp:109] Creating Layer conv4
I0704 06:31:15.428575 17136 net.cpp:457] conv4 <- conv3
I0704 06:31:15.428577 17136 net.cpp:414] conv4 -> conv4
I0704 06:31:15.441697 17136 net.cpp:153] Setting up conv4
I0704 06:31:15.441715 17136 net.cpp:160] Top shape: 100 384 10 10 (3840000)
I0704 06:31:15.441718 17136 net.cpp:168] Memory required for data: 392431200
I0704 06:31:15.441725 17136 layer_factory.hpp:76] Creating layer relu4
I0704 06:31:15.441731 17136 net.cpp:109] Creating Layer relu4
I0704 06:31:15.441735 17136 net.cpp:457] relu4 <- conv4
I0704 06:31:15.441738 17136 net.cpp:400] relu4 -> conv4 (in-place)
I0704 06:31:15.441743 17136 net.cpp:153] Setting up relu4
I0704 06:31:15.441746 17136 net.cpp:160] Top shape: 100 384 10 10 (3840000)
I0704 06:31:15.441748 17136 net.cpp:168] Memory required for data: 407791200
I0704 06:31:15.441750 17136 layer_factory.hpp:76] Creating layer conv5
I0704 06:31:15.441756 17136 net.cpp:109] Creating Layer conv5
I0704 06:31:15.441758 17136 net.cpp:457] conv5 <- conv4
I0704 06:31:15.441761 17136 net.cpp:414] conv5 -> conv5
I0704 06:31:15.477159 17136 net.cpp:153] Setting up conv5
I0704 06:31:15.477180 17136 net.cpp:160] Top shape: 100 256 10 10 (2560000)
I0704 06:31:15.477182 17136 net.cpp:168] Memory required for data: 418031200
I0704 06:31:15.477190 17136 layer_factory.hpp:76] Creating layer relu5
I0704 06:31:15.477197 17136 net.cpp:109] Creating Layer relu5
I0704 06:31:15.477200 17136 net.cpp:457] relu5 <- conv5
I0704 06:31:15.477227 17136 net.cpp:400] relu5 -> conv5 (in-place)
I0704 06:31:15.477236 17136 net.cpp:153] Setting up relu5
I0704 06:31:15.477238 17136 net.cpp:160] Top shape: 100 256 10 10 (2560000)
I0704 06:31:15.477241 17136 net.cpp:168] Memory required for data: 428271200
I0704 06:31:15.477242 17136 layer_factory.hpp:76] Creating layer pool5
I0704 06:31:15.477247 17136 net.cpp:109] Creating Layer pool5
I0704 06:31:15.477248 17136 net.cpp:457] pool5 <- conv5
I0704 06:31:15.477252 17136 net.cpp:414] pool5 -> pool5
I0704 06:31:15.477285 17136 net.cpp:153] Setting up pool5
I0704 06:31:15.477289 17136 net.cpp:160] Top shape: 100 256 5 5 (640000)
I0704 06:31:15.477291 17136 net.cpp:168] Memory required for data: 430831200
I0704 06:31:15.477293 17136 layer_factory.hpp:76] Creating layer fc6
I0704 06:31:15.477298 17136 net.cpp:109] Creating Layer fc6
I0704 06:31:15.477300 17136 net.cpp:457] fc6 <- pool5
I0704 06:31:15.477303 17136 net.cpp:414] fc6 -> fc6
I0704 06:31:15.967806 17136 net.cpp:153] Setting up fc6
I0704 06:31:15.967825 17136 net.cpp:160] Top shape: 100 4096 (409600)
I0704 06:31:15.967828 17136 net.cpp:168] Memory required for data: 432469600
I0704 06:31:15.967833 17136 layer_factory.hpp:76] Creating layer relu6
I0704 06:31:15.967839 17136 net.cpp:109] Creating Layer relu6
I0704 06:31:15.967842 17136 net.cpp:457] relu6 <- fc6
I0704 06:31:15.967846 17136 net.cpp:400] relu6 -> fc6 (in-place)
I0704 06:31:15.967854 17136 net.cpp:153] Setting up relu6
I0704 06:31:15.967855 17136 net.cpp:160] Top shape: 100 4096 (409600)
I0704 06:31:15.967857 17136 net.cpp:168] Memory required for data: 434108000
I0704 06:31:15.967859 17136 layer_factory.hpp:76] Creating layer drop6
I0704 06:31:15.967862 17136 net.cpp:109] Creating Layer drop6
I0704 06:31:15.967864 17136 net.cpp:457] drop6 <- fc6
I0704 06:31:15.967866 17136 net.cpp:400] drop6 -> fc6 (in-place)
I0704 06:31:15.967883 17136 net.cpp:153] Setting up drop6
I0704 06:31:15.967885 17136 net.cpp:160] Top shape: 100 4096 (409600)
I0704 06:31:15.967887 17136 net.cpp:168] Memory required for data: 435746400
I0704 06:31:15.967890 17136 layer_factory.hpp:76] Creating layer fc7
I0704 06:31:15.967893 17136 net.cpp:109] Creating Layer fc7
I0704 06:31:15.967895 17136 net.cpp:457] fc7 <- fc6
I0704 06:31:15.967898 17136 net.cpp:414] fc7 -> fc7
I0704 06:31:16.282202 17136 net.cpp:153] Setting up fc7
I0704 06:31:16.282219 17136 net.cpp:160] Top shape: 100 4096 (409600)
I0704 06:31:16.282222 17136 net.cpp:168] Memory required for data: 437384800
I0704 06:31:16.282230 17136 layer_factory.hpp:76] Creating layer relu7
I0704 06:31:16.282236 17136 net.cpp:109] Creating Layer relu7
I0704 06:31:16.282239 17136 net.cpp:457] relu7 <- fc7
I0704 06:31:16.282243 17136 net.cpp:400] relu7 -> fc7 (in-place)
I0704 06:31:16.282249 17136 net.cpp:153] Setting up relu7
I0704 06:31:16.282253 17136 net.cpp:160] Top shape: 100 4096 (409600)
I0704 06:31:16.282254 17136 net.cpp:168] Memory required for data: 439023200
I0704 06:31:16.282255 17136 layer_factory.hpp:76] Creating layer drop7
I0704 06:31:16.282260 17136 net.cpp:109] Creating Layer drop7
I0704 06:31:16.282263 17136 net.cpp:457] drop7 <- fc7
I0704 06:31:16.282264 17136 net.cpp:400] drop7 -> fc7 (in-place)
I0704 06:31:16.282280 17136 net.cpp:153] Setting up drop7
I0704 06:31:16.282284 17136 net.cpp:160] Top shape: 100 4096 (409600)
I0704 06:31:16.282285 17136 net.cpp:168] Memory required for data: 440661600
I0704 06:31:16.282286 17136 layer_factory.hpp:76] Creating layer fc8_species
I0704 06:31:16.282291 17136 net.cpp:109] Creating Layer fc8_species
I0704 06:31:16.282292 17136 net.cpp:457] fc8_species <- fc7
I0704 06:31:16.282295 17136 net.cpp:414] fc8_species -> fc8_species
I0704 06:31:16.364258 17136 net.cpp:153] Setting up fc8_species
I0704 06:31:16.364275 17136 net.cpp:160] Top shape: 100 967 (96700)
I0704 06:31:16.364277 17136 net.cpp:168] Memory required for data: 441048400
I0704 06:31:16.364282 17136 layer_factory.hpp:76] Creating layer fc8_species_fc8_species_0_split
I0704 06:31:16.364289 17136 net.cpp:109] Creating Layer fc8_species_fc8_species_0_split
I0704 06:31:16.364306 17136 net.cpp:457] fc8_species_fc8_species_0_split <- fc8_species
I0704 06:31:16.364310 17136 net.cpp:414] fc8_species_fc8_species_0_split -> fc8_species_fc8_species_0_split_0
I0704 06:31:16.364315 17136 net.cpp:414] fc8_species_fc8_species_0_split -> fc8_species_fc8_species_0_split_1
I0704 06:31:16.364338 17136 net.cpp:153] Setting up fc8_species_fc8_species_0_split
I0704 06:31:16.364341 17136 net.cpp:160] Top shape: 100 967 (96700)
I0704 06:31:16.364344 17136 net.cpp:160] Top shape: 100 967 (96700)
I0704 06:31:16.364346 17136 net.cpp:168] Memory required for data: 441822000
I0704 06:31:16.364347 17136 layer_factory.hpp:76] Creating layer loss
I0704 06:31:16.364351 17136 net.cpp:109] Creating Layer loss
I0704 06:31:16.364352 17136 net.cpp:457] loss <- fc8_species_fc8_species_0_split_0
I0704 06:31:16.364354 17136 net.cpp:457] loss <- label_label_0_split_0
I0704 06:31:16.364357 17136 net.cpp:414] loss -> loss
…
