…
I0706 03:55:03.369550 14350 net.cpp:325] The NetState phase (0) differed from the phase (1) specified by a rule in layer accuracy
I0706 03:55:03.369755 14350 net.cpp:52] Initializing net from parameters:
state {
phase: TRAIN
}
layer {
name: "train-data"
type: "Data"
top: "data"
top: "label"
include {
phase: TRAIN
}
transform_param {
mirror: true
crop_size: 227
mean_file: "/home/zml374/workspace/DIGITS/digits/jobs/20160704-085910-0cc9/mean.binaryproto"
}
data_param {
source: "/home/zml374/workspace/DIGITS/digits/jobs/20160704-085910-0cc9/train_db"
batch_size: 200
backend: LMDB
}
}
layer {
name: "conv1"
type: "Convolution"
bottom: "data"
top: "conv1"
param {
lr_mult: 1
decay_mult: 1
}
param {
lr_mult: 2
decay_mult: 0
}
convolution_param {
num_output: 96
kernel_size: 11
stride: 4
weight_filler {
type: "gaussian"
std: 0.01
}
bias_filler {
type: "constant"
value: 0
}
}
}
layer {
name: "relu1"
type: "ReLU"
bottom: "conv1"
top: "conv1"
}
layer {
name: "norm1"
type: "LRN"
bottom: "conv1"
top: "norm1"
lrn_param {
local_size: 5
alpha: 0.0001
beta: 0.75
}
}
layer {
name: "pool1"
type: "Pooling"
bottom: "norm1"
top: "pool1"
pooling_param {
pool: MAX
kernel_size: 3
stride: 2
}
}
layer {
name: "conv2"
type: "Convolution"
bottom: "pool1"
top: "conv2"
param {
lr_mult: 1
decay_mult: 1
}
param {
lr_mult: 2
decay_mult: 0
}
convolution_param {
num_output: 256
pad: 2
kernel_size: 5
group: 2
weight_filler {
type: "gaussian"
std: 0.01
}
bias_filler {
type: "constant"
value: 0.1
}
}
}
layer {
name: "relu2"
type: "ReLU"
bottom: "conv2"
top: "conv2"
}
layer {
name: "norm2"
type: "LRN"
bottom: "conv2"
top: "norm2"
lrn_param {
local_size: 5
alpha: 0.0001
beta: 0.75
}
}
layer {
name: "pool2"
type: "Pooling"
bottom: "norm2"
top: "pool2"
pooling_param {
pool: MAX
kernel_size: 3
stride: 2
}
}
layer {
name: "conv3_clean"
type: "Convolution"
bottom: "pool2"
top: "conv3_clean"
param {
lr_mult: 1
decay_mult: 1
}
param {
lr_mult: 2
decay_mult: 0
}
convolution_param {
num_output: 384
pad: 1
kernel_size: 3
weight_filler {
type: "gaussian"
std: 0.01
}
bias_filler {
type: "constant"
value: 0
}
}
}
layer {
name: "relu3"
type: "ReLU"
bottom: "conv3_clean"
top: "conv3_clean"
}
layer {
name: "conv4_clean"
type: "Convolution"
bottom: "conv3_clean"
top: "conv4_clean"
param {
lr_mult: 1
decay_mult: 1
}
param {
lr_mult: 2
decay_mult: 0
}
convolution_param {
num_output: 384
pad: 1
kernel_size: 3
group: 2
weight_filler {
type: "gaussian"
std: 0.01
}
bias_filler {
type: "constant"
value: 0.1
}
}
}
layer {
name: "relu4"
type: "ReLU"
bottom: "conv4_clean"
top: "conv4_clean"
}
layer {
name: "conv5_clean"
type: "Convolution"
bottom: "conv4_clean"
top: "conv5_clean"
param {
lr_mult: 1
decay_mult: 1
}
param {
lr_mult: 2
decay_mult: 0
}
convolution_param {
num_output: 256
pad: 1
kernel_size: 3
group: 2
weight_filler {
type: "gaussian"
std: 0.01
}
bias_filler {
type: "constant"
value: 0.1
}
}
}
layer {
name: "relu5"
type: "ReLU"
bottom: "conv5_clean"
top: "conv5_clean"
}
layer {
name: "pool5"
type: "Pooling"
bottom: "conv5_clean"
top: "pool5"
pooling_param {
pool: MAX
kernel_size: 3
stride: 2
}
}
layer {
name: "fc6_clean"
type: "InnerProduct"
bottom: "pool5"
top: "fc6_clean"
param {
lr_mult: 1
decay_mult: 1
}
param {
lr_mult: 2
decay_mult: 0
}
inner_product_param {
num_output: 4096
weight_filler {
type: "gaussian"
std: 0.005
}
bias_filler {
type: "constant"
value: 0.1
}
}
}
layer {
name: "relu6"
type: "ReLU"
bottom: "fc6_clean"
top: "fc6_clean"
}
layer {
name: "drop6"
type: "Dropout"
bottom: "fc6_clean"
top: "fc6_clean"
dropout_param {
dropout_ratio: 0.5
}
}
layer {
name: "fc7_clean"
type: "InnerProduct"
bottom: "fc6_clean"
top: "fc7_clean"
param {
lr_mult: 1
decay_mult: 1
}
param {
lr_mult: 2
decay_mult: 0
}
inner_product_param {
num_output: 4096
weight_filler {
type: "gaussian"
std: 0.005
}
bias_filler {
type: "constant"
value: 0.1
}
}
}
layer {
name: "relu7"
type: "ReLU"
bottom: "fc7_clean"
top: "fc7_clean"
}
layer {
name: "drop7"
type: "Dropout"
bottom: "fc7_clean"
top: "fc7_clean"
dropout_param {
dropout_ratio: 0.5
}
}
layer {
name: "fc8_clean"
type: "InnerProduct"
bottom: "fc7_clean"
top: "fc8_clean"
param {
lr_mult: 1
decay_mult: 1
}
param {
lr_mult: 2
decay_mult: 0
}
inner_product_param {
num_output: 967
weight_filler {
type: "gaussian"
std: 0.01
}
bias_filler {
type: "constant"
value: 0
}
}
}
layer {
name: "loss"
type: "SoftmaxWithLoss"
bottom: "fc8_clean"
bottom: "label"
top: "loss"
}
I0706 03:55:03.369887 14350 layer_factory.hpp:76] Creating layer train-data
I0706 03:55:03.370522 14350 net.cpp:109] Creating Layer train-data
I0706 03:55:03.370537 14350 net.cpp:414] train-data -> data
I0706 03:55:03.370573 14350 net.cpp:414] train-data -> label
I0706 03:55:03.370610 14350 data_transformer.cpp:25] Loading mean file from: /home/zml374/workspace/DIGITS/digits/jobs/20160704-085910-0cc9/mean.binaryproto
I0706 03:55:03.372560 14378 db_lmdb.cpp:36] Opened lmdb /home/zml374/workspace/DIGITS/digits/jobs/20160704-085910-0cc9/train_db
I0706 03:55:03.378932 14350 data_layer.cpp:45] output data size: 200,3,227,227
I0706 03:55:03.704305 14350 net.cpp:153] Setting up train-data
I0706 03:55:03.704358 14350 net.cpp:160] Top shape: 200 3 227 227 (30917400)
I0706 03:55:03.704367 14350 net.cpp:160] Top shape: 200 (200)
I0706 03:55:03.704372 14350 net.cpp:168] Memory required for data: 123670400
I0706 03:55:03.704385 14350 layer_factory.hpp:76] Creating layer conv1
I0706 03:55:03.704408 14350 net.cpp:109] Creating Layer conv1
I0706 03:55:03.704416 14350 net.cpp:457] conv1 <- data
I0706 03:55:03.704432 14350 net.cpp:414] conv1 -> conv1
I0706 03:55:03.708256 14350 net.cpp:153] Setting up conv1
I0706 03:55:03.708272 14350 net.cpp:160] Top shape: 200 96 55 55 (58080000)
I0706 03:55:03.708277 14350 net.cpp:168] Memory required for data: 355990400
I0706 03:55:03.708300 14350 layer_factory.hpp:76] Creating layer relu1
I0706 03:55:03.708313 14350 net.cpp:109] Creating Layer relu1
I0706 03:55:03.708318 14350 net.cpp:457] relu1 <- conv1
I0706 03:55:03.708328 14350 net.cpp:400] relu1 -> conv1 (in-place)
I0706 03:55:03.708344 14350 net.cpp:153] Setting up relu1
I0706 03:55:03.708353 14350 net.cpp:160] Top shape: 200 96 55 55 (58080000)
I0706 03:55:03.708356 14350 net.cpp:168] Memory required for data: 588310400
I0706 03:55:03.708361 14350 layer_factory.hpp:76] Creating layer norm1
I0706 03:55:03.708382 14350 net.cpp:109] Creating Layer norm1
I0706 03:55:03.708387 14350 net.cpp:457] norm1 <- conv1
I0706 03:55:03.708395 14350 net.cpp:414] norm1 -> norm1
I0706 03:55:03.708480 14350 net.cpp:153] Setting up norm1
I0706 03:55:03.708490 14350 net.cpp:160] Top shape: 200 96 55 55 (58080000)
I0706 03:55:03.708495 14350 net.cpp:168] Memory required for data: 820630400
I0706 03:55:03.708547 14350 layer_factory.hpp:76] Creating layer pool1
I0706 03:55:03.708561 14350 net.cpp:109] Creating Layer pool1
I0706 03:55:03.708567 14350 net.cpp:457] pool1 <- norm1
I0706 03:55:03.708575 14350 net.cpp:414] pool1 -> pool1
I0706 03:55:03.708628 14350 net.cpp:153] Setting up pool1
I0706 03:55:03.708639 14350 net.cpp:160] Top shape: 200 96 27 27 (13996800)
I0706 03:55:03.708644 14350 net.cpp:168] Memory required for data: 876617600
I0706 03:55:03.708648 14350 layer_factory.hpp:76] Creating layer conv2
I0706 03:55:03.708660 14350 net.cpp:109] Creating Layer conv2
I0706 03:55:03.708665 14350 net.cpp:457] conv2 <- pool1
I0706 03:55:03.708673 14350 net.cpp:414] conv2 -> conv2
I0706 03:55:03.726212 14350 net.cpp:153] Setting up conv2
I0706 03:55:03.726227 14350 net.cpp:160] Top shape: 200 256 27 27 (37324800)
I0706 03:55:03.726233 14350 net.cpp:168] Memory required for data: 1025916800
I0706 03:55:03.726254 14350 layer_factory.hpp:76] Creating layer relu2
I0706 03:55:03.726263 14350 net.cpp:109] Creating Layer relu2
I0706 03:55:03.726269 14350 net.cpp:457] relu2 <- conv2
I0706 03:55:03.726276 14350 net.cpp:400] relu2 -> conv2 (in-place)
I0706 03:55:03.726286 14350 net.cpp:153] Setting up relu2
I0706 03:55:03.726292 14350 net.cpp:160] Top shape: 200 256 27 27 (37324800)
I0706 03:55:03.726297 14350 net.cpp:168] Memory required for data: 1175216000
I0706 03:55:03.726301 14350 layer_factory.hpp:76] Creating layer norm2
I0706 03:55:03.726310 14350 net.cpp:109] Creating Layer norm2
I0706 03:55:03.726313 14350 net.cpp:457] norm2 <- conv2
I0706 03:55:03.726320 14350 net.cpp:414] norm2 -> norm2
I0706 03:55:03.726366 14350 net.cpp:153] Setting up norm2
I0706 03:55:03.726373 14350 net.cpp:160] Top shape: 200 256 27 27 (37324800)
I0706 03:55:03.726378 14350 net.cpp:168] Memory required for data: 1324515200
I0706 03:55:03.726382 14350 layer_factory.hpp:76] Creating layer pool2
I0706 03:55:03.726392 14350 net.cpp:109] Creating Layer pool2
I0706 03:55:03.726397 14350 net.cpp:457] pool2 <- norm2
I0706 03:55:03.726404 14350 net.cpp:414] pool2 -> pool2
I0706 03:55:03.726444 14350 net.cpp:153] Setting up pool2
I0706 03:55:03.726451 14350 net.cpp:160] Top shape: 200 256 13 13 (8652800)
I0706 03:55:03.726456 14350 net.cpp:168] Memory required for data: 1359126400
I0706 03:55:03.726460 14350 layer_factory.hpp:76] Creating layer conv3_clean
I0706 03:55:03.726469 14350 net.cpp:109] Creating Layer conv3_clean
I0706 03:55:03.726475 14350 net.cpp:457] conv3_clean <- pool2
I0706 03:55:03.726482 14350 net.cpp:414] conv3_clean -> conv3_clean
I0706 03:55:03.760234 14350 net.cpp:153] Setting up conv3_clean
I0706 03:55:03.760251 14350 net.cpp:160] Top shape: 200 384 13 13 (12979200)
I0706 03:55:03.760257 14350 net.cpp:168] Memory required for data: 1411043200
I0706 03:55:03.760267 14350 layer_factory.hpp:76] Creating layer relu3
I0706 03:55:03.760277 14350 net.cpp:109] Creating Layer relu3
I0706 03:55:03.760282 14350 net.cpp:457] relu3 <- conv3_clean
I0706 03:55:03.760290 14350 net.cpp:400] relu3 -> conv3_clean (in-place)
I0706 03:55:03.760299 14350 net.cpp:153] Setting up relu3
I0706 03:55:03.760305 14350 net.cpp:160] Top shape: 200 384 13 13 (12979200)
I0706 03:55:03.760309 14350 net.cpp:168] Memory required for data: 1462960000
I0706 03:55:03.760314 14350 layer_factory.hpp:76] Creating layer conv4_clean
I0706 03:55:03.760324 14350 net.cpp:109] Creating Layer conv4_clean
I0706 03:55:03.760329 14350 net.cpp:457] conv4_clean <- conv3_clean
I0706 03:55:03.760336 14350 net.cpp:414] conv4_clean -> conv4_clean
I0706 03:55:03.785706 14350 net.cpp:153] Setting up conv4_clean
I0706 03:55:03.785722 14350 net.cpp:160] Top shape: 200 384 13 13 (12979200)
I0706 03:55:03.785727 14350 net.cpp:168] Memory required for data: 1514876800
I0706 03:55:03.785734 14350 layer_factory.hpp:76] Creating layer relu4
I0706 03:55:03.785743 14350 net.cpp:109] Creating Layer relu4
I0706 03:55:03.785748 14350 net.cpp:457] relu4 <- conv4_clean
I0706 03:55:03.785756 14350 net.cpp:400] relu4 -> conv4_clean (in-place)
I0706 03:55:03.785765 14350 net.cpp:153] Setting up relu4
I0706 03:55:03.785789 14350 net.cpp:160] Top shape: 200 384 13 13 (12979200)
I0706 03:55:03.785794 14350 net.cpp:168] Memory required for data: 1566793600
I0706 03:55:03.785799 14350 layer_factory.hpp:76] Creating layer conv5_clean
I0706 03:55:03.785810 14350 net.cpp:109] Creating Layer conv5_clean
I0706 03:55:03.785815 14350 net.cpp:457] conv5_clean <- conv4_clean
I0706 03:55:03.785823 14350 net.cpp:414] conv5_clean -> conv5_clean
I0706 03:55:03.802886 14350 net.cpp:153] Setting up conv5_clean
I0706 03:55:03.802901 14350 net.cpp:160] Top shape: 200 256 13 13 (8652800)
I0706 03:55:03.802906 14350 net.cpp:168] Memory required for data: 1601404800
I0706 03:55:03.802918 14350 layer_factory.hpp:76] Creating layer relu5
I0706 03:55:03.802927 14350 net.cpp:109] Creating Layer relu5
I0706 03:55:03.802932 14350 net.cpp:457] relu5 <- conv5_clean
I0706 03:55:03.802940 14350 net.cpp:400] relu5 -> conv5_clean (in-place)
I0706 03:55:03.802949 14350 net.cpp:153] Setting up relu5
I0706 03:55:03.802955 14350 net.cpp:160] Top shape: 200 256 13 13 (8652800)
I0706 03:55:03.802959 14350 net.cpp:168] Memory required for data: 1636016000
I0706 03:55:03.802964 14350 layer_factory.hpp:76] Creating layer pool5
I0706 03:55:03.802973 14350 net.cpp:109] Creating Layer pool5
I0706 03:55:03.802976 14350 net.cpp:457] pool5 <- conv5_clean
I0706 03:55:03.802983 14350 net.cpp:414] pool5 -> pool5
I0706 03:55:03.803025 14350 net.cpp:153] Setting up pool5
I0706 03:55:03.803033 14350 net.cpp:160] Top shape: 200 256 6 6 (1843200)
I0706 03:55:03.803037 14350 net.cpp:168] Memory required for data: 1643388800
I0706 03:55:03.803042 14350 layer_factory.hpp:76] Creating layer fc6_clean
I0706 03:55:03.803056 14350 net.cpp:109] Creating Layer fc6_clean
I0706 03:55:03.803061 14350 net.cpp:457] fc6_clean <- pool5
I0706 03:55:03.803068 14350 net.cpp:414] fc6_clean -> fc6_clean
I0706 03:55:05.256047 14350 net.cpp:153] Setting up fc6_clean
I0706 03:55:05.256088 14350 net.cpp:160] Top shape: 200 4096 (819200)
I0706 03:55:05.256094 14350 net.cpp:168] Memory required for data: 1646665600
I0706 03:55:05.256108 14350 layer_factory.hpp:76] Creating layer relu6
I0706 03:55:05.256124 14350 net.cpp:109] Creating Layer relu6
I0706 03:55:05.256130 14350 net.cpp:457] relu6 <- fc6_clean
I0706 03:55:05.256141 14350 net.cpp:400] relu6 -> fc6_clean (in-place)
I0706 03:55:05.256158 14350 net.cpp:153] Setting up relu6
I0706 03:55:05.256165 14350 net.cpp:160] Top shape: 200 4096 (819200)
I0706 03:55:05.256170 14350 net.cpp:168] Memory required for data: 1649942400
I0706 03:55:05.256175 14350 layer_factory.hpp:76] Creating layer drop6
I0706 03:55:05.256197 14350 net.cpp:109] Creating Layer drop6
I0706 03:55:05.256202 14350 net.cpp:457] drop6 <- fc6_clean
I0706 03:55:05.256211 14350 net.cpp:400] drop6 -> fc6_clean (in-place)
I0706 03:55:05.256250 14350 net.cpp:153] Setting up drop6
I0706 03:55:05.256259 14350 net.cpp:160] Top shape: 200 4096 (819200)
I0706 03:55:05.256263 14350 net.cpp:168] Memory required for data: 1653219200
I0706 03:55:05.256268 14350 layer_factory.hpp:76] Creating layer fc7_clean
I0706 03:55:05.256281 14350 net.cpp:109] Creating Layer fc7_clean
I0706 03:55:05.256285 14350 net.cpp:457] fc7_clean <- fc6_clean
I0706 03:55:05.256294 14350 net.cpp:414] fc7_clean -> fc7_clean
I0706 03:55:05.902897 14350 net.cpp:153] Setting up fc7_clean
I0706 03:55:05.902940 14350 net.cpp:160] Top shape: 200 4096 (819200)
I0706 03:55:05.902946 14350 net.cpp:168] Memory required for data: 1656496000
I0706 03:55:05.902959 14350 layer_factory.hpp:76] Creating layer relu7
I0706 03:55:05.902976 14350 net.cpp:109] Creating Layer relu7
I0706 03:55:05.902982 14350 net.cpp:457] relu7 <- fc7_clean
I0706 03:55:05.902993 14350 net.cpp:400] relu7 -> fc7_clean (in-place)
I0706 03:55:05.903009 14350 net.cpp:153] Setting up relu7
I0706 03:55:05.903017 14350 net.cpp:160] Top shape: 200 4096 (819200)
I0706 03:55:05.903020 14350 net.cpp:168] Memory required for data: 1659772800
I0706 03:55:05.903025 14350 layer_factory.hpp:76] Creating layer drop7
I0706 03:55:05.903035 14350 net.cpp:109] Creating Layer drop7
I0706 03:55:05.903076 14350 net.cpp:457] drop7 <- fc7_clean
I0706 03:55:05.903084 14350 net.cpp:400] drop7 -> fc7_clean (in-place)
I0706 03:55:05.903126 14350 net.cpp:153] Setting up drop7
I0706 03:55:05.903133 14350 net.cpp:160] Top shape: 200 4096 (819200)
I0706 03:55:05.903138 14350 net.cpp:168] Memory required for data: 1663049600
I0706 03:55:05.903142 14350 layer_factory.hpp:76] Creating layer fc8_clean
I0706 03:55:05.903154 14350 net.cpp:109] Creating Layer fc8_clean
I0706 03:55:05.903158 14350 net.cpp:457] fc8_clean <- fc7_clean
I0706 03:55:05.903168 14350 net.cpp:414] fc8_clean -> fc8_clean
I0706 03:55:06.053038 14350 net.cpp:153] Setting up fc8_clean
I0706 03:55:06.053056 14350 net.cpp:160] Top shape: 200 967 (193400)
I0706 03:55:06.053061 14350 net.cpp:168] Memory required for data: 1663823200
I0706 03:55:06.053071 14350 layer_factory.hpp:76] Creating layer loss
I0706 03:55:06.053082 14350 net.cpp:109] Creating Layer loss
I0706 03:55:06.053087 14350 net.cpp:457] loss <- fc8_clean
I0706 03:55:06.053094 14350 net.cpp:457] loss <- label
I0706 03:55:06.053102 14350 net.cpp:414] loss -> loss
I0706 03:55:06.053115 14350 layer_factory.hpp:76] Creating layer loss
…
I0706 03:55:06.055032 14350 net.cpp:325] The NetState phase (1) differed from the phase (0) specified by a rule in layer train-data
I0706 03:55:06.055272 14350 net.cpp:52] Initializing net from parameters:
state {
phase: TEST
}
layer {
name: "val-data"
type: "Data"
top: "data"
top: "label"
include {
phase: TEST
}
transform_param {
crop_size: 227
mean_file: "/home/zml374/workspace/DIGITS/digits/jobs/20160704-085910-0cc9/mean.binaryproto"
}
data_param {
source: "/home/zml374/workspace/DIGITS/digits/jobs/20160704-085910-0cc9/val_db"
batch_size: 200
backend: LMDB
}
}
layer {
name: "conv1"
type: "Convolution"
bottom: "data"
top: "conv1"
param {
lr_mult: 1
decay_mult: 1
}
param {
lr_mult: 2
decay_mult: 0
}
convolution_param {
num_output: 96
kernel_size: 11
stride: 4
weight_filler {
type: "gaussian"
std: 0.01
}
bias_filler {
type: "constant"
value: 0
}
}
}
layer {
name: "relu1"
type: "ReLU"
bottom: "conv1"
top: "conv1"
}
layer {
name: "norm1"
type: "LRN"
bottom: "conv1"
top: "norm1"
lrn_param {
local_size: 5
alpha: 0.0001
beta: 0.75
}
}
layer {
name: "pool1"
type: "Pooling"
bottom: "norm1"
top: "pool1"
pooling_param {
pool: MAX
kernel_size: 3
stride: 2
}
}
layer {
name: "conv2"
type: "Convolution"
bottom: "pool1"
top: "conv2"
param {
lr_mult: 1
decay_mult: 1
}
param {
lr_mult: 2
decay_mult: 0
}
convolution_param {
num_output: 256
pad: 2
kernel_size: 5
group: 2
weight_filler {
type: "gaussian"
std: 0.01
}
bias_filler {
type: "constant"
value: 0.1
}
}
}
layer {
name: "relu2"
type: "ReLU"
bottom: "conv2"
top: "conv2"
}
layer {
name: "norm2"
type: "LRN"
bottom: "conv2"
top: "norm2"
lrn_param {
local_size: 5
alpha: 0.0001
beta: 0.75
}
}
layer {
name: "pool2"
type: "Pooling"
bottom: "norm2"
top: "pool2"
pooling_param {
pool: MAX
kernel_size: 3
stride: 2
}
}
layer {
name: "conv3_clean"
type: "Convolution"
bottom: "pool2"
top: "conv3_clean"
param {
lr_mult: 1
decay_mult: 1
}
param {
lr_mult: 2
decay_mult: 0
}
convolution_param {
num_output: 384
pad: 1
kernel_size: 3
weight_filler {
type: "gaussian"
std: 0.01
}
bias_filler {
type: "constant"
value: 0
}
}
}
layer {
name: "relu3"
type: "ReLU"
bottom: "conv3_clean"
top: "conv3_clean"
}
layer {
name: "conv4_clean"
type: "Convolution"
bottom: "conv3_clean"
top: "conv4_clean"
param {
lr_mult: 1
decay_mult: 1
}
param {
lr_mult: 2
decay_mult: 0
}
convolution_param {
num_output: 384
pad: 1
kernel_size: 3
group: 2
weight_filler {
type: "gaussian"
std: 0.01
}
bias_filler {
type: "constant"
value: 0.1
}
}
}
layer {
name: "relu4"
type: "ReLU"
bottom: "conv4_clean"
top: "conv4_clean"
}
layer {
name: "conv5_clean"
type: "Convolution"
bottom: "conv4_clean"
top: "conv5_clean"
param {
lr_mult: 1
decay_mult: 1
}
param {
lr_mult: 2
decay_mult: 0
}
convolution_param {
num_output: 256
pad: 1
kernel_size: 3
group: 2
weight_filler {
type: "gaussian"
std: 0.01
}
bias_filler {
type: "constant"
value: 0.1
}
}
}
layer {
name: "relu5"
type: "ReLU"
bottom: "conv5_clean"
top: "conv5_clean"
}
layer {
name: "pool5"
type: "Pooling"
bottom: "conv5_clean"
top: "pool5"
pooling_param {
pool: MAX
kernel_size: 3
stride: 2
}
}
layer {
name: "fc6_clean"
type: "InnerProduct"
bottom: "pool5"
top: "fc6_clean"
param {
lr_mult: 1
decay_mult: 1
}
param {
lr_mult: 2
decay_mult: 0
}
inner_product_param {
num_output: 4096
weight_filler {
type: "gaussian"
std: 0.005
}
bias_filler {
type: "constant"
value: 0.1
}
}
}
layer {
name: "relu6"
type: "ReLU"
bottom: "fc6_clean"
top: "fc6_clean"
}
layer {
name: "drop6"
type: "Dropout"
bottom: "fc6_clean"
top: "fc6_clean"
dropout_param {
dropout_ratio: 0.5
}
}
layer {
name: "fc7_clean"
type: "InnerProduct"
bottom: "fc6_clean"
top: "fc7_clean"
param {
lr_mult: 1
decay_mult: 1
}
param {
lr_mult: 2
decay_mult: 0
}
inner_product_param {
num_output: 4096
weight_filler {
type: "gaussian"
std: 0.005
}
bias_filler {
type: "constant"
value: 0.1
}
}
}
layer {
name: "relu7"
type: "ReLU"
bottom: "fc7_clean"
top: "fc7_clean"
}
layer {
name: "drop7"
type: "Dropout"
bottom: "fc7_clean"
top: "fc7_clean"
dropout_param {
dropout_ratio: 0.5
}
}
layer {
name: "fc8_clean"
type: "InnerProduct"
bottom: "fc7_clean"
top: "fc8_clean"
param {
lr_mult: 1
decay_mult: 1
}
param {
lr_mult: 2
decay_mult: 0
}
inner_product_param {
num_output: 967
weight_filler {
type: "gaussian"
std: 0.01
}
bias_filler {
type: "constant"
value: 0
}
}
}
layer {
name: "accuracy"
type: "Accuracy"
bottom: "fc8_clean"
bottom: "label"
top: "accuracy"
include {
phase: TEST
}
}
layer {
name: "loss"
type: "SoftmaxWithLoss"
bottom: "fc8_clean"
bottom: "label"
top: "loss"
}
I0706 03:55:06.055423 14350 layer_factory.hpp:76] Creating layer val-data
I0706 03:55:06.055650 14350 net.cpp:109] Creating Layer val-data
I0706 03:55:06.055665 14350 net.cpp:414] val-data -> data
I0706 03:55:06.055676 14350 net.cpp:414] val-data -> label
I0706 03:55:06.055687 14350 data_transformer.cpp:25] Loading mean file from: /home/zml374/workspace/DIGITS/digits/jobs/20160704-085910-0cc9/mean.binaryproto
I0706 03:55:06.057101 14380 db_lmdb.cpp:36] Opened lmdb /home/zml374/workspace/DIGITS/digits/jobs/20160704-085910-0cc9/val_db
I0706 03:55:06.062072 14350 data_layer.cpp:45] output data size: 200,3,227,227
I0706 03:55:06.373446 14350 net.cpp:153] Setting up val-data
I0706 03:55:06.373487 14350 net.cpp:160] Top shape: 200 3 227 227 (30917400)
I0706 03:55:06.373495 14350 net.cpp:160] Top shape: 200 (200)
I0706 03:55:06.373500 14350 net.cpp:168] Memory required for data: 123670400
I0706 03:55:06.373508 14350 layer_factory.hpp:76] Creating layer label_val-data_1_split
I0706 03:55:06.373525 14350 net.cpp:109] Creating Layer label_val-data_1_split
I0706 03:55:06.373531 14350 net.cpp:457] label_val-data_1_split <- label
I0706 03:55:06.373541 14350 net.cpp:414] label_val-data_1_split -> label_val-data_1_split_0
I0706 03:55:06.373554 14350 net.cpp:414] label_val-data_1_split -> label_val-data_1_split_1
I0706 03:55:06.373683 14350 net.cpp:153] Setting up label_val-data_1_split
I0706 03:55:06.373695 14350 net.cpp:160] Top shape: 200 (200)
I0706 03:55:06.373703 14350 net.cpp:160] Top shape: 200 (200)
I0706 03:55:06.373706 14350 net.cpp:168] Memory required for data: 123672000
I0706 03:55:06.373711 14350 layer_factory.hpp:76] Creating layer conv1
I0706 03:55:06.373728 14350 net.cpp:109] Creating Layer conv1
I0706 03:55:06.373733 14350 net.cpp:457] conv1 <- data
I0706 03:55:06.373742 14350 net.cpp:414] conv1 -> conv1
I0706 03:55:06.375375 14350 net.cpp:153] Setting up conv1
I0706 03:55:06.375389 14350 net.cpp:160] Top shape: 200 96 55 55 (58080000)
I0706 03:55:06.375394 14350 net.cpp:168] Memory required for data: 355992000
I0706 03:55:06.375411 14350 layer_factory.hpp:76] Creating layer relu1
I0706 03:55:06.375422 14350 net.cpp:109] Creating Layer relu1
I0706 03:55:06.375427 14350 net.cpp:457] relu1 <- conv1
I0706 03:55:06.375434 14350 net.cpp:400] relu1 -> conv1 (in-place)
I0706 03:55:06.375445 14350 net.cpp:153] Setting up relu1
I0706 03:55:06.375452 14350 net.cpp:160] Top shape: 200 96 55 55 (58080000)
I0706 03:55:06.375455 14350 net.cpp:168] Memory required for data: 588312000
I0706 03:55:06.375460 14350 layer_factory.hpp:76] Creating layer norm1
I0706 03:55:06.375473 14350 net.cpp:109] Creating Layer norm1
I0706 03:55:06.375476 14350 net.cpp:457] norm1 <- conv1
I0706 03:55:06.375483 14350 net.cpp:414] norm1 -> norm1
I0706 03:55:06.375532 14350 net.cpp:153] Setting up norm1
I0706 03:55:06.375542 14350 net.cpp:160] Top shape: 200 96 55 55 (58080000)
I0706 03:55:06.375546 14350 net.cpp:168] Memory required for data: 820632000
I0706 03:55:06.375551 14350 layer_factory.hpp:76] Creating layer pool1
I0706 03:55:06.375561 14350 net.cpp:109] Creating Layer pool1
I0706 03:55:06.375566 14350 net.cpp:457] pool1 <- norm1
I0706 03:55:06.375572 14350 net.cpp:414] pool1 -> pool1
I0706 03:55:06.375663 14350 net.cpp:153] Setting up pool1
I0706 03:55:06.375672 14350 net.cpp:160] Top shape: 200 96 27 27 (13996800)
I0706 03:55:06.375676 14350 net.cpp:168] Memory required for data: 876619200
I0706 03:55:06.375681 14350 layer_factory.hpp:76] Creating layer conv2
I0706 03:55:06.375694 14350 net.cpp:109] Creating Layer conv2
I0706 03:55:06.375699 14350 net.cpp:457] conv2 <- pool1
I0706 03:55:06.375707 14350 net.cpp:414] conv2 -> conv2
I0706 03:55:06.389410 14350 net.cpp:153] Setting up conv2
I0706 03:55:06.389426 14350 net.cpp:160] Top shape: 200 256 27 27 (37324800)
I0706 03:55:06.389431 14350 net.cpp:168] Memory required for data: 1025918400
I0706 03:55:06.389443 14350 layer_factory.hpp:76] Creating layer relu2
I0706 03:55:06.389452 14350 net.cpp:109] Creating Layer relu2
I0706 03:55:06.389458 14350 net.cpp:457] relu2 <- conv2
I0706 03:55:06.389466 14350 net.cpp:400] relu2 -> conv2 (in-place)
I0706 03:55:06.389475 14350 net.cpp:153] Setting up relu2
I0706 03:55:06.389482 14350 net.cpp:160] Top shape: 200 256 27 27 (37324800)
I0706 03:55:06.389485 14350 net.cpp:168] Memory required for data: 1175217600
I0706 03:55:06.389490 14350 layer_factory.hpp:76] Creating layer norm2
I0706 03:55:06.389499 14350 net.cpp:109] Creating Layer norm2
I0706 03:55:06.389504 14350 net.cpp:457] norm2 <- conv2
I0706 03:55:06.389513 14350 net.cpp:414] norm2 -> norm2
I0706 03:55:06.389561 14350 net.cpp:153] Setting up norm2
I0706 03:55:06.389571 14350 net.cpp:160] Top shape: 200 256 27 27 (37324800)
I0706 03:55:06.389577 14350 net.cpp:168] Memory required for data: 1324516800
I0706 03:55:06.389581 14350 layer_factory.hpp:76] Creating layer pool2
I0706 03:55:06.389590 14350 net.cpp:109] Creating Layer pool2
I0706 03:55:06.389595 14350 net.cpp:457] pool2 <- norm2
I0706 03:55:06.389602 14350 net.cpp:414] pool2 -> pool2
I0706 03:55:06.389644 14350 net.cpp:153] Setting up pool2
I0706 03:55:06.389652 14350 net.cpp:160] Top shape: 200 256 13 13 (8652800)
I0706 03:55:06.389657 14350 net.cpp:168] Memory required for data: 1359128000
I0706 03:55:06.389662 14350 layer_factory.hpp:76] Creating layer conv3_clean
I0706 03:55:06.389672 14350 net.cpp:109] Creating Layer conv3_clean
I0706 03:55:06.389678 14350 net.cpp:457] conv3_clean <- pool2
I0706 03:55:06.389686 14350 net.cpp:414] conv3_clean -> conv3_clean
I0706 03:55:06.423387 14350 net.cpp:153] Setting up conv3_clean
I0706 03:55:06.423403 14350 net.cpp:160] Top shape: 200 384 13 13 (12979200)
I0706 03:55:06.423408 14350 net.cpp:168] Memory required for data: 1411044800
I0706 03:55:06.423419 14350 layer_factory.hpp:76] Creating layer relu3
I0706 03:55:06.423429 14350 net.cpp:109] Creating Layer relu3
I0706 03:55:06.423434 14350 net.cpp:457] relu3 <- conv3_clean
I0706 03:55:06.423441 14350 net.cpp:400] relu3 -> conv3_clean (in-place)
I0706 03:55:06.423450 14350 net.cpp:153] Setting up relu3
I0706 03:55:06.423456 14350 net.cpp:160] Top shape: 200 384 13 13 (12979200)
I0706 03:55:06.423460 14350 net.cpp:168] Memory required for data: 1462961600
I0706 03:55:06.423465 14350 layer_factory.hpp:76] Creating layer conv4_clean
I0706 03:55:06.423475 14350 net.cpp:109] Creating Layer conv4_clean
I0706 03:55:06.423480 14350 net.cpp:457] conv4_clean <- conv3_clean
I0706 03:55:06.423488 14350 net.cpp:414] conv4_clean -> conv4_clean
I0706 03:55:06.448849 14350 net.cpp:153] Setting up conv4_clean
I0706 03:55:06.448865 14350 net.cpp:160] Top shape: 200 384 13 13 (12979200)
I0706 03:55:06.448870 14350 net.cpp:168] Memory required for data: 1514878400
I0706 03:55:06.448879 14350 layer_factory.hpp:76] Creating layer relu4
I0706 03:55:06.448887 14350 net.cpp:109] Creating Layer relu4
I0706 03:55:06.448892 14350 net.cpp:457] relu4 <- conv4_clean
I0706 03:55:06.448900 14350 net.cpp:400] relu4 -> conv4_clean (in-place)
I0706 03:55:06.448909 14350 net.cpp:153] Setting up relu4
I0706 03:55:06.448915 14350 net.cpp:160] Top shape: 200 384 13 13 (12979200)
I0706 03:55:06.448920 14350 net.cpp:168] Memory required for data: 1566795200
I0706 03:55:06.448925 14350 layer_factory.hpp:76] Creating layer conv5_clean
I0706 03:55:06.448935 14350 net.cpp:109] Creating Layer conv5_clean
I0706 03:55:06.448956 14350 net.cpp:457] conv5_clean <- conv4_clean
I0706 03:55:06.448966 14350 net.cpp:414] conv5_clean -> conv5_clean
I0706 03:55:06.466203 14350 net.cpp:153] Setting up conv5_clean
I0706 03:55:06.466219 14350 net.cpp:160] Top shape: 200 256 13 13 (8652800)
I0706 03:55:06.466224 14350 net.cpp:168] Memory required for data: 1601406400
I0706 03:55:06.466236 14350 layer_factory.hpp:76] Creating layer relu5
I0706 03:55:06.466246 14350 net.cpp:109] Creating Layer relu5
I0706 03:55:06.466251 14350 net.cpp:457] relu5 <- conv5_clean
I0706 03:55:06.466259 14350 net.cpp:400] relu5 -> conv5_clean (in-place)
I0706 03:55:06.466269 14350 net.cpp:153] Setting up relu5
I0706 03:55:06.466274 14350 net.cpp:160] Top shape: 200 256 13 13 (8652800)
I0706 03:55:06.466279 14350 net.cpp:168] Memory required for data: 1636017600
I0706 03:55:06.466284 14350 layer_factory.hpp:76] Creating layer pool5
I0706 03:55:06.466294 14350 net.cpp:109] Creating Layer pool5
I0706 03:55:06.466298 14350 net.cpp:457] pool5 <- conv5_clean
I0706 03:55:06.466305 14350 net.cpp:414] pool5 -> pool5
I0706 03:55:06.466351 14350 net.cpp:153] Setting up pool5
I0706 03:55:06.466361 14350 net.cpp:160] Top shape: 200 256 6 6 (1843200)
I0706 03:55:06.466364 14350 net.cpp:168] Memory required for data: 1643390400
I0706 03:55:06.466369 14350 layer_factory.hpp:76] Creating layer fc6_clean
I0706 03:55:06.466382 14350 net.cpp:109] Creating Layer fc6_clean
I0706 03:55:06.466385 14350 net.cpp:457] fc6_clean <- pool5
I0706 03:55:06.466393 14350 net.cpp:414] fc6_clean -> fc6_clean
I0706 03:55:07.923878 14350 net.cpp:153] Setting up fc6_clean
I0706 03:55:07.923918 14350 net.cpp:160] Top shape: 200 4096 (819200)
I0706 03:55:07.923923 14350 net.cpp:168] Memory required for data: 1646667200
I0706 03:55:07.923936 14350 layer_factory.hpp:76] Creating layer relu6
I0706 03:55:07.923951 14350 net.cpp:109] Creating Layer relu6
I0706 03:55:07.923957 14350 net.cpp:457] relu6 <- fc6_clean
I0706 03:55:07.923969 14350 net.cpp:400] relu6 -> fc6_clean (in-place)
I0706 03:55:07.923985 14350 net.cpp:153] Setting up relu6
I0706 03:55:07.923991 14350 net.cpp:160] Top shape: 200 4096 (819200)
I0706 03:55:07.923995 14350 net.cpp:168] Memory required for data: 1649944000
I0706 03:55:07.924000 14350 layer_factory.hpp:76] Creating layer drop6
I0706 03:55:07.924010 14350 net.cpp:109] Creating Layer drop6
I0706 03:55:07.924015 14350 net.cpp:457] drop6 <- fc6_clean
I0706 03:55:07.924021 14350 net.cpp:400] drop6 -> fc6_clean (in-place)
I0706 03:55:07.924063 14350 net.cpp:153] Setting up drop6
I0706 03:55:07.924072 14350 net.cpp:160] Top shape: 200 4096 (819200)
I0706 03:55:07.924077 14350 net.cpp:168] Memory required for data: 1653220800
I0706 03:55:07.924082 14350 layer_factory.hpp:76] Creating layer fc7_clean
I0706 03:55:07.924093 14350 net.cpp:109] Creating Layer fc7_clean
I0706 03:55:07.924098 14350 net.cpp:457] fc7_clean <- fc6_clean
I0706 03:55:07.924106 14350 net.cpp:414] fc7_clean -> fc7_clean
I0706 03:55:08.572651 14350 net.cpp:153] Setting up fc7_clean
I0706 03:55:08.572691 14350 net.cpp:160] Top shape: 200 4096 (819200)
I0706 03:55:08.572696 14350 net.cpp:168] Memory required for data: 1656497600
I0706 03:55:08.572710 14350 layer_factory.hpp:76] Creating layer relu7
I0706 03:55:08.572726 14350 net.cpp:109] Creating Layer relu7
I0706 03:55:08.572734 14350 net.cpp:457] relu7 <- fc7_clean
I0706 03:55:08.572746 14350 net.cpp:400] relu7 -> fc7_clean (in-place)
I0706 03:55:08.572762 14350 net.cpp:153] Setting up relu7
I0706 03:55:08.572768 14350 net.cpp:160] Top shape: 200 4096 (819200)
I0706 03:55:08.572772 14350 net.cpp:168] Memory required for data: 1659774400
I0706 03:55:08.572777 14350 layer_factory.hpp:76] Creating layer drop7
I0706 03:55:08.572788 14350 net.cpp:109] Creating Layer drop7
I0706 03:55:08.572793 14350 net.cpp:457] drop7 <- fc7_clean
I0706 03:55:08.572798 14350 net.cpp:400] drop7 -> fc7_clean (in-place)
I0706 03:55:08.572839 14350 net.cpp:153] Setting up drop7
I0706 03:55:08.572849 14350 net.cpp:160] Top shape: 200 4096 (819200)
I0706 03:55:08.572891 14350 net.cpp:168] Memory required for data: 1663051200
I0706 03:55:08.572897 14350 layer_factory.hpp:76] Creating layer fc8_clean
I0706 03:55:08.572909 14350 net.cpp:109] Creating Layer fc8_clean
I0706 03:55:08.572914 14350 net.cpp:457] fc8_clean <- fc7_clean
I0706 03:55:08.572923 14350 net.cpp:414] fc8_clean -> fc8_clean
I0706 03:55:08.723737 14350 net.cpp:153] Setting up fc8_clean
I0706 03:55:08.723764 14350 net.cpp:160] Top shape: 200 967 (193400)
I0706 03:55:08.723770 14350 net.cpp:168] Memory required for data: 1663824800
I0706 03:55:08.723781 14350 layer_factory.hpp:76] Creating layer fc8_clean_fc8_clean_0_split
I0706 03:55:08.723793 14350 net.cpp:109] Creating Layer fc8_clean_fc8_clean_0_split
I0706 03:55:08.723799 14350 net.cpp:457] fc8_clean_fc8_clean_0_split <- fc8_clean
I0706 03:55:08.723809 14350 net.cpp:414] fc8_clean_fc8_clean_0_split -> fc8_clean_fc8_clean_0_split_0
I0706 03:55:08.723820 14350 net.cpp:414] fc8_clean_fc8_clean_0_split -> fc8_clean_fc8_clean_0_split_1
I0706 03:55:08.723873 14350 net.cpp:153] Setting up fc8_clean_fc8_clean_0_split
I0706 03:55:08.723882 14350 net.cpp:160] Top shape: 200 967 (193400)
I0706 03:55:08.723888 14350 net.cpp:160] Top shape: 200 967 (193400)
I0706 03:55:08.723892 14350 net.cpp:168] Memory required for data: 1665372000
I0706 03:55:08.723897 14350 layer_factory.hpp:76] Creating layer accuracy
I0706 03:55:08.723907 14350 net.cpp:109] Creating Layer accuracy
I0706 03:55:08.723912 14350 net.cpp:457] accuracy <- fc8_clean_fc8_clean_0_split_0
I0706 03:55:08.723918 14350 net.cpp:457] accuracy <- label_val-data_1_split_0
I0706 03:55:08.723925 14350 net.cpp:414] accuracy -> accuracy
…
