…
I0703 18:41:11.354545  4872 net.cpp:52] Initializing net from parameters:
state {
phase: TRAIN
}
layer {
name: "data"
type: "Data"
top: "data"
include {
phase: TRAIN
}
transform_param {
mean_file: "/home/ffw/scratch/plantClef/scatnet_output/train/a4_m2_s1s2_f2/lmdb_mean_coeff.binaryproto"
}
data_param {
source: "/home/ffw/scratch/plantClef/scatnet_output/train/a4_m2_s1s2_f2/lmdb_data"
batch_size: 32
backend: LMDB
}
}
layer {
name: "label"
type: "Data"
top: "label"
include {
phase: TRAIN
}
data_param {
source: "/home/ffw/scratch/plantClef/scatnet_output/train/a4_m2_s1s2_f2/lmdb_labels"
batch_size: 32
backend: LMDB
}
}
layer {
name: "conv1"
type: "Convolution"
bottom: "data"
top: "conv1"
param {
lr_mult: 1
decay_mult: 1
}
param {
lr_mult: 2
decay_mult: 0
}
convolution_param {
num_output: 96
kernel_size: 11
stride: 4
weight_filler {
type: "gaussian"
std: 0.01
}
bias_filler {
type: "constant"
value: 0
}
}
}
layer {
name: "relu1"
type: "ReLU"
bottom: "conv1"
top: "conv1"
}
layer {
name: "norm1"
type: "LRN"
bottom: "conv1"
top: "norm1"
lrn_param {
local_size: 5
alpha: 0.0001
beta: 0.75
}
}
layer {
name: "pool1"
type: "Pooling"
bottom: "norm1"
top: "pool1"
pooling_param {
pool: MAX
kernel_size: 3
stride: 2
}
}
layer {
name: "conv2"
type: "Convolution"
bottom: "pool1"
top: "conv2"
param {
lr_mult: 1
decay_mult: 1
}
param {
lr_mult: 2
decay_mult: 0
}
convolution_param {
num_output: 256
pad: 2
kernel_size: 5
group: 2
weight_filler {
type: "gaussian"
std: 0.01
}
bias_filler {
type: "constant"
value: 0.1
}
}
}
layer {
name: "relu2"
type: "ReLU"
bottom: "conv2"
top: "conv2"
}
layer {
name: "norm2"
type: "LRN"
bottom: "conv2"
top: "norm2"
lrn_param {
local_size: 5
alpha: 0.0001
beta: 0.75
}
}
layer {
name: "pool2"
type: "Pooling"
bottom: "norm2"
top: "pool2"
pooling_param {
pool: MAX
kernel_size: 3
stride: 2
}
}
layer {
name: "conv3"
type: "Convolution"
bottom: "pool2"
top: "conv3"
param {
lr_mult: 1
decay_mult: 1
}
param {
lr_mult: 2
decay_mult: 0
}
convolution_param {
num_output: 384
pad: 1
kernel_size: 3
weight_filler {
type: "gaussian"
std: 0.01
}
bias_filler {
type: "constant"
value: 0
}
}
}
layer {
name: "relu3"
type: "ReLU"
bottom: "conv3"
top: "conv3"
}
layer {
name: "conv4"
type: "Convolution"
bottom: "conv3"
top: "conv4"
param {
lr_mult: 1
decay_mult: 1
}
param {
lr_mult: 2
decay_mult: 0
}
convolution_param {
num_output: 384
pad: 1
kernel_size: 3
group: 2
weight_filler {
type: "gaussian"
std: 0.01
}
bias_filler {
type: "constant"
value: 0.1
}
}
}
layer {
name: "relu4"
type: "ReLU"
bottom: "conv4"
top: "conv4"
}
layer {
name: "conv5"
type: "Convolution"
bottom: "conv4"
top: "conv5"
param {
lr_mult: 1
decay_mult: 1
}
param {
lr_mult: 2
decay_mult: 0
}
convolution_param {
num_output: 256
pad: 1
kernel_size: 3
group: 1
weight_filler {
type: "gaussian"
std: 0.01
}
bias_filler {
type: "constant"
value: 0.1
}
}
}
layer {
name: "relu5"
type: "ReLU"
bottom: "conv5"
top: "conv5"
}
layer {
name: "pool5"
type: "Pooling"
bottom: "conv5"
top: "pool5"
pooling_param {
pool: MAX
kernel_size: 3
stride: 2
}
}
layer {
name: "fc6"
type: "InnerProduct"
bottom: "pool5"
top: "fc6"
param {
lr_mult: 1
decay_mult: 1
}
param {
lr_mult: 2
decay_mult: 0
}
inner_product_param {
num_output: 4096
weight_filler {
type: "gaussian"
std: 0.005
}
bias_filler {
type: "constant"
value: 0.1
}
}
}
layer {
name: "relu6"
type: "ReLU"
bottom: "fc6"
top: "fc6"
}
layer {
name: "drop6"
type: "Dropout"
bottom: "fc6"
top: "fc6"
dropout_param {
dropout_ratio: 0.5
}
}
layer {
name: "fc7"
type: "InnerProduct"
bottom: "fc6"
top: "fc7"
param {
lr_mult: 1
decay_mult: 1
}
param {
lr_mult: 2
decay_mult: 0
}
inner_product_param {
num_output: 4096
weight_filler {
type: "gaussian"
std: 0.005
}
bias_filler {
type: "constant"
value: 0.1
}
}
}
layer {
name: "relu7"
type: "ReLU"
bottom: "fc7"
top: "fc7"
}
layer {
name: "drop7"
type: "Dropout"
bottom: "fc7"
top: "fc7"
dropout_param {
dropout_ratio: 0.5
}
}
layer {
name: "fc8_species"
type: "InnerProduct"
bottom: "fc7"
top: "fc8_species"
param {
lr_mult: 1
decay_mult: 1
}
param {
lr_mult: 2
decay_mult: 0
}
inner_product_param {
num_output: 967
weight_filler {
type: "gaussian"
std: 0.005
}
bias_filler {
type: "constant"
value: 0.1
}
}
}
layer {
name: "loss"
type: "SoftmaxWithLoss"
bottom: "fc8_species"
bottom: "label"
top: "loss"
}
I0703 18:41:11.354607  4872 layer_factory.hpp:76] Creating layer data
I0703 18:41:11.355918  4872 net.cpp:109] Creating Layer data
I0703 18:41:11.355924  4872 net.cpp:414] data -> data
I0703 18:41:11.356231  4872 data_transformer.cpp:25] Loading mean file from: /home/ffw/scratch/plantClef/scatnet_output/train/a4_m2_s1s2_f2/lmdb_mean_coeff.binaryproto
I0703 18:41:11.358417  4884 db_lmdb.cpp:36] Opened lmdb /home/ffw/scratch/plantClef/scatnet_output/train/a4_m2_s1s2_f2/lmdb_data
I0703 18:41:11.381254  4872 data_layer.cpp:45] output data size: 32,75,105,105
I0703 18:41:11.507879  4872 net.cpp:153] Setting up data
I0703 18:41:11.507933  4872 net.cpp:160] Top shape: 32 75 105 105 (26460000)
I0703 18:41:11.507941  4872 net.cpp:168] Memory required for data: 105840000
I0703 18:41:11.507948  4872 layer_factory.hpp:76] Creating layer label
I0703 18:41:11.508029  4872 net.cpp:109] Creating Layer label
I0703 18:41:11.508038  4872 net.cpp:414] label -> label
I0703 18:41:11.511548  4886 db_lmdb.cpp:36] Opened lmdb /home/ffw/scratch/plantClef/scatnet_output/train/a4_m2_s1s2_f2/lmdb_labels
I0703 18:41:11.518515  4872 data_layer.cpp:45] output data size: 32,1,1,1
I0703 18:41:11.518630  4872 net.cpp:153] Setting up label
I0703 18:41:11.518647  4872 net.cpp:160] Top shape: 32 1 1 1 (32)
I0703 18:41:11.518649  4872 net.cpp:168] Memory required for data: 105840128
I0703 18:41:11.518652  4872 layer_factory.hpp:76] Creating layer conv1
I0703 18:41:11.518662  4872 net.cpp:109] Creating Layer conv1
I0703 18:41:11.518666  4872 net.cpp:457] conv1 <- data
I0703 18:41:11.518673  4872 net.cpp:414] conv1 -> conv1
I0703 18:41:11.539973  4872 net.cpp:153] Setting up conv1
I0703 18:41:11.539995  4872 net.cpp:160] Top shape: 32 96 24 24 (1769472)
I0703 18:41:11.539997  4872 net.cpp:168] Memory required for data: 112918016
I0703 18:41:11.540009  4872 layer_factory.hpp:76] Creating layer relu1
I0703 18:41:11.540017  4872 net.cpp:109] Creating Layer relu1
I0703 18:41:11.540020  4872 net.cpp:457] relu1 <- conv1
I0703 18:41:11.540024  4872 net.cpp:400] relu1 -> conv1 (in-place)
I0703 18:41:11.540053  4872 net.cpp:153] Setting up relu1
I0703 18:41:11.540056  4872 net.cpp:160] Top shape: 32 96 24 24 (1769472)
I0703 18:41:11.540058  4872 net.cpp:168] Memory required for data: 119995904
I0703 18:41:11.540061  4872 layer_factory.hpp:76] Creating layer norm1
I0703 18:41:11.540266  4872 net.cpp:109] Creating Layer norm1
I0703 18:41:11.540271  4872 net.cpp:457] norm1 <- conv1
I0703 18:41:11.540273  4872 net.cpp:414] norm1 -> norm1
I0703 18:41:11.540302  4872 net.cpp:153] Setting up norm1
I0703 18:41:11.540305  4872 net.cpp:160] Top shape: 32 96 24 24 (1769472)
I0703 18:41:11.540307  4872 net.cpp:168] Memory required for data: 127073792
I0703 18:41:11.540309  4872 layer_factory.hpp:76] Creating layer pool1
I0703 18:41:11.540313  4872 net.cpp:109] Creating Layer pool1
I0703 18:41:11.540314  4872 net.cpp:457] pool1 <- norm1
I0703 18:41:11.540318  4872 net.cpp:414] pool1 -> pool1
I0703 18:41:11.540339  4872 net.cpp:153] Setting up pool1
I0703 18:41:11.540343  4872 net.cpp:160] Top shape: 32 96 12 12 (442368)
I0703 18:41:11.540345  4872 net.cpp:168] Memory required for data: 128843264
I0703 18:41:11.540346  4872 layer_factory.hpp:76] Creating layer conv2
I0703 18:41:11.540352  4872 net.cpp:109] Creating Layer conv2
I0703 18:41:11.540354  4872 net.cpp:457] conv2 <- pool1
I0703 18:41:11.540356  4872 net.cpp:414] conv2 -> conv2
I0703 18:41:11.546996  4872 net.cpp:153] Setting up conv2
I0703 18:41:11.547018  4872 net.cpp:160] Top shape: 32 256 12 12 (1179648)
I0703 18:41:11.547020  4872 net.cpp:168] Memory required for data: 133561856
I0703 18:41:11.547027  4872 layer_factory.hpp:76] Creating layer relu2
I0703 18:41:11.547035  4872 net.cpp:109] Creating Layer relu2
I0703 18:41:11.547037  4872 net.cpp:457] relu2 <- conv2
I0703 18:41:11.547041  4872 net.cpp:400] relu2 -> conv2 (in-place)
I0703 18:41:11.547047  4872 net.cpp:153] Setting up relu2
I0703 18:41:11.547050  4872 net.cpp:160] Top shape: 32 256 12 12 (1179648)
I0703 18:41:11.547052  4872 net.cpp:168] Memory required for data: 138280448
I0703 18:41:11.547055  4872 layer_factory.hpp:76] Creating layer norm2
I0703 18:41:11.547060  4872 net.cpp:109] Creating Layer norm2
I0703 18:41:11.547061  4872 net.cpp:457] norm2 <- conv2
I0703 18:41:11.547065  4872 net.cpp:414] norm2 -> norm2
I0703 18:41:11.547086  4872 net.cpp:153] Setting up norm2
I0703 18:41:11.547089  4872 net.cpp:160] Top shape: 32 256 12 12 (1179648)
I0703 18:41:11.547091  4872 net.cpp:168] Memory required for data: 142999040
I0703 18:41:11.547092  4872 layer_factory.hpp:76] Creating layer pool2
I0703 18:41:11.547096  4872 net.cpp:109] Creating Layer pool2
I0703 18:41:11.547098  4872 net.cpp:457] pool2 <- norm2
I0703 18:41:11.547101  4872 net.cpp:414] pool2 -> pool2
I0703 18:41:11.547117  4872 net.cpp:153] Setting up pool2
I0703 18:41:11.547121  4872 net.cpp:160] Top shape: 32 256 6 6 (294912)
I0703 18:41:11.547122  4872 net.cpp:168] Memory required for data: 144178688
I0703 18:41:11.547123  4872 layer_factory.hpp:76] Creating layer conv3
I0703 18:41:11.547129  4872 net.cpp:109] Creating Layer conv3
I0703 18:41:11.547130  4872 net.cpp:457] conv3 <- pool2
I0703 18:41:11.547133  4872 net.cpp:414] conv3 -> conv3
I0703 18:41:11.565774  4872 net.cpp:153] Setting up conv3
I0703 18:41:11.565793  4872 net.cpp:160] Top shape: 32 384 6 6 (442368)
I0703 18:41:11.565796  4872 net.cpp:168] Memory required for data: 145948160
I0703 18:41:11.565804  4872 layer_factory.hpp:76] Creating layer relu3
I0703 18:41:11.565810  4872 net.cpp:109] Creating Layer relu3
I0703 18:41:11.565814  4872 net.cpp:457] relu3 <- conv3
I0703 18:41:11.565816  4872 net.cpp:400] relu3 -> conv3 (in-place)
I0703 18:41:11.565824  4872 net.cpp:153] Setting up relu3
I0703 18:41:11.565826  4872 net.cpp:160] Top shape: 32 384 6 6 (442368)
I0703 18:41:11.565827  4872 net.cpp:168] Memory required for data: 147717632
I0703 18:41:11.565829  4872 layer_factory.hpp:76] Creating layer conv4
I0703 18:41:11.565834  4872 net.cpp:109] Creating Layer conv4
I0703 18:41:11.565836  4872 net.cpp:457] conv4 <- conv3
I0703 18:41:11.565840  4872 net.cpp:414] conv4 -> conv4
I0703 18:41:11.579929  4872 net.cpp:153] Setting up conv4
I0703 18:41:11.579946  4872 net.cpp:160] Top shape: 32 384 6 6 (442368)
I0703 18:41:11.579948  4872 net.cpp:168] Memory required for data: 149487104
I0703 18:41:11.579953  4872 layer_factory.hpp:76] Creating layer relu4
I0703 18:41:11.579960  4872 net.cpp:109] Creating Layer relu4
I0703 18:41:11.579963  4872 net.cpp:457] relu4 <- conv4
I0703 18:41:11.579967  4872 net.cpp:400] relu4 -> conv4 (in-place)
I0703 18:41:11.579973  4872 net.cpp:153] Setting up relu4
I0703 18:41:11.579975  4872 net.cpp:160] Top shape: 32 384 6 6 (442368)
I0703 18:41:11.579977  4872 net.cpp:168] Memory required for data: 151256576
I0703 18:41:11.579979  4872 layer_factory.hpp:76] Creating layer conv5
I0703 18:41:11.579984  4872 net.cpp:109] Creating Layer conv5
I0703 18:41:11.579987  4872 net.cpp:457] conv5 <- conv4
I0703 18:41:11.579989  4872 net.cpp:414] conv5 -> conv5
I0703 18:41:11.605886  4872 net.cpp:153] Setting up conv5
I0703 18:41:11.605904  4872 net.cpp:160] Top shape: 32 256 6 6 (294912)
I0703 18:41:11.605906  4872 net.cpp:168] Memory required for data: 152436224
I0703 18:41:11.605916  4872 layer_factory.hpp:76] Creating layer relu5
I0703 18:41:11.605921  4872 net.cpp:109] Creating Layer relu5
I0703 18:41:11.605924  4872 net.cpp:457] relu5 <- conv5
I0703 18:41:11.605928  4872 net.cpp:400] relu5 -> conv5 (in-place)
I0703 18:41:11.605933  4872 net.cpp:153] Setting up relu5
I0703 18:41:11.605937  4872 net.cpp:160] Top shape: 32 256 6 6 (294912)
I0703 18:41:11.605938  4872 net.cpp:168] Memory required for data: 153615872
I0703 18:41:11.605940  4872 layer_factory.hpp:76] Creating layer pool5
I0703 18:41:11.605947  4872 net.cpp:109] Creating Layer pool5
I0703 18:41:11.605947  4872 net.cpp:457] pool5 <- conv5
I0703 18:41:11.605950  4872 net.cpp:414] pool5 -> pool5
I0703 18:41:11.605975  4872 net.cpp:153] Setting up pool5
I0703 18:41:11.605978  4872 net.cpp:160] Top shape: 32 256 3 3 (73728)
I0703 18:41:11.605980  4872 net.cpp:168] Memory required for data: 153910784
I0703 18:41:11.605983  4872 layer_factory.hpp:76] Creating layer fc6
I0703 18:41:11.605988  4872 net.cpp:109] Creating Layer fc6
I0703 18:41:11.605989  4872 net.cpp:457] fc6 <- pool5
I0703 18:41:11.605991  4872 net.cpp:414] fc6 -> fc6
I0703 18:41:11.799592  4872 net.cpp:153] Setting up fc6
I0703 18:41:11.799609  4872 net.cpp:160] Top shape: 32 4096 (131072)
I0703 18:41:11.799612  4872 net.cpp:168] Memory required for data: 154435072
I0703 18:41:11.799618  4872 layer_factory.hpp:76] Creating layer relu6
I0703 18:41:11.799623  4872 net.cpp:109] Creating Layer relu6
I0703 18:41:11.799626  4872 net.cpp:457] relu6 <- fc6
I0703 18:41:11.799630  4872 net.cpp:400] relu6 -> fc6 (in-place)
I0703 18:41:11.799636  4872 net.cpp:153] Setting up relu6
I0703 18:41:11.799639  4872 net.cpp:160] Top shape: 32 4096 (131072)
I0703 18:41:11.799640  4872 net.cpp:168] Memory required for data: 154959360
I0703 18:41:11.799643  4872 layer_factory.hpp:76] Creating layer drop6
I0703 18:41:11.800215  4872 net.cpp:109] Creating Layer drop6
I0703 18:41:11.800218  4872 net.cpp:457] drop6 <- fc6
I0703 18:41:11.800221  4872 net.cpp:400] drop6 -> fc6 (in-place)
I0703 18:41:11.800241  4872 net.cpp:153] Setting up drop6
I0703 18:41:11.800245  4872 net.cpp:160] Top shape: 32 4096 (131072)
I0703 18:41:11.800246  4872 net.cpp:168] Memory required for data: 155483648
I0703 18:41:11.800248  4872 layer_factory.hpp:76] Creating layer fc7
I0703 18:41:11.800253  4872 net.cpp:109] Creating Layer fc7
I0703 18:41:11.800256  4872 net.cpp:457] fc7 <- fc6
I0703 18:41:11.800258  4872 net.cpp:414] fc7 -> fc7
I0703 18:41:12.119598  4872 net.cpp:153] Setting up fc7
I0703 18:41:12.119619  4872 net.cpp:160] Top shape: 32 4096 (131072)
I0703 18:41:12.119622  4872 net.cpp:168] Memory required for data: 156007936
I0703 18:41:12.119627  4872 layer_factory.hpp:76] Creating layer relu7
I0703 18:41:12.119634  4872 net.cpp:109] Creating Layer relu7
I0703 18:41:12.119637  4872 net.cpp:457] relu7 <- fc7
I0703 18:41:12.119642  4872 net.cpp:400] relu7 -> fc7 (in-place)
I0703 18:41:12.119649  4872 net.cpp:153] Setting up relu7
I0703 18:41:12.119670  4872 net.cpp:160] Top shape: 32 4096 (131072)
I0703 18:41:12.119673  4872 net.cpp:168] Memory required for data: 156532224
I0703 18:41:12.119675  4872 layer_factory.hpp:76] Creating layer drop7
I0703 18:41:12.119679  4872 net.cpp:109] Creating Layer drop7
I0703 18:41:12.119681  4872 net.cpp:457] drop7 <- fc7
I0703 18:41:12.119684  4872 net.cpp:400] drop7 -> fc7 (in-place)
I0703 18:41:12.119704  4872 net.cpp:153] Setting up drop7
I0703 18:41:12.119707  4872 net.cpp:160] Top shape: 32 4096 (131072)
I0703 18:41:12.119709  4872 net.cpp:168] Memory required for data: 157056512
I0703 18:41:12.119710  4872 layer_factory.hpp:76] Creating layer fc8_species
I0703 18:41:12.119715  4872 net.cpp:109] Creating Layer fc8_species
I0703 18:41:12.119717  4872 net.cpp:457] fc8_species <- fc7
I0703 18:41:12.119720  4872 net.cpp:414] fc8_species -> fc8_species
I0703 18:41:12.191210  4872 net.cpp:153] Setting up fc8_species
I0703 18:41:12.191229  4872 net.cpp:160] Top shape: 32 967 (30944)
I0703 18:41:12.191231  4872 net.cpp:168] Memory required for data: 157180288
I0703 18:41:12.191237  4872 layer_factory.hpp:76] Creating layer loss
I0703 18:41:12.191643  4872 net.cpp:109] Creating Layer loss
I0703 18:41:12.191650  4872 net.cpp:457] loss <- fc8_species
I0703 18:41:12.191654  4872 net.cpp:457] loss <- label
I0703 18:41:12.191661  4872 net.cpp:414] loss -> loss
I0703 18:41:12.191668  4872 layer_factory.hpp:76] Creating layer loss
…
I0703 18:41:12.192875  4872 net.cpp:52] Initializing net from parameters:
state {
phase: TEST
}
layer {
name: "data"
type: "Data"
top: "data"
include {
phase: TEST
}
transform_param {
mean_file: "/home/ffw/scratch/plantClef/scatnet_output/train/a4_m2_s1s2_f2/lmdb_mean_coeff.binaryproto"
}
data_param {
source: "/home/ffw/scratch/plantClef/scatnet_output/test/a4_m2_s1s2_f2/lmdb_data"
batch_size: 32
backend: LMDB
}
}
layer {
name: "label"
type: "Data"
top: "label"
include {
phase: TEST
}
data_param {
source: "/home/ffw/scratch/plantClef/scatnet_output/test/a4_m2_s1s2_f2/lmdb_labels"
batch_size: 32
backend: LMDB
}
}
layer {
name: "conv1"
type: "Convolution"
bottom: "data"
top: "conv1"
param {
lr_mult: 1
decay_mult: 1
}
param {
lr_mult: 2
decay_mult: 0
}
convolution_param {
num_output: 96
kernel_size: 11
stride: 4
weight_filler {
type: "gaussian"
std: 0.01
}
bias_filler {
type: "constant"
value: 0
}
}
}
layer {
name: "relu1"
type: "ReLU"
bottom: "conv1"
top: "conv1"
}
layer {
name: "norm1"
type: "LRN"
bottom: "conv1"
top: "norm1"
lrn_param {
local_size: 5
alpha: 0.0001
beta: 0.75
}
}
layer {
name: "pool1"
type: "Pooling"
bottom: "norm1"
top: "pool1"
pooling_param {
pool: MAX
kernel_size: 3
stride: 2
}
}
layer {
name: "conv2"
type: "Convolution"
bottom: "pool1"
top: "conv2"
param {
lr_mult: 1
decay_mult: 1
}
param {
lr_mult: 2
decay_mult: 0
}
convolution_param {
num_output: 256
pad: 2
kernel_size: 5
group: 2
weight_filler {
type: "gaussian"
std: 0.01
}
bias_filler {
type: "constant"
value: 0.1
}
}
}
layer {
name: "relu2"
type: "ReLU"
bottom: "conv2"
top: "conv2"
}
layer {
name: "norm2"
type: "LRN"
bottom: "conv2"
top: "norm2"
lrn_param {
local_size: 5
alpha: 0.0001
beta: 0.75
}
}
layer {
name: "pool2"
type: "Pooling"
bottom: "norm2"
top: "pool2"
pooling_param {
pool: MAX
kernel_size: 3
stride: 2
}
}
layer {
name: "conv3"
type: "Convolution"
bottom: "pool2"
top: "conv3"
param {
lr_mult: 1
decay_mult: 1
}
param {
lr_mult: 2
decay_mult: 0
}
convolution_param {
num_output: 384
pad: 1
kernel_size: 3
weight_filler {
type: "gaussian"
std: 0.01
}
bias_filler {
type: "constant"
value: 0
}
}
}
layer {
name: "relu3"
type: "ReLU"
bottom: "conv3"
top: "conv3"
}
layer {
name: "conv4"
type: "Convolution"
bottom: "conv3"
top: "conv4"
param {
lr_mult: 1
decay_mult: 1
}
param {
lr_mult: 2
decay_mult: 0
}
convolution_param {
num_output: 384
pad: 1
kernel_size: 3
group: 2
weight_filler {
type: "gaussian"
std: 0.01
}
bias_filler {
type: "constant"
value: 0.1
}
}
}
layer {
name: "relu4"
type: "ReLU"
bottom: "conv4"
top: "conv4"
}
layer {
name: "conv5"
type: "Convolution"
bottom: "conv4"
top: "conv5"
param {
lr_mult: 1
decay_mult: 1
}
param {
lr_mult: 2
decay_mult: 0
}
convolution_param {
num_output: 256
pad: 1
kernel_size: 3
group: 1
weight_filler {
type: "gaussian"
std: 0.01
}
bias_filler {
type: "constant"
value: 0.1
}
}
}
layer {
name: "relu5"
type: "ReLU"
bottom: "conv5"
top: "conv5"
}
layer {
name: "pool5"
type: "Pooling"
bottom: "conv5"
top: "pool5"
pooling_param {
pool: MAX
kernel_size: 3
stride: 2
}
}
layer {
name: "fc6"
type: "InnerProduct"
bottom: "pool5"
top: "fc6"
param {
lr_mult: 1
decay_mult: 1
}
param {
lr_mult: 2
decay_mult: 0
}
inner_product_param {
num_output: 4096
weight_filler {
type: "gaussian"
std: 0.005
}
bias_filler {
type: "constant"
value: 0.1
}
}
}
layer {
name: "relu6"
type: "ReLU"
bottom: "fc6"
top: "fc6"
}
layer {
name: "drop6"
type: "Dropout"
bottom: "fc6"
top: "fc6"
dropout_param {
dropout_ratio: 0.5
}
}
layer {
name: "fc7"
type: "InnerProduct"
bottom: "fc6"
top: "fc7"
param {
lr_mult: 1
decay_mult: 1
}
param {
lr_mult: 2
decay_mult: 0
}
inner_product_param {
num_output: 4096
weight_filler {
type: "gaussian"
std: 0.005
}
bias_filler {
type: "constant"
value: 0.1
}
}
}
layer {
name: "relu7"
type: "ReLU"
bottom: "fc7"
top: "fc7"
}
layer {
name: "drop7"
type: "Dropout"
bottom: "fc7"
top: "fc7"
dropout_param {
dropout_ratio: 0.5
}
}
layer {
name: "fc8_species"
type: "InnerProduct"
bottom: "fc7"
top: "fc8_species"
param {
lr_mult: 1
decay_mult: 1
}
param {
lr_mult: 2
decay_mult: 0
}
inner_product_param {
num_output: 967
weight_filler {
type: "gaussian"
std: 0.005
}
bias_filler {
type: "constant"
value: 0.1
}
}
}
layer {
name: "loss"
type: "SoftmaxWithLoss"
bottom: "fc8_species"
bottom: "label"
top: "loss"
}
layer {
name: "accuracy"
type: "Accuracy"
bottom: "fc8_species"
bottom: "label"
top: "accuracy"
include {
phase: TEST
}
}
I0703 18:41:12.192941  4872 layer_factory.hpp:76] Creating layer data
I0703 18:41:12.192992  4872 net.cpp:109] Creating Layer data
I0703 18:41:12.192997  4872 net.cpp:414] data -> data
I0703 18:41:12.193002  4872 data_transformer.cpp:25] Loading mean file from: /home/ffw/scratch/plantClef/scatnet_output/train/a4_m2_s1s2_f2/lmdb_mean_coeff.binaryproto
I0703 18:41:12.193914  4888 db_lmdb.cpp:36] Opened lmdb /home/ffw/scratch/plantClef/scatnet_output/test/a4_m2_s1s2_f2/lmdb_data
I0703 18:41:12.198863  4872 data_layer.cpp:45] output data size: 32,75,105,105
I0703 18:41:12.312377  4872 net.cpp:153] Setting up data
I0703 18:41:12.312397  4872 net.cpp:160] Top shape: 32 75 105 105 (26460000)
I0703 18:41:12.312400  4872 net.cpp:168] Memory required for data: 105840000
I0703 18:41:12.312404  4872 layer_factory.hpp:76] Creating layer label
I0703 18:41:12.312454  4872 net.cpp:109] Creating Layer label
I0703 18:41:12.312459  4872 net.cpp:414] label -> label
I0703 18:41:12.316287  4890 db_lmdb.cpp:36] Opened lmdb /home/ffw/scratch/plantClef/scatnet_output/test/a4_m2_s1s2_f2/lmdb_labels
I0703 18:41:12.322558  4872 data_layer.cpp:45] output data size: 32,1,1,1
I0703 18:41:12.322715  4872 net.cpp:153] Setting up label
I0703 18:41:12.322736  4872 net.cpp:160] Top shape: 32 1 1 1 (32)
I0703 18:41:12.322737  4872 net.cpp:168] Memory required for data: 105840128
I0703 18:41:12.322741  4872 layer_factory.hpp:76] Creating layer label_label_0_split
I0703 18:41:12.322751  4872 net.cpp:109] Creating Layer label_label_0_split
I0703 18:41:12.322754  4872 net.cpp:457] label_label_0_split <- label
I0703 18:41:12.322759  4872 net.cpp:414] label_label_0_split -> label_label_0_split_0
I0703 18:41:12.322765  4872 net.cpp:414] label_label_0_split -> label_label_0_split_1
I0703 18:41:12.322954  4872 net.cpp:153] Setting up label_label_0_split
I0703 18:41:12.322964  4872 net.cpp:160] Top shape: 32 1 1 1 (32)
I0703 18:41:12.322968  4872 net.cpp:160] Top shape: 32 1 1 1 (32)
I0703 18:41:12.322969  4872 net.cpp:168] Memory required for data: 105840384
I0703 18:41:12.322971  4872 layer_factory.hpp:76] Creating layer conv1
I0703 18:41:12.322979  4872 net.cpp:109] Creating Layer conv1
I0703 18:41:12.322981  4872 net.cpp:457] conv1 <- data
I0703 18:41:12.322985  4872 net.cpp:414] conv1 -> conv1
I0703 18:41:12.340812  4872 net.cpp:153] Setting up conv1
I0703 18:41:12.340832  4872 net.cpp:160] Top shape: 32 96 24 24 (1769472)
I0703 18:41:12.340834  4872 net.cpp:168] Memory required for data: 112918272
I0703 18:41:12.340842  4872 layer_factory.hpp:76] Creating layer relu1
I0703 18:41:12.340850  4872 net.cpp:109] Creating Layer relu1
I0703 18:41:12.340852  4872 net.cpp:457] relu1 <- conv1
I0703 18:41:12.340857  4872 net.cpp:400] relu1 -> conv1 (in-place)
I0703 18:41:12.340899  4872 net.cpp:153] Setting up relu1
I0703 18:41:12.340903  4872 net.cpp:160] Top shape: 32 96 24 24 (1769472)
I0703 18:41:12.340905  4872 net.cpp:168] Memory required for data: 119996160
I0703 18:41:12.340908  4872 layer_factory.hpp:76] Creating layer norm1
I0703 18:41:12.340914  4872 net.cpp:109] Creating Layer norm1
I0703 18:41:12.340915  4872 net.cpp:457] norm1 <- conv1
I0703 18:41:12.340919  4872 net.cpp:414] norm1 -> norm1
I0703 18:41:12.340951  4872 net.cpp:153] Setting up norm1
I0703 18:41:12.340955  4872 net.cpp:160] Top shape: 32 96 24 24 (1769472)
I0703 18:41:12.340956  4872 net.cpp:168] Memory required for data: 127074048
I0703 18:41:12.340958  4872 layer_factory.hpp:76] Creating layer pool1
I0703 18:41:12.340962  4872 net.cpp:109] Creating Layer pool1
I0703 18:41:12.340965  4872 net.cpp:457] pool1 <- norm1
I0703 18:41:12.340966  4872 net.cpp:414] pool1 -> pool1
I0703 18:41:12.340986  4872 net.cpp:153] Setting up pool1
I0703 18:41:12.340988  4872 net.cpp:160] Top shape: 32 96 12 12 (442368)
I0703 18:41:12.340991  4872 net.cpp:168] Memory required for data: 128843520
I0703 18:41:12.340991  4872 layer_factory.hpp:76] Creating layer conv2
I0703 18:41:12.340996  4872 net.cpp:109] Creating Layer conv2
I0703 18:41:12.340998  4872 net.cpp:457] conv2 <- pool1
I0703 18:41:12.341001  4872 net.cpp:414] conv2 -> conv2
I0703 18:41:12.346997  4872 net.cpp:153] Setting up conv2
I0703 18:41:12.347017  4872 net.cpp:160] Top shape: 32 256 12 12 (1179648)
I0703 18:41:12.347019  4872 net.cpp:168] Memory required for data: 133562112
I0703 18:41:12.347026  4872 layer_factory.hpp:76] Creating layer relu2
I0703 18:41:12.347034  4872 net.cpp:109] Creating Layer relu2
I0703 18:41:12.347036  4872 net.cpp:457] relu2 <- conv2
I0703 18:41:12.347040  4872 net.cpp:400] relu2 -> conv2 (in-place)
I0703 18:41:12.347045  4872 net.cpp:153] Setting up relu2
I0703 18:41:12.347048  4872 net.cpp:160] Top shape: 32 256 12 12 (1179648)
I0703 18:41:12.347049  4872 net.cpp:168] Memory required for data: 138280704
I0703 18:41:12.347050  4872 layer_factory.hpp:76] Creating layer norm2
I0703 18:41:12.347055  4872 net.cpp:109] Creating Layer norm2
I0703 18:41:12.347057  4872 net.cpp:457] norm2 <- conv2
I0703 18:41:12.347059  4872 net.cpp:414] norm2 -> norm2
I0703 18:41:12.347084  4872 net.cpp:153] Setting up norm2
I0703 18:41:12.347089  4872 net.cpp:160] Top shape: 32 256 12 12 (1179648)
I0703 18:41:12.347090  4872 net.cpp:168] Memory required for data: 142999296
I0703 18:41:12.347093  4872 layer_factory.hpp:76] Creating layer pool2
I0703 18:41:12.347096  4872 net.cpp:109] Creating Layer pool2
I0703 18:41:12.347098  4872 net.cpp:457] pool2 <- norm2
I0703 18:41:12.347101  4872 net.cpp:414] pool2 -> pool2
I0703 18:41:12.347121  4872 net.cpp:153] Setting up pool2
I0703 18:41:12.347123  4872 net.cpp:160] Top shape: 32 256 6 6 (294912)
I0703 18:41:12.347126  4872 net.cpp:168] Memory required for data: 144178944
I0703 18:41:12.347126  4872 layer_factory.hpp:76] Creating layer conv3
I0703 18:41:12.347131  4872 net.cpp:109] Creating Layer conv3
I0703 18:41:12.347133  4872 net.cpp:457] conv3 <- pool2
I0703 18:41:12.347136  4872 net.cpp:414] conv3 -> conv3
I0703 18:41:12.365085  4872 net.cpp:153] Setting up conv3
I0703 18:41:12.365104  4872 net.cpp:160] Top shape: 32 384 6 6 (442368)
I0703 18:41:12.365106  4872 net.cpp:168] Memory required for data: 145948416
I0703 18:41:12.365114  4872 layer_factory.hpp:76] Creating layer relu3
I0703 18:41:12.365130  4872 net.cpp:109] Creating Layer relu3
I0703 18:41:12.365133  4872 net.cpp:457] relu3 <- conv3
I0703 18:41:12.365136  4872 net.cpp:400] relu3 -> conv3 (in-place)
I0703 18:41:12.365142  4872 net.cpp:153] Setting up relu3
I0703 18:41:12.365145  4872 net.cpp:160] Top shape: 32 384 6 6 (442368)
I0703 18:41:12.365146  4872 net.cpp:168] Memory required for data: 147717888
I0703 18:41:12.365149  4872 layer_factory.hpp:76] Creating layer conv4
I0703 18:41:12.365164  4872 net.cpp:109] Creating Layer conv4
I0703 18:41:12.365166  4872 net.cpp:457] conv4 <- conv3
I0703 18:41:12.365170  4872 net.cpp:414] conv4 -> conv4
I0703 18:41:12.378886  4872 net.cpp:153] Setting up conv4
I0703 18:41:12.378916  4872 net.cpp:160] Top shape: 32 384 6 6 (442368)
I0703 18:41:12.378917  4872 net.cpp:168] Memory required for data: 149487360
I0703 18:41:12.378924  4872 layer_factory.hpp:76] Creating layer relu4
I0703 18:41:12.378934  4872 net.cpp:109] Creating Layer relu4
I0703 18:41:12.378937  4872 net.cpp:457] relu4 <- conv4
I0703 18:41:12.378940  4872 net.cpp:400] relu4 -> conv4 (in-place)
I0703 18:41:12.378947  4872 net.cpp:153] Setting up relu4
I0703 18:41:12.378959  4872 net.cpp:160] Top shape: 32 384 6 6 (442368)
I0703 18:41:12.378962  4872 net.cpp:168] Memory required for data: 151256832
I0703 18:41:12.378962  4872 layer_factory.hpp:76] Creating layer conv5
I0703 18:41:12.378968  4872 net.cpp:109] Creating Layer conv5
I0703 18:41:12.378970  4872 net.cpp:457] conv5 <- conv4
I0703 18:41:12.378983  4872 net.cpp:414] conv5 -> conv5
I0703 18:41:12.396970  4872 net.cpp:153] Setting up conv5
I0703 18:41:12.396988  4872 net.cpp:160] Top shape: 32 256 6 6 (294912)
I0703 18:41:12.396991  4872 net.cpp:168] Memory required for data: 152436480
I0703 18:41:12.396999  4872 layer_factory.hpp:76] Creating layer relu5
I0703 18:41:12.397007  4872 net.cpp:109] Creating Layer relu5
I0703 18:41:12.397011  4872 net.cpp:457] relu5 <- conv5
I0703 18:41:12.397014  4872 net.cpp:400] relu5 -> conv5 (in-place)
I0703 18:41:12.397019  4872 net.cpp:153] Setting up relu5
I0703 18:41:12.397022  4872 net.cpp:160] Top shape: 32 256 6 6 (294912)
I0703 18:41:12.397023  4872 net.cpp:168] Memory required for data: 153616128
I0703 18:41:12.397025  4872 layer_factory.hpp:76] Creating layer pool5
I0703 18:41:12.397029  4872 net.cpp:109] Creating Layer pool5
I0703 18:41:12.397032  4872 net.cpp:457] pool5 <- conv5
I0703 18:41:12.397034  4872 net.cpp:414] pool5 -> pool5
I0703 18:41:12.397058  4872 net.cpp:153] Setting up pool5
I0703 18:41:12.397061  4872 net.cpp:160] Top shape: 32 256 3 3 (73728)
I0703 18:41:12.397073  4872 net.cpp:168] Memory required for data: 153911040
I0703 18:41:12.397075  4872 layer_factory.hpp:76] Creating layer fc6
I0703 18:41:12.397081  4872 net.cpp:109] Creating Layer fc6
I0703 18:41:12.397083  4872 net.cpp:457] fc6 <- pool5
I0703 18:41:12.397085  4872 net.cpp:414] fc6 -> fc6
I0703 18:41:12.588475  4872 net.cpp:153] Setting up fc6
I0703 18:41:12.588495  4872 net.cpp:160] Top shape: 32 4096 (131072)
I0703 18:41:12.588498  4872 net.cpp:168] Memory required for data: 154435328
I0703 18:41:12.588505  4872 layer_factory.hpp:76] Creating layer relu6
I0703 18:41:12.588511  4872 net.cpp:109] Creating Layer relu6
I0703 18:41:12.588515  4872 net.cpp:457] relu6 <- fc6
I0703 18:41:12.588520  4872 net.cpp:400] relu6 -> fc6 (in-place)
I0703 18:41:12.588526  4872 net.cpp:153] Setting up relu6
I0703 18:41:12.588528  4872 net.cpp:160] Top shape: 32 4096 (131072)
I0703 18:41:12.588531  4872 net.cpp:168] Memory required for data: 154959616
I0703 18:41:12.588531  4872 layer_factory.hpp:76] Creating layer drop6
I0703 18:41:12.588536  4872 net.cpp:109] Creating Layer drop6
I0703 18:41:12.588538  4872 net.cpp:457] drop6 <- fc6
I0703 18:41:12.588541  4872 net.cpp:400] drop6 -> fc6 (in-place)
I0703 18:41:12.588557  4872 net.cpp:153] Setting up drop6
I0703 18:41:12.588560  4872 net.cpp:160] Top shape: 32 4096 (131072)
I0703 18:41:12.588562  4872 net.cpp:168] Memory required for data: 155483904
I0703 18:41:12.588564  4872 layer_factory.hpp:76] Creating layer fc7
I0703 18:41:12.588569  4872 net.cpp:109] Creating Layer fc7
I0703 18:41:12.588572  4872 net.cpp:457] fc7 <- fc6
I0703 18:41:12.588574  4872 net.cpp:414] fc7 -> fc7
I0703 18:41:12.904832  4872 net.cpp:153] Setting up fc7
I0703 18:41:12.904850  4872 net.cpp:160] Top shape: 32 4096 (131072)
I0703 18:41:12.904852  4872 net.cpp:168] Memory required for data: 156008192
I0703 18:41:12.904858  4872 layer_factory.hpp:76] Creating layer relu7
I0703 18:41:12.904865  4872 net.cpp:109] Creating Layer relu7
I0703 18:41:12.904867  4872 net.cpp:457] relu7 <- fc7
I0703 18:41:12.904871  4872 net.cpp:400] relu7 -> fc7 (in-place)
I0703 18:41:12.904896  4872 net.cpp:153] Setting up relu7
I0703 18:41:12.904899  4872 net.cpp:160] Top shape: 32 4096 (131072)
I0703 18:41:12.904901  4872 net.cpp:168] Memory required for data: 156532480
I0703 18:41:12.904902  4872 layer_factory.hpp:76] Creating layer drop7
I0703 18:41:12.904907  4872 net.cpp:109] Creating Layer drop7
I0703 18:41:12.904908  4872 net.cpp:457] drop7 <- fc7
I0703 18:41:12.904911  4872 net.cpp:400] drop7 -> fc7 (in-place)
I0703 18:41:12.904928  4872 net.cpp:153] Setting up drop7
I0703 18:41:12.904932  4872 net.cpp:160] Top shape: 32 4096 (131072)
I0703 18:41:12.904933  4872 net.cpp:168] Memory required for data: 157056768
I0703 18:41:12.904935  4872 layer_factory.hpp:76] Creating layer fc8_species
I0703 18:41:12.904939  4872 net.cpp:109] Creating Layer fc8_species
I0703 18:41:12.904942  4872 net.cpp:457] fc8_species <- fc7
I0703 18:41:12.904944  4872 net.cpp:414] fc8_species -> fc8_species
I0703 18:41:12.977970  4872 net.cpp:153] Setting up fc8_species
I0703 18:41:12.977990  4872 net.cpp:160] Top shape: 32 967 (30944)
I0703 18:41:12.977993  4872 net.cpp:168] Memory required for data: 157180544
I0703 18:41:12.977999  4872 layer_factory.hpp:76] Creating layer fc8_species_fc8_species_0_split
I0703 18:41:12.978005  4872 net.cpp:109] Creating Layer fc8_species_fc8_species_0_split
I0703 18:41:12.978009  4872 net.cpp:457] fc8_species_fc8_species_0_split <- fc8_species
I0703 18:41:12.978013  4872 net.cpp:414] fc8_species_fc8_species_0_split -> fc8_species_fc8_species_0_split_0
I0703 18:41:12.978018  4872 net.cpp:414] fc8_species_fc8_species_0_split -> fc8_species_fc8_species_0_split_1
I0703 18:41:12.978047  4872 net.cpp:153] Setting up fc8_species_fc8_species_0_split
I0703 18:41:12.978051  4872 net.cpp:160] Top shape: 32 967 (30944)
I0703 18:41:12.978054  4872 net.cpp:160] Top shape: 32 967 (30944)
I0703 18:41:12.978055  4872 net.cpp:168] Memory required for data: 157428096
I0703 18:41:12.978056  4872 layer_factory.hpp:76] Creating layer loss
I0703 18:41:12.978060  4872 net.cpp:109] Creating Layer loss
I0703 18:41:12.978062  4872 net.cpp:457] loss <- fc8_species_fc8_species_0_split_0
I0703 18:41:12.978065  4872 net.cpp:457] loss <- label_label_0_split_0
I0703 18:41:12.978067  4872 net.cpp:414] loss -> loss
…
