…
state {
phase: TRAIN
}
layer {
name: "data"
type: "Data"
top: "data"
include {
phase: TRAIN
}
transform_param {
mean_file: "/home/ffw/scratch/plantClef/scatnet_output/train/a4_m2_s1s2s4s8_f2/lmdb_mean_coeff.binaryproto"
}
data_param {
source: "/home/ffw/scratch/plantClef/scatnet_output/train/a4_m2_s1s2s4s8_f2/lmdb_data"
batch_size: 100
backend: LMDB
}
}
layer {
name: "label"
type: "Data"
top: "label"
include {
phase: TRAIN
}
data_param {
source: "/home/ffw/scratch/plantClef/scatnet_output/train/a4_m2_s1s2s4s8_f2/lmdb_labels"
batch_size: 100
backend: LMDB
}
}
layer {
name: "conv3"
type: "Convolution"
bottom: "data"
top: "conv3"
param {
lr_mult: 1
decay_mult: 1
}
param {
lr_mult: 2
decay_mult: 0
}
convolution_param {
num_output: 384
pad: 1
kernel_size: 3
weight_filler {
type: "gaussian"
std: 0.01
}
bias_filler {
type: "constant"
value: 0
}
}
}
layer {
name: "relu3"
type: "ReLU"
bottom: "conv3"
top: "conv3"
}
layer {
name: "conv4"
type: "Convolution"
bottom: "conv3"
top: "conv4"
param {
lr_mult: 1
decay_mult: 1
}
param {
lr_mult: 2
decay_mult: 0
}
convolution_param {
num_output: 384
pad: 1
kernel_size: 3
group: 2
weight_filler {
type: "gaussian"
std: 0.01
}
bias_filler {
type: "constant"
value: 0.1
}
}
}
layer {
name: "relu4"
type: "ReLU"
bottom: "conv4"
top: "conv4"
}
layer {
name: "conv5"
type: "Convolution"
bottom: "conv4"
top: "conv5"
param {
lr_mult: 1
decay_mult: 1
}
param {
lr_mult: 2
decay_mult: 0
}
convolution_param {
num_output: 256
pad: 1
kernel_size: 3
group: 1
weight_filler {
type: "gaussian"
std: 0.01
}
bias_filler {
type: "constant"
value: 0.1
}
}
}
layer {
name: "relu5"
type: "ReLU"
bottom: "conv5"
top: "conv5"
}
layer {
name: "pool5"
type: "Pooling"
bottom: "conv5"
top: "pool5"
pooling_param {
pool: MAX
kernel_size: 3
stride: 2
}
}
layer {
name: "fc6"
type: "InnerProduct"
bottom: "pool5"
top: "fc6"
param {
lr_mult: 1
decay_mult: 1
}
param {
lr_mult: 2
decay_mult: 0
}
inner_product_param {
num_output: 4096
weight_filler {
type: "gaussian"
std: 0.005
}
bias_filler {
type: "constant"
value: 0.1
}
}
}
layer {
name: "relu6"
type: "ReLU"
bottom: "fc6"
top: "fc6"
}
layer {
name: "drop6"
type: "Dropout"
bottom: "fc6"
top: "fc6"
dropout_param {
dropout_ratio: 0.5
}
}
layer {
name: "fc7"
type: "InnerProduct"
bottom: "fc6"
top: "fc7"
param {
lr_mult: 1
decay_mult: 1
}
param {
lr_mult: 2
decay_mult: 0
}
inner_product_param {
num_output: 4096
weight_filler {
type: "gaussian"
std: 0.005
}
bias_filler {
type: "constant"
value: 0.1
}
}
}
layer {
name: "relu7"
type: "ReLU"
bottom: "fc7"
top: "fc7"
}
layer {
name: "drop7"
type: "Dropout"
bottom: "fc7"
top: "fc7"
dropout_param {
dropout_ratio: 0.5
}
}
layer {
name: "fc8_species"
type: "InnerProduct"
bottom: "fc7"
top: "fc8_species"
param {
lr_mult: 1
decay_mult: 1
}
param {
lr_mult: 2
decay_mult: 0
}
inner_product_param {
num_output: 967
weight_filler {
type: "gaussian"
std: 0.005
}
bias_filler {
type: "constant"
value: 0.1
}
}
}
layer {
name: "loss"
type: "SoftmaxWithLoss"
bottom: "fc8_species"
bottom: "label"
top: "loss"
}
I0704 23:23:58.880931 31464 layer_factory.hpp:76] Creating layer data
I0704 23:23:58.881011 31464 net.cpp:109] Creating Layer data
I0704 23:23:58.881026 31464 net.cpp:414] data -> data
I0704 23:23:58.881036 31464 data_transformer.cpp:25] Loading mean file from: /home/ffw/scratch/plantClef/scatnet_output/train/a4_m2_s1s2s4s8_f2/lmdb_mean_coeff.binaryproto
I0704 23:23:58.882753 31476 db_lmdb.cpp:36] Opened lmdb /home/ffw/scratch/plantClef/scatnet_output/train/a4_m2_s1s2s4s8_f2/lmdb_data
I0704 23:23:58.882885 31464 data_layer.cpp:45] output data size: 100,339,19,19
I0704 23:23:58.936095 31464 net.cpp:153] Setting up data
I0704 23:23:58.936116 31464 net.cpp:160] Top shape: 100 339 19 19 (12237900)
I0704 23:23:58.936120 31464 net.cpp:168] Memory required for data: 48951600
I0704 23:23:58.936126 31464 layer_factory.hpp:76] Creating layer label
I0704 23:23:58.936190 31464 net.cpp:109] Creating Layer label
I0704 23:23:58.936195 31464 net.cpp:414] label -> label
I0704 23:23:58.937258 31478 db_lmdb.cpp:36] Opened lmdb /home/ffw/scratch/plantClef/scatnet_output/train/a4_m2_s1s2s4s8_f2/lmdb_labels
I0704 23:23:58.941092 31464 data_layer.cpp:45] output data size: 100,1,1,1
I0704 23:23:58.941170 31464 net.cpp:153] Setting up label
I0704 23:23:58.941176 31464 net.cpp:160] Top shape: 100 1 1 1 (100)
I0704 23:23:58.941179 31464 net.cpp:168] Memory required for data: 48952000
I0704 23:23:58.941181 31464 layer_factory.hpp:76] Creating layer conv3
I0704 23:23:58.941189 31464 net.cpp:109] Creating Layer conv3
I0704 23:23:58.941190 31464 net.cpp:457] conv3 <- data
I0704 23:23:58.941198 31464 net.cpp:414] conv3 -> conv3
I0704 23:23:58.964856 31464 net.cpp:153] Setting up conv3
I0704 23:23:58.964874 31464 net.cpp:160] Top shape: 100 384 19 19 (13862400)
I0704 23:23:58.964876 31464 net.cpp:168] Memory required for data: 104401600
I0704 23:23:58.964885 31464 layer_factory.hpp:76] Creating layer relu3
I0704 23:23:58.964891 31464 net.cpp:109] Creating Layer relu3
I0704 23:23:58.964895 31464 net.cpp:457] relu3 <- conv3
I0704 23:23:58.964897 31464 net.cpp:400] relu3 -> conv3 (in-place)
I0704 23:23:58.964910 31464 net.cpp:153] Setting up relu3
I0704 23:23:58.964913 31464 net.cpp:160] Top shape: 100 384 19 19 (13862400)
I0704 23:23:58.964915 31464 net.cpp:168] Memory required for data: 159851200
I0704 23:23:58.964926 31464 layer_factory.hpp:76] Creating layer conv4
I0704 23:23:58.964933 31464 net.cpp:109] Creating Layer conv4
I0704 23:23:58.964936 31464 net.cpp:457] conv4 <- conv3
I0704 23:23:58.964938 31464 net.cpp:414] conv4 -> conv4
I0704 23:23:58.977694 31464 net.cpp:153] Setting up conv4
I0704 23:23:58.977711 31464 net.cpp:160] Top shape: 100 384 19 19 (13862400)
I0704 23:23:58.977713 31464 net.cpp:168] Memory required for data: 215300800
I0704 23:23:58.977720 31464 layer_factory.hpp:76] Creating layer relu4
I0704 23:23:58.977727 31464 net.cpp:109] Creating Layer relu4
I0704 23:23:58.977730 31464 net.cpp:457] relu4 <- conv4
I0704 23:23:58.977735 31464 net.cpp:400] relu4 -> conv4 (in-place)
I0704 23:23:58.977740 31464 net.cpp:153] Setting up relu4
I0704 23:23:58.977742 31464 net.cpp:160] Top shape: 100 384 19 19 (13862400)
I0704 23:23:58.977743 31464 net.cpp:168] Memory required for data: 270750400
I0704 23:23:58.977746 31464 layer_factory.hpp:76] Creating layer conv5
I0704 23:23:58.977751 31464 net.cpp:109] Creating Layer conv5
I0704 23:23:58.977752 31464 net.cpp:457] conv5 <- conv4
I0704 23:23:58.977756 31464 net.cpp:414] conv5 -> conv5
I0704 23:23:58.995146 31464 net.cpp:153] Setting up conv5
I0704 23:23:58.995163 31464 net.cpp:160] Top shape: 100 256 19 19 (9241600)
I0704 23:23:58.995184 31464 net.cpp:168] Memory required for data: 307716800
I0704 23:23:58.995193 31464 layer_factory.hpp:76] Creating layer relu5
I0704 23:23:58.995198 31464 net.cpp:109] Creating Layer relu5
I0704 23:23:58.995200 31464 net.cpp:457] relu5 <- conv5
I0704 23:23:58.995204 31464 net.cpp:400] relu5 -> conv5 (in-place)
I0704 23:23:58.995210 31464 net.cpp:153] Setting up relu5
I0704 23:23:58.995213 31464 net.cpp:160] Top shape: 100 256 19 19 (9241600)
I0704 23:23:58.995213 31464 net.cpp:168] Memory required for data: 344683200
I0704 23:23:58.995215 31464 layer_factory.hpp:76] Creating layer pool5
I0704 23:23:58.995220 31464 net.cpp:109] Creating Layer pool5
I0704 23:23:58.995223 31464 net.cpp:457] pool5 <- conv5
I0704 23:23:58.995224 31464 net.cpp:414] pool5 -> pool5
I0704 23:23:58.995268 31464 net.cpp:153] Setting up pool5
I0704 23:23:58.995271 31464 net.cpp:160] Top shape: 100 256 9 9 (2073600)
I0704 23:23:58.995272 31464 net.cpp:168] Memory required for data: 352977600
I0704 23:23:58.995275 31464 layer_factory.hpp:76] Creating layer fc6
I0704 23:23:58.995278 31464 net.cpp:109] Creating Layer fc6
I0704 23:23:58.995280 31464 net.cpp:457] fc6 <- pool5
I0704 23:23:58.995283 31464 net.cpp:414] fc6 -> fc6
I0704 23:24:00.542237 31464 net.cpp:153] Setting up fc6
I0704 23:24:00.542256 31464 net.cpp:160] Top shape: 100 4096 (409600)
I0704 23:24:00.542258 31464 net.cpp:168] Memory required for data: 354616000
I0704 23:24:00.542263 31464 layer_factory.hpp:76] Creating layer relu6
I0704 23:24:00.542270 31464 net.cpp:109] Creating Layer relu6
I0704 23:24:00.542273 31464 net.cpp:457] relu6 <- fc6
I0704 23:24:00.542276 31464 net.cpp:400] relu6 -> fc6 (in-place)
I0704 23:24:00.542282 31464 net.cpp:153] Setting up relu6
I0704 23:24:00.542284 31464 net.cpp:160] Top shape: 100 4096 (409600)
I0704 23:24:00.542286 31464 net.cpp:168] Memory required for data: 356254400
I0704 23:24:00.542289 31464 layer_factory.hpp:76] Creating layer drop6
I0704 23:24:00.542297 31464 net.cpp:109] Creating Layer drop6
I0704 23:24:00.542299 31464 net.cpp:457] drop6 <- fc6
I0704 23:24:00.542301 31464 net.cpp:400] drop6 -> fc6 (in-place)
I0704 23:24:00.542315 31464 net.cpp:153] Setting up drop6
I0704 23:24:00.542318 31464 net.cpp:160] Top shape: 100 4096 (409600)
I0704 23:24:00.542320 31464 net.cpp:168] Memory required for data: 357892800
I0704 23:24:00.542321 31464 layer_factory.hpp:76] Creating layer fc7
I0704 23:24:00.542326 31464 net.cpp:109] Creating Layer fc7
I0704 23:24:00.542327 31464 net.cpp:457] fc7 <- fc6
I0704 23:24:00.542330 31464 net.cpp:414] fc7 -> fc7
I0704 23:24:00.844589 31464 net.cpp:153] Setting up fc7
I0704 23:24:00.844609 31464 net.cpp:160] Top shape: 100 4096 (409600)
I0704 23:24:00.844612 31464 net.cpp:168] Memory required for data: 359531200
I0704 23:24:00.844621 31464 layer_factory.hpp:76] Creating layer relu7
I0704 23:24:00.844629 31464 net.cpp:109] Creating Layer relu7
I0704 23:24:00.844632 31464 net.cpp:457] relu7 <- fc7
I0704 23:24:00.844636 31464 net.cpp:400] relu7 -> fc7 (in-place)
I0704 23:24:00.844645 31464 net.cpp:153] Setting up relu7
I0704 23:24:00.844647 31464 net.cpp:160] Top shape: 100 4096 (409600)
I0704 23:24:00.844650 31464 net.cpp:168] Memory required for data: 361169600
I0704 23:24:00.844651 31464 layer_factory.hpp:76] Creating layer drop7
I0704 23:24:00.844655 31464 net.cpp:109] Creating Layer drop7
I0704 23:24:00.844658 31464 net.cpp:457] drop7 <- fc7
I0704 23:24:00.844661 31464 net.cpp:400] drop7 -> fc7 (in-place)
I0704 23:24:00.844678 31464 net.cpp:153] Setting up drop7
I0704 23:24:00.844681 31464 net.cpp:160] Top shape: 100 4096 (409600)
I0704 23:24:00.844683 31464 net.cpp:168] Memory required for data: 362808000
I0704 23:24:00.844686 31464 layer_factory.hpp:76] Creating layer fc8_species
I0704 23:24:00.844689 31464 net.cpp:109] Creating Layer fc8_species
I0704 23:24:00.844691 31464 net.cpp:457] fc8_species <- fc7
I0704 23:24:00.844694 31464 net.cpp:414] fc8_species -> fc8_species
I0704 23:24:00.917345 31464 net.cpp:153] Setting up fc8_species
I0704 23:24:00.917363 31464 net.cpp:160] Top shape: 100 967 (96700)
I0704 23:24:00.917385 31464 net.cpp:168] Memory required for data: 363194800
I0704 23:24:00.917392 31464 layer_factory.hpp:76] Creating layer loss
I0704 23:24:00.917400 31464 net.cpp:109] Creating Layer loss
I0704 23:24:00.917404 31464 net.cpp:457] loss <- fc8_species
I0704 23:24:00.917407 31464 net.cpp:457] loss <- label
I0704 23:24:00.917412 31464 net.cpp:414] loss -> loss
I0704 23:24:00.917418 31464 layer_factory.hpp:76] Creating layer loss
…
state {
phase: TEST
}
layer {
name: "data"
type: "Data"
top: "data"
include {
phase: TEST
}
transform_param {
mean_file: "/home/ffw/scratch/plantClef/scatnet_output/train/a4_m2_s1s2s4s8_f2/lmdb_mean_coeff.binaryproto"
}
data_param {
source: "/home/ffw/scratch/plantClef/scatnet_output/test/a4_m2_s1s2s4s8_f2/lmdb_data"
batch_size: 100
backend: LMDB
}
}
layer {
name: "label"
type: "Data"
top: "label"
include {
phase: TEST
}
data_param {
source: "/home/ffw/scratch/plantClef/scatnet_output/test/a4_m2_s1s2s4s8_f2/lmdb_labels"
batch_size: 100
backend: LMDB
}
}
layer {
name: "conv3"
type: "Convolution"
bottom: "data"
top: "conv3"
param {
lr_mult: 1
decay_mult: 1
}
param {
lr_mult: 2
decay_mult: 0
}
convolution_param {
num_output: 384
pad: 1
kernel_size: 3
weight_filler {
type: "gaussian"
std: 0.01
}
bias_filler {
type: "constant"
value: 0
}
}
}
layer {
name: "relu3"
type: "ReLU"
bottom: "conv3"
top: "conv3"
}
layer {
name: "conv4"
type: "Convolution"
bottom: "conv3"
top: "conv4"
param {
lr_mult: 1
decay_mult: 1
}
param {
lr_mult: 2
decay_mult: 0
}
convolution_param {
num_output: 384
pad: 1
kernel_size: 3
group: 2
weight_filler {
type: "gaussian"
std: 0.01
}
bias_filler {
type: "constant"
value: 0.1
}
}
}
layer {
name: "relu4"
type: "ReLU"
bottom: "conv4"
top: "conv4"
}
layer {
name: "conv5"
type: "Convolution"
bottom: "conv4"
top: "conv5"
param {
lr_mult: 1
decay_mult: 1
}
param {
lr_mult: 2
decay_mult: 0
}
convolution_param {
num_output: 256
pad: 1
kernel_size: 3
group: 1
weight_filler {
type: "gaussian"
std: 0.01
}
bias_filler {
type: "constant"
value: 0.1
}
}
}
layer {
name: "relu5"
type: "ReLU"
bottom: "conv5"
top: "conv5"
}
layer {
name: "pool5"
type: "Pooling"
bottom: "conv5"
top: "pool5"
pooling_param {
pool: MAX
kernel_size: 3
stride: 2
}
}
layer {
name: "fc6"
type: "InnerProduct"
bottom: "pool5"
top: "fc6"
param {
lr_mult: 1
decay_mult: 1
}
param {
lr_mult: 2
decay_mult: 0
}
inner_product_param {
num_output: 4096
weight_filler {
type: "gaussian"
std: 0.005
}
bias_filler {
type: "constant"
value: 0.1
}
}
}
layer {
name: "relu6"
type: "ReLU"
bottom: "fc6"
top: "fc6"
}
layer {
name: "drop6"
type: "Dropout"
bottom: "fc6"
top: "fc6"
dropout_param {
dropout_ratio: 0.5
}
}
layer {
name: "fc7"
type: "InnerProduct"
bottom: "fc6"
top: "fc7"
param {
lr_mult: 1
decay_mult: 1
}
param {
lr_mult: 2
decay_mult: 0
}
inner_product_param {
num_output: 4096
weight_filler {
type: "gaussian"
std: 0.005
}
bias_filler {
type: "constant"
value: 0.1
}
}
}
layer {
name: "relu7"
type: "ReLU"
bottom: "fc7"
top: "fc7"
}
layer {
name: "drop7"
type: "Dropout"
bottom: "fc7"
top: "fc7"
dropout_param {
dropout_ratio: 0.5
}
}
layer {
name: "fc8_species"
type: "InnerProduct"
bottom: "fc7"
top: "fc8_species"
param {
lr_mult: 1
decay_mult: 1
}
param {
lr_mult: 2
decay_mult: 0
}
inner_product_param {
num_output: 967
weight_filler {
type: "gaussian"
std: 0.005
}
bias_filler {
type: "constant"
value: 0.1
}
}
}
layer {
name: "loss"
type: "SoftmaxWithLoss"
bottom: "fc8_species"
bottom: "label"
top: "loss"
}
layer {
name: "accuracy"
type: "Accuracy"
bottom: "fc8_species"
bottom: "label"
top: "accuracy"
include {
phase: TEST
}
}
I0704 23:24:00.918479 31464 layer_factory.hpp:76] Creating layer data
I0704 23:24:00.918555 31464 net.cpp:109] Creating Layer data
I0704 23:24:00.918558 31464 net.cpp:414] data -> data
I0704 23:24:00.918565 31464 data_transformer.cpp:25] Loading mean file from: /home/ffw/scratch/plantClef/scatnet_output/train/a4_m2_s1s2s4s8_f2/lmdb_mean_coeff.binaryproto
I0704 23:24:00.919634 31481 db_lmdb.cpp:36] Opened lmdb /home/ffw/scratch/plantClef/scatnet_output/test/a4_m2_s1s2s4s8_f2/lmdb_data
I0704 23:24:00.919925 31464 data_layer.cpp:45] output data size: 100,339,19,19
I0704 23:24:00.972368 31464 net.cpp:153] Setting up data
I0704 23:24:00.972385 31464 net.cpp:160] Top shape: 100 339 19 19 (12237900)
I0704 23:24:00.972388 31464 net.cpp:168] Memory required for data: 48951600
I0704 23:24:00.972391 31464 layer_factory.hpp:76] Creating layer label
I0704 23:24:00.972445 31464 net.cpp:109] Creating Layer label
I0704 23:24:00.972460 31464 net.cpp:414] label -> label
I0704 23:24:00.973799 31483 db_lmdb.cpp:36] Opened lmdb /home/ffw/scratch/plantClef/scatnet_output/test/a4_m2_s1s2s4s8_f2/lmdb_labels
I0704 23:24:00.977679 31464 data_layer.cpp:45] output data size: 100,1,1,1
I0704 23:24:00.977767 31464 net.cpp:153] Setting up label
I0704 23:24:00.977773 31464 net.cpp:160] Top shape: 100 1 1 1 (100)
I0704 23:24:00.977776 31464 net.cpp:168] Memory required for data: 48952000
I0704 23:24:00.977777 31464 layer_factory.hpp:76] Creating layer label_label_0_split
I0704 23:24:00.977787 31464 net.cpp:109] Creating Layer label_label_0_split
I0704 23:24:00.977788 31464 net.cpp:457] label_label_0_split <- label
I0704 23:24:00.977792 31464 net.cpp:414] label_label_0_split -> label_label_0_split_0
I0704 23:24:00.977795 31464 net.cpp:414] label_label_0_split -> label_label_0_split_1
I0704 23:24:00.977838 31464 net.cpp:153] Setting up label_label_0_split
I0704 23:24:00.977843 31464 net.cpp:160] Top shape: 100 1 1 1 (100)
I0704 23:24:00.977844 31464 net.cpp:160] Top shape: 100 1 1 1 (100)
I0704 23:24:00.977846 31464 net.cpp:168] Memory required for data: 48952800
I0704 23:24:00.977849 31464 layer_factory.hpp:76] Creating layer conv3
I0704 23:24:00.977854 31464 net.cpp:109] Creating Layer conv3
I0704 23:24:00.977855 31464 net.cpp:457] conv3 <- data
I0704 23:24:00.977859 31464 net.cpp:414] conv3 -> conv3
I0704 23:24:01.000949 31464 net.cpp:153] Setting up conv3
I0704 23:24:01.000968 31464 net.cpp:160] Top shape: 100 384 19 19 (13862400)
I0704 23:24:01.000970 31464 net.cpp:168] Memory required for data: 104402400
I0704 23:24:01.000977 31464 layer_factory.hpp:76] Creating layer relu3
I0704 23:24:01.000984 31464 net.cpp:109] Creating Layer relu3
I0704 23:24:01.000986 31464 net.cpp:457] relu3 <- conv3
I0704 23:24:01.000990 31464 net.cpp:400] relu3 -> conv3 (in-place)
I0704 23:24:01.000995 31464 net.cpp:153] Setting up relu3
I0704 23:24:01.000998 31464 net.cpp:160] Top shape: 100 384 19 19 (13862400)
I0704 23:24:01.000999 31464 net.cpp:168] Memory required for data: 159852000
I0704 23:24:01.001001 31464 layer_factory.hpp:76] Creating layer conv4
I0704 23:24:01.001006 31464 net.cpp:109] Creating Layer conv4
I0704 23:24:01.001008 31464 net.cpp:457] conv4 <- conv3
I0704 23:24:01.001011 31464 net.cpp:414] conv4 -> conv4
I0704 23:24:01.013820 31464 net.cpp:153] Setting up conv4
I0704 23:24:01.013840 31464 net.cpp:160] Top shape: 100 384 19 19 (13862400)
I0704 23:24:01.013842 31464 net.cpp:168] Memory required for data: 215301600
I0704 23:24:01.013850 31464 layer_factory.hpp:76] Creating layer relu4
I0704 23:24:01.013857 31464 net.cpp:109] Creating Layer relu4
I0704 23:24:01.013859 31464 net.cpp:457] relu4 <- conv4
I0704 23:24:01.013864 31464 net.cpp:400] relu4 -> conv4 (in-place)
I0704 23:24:01.013870 31464 net.cpp:153] Setting up relu4
I0704 23:24:01.013872 31464 net.cpp:160] Top shape: 100 384 19 19 (13862400)
I0704 23:24:01.013873 31464 net.cpp:168] Memory required for data: 270751200
I0704 23:24:01.013875 31464 layer_factory.hpp:76] Creating layer conv5
I0704 23:24:01.013880 31464 net.cpp:109] Creating Layer conv5
I0704 23:24:01.013882 31464 net.cpp:457] conv5 <- conv4
I0704 23:24:01.013885 31464 net.cpp:414] conv5 -> conv5
I0704 23:24:01.030829 31464 net.cpp:153] Setting up conv5
I0704 23:24:01.030858 31464 net.cpp:160] Top shape: 100 256 19 19 (9241600)
I0704 23:24:01.030860 31464 net.cpp:168] Memory required for data: 307717600
I0704 23:24:01.030867 31464 layer_factory.hpp:76] Creating layer relu5
I0704 23:24:01.030874 31464 net.cpp:109] Creating Layer relu5
I0704 23:24:01.030877 31464 net.cpp:457] relu5 <- conv5
I0704 23:24:01.030880 31464 net.cpp:400] relu5 -> conv5 (in-place)
I0704 23:24:01.030886 31464 net.cpp:153] Setting up relu5
I0704 23:24:01.030889 31464 net.cpp:160] Top shape: 100 256 19 19 (9241600)
I0704 23:24:01.030889 31464 net.cpp:168] Memory required for data: 344684000
I0704 23:24:01.030891 31464 layer_factory.hpp:76] Creating layer pool5
I0704 23:24:01.030895 31464 net.cpp:109] Creating Layer pool5
I0704 23:24:01.030897 31464 net.cpp:457] pool5 <- conv5
I0704 23:24:01.030900 31464 net.cpp:414] pool5 -> pool5
I0704 23:24:01.030920 31464 net.cpp:153] Setting up pool5
I0704 23:24:01.030922 31464 net.cpp:160] Top shape: 100 256 9 9 (2073600)
I0704 23:24:01.030925 31464 net.cpp:168] Memory required for data: 352978400
I0704 23:24:01.030925 31464 layer_factory.hpp:76] Creating layer fc6
I0704 23:24:01.030930 31464 net.cpp:109] Creating Layer fc6
I0704 23:24:01.030932 31464 net.cpp:457] fc6 <- pool5
I0704 23:24:01.030935 31464 net.cpp:414] fc6 -> fc6
I0704 23:24:02.573097 31464 net.cpp:153] Setting up fc6
I0704 23:24:02.573117 31464 net.cpp:160] Top shape: 100 4096 (409600)
I0704 23:24:02.573122 31464 net.cpp:168] Memory required for data: 354616800
I0704 23:24:02.573127 31464 layer_factory.hpp:76] Creating layer relu6
I0704 23:24:02.573134 31464 net.cpp:109] Creating Layer relu6
I0704 23:24:02.573156 31464 net.cpp:457] relu6 <- fc6
I0704 23:24:02.573161 31464 net.cpp:400] relu6 -> fc6 (in-place)
I0704 23:24:02.573168 31464 net.cpp:153] Setting up relu6
I0704 23:24:02.573171 31464 net.cpp:160] Top shape: 100 4096 (409600)
I0704 23:24:02.573173 31464 net.cpp:168] Memory required for data: 356255200
I0704 23:24:02.573174 31464 layer_factory.hpp:76] Creating layer drop6
I0704 23:24:02.573179 31464 net.cpp:109] Creating Layer drop6
I0704 23:24:02.573181 31464 net.cpp:457] drop6 <- fc6
I0704 23:24:02.573184 31464 net.cpp:400] drop6 -> fc6 (in-place)
I0704 23:24:02.573204 31464 net.cpp:153] Setting up drop6
I0704 23:24:02.573207 31464 net.cpp:160] Top shape: 100 4096 (409600)
I0704 23:24:02.573210 31464 net.cpp:168] Memory required for data: 357893600
I0704 23:24:02.573211 31464 layer_factory.hpp:76] Creating layer fc7
I0704 23:24:02.573215 31464 net.cpp:109] Creating Layer fc7
I0704 23:24:02.573217 31464 net.cpp:457] fc7 <- fc6
I0704 23:24:02.573220 31464 net.cpp:414] fc7 -> fc7
I0704 23:24:02.880880 31464 net.cpp:153] Setting up fc7
I0704 23:24:02.880900 31464 net.cpp:160] Top shape: 100 4096 (409600)
I0704 23:24:02.880903 31464 net.cpp:168] Memory required for data: 359532000
I0704 23:24:02.880913 31464 layer_factory.hpp:76] Creating layer relu7
I0704 23:24:02.880919 31464 net.cpp:109] Creating Layer relu7
I0704 23:24:02.880923 31464 net.cpp:457] relu7 <- fc7
I0704 23:24:02.880926 31464 net.cpp:400] relu7 -> fc7 (in-place)
I0704 23:24:02.880934 31464 net.cpp:153] Setting up relu7
I0704 23:24:02.880936 31464 net.cpp:160] Top shape: 100 4096 (409600)
I0704 23:24:02.880939 31464 net.cpp:168] Memory required for data: 361170400
I0704 23:24:02.880940 31464 layer_factory.hpp:76] Creating layer drop7
I0704 23:24:02.880944 31464 net.cpp:109] Creating Layer drop7
I0704 23:24:02.880946 31464 net.cpp:457] drop7 <- fc7
I0704 23:24:02.880949 31464 net.cpp:400] drop7 -> fc7 (in-place)
I0704 23:24:02.880969 31464 net.cpp:153] Setting up drop7
I0704 23:24:02.880972 31464 net.cpp:160] Top shape: 100 4096 (409600)
I0704 23:24:02.880973 31464 net.cpp:168] Memory required for data: 362808800
I0704 23:24:02.880975 31464 layer_factory.hpp:76] Creating layer fc8_species
I0704 23:24:02.880981 31464 net.cpp:109] Creating Layer fc8_species
I0704 23:24:02.880983 31464 net.cpp:457] fc8_species <- fc7
I0704 23:24:02.880986 31464 net.cpp:414] fc8_species -> fc8_species
I0704 23:24:02.955245 31464 net.cpp:153] Setting up fc8_species
I0704 23:24:02.955265 31464 net.cpp:160] Top shape: 100 967 (96700)
I0704 23:24:02.955267 31464 net.cpp:168] Memory required for data: 363195600
I0704 23:24:02.955272 31464 layer_factory.hpp:76] Creating layer fc8_species_fc8_species_0_split
I0704 23:24:02.955277 31464 net.cpp:109] Creating Layer fc8_species_fc8_species_0_split
I0704 23:24:02.955281 31464 net.cpp:457] fc8_species_fc8_species_0_split <- fc8_species
I0704 23:24:02.955284 31464 net.cpp:414] fc8_species_fc8_species_0_split -> fc8_species_fc8_species_0_split_0
I0704 23:24:02.955291 31464 net.cpp:414] fc8_species_fc8_species_0_split -> fc8_species_fc8_species_0_split_1
I0704 23:24:02.955314 31464 net.cpp:153] Setting up fc8_species_fc8_species_0_split
I0704 23:24:02.955317 31464 net.cpp:160] Top shape: 100 967 (96700)
I0704 23:24:02.955319 31464 net.cpp:160] Top shape: 100 967 (96700)
I0704 23:24:02.955320 31464 net.cpp:168] Memory required for data: 363969200
I0704 23:24:02.955322 31464 layer_factory.hpp:76] Creating layer loss
I0704 23:24:02.955325 31464 net.cpp:109] Creating Layer loss
I0704 23:24:02.955327 31464 net.cpp:457] loss <- fc8_species_fc8_species_0_split_0
I0704 23:24:02.955329 31464 net.cpp:457] loss <- label_label_0_split_0
I0704 23:24:02.955332 31464 net.cpp:414] loss -> loss
…
