…
I0708 00:38:50.691715  1519 net.cpp:325] The NetState phase (0) differed from the phase (1) specified by a rule in layer accuracy
I0708 00:38:50.691915  1519 net.cpp:52] Initializing net from parameters:
state {
phase: TRAIN
}
layer {
name: "train-data"
type: "Data"
top: "data"
top: "label"
include {
phase: TRAIN
}
transform_param {
mirror: true
crop_size: 227
mean_file: "/home/zml374/workspace/DIGITS/digits/jobs/20160704-085910-0cc9/mean.binaryproto"
}
data_param {
source: "/home/zml374/workspace/DIGITS/digits/jobs/20160704-085910-0cc9/train_db"
batch_size: 500
backend: LMDB
}
}
layer {
name: "conv1"
type: "Convolution"
bottom: "data"
top: "conv1"
param {
lr_mult: 0
decay_mult: 0
}
param {
lr_mult: 0
decay_mult: 0
}
convolution_param {
num_output: 96
kernel_size: 11
stride: 4
weight_filler {
type: "gaussian"
std: 0.01
}
bias_filler {
type: "constant"
value: 0
}
}
}
layer {
name: "relu1"
type: "ReLU"
bottom: "conv1"
top: "conv1"
}
layer {
name: "norm1"
type: "LRN"
bottom: "conv1"
top: "norm1"
lrn_param {
local_size: 5
alpha: 0.0001
beta: 0.75
}
}
layer {
name: "pool1"
type: "Pooling"
bottom: "norm1"
top: "pool1"
pooling_param {
pool: MAX
kernel_size: 3
stride: 2
}
}
layer {
name: "conv2"
type: "Convolution"
bottom: "pool1"
top: "conv2"
param {
lr_mult: 0
decay_mult: 0
}
param {
lr_mult: 0
decay_mult: 0
}
convolution_param {
num_output: 256
pad: 2
kernel_size: 5
group: 2
weight_filler {
type: "gaussian"
std: 0.01
}
bias_filler {
type: "constant"
value: 0.1
}
}
}
layer {
name: "relu2"
type: "ReLU"
bottom: "conv2"
top: "conv2"
}
layer {
name: "norm2"
type: "LRN"
bottom: "conv2"
top: "norm2"
lrn_param {
local_size: 5
alpha: 0.0001
beta: 0.75
}
}
layer {
name: "pool2"
type: "Pooling"
bottom: "norm2"
top: "pool2"
pooling_param {
pool: MAX
kernel_size: 3
stride: 2
}
}
layer {
name: "conv3"
type: "Convolution"
bottom: "pool2"
top: "conv3"
param {
lr_mult: 0
decay_mult: 0
}
param {
lr_mult: 0
decay_mult: 0
}
convolution_param {
num_output: 384
pad: 1
kernel_size: 3
weight_filler {
type: "gaussian"
std: 0.01
}
bias_filler {
type: "constant"
value: 0
}
}
}
layer {
name: "relu3"
type: "ReLU"
bottom: "conv3"
top: "conv3"
}
layer {
name: "conv4"
type: "Convolution"
bottom: "conv3"
top: "conv4"
param {
lr_mult: 0
decay_mult: 0
}
param {
lr_mult: 0
decay_mult: 0
}
convolution_param {
num_output: 384
pad: 1
kernel_size: 3
group: 2
weight_filler {
type: "gaussian"
std: 0.01
}
bias_filler {
type: "constant"
value: 0.1
}
}
}
layer {
name: "relu4"
type: "ReLU"
bottom: "conv4"
top: "conv4"
}
layer {
name: "conv5"
type: "Convolution"
bottom: "conv4"
top: "conv5"
param {
lr_mult: 0
decay_mult: 0
}
param {
lr_mult: 0
decay_mult: 0
}
convolution_param {
num_output: 256
pad: 1
kernel_size: 3
group: 2
weight_filler {
type: "gaussian"
std: 0.01
}
bias_filler {
type: "constant"
value: 0.1
}
}
}
layer {
name: "relu5"
type: "ReLU"
bottom: "conv5"
top: "conv5"
}
layer {
name: "pool5"
type: "Pooling"
bottom: "conv5"
top: "pool5"
pooling_param {
pool: MAX
kernel_size: 3
stride: 2
}
}
layer {
name: "fc6"
type: "InnerProduct"
bottom: "pool5"
top: "fc6"
param {
lr_mult: 0
decay_mult: 0
}
param {
lr_mult: 0
decay_mult: 0
}
inner_product_param {
num_output: 4096
weight_filler {
type: "gaussian"
std: 0.005
}
bias_filler {
type: "constant"
value: 0.1
}
}
}
layer {
name: "relu6"
type: "ReLU"
bottom: "fc6"
top: "fc6"
}
layer {
name: "drop6"
type: "Dropout"
bottom: "fc6"
top: "fc6"
dropout_param {
dropout_ratio: 0.5
}
}
layer {
name: "fc7"
type: "InnerProduct"
bottom: "fc6"
top: "fc7"
param {
lr_mult: 0
decay_mult: 0
}
param {
lr_mult: 0
decay_mult: 0
}
inner_product_param {
num_output: 4096
weight_filler {
type: "gaussian"
std: 0.005
}
bias_filler {
type: "constant"
value: 0.1
}
}
}
layer {
name: "relu7"
type: "ReLU"
bottom: "fc7"
top: "fc7"
}
layer {
name: "drop7"
type: "Dropout"
bottom: "fc7"
top: "fc7"
dropout_param {
dropout_ratio: 0.5
}
}
layer {
name: "fc8_clean"
type: "InnerProduct"
bottom: "fc7"
top: "fc8_clean"
param {
lr_mult: 1
decay_mult: 1
}
param {
lr_mult: 2
decay_mult: 0
}
inner_product_param {
num_output: 967
weight_filler {
type: "gaussian"
std: 0.01
}
bias_filler {
type: "constant"
value: 0
}
}
}
layer {
name: "loss"
type: "SoftmaxWithLoss"
bottom: "fc8_clean"
bottom: "label"
top: "loss"
}
I0708 00:38:50.692052  1519 layer_factory.hpp:76] Creating layer train-data
I0708 00:38:50.692842  1519 net.cpp:109] Creating Layer train-data
I0708 00:38:50.692855  1519 net.cpp:414] train-data -> data
I0708 00:38:50.692891  1519 net.cpp:414] train-data -> label
I0708 00:38:50.692936  1519 data_transformer.cpp:25] Loading mean file from: /home/zml374/workspace/DIGITS/digits/jobs/20160704-085910-0cc9/mean.binaryproto
I0708 00:38:50.695180  1550 db_lmdb.cpp:36] Opened lmdb /home/zml374/workspace/DIGITS/digits/jobs/20160704-085910-0cc9/train_db
I0708 00:38:50.701056  1519 data_layer.cpp:45] output data size: 500,3,227,227
I0708 00:38:51.435153  1519 net.cpp:153] Setting up train-data
I0708 00:38:51.435225  1519 net.cpp:160] Top shape: 500 3 227 227 (77293500)
I0708 00:38:51.435235  1519 net.cpp:160] Top shape: 500 (500)
I0708 00:38:51.435240  1519 net.cpp:168] Memory required for data: 309176000
I0708 00:38:51.435264  1519 layer_factory.hpp:76] Creating layer conv1
I0708 00:38:51.435291  1519 net.cpp:109] Creating Layer conv1
I0708 00:38:51.435298  1519 net.cpp:457] conv1 <- data
I0708 00:38:51.435317  1519 net.cpp:414] conv1 -> conv1
I0708 00:38:51.438673  1519 net.cpp:153] Setting up conv1
I0708 00:38:51.438693  1519 net.cpp:160] Top shape: 500 96 55 55 (145200000)
I0708 00:38:51.438699  1519 net.cpp:168] Memory required for data: 889976000
I0708 00:38:51.438717  1519 layer_factory.hpp:76] Creating layer relu1
I0708 00:38:51.438732  1519 net.cpp:109] Creating Layer relu1
I0708 00:38:51.438738  1519 net.cpp:457] relu1 <- conv1
I0708 00:38:51.438747  1519 net.cpp:400] relu1 -> conv1 (in-place)
I0708 00:38:51.438771  1519 net.cpp:153] Setting up relu1
I0708 00:38:51.438778  1519 net.cpp:160] Top shape: 500 96 55 55 (145200000)
I0708 00:38:51.438783  1519 net.cpp:168] Memory required for data: 1470776000
I0708 00:38:51.438789  1519 layer_factory.hpp:76] Creating layer norm1
I0708 00:38:51.438805  1519 net.cpp:109] Creating Layer norm1
I0708 00:38:51.438812  1519 net.cpp:457] norm1 <- conv1
I0708 00:38:51.438818  1519 net.cpp:414] norm1 -> norm1
I0708 00:38:51.439424  1519 net.cpp:153] Setting up norm1
I0708 00:38:51.439438  1519 net.cpp:160] Top shape: 500 96 55 55 (145200000)
I0708 00:38:51.439443  1519 net.cpp:168] Memory required for data: 2051576000
I0708 00:38:51.439448  1519 layer_factory.hpp:76] Creating layer pool1
I0708 00:38:51.439461  1519 net.cpp:109] Creating Layer pool1
I0708 00:38:51.439510  1519 net.cpp:457] pool1 <- norm1
I0708 00:38:51.439519  1519 net.cpp:414] pool1 -> pool1
I0708 00:38:51.439596  1519 net.cpp:153] Setting up pool1
I0708 00:38:51.439610  1519 net.cpp:160] Top shape: 500 96 27 27 (34992000)
I0708 00:38:51.439615  1519 net.cpp:168] Memory required for data: 2191544000
I0708 00:38:51.439620  1519 layer_factory.hpp:76] Creating layer conv2
I0708 00:38:51.439632  1519 net.cpp:109] Creating Layer conv2
I0708 00:38:51.439637  1519 net.cpp:457] conv2 <- pool1
I0708 00:38:51.439647  1519 net.cpp:414] conv2 -> conv2
I0708 00:38:51.473083  1519 net.cpp:153] Setting up conv2
I0708 00:38:51.473098  1519 net.cpp:160] Top shape: 500 256 27 27 (93312000)
I0708 00:38:51.473104  1519 net.cpp:168] Memory required for data: 2564792000
I0708 00:38:51.473115  1519 layer_factory.hpp:76] Creating layer relu2
I0708 00:38:51.473124  1519 net.cpp:109] Creating Layer relu2
I0708 00:38:51.473130  1519 net.cpp:457] relu2 <- conv2
I0708 00:38:51.473137  1519 net.cpp:400] relu2 -> conv2 (in-place)
I0708 00:38:51.473147  1519 net.cpp:153] Setting up relu2
I0708 00:38:51.473153  1519 net.cpp:160] Top shape: 500 256 27 27 (93312000)
I0708 00:38:51.473158  1519 net.cpp:168] Memory required for data: 2938040000
I0708 00:38:51.473162  1519 layer_factory.hpp:76] Creating layer norm2
I0708 00:38:51.473172  1519 net.cpp:109] Creating Layer norm2
I0708 00:38:51.473176  1519 net.cpp:457] norm2 <- conv2
I0708 00:38:51.473184  1519 net.cpp:414] norm2 -> norm2
I0708 00:38:51.473228  1519 net.cpp:153] Setting up norm2
I0708 00:38:51.473237  1519 net.cpp:160] Top shape: 500 256 27 27 (93312000)
I0708 00:38:51.473242  1519 net.cpp:168] Memory required for data: 3311288000
I0708 00:38:51.473247  1519 layer_factory.hpp:76] Creating layer pool2
I0708 00:38:51.473256  1519 net.cpp:109] Creating Layer pool2
I0708 00:38:51.473261  1519 net.cpp:457] pool2 <- norm2
I0708 00:38:51.473268  1519 net.cpp:414] pool2 -> pool2
I0708 00:38:51.473307  1519 net.cpp:153] Setting up pool2
I0708 00:38:51.473317  1519 net.cpp:160] Top shape: 500 256 13 13 (21632000)
I0708 00:38:51.473321  1519 net.cpp:168] Memory required for data: 3397816000
I0708 00:38:51.473326  1519 layer_factory.hpp:76] Creating layer conv3
I0708 00:38:51.473337  1519 net.cpp:109] Creating Layer conv3
I0708 00:38:51.473342  1519 net.cpp:457] conv3 <- pool2
I0708 00:38:51.473351  1519 net.cpp:414] conv3 -> conv3
I0708 00:38:51.517704  1519 net.cpp:153] Setting up conv3
I0708 00:38:51.517720  1519 net.cpp:160] Top shape: 500 384 13 13 (32448000)
I0708 00:38:51.517726  1519 net.cpp:168] Memory required for data: 3527608000
I0708 00:38:51.517738  1519 layer_factory.hpp:76] Creating layer relu3
I0708 00:38:51.517747  1519 net.cpp:109] Creating Layer relu3
I0708 00:38:51.517752  1519 net.cpp:457] relu3 <- conv3
I0708 00:38:51.517773  1519 net.cpp:400] relu3 -> conv3 (in-place)
I0708 00:38:51.517784  1519 net.cpp:153] Setting up relu3
I0708 00:38:51.517791  1519 net.cpp:160] Top shape: 500 384 13 13 (32448000)
I0708 00:38:51.517796  1519 net.cpp:168] Memory required for data: 3657400000
I0708 00:38:51.517802  1519 layer_factory.hpp:76] Creating layer conv4
I0708 00:38:51.517813  1519 net.cpp:109] Creating Layer conv4
I0708 00:38:51.517819  1519 net.cpp:457] conv4 <- conv3
I0708 00:38:51.517828  1519 net.cpp:414] conv4 -> conv4
I0708 00:38:51.545300  1519 net.cpp:153] Setting up conv4
I0708 00:38:51.545316  1519 net.cpp:160] Top shape: 500 384 13 13 (32448000)
I0708 00:38:51.545321  1519 net.cpp:168] Memory required for data: 3787192000
I0708 00:38:51.545331  1519 layer_factory.hpp:76] Creating layer relu4
I0708 00:38:51.545339  1519 net.cpp:109] Creating Layer relu4
I0708 00:38:51.545344  1519 net.cpp:457] relu4 <- conv4
I0708 00:38:51.545351  1519 net.cpp:400] relu4 -> conv4 (in-place)
I0708 00:38:51.545361  1519 net.cpp:153] Setting up relu4
I0708 00:38:51.545367  1519 net.cpp:160] Top shape: 500 384 13 13 (32448000)
I0708 00:38:51.545372  1519 net.cpp:168] Memory required for data: 3916984000
I0708 00:38:51.545377  1519 layer_factory.hpp:76] Creating layer conv5
I0708 00:38:51.545387  1519 net.cpp:109] Creating Layer conv5
I0708 00:38:51.545408  1519 net.cpp:457] conv5 <- conv4
I0708 00:38:51.545418  1519 net.cpp:414] conv5 -> conv5
I0708 00:38:51.562463  1519 net.cpp:153] Setting up conv5
I0708 00:38:51.562479  1519 net.cpp:160] Top shape: 500 256 13 13 (21632000)
I0708 00:38:51.562484  1519 net.cpp:168] Memory required for data: 4003512000
I0708 00:38:51.562495  1519 layer_factory.hpp:76] Creating layer relu5
I0708 00:38:51.562505  1519 net.cpp:109] Creating Layer relu5
I0708 00:38:51.562510  1519 net.cpp:457] relu5 <- conv5
I0708 00:38:51.562518  1519 net.cpp:400] relu5 -> conv5 (in-place)
I0708 00:38:51.562527  1519 net.cpp:153] Setting up relu5
I0708 00:38:51.562533  1519 net.cpp:160] Top shape: 500 256 13 13 (21632000)
I0708 00:38:51.562538  1519 net.cpp:168] Memory required for data: 4090040000
I0708 00:38:51.562542  1519 layer_factory.hpp:76] Creating layer pool5
I0708 00:38:51.562551  1519 net.cpp:109] Creating Layer pool5
I0708 00:38:51.562556  1519 net.cpp:457] pool5 <- conv5
I0708 00:38:51.562562  1519 net.cpp:414] pool5 -> pool5
I0708 00:38:51.562608  1519 net.cpp:153] Setting up pool5
I0708 00:38:51.562618  1519 net.cpp:160] Top shape: 500 256 6 6 (4608000)
I0708 00:38:51.562621  1519 net.cpp:168] Memory required for data: 4108472000
I0708 00:38:51.562626  1519 layer_factory.hpp:76] Creating layer fc6
I0708 00:38:51.562639  1519 net.cpp:109] Creating Layer fc6
I0708 00:38:51.562644  1519 net.cpp:457] fc6 <- pool5
I0708 00:38:51.562654  1519 net.cpp:414] fc6 -> fc6
I0708 00:38:52.995332  1519 net.cpp:153] Setting up fc6
I0708 00:38:52.995374  1519 net.cpp:160] Top shape: 500 4096 (2048000)
I0708 00:38:52.995380  1519 net.cpp:168] Memory required for data: 4116664000
I0708 00:38:52.995393  1519 layer_factory.hpp:76] Creating layer relu6
I0708 00:38:52.995409  1519 net.cpp:109] Creating Layer relu6
I0708 00:38:52.995419  1519 net.cpp:457] relu6 <- fc6
I0708 00:38:52.995432  1519 net.cpp:400] relu6 -> fc6 (in-place)
I0708 00:38:52.995448  1519 net.cpp:153] Setting up relu6
I0708 00:38:52.995455  1519 net.cpp:160] Top shape: 500 4096 (2048000)
I0708 00:38:52.995460  1519 net.cpp:168] Memory required for data: 4124856000
I0708 00:38:52.995465  1519 layer_factory.hpp:76] Creating layer drop6
I0708 00:38:52.995488  1519 net.cpp:109] Creating Layer drop6
I0708 00:38:52.995493  1519 net.cpp:457] drop6 <- fc6
I0708 00:38:52.995501  1519 net.cpp:400] drop6 -> fc6 (in-place)
I0708 00:38:52.995537  1519 net.cpp:153] Setting up drop6
I0708 00:38:52.995545  1519 net.cpp:160] Top shape: 500 4096 (2048000)
I0708 00:38:52.995550  1519 net.cpp:168] Memory required for data: 4133048000
I0708 00:38:52.995555  1519 layer_factory.hpp:76] Creating layer fc7
I0708 00:38:52.995568  1519 net.cpp:109] Creating Layer fc7
I0708 00:38:52.995571  1519 net.cpp:457] fc7 <- fc6
I0708 00:38:52.995579  1519 net.cpp:414] fc7 -> fc7
I0708 00:38:53.647603  1519 net.cpp:153] Setting up fc7
I0708 00:38:53.647644  1519 net.cpp:160] Top shape: 500 4096 (2048000)
I0708 00:38:53.647650  1519 net.cpp:168] Memory required for data: 4141240000
I0708 00:38:53.647662  1519 layer_factory.hpp:76] Creating layer relu7
I0708 00:38:53.647677  1519 net.cpp:109] Creating Layer relu7
I0708 00:38:53.647685  1519 net.cpp:457] relu7 <- fc7
I0708 00:38:53.647696  1519 net.cpp:400] relu7 -> fc7 (in-place)
I0708 00:38:53.647711  1519 net.cpp:153] Setting up relu7
I0708 00:38:53.647717  1519 net.cpp:160] Top shape: 500 4096 (2048000)
I0708 00:38:53.647722  1519 net.cpp:168] Memory required for data: 4149432000
I0708 00:38:53.647727  1519 layer_factory.hpp:76] Creating layer drop7
I0708 00:38:53.647737  1519 net.cpp:109] Creating Layer drop7
I0708 00:38:53.647742  1519 net.cpp:457] drop7 <- fc7
I0708 00:38:53.647748  1519 net.cpp:400] drop7 -> fc7 (in-place)
I0708 00:38:53.647779  1519 net.cpp:153] Setting up drop7
I0708 00:38:53.647788  1519 net.cpp:160] Top shape: 500 4096 (2048000)
I0708 00:38:53.647792  1519 net.cpp:168] Memory required for data: 4157624000
I0708 00:38:53.647797  1519 layer_factory.hpp:76] Creating layer fc8_clean
I0708 00:38:53.647848  1519 net.cpp:109] Creating Layer fc8_clean
I0708 00:38:53.647855  1519 net.cpp:457] fc8_clean <- fc7
I0708 00:38:53.647863  1519 net.cpp:414] fc8_clean -> fc8_clean
I0708 00:38:53.795539  1519 net.cpp:153] Setting up fc8_clean
I0708 00:38:53.795557  1519 net.cpp:160] Top shape: 500 967 (483500)
I0708 00:38:53.795562  1519 net.cpp:168] Memory required for data: 4159558000
I0708 00:38:53.795570  1519 layer_factory.hpp:76] Creating layer loss
I0708 00:38:53.795591  1519 net.cpp:109] Creating Layer loss
I0708 00:38:53.795598  1519 net.cpp:457] loss <- fc8_clean
I0708 00:38:53.795603  1519 net.cpp:457] loss <- label
I0708 00:38:53.795610  1519 net.cpp:414] loss -> loss
I0708 00:38:53.795624  1519 layer_factory.hpp:76] Creating layer loss
…
I0708 00:38:53.797982  1519 net.cpp:325] The NetState phase (1) differed from the phase (0) specified by a rule in layer train-data
I0708 00:38:53.798197  1519 net.cpp:52] Initializing net from parameters:
state {
phase: TEST
}
layer {
name: "val-data"
type: "Data"
top: "data"
top: "label"
include {
phase: TEST
}
transform_param {
crop_size: 227
mean_file: "/home/zml374/workspace/DIGITS/digits/jobs/20160704-085910-0cc9/mean.binaryproto"
}
data_param {
source: "/home/zml374/workspace/DIGITS/digits/jobs/20160704-085910-0cc9/val_db"
batch_size: 500
backend: LMDB
}
}
layer {
name: "conv1"
type: "Convolution"
bottom: "data"
top: "conv1"
param {
lr_mult: 0
decay_mult: 0
}
param {
lr_mult: 0
decay_mult: 0
}
convolution_param {
num_output: 96
kernel_size: 11
stride: 4
weight_filler {
type: "gaussian"
std: 0.01
}
bias_filler {
type: "constant"
value: 0
}
}
}
layer {
name: "relu1"
type: "ReLU"
bottom: "conv1"
top: "conv1"
}
layer {
name: "norm1"
type: "LRN"
bottom: "conv1"
top: "norm1"
lrn_param {
local_size: 5
alpha: 0.0001
beta: 0.75
}
}
layer {
name: "pool1"
type: "Pooling"
bottom: "norm1"
top: "pool1"
pooling_param {
pool: MAX
kernel_size: 3
stride: 2
}
}
layer {
name: "conv2"
type: "Convolution"
bottom: "pool1"
top: "conv2"
param {
lr_mult: 0
decay_mult: 0
}
param {
lr_mult: 0
decay_mult: 0
}
convolution_param {
num_output: 256
pad: 2
kernel_size: 5
group: 2
weight_filler {
type: "gaussian"
std: 0.01
}
bias_filler {
type: "constant"
value: 0.1
}
}
}
layer {
name: "relu2"
type: "ReLU"
bottom: "conv2"
top: "conv2"
}
layer {
name: "norm2"
type: "LRN"
bottom: "conv2"
top: "norm2"
lrn_param {
local_size: 5
alpha: 0.0001
beta: 0.75
}
}
layer {
name: "pool2"
type: "Pooling"
bottom: "norm2"
top: "pool2"
pooling_param {
pool: MAX
kernel_size: 3
stride: 2
}
}
layer {
name: "conv3"
type: "Convolution"
bottom: "pool2"
top: "conv3"
param {
lr_mult: 0
decay_mult: 0
}
param {
lr_mult: 0
decay_mult: 0
}
convolution_param {
num_output: 384
pad: 1
kernel_size: 3
weight_filler {
type: "gaussian"
std: 0.01
}
bias_filler {
type: "constant"
value: 0
}
}
}
layer {
name: "relu3"
type: "ReLU"
bottom: "conv3"
top: "conv3"
}
layer {
name: "conv4"
type: "Convolution"
bottom: "conv3"
top: "conv4"
param {
lr_mult: 0
decay_mult: 0
}
param {
lr_mult: 0
decay_mult: 0
}
convolution_param {
num_output: 384
pad: 1
kernel_size: 3
group: 2
weight_filler {
type: "gaussian"
std: 0.01
}
bias_filler {
type: "constant"
value: 0.1
}
}
}
layer {
name: "relu4"
type: "ReLU"
bottom: "conv4"
top: "conv4"
}
layer {
name: "conv5"
type: "Convolution"
bottom: "conv4"
top: "conv5"
param {
lr_mult: 0
decay_mult: 0
}
param {
lr_mult: 0
decay_mult: 0
}
convolution_param {
num_output: 256
pad: 1
kernel_size: 3
group: 2
weight_filler {
type: "gaussian"
std: 0.01
}
bias_filler {
type: "constant"
value: 0.1
}
}
}
layer {
name: "relu5"
type: "ReLU"
bottom: "conv5"
top: "conv5"
}
layer {
name: "pool5"
type: "Pooling"
bottom: "conv5"
top: "pool5"
pooling_param {
pool: MAX
kernel_size: 3
stride: 2
}
}
layer {
name: "fc6"
type: "InnerProduct"
bottom: "pool5"
top: "fc6"
param {
lr_mult: 0
decay_mult: 0
}
param {
lr_mult: 0
decay_mult: 0
}
inner_product_param {
num_output: 4096
weight_filler {
type: "gaussian"
std: 0.005
}
bias_filler {
type: "constant"
value: 0.1
}
}
}
layer {
name: "relu6"
type: "ReLU"
bottom: "fc6"
top: "fc6"
}
layer {
name: "drop6"
type: "Dropout"
bottom: "fc6"
top: "fc6"
dropout_param {
dropout_ratio: 0.5
}
}
layer {
name: "fc7"
type: "InnerProduct"
bottom: "fc6"
top: "fc7"
param {
lr_mult: 0
decay_mult: 0
}
param {
lr_mult: 0
decay_mult: 0
}
inner_product_param {
num_output: 4096
weight_filler {
type: "gaussian"
std: 0.005
}
bias_filler {
type: "constant"
value: 0.1
}
}
}
layer {
name: "relu7"
type: "ReLU"
bottom: "fc7"
top: "fc7"
}
layer {
name: "drop7"
type: "Dropout"
bottom: "fc7"
top: "fc7"
dropout_param {
dropout_ratio: 0.5
}
}
layer {
name: "fc8_clean"
type: "InnerProduct"
bottom: "fc7"
top: "fc8_clean"
param {
lr_mult: 1
decay_mult: 1
}
param {
lr_mult: 2
decay_mult: 0
}
inner_product_param {
num_output: 967
weight_filler {
type: "gaussian"
std: 0.01
}
bias_filler {
type: "constant"
value: 0
}
}
}
layer {
name: "accuracy"
type: "Accuracy"
bottom: "fc8_clean"
bottom: "label"
top: "accuracy"
include {
phase: TEST
}
}
layer {
name: "loss"
type: "SoftmaxWithLoss"
bottom: "fc8_clean"
bottom: "label"
top: "loss"
}
I0708 00:38:53.798342  1519 layer_factory.hpp:76] Creating layer val-data
I0708 00:38:53.798755  1519 net.cpp:109] Creating Layer val-data
I0708 00:38:53.798769  1519 net.cpp:414] val-data -> data
I0708 00:38:53.798781  1519 net.cpp:414] val-data -> label
I0708 00:38:53.798791  1519 data_transformer.cpp:25] Loading mean file from: /home/zml374/workspace/DIGITS/digits/jobs/20160704-085910-0cc9/mean.binaryproto
I0708 00:38:53.800266  1552 db_lmdb.cpp:36] Opened lmdb /home/zml374/workspace/DIGITS/digits/jobs/20160704-085910-0cc9/val_db
I0708 00:38:53.805097  1519 data_layer.cpp:45] output data size: 500,3,227,227
I0708 00:38:54.500141  1519 net.cpp:153] Setting up val-data
I0708 00:38:54.500186  1519 net.cpp:160] Top shape: 500 3 227 227 (77293500)
I0708 00:38:54.500195  1519 net.cpp:160] Top shape: 500 (500)
I0708 00:38:54.500200  1519 net.cpp:168] Memory required for data: 309176000
I0708 00:38:54.500208  1519 layer_factory.hpp:76] Creating layer label_val-data_1_split
I0708 00:38:54.500227  1519 net.cpp:109] Creating Layer label_val-data_1_split
I0708 00:38:54.500233  1519 net.cpp:457] label_val-data_1_split <- label
I0708 00:38:54.500244  1519 net.cpp:414] label_val-data_1_split -> label_val-data_1_split_0
I0708 00:38:54.500258  1519 net.cpp:414] label_val-data_1_split -> label_val-data_1_split_1
I0708 00:38:54.500412  1519 net.cpp:153] Setting up label_val-data_1_split
I0708 00:38:54.500424  1519 net.cpp:160] Top shape: 500 (500)
I0708 00:38:54.500432  1519 net.cpp:160] Top shape: 500 (500)
I0708 00:38:54.500437  1519 net.cpp:168] Memory required for data: 309180000
I0708 00:38:54.500442  1519 layer_factory.hpp:76] Creating layer conv1
I0708 00:38:54.500458  1519 net.cpp:109] Creating Layer conv1
I0708 00:38:54.500463  1519 net.cpp:457] conv1 <- data
I0708 00:38:54.500473  1519 net.cpp:414] conv1 -> conv1
I0708 00:38:54.502032  1519 net.cpp:153] Setting up conv1
I0708 00:38:54.502045  1519 net.cpp:160] Top shape: 500 96 55 55 (145200000)
I0708 00:38:54.502050  1519 net.cpp:168] Memory required for data: 889980000
I0708 00:38:54.502064  1519 layer_factory.hpp:76] Creating layer relu1
I0708 00:38:54.502075  1519 net.cpp:109] Creating Layer relu1
I0708 00:38:54.502080  1519 net.cpp:457] relu1 <- conv1
I0708 00:38:54.502089  1519 net.cpp:400] relu1 -> conv1 (in-place)
I0708 00:38:54.502099  1519 net.cpp:153] Setting up relu1
I0708 00:38:54.502105  1519 net.cpp:160] Top shape: 500 96 55 55 (145200000)
I0708 00:38:54.502110  1519 net.cpp:168] Memory required for data: 1470780000
I0708 00:38:54.502115  1519 layer_factory.hpp:76] Creating layer norm1
I0708 00:38:54.502126  1519 net.cpp:109] Creating Layer norm1
I0708 00:38:54.502130  1519 net.cpp:457] norm1 <- conv1
I0708 00:38:54.502138  1519 net.cpp:414] norm1 -> norm1
I0708 00:38:54.502187  1519 net.cpp:153] Setting up norm1
I0708 00:38:54.502197  1519 net.cpp:160] Top shape: 500 96 55 55 (145200000)
I0708 00:38:54.502202  1519 net.cpp:168] Memory required for data: 2051580000
I0708 00:38:54.502207  1519 layer_factory.hpp:76] Creating layer pool1
I0708 00:38:54.502216  1519 net.cpp:109] Creating Layer pool1
I0708 00:38:54.502221  1519 net.cpp:457] pool1 <- norm1
I0708 00:38:54.502228  1519 net.cpp:414] pool1 -> pool1
I0708 00:38:54.502272  1519 net.cpp:153] Setting up pool1
I0708 00:38:54.502280  1519 net.cpp:160] Top shape: 500 96 27 27 (34992000)
I0708 00:38:54.502285  1519 net.cpp:168] Memory required for data: 2191548000
I0708 00:38:54.502290  1519 layer_factory.hpp:76] Creating layer conv2
I0708 00:38:54.502300  1519 net.cpp:109] Creating Layer conv2
I0708 00:38:54.502305  1519 net.cpp:457] conv2 <- pool1
I0708 00:38:54.502313  1519 net.cpp:414] conv2 -> conv2
I0708 00:38:54.529955  1519 net.cpp:153] Setting up conv2
I0708 00:38:54.529994  1519 net.cpp:160] Top shape: 500 256 27 27 (93312000)
I0708 00:38:54.529999  1519 net.cpp:168] Memory required for data: 2564796000
I0708 00:38:54.530010  1519 layer_factory.hpp:76] Creating layer relu2
I0708 00:38:54.530020  1519 net.cpp:109] Creating Layer relu2
I0708 00:38:54.530025  1519 net.cpp:457] relu2 <- conv2
I0708 00:38:54.530033  1519 net.cpp:400] relu2 -> conv2 (in-place)
I0708 00:38:54.530042  1519 net.cpp:153] Setting up relu2
I0708 00:38:54.530050  1519 net.cpp:160] Top shape: 500 256 27 27 (93312000)
I0708 00:38:54.530056  1519 net.cpp:168] Memory required for data: 2938044000
I0708 00:38:54.530062  1519 layer_factory.hpp:76] Creating layer norm2
I0708 00:38:54.530073  1519 net.cpp:109] Creating Layer norm2
I0708 00:38:54.530078  1519 net.cpp:457] norm2 <- conv2
I0708 00:38:54.530086  1519 net.cpp:414] norm2 -> norm2
I0708 00:38:54.530143  1519 net.cpp:153] Setting up norm2
I0708 00:38:54.530153  1519 net.cpp:160] Top shape: 500 256 27 27 (93312000)
I0708 00:38:54.530156  1519 net.cpp:168] Memory required for data: 3311292000
I0708 00:38:54.530161  1519 layer_factory.hpp:76] Creating layer pool2
I0708 00:38:54.530170  1519 net.cpp:109] Creating Layer pool2
I0708 00:38:54.530175  1519 net.cpp:457] pool2 <- norm2
I0708 00:38:54.530182  1519 net.cpp:414] pool2 -> pool2
I0708 00:38:54.530225  1519 net.cpp:153] Setting up pool2
I0708 00:38:54.530233  1519 net.cpp:160] Top shape: 500 256 13 13 (21632000)
I0708 00:38:54.530237  1519 net.cpp:168] Memory required for data: 3397820000
I0708 00:38:54.530242  1519 layer_factory.hpp:76] Creating layer conv3
I0708 00:38:54.530254  1519 net.cpp:109] Creating Layer conv3
I0708 00:38:54.530259  1519 net.cpp:457] conv3 <- pool2
I0708 00:38:54.530267  1519 net.cpp:414] conv3 -> conv3
I0708 00:38:54.563710  1519 net.cpp:153] Setting up conv3
I0708 00:38:54.563726  1519 net.cpp:160] Top shape: 500 384 13 13 (32448000)
I0708 00:38:54.563731  1519 net.cpp:168] Memory required for data: 3527612000
I0708 00:38:54.563743  1519 layer_factory.hpp:76] Creating layer relu3
I0708 00:38:54.563753  1519 net.cpp:109] Creating Layer relu3
I0708 00:38:54.563758  1519 net.cpp:457] relu3 <- conv3
I0708 00:38:54.563766  1519 net.cpp:400] relu3 -> conv3 (in-place)
I0708 00:38:54.563776  1519 net.cpp:153] Setting up relu3
I0708 00:38:54.563782  1519 net.cpp:160] Top shape: 500 384 13 13 (32448000)
I0708 00:38:54.563786  1519 net.cpp:168] Memory required for data: 3657404000
I0708 00:38:54.563791  1519 layer_factory.hpp:76] Creating layer conv4
I0708 00:38:54.563802  1519 net.cpp:109] Creating Layer conv4
I0708 00:38:54.563807  1519 net.cpp:457] conv4 <- conv3
I0708 00:38:54.563815  1519 net.cpp:414] conv4 -> conv4
I0708 00:38:54.589005  1519 net.cpp:153] Setting up conv4
I0708 00:38:54.589021  1519 net.cpp:160] Top shape: 500 384 13 13 (32448000)
I0708 00:38:54.589026  1519 net.cpp:168] Memory required for data: 3787196000
I0708 00:38:54.589035  1519 layer_factory.hpp:76] Creating layer relu4
I0708 00:38:54.589043  1519 net.cpp:109] Creating Layer relu4
I0708 00:38:54.589048  1519 net.cpp:457] relu4 <- conv4
I0708 00:38:54.589057  1519 net.cpp:400] relu4 -> conv4 (in-place)
I0708 00:38:54.589066  1519 net.cpp:153] Setting up relu4
I0708 00:38:54.589072  1519 net.cpp:160] Top shape: 500 384 13 13 (32448000)
I0708 00:38:54.589077  1519 net.cpp:168] Memory required for data: 3916988000
I0708 00:38:54.589082  1519 layer_factory.hpp:76] Creating layer conv5
I0708 00:38:54.589092  1519 net.cpp:109] Creating Layer conv5
I0708 00:38:54.589097  1519 net.cpp:457] conv5 <- conv4
I0708 00:38:54.589104  1519 net.cpp:414] conv5 -> conv5
I0708 00:38:54.606050  1519 net.cpp:153] Setting up conv5
I0708 00:38:54.606066  1519 net.cpp:160] Top shape: 500 256 13 13 (21632000)
I0708 00:38:54.606071  1519 net.cpp:168] Memory required for data: 4003516000
I0708 00:38:54.606084  1519 layer_factory.hpp:76] Creating layer relu5
I0708 00:38:54.606093  1519 net.cpp:109] Creating Layer relu5
I0708 00:38:54.606098  1519 net.cpp:457] relu5 <- conv5
I0708 00:38:54.606106  1519 net.cpp:400] relu5 -> conv5 (in-place)
I0708 00:38:54.606134  1519 net.cpp:153] Setting up relu5
I0708 00:38:54.606142  1519 net.cpp:160] Top shape: 500 256 13 13 (21632000)
I0708 00:38:54.606147  1519 net.cpp:168] Memory required for data: 4090044000
I0708 00:38:54.606150  1519 layer_factory.hpp:76] Creating layer pool5
I0708 00:38:54.606163  1519 net.cpp:109] Creating Layer pool5
I0708 00:38:54.606168  1519 net.cpp:457] pool5 <- conv5
I0708 00:38:54.606175  1519 net.cpp:414] pool5 -> pool5
I0708 00:38:54.606225  1519 net.cpp:153] Setting up pool5
I0708 00:38:54.606233  1519 net.cpp:160] Top shape: 500 256 6 6 (4608000)
I0708 00:38:54.606238  1519 net.cpp:168] Memory required for data: 4108476000
I0708 00:38:54.606242  1519 layer_factory.hpp:76] Creating layer fc6
I0708 00:38:54.606254  1519 net.cpp:109] Creating Layer fc6
I0708 00:38:54.606259  1519 net.cpp:457] fc6 <- pool5
I0708 00:38:54.606266  1519 net.cpp:414] fc6 -> fc6
I0708 00:38:56.042975  1519 net.cpp:153] Setting up fc6
I0708 00:38:56.043015  1519 net.cpp:160] Top shape: 500 4096 (2048000)
I0708 00:38:56.043021  1519 net.cpp:168] Memory required for data: 4116668000
I0708 00:38:56.043035  1519 layer_factory.hpp:76] Creating layer relu6
I0708 00:38:56.043051  1519 net.cpp:109] Creating Layer relu6
I0708 00:38:56.043057  1519 net.cpp:457] relu6 <- fc6
I0708 00:38:56.043068  1519 net.cpp:400] relu6 -> fc6 (in-place)
I0708 00:38:56.043086  1519 net.cpp:153] Setting up relu6
I0708 00:38:56.043092  1519 net.cpp:160] Top shape: 500 4096 (2048000)
I0708 00:38:56.043097  1519 net.cpp:168] Memory required for data: 4124860000
I0708 00:38:56.043102  1519 layer_factory.hpp:76] Creating layer drop6
I0708 00:38:56.043112  1519 net.cpp:109] Creating Layer drop6
I0708 00:38:56.043117  1519 net.cpp:457] drop6 <- fc6
I0708 00:38:56.043123  1519 net.cpp:400] drop6 -> fc6 (in-place)
I0708 00:38:56.043157  1519 net.cpp:153] Setting up drop6
I0708 00:38:56.043165  1519 net.cpp:160] Top shape: 500 4096 (2048000)
I0708 00:38:56.043170  1519 net.cpp:168] Memory required for data: 4133052000
I0708 00:38:56.043175  1519 layer_factory.hpp:76] Creating layer fc7
I0708 00:38:56.043187  1519 net.cpp:109] Creating Layer fc7
I0708 00:38:56.043192  1519 net.cpp:457] fc7 <- fc6
I0708 00:38:56.043202  1519 net.cpp:414] fc7 -> fc7
I0708 00:38:56.681941  1519 net.cpp:153] Setting up fc7
I0708 00:38:56.681979  1519 net.cpp:160] Top shape: 500 4096 (2048000)
I0708 00:38:56.681985  1519 net.cpp:168] Memory required for data: 4141244000
I0708 00:38:56.681998  1519 layer_factory.hpp:76] Creating layer relu7
I0708 00:38:56.682014  1519 net.cpp:109] Creating Layer relu7
I0708 00:38:56.682023  1519 net.cpp:457] relu7 <- fc7
I0708 00:38:56.682034  1519 net.cpp:400] relu7 -> fc7 (in-place)
I0708 00:38:56.682050  1519 net.cpp:153] Setting up relu7
I0708 00:38:56.682056  1519 net.cpp:160] Top shape: 500 4096 (2048000)
I0708 00:38:56.682061  1519 net.cpp:168] Memory required for data: 4149436000
I0708 00:38:56.682066  1519 layer_factory.hpp:76] Creating layer drop7
I0708 00:38:56.682076  1519 net.cpp:109] Creating Layer drop7
I0708 00:38:56.682081  1519 net.cpp:457] drop7 <- fc7
I0708 00:38:56.682087  1519 net.cpp:400] drop7 -> fc7 (in-place)
I0708 00:38:56.682121  1519 net.cpp:153] Setting up drop7
I0708 00:38:56.682129  1519 net.cpp:160] Top shape: 500 4096 (2048000)
I0708 00:38:56.682134  1519 net.cpp:168] Memory required for data: 4157628000
I0708 00:38:56.682139  1519 layer_factory.hpp:76] Creating layer fc8_clean
I0708 00:38:56.682150  1519 net.cpp:109] Creating Layer fc8_clean
I0708 00:38:56.682155  1519 net.cpp:457] fc8_clean <- fc7
I0708 00:38:56.682163  1519 net.cpp:414] fc8_clean -> fc8_clean
I0708 00:38:56.831179  1519 net.cpp:153] Setting up fc8_clean
I0708 00:38:56.831221  1519 net.cpp:160] Top shape: 500 967 (483500)
I0708 00:38:56.831228  1519 net.cpp:168] Memory required for data: 4159562000
I0708 00:38:56.831241  1519 layer_factory.hpp:76] Creating layer fc8_clean_fc8_clean_0_split
I0708 00:38:56.831255  1519 net.cpp:109] Creating Layer fc8_clean_fc8_clean_0_split
I0708 00:38:56.831262  1519 net.cpp:457] fc8_clean_fc8_clean_0_split <- fc8_clean
I0708 00:38:56.831303  1519 net.cpp:414] fc8_clean_fc8_clean_0_split -> fc8_clean_fc8_clean_0_split_0
I0708 00:38:56.831316  1519 net.cpp:414] fc8_clean_fc8_clean_0_split -> fc8_clean_fc8_clean_0_split_1
I0708 00:38:56.831370  1519 net.cpp:153] Setting up fc8_clean_fc8_clean_0_split
I0708 00:38:56.831379  1519 net.cpp:160] Top shape: 500 967 (483500)
I0708 00:38:56.831385  1519 net.cpp:160] Top shape: 500 967 (483500)
I0708 00:38:56.831390  1519 net.cpp:168] Memory required for data: 4163430000
I0708 00:38:56.831395  1519 layer_factory.hpp:76] Creating layer accuracy
I0708 00:38:56.831406  1519 net.cpp:109] Creating Layer accuracy
I0708 00:38:56.831411  1519 net.cpp:457] accuracy <- fc8_clean_fc8_clean_0_split_0
I0708 00:38:56.831418  1519 net.cpp:457] accuracy <- label_val-data_1_split_0
I0708 00:38:56.831424  1519 net.cpp:414] accuracy -> accuracy
…
