…
I0704 00:20:15.122948 10730 net.cpp:52] Initializing net from parameters:
state {
phase: TRAIN
}
layer {
name: "data"
type: "Data"
top: "data"
include {
phase: TRAIN
}
transform_param {
mean_file: "/home/ffw/scratch/plantClef/scatnet_output/train/a4_m3_s1s2s4_f2/lmdb_mean_coeff.binaryproto"
}
data_param {
source: "/home/ffw/scratch/plantClef/scatnet_output/train/a4_m3_s1s2s4_f2/lmdb_data"
batch_size: 100
backend: LMDB
}
}
layer {
name: "label"
type: "Data"
top: "label"
include {
phase: TRAIN
}
data_param {
source: "/home/ffw/scratch/plantClef/scatnet_output/train/a4_m3_s1s2s4_f2/lmdb_labels"
batch_size: 100
backend: LMDB
}
}
layer {
name: "pool1"
type: "Pooling"
bottom: "data"
top: "pool1"
pooling_param {
pool: MAX
kernel_size: 5
stride: 4
}
}
layer {
name: "conv5"
type: "Convolution"
bottom: "pool1"
top: "conv5"
param {
lr_mult: 1
decay_mult: 1
}
param {
lr_mult: 2
decay_mult: 0
}
convolution_param {
num_output: 256
pad: 1
kernel_size: 3
group: 1
weight_filler {
type: "gaussian"
std: 0.01
}
bias_filler {
type: "constant"
value: 0.1
}
}
}
layer {
name: "relu5"
type: "ReLU"
bottom: "conv5"
top: "conv5"
}
layer {
name: "pool5"
type: "Pooling"
bottom: "conv5"
top: "pool5"
pooling_param {
pool: MAX
kernel_size: 3
stride: 2
}
}
layer {
name: "fc6"
type: "InnerProduct"
bottom: "pool5"
top: "fc6"
param {
lr_mult: 1
decay_mult: 1
}
param {
lr_mult: 2
decay_mult: 0
}
inner_product_param {
num_output: 4096
weight_filler {
type: "gaussian"
std: 0.005
}
bias_filler {
type: "constant"
value: 0.1
}
}
}
layer {
name: "relu6"
type: "ReLU"
bottom: "fc6"
top: "fc6"
}
layer {
name: "drop6"
type: "Dropout"
bottom: "fc6"
top: "fc6"
dropout_param {
dropout_ratio: 0.5
}
}
layer {
name: "fc7"
type: "InnerProduct"
bottom: "fc6"
top: "fc7"
param {
lr_mult: 1
decay_mult: 1
}
param {
lr_mult: 2
decay_mult: 0
}
inner_product_param {
num_output: 4096
weight_filler {
type: "gaussian"
std: 0.005
}
bias_filler {
type: "constant"
value: 0.1
}
}
}
layer {
name: "relu7"
type: "ReLU"
bottom: "fc7"
top: "fc7"
}
layer {
name: "drop7"
type: "Dropout"
bottom: "fc7"
top: "fc7"
dropout_param {
dropout_ratio: 0.5
}
}
layer {
name: "fc8_species"
type: "InnerProduct"
bottom: "fc7"
top: "fc8_species"
param {
lr_mult: 1
decay_mult: 1
}
param {
lr_mult: 2
decay_mult: 0
}
inner_product_param {
num_output: 967
weight_filler {
type: "gaussian"
std: 0.005
}
bias_filler {
type: "constant"
value: 0.1
}
}
}
layer {
name: "loss"
type: "SoftmaxWithLoss"
bottom: "fc8_species"
bottom: "label"
top: "loss"
}
I0704 00:20:15.122978 10730 layer_factory.hpp:76] Creating layer data
I0704 00:20:15.123055 10730 net.cpp:109] Creating Layer data
I0704 00:20:15.123060 10730 net.cpp:414] data -> data
I0704 00:20:15.123080 10730 data_transformer.cpp:25] Loading mean file from: /home/ffw/scratch/plantClef/scatnet_output/train/a4_m3_s1s2s4_f2/lmdb_mean_coeff.binaryproto
I0704 00:20:15.127003 10742 db_lmdb.cpp:36] Opened lmdb /home/ffw/scratch/plantClef/scatnet_output/train/a4_m3_s1s2s4_f2/lmdb_data
I0704 00:20:15.144907 10730 data_layer.cpp:45] output data size: 100,375,47,47
I0704 00:20:15.492552 10730 net.cpp:153] Setting up data
I0704 00:20:15.492578 10730 net.cpp:160] Top shape: 100 375 47 47 (82837500)
I0704 00:20:15.492583 10730 net.cpp:168] Memory required for data: 331350000
I0704 00:20:15.492597 10730 layer_factory.hpp:76] Creating layer label
I0704 00:20:15.492806 10730 net.cpp:109] Creating Layer label
I0704 00:20:15.492817 10730 net.cpp:414] label -> label
I0704 00:20:15.496649 10744 db_lmdb.cpp:36] Opened lmdb /home/ffw/scratch/plantClef/scatnet_output/train/a4_m3_s1s2s4_f2/lmdb_labels
I0704 00:20:15.522378 10730 data_layer.cpp:45] output data size: 100,1,1,1
I0704 00:20:15.522559 10730 net.cpp:153] Setting up label
I0704 00:20:15.522570 10730 net.cpp:160] Top shape: 100 1 1 1 (100)
I0704 00:20:15.522573 10730 net.cpp:168] Memory required for data: 331350400
I0704 00:20:15.522578 10730 layer_factory.hpp:76] Creating layer pool1
I0704 00:20:15.522588 10730 net.cpp:109] Creating Layer pool1
I0704 00:20:15.522593 10730 net.cpp:457] pool1 <- data
I0704 00:20:15.522603 10730 net.cpp:414] pool1 -> pool1
I0704 00:20:15.522768 10730 net.cpp:153] Setting up pool1
I0704 00:20:15.522779 10730 net.cpp:160] Top shape: 100 375 12 12 (5400000)
I0704 00:20:15.522781 10730 net.cpp:168] Memory required for data: 352950400
I0704 00:20:15.522784 10730 layer_factory.hpp:76] Creating layer conv5
I0704 00:20:15.522791 10730 net.cpp:109] Creating Layer conv5
I0704 00:20:15.522794 10730 net.cpp:457] conv5 <- pool1
I0704 00:20:15.522799 10730 net.cpp:414] conv5 -> conv5
I0704 00:20:15.539604 10730 net.cpp:153] Setting up conv5
I0704 00:20:15.539623 10730 net.cpp:160] Top shape: 100 256 12 12 (3686400)
I0704 00:20:15.539626 10730 net.cpp:168] Memory required for data: 367696000
I0704 00:20:15.539635 10730 layer_factory.hpp:76] Creating layer relu5
I0704 00:20:15.539643 10730 net.cpp:109] Creating Layer relu5
I0704 00:20:15.539645 10730 net.cpp:457] relu5 <- conv5
I0704 00:20:15.539649 10730 net.cpp:400] relu5 -> conv5 (in-place)
I0704 00:20:15.539661 10730 net.cpp:153] Setting up relu5
I0704 00:20:15.539664 10730 net.cpp:160] Top shape: 100 256 12 12 (3686400)
I0704 00:20:15.539666 10730 net.cpp:168] Memory required for data: 382441600
I0704 00:20:15.539669 10730 layer_factory.hpp:76] Creating layer pool5
I0704 00:20:15.539672 10730 net.cpp:109] Creating Layer pool5
I0704 00:20:15.539674 10730 net.cpp:457] pool5 <- conv5
I0704 00:20:15.539676 10730 net.cpp:414] pool5 -> pool5
I0704 00:20:15.539698 10730 net.cpp:153] Setting up pool5
I0704 00:20:15.539701 10730 net.cpp:160] Top shape: 100 256 6 6 (921600)
I0704 00:20:15.539703 10730 net.cpp:168] Memory required for data: 386128000
I0704 00:20:15.539705 10730 layer_factory.hpp:76] Creating layer fc6
I0704 00:20:15.539710 10730 net.cpp:109] Creating Layer fc6
I0704 00:20:15.539711 10730 net.cpp:457] fc6 <- pool5
I0704 00:20:15.539715 10730 net.cpp:414] fc6 -> fc6
I0704 00:20:16.284514 10730 net.cpp:153] Setting up fc6
I0704 00:20:16.284534 10730 net.cpp:160] Top shape: 100 4096 (409600)
I0704 00:20:16.284536 10730 net.cpp:168] Memory required for data: 387766400
I0704 00:20:16.284545 10730 layer_factory.hpp:76] Creating layer relu6
I0704 00:20:16.284551 10730 net.cpp:109] Creating Layer relu6
I0704 00:20:16.284554 10730 net.cpp:457] relu6 <- fc6
I0704 00:20:16.284557 10730 net.cpp:400] relu6 -> fc6 (in-place)
I0704 00:20:16.284564 10730 net.cpp:153] Setting up relu6
I0704 00:20:16.284567 10730 net.cpp:160] Top shape: 100 4096 (409600)
I0704 00:20:16.284569 10730 net.cpp:168] Memory required for data: 389404800
I0704 00:20:16.284570 10730 layer_factory.hpp:76] Creating layer drop6
I0704 00:20:16.284581 10730 net.cpp:109] Creating Layer drop6
I0704 00:20:16.284584 10730 net.cpp:457] drop6 <- fc6
I0704 00:20:16.284585 10730 net.cpp:400] drop6 -> fc6 (in-place)
I0704 00:20:16.284617 10730 net.cpp:153] Setting up drop6
I0704 00:20:16.284621 10730 net.cpp:160] Top shape: 100 4096 (409600)
I0704 00:20:16.284621 10730 net.cpp:168] Memory required for data: 391043200
I0704 00:20:16.284623 10730 layer_factory.hpp:76] Creating layer fc7
I0704 00:20:16.284628 10730 net.cpp:109] Creating Layer fc7
I0704 00:20:16.284629 10730 net.cpp:457] fc7 <- fc6
I0704 00:20:16.284632 10730 net.cpp:414] fc7 -> fc7
I0704 00:20:16.606822 10730 net.cpp:153] Setting up fc7
I0704 00:20:16.606840 10730 net.cpp:160] Top shape: 100 4096 (409600)
I0704 00:20:16.606843 10730 net.cpp:168] Memory required for data: 392681600
I0704 00:20:16.606851 10730 layer_factory.hpp:76] Creating layer relu7
I0704 00:20:16.606858 10730 net.cpp:109] Creating Layer relu7
I0704 00:20:16.606861 10730 net.cpp:457] relu7 <- fc7
I0704 00:20:16.606864 10730 net.cpp:400] relu7 -> fc7 (in-place)
I0704 00:20:16.606871 10730 net.cpp:153] Setting up relu7
I0704 00:20:16.606874 10730 net.cpp:160] Top shape: 100 4096 (409600)
I0704 00:20:16.606875 10730 net.cpp:168] Memory required for data: 394320000
I0704 00:20:16.606878 10730 layer_factory.hpp:76] Creating layer drop7
I0704 00:20:16.606881 10730 net.cpp:109] Creating Layer drop7
I0704 00:20:16.606884 10730 net.cpp:457] drop7 <- fc7
I0704 00:20:16.606885 10730 net.cpp:400] drop7 -> fc7 (in-place)
I0704 00:20:16.606900 10730 net.cpp:153] Setting up drop7
I0704 00:20:16.606902 10730 net.cpp:160] Top shape: 100 4096 (409600)
I0704 00:20:16.606904 10730 net.cpp:168] Memory required for data: 395958400
I0704 00:20:16.606905 10730 layer_factory.hpp:76] Creating layer fc8_species
I0704 00:20:16.606910 10730 net.cpp:109] Creating Layer fc8_species
I0704 00:20:16.606912 10730 net.cpp:457] fc8_species <- fc7
I0704 00:20:16.606914 10730 net.cpp:414] fc8_species -> fc8_species
I0704 00:20:16.679154 10730 net.cpp:153] Setting up fc8_species
I0704 00:20:16.679173 10730 net.cpp:160] Top shape: 100 967 (96700)
I0704 00:20:16.679177 10730 net.cpp:168] Memory required for data: 396345200
I0704 00:20:16.679183 10730 layer_factory.hpp:76] Creating layer loss
I0704 00:20:16.679194 10730 net.cpp:109] Creating Layer loss
I0704 00:20:16.679198 10730 net.cpp:457] loss <- fc8_species
I0704 00:20:16.679201 10730 net.cpp:457] loss <- label
I0704 00:20:16.679204 10730 net.cpp:414] loss -> loss
I0704 00:20:16.679213 10730 layer_factory.hpp:76] Creating layer loss
…
I0704 00:20:16.680172 10730 net.cpp:52] Initializing net from parameters:
state {
phase: TEST
}
layer {
name: "data"
type: "Data"
top: "data"
include {
phase: TEST
}
transform_param {
mean_file: "/home/ffw/scratch/plantClef/scatnet_output/train/a4_m3_s1s2s4_f2/lmdb_mean_coeff.binaryproto"
}
data_param {
source: "/home/ffw/scratch/plantClef/scatnet_output/test/a4_m3_s1s2s4_f2/lmdb_data"
batch_size: 100
backend: LMDB
}
}
layer {
name: "label"
type: "Data"
top: "label"
include {
phase: TEST
}
data_param {
source: "/home/ffw/scratch/plantClef/scatnet_output/test/a4_m3_s1s2s4_f2/lmdb_labels"
batch_size: 100
backend: LMDB
}
}
layer {
name: "pool1"
type: "Pooling"
bottom: "data"
top: "pool1"
pooling_param {
pool: MAX
kernel_size: 5
stride: 4
}
}
layer {
name: "conv5"
type: "Convolution"
bottom: "pool1"
top: "conv5"
param {
lr_mult: 1
decay_mult: 1
}
param {
lr_mult: 2
decay_mult: 0
}
convolution_param {
num_output: 256
pad: 1
kernel_size: 3
group: 1
weight_filler {
type: "gaussian"
std: 0.01
}
bias_filler {
type: "constant"
value: 0.1
}
}
}
layer {
name: "relu5"
type: "ReLU"
bottom: "conv5"
top: "conv5"
}
layer {
name: "pool5"
type: "Pooling"
bottom: "conv5"
top: "pool5"
pooling_param {
pool: MAX
kernel_size: 3
stride: 2
}
}
layer {
name: "fc6"
type: "InnerProduct"
bottom: "pool5"
top: "fc6"
param {
lr_mult: 1
decay_mult: 1
}
param {
lr_mult: 2
decay_mult: 0
}
inner_product_param {
num_output: 4096
weight_filler {
type: "gaussian"
std: 0.005
}
bias_filler {
type: "constant"
value: 0.1
}
}
}
layer {
name: "relu6"
type: "ReLU"
bottom: "fc6"
top: "fc6"
}
layer {
name: "drop6"
type: "Dropout"
bottom: "fc6"
top: "fc6"
dropout_param {
dropout_ratio: 0.5
}
}
layer {
name: "fc7"
type: "InnerProduct"
bottom: "fc6"
top: "fc7"
param {
lr_mult: 1
decay_mult: 1
}
param {
lr_mult: 2
decay_mult: 0
}
inner_product_param {
num_output: 4096
weight_filler {
type: "gaussian"
std: 0.005
}
bias_filler {
type: "constant"
value: 0.1
}
}
}
layer {
name: "relu7"
type: "ReLU"
bottom: "fc7"
top: "fc7"
}
layer {
name: "drop7"
type: "Dropout"
bottom: "fc7"
top: "fc7"
dropout_param {
dropout_ratio: 0.5
}
}
layer {
name: "fc8_species"
type: "InnerProduct"
bottom: "fc7"
top: "fc8_species"
param {
lr_mult: 1
decay_mult: 1
}
param {
lr_mult: 2
decay_mult: 0
}
inner_product_param {
num_output: 967
weight_filler {
type: "gaussian"
std: 0.005
}
bias_filler {
type: "constant"
value: 0.1
}
}
}
layer {
name: "loss"
type: "SoftmaxWithLoss"
bottom: "fc8_species"
bottom: "label"
top: "loss"
}
layer {
name: "accuracy"
type: "Accuracy"
bottom: "fc8_species"
bottom: "label"
top: "accuracy"
include {
phase: TEST
}
}
I0704 00:20:16.680213 10730 layer_factory.hpp:76] Creating layer data
I0704 00:20:16.680287 10730 net.cpp:109] Creating Layer data
I0704 00:20:16.680301 10730 net.cpp:414] data -> data
I0704 00:20:16.680307 10730 data_transformer.cpp:25] Loading mean file from: /home/ffw/scratch/plantClef/scatnet_output/train/a4_m3_s1s2s4_f2/lmdb_mean_coeff.binaryproto
I0704 00:20:16.683220 10747 db_lmdb.cpp:36] Opened lmdb /home/ffw/scratch/plantClef/scatnet_output/test/a4_m3_s1s2s4_f2/lmdb_data
I0704 00:20:16.685192 10730 data_layer.cpp:45] output data size: 100,375,47,47
I0704 00:20:17.063336 10730 net.cpp:153] Setting up data
I0704 00:20:17.063364 10730 net.cpp:160] Top shape: 100 375 47 47 (82837500)
I0704 00:20:17.063367 10730 net.cpp:168] Memory required for data: 331350000
I0704 00:20:17.063370 10730 layer_factory.hpp:76] Creating layer label
I0704 00:20:17.063452 10730 net.cpp:109] Creating Layer label
I0704 00:20:17.063457 10730 net.cpp:414] label -> label
I0704 00:20:17.064651 10749 db_lmdb.cpp:36] Opened lmdb /home/ffw/scratch/plantClef/scatnet_output/test/a4_m3_s1s2s4_f2/lmdb_labels
I0704 00:20:17.090606 10730 data_layer.cpp:45] output data size: 100,1,1,1
I0704 00:20:17.090697 10730 net.cpp:153] Setting up label
I0704 00:20:17.090713 10730 net.cpp:160] Top shape: 100 1 1 1 (100)
I0704 00:20:17.090715 10730 net.cpp:168] Memory required for data: 331350400
I0704 00:20:17.090718 10730 layer_factory.hpp:76] Creating layer label_label_0_split
I0704 00:20:17.090724 10730 net.cpp:109] Creating Layer label_label_0_split
I0704 00:20:17.090728 10730 net.cpp:457] label_label_0_split <- label
I0704 00:20:17.090730 10730 net.cpp:414] label_label_0_split -> label_label_0_split_0
I0704 00:20:17.090735 10730 net.cpp:414] label_label_0_split -> label_label_0_split_1
I0704 00:20:17.090795 10730 net.cpp:153] Setting up label_label_0_split
I0704 00:20:17.090800 10730 net.cpp:160] Top shape: 100 1 1 1 (100)
I0704 00:20:17.090801 10730 net.cpp:160] Top shape: 100 1 1 1 (100)
I0704 00:20:17.090803 10730 net.cpp:168] Memory required for data: 331351200
I0704 00:20:17.090806 10730 layer_factory.hpp:76] Creating layer pool1
I0704 00:20:17.090811 10730 net.cpp:109] Creating Layer pool1
I0704 00:20:17.090812 10730 net.cpp:457] pool1 <- data
I0704 00:20:17.090816 10730 net.cpp:414] pool1 -> pool1
I0704 00:20:17.090834 10730 net.cpp:153] Setting up pool1
I0704 00:20:17.090837 10730 net.cpp:160] Top shape: 100 375 12 12 (5400000)
I0704 00:20:17.090838 10730 net.cpp:168] Memory required for data: 352951200
I0704 00:20:17.090840 10730 layer_factory.hpp:76] Creating layer conv5
I0704 00:20:17.090847 10730 net.cpp:109] Creating Layer conv5
I0704 00:20:17.090848 10730 net.cpp:457] conv5 <- pool1
I0704 00:20:17.090852 10730 net.cpp:414] conv5 -> conv5
I0704 00:20:17.107794 10730 net.cpp:153] Setting up conv5
I0704 00:20:17.107815 10730 net.cpp:160] Top shape: 100 256 12 12 (3686400)
I0704 00:20:17.107816 10730 net.cpp:168] Memory required for data: 367696800
I0704 00:20:17.107825 10730 layer_factory.hpp:76] Creating layer relu5
I0704 00:20:17.107832 10730 net.cpp:109] Creating Layer relu5
I0704 00:20:17.107836 10730 net.cpp:457] relu5 <- conv5
I0704 00:20:17.107839 10730 net.cpp:400] relu5 -> conv5 (in-place)
I0704 00:20:17.107846 10730 net.cpp:153] Setting up relu5
I0704 00:20:17.107848 10730 net.cpp:160] Top shape: 100 256 12 12 (3686400)
I0704 00:20:17.107851 10730 net.cpp:168] Memory required for data: 382442400
I0704 00:20:17.107852 10730 layer_factory.hpp:76] Creating layer pool5
I0704 00:20:17.107856 10730 net.cpp:109] Creating Layer pool5
I0704 00:20:17.107858 10730 net.cpp:457] pool5 <- conv5
I0704 00:20:17.107861 10730 net.cpp:414] pool5 -> pool5
I0704 00:20:17.107887 10730 net.cpp:153] Setting up pool5
I0704 00:20:17.107890 10730 net.cpp:160] Top shape: 100 256 6 6 (921600)
I0704 00:20:17.107892 10730 net.cpp:168] Memory required for data: 386128800
I0704 00:20:17.107893 10730 layer_factory.hpp:76] Creating layer fc6
I0704 00:20:17.107898 10730 net.cpp:109] Creating Layer fc6
I0704 00:20:17.107900 10730 net.cpp:457] fc6 <- pool5
I0704 00:20:17.107903 10730 net.cpp:414] fc6 -> fc6
I0704 00:20:17.852365 10730 net.cpp:153] Setting up fc6
I0704 00:20:17.852382 10730 net.cpp:160] Top shape: 100 4096 (409600)
I0704 00:20:17.852385 10730 net.cpp:168] Memory required for data: 387767200
I0704 00:20:17.852393 10730 layer_factory.hpp:76] Creating layer relu6
I0704 00:20:17.852401 10730 net.cpp:109] Creating Layer relu6
I0704 00:20:17.852403 10730 net.cpp:457] relu6 <- fc6
I0704 00:20:17.852407 10730 net.cpp:400] relu6 -> fc6 (in-place)
I0704 00:20:17.852413 10730 net.cpp:153] Setting up relu6
I0704 00:20:17.852416 10730 net.cpp:160] Top shape: 100 4096 (409600)
I0704 00:20:17.852417 10730 net.cpp:168] Memory required for data: 389405600
I0704 00:20:17.852419 10730 layer_factory.hpp:76] Creating layer drop6
I0704 00:20:17.852423 10730 net.cpp:109] Creating Layer drop6
I0704 00:20:17.852443 10730 net.cpp:457] drop6 <- fc6
I0704 00:20:17.852445 10730 net.cpp:400] drop6 -> fc6 (in-place)
I0704 00:20:17.852463 10730 net.cpp:153] Setting up drop6
I0704 00:20:17.852466 10730 net.cpp:160] Top shape: 100 4096 (409600)
I0704 00:20:17.852468 10730 net.cpp:168] Memory required for data: 391044000
I0704 00:20:17.852470 10730 layer_factory.hpp:76] Creating layer fc7
I0704 00:20:17.852474 10730 net.cpp:109] Creating Layer fc7
I0704 00:20:17.852476 10730 net.cpp:457] fc7 <- fc6
I0704 00:20:17.852479 10730 net.cpp:414] fc7 -> fc7
I0704 00:20:18.162529 10730 net.cpp:153] Setting up fc7
I0704 00:20:18.162549 10730 net.cpp:160] Top shape: 100 4096 (409600)
I0704 00:20:18.162552 10730 net.cpp:168] Memory required for data: 392682400
I0704 00:20:18.162560 10730 layer_factory.hpp:76] Creating layer relu7
I0704 00:20:18.162567 10730 net.cpp:109] Creating Layer relu7
I0704 00:20:18.162570 10730 net.cpp:457] relu7 <- fc7
I0704 00:20:18.162575 10730 net.cpp:400] relu7 -> fc7 (in-place)
I0704 00:20:18.162581 10730 net.cpp:153] Setting up relu7
I0704 00:20:18.162585 10730 net.cpp:160] Top shape: 100 4096 (409600)
I0704 00:20:18.162586 10730 net.cpp:168] Memory required for data: 394320800
I0704 00:20:18.162588 10730 layer_factory.hpp:76] Creating layer drop7
I0704 00:20:18.162591 10730 net.cpp:109] Creating Layer drop7
I0704 00:20:18.162593 10730 net.cpp:457] drop7 <- fc7
I0704 00:20:18.162596 10730 net.cpp:400] drop7 -> fc7 (in-place)
I0704 00:20:18.162616 10730 net.cpp:153] Setting up drop7
I0704 00:20:18.162618 10730 net.cpp:160] Top shape: 100 4096 (409600)
I0704 00:20:18.162619 10730 net.cpp:168] Memory required for data: 395959200
I0704 00:20:18.162621 10730 layer_factory.hpp:76] Creating layer fc8_species
I0704 00:20:18.162626 10730 net.cpp:109] Creating Layer fc8_species
I0704 00:20:18.162627 10730 net.cpp:457] fc8_species <- fc7
I0704 00:20:18.162631 10730 net.cpp:414] fc8_species -> fc8_species
I0704 00:20:18.248565 10730 net.cpp:153] Setting up fc8_species
I0704 00:20:18.248585 10730 net.cpp:160] Top shape: 100 967 (96700)
I0704 00:20:18.248589 10730 net.cpp:168] Memory required for data: 396346000
I0704 00:20:18.248595 10730 layer_factory.hpp:76] Creating layer fc8_species_fc8_species_0_split
I0704 00:20:18.248601 10730 net.cpp:109] Creating Layer fc8_species_fc8_species_0_split
I0704 00:20:18.248605 10730 net.cpp:457] fc8_species_fc8_species_0_split <- fc8_species
I0704 00:20:18.248610 10730 net.cpp:414] fc8_species_fc8_species_0_split -> fc8_species_fc8_species_0_split_0
I0704 00:20:18.248615 10730 net.cpp:414] fc8_species_fc8_species_0_split -> fc8_species_fc8_species_0_split_1
I0704 00:20:18.248643 10730 net.cpp:153] Setting up fc8_species_fc8_species_0_split
I0704 00:20:18.248646 10730 net.cpp:160] Top shape: 100 967 (96700)
I0704 00:20:18.248648 10730 net.cpp:160] Top shape: 100 967 (96700)
I0704 00:20:18.248651 10730 net.cpp:168] Memory required for data: 397119600
I0704 00:20:18.248652 10730 layer_factory.hpp:76] Creating layer loss
I0704 00:20:18.248656 10730 net.cpp:109] Creating Layer loss
I0704 00:20:18.248657 10730 net.cpp:457] loss <- fc8_species_fc8_species_0_split_0
I0704 00:20:18.248661 10730 net.cpp:457] loss <- label_label_0_split_0
I0704 00:20:18.248662 10730 net.cpp:414] loss -> loss
…
