…
I0704 10:26:43.915916 20391 net.cpp:325] The NetState phase (0) differed from the phase (1) specified by a rule in layer accuracy
I0704 10:26:43.916015 20391 net.cpp:52] Initializing net from parameters:
state {
phase: TRAIN
}
layer {
name: "train-data"
type: "Data"
top: "data"
top: "label"
include {
phase: TRAIN
}
transform_param {
mirror: true
crop_size: 227
mean_file: "/home/ffw/scratch/digits/jobs/20160624-120053-bb9a/mean.binaryproto"
}
data_param {
source: "/home/ffw/scratch/digits/jobs/20160624-120053-bb9a/train_db"
batch_size: 128
backend: LMDB
}
}
layer {
name: "conv1"
type: "Convolution"
bottom: "data"
top: "conv1"
param {
lr_mult: 0
decay_mult: 0
}
param {
lr_mult: 0
decay_mult: 0
}
convolution_param {
num_output: 96
kernel_size: 11
stride: 4
weight_filler {
type: "gaussian"
std: 0.01
}
bias_filler {
type: "constant"
value: 0
}
}
}
layer {
name: "relu1"
type: "ReLU"
bottom: "conv1"
top: "conv1"
}
layer {
name: "norm1"
type: "LRN"
bottom: "conv1"
top: "norm1"
lrn_param {
local_size: 5
alpha: 0.0001
beta: 0.75
}
}
layer {
name: "pool1"
type: "Pooling"
bottom: "norm1"
top: "pool1"
pooling_param {
pool: MAX
kernel_size: 3
stride: 2
}
}
layer {
name: "conv2"
type: "Convolution"
bottom: "pool1"
top: "conv2"
param {
lr_mult: 0
decay_mult: 0
}
param {
lr_mult: 0
decay_mult: 0
}
convolution_param {
num_output: 256
pad: 2
kernel_size: 5
group: 2
weight_filler {
type: "gaussian"
std: 0.01
}
bias_filler {
type: "constant"
value: 0.1
}
}
}
layer {
name: "relu2"
type: "ReLU"
bottom: "conv2"
top: "conv2"
}
layer {
name: "norm2"
type: "LRN"
bottom: "conv2"
top: "norm2"
lrn_param {
local_size: 5
alpha: 0.0001
beta: 0.75
}
}
layer {
name: "pool2"
type: "Pooling"
bottom: "norm2"
top: "pool2"
pooling_param {
pool: MAX
kernel_size: 3
stride: 2
}
}
layer {
name: "conv3"
type: "Convolution"
bottom: "pool2"
top: "conv3"
param {
lr_mult: 0
decay_mult: 0
}
param {
lr_mult: 0
decay_mult: 0
}
convolution_param {
num_output: 384
pad: 1
kernel_size: 3
weight_filler {
type: "gaussian"
std: 0.01
}
bias_filler {
type: "constant"
value: 0
}
}
}
layer {
name: "relu3"
type: "ReLU"
bottom: "conv3"
top: "conv3"
}
layer {
name: "conv4"
type: "Convolution"
bottom: "conv3"
top: "conv4"
param {
lr_mult: 0
decay_mult: 0
}
param {
lr_mult: 0
decay_mult: 0
}
convolution_param {
num_output: 384
pad: 1
kernel_size: 3
group: 2
weight_filler {
type: "gaussian"
std: 0.01
}
bias_filler {
type: "constant"
value: 0.1
}
}
}
layer {
name: "relu4"
type: "ReLU"
bottom: "conv4"
top: "conv4"
}
layer {
name: "conv5"
type: "Convolution"
bottom: "conv4"
top: "conv5"
param {
lr_mult: 0
decay_mult: 0
}
param {
lr_mult: 0
decay_mult: 0
}
convolution_param {
num_output: 256
pad: 1
kernel_size: 3
group: 2
weight_filler {
type: "gaussian"
std: 0.01
}
bias_filler {
type: "constant"
value: 0.1
}
}
}
layer {
name: "relu5"
type: "ReLU"
bottom: "conv5"
top: "conv5"
}
layer {
name: "pool5"
type: "Pooling"
bottom: "conv5"
top: "pool5"
pooling_param {
pool: MAX
kernel_size: 3
stride: 2
}
}
layer {
name: "fc6_clean"
type: "InnerProduct"
bottom: "pool5"
top: "fc6_clean"
param {
lr_mult: 1
decay_mult: 1
}
param {
lr_mult: 2
decay_mult: 0
}
inner_product_param {
num_output: 4096
weight_filler {
type: "gaussian"
std: 0.005
}
bias_filler {
type: "constant"
value: 0.1
}
}
}
layer {
name: "relu6"
type: "ReLU"
bottom: "fc6_clean"
top: "fc6_clean"
}
layer {
name: "drop6"
type: "Dropout"
bottom: "fc6_clean"
top: "fc6_clean"
dropout_param {
dropout_ratio: 0.5
}
}
layer {
name: "fc7_clean"
type: "InnerProduct"
bottom: "fc6_clean"
top: "fc7_clean"
param {
lr_mult: 1
decay_mult: 1
}
param {
lr_mult: 2
decay_mult: 0
}
inner_product_param {
num_output: 4096
weight_filler {
type: "gaussian"
std: 0.005
}
bias_filler {
type: "constant"
value: 0.1
}
}
}
layer {
name: "relu7"
type: "ReLU"
bottom: "fc7_clean"
top: "fc7_clean"
}
layer {
name: "drop7"
type: "Dropout"
bottom: "fc7_clean"
top: "fc7_clean"
dropout_param {
dropout_ratio: 0.5
}
}
layer {
name: "fc8_clean"
type: "InnerProduct"
bottom: "fc7_clean"
top: "fc8_clean"
param {
lr_mult: 1
decay_mult: 1
}
param {
lr_mult: 2
decay_mult: 0
}
inner_product_param {
num_output: 967
weight_filler {
type: "gaussian"
std: 0.01
}
bias_filler {
type: "constant"
value: 0
}
}
}
layer {
name: "loss"
type: "SoftmaxWithLoss"
bottom: "fc8_clean"
bottom: "label"
top: "loss"
}
I0704 10:26:43.916079 20391 layer_factory.hpp:76] Creating layer train-data
I0704 10:26:43.916762 20391 net.cpp:109] Creating Layer train-data
I0704 10:26:43.916769 20391 net.cpp:414] train-data -> data
I0704 10:26:43.917098 20391 net.cpp:414] train-data -> label
I0704 10:26:43.917104 20391 data_transformer.cpp:25] Loading mean file from: /home/ffw/scratch/digits/jobs/20160624-120053-bb9a/mean.binaryproto
I0704 10:26:43.920429 20403 db_lmdb.cpp:36] Opened lmdb /home/ffw/scratch/digits/jobs/20160624-120053-bb9a/train_db
I0704 10:26:43.926558 20391 data_layer.cpp:45] output data size: 128,3,227,227
I0704 10:26:44.013020 20391 net.cpp:153] Setting up train-data
I0704 10:26:44.013048 20391 net.cpp:160] Top shape: 128 3 227 227 (19787136)
I0704 10:26:44.013053 20391 net.cpp:160] Top shape: 128 (128)
I0704 10:26:44.013056 20391 net.cpp:168] Memory required for data: 79149056
I0704 10:26:44.013063 20391 layer_factory.hpp:76] Creating layer conv1
I0704 10:26:44.013494 20391 net.cpp:109] Creating Layer conv1
I0704 10:26:44.013504 20391 net.cpp:457] conv1 <- data
I0704 10:26:44.013514 20391 net.cpp:414] conv1 -> conv1
I0704 10:26:44.015947 20391 net.cpp:153] Setting up conv1
I0704 10:26:44.015959 20391 net.cpp:160] Top shape: 128 96 55 55 (37171200)
I0704 10:26:44.015960 20391 net.cpp:168] Memory required for data: 227833856
I0704 10:26:44.015969 20391 layer_factory.hpp:76] Creating layer relu1
I0704 10:26:44.015974 20391 net.cpp:109] Creating Layer relu1
I0704 10:26:44.015975 20391 net.cpp:457] relu1 <- conv1
I0704 10:26:44.015980 20391 net.cpp:400] relu1 -> conv1 (in-place)
I0704 10:26:44.015985 20391 net.cpp:153] Setting up relu1
I0704 10:26:44.015988 20391 net.cpp:160] Top shape: 128 96 55 55 (37171200)
I0704 10:26:44.015990 20391 net.cpp:168] Memory required for data: 376518656
I0704 10:26:44.015991 20391 layer_factory.hpp:76] Creating layer norm1
I0704 10:26:44.016571 20391 net.cpp:109] Creating Layer norm1
I0704 10:26:44.016579 20391 net.cpp:457] norm1 <- conv1
I0704 10:26:44.016582 20391 net.cpp:414] norm1 -> norm1
I0704 10:26:44.022959 20391 net.cpp:153] Setting up norm1
I0704 10:26:44.022969 20391 net.cpp:160] Top shape: 128 96 55 55 (37171200)
I0704 10:26:44.022972 20391 net.cpp:168] Memory required for data: 525203456
I0704 10:26:44.022976 20391 layer_factory.hpp:76] Creating layer pool1
I0704 10:26:44.022985 20391 net.cpp:109] Creating Layer pool1
I0704 10:26:44.023005 20391 net.cpp:457] pool1 <- norm1
I0704 10:26:44.023010 20391 net.cpp:414] pool1 -> pool1
I0704 10:26:44.023035 20391 net.cpp:153] Setting up pool1
I0704 10:26:44.023038 20391 net.cpp:160] Top shape: 128 96 27 27 (8957952)
I0704 10:26:44.023041 20391 net.cpp:168] Memory required for data: 561035264
I0704 10:26:44.023041 20391 layer_factory.hpp:76] Creating layer conv2
I0704 10:26:44.023046 20391 net.cpp:109] Creating Layer conv2
I0704 10:26:44.023048 20391 net.cpp:457] conv2 <- pool1
I0704 10:26:44.023051 20391 net.cpp:414] conv2 -> conv2
I0704 10:26:44.029948 20391 net.cpp:153] Setting up conv2
I0704 10:26:44.029963 20391 net.cpp:160] Top shape: 128 256 27 27 (23887872)
I0704 10:26:44.029966 20391 net.cpp:168] Memory required for data: 656586752
I0704 10:26:44.029973 20391 layer_factory.hpp:76] Creating layer relu2
I0704 10:26:44.029979 20391 net.cpp:109] Creating Layer relu2
I0704 10:26:44.029981 20391 net.cpp:457] relu2 <- conv2
I0704 10:26:44.029984 20391 net.cpp:400] relu2 -> conv2 (in-place)
I0704 10:26:44.029989 20391 net.cpp:153] Setting up relu2
I0704 10:26:44.029992 20391 net.cpp:160] Top shape: 128 256 27 27 (23887872)
I0704 10:26:44.029994 20391 net.cpp:168] Memory required for data: 752138240
I0704 10:26:44.029995 20391 layer_factory.hpp:76] Creating layer norm2
I0704 10:26:44.030000 20391 net.cpp:109] Creating Layer norm2
I0704 10:26:44.030001 20391 net.cpp:457] norm2 <- conv2
I0704 10:26:44.030004 20391 net.cpp:414] norm2 -> norm2
I0704 10:26:44.030025 20391 net.cpp:153] Setting up norm2
I0704 10:26:44.030028 20391 net.cpp:160] Top shape: 128 256 27 27 (23887872)
I0704 10:26:44.030030 20391 net.cpp:168] Memory required for data: 847689728
I0704 10:26:44.030031 20391 layer_factory.hpp:76] Creating layer pool2
I0704 10:26:44.030035 20391 net.cpp:109] Creating Layer pool2
I0704 10:26:44.030037 20391 net.cpp:457] pool2 <- norm2
I0704 10:26:44.030040 20391 net.cpp:414] pool2 -> pool2
I0704 10:26:44.030055 20391 net.cpp:153] Setting up pool2
I0704 10:26:44.030058 20391 net.cpp:160] Top shape: 128 256 13 13 (5537792)
I0704 10:26:44.030061 20391 net.cpp:168] Memory required for data: 869840896
I0704 10:26:44.030061 20391 layer_factory.hpp:76] Creating layer conv3
I0704 10:26:44.030066 20391 net.cpp:109] Creating Layer conv3
I0704 10:26:44.030068 20391 net.cpp:457] conv3 <- pool2
I0704 10:26:44.030071 20391 net.cpp:414] conv3 -> conv3
I0704 10:26:44.047962 20391 net.cpp:153] Setting up conv3
I0704 10:26:44.047984 20391 net.cpp:160] Top shape: 128 384 13 13 (8306688)
I0704 10:26:44.047986 20391 net.cpp:168] Memory required for data: 903067648
I0704 10:26:44.047994 20391 layer_factory.hpp:76] Creating layer relu3
I0704 10:26:44.048001 20391 net.cpp:109] Creating Layer relu3
I0704 10:26:44.048002 20391 net.cpp:457] relu3 <- conv3
I0704 10:26:44.048005 20391 net.cpp:400] relu3 -> conv3 (in-place)
I0704 10:26:44.048010 20391 net.cpp:153] Setting up relu3
I0704 10:26:44.048013 20391 net.cpp:160] Top shape: 128 384 13 13 (8306688)
I0704 10:26:44.048015 20391 net.cpp:168] Memory required for data: 936294400
I0704 10:26:44.048017 20391 layer_factory.hpp:76] Creating layer conv4
I0704 10:26:44.048022 20391 net.cpp:109] Creating Layer conv4
I0704 10:26:44.048023 20391 net.cpp:457] conv4 <- conv3
I0704 10:26:44.048027 20391 net.cpp:414] conv4 -> conv4
I0704 10:26:44.062052 20391 net.cpp:153] Setting up conv4
I0704 10:26:44.062067 20391 net.cpp:160] Top shape: 128 384 13 13 (8306688)
I0704 10:26:44.062070 20391 net.cpp:168] Memory required for data: 969521152
I0704 10:26:44.062075 20391 layer_factory.hpp:76] Creating layer relu4
I0704 10:26:44.062080 20391 net.cpp:109] Creating Layer relu4
I0704 10:26:44.062083 20391 net.cpp:457] relu4 <- conv4
I0704 10:26:44.062086 20391 net.cpp:400] relu4 -> conv4 (in-place)
I0704 10:26:44.062093 20391 net.cpp:153] Setting up relu4
I0704 10:26:44.062094 20391 net.cpp:160] Top shape: 128 384 13 13 (8306688)
I0704 10:26:44.062096 20391 net.cpp:168] Memory required for data: 1002747904
I0704 10:26:44.062098 20391 layer_factory.hpp:76] Creating layer conv5
I0704 10:26:44.062116 20391 net.cpp:109] Creating Layer conv5
I0704 10:26:44.062119 20391 net.cpp:457] conv5 <- conv4
I0704 10:26:44.062121 20391 net.cpp:414] conv5 -> conv5
I0704 10:26:44.072484 20391 net.cpp:153] Setting up conv5
I0704 10:26:44.072499 20391 net.cpp:160] Top shape: 128 256 13 13 (5537792)
I0704 10:26:44.072501 20391 net.cpp:168] Memory required for data: 1024899072
I0704 10:26:44.072509 20391 layer_factory.hpp:76] Creating layer relu5
I0704 10:26:44.072515 20391 net.cpp:109] Creating Layer relu5
I0704 10:26:44.072517 20391 net.cpp:457] relu5 <- conv5
I0704 10:26:44.072520 20391 net.cpp:400] relu5 -> conv5 (in-place)
I0704 10:26:44.072525 20391 net.cpp:153] Setting up relu5
I0704 10:26:44.072528 20391 net.cpp:160] Top shape: 128 256 13 13 (5537792)
I0704 10:26:44.072530 20391 net.cpp:168] Memory required for data: 1047050240
I0704 10:26:44.072531 20391 layer_factory.hpp:76] Creating layer pool5
I0704 10:26:44.072535 20391 net.cpp:109] Creating Layer pool5
I0704 10:26:44.072536 20391 net.cpp:457] pool5 <- conv5
I0704 10:26:44.072540 20391 net.cpp:414] pool5 -> pool5
I0704 10:26:44.072561 20391 net.cpp:153] Setting up pool5
I0704 10:26:44.072563 20391 net.cpp:160] Top shape: 128 256 6 6 (1179648)
I0704 10:26:44.072564 20391 net.cpp:168] Memory required for data: 1051768832
I0704 10:26:44.072566 20391 layer_factory.hpp:76] Creating layer fc6_clean
I0704 10:26:44.072572 20391 net.cpp:109] Creating Layer fc6_clean
I0704 10:26:44.072573 20391 net.cpp:457] fc6_clean <- pool5
I0704 10:26:44.072576 20391 net.cpp:414] fc6_clean -> fc6_clean
I0704 10:26:44.764777 20391 net.cpp:153] Setting up fc6_clean
I0704 10:26:44.764796 20391 net.cpp:160] Top shape: 128 4096 (524288)
I0704 10:26:44.764798 20391 net.cpp:168] Memory required for data: 1053865984
I0704 10:26:44.764804 20391 layer_factory.hpp:76] Creating layer relu6
I0704 10:26:44.764811 20391 net.cpp:109] Creating Layer relu6
I0704 10:26:44.764814 20391 net.cpp:457] relu6 <- fc6_clean
I0704 10:26:44.764818 20391 net.cpp:400] relu6 -> fc6_clean (in-place)
I0704 10:26:44.764825 20391 net.cpp:153] Setting up relu6
I0704 10:26:44.764828 20391 net.cpp:160] Top shape: 128 4096 (524288)
I0704 10:26:44.764830 20391 net.cpp:168] Memory required for data: 1055963136
I0704 10:26:44.764832 20391 layer_factory.hpp:76] Creating layer drop6
I0704 10:26:44.765260 20391 net.cpp:109] Creating Layer drop6
I0704 10:26:44.765269 20391 net.cpp:457] drop6 <- fc6_clean
I0704 10:26:44.765272 20391 net.cpp:400] drop6 -> fc6_clean (in-place)
I0704 10:26:44.765296 20391 net.cpp:153] Setting up drop6
I0704 10:26:44.765300 20391 net.cpp:160] Top shape: 128 4096 (524288)
I0704 10:26:44.765301 20391 net.cpp:168] Memory required for data: 1058060288
I0704 10:26:44.765303 20391 layer_factory.hpp:76] Creating layer fc7_clean
I0704 10:26:44.765310 20391 net.cpp:109] Creating Layer fc7_clean
I0704 10:26:44.765311 20391 net.cpp:457] fc7_clean <- fc6_clean
I0704 10:26:44.765313 20391 net.cpp:414] fc7_clean -> fc7_clean
I0704 10:26:45.074092 20391 net.cpp:153] Setting up fc7_clean
I0704 10:26:45.074111 20391 net.cpp:160] Top shape: 128 4096 (524288)
I0704 10:26:45.074115 20391 net.cpp:168] Memory required for data: 1060157440
I0704 10:26:45.074120 20391 layer_factory.hpp:76] Creating layer relu7
I0704 10:26:45.074127 20391 net.cpp:109] Creating Layer relu7
I0704 10:26:45.074129 20391 net.cpp:457] relu7 <- fc7_clean
I0704 10:26:45.074134 20391 net.cpp:400] relu7 -> fc7_clean (in-place)
I0704 10:26:45.074141 20391 net.cpp:153] Setting up relu7
I0704 10:26:45.074143 20391 net.cpp:160] Top shape: 128 4096 (524288)
I0704 10:26:45.074144 20391 net.cpp:168] Memory required for data: 1062254592
I0704 10:26:45.074146 20391 layer_factory.hpp:76] Creating layer drop7
I0704 10:26:45.074151 20391 net.cpp:109] Creating Layer drop7
I0704 10:26:45.074152 20391 net.cpp:457] drop7 <- fc7_clean
I0704 10:26:45.074154 20391 net.cpp:400] drop7 -> fc7_clean (in-place)
I0704 10:26:45.074165 20391 net.cpp:153] Setting up drop7
I0704 10:26:45.074168 20391 net.cpp:160] Top shape: 128 4096 (524288)
I0704 10:26:45.074187 20391 net.cpp:168] Memory required for data: 1064351744
I0704 10:26:45.074188 20391 layer_factory.hpp:76] Creating layer fc8_clean
I0704 10:26:45.074193 20391 net.cpp:109] Creating Layer fc8_clean
I0704 10:26:45.074195 20391 net.cpp:457] fc8_clean <- fc7_clean
I0704 10:26:45.074198 20391 net.cpp:414] fc8_clean -> fc8_clean
I0704 10:26:45.145769 20391 net.cpp:153] Setting up fc8_clean
I0704 10:26:45.145787 20391 net.cpp:160] Top shape: 128 967 (123776)
I0704 10:26:45.145790 20391 net.cpp:168] Memory required for data: 1064846848
I0704 10:26:45.145797 20391 layer_factory.hpp:76] Creating layer loss
I0704 10:26:45.145807 20391 net.cpp:109] Creating Layer loss
I0704 10:26:45.145812 20391 net.cpp:457] loss <- fc8_clean
I0704 10:26:45.145814 20391 net.cpp:457] loss <- label
I0704 10:26:45.145818 20391 net.cpp:414] loss -> loss
I0704 10:26:45.145824 20391 layer_factory.hpp:76] Creating layer loss
…
I0704 10:26:45.147322 20391 solver.cpp:187] Creating test net (#0) specified by net file: train_val.prototxt
I0704 10:26:45.147368 20391 net.cpp:325] The NetState phase (1) differed from the phase (0) specified by a rule in layer train-data
I0704 10:26:45.147475 20391 net.cpp:52] Initializing net from parameters:
state {
phase: TEST
}
layer {
name: "val-data"
type: "Data"
top: "data"
top: "label"
include {
phase: TEST
}
transform_param {
crop_size: 227
mean_file: "/home/ffw/scratch/digits/jobs/20160624-120053-bb9a/mean.binaryproto"
}
data_param {
source: "/home/ffw/scratch/digits/jobs/20160624-120053-bb9a/val_db"
batch_size: 32
backend: LMDB
}
}
layer {
name: "conv1"
type: "Convolution"
bottom: "data"
top: "conv1"
param {
lr_mult: 0
decay_mult: 0
}
param {
lr_mult: 0
decay_mult: 0
}
convolution_param {
num_output: 96
kernel_size: 11
stride: 4
weight_filler {
type: "gaussian"
std: 0.01
}
bias_filler {
type: "constant"
value: 0
}
}
}
layer {
name: "relu1"
type: "ReLU"
bottom: "conv1"
top: "conv1"
}
layer {
name: "norm1"
type: "LRN"
bottom: "conv1"
top: "norm1"
lrn_param {
local_size: 5
alpha: 0.0001
beta: 0.75
}
}
layer {
name: "pool1"
type: "Pooling"
bottom: "norm1"
top: "pool1"
pooling_param {
pool: MAX
kernel_size: 3
stride: 2
}
}
layer {
name: "conv2"
type: "Convolution"
bottom: "pool1"
top: "conv2"
param {
lr_mult: 0
decay_mult: 0
}
param {
lr_mult: 0
decay_mult: 0
}
convolution_param {
num_output: 256
pad: 2
kernel_size: 5
group: 2
weight_filler {
type: "gaussian"
std: 0.01
}
bias_filler {
type: "constant"
value: 0.1
}
}
}
layer {
name: "relu2"
type: "ReLU"
bottom: "conv2"
top: "conv2"
}
layer {
name: "norm2"
type: "LRN"
bottom: "conv2"
top: "norm2"
lrn_param {
local_size: 5
alpha: 0.0001
beta: 0.75
}
}
layer {
name: "pool2"
type: "Pooling"
bottom: "norm2"
top: "pool2"
pooling_param {
pool: MAX
kernel_size: 3
stride: 2
}
}
layer {
name: "conv3"
type: "Convolution"
bottom: "pool2"
top: "conv3"
param {
lr_mult: 0
decay_mult: 0
}
param {
lr_mult: 0
decay_mult: 0
}
convolution_param {
num_output: 384
pad: 1
kernel_size: 3
weight_filler {
type: "gaussian"
std: 0.01
}
bias_filler {
type: "constant"
value: 0
}
}
}
layer {
name: "relu3"
type: "ReLU"
bottom: "conv3"
top: "conv3"
}
layer {
name: "conv4"
type: "Convolution"
bottom: "conv3"
top: "conv4"
param {
lr_mult: 0
decay_mult: 0
}
param {
lr_mult: 0
decay_mult: 0
}
convolution_param {
num_output: 384
pad: 1
kernel_size: 3
group: 2
weight_filler {
type: "gaussian"
std: 0.01
}
bias_filler {
type: "constant"
value: 0.1
}
}
}
layer {
name: "relu4"
type: "ReLU"
bottom: "conv4"
top: "conv4"
}
layer {
name: "conv5"
type: "Convolution"
bottom: "conv4"
top: "conv5"
param {
lr_mult: 0
decay_mult: 0
}
param {
lr_mult: 0
decay_mult: 0
}
convolution_param {
num_output: 256
pad: 1
kernel_size: 3
group: 2
weight_filler {
type: "gaussian"
std: 0.01
}
bias_filler {
type: "constant"
value: 0.1
}
}
}
layer {
name: "relu5"
type: "ReLU"
bottom: "conv5"
top: "conv5"
}
layer {
name: "pool5"
type: "Pooling"
bottom: "conv5"
top: "pool5"
pooling_param {
pool: MAX
kernel_size: 3
stride: 2
}
}
layer {
name: "fc6_clean"
type: "InnerProduct"
bottom: "pool5"
top: "fc6_clean"
param {
lr_mult: 1
decay_mult: 1
}
param {
lr_mult: 2
decay_mult: 0
}
inner_product_param {
num_output: 4096
weight_filler {
type: "gaussian"
std: 0.005
}
bias_filler {
type: "constant"
value: 0.1
}
}
}
layer {
name: "relu6"
type: "ReLU"
bottom: "fc6_clean"
top: "fc6_clean"
}
layer {
name: "drop6"
type: "Dropout"
bottom: "fc6_clean"
top: "fc6_clean"
dropout_param {
dropout_ratio: 0.5
}
}
layer {
name: "fc7_clean"
type: "InnerProduct"
bottom: "fc6_clean"
top: "fc7_clean"
param {
lr_mult: 1
decay_mult: 1
}
param {
lr_mult: 2
decay_mult: 0
}
inner_product_param {
num_output: 4096
weight_filler {
type: "gaussian"
std: 0.005
}
bias_filler {
type: "constant"
value: 0.1
}
}
}
layer {
name: "relu7"
type: "ReLU"
bottom: "fc7_clean"
top: "fc7_clean"
}
layer {
name: "drop7"
type: "Dropout"
bottom: "fc7_clean"
top: "fc7_clean"
dropout_param {
dropout_ratio: 0.5
}
}
layer {
name: "fc8_clean"
type: "InnerProduct"
bottom: "fc7_clean"
top: "fc8_clean"
param {
lr_mult: 1
decay_mult: 1
}
param {
lr_mult: 2
decay_mult: 0
}
inner_product_param {
num_output: 967
weight_filler {
type: "gaussian"
std: 0.01
}
bias_filler {
type: "constant"
value: 0
}
}
}
layer {
name: "accuracy"
type: "Accuracy"
bottom: "fc8_clean"
bottom: "label"
top: "accuracy"
include {
phase: TEST
}
}
layer {
name: "loss"
type: "SoftmaxWithLoss"
bottom: "fc8_clean"
bottom: "label"
top: "loss"
}
I0704 10:26:45.147545 20391 layer_factory.hpp:76] Creating layer val-data
I0704 10:26:45.147596 20391 net.cpp:109] Creating Layer val-data
I0704 10:26:45.147610 20391 net.cpp:414] val-data -> data
I0704 10:26:45.147615 20391 net.cpp:414] val-data -> label
I0704 10:26:45.147619 20391 data_transformer.cpp:25] Loading mean file from: /home/ffw/scratch/digits/jobs/20160624-120053-bb9a/mean.binaryproto
I0704 10:26:45.148793 20405 db_lmdb.cpp:36] Opened lmdb /home/ffw/scratch/digits/jobs/20160624-120053-bb9a/val_db
I0704 10:26:45.152885 20391 data_layer.cpp:45] output data size: 32,3,227,227
I0704 10:26:45.175771 20391 net.cpp:153] Setting up val-data
I0704 10:26:45.175789 20391 net.cpp:160] Top shape: 32 3 227 227 (4946784)
I0704 10:26:45.175792 20391 net.cpp:160] Top shape: 32 (32)
I0704 10:26:45.175794 20391 net.cpp:168] Memory required for data: 19787264
I0704 10:26:45.175798 20391 layer_factory.hpp:76] Creating layer label_val-data_1_split
I0704 10:26:45.176862 20391 net.cpp:109] Creating Layer label_val-data_1_split
I0704 10:26:45.176867 20391 net.cpp:457] label_val-data_1_split <- label
I0704 10:26:45.176872 20391 net.cpp:414] label_val-data_1_split -> label_val-data_1_split_0
I0704 10:26:45.176877 20391 net.cpp:414] label_val-data_1_split -> label_val-data_1_split_1
I0704 10:26:45.176916 20391 net.cpp:153] Setting up label_val-data_1_split
I0704 10:26:45.176919 20391 net.cpp:160] Top shape: 32 (32)
I0704 10:26:45.176923 20391 net.cpp:160] Top shape: 32 (32)
I0704 10:26:45.176923 20391 net.cpp:168] Memory required for data: 19787520
I0704 10:26:45.176925 20391 layer_factory.hpp:76] Creating layer conv1
I0704 10:26:45.176931 20391 net.cpp:109] Creating Layer conv1
I0704 10:26:45.176934 20391 net.cpp:457] conv1 <- data
I0704 10:26:45.176936 20391 net.cpp:414] conv1 -> conv1
I0704 10:26:45.177901 20391 net.cpp:153] Setting up conv1
I0704 10:26:45.177911 20391 net.cpp:160] Top shape: 32 96 55 55 (9292800)
I0704 10:26:45.177914 20391 net.cpp:168] Memory required for data: 56958720
I0704 10:26:45.177924 20391 layer_factory.hpp:76] Creating layer relu1
I0704 10:26:45.177930 20391 net.cpp:109] Creating Layer relu1
I0704 10:26:45.177933 20391 net.cpp:457] relu1 <- conv1
I0704 10:26:45.177937 20391 net.cpp:400] relu1 -> conv1 (in-place)
I0704 10:26:45.177952 20391 net.cpp:153] Setting up relu1
I0704 10:26:45.177954 20391 net.cpp:160] Top shape: 32 96 55 55 (9292800)
I0704 10:26:45.177956 20391 net.cpp:168] Memory required for data: 94129920
I0704 10:26:45.177958 20391 layer_factory.hpp:76] Creating layer norm1
I0704 10:26:45.177963 20391 net.cpp:109] Creating Layer norm1
I0704 10:26:45.177964 20391 net.cpp:457] norm1 <- conv1
I0704 10:26:45.177966 20391 net.cpp:414] norm1 -> norm1
I0704 10:26:45.177989 20391 net.cpp:153] Setting up norm1
I0704 10:26:45.177992 20391 net.cpp:160] Top shape: 32 96 55 55 (9292800)
I0704 10:26:45.177994 20391 net.cpp:168] Memory required for data: 131301120
I0704 10:26:45.177995 20391 layer_factory.hpp:76] Creating layer pool1
I0704 10:26:45.177999 20391 net.cpp:109] Creating Layer pool1
I0704 10:26:45.178000 20391 net.cpp:457] pool1 <- norm1
I0704 10:26:45.178004 20391 net.cpp:414] pool1 -> pool1
I0704 10:26:45.178020 20391 net.cpp:153] Setting up pool1
I0704 10:26:45.178022 20391 net.cpp:160] Top shape: 32 96 27 27 (2239488)
I0704 10:26:45.178025 20391 net.cpp:168] Memory required for data: 140259072
I0704 10:26:45.178025 20391 layer_factory.hpp:76] Creating layer conv2
I0704 10:26:45.178030 20391 net.cpp:109] Creating Layer conv2
I0704 10:26:45.178031 20391 net.cpp:457] conv2 <- pool1
I0704 10:26:45.178047 20391 net.cpp:414] conv2 -> conv2
I0704 10:26:45.184962 20391 net.cpp:153] Setting up conv2
I0704 10:26:45.184975 20391 net.cpp:160] Top shape: 32 256 27 27 (5971968)
I0704 10:26:45.184978 20391 net.cpp:168] Memory required for data: 164146944
I0704 10:26:45.184985 20391 layer_factory.hpp:76] Creating layer relu2
I0704 10:26:45.184991 20391 net.cpp:109] Creating Layer relu2
I0704 10:26:45.184994 20391 net.cpp:457] relu2 <- conv2
I0704 10:26:45.184998 20391 net.cpp:400] relu2 -> conv2 (in-place)
I0704 10:26:45.185003 20391 net.cpp:153] Setting up relu2
I0704 10:26:45.185006 20391 net.cpp:160] Top shape: 32 256 27 27 (5971968)
I0704 10:26:45.185009 20391 net.cpp:168] Memory required for data: 188034816
I0704 10:26:45.185009 20391 layer_factory.hpp:76] Creating layer norm2
I0704 10:26:45.185015 20391 net.cpp:109] Creating Layer norm2
I0704 10:26:45.185017 20391 net.cpp:457] norm2 <- conv2
I0704 10:26:45.185019 20391 net.cpp:414] norm2 -> norm2
I0704 10:26:45.185060 20391 net.cpp:153] Setting up norm2
I0704 10:26:45.185066 20391 net.cpp:160] Top shape: 32 256 27 27 (5971968)
I0704 10:26:45.185068 20391 net.cpp:168] Memory required for data: 211922688
I0704 10:26:45.185071 20391 layer_factory.hpp:76] Creating layer pool2
I0704 10:26:45.185075 20391 net.cpp:109] Creating Layer pool2
I0704 10:26:45.185080 20391 net.cpp:457] pool2 <- norm2
I0704 10:26:45.185083 20391 net.cpp:414] pool2 -> pool2
I0704 10:26:45.185117 20391 net.cpp:153] Setting up pool2
I0704 10:26:45.185122 20391 net.cpp:160] Top shape: 32 256 13 13 (1384448)
I0704 10:26:45.185124 20391 net.cpp:168] Memory required for data: 217460480
I0704 10:26:45.185127 20391 layer_factory.hpp:76] Creating layer conv3
I0704 10:26:45.185132 20391 net.cpp:109] Creating Layer conv3
I0704 10:26:45.185133 20391 net.cpp:457] conv3 <- pool2
I0704 10:26:45.185137 20391 net.cpp:414] conv3 -> conv3
I0704 10:26:45.202915 20391 net.cpp:153] Setting up conv3
I0704 10:26:45.202930 20391 net.cpp:160] Top shape: 32 384 13 13 (2076672)
I0704 10:26:45.202932 20391 net.cpp:168] Memory required for data: 225767168
I0704 10:26:45.202939 20391 layer_factory.hpp:76] Creating layer relu3
I0704 10:26:45.202945 20391 net.cpp:109] Creating Layer relu3
I0704 10:26:45.202949 20391 net.cpp:457] relu3 <- conv3
I0704 10:26:45.202951 20391 net.cpp:400] relu3 -> conv3 (in-place)
I0704 10:26:45.202956 20391 net.cpp:153] Setting up relu3
I0704 10:26:45.202960 20391 net.cpp:160] Top shape: 32 384 13 13 (2076672)
I0704 10:26:45.202960 20391 net.cpp:168] Memory required for data: 234073856
I0704 10:26:45.202962 20391 layer_factory.hpp:76] Creating layer conv4
I0704 10:26:45.202967 20391 net.cpp:109] Creating Layer conv4
I0704 10:26:45.202970 20391 net.cpp:457] conv4 <- conv3
I0704 10:26:45.202972 20391 net.cpp:414] conv4 -> conv4
I0704 10:26:45.215770 20391 net.cpp:153] Setting up conv4
I0704 10:26:45.215785 20391 net.cpp:160] Top shape: 32 384 13 13 (2076672)
I0704 10:26:45.215786 20391 net.cpp:168] Memory required for data: 242380544
I0704 10:26:45.215791 20391 layer_factory.hpp:76] Creating layer relu4
I0704 10:26:45.215796 20391 net.cpp:109] Creating Layer relu4
I0704 10:26:45.215800 20391 net.cpp:457] relu4 <- conv4
I0704 10:26:45.215803 20391 net.cpp:400] relu4 -> conv4 (in-place)
I0704 10:26:45.215808 20391 net.cpp:153] Setting up relu4
I0704 10:26:45.215811 20391 net.cpp:160] Top shape: 32 384 13 13 (2076672)
I0704 10:26:45.215812 20391 net.cpp:168] Memory required for data: 250687232
I0704 10:26:45.215814 20391 layer_factory.hpp:76] Creating layer conv5
I0704 10:26:45.215819 20391 net.cpp:109] Creating Layer conv5
I0704 10:26:45.215821 20391 net.cpp:457] conv5 <- conv4
I0704 10:26:45.215824 20391 net.cpp:414] conv5 -> conv5
I0704 10:26:45.225457 20391 net.cpp:153] Setting up conv5
I0704 10:26:45.225468 20391 net.cpp:160] Top shape: 32 256 13 13 (1384448)
I0704 10:26:45.225471 20391 net.cpp:168] Memory required for data: 256225024
I0704 10:26:45.225478 20391 layer_factory.hpp:76] Creating layer relu5
I0704 10:26:45.225483 20391 net.cpp:109] Creating Layer relu5
I0704 10:26:45.225498 20391 net.cpp:457] relu5 <- conv5
I0704 10:26:45.225502 20391 net.cpp:400] relu5 -> conv5 (in-place)
I0704 10:26:45.225507 20391 net.cpp:153] Setting up relu5
I0704 10:26:45.225510 20391 net.cpp:160] Top shape: 32 256 13 13 (1384448)
I0704 10:26:45.225512 20391 net.cpp:168] Memory required for data: 261762816
I0704 10:26:45.225513 20391 layer_factory.hpp:76] Creating layer pool5
I0704 10:26:45.225518 20391 net.cpp:109] Creating Layer pool5
I0704 10:26:45.225520 20391 net.cpp:457] pool5 <- conv5
I0704 10:26:45.225523 20391 net.cpp:414] pool5 -> pool5
I0704 10:26:45.225545 20391 net.cpp:153] Setting up pool5
I0704 10:26:45.225548 20391 net.cpp:160] Top shape: 32 256 6 6 (294912)
I0704 10:26:45.225550 20391 net.cpp:168] Memory required for data: 262942464
I0704 10:26:45.225553 20391 layer_factory.hpp:76] Creating layer fc6_clean
I0704 10:26:45.225558 20391 net.cpp:109] Creating Layer fc6_clean
I0704 10:26:45.225558 20391 net.cpp:457] fc6_clean <- pool5
I0704 10:26:45.225561 20391 net.cpp:414] fc6_clean -> fc6_clean
I0704 10:26:45.911588 20391 net.cpp:153] Setting up fc6_clean
I0704 10:26:45.911607 20391 net.cpp:160] Top shape: 32 4096 (131072)
I0704 10:26:45.911610 20391 net.cpp:168] Memory required for data: 263466752
I0704 10:26:45.911617 20391 layer_factory.hpp:76] Creating layer relu6
I0704 10:26:45.911623 20391 net.cpp:109] Creating Layer relu6
I0704 10:26:45.911626 20391 net.cpp:457] relu6 <- fc6_clean
I0704 10:26:45.911630 20391 net.cpp:400] relu6 -> fc6_clean (in-place)
I0704 10:26:45.911638 20391 net.cpp:153] Setting up relu6
I0704 10:26:45.911640 20391 net.cpp:160] Top shape: 32 4096 (131072)
I0704 10:26:45.911641 20391 net.cpp:168] Memory required for data: 263991040
I0704 10:26:45.911644 20391 layer_factory.hpp:76] Creating layer drop6
I0704 10:26:45.911648 20391 net.cpp:109] Creating Layer drop6
I0704 10:26:45.911650 20391 net.cpp:457] drop6 <- fc6_clean
I0704 10:26:45.911653 20391 net.cpp:400] drop6 -> fc6_clean (in-place)
I0704 10:26:45.911671 20391 net.cpp:153] Setting up drop6
I0704 10:26:45.911674 20391 net.cpp:160] Top shape: 32 4096 (131072)
I0704 10:26:45.911676 20391 net.cpp:168] Memory required for data: 264515328
I0704 10:26:45.911677 20391 layer_factory.hpp:76] Creating layer fc7_clean
I0704 10:26:45.911682 20391 net.cpp:109] Creating Layer fc7_clean
I0704 10:26:45.911684 20391 net.cpp:457] fc7_clean <- fc6_clean
I0704 10:26:45.911687 20391 net.cpp:414] fc7_clean -> fc7_clean
I0704 10:26:46.213592 20391 net.cpp:153] Setting up fc7_clean
I0704 10:26:46.213610 20391 net.cpp:160] Top shape: 32 4096 (131072)
I0704 10:26:46.213614 20391 net.cpp:168] Memory required for data: 265039616
I0704 10:26:46.213619 20391 layer_factory.hpp:76] Creating layer relu7
I0704 10:26:46.213626 20391 net.cpp:109] Creating Layer relu7
I0704 10:26:46.213629 20391 net.cpp:457] relu7 <- fc7_clean
I0704 10:26:46.213634 20391 net.cpp:400] relu7 -> fc7_clean (in-place)
I0704 10:26:46.213640 20391 net.cpp:153] Setting up relu7
I0704 10:26:46.213642 20391 net.cpp:160] Top shape: 32 4096 (131072)
I0704 10:26:46.213644 20391 net.cpp:168] Memory required for data: 265563904
I0704 10:26:46.213646 20391 layer_factory.hpp:76] Creating layer drop7
I0704 10:26:46.213650 20391 net.cpp:109] Creating Layer drop7
I0704 10:26:46.213652 20391 net.cpp:457] drop7 <- fc7_clean
I0704 10:26:46.213654 20391 net.cpp:400] drop7 -> fc7_clean (in-place)
I0704 10:26:46.213672 20391 net.cpp:153] Setting up drop7
I0704 10:26:46.213675 20391 net.cpp:160] Top shape: 32 4096 (131072)
I0704 10:26:46.213677 20391 net.cpp:168] Memory required for data: 266088192
I0704 10:26:46.213678 20391 layer_factory.hpp:76] Creating layer fc8_clean
I0704 10:26:46.213683 20391 net.cpp:109] Creating Layer fc8_clean
I0704 10:26:46.213685 20391 net.cpp:457] fc8_clean <- fc7_clean
I0704 10:26:46.213688 20391 net.cpp:414] fc8_clean -> fc8_clean
I0704 10:26:46.285547 20391 net.cpp:153] Setting up fc8_clean
I0704 10:26:46.285563 20391 net.cpp:160] Top shape: 32 967 (30944)
I0704 10:26:46.285567 20391 net.cpp:168] Memory required for data: 266211968
I0704 10:26:46.285589 20391 layer_factory.hpp:76] Creating layer fc8_clean_fc8_clean_0_split
I0704 10:26:46.285596 20391 net.cpp:109] Creating Layer fc8_clean_fc8_clean_0_split
I0704 10:26:46.285599 20391 net.cpp:457] fc8_clean_fc8_clean_0_split <- fc8_clean
I0704 10:26:46.285604 20391 net.cpp:414] fc8_clean_fc8_clean_0_split -> fc8_clean_fc8_clean_0_split_0
I0704 10:26:46.285609 20391 net.cpp:414] fc8_clean_fc8_clean_0_split -> fc8_clean_fc8_clean_0_split_1
I0704 10:26:46.285637 20391 net.cpp:153] Setting up fc8_clean_fc8_clean_0_split
I0704 10:26:46.285640 20391 net.cpp:160] Top shape: 32 967 (30944)
I0704 10:26:46.285642 20391 net.cpp:160] Top shape: 32 967 (30944)
I0704 10:26:46.285645 20391 net.cpp:168] Memory required for data: 266459520
I0704 10:26:46.285646 20391 layer_factory.hpp:76] Creating layer accuracy
I0704 10:26:46.285657 20391 net.cpp:109] Creating Layer accuracy
I0704 10:26:46.285660 20391 net.cpp:457] accuracy <- fc8_clean_fc8_clean_0_split_0
I0704 10:26:46.285661 20391 net.cpp:457] accuracy <- label_val-data_1_split_0
I0704 10:26:46.285665 20391 net.cpp:414] accuracy -> accuracy
…
