…
I0705 09:13:54.937505  2217 net.cpp:325] The NetState phase (0) differed from the phase (1) specified by a rule in layer accuracy
I0705 09:13:54.937705  2217 net.cpp:52] Initializing net from parameters:
state {
phase: TRAIN
}
layer {
name: "train-data"
type: "Data"
top: "data"
top: "label"
include {
phase: TRAIN
}
transform_param {
mirror: true
crop_size: 227
mean_file: "/home/zml374/workspace/DIGITS/digits/jobs/20160704-085910-0cc9/mean.binaryproto"
}
data_param {
source: "/home/zml374/workspace/DIGITS/digits/jobs/20160704-085910-0cc9/train_db"
batch_size: 200
backend: LMDB
}
}
layer {
name: "conv1"
type: "Convolution"
bottom: "data"
top: "conv1"
param {
lr_mult: 0
decay_mult: 0
}
param {
lr_mult: 0
decay_mult: 0
}
convolution_param {
num_output: 96
kernel_size: 11
stride: 4
weight_filler {
type: "gaussian"
std: 0.01
}
bias_filler {
type: "constant"
value: 0
}
}
}
layer {
name: "relu1"
type: "ReLU"
bottom: "conv1"
top: "conv1"
}
layer {
name: "norm1"
type: "LRN"
bottom: "conv1"
top: "norm1"
lrn_param {
local_size: 5
alpha: 0.0001
beta: 0.75
}
}
layer {
name: "pool1"
type: "Pooling"
bottom: "norm1"
top: "pool1"
pooling_param {
pool: MAX
kernel_size: 3
stride: 2
}
}
layer {
name: "conv2"
type: "Convolution"
bottom: "pool1"
top: "conv2"
param {
lr_mult: 0
decay_mult: 0
}
param {
lr_mult: 0
decay_mult: 0
}
convolution_param {
num_output: 256
pad: 2
kernel_size: 5
group: 2
weight_filler {
type: "gaussian"
std: 0.01
}
bias_filler {
type: "constant"
value: 0.1
}
}
}
layer {
name: "relu2"
type: "ReLU"
bottom: "conv2"
top: "conv2"
}
layer {
name: "norm2"
type: "LRN"
bottom: "conv2"
top: "norm2"
lrn_param {
local_size: 5
alpha: 0.0001
beta: 0.75
}
}
layer {
name: "pool2"
type: "Pooling"
bottom: "norm2"
top: "pool2"
pooling_param {
pool: MAX
kernel_size: 3
stride: 2
}
}
layer {
name: "conv3"
type: "Convolution"
bottom: "pool2"
top: "conv3"
param {
lr_mult: 0
decay_mult: 0
}
param {
lr_mult: 0
decay_mult: 0
}
convolution_param {
num_output: 384
pad: 1
kernel_size: 3
weight_filler {
type: "gaussian"
std: 0.01
}
bias_filler {
type: "constant"
value: 0
}
}
}
layer {
name: "relu3"
type: "ReLU"
bottom: "conv3"
top: "conv3"
}
layer {
name: "conv4"
type: "Convolution"
bottom: "conv3"
top: "conv4"
param {
lr_mult: 0
decay_mult: 0
}
param {
lr_mult: 0
decay_mult: 0
}
convolution_param {
num_output: 384
pad: 1
kernel_size: 3
group: 2
weight_filler {
type: "gaussian"
std: 0.01
}
bias_filler {
type: "constant"
value: 0.1
}
}
}
layer {
name: "relu4"
type: "ReLU"
bottom: "conv4"
top: "conv4"
}
layer {
name: "conv5"
type: "Convolution"
bottom: "conv4"
top: "conv5"
param {
lr_mult: 1
decay_mult: 1
}
param {
lr_mult: 2
decay_mult: 0
}
convolution_param {
num_output: 256
pad: 1
kernel_size: 3
group: 2
weight_filler {
type: "gaussian"
std: 0.01
}
bias_filler {
type: "constant"
value: 0.1
}
}
}
layer {
name: "relu5"
type: "ReLU"
bottom: "conv5"
top: "conv5"
}
layer {
name: "pool5"
type: "Pooling"
bottom: "conv5"
top: "pool5"
pooling_param {
pool: MAX
kernel_size: 3
stride: 2
}
}
layer {
name: "fc6"
type: "InnerProduct"
bottom: "pool5"
top: "fc6"
param {
lr_mult: 1
decay_mult: 1
}
param {
lr_mult: 2
decay_mult: 0
}
inner_product_param {
num_output: 4096
weight_filler {
type: "gaussian"
std: 0.005
}
bias_filler {
type: "constant"
value: 0.1
}
}
}
layer {
name: "relu6"
type: "ReLU"
bottom: "fc6"
top: "fc6"
}
layer {
name: "drop6"
type: "Dropout"
bottom: "fc6"
top: "fc6"
dropout_param {
dropout_ratio: 0.5
}
}
layer {
name: "fc7"
type: "InnerProduct"
bottom: "fc6"
top: "fc7"
param {
lr_mult: 1
decay_mult: 1
}
param {
lr_mult: 2
decay_mult: 0
}
inner_product_param {
num_output: 4096
weight_filler {
type: "gaussian"
std: 0.005
}
bias_filler {
type: "constant"
value: 0.1
}
}
}
layer {
name: "relu7"
type: "ReLU"
bottom: "fc7"
top: "fc7"
}
layer {
name: "drop7"
type: "Dropout"
bottom: "fc7"
top: "fc7"
dropout_param {
dropout_ratio: 0.5
}
}
layer {
name: "fc8_clean"
type: "InnerProduct"
bottom: "fc7"
top: "fc8_clean"
param {
lr_mult: 1
decay_mult: 1
}
param {
lr_mult: 2
decay_mult: 0
}
inner_product_param {
num_output: 967
weight_filler {
type: "gaussian"
std: 0.01
}
bias_filler {
type: "constant"
value: 0
}
}
}
layer {
name: "loss"
type: "SoftmaxWithLoss"
bottom: "fc8_clean"
bottom: "label"
top: "loss"
}
I0705 09:13:54.937837  2217 layer_factory.hpp:76] Creating layer train-data
I0705 09:13:54.939162  2217 net.cpp:109] Creating Layer train-data
I0705 09:13:54.939175  2217 net.cpp:414] train-data -> data
I0705 09:13:54.939203  2217 net.cpp:414] train-data -> label
I0705 09:13:54.939224  2217 data_transformer.cpp:25] Loading mean file from: /home/zml374/workspace/DIGITS/digits/jobs/20160704-085910-0cc9/mean.binaryproto
I0705 09:13:54.941460  2246 db_lmdb.cpp:36] Opened lmdb /home/zml374/workspace/DIGITS/digits/jobs/20160704-085910-0cc9/train_db
I0705 09:13:54.947242  2217 data_layer.cpp:45] output data size: 200,3,227,227
I0705 09:13:55.244021  2217 net.cpp:153] Setting up train-data
I0705 09:13:55.244077  2217 net.cpp:160] Top shape: 200 3 227 227 (30917400)
I0705 09:13:55.244086  2217 net.cpp:160] Top shape: 200 (200)
I0705 09:13:55.244091  2217 net.cpp:168] Memory required for data: 123670400
I0705 09:13:55.244104  2217 layer_factory.hpp:76] Creating layer conv1
I0705 09:13:55.244141  2217 net.cpp:109] Creating Layer conv1
I0705 09:13:55.244148  2217 net.cpp:457] conv1 <- data
I0705 09:13:55.244166  2217 net.cpp:414] conv1 -> conv1
I0705 09:13:55.248065  2217 net.cpp:153] Setting up conv1
I0705 09:13:55.248082  2217 net.cpp:160] Top shape: 200 96 55 55 (58080000)
I0705 09:13:55.248088  2217 net.cpp:168] Memory required for data: 355990400
I0705 09:13:55.248109  2217 layer_factory.hpp:76] Creating layer relu1
I0705 09:13:55.248122  2217 net.cpp:109] Creating Layer relu1
I0705 09:13:55.248128  2217 net.cpp:457] relu1 <- conv1
I0705 09:13:55.248136  2217 net.cpp:400] relu1 -> conv1 (in-place)
I0705 09:13:55.248152  2217 net.cpp:153] Setting up relu1
I0705 09:13:55.248159  2217 net.cpp:160] Top shape: 200 96 55 55 (58080000)
I0705 09:13:55.248164  2217 net.cpp:168] Memory required for data: 588310400
I0705 09:13:55.248168  2217 layer_factory.hpp:76] Creating layer norm1
I0705 09:13:55.248180  2217 net.cpp:109] Creating Layer norm1
I0705 09:13:55.248185  2217 net.cpp:457] norm1 <- conv1
I0705 09:13:55.248193  2217 net.cpp:414] norm1 -> norm1
I0705 09:13:55.248253  2217 net.cpp:153] Setting up norm1
I0705 09:13:55.248263  2217 net.cpp:160] Top shape: 200 96 55 55 (58080000)
I0705 09:13:55.248268  2217 net.cpp:168] Memory required for data: 820630400
I0705 09:13:55.248273  2217 layer_factory.hpp:76] Creating layer pool1
I0705 09:13:55.248284  2217 net.cpp:109] Creating Layer pool1
I0705 09:13:55.248330  2217 net.cpp:457] pool1 <- norm1
I0705 09:13:55.248340  2217 net.cpp:414] pool1 -> pool1
I0705 09:13:55.248394  2217 net.cpp:153] Setting up pool1
I0705 09:13:55.248404  2217 net.cpp:160] Top shape: 200 96 27 27 (13996800)
I0705 09:13:55.248409  2217 net.cpp:168] Memory required for data: 876617600
I0705 09:13:55.248414  2217 layer_factory.hpp:76] Creating layer conv2
I0705 09:13:55.248426  2217 net.cpp:109] Creating Layer conv2
I0705 09:13:55.248431  2217 net.cpp:457] conv2 <- pool1
I0705 09:13:55.248440  2217 net.cpp:414] conv2 -> conv2
I0705 09:13:55.264807  2217 net.cpp:153] Setting up conv2
I0705 09:13:55.264827  2217 net.cpp:160] Top shape: 200 256 27 27 (37324800)
I0705 09:13:55.264832  2217 net.cpp:168] Memory required for data: 1025916800
I0705 09:13:55.264843  2217 layer_factory.hpp:76] Creating layer relu2
I0705 09:13:55.264853  2217 net.cpp:109] Creating Layer relu2
I0705 09:13:55.264859  2217 net.cpp:457] relu2 <- conv2
I0705 09:13:55.264868  2217 net.cpp:400] relu2 -> conv2 (in-place)
I0705 09:13:55.264878  2217 net.cpp:153] Setting up relu2
I0705 09:13:55.264884  2217 net.cpp:160] Top shape: 200 256 27 27 (37324800)
I0705 09:13:55.264889  2217 net.cpp:168] Memory required for data: 1175216000
I0705 09:13:55.264894  2217 layer_factory.hpp:76] Creating layer norm2
I0705 09:13:55.264904  2217 net.cpp:109] Creating Layer norm2
I0705 09:13:55.264909  2217 net.cpp:457] norm2 <- conv2
I0705 09:13:55.264915  2217 net.cpp:414] norm2 -> norm2
I0705 09:13:55.264961  2217 net.cpp:153] Setting up norm2
I0705 09:13:55.264971  2217 net.cpp:160] Top shape: 200 256 27 27 (37324800)
I0705 09:13:55.264974  2217 net.cpp:168] Memory required for data: 1324515200
I0705 09:13:55.264978  2217 layer_factory.hpp:76] Creating layer pool2
I0705 09:13:55.264989  2217 net.cpp:109] Creating Layer pool2
I0705 09:13:55.264994  2217 net.cpp:457] pool2 <- norm2
I0705 09:13:55.265002  2217 net.cpp:414] pool2 -> pool2
I0705 09:13:55.265041  2217 net.cpp:153] Setting up pool2
I0705 09:13:55.265049  2217 net.cpp:160] Top shape: 200 256 13 13 (8652800)
I0705 09:13:55.265054  2217 net.cpp:168] Memory required for data: 1359126400
I0705 09:13:55.265058  2217 layer_factory.hpp:76] Creating layer conv3
I0705 09:13:55.265070  2217 net.cpp:109] Creating Layer conv3
I0705 09:13:55.265075  2217 net.cpp:457] conv3 <- pool2
I0705 09:13:55.265085  2217 net.cpp:414] conv3 -> conv3
I0705 09:13:55.298512  2217 net.cpp:153] Setting up conv3
I0705 09:13:55.298529  2217 net.cpp:160] Top shape: 200 384 13 13 (12979200)
I0705 09:13:55.298534  2217 net.cpp:168] Memory required for data: 1411043200
I0705 09:13:55.298547  2217 layer_factory.hpp:76] Creating layer relu3
I0705 09:13:55.298557  2217 net.cpp:109] Creating Layer relu3
I0705 09:13:55.298562  2217 net.cpp:457] relu3 <- conv3
I0705 09:13:55.298569  2217 net.cpp:400] relu3 -> conv3 (in-place)
I0705 09:13:55.298578  2217 net.cpp:153] Setting up relu3
I0705 09:13:55.298584  2217 net.cpp:160] Top shape: 200 384 13 13 (12979200)
I0705 09:13:55.298589  2217 net.cpp:168] Memory required for data: 1462960000
I0705 09:13:55.298593  2217 layer_factory.hpp:76] Creating layer conv4
I0705 09:13:55.298604  2217 net.cpp:109] Creating Layer conv4
I0705 09:13:55.298609  2217 net.cpp:457] conv4 <- conv3
I0705 09:13:55.298616  2217 net.cpp:414] conv4 -> conv4
I0705 09:13:55.323806  2217 net.cpp:153] Setting up conv4
I0705 09:13:55.323822  2217 net.cpp:160] Top shape: 200 384 13 13 (12979200)
I0705 09:13:55.323827  2217 net.cpp:168] Memory required for data: 1514876800
I0705 09:13:55.323835  2217 layer_factory.hpp:76] Creating layer relu4
I0705 09:13:55.323843  2217 net.cpp:109] Creating Layer relu4
I0705 09:13:55.323848  2217 net.cpp:457] relu4 <- conv4
I0705 09:13:55.323855  2217 net.cpp:400] relu4 -> conv4 (in-place)
I0705 09:13:55.323864  2217 net.cpp:153] Setting up relu4
I0705 09:13:55.323871  2217 net.cpp:160] Top shape: 200 384 13 13 (12979200)
I0705 09:13:55.323875  2217 net.cpp:168] Memory required for data: 1566793600
I0705 09:13:55.323880  2217 layer_factory.hpp:76] Creating layer conv5
I0705 09:13:55.323890  2217 net.cpp:109] Creating Layer conv5
I0705 09:13:55.323915  2217 net.cpp:457] conv5 <- conv4
I0705 09:13:55.323925  2217 net.cpp:414] conv5 -> conv5
I0705 09:13:55.340847  2217 net.cpp:153] Setting up conv5
I0705 09:13:55.340862  2217 net.cpp:160] Top shape: 200 256 13 13 (8652800)
I0705 09:13:55.340867  2217 net.cpp:168] Memory required for data: 1601404800
I0705 09:13:55.340879  2217 layer_factory.hpp:76] Creating layer relu5
I0705 09:13:55.340888  2217 net.cpp:109] Creating Layer relu5
I0705 09:13:55.340893  2217 net.cpp:457] relu5 <- conv5
I0705 09:13:55.340900  2217 net.cpp:400] relu5 -> conv5 (in-place)
I0705 09:13:55.340909  2217 net.cpp:153] Setting up relu5
I0705 09:13:55.340914  2217 net.cpp:160] Top shape: 200 256 13 13 (8652800)
I0705 09:13:55.340919  2217 net.cpp:168] Memory required for data: 1636016000
I0705 09:13:55.340924  2217 layer_factory.hpp:76] Creating layer pool5
I0705 09:13:55.340931  2217 net.cpp:109] Creating Layer pool5
I0705 09:13:55.340935  2217 net.cpp:457] pool5 <- conv5
I0705 09:13:55.340942  2217 net.cpp:414] pool5 -> pool5
I0705 09:13:55.340984  2217 net.cpp:153] Setting up pool5
I0705 09:13:55.340992  2217 net.cpp:160] Top shape: 200 256 6 6 (1843200)
I0705 09:13:55.340997  2217 net.cpp:168] Memory required for data: 1643388800
I0705 09:13:55.341001  2217 layer_factory.hpp:76] Creating layer fc6
I0705 09:13:55.341013  2217 net.cpp:109] Creating Layer fc6
I0705 09:13:55.341017  2217 net.cpp:457] fc6 <- pool5
I0705 09:13:55.341027  2217 net.cpp:414] fc6 -> fc6
I0705 09:13:56.790920  2217 net.cpp:153] Setting up fc6
I0705 09:13:56.790964  2217 net.cpp:160] Top shape: 200 4096 (819200)
I0705 09:13:56.790971  2217 net.cpp:168] Memory required for data: 1646665600
I0705 09:13:56.790984  2217 layer_factory.hpp:76] Creating layer relu6
I0705 09:13:56.790999  2217 net.cpp:109] Creating Layer relu6
I0705 09:13:56.791007  2217 net.cpp:457] relu6 <- fc6
I0705 09:13:56.791018  2217 net.cpp:400] relu6 -> fc6 (in-place)
I0705 09:13:56.791034  2217 net.cpp:153] Setting up relu6
I0705 09:13:56.791040  2217 net.cpp:160] Top shape: 200 4096 (819200)
I0705 09:13:56.791045  2217 net.cpp:168] Memory required for data: 1649942400
I0705 09:13:56.791049  2217 layer_factory.hpp:76] Creating layer drop6
I0705 09:13:56.791071  2217 net.cpp:109] Creating Layer drop6
I0705 09:13:56.791077  2217 net.cpp:457] drop6 <- fc6
I0705 09:13:56.791084  2217 net.cpp:400] drop6 -> fc6 (in-place)
I0705 09:13:56.791121  2217 net.cpp:153] Setting up drop6
I0705 09:13:56.791131  2217 net.cpp:160] Top shape: 200 4096 (819200)
I0705 09:13:56.791134  2217 net.cpp:168] Memory required for data: 1653219200
I0705 09:13:56.791139  2217 layer_factory.hpp:76] Creating layer fc7
I0705 09:13:56.791152  2217 net.cpp:109] Creating Layer fc7
I0705 09:13:56.791155  2217 net.cpp:457] fc7 <- fc6
I0705 09:13:56.791163  2217 net.cpp:414] fc7 -> fc7
I0705 09:13:57.434634  2217 net.cpp:153] Setting up fc7
I0705 09:13:57.434679  2217 net.cpp:160] Top shape: 200 4096 (819200)
I0705 09:13:57.434685  2217 net.cpp:168] Memory required for data: 1656496000
I0705 09:13:57.434698  2217 layer_factory.hpp:76] Creating layer relu7
I0705 09:13:57.434715  2217 net.cpp:109] Creating Layer relu7
I0705 09:13:57.434721  2217 net.cpp:457] relu7 <- fc7
I0705 09:13:57.434731  2217 net.cpp:400] relu7 -> fc7 (in-place)
I0705 09:13:57.434748  2217 net.cpp:153] Setting up relu7
I0705 09:13:57.434754  2217 net.cpp:160] Top shape: 200 4096 (819200)
I0705 09:13:57.434759  2217 net.cpp:168] Memory required for data: 1659772800
I0705 09:13:57.434763  2217 layer_factory.hpp:76] Creating layer drop7
I0705 09:13:57.434773  2217 net.cpp:109] Creating Layer drop7
I0705 09:13:57.434777  2217 net.cpp:457] drop7 <- fc7
I0705 09:13:57.434784  2217 net.cpp:400] drop7 -> fc7 (in-place)
I0705 09:13:57.434819  2217 net.cpp:153] Setting up drop7
I0705 09:13:57.434828  2217 net.cpp:160] Top shape: 200 4096 (819200)
I0705 09:13:57.434833  2217 net.cpp:168] Memory required for data: 1663049600
I0705 09:13:57.434836  2217 layer_factory.hpp:76] Creating layer fc8_clean
I0705 09:13:57.434849  2217 net.cpp:109] Creating Layer fc8_clean
I0705 09:13:57.434900  2217 net.cpp:457] fc8_clean <- fc7
I0705 09:13:57.434908  2217 net.cpp:414] fc8_clean -> fc8_clean
I0705 09:13:57.583742  2217 net.cpp:153] Setting up fc8_clean
I0705 09:13:57.583757  2217 net.cpp:160] Top shape: 200 967 (193400)
I0705 09:13:57.583762  2217 net.cpp:168] Memory required for data: 1663823200
I0705 09:13:57.583771  2217 layer_factory.hpp:76] Creating layer loss
I0705 09:13:57.583793  2217 net.cpp:109] Creating Layer loss
I0705 09:13:57.583798  2217 net.cpp:457] loss <- fc8_clean
I0705 09:13:57.583804  2217 net.cpp:457] loss <- label
I0705 09:13:57.583812  2217 net.cpp:414] loss -> loss
I0705 09:13:57.583824  2217 layer_factory.hpp:76] Creating layer loss
…
I0705 09:13:57.585639  2217 net.cpp:325] The NetState phase (1) differed from the phase (0) specified by a rule in layer train-data
I0705 09:13:57.585860  2217 net.cpp:52] Initializing net from parameters:
state {
phase: TEST
}
layer {
name: "val-data"
type: "Data"
top: "data"
top: "label"
include {
phase: TEST
}
transform_param {
crop_size: 227
mean_file: "/home/zml374/workspace/DIGITS/digits/jobs/20160704-085910-0cc9/mean.binaryproto"
}
data_param {
source: "/home/zml374/workspace/DIGITS/digits/jobs/20160704-085910-0cc9/val_db"
batch_size: 200
backend: LMDB
}
}
layer {
name: "conv1"
type: "Convolution"
bottom: "data"
top: "conv1"
param {
lr_mult: 0
decay_mult: 0
}
param {
lr_mult: 0
decay_mult: 0
}
convolution_param {
num_output: 96
kernel_size: 11
stride: 4
weight_filler {
type: "gaussian"
std: 0.01
}
bias_filler {
type: "constant"
value: 0
}
}
}
layer {
name: "relu1"
type: "ReLU"
bottom: "conv1"
top: "conv1"
}
layer {
name: "norm1"
type: "LRN"
bottom: "conv1"
top: "norm1"
lrn_param {
local_size: 5
alpha: 0.0001
beta: 0.75
}
}
layer {
name: "pool1"
type: "Pooling"
bottom: "norm1"
top: "pool1"
pooling_param {
pool: MAX
kernel_size: 3
stride: 2
}
}
layer {
name: "conv2"
type: "Convolution"
bottom: "pool1"
top: "conv2"
param {
lr_mult: 0
decay_mult: 0
}
param {
lr_mult: 0
decay_mult: 0
}
convolution_param {
num_output: 256
pad: 2
kernel_size: 5
group: 2
weight_filler {
type: "gaussian"
std: 0.01
}
bias_filler {
type: "constant"
value: 0.1
}
}
}
layer {
name: "relu2"
type: "ReLU"
bottom: "conv2"
top: "conv2"
}
layer {
name: "norm2"
type: "LRN"
bottom: "conv2"
top: "norm2"
lrn_param {
local_size: 5
alpha: 0.0001
beta: 0.75
}
}
layer {
name: "pool2"
type: "Pooling"
bottom: "norm2"
top: "pool2"
pooling_param {
pool: MAX
kernel_size: 3
stride: 2
}
}
layer {
name: "conv3"
type: "Convolution"
bottom: "pool2"
top: "conv3"
param {
lr_mult: 0
decay_mult: 0
}
param {
lr_mult: 0
decay_mult: 0
}
convolution_param {
num_output: 384
pad: 1
kernel_size: 3
weight_filler {
type: "gaussian"
std: 0.01
}
bias_filler {
type: "constant"
value: 0
}
}
}
layer {
name: "relu3"
type: "ReLU"
bottom: "conv3"
top: "conv3"
}
layer {
name: "conv4"
type: "Convolution"
bottom: "conv3"
top: "conv4"
param {
lr_mult: 0
decay_mult: 0
}
param {
lr_mult: 0
decay_mult: 0
}
convolution_param {
num_output: 384
pad: 1
kernel_size: 3
group: 2
weight_filler {
type: "gaussian"
std: 0.01
}
bias_filler {
type: "constant"
value: 0.1
}
}
}
layer {
name: "relu4"
type: "ReLU"
bottom: "conv4"
top: "conv4"
}
layer {
name: "conv5"
type: "Convolution"
bottom: "conv4"
top: "conv5"
param {
lr_mult: 1
decay_mult: 1
}
param {
lr_mult: 2
decay_mult: 0
}
convolution_param {
num_output: 256
pad: 1
kernel_size: 3
group: 2
weight_filler {
type: "gaussian"
std: 0.01
}
bias_filler {
type: "constant"
value: 0.1
}
}
}
layer {
name: "relu5"
type: "ReLU"
bottom: "conv5"
top: "conv5"
}
layer {
name: "pool5"
type: "Pooling"
bottom: "conv5"
top: "pool5"
pooling_param {
pool: MAX
kernel_size: 3
stride: 2
}
}
layer {
name: "fc6"
type: "InnerProduct"
bottom: "pool5"
top: "fc6"
param {
lr_mult: 1
decay_mult: 1
}
param {
lr_mult: 2
decay_mult: 0
}
inner_product_param {
num_output: 4096
weight_filler {
type: "gaussian"
std: 0.005
}
bias_filler {
type: "constant"
value: 0.1
}
}
}
layer {
name: "relu6"
type: "ReLU"
bottom: "fc6"
top: "fc6"
}
layer {
name: "drop6"
type: "Dropout"
bottom: "fc6"
top: "fc6"
dropout_param {
dropout_ratio: 0.5
}
}
layer {
name: "fc7"
type: "InnerProduct"
bottom: "fc6"
top: "fc7"
param {
lr_mult: 1
decay_mult: 1
}
param {
lr_mult: 2
decay_mult: 0
}
inner_product_param {
num_output: 4096
weight_filler {
type: "gaussian"
std: 0.005
}
bias_filler {
type: "constant"
value: 0.1
}
}
}
layer {
name: "relu7"
type: "ReLU"
bottom: "fc7"
top: "fc7"
}
layer {
name: "drop7"
type: "Dropout"
bottom: "fc7"
top: "fc7"
dropout_param {
dropout_ratio: 0.5
}
}
layer {
name: "fc8_clean"
type: "InnerProduct"
bottom: "fc7"
top: "fc8_clean"
param {
lr_mult: 1
decay_mult: 1
}
param {
lr_mult: 2
decay_mult: 0
}
inner_product_param {
num_output: 967
weight_filler {
type: "gaussian"
std: 0.01
}
bias_filler {
type: "constant"
value: 0
}
}
}
layer {
name: "accuracy"
type: "Accuracy"
bottom: "fc8_clean"
bottom: "label"
top: "accuracy"
include {
phase: TEST
}
}
layer {
name: "loss"
type: "SoftmaxWithLoss"
bottom: "fc8_clean"
bottom: "label"
top: "loss"
}
I0705 09:13:57.586014  2217 layer_factory.hpp:76] Creating layer val-data
I0705 09:13:57.586251  2217 net.cpp:109] Creating Layer val-data
I0705 09:13:57.586263  2217 net.cpp:414] val-data -> data
I0705 09:13:57.586275  2217 net.cpp:414] val-data -> label
I0705 09:13:57.586287  2217 data_transformer.cpp:25] Loading mean file from: /home/zml374/workspace/DIGITS/digits/jobs/20160704-085910-0cc9/mean.binaryproto
I0705 09:13:57.588891  2248 db_lmdb.cpp:36] Opened lmdb /home/zml374/workspace/DIGITS/digits/jobs/20160704-085910-0cc9/val_db
I0705 09:13:57.592893  2217 data_layer.cpp:45] output data size: 200,3,227,227
I0705 09:13:57.878041  2217 net.cpp:153] Setting up val-data
I0705 09:13:57.878092  2217 net.cpp:160] Top shape: 200 3 227 227 (30917400)
I0705 09:13:57.878100  2217 net.cpp:160] Top shape: 200 (200)
I0705 09:13:57.878105  2217 net.cpp:168] Memory required for data: 123670400
I0705 09:13:57.878113  2217 layer_factory.hpp:76] Creating layer label_val-data_1_split
I0705 09:13:57.878134  2217 net.cpp:109] Creating Layer label_val-data_1_split
I0705 09:13:57.878140  2217 net.cpp:457] label_val-data_1_split <- label
I0705 09:13:57.878150  2217 net.cpp:414] label_val-data_1_split -> label_val-data_1_split_0
I0705 09:13:57.878165  2217 net.cpp:414] label_val-data_1_split -> label_val-data_1_split_1
I0705 09:13:57.878270  2217 net.cpp:153] Setting up label_val-data_1_split
I0705 09:13:57.878283  2217 net.cpp:160] Top shape: 200 (200)
I0705 09:13:57.878289  2217 net.cpp:160] Top shape: 200 (200)
I0705 09:13:57.878293  2217 net.cpp:168] Memory required for data: 123672000
I0705 09:13:57.878298  2217 layer_factory.hpp:76] Creating layer conv1
I0705 09:13:57.878317  2217 net.cpp:109] Creating Layer conv1
I0705 09:13:57.878322  2217 net.cpp:457] conv1 <- data
I0705 09:13:57.878331  2217 net.cpp:414] conv1 -> conv1
I0705 09:13:57.879909  2217 net.cpp:153] Setting up conv1
I0705 09:13:57.879923  2217 net.cpp:160] Top shape: 200 96 55 55 (58080000)
I0705 09:13:57.879928  2217 net.cpp:168] Memory required for data: 355992000
I0705 09:13:57.879943  2217 layer_factory.hpp:76] Creating layer relu1
I0705 09:13:57.879953  2217 net.cpp:109] Creating Layer relu1
I0705 09:13:57.879958  2217 net.cpp:457] relu1 <- conv1
I0705 09:13:57.879966  2217 net.cpp:400] relu1 -> conv1 (in-place)
I0705 09:13:57.879976  2217 net.cpp:153] Setting up relu1
I0705 09:13:57.879982  2217 net.cpp:160] Top shape: 200 96 55 55 (58080000)
I0705 09:13:57.879987  2217 net.cpp:168] Memory required for data: 588312000
I0705 09:13:57.879992  2217 layer_factory.hpp:76] Creating layer norm1
I0705 09:13:57.880005  2217 net.cpp:109] Creating Layer norm1
I0705 09:13:57.880009  2217 net.cpp:457] norm1 <- conv1
I0705 09:13:57.880017  2217 net.cpp:414] norm1 -> norm1
I0705 09:13:57.880065  2217 net.cpp:153] Setting up norm1
I0705 09:13:57.880074  2217 net.cpp:160] Top shape: 200 96 55 55 (58080000)
I0705 09:13:57.880079  2217 net.cpp:168] Memory required for data: 820632000
I0705 09:13:57.880084  2217 layer_factory.hpp:76] Creating layer pool1
I0705 09:13:57.880095  2217 net.cpp:109] Creating Layer pool1
I0705 09:13:57.880100  2217 net.cpp:457] pool1 <- norm1
I0705 09:13:57.880106  2217 net.cpp:414] pool1 -> pool1
I0705 09:13:57.880152  2217 net.cpp:153] Setting up pool1
I0705 09:13:57.880161  2217 net.cpp:160] Top shape: 200 96 27 27 (13996800)
I0705 09:13:57.880164  2217 net.cpp:168] Memory required for data: 876619200
I0705 09:13:57.880169  2217 layer_factory.hpp:76] Creating layer conv2
I0705 09:13:57.880180  2217 net.cpp:109] Creating Layer conv2
I0705 09:13:57.880184  2217 net.cpp:457] conv2 <- pool1
I0705 09:13:57.880193  2217 net.cpp:414] conv2 -> conv2
I0705 09:13:57.893726  2217 net.cpp:153] Setting up conv2
I0705 09:13:57.893744  2217 net.cpp:160] Top shape: 200 256 27 27 (37324800)
I0705 09:13:57.893785  2217 net.cpp:168] Memory required for data: 1025918400
I0705 09:13:57.893800  2217 layer_factory.hpp:76] Creating layer relu2
I0705 09:13:57.893810  2217 net.cpp:109] Creating Layer relu2
I0705 09:13:57.893815  2217 net.cpp:457] relu2 <- conv2
I0705 09:13:57.893822  2217 net.cpp:400] relu2 -> conv2 (in-place)
I0705 09:13:57.893832  2217 net.cpp:153] Setting up relu2
I0705 09:13:57.893838  2217 net.cpp:160] Top shape: 200 256 27 27 (37324800)
I0705 09:13:57.893843  2217 net.cpp:168] Memory required for data: 1175217600
I0705 09:13:57.893847  2217 layer_factory.hpp:76] Creating layer norm2
I0705 09:13:57.893857  2217 net.cpp:109] Creating Layer norm2
I0705 09:13:57.893862  2217 net.cpp:457] norm2 <- conv2
I0705 09:13:57.893868  2217 net.cpp:414] norm2 -> norm2
I0705 09:13:57.893923  2217 net.cpp:153] Setting up norm2
I0705 09:13:57.893932  2217 net.cpp:160] Top shape: 200 256 27 27 (37324800)
I0705 09:13:57.893936  2217 net.cpp:168] Memory required for data: 1324516800
I0705 09:13:57.893940  2217 layer_factory.hpp:76] Creating layer pool2
I0705 09:13:57.893949  2217 net.cpp:109] Creating Layer pool2
I0705 09:13:57.893954  2217 net.cpp:457] pool2 <- norm2
I0705 09:13:57.893961  2217 net.cpp:414] pool2 -> pool2
I0705 09:13:57.894003  2217 net.cpp:153] Setting up pool2
I0705 09:13:57.894011  2217 net.cpp:160] Top shape: 200 256 13 13 (8652800)
I0705 09:13:57.894016  2217 net.cpp:168] Memory required for data: 1359128000
I0705 09:13:57.894021  2217 layer_factory.hpp:76] Creating layer conv3
I0705 09:13:57.894032  2217 net.cpp:109] Creating Layer conv3
I0705 09:13:57.894037  2217 net.cpp:457] conv3 <- pool2
I0705 09:13:57.894045  2217 net.cpp:414] conv3 -> conv3
I0705 09:13:57.927588  2217 net.cpp:153] Setting up conv3
I0705 09:13:57.927604  2217 net.cpp:160] Top shape: 200 384 13 13 (12979200)
I0705 09:13:57.927608  2217 net.cpp:168] Memory required for data: 1411044800
I0705 09:13:57.927620  2217 layer_factory.hpp:76] Creating layer relu3
I0705 09:13:57.927629  2217 net.cpp:109] Creating Layer relu3
I0705 09:13:57.927634  2217 net.cpp:457] relu3 <- conv3
I0705 09:13:57.927642  2217 net.cpp:400] relu3 -> conv3 (in-place)
I0705 09:13:57.927651  2217 net.cpp:153] Setting up relu3
I0705 09:13:57.927657  2217 net.cpp:160] Top shape: 200 384 13 13 (12979200)
I0705 09:13:57.927662  2217 net.cpp:168] Memory required for data: 1462961600
I0705 09:13:57.927666  2217 layer_factory.hpp:76] Creating layer conv4
I0705 09:13:57.927676  2217 net.cpp:109] Creating Layer conv4
I0705 09:13:57.927680  2217 net.cpp:457] conv4 <- conv3
I0705 09:13:57.927688  2217 net.cpp:414] conv4 -> conv4
I0705 09:13:57.952862  2217 net.cpp:153] Setting up conv4
I0705 09:13:57.952877  2217 net.cpp:160] Top shape: 200 384 13 13 (12979200)
I0705 09:13:57.952883  2217 net.cpp:168] Memory required for data: 1514878400
I0705 09:13:57.952890  2217 layer_factory.hpp:76] Creating layer relu4
I0705 09:13:57.952899  2217 net.cpp:109] Creating Layer relu4
I0705 09:13:57.952904  2217 net.cpp:457] relu4 <- conv4
I0705 09:13:57.952911  2217 net.cpp:400] relu4 -> conv4 (in-place)
I0705 09:13:57.952920  2217 net.cpp:153] Setting up relu4
I0705 09:13:57.952926  2217 net.cpp:160] Top shape: 200 384 13 13 (12979200)
I0705 09:13:57.952930  2217 net.cpp:168] Memory required for data: 1566795200
I0705 09:13:57.952935  2217 layer_factory.hpp:76] Creating layer conv5
I0705 09:13:57.952945  2217 net.cpp:109] Creating Layer conv5
I0705 09:13:57.952950  2217 net.cpp:457] conv5 <- conv4
I0705 09:13:57.952957  2217 net.cpp:414] conv5 -> conv5
I0705 09:13:57.970043  2217 net.cpp:153] Setting up conv5
I0705 09:13:57.970058  2217 net.cpp:160] Top shape: 200 256 13 13 (8652800)
I0705 09:13:57.970063  2217 net.cpp:168] Memory required for data: 1601406400
I0705 09:13:57.970075  2217 layer_factory.hpp:76] Creating layer relu5
I0705 09:13:57.970084  2217 net.cpp:109] Creating Layer relu5
I0705 09:13:57.970088  2217 net.cpp:457] relu5 <- conv5
I0705 09:13:57.970096  2217 net.cpp:400] relu5 -> conv5 (in-place)
I0705 09:13:57.970105  2217 net.cpp:153] Setting up relu5
I0705 09:13:57.970129  2217 net.cpp:160] Top shape: 200 256 13 13 (8652800)
I0705 09:13:57.970134  2217 net.cpp:168] Memory required for data: 1636017600
I0705 09:13:57.970139  2217 layer_factory.hpp:76] Creating layer pool5
I0705 09:13:57.970150  2217 net.cpp:109] Creating Layer pool5
I0705 09:13:57.970155  2217 net.cpp:457] pool5 <- conv5
I0705 09:13:57.970162  2217 net.cpp:414] pool5 -> pool5
I0705 09:13:57.970211  2217 net.cpp:153] Setting up pool5
I0705 09:13:57.970219  2217 net.cpp:160] Top shape: 200 256 6 6 (1843200)
I0705 09:13:57.970224  2217 net.cpp:168] Memory required for data: 1643390400
I0705 09:13:57.970228  2217 layer_factory.hpp:76] Creating layer fc6
I0705 09:13:57.970242  2217 net.cpp:109] Creating Layer fc6
I0705 09:13:57.970245  2217 net.cpp:457] fc6 <- pool5
I0705 09:13:57.970254  2217 net.cpp:414] fc6 -> fc6
I0705 09:13:59.450172  2217 net.cpp:153] Setting up fc6
I0705 09:13:59.450215  2217 net.cpp:160] Top shape: 200 4096 (819200)
I0705 09:13:59.450222  2217 net.cpp:168] Memory required for data: 1646667200
I0705 09:13:59.450244  2217 layer_factory.hpp:76] Creating layer relu6
I0705 09:13:59.450260  2217 net.cpp:109] Creating Layer relu6
I0705 09:13:59.450268  2217 net.cpp:457] relu6 <- fc6
I0705 09:13:59.450278  2217 net.cpp:400] relu6 -> fc6 (in-place)
I0705 09:13:59.450294  2217 net.cpp:153] Setting up relu6
I0705 09:13:59.450300  2217 net.cpp:160] Top shape: 200 4096 (819200)
I0705 09:13:59.450305  2217 net.cpp:168] Memory required for data: 1649944000
I0705 09:13:59.450309  2217 layer_factory.hpp:76] Creating layer drop6
I0705 09:13:59.450330  2217 net.cpp:109] Creating Layer drop6
I0705 09:13:59.450333  2217 net.cpp:457] drop6 <- fc6
I0705 09:13:59.450340  2217 net.cpp:400] drop6 -> fc6 (in-place)
I0705 09:13:59.450381  2217 net.cpp:153] Setting up drop6
I0705 09:13:59.450388  2217 net.cpp:160] Top shape: 200 4096 (819200)
I0705 09:13:59.450393  2217 net.cpp:168] Memory required for data: 1653220800
I0705 09:13:59.450397  2217 layer_factory.hpp:76] Creating layer fc7
I0705 09:13:59.450410  2217 net.cpp:109] Creating Layer fc7
I0705 09:13:59.450414  2217 net.cpp:457] fc7 <- fc6
I0705 09:13:59.450423  2217 net.cpp:414] fc7 -> fc7
I0705 09:14:00.101092  2217 net.cpp:153] Setting up fc7
I0705 09:14:00.101141  2217 net.cpp:160] Top shape: 200 4096 (819200)
I0705 09:14:00.101147  2217 net.cpp:168] Memory required for data: 1656497600
I0705 09:14:00.101161  2217 layer_factory.hpp:76] Creating layer relu7
I0705 09:14:00.101174  2217 net.cpp:109] Creating Layer relu7
I0705 09:14:00.101182  2217 net.cpp:457] relu7 <- fc7
I0705 09:14:00.101193  2217 net.cpp:400] relu7 -> fc7 (in-place)
I0705 09:14:00.101208  2217 net.cpp:153] Setting up relu7
I0705 09:14:00.101214  2217 net.cpp:160] Top shape: 200 4096 (819200)
I0705 09:14:00.101219  2217 net.cpp:168] Memory required for data: 1659774400
I0705 09:14:00.101223  2217 layer_factory.hpp:76] Creating layer drop7
I0705 09:14:00.101233  2217 net.cpp:109] Creating Layer drop7
I0705 09:14:00.101238  2217 net.cpp:457] drop7 <- fc7
I0705 09:14:00.101243  2217 net.cpp:400] drop7 -> fc7 (in-place)
I0705 09:14:00.101282  2217 net.cpp:153] Setting up drop7
I0705 09:14:00.101290  2217 net.cpp:160] Top shape: 200 4096 (819200)
I0705 09:14:00.101295  2217 net.cpp:168] Memory required for data: 1663051200
I0705 09:14:00.101300  2217 layer_factory.hpp:76] Creating layer fc8_clean
I0705 09:14:00.101311  2217 net.cpp:109] Creating Layer fc8_clean
I0705 09:14:00.101316  2217 net.cpp:457] fc8_clean <- fc7
I0705 09:14:00.101325  2217 net.cpp:414] fc8_clean -> fc8_clean
I0705 09:14:00.249956  2217 net.cpp:153] Setting up fc8_clean
I0705 09:14:00.249986  2217 net.cpp:160] Top shape: 200 967 (193400)
I0705 09:14:00.249992  2217 net.cpp:168] Memory required for data: 1663824800
I0705 09:14:00.250003  2217 layer_factory.hpp:76] Creating layer fc8_clean_fc8_clean_0_split
I0705 09:14:00.250017  2217 net.cpp:109] Creating Layer fc8_clean_fc8_clean_0_split
I0705 09:14:00.250023  2217 net.cpp:457] fc8_clean_fc8_clean_0_split <- fc8_clean
I0705 09:14:00.250035  2217 net.cpp:414] fc8_clean_fc8_clean_0_split -> fc8_clean_fc8_clean_0_split_0
I0705 09:14:00.250090  2217 net.cpp:414] fc8_clean_fc8_clean_0_split -> fc8_clean_fc8_clean_0_split_1
I0705 09:14:00.250147  2217 net.cpp:153] Setting up fc8_clean_fc8_clean_0_split
I0705 09:14:00.250157  2217 net.cpp:160] Top shape: 200 967 (193400)
I0705 09:14:00.250162  2217 net.cpp:160] Top shape: 200 967 (193400)
I0705 09:14:00.250167  2217 net.cpp:168] Memory required for data: 1665372000
I0705 09:14:00.250171  2217 layer_factory.hpp:76] Creating layer accuracy
I0705 09:14:00.250181  2217 net.cpp:109] Creating Layer accuracy
I0705 09:14:00.250186  2217 net.cpp:457] accuracy <- fc8_clean_fc8_clean_0_split_0
I0705 09:14:00.250192  2217 net.cpp:457] accuracy <- label_val-data_1_split_0
I0705 09:14:00.250200  2217 net.cpp:414] accuracy -> accuracy
…
