…
state {
phase: TRAIN
}
layer {
name: "data"
type: "Data"
top: "data"
include {
phase: TRAIN
}
transform_param {
mean_file: "/home/ffw/scratch/plantClef/scatnet_output/train/a4_m2_s1s2s4s8_f2/lmdb_mean_coeff.binaryproto"
}
data_param {
source: "/home/ffw/scratch/plantClef/scatnet_output/train/a4_m2_s1s2s4s8_f2/lmdb_data"
batch_size: 200
backend: LMDB
}
}
layer {
name: "label"
type: "Data"
top: "label"
include {
phase: TRAIN
}
data_param {
source: "/home/ffw/scratch/plantClef/scatnet_output/train/a4_m2_s1s2s4s8_f2/lmdb_labels"
batch_size: 200
backend: LMDB
}
}
layer {
name: "pool1"
type: "Pooling"
bottom: "data"
top: "pool1"
pooling_param {
pool: MAX
kernel_size: 2
stride: 1
}
}
layer {
name: "conv5"
type: "Convolution"
bottom: "pool1"
top: "conv5"
param {
lr_mult: 1
decay_mult: 1
}
param {
lr_mult: 2
decay_mult: 0
}
convolution_param {
num_output: 256
pad: 1
kernel_size: 3
group: 1
weight_filler {
type: "gaussian"
std: 0.01
}
bias_filler {
type: "constant"
value: 0.1
}
}
}
layer {
name: "relu5"
type: "ReLU"
bottom: "conv5"
top: "conv5"
}
layer {
name: "pool5"
type: "Pooling"
bottom: "conv5"
top: "pool5"
pooling_param {
pool: MAX
kernel_size: 3
stride: 2
}
}
layer {
name: "fc6"
type: "InnerProduct"
bottom: "pool5"
top: "fc6"
param {
lr_mult: 1
decay_mult: 1
}
param {
lr_mult: 2
decay_mult: 0
}
inner_product_param {
num_output: 4096
weight_filler {
type: "gaussian"
std: 0.005
}
bias_filler {
type: "constant"
value: 0.1
}
}
}
layer {
name: "relu6"
type: "ReLU"
bottom: "fc6"
top: "fc6"
}
layer {
name: "drop6"
type: "Dropout"
bottom: "fc6"
top: "fc6"
dropout_param {
dropout_ratio: 0.5
}
}
layer {
name: "fc7"
type: "InnerProduct"
bottom: "fc6"
top: "fc7"
param {
lr_mult: 1
decay_mult: 1
}
param {
lr_mult: 2
decay_mult: 0
}
inner_product_param {
num_output: 4096
weight_filler {
type: "gaussian"
std: 0.005
}
bias_filler {
type: "constant"
value: 0.1
}
}
}
layer {
name: "relu7"
type: "ReLU"
bottom: "fc7"
top: "fc7"
}
layer {
name: "drop7"
type: "Dropout"
bottom: "fc7"
top: "fc7"
dropout_param {
dropout_ratio: 0.5
}
}
layer {
name: "fc8_species"
type: "InnerProduct"
bottom: "fc7"
top: "fc8_species"
param {
lr_mult: 1
decay_mult: 1
}
param {
lr_mult: 2
decay_mult: 0
}
inner_product_param {
num_output: 967
weight_filler {
type: "gaussian"
std: 0.005
}
bias_filler {
type: "constant"
value: 0.1
}
}
}
layer {
name: "loss"
type: "SoftmaxWithLoss"
bottom: "fc8_species"
bottom: "label"
top: "loss"
}
I0704 15:29:08.402729 25189 layer_factory.hpp:76] Creating layer data
I0704 15:29:08.402832 25189 net.cpp:109] Creating Layer data
I0704 15:29:08.402835 25189 net.cpp:414] data -> data
I0704 15:29:08.402851 25189 data_transformer.cpp:25] Loading mean file from: /home/ffw/scratch/plantClef/scatnet_output/train/a4_m2_s1s2s4s8_f2/lmdb_mean_coeff.binaryproto
I0704 15:29:08.404513 25202 db_lmdb.cpp:36] Opened lmdb /home/ffw/scratch/plantClef/scatnet_output/train/a4_m2_s1s2s4s8_f2/lmdb_data
I0704 15:29:08.405772 25189 data_layer.cpp:45] output data size: 200,339,19,19
I0704 15:29:08.510498 25189 net.cpp:153] Setting up data
I0704 15:29:08.510519 25189 net.cpp:160] Top shape: 200 339 19 19 (24475800)
I0704 15:29:08.510522 25189 net.cpp:168] Memory required for data: 97903200
I0704 15:29:08.510527 25189 layer_factory.hpp:76] Creating layer label
I0704 15:29:08.510622 25189 net.cpp:109] Creating Layer label
I0704 15:29:08.510627 25189 net.cpp:414] label -> label
I0704 15:29:08.511776 25204 db_lmdb.cpp:36] Opened lmdb /home/ffw/scratch/plantClef/scatnet_output/train/a4_m2_s1s2s4s8_f2/lmdb_labels
I0704 15:29:08.519461 25189 data_layer.cpp:45] output data size: 200,1,1,1
I0704 15:29:08.519543 25189 net.cpp:153] Setting up label
I0704 15:29:08.519549 25189 net.cpp:160] Top shape: 200 1 1 1 (200)
I0704 15:29:08.519551 25189 net.cpp:168] Memory required for data: 97904000
I0704 15:29:08.519553 25189 layer_factory.hpp:76] Creating layer pool1
I0704 15:29:08.519559 25189 net.cpp:109] Creating Layer pool1
I0704 15:29:08.519562 25189 net.cpp:457] pool1 <- data
I0704 15:29:08.519568 25189 net.cpp:414] pool1 -> pool1
I0704 15:29:08.519611 25189 net.cpp:153] Setting up pool1
I0704 15:29:08.519616 25189 net.cpp:160] Top shape: 200 339 18 18 (21967200)
I0704 15:29:08.519618 25189 net.cpp:168] Memory required for data: 185772800
I0704 15:29:08.519619 25189 layer_factory.hpp:76] Creating layer conv5
I0704 15:29:08.519624 25189 net.cpp:109] Creating Layer conv5
I0704 15:29:08.519626 25189 net.cpp:457] conv5 <- pool1
I0704 15:29:08.519629 25189 net.cpp:414] conv5 -> conv5
I0704 15:29:08.535715 25189 net.cpp:153] Setting up conv5
I0704 15:29:08.535733 25189 net.cpp:160] Top shape: 200 256 18 18 (16588800)
I0704 15:29:08.535735 25189 net.cpp:168] Memory required for data: 252128000
I0704 15:29:08.535745 25189 layer_factory.hpp:76] Creating layer relu5
I0704 15:29:08.535753 25189 net.cpp:109] Creating Layer relu5
I0704 15:29:08.535755 25189 net.cpp:457] relu5 <- conv5
I0704 15:29:08.535759 25189 net.cpp:400] relu5 -> conv5 (in-place)
I0704 15:29:08.535766 25189 net.cpp:153] Setting up relu5
I0704 15:29:08.535769 25189 net.cpp:160] Top shape: 200 256 18 18 (16588800)
I0704 15:29:08.535771 25189 net.cpp:168] Memory required for data: 318483200
I0704 15:29:08.535773 25189 layer_factory.hpp:76] Creating layer pool5
I0704 15:29:08.535776 25189 net.cpp:109] Creating Layer pool5
I0704 15:29:08.535778 25189 net.cpp:457] pool5 <- conv5
I0704 15:29:08.535780 25189 net.cpp:414] pool5 -> pool5
I0704 15:29:08.535802 25189 net.cpp:153] Setting up pool5
I0704 15:29:08.535805 25189 net.cpp:160] Top shape: 200 256 9 9 (4147200)
I0704 15:29:08.535807 25189 net.cpp:168] Memory required for data: 335072000
I0704 15:29:08.535809 25189 layer_factory.hpp:76] Creating layer fc6
I0704 15:29:08.535814 25189 net.cpp:109] Creating Layer fc6
I0704 15:29:08.535815 25189 net.cpp:457] fc6 <- pool5
I0704 15:29:08.535818 25189 net.cpp:414] fc6 -> fc6
I0704 15:29:10.081732 25189 net.cpp:153] Setting up fc6
I0704 15:29:10.081749 25189 net.cpp:160] Top shape: 200 4096 (819200)
I0704 15:29:10.081753 25189 net.cpp:168] Memory required for data: 338348800
I0704 15:29:10.081760 25189 layer_factory.hpp:76] Creating layer relu6
I0704 15:29:10.081766 25189 net.cpp:109] Creating Layer relu6
I0704 15:29:10.081769 25189 net.cpp:457] relu6 <- fc6
I0704 15:29:10.081773 25189 net.cpp:400] relu6 -> fc6 (in-place)
I0704 15:29:10.081780 25189 net.cpp:153] Setting up relu6
I0704 15:29:10.081782 25189 net.cpp:160] Top shape: 200 4096 (819200)
I0704 15:29:10.081784 25189 net.cpp:168] Memory required for data: 341625600
I0704 15:29:10.081786 25189 layer_factory.hpp:76] Creating layer drop6
I0704 15:29:10.081797 25189 net.cpp:109] Creating Layer drop6
I0704 15:29:10.081799 25189 net.cpp:457] drop6 <- fc6
I0704 15:29:10.081802 25189 net.cpp:400] drop6 -> fc6 (in-place)
I0704 15:29:10.081835 25189 net.cpp:153] Setting up drop6
I0704 15:29:10.081838 25189 net.cpp:160] Top shape: 200 4096 (819200)
I0704 15:29:10.081840 25189 net.cpp:168] Memory required for data: 344902400
I0704 15:29:10.081841 25189 layer_factory.hpp:76] Creating layer fc7
I0704 15:29:10.081846 25189 net.cpp:109] Creating Layer fc7
I0704 15:29:10.081848 25189 net.cpp:457] fc7 <- fc6
I0704 15:29:10.081851 25189 net.cpp:414] fc7 -> fc7
I0704 15:29:10.385749 25189 net.cpp:153] Setting up fc7
I0704 15:29:10.385766 25189 net.cpp:160] Top shape: 200 4096 (819200)
I0704 15:29:10.385769 25189 net.cpp:168] Memory required for data: 348179200
I0704 15:29:10.385776 25189 layer_factory.hpp:76] Creating layer relu7
I0704 15:29:10.385783 25189 net.cpp:109] Creating Layer relu7
I0704 15:29:10.385787 25189 net.cpp:457] relu7 <- fc7
I0704 15:29:10.385789 25189 net.cpp:400] relu7 -> fc7 (in-place)
I0704 15:29:10.385797 25189 net.cpp:153] Setting up relu7
I0704 15:29:10.385799 25189 net.cpp:160] Top shape: 200 4096 (819200)
I0704 15:29:10.385802 25189 net.cpp:168] Memory required for data: 351456000
I0704 15:29:10.385802 25189 layer_factory.hpp:76] Creating layer drop7
I0704 15:29:10.385807 25189 net.cpp:109] Creating Layer drop7
I0704 15:29:10.385808 25189 net.cpp:457] drop7 <- fc7
I0704 15:29:10.385810 25189 net.cpp:400] drop7 -> fc7 (in-place)
I0704 15:29:10.385828 25189 net.cpp:153] Setting up drop7
I0704 15:29:10.385830 25189 net.cpp:160] Top shape: 200 4096 (819200)
I0704 15:29:10.385833 25189 net.cpp:168] Memory required for data: 354732800
I0704 15:29:10.385833 25189 layer_factory.hpp:76] Creating layer fc8_species
I0704 15:29:10.385838 25189 net.cpp:109] Creating Layer fc8_species
I0704 15:29:10.385840 25189 net.cpp:457] fc8_species <- fc7
I0704 15:29:10.385843 25189 net.cpp:414] fc8_species -> fc8_species
I0704 15:29:10.458137 25189 net.cpp:153] Setting up fc8_species
I0704 15:29:10.458154 25189 net.cpp:160] Top shape: 200 967 (193400)
I0704 15:29:10.458156 25189 net.cpp:168] Memory required for data: 355506400
I0704 15:29:10.458161 25189 layer_factory.hpp:76] Creating layer loss
I0704 15:29:10.458168 25189 net.cpp:109] Creating Layer loss
I0704 15:29:10.458170 25189 net.cpp:457] loss <- fc8_species
I0704 15:29:10.458173 25189 net.cpp:457] loss <- label
I0704 15:29:10.458178 25189 net.cpp:414] loss -> loss
I0704 15:29:10.458185 25189 layer_factory.hpp:76] Creating layer loss
…
I0704 15:29:10.459210 25189 net.cpp:52] Initializing net from parameters:
state {
phase: TEST
}
layer {
name: "data"
type: "Data"
top: "data"
include {
phase: TEST
}
transform_param {
mean_file: "/home/ffw/scratch/plantClef/scatnet_output/train/a4_m2_s1s2s4s8_f2/lmdb_mean_coeff.binaryproto"
}
data_param {
source: "/home/ffw/scratch/plantClef/scatnet_output/test/a4_m2_s1s2s4s8_f2/lmdb_data"
batch_size: 200
backend: LMDB
}
}
layer {
name: "label"
type: "Data"
top: "label"
include {
phase: TEST
}
data_param {
source: "/home/ffw/scratch/plantClef/scatnet_output/test/a4_m2_s1s2s4s8_f2/lmdb_labels"
batch_size: 200
backend: LMDB
}
}
layer {
name: "pool1"
type: "Pooling"
bottom: "data"
top: "pool1"
pooling_param {
pool: MAX
kernel_size: 2
stride: 1
}
}
layer {
name: "conv5"
type: "Convolution"
bottom: "pool1"
top: "conv5"
param {
lr_mult: 1
decay_mult: 1
}
param {
lr_mult: 2
decay_mult: 0
}
convolution_param {
num_output: 256
pad: 1
kernel_size: 3
group: 1
weight_filler {
type: "gaussian"
std: 0.01
}
bias_filler {
type: "constant"
value: 0.1
}
}
}
layer {
name: "relu5"
type: "ReLU"
bottom: "conv5"
top: "conv5"
}
layer {
name: "pool5"
type: "Pooling"
bottom: "conv5"
top: "pool5"
pooling_param {
pool: MAX
kernel_size: 3
stride: 2
}
}
layer {
name: "fc6"
type: "InnerProduct"
bottom: "pool5"
top: "fc6"
param {
lr_mult: 1
decay_mult: 1
}
param {
lr_mult: 2
decay_mult: 0
}
inner_product_param {
num_output: 4096
weight_filler {
type: "gaussian"
std: 0.005
}
bias_filler {
type: "constant"
value: 0.1
}
}
}
layer {
name: "relu6"
type: "ReLU"
bottom: "fc6"
top: "fc6"
}
layer {
name: "drop6"
type: "Dropout"
bottom: "fc6"
top: "fc6"
dropout_param {
dropout_ratio: 0.5
}
}
layer {
name: "fc7"
type: "InnerProduct"
bottom: "fc6"
top: "fc7"
param {
lr_mult: 1
decay_mult: 1
}
param {
lr_mult: 2
decay_mult: 0
}
inner_product_param {
num_output: 4096
weight_filler {
type: "gaussian"
std: 0.005
}
bias_filler {
type: "constant"
value: 0.1
}
}
}
layer {
name: "relu7"
type: "ReLU"
bottom: "fc7"
top: "fc7"
}
layer {
name: "drop7"
type: "Dropout"
bottom: "fc7"
top: "fc7"
dropout_param {
dropout_ratio: 0.5
}
}
layer {
name: "fc8_species"
type: "InnerProduct"
bottom: "fc7"
top: "fc8_species"
param {
lr_mult: 1
decay_mult: 1
}
param {
lr_mult: 2
decay_mult: 0
}
inner_product_param {
num_output: 967
weight_filler {
type: "gaussian"
std: 0.005
}
bias_filler {
type: "constant"
value: 0.1
}
}
}
layer {
name: "loss"
type: "SoftmaxWithLoss"
bottom: "fc8_species"
bottom: "label"
top: "loss"
}
layer {
name: "accuracy"
type: "Accuracy"
bottom: "fc8_species"
bottom: "label"
top: "accuracy"
include {
phase: TEST
}
}
I0704 15:29:10.459252 25189 layer_factory.hpp:76] Creating layer data
I0704 15:29:10.459379 25189 net.cpp:109] Creating Layer data
I0704 15:29:10.459394 25189 net.cpp:414] data -> data
I0704 15:29:10.459399 25189 data_transformer.cpp:25] Loading mean file from: /home/ffw/scratch/plantClef/scatnet_output/train/a4_m2_s1s2s4s8_f2/lmdb_mean_coeff.binaryproto
I0704 15:29:10.460309 25206 db_lmdb.cpp:36] Opened lmdb /home/ffw/scratch/plantClef/scatnet_output/test/a4_m2_s1s2s4s8_f2/lmdb_data
I0704 15:29:10.460440 25189 data_layer.cpp:45] output data size: 200,339,19,19
I0704 15:29:10.564764 25189 net.cpp:153] Setting up data
I0704 15:29:10.564785 25189 net.cpp:160] Top shape: 200 339 19 19 (24475800)
I0704 15:29:10.564788 25189 net.cpp:168] Memory required for data: 97903200
I0704 15:29:10.564807 25189 layer_factory.hpp:76] Creating layer label
I0704 15:29:10.564906 25189 net.cpp:109] Creating Layer label
I0704 15:29:10.564911 25189 net.cpp:414] label -> label
I0704 15:29:10.566017 25208 db_lmdb.cpp:36] Opened lmdb /home/ffw/scratch/plantClef/scatnet_output/test/a4_m2_s1s2s4s8_f2/lmdb_labels
I0704 15:29:10.573714 25189 data_layer.cpp:45] output data size: 200,1,1,1
I0704 15:29:10.573926 25189 net.cpp:153] Setting up label
I0704 15:29:10.573933 25189 net.cpp:160] Top shape: 200 1 1 1 (200)
I0704 15:29:10.573935 25189 net.cpp:168] Memory required for data: 97904000
I0704 15:29:10.573937 25189 layer_factory.hpp:76] Creating layer label_label_0_split
I0704 15:29:10.573943 25189 net.cpp:109] Creating Layer label_label_0_split
I0704 15:29:10.573945 25189 net.cpp:457] label_label_0_split <- label
I0704 15:29:10.573950 25189 net.cpp:414] label_label_0_split -> label_label_0_split_0
I0704 15:29:10.573953 25189 net.cpp:414] label_label_0_split -> label_label_0_split_1
I0704 15:29:10.574007 25189 net.cpp:153] Setting up label_label_0_split
I0704 15:29:10.574012 25189 net.cpp:160] Top shape: 200 1 1 1 (200)
I0704 15:29:10.574013 25189 net.cpp:160] Top shape: 200 1 1 1 (200)
I0704 15:29:10.574015 25189 net.cpp:168] Memory required for data: 97905600
I0704 15:29:10.574018 25189 layer_factory.hpp:76] Creating layer pool1
I0704 15:29:10.574023 25189 net.cpp:109] Creating Layer pool1
I0704 15:29:10.574025 25189 net.cpp:457] pool1 <- data
I0704 15:29:10.574028 25189 net.cpp:414] pool1 -> pool1
I0704 15:29:10.574049 25189 net.cpp:153] Setting up pool1
I0704 15:29:10.574053 25189 net.cpp:160] Top shape: 200 339 18 18 (21967200)
I0704 15:29:10.574054 25189 net.cpp:168] Memory required for data: 185774400
I0704 15:29:10.574055 25189 layer_factory.hpp:76] Creating layer conv5
I0704 15:29:10.574061 25189 net.cpp:109] Creating Layer conv5
I0704 15:29:10.574064 25189 net.cpp:457] conv5 <- pool1
I0704 15:29:10.574066 25189 net.cpp:414] conv5 -> conv5
I0704 15:29:10.589207 25189 net.cpp:153] Setting up conv5
I0704 15:29:10.589226 25189 net.cpp:160] Top shape: 200 256 18 18 (16588800)
I0704 15:29:10.589229 25189 net.cpp:168] Memory required for data: 252129600
I0704 15:29:10.589237 25189 layer_factory.hpp:76] Creating layer relu5
I0704 15:29:10.589244 25189 net.cpp:109] Creating Layer relu5
I0704 15:29:10.589247 25189 net.cpp:457] relu5 <- conv5
I0704 15:29:10.589251 25189 net.cpp:400] relu5 -> conv5 (in-place)
I0704 15:29:10.589257 25189 net.cpp:153] Setting up relu5
I0704 15:29:10.589259 25189 net.cpp:160] Top shape: 200 256 18 18 (16588800)
I0704 15:29:10.589262 25189 net.cpp:168] Memory required for data: 318484800
I0704 15:29:10.589262 25189 layer_factory.hpp:76] Creating layer pool5
I0704 15:29:10.589267 25189 net.cpp:109] Creating Layer pool5
I0704 15:29:10.589268 25189 net.cpp:457] pool5 <- conv5
I0704 15:29:10.589272 25189 net.cpp:414] pool5 -> pool5
I0704 15:29:10.589298 25189 net.cpp:153] Setting up pool5
I0704 15:29:10.589301 25189 net.cpp:160] Top shape: 200 256 9 9 (4147200)
I0704 15:29:10.589303 25189 net.cpp:168] Memory required for data: 335073600
I0704 15:29:10.589304 25189 layer_factory.hpp:76] Creating layer fc6
I0704 15:29:10.589309 25189 net.cpp:109] Creating Layer fc6
I0704 15:29:10.589311 25189 net.cpp:457] fc6 <- pool5
I0704 15:29:10.589314 25189 net.cpp:414] fc6 -> fc6
I0704 15:29:12.136883 25189 net.cpp:153] Setting up fc6
I0704 15:29:12.136901 25189 net.cpp:160] Top shape: 200 4096 (819200)
I0704 15:29:12.136904 25189 net.cpp:168] Memory required for data: 338350400
I0704 15:29:12.136912 25189 layer_factory.hpp:76] Creating layer relu6
I0704 15:29:12.136919 25189 net.cpp:109] Creating Layer relu6
I0704 15:29:12.136922 25189 net.cpp:457] relu6 <- fc6
I0704 15:29:12.136926 25189 net.cpp:400] relu6 -> fc6 (in-place)
I0704 15:29:12.136934 25189 net.cpp:153] Setting up relu6
I0704 15:29:12.136936 25189 net.cpp:160] Top shape: 200 4096 (819200)
I0704 15:29:12.136937 25189 net.cpp:168] Memory required for data: 341627200
I0704 15:29:12.136940 25189 layer_factory.hpp:76] Creating layer drop6
I0704 15:29:12.136960 25189 net.cpp:109] Creating Layer drop6
I0704 15:29:12.136961 25189 net.cpp:457] drop6 <- fc6
I0704 15:29:12.136965 25189 net.cpp:400] drop6 -> fc6 (in-place)
I0704 15:29:12.136986 25189 net.cpp:153] Setting up drop6
I0704 15:29:12.136989 25189 net.cpp:160] Top shape: 200 4096 (819200)
I0704 15:29:12.136991 25189 net.cpp:168] Memory required for data: 344904000
I0704 15:29:12.136992 25189 layer_factory.hpp:76] Creating layer fc7
I0704 15:29:12.136997 25189 net.cpp:109] Creating Layer fc7
I0704 15:29:12.136999 25189 net.cpp:457] fc7 <- fc6
I0704 15:29:12.137002 25189 net.cpp:414] fc7 -> fc7
I0704 15:29:12.439873 25189 net.cpp:153] Setting up fc7
I0704 15:29:12.439890 25189 net.cpp:160] Top shape: 200 4096 (819200)
I0704 15:29:12.439893 25189 net.cpp:168] Memory required for data: 348180800
I0704 15:29:12.439901 25189 layer_factory.hpp:76] Creating layer relu7
I0704 15:29:12.439908 25189 net.cpp:109] Creating Layer relu7
I0704 15:29:12.439910 25189 net.cpp:457] relu7 <- fc7
I0704 15:29:12.439914 25189 net.cpp:400] relu7 -> fc7 (in-place)
I0704 15:29:12.439920 25189 net.cpp:153] Setting up relu7
I0704 15:29:12.439924 25189 net.cpp:160] Top shape: 200 4096 (819200)
I0704 15:29:12.439925 25189 net.cpp:168] Memory required for data: 351457600
I0704 15:29:12.439927 25189 layer_factory.hpp:76] Creating layer drop7
I0704 15:29:12.439931 25189 net.cpp:109] Creating Layer drop7
I0704 15:29:12.439934 25189 net.cpp:457] drop7 <- fc7
I0704 15:29:12.439935 25189 net.cpp:400] drop7 -> fc7 (in-place)
I0704 15:29:12.439954 25189 net.cpp:153] Setting up drop7
I0704 15:29:12.439957 25189 net.cpp:160] Top shape: 200 4096 (819200)
I0704 15:29:12.439960 25189 net.cpp:168] Memory required for data: 354734400
I0704 15:29:12.439961 25189 layer_factory.hpp:76] Creating layer fc8_species
I0704 15:29:12.439965 25189 net.cpp:109] Creating Layer fc8_species
I0704 15:29:12.439967 25189 net.cpp:457] fc8_species <- fc7
I0704 15:29:12.439970 25189 net.cpp:414] fc8_species -> fc8_species
I0704 15:29:12.513303 25189 net.cpp:153] Setting up fc8_species
I0704 15:29:12.513321 25189 net.cpp:160] Top shape: 200 967 (193400)
I0704 15:29:12.513324 25189 net.cpp:168] Memory required for data: 355508000
I0704 15:29:12.513329 25189 layer_factory.hpp:76] Creating layer fc8_species_fc8_species_0_split
I0704 15:29:12.513335 25189 net.cpp:109] Creating Layer fc8_species_fc8_species_0_split
I0704 15:29:12.513339 25189 net.cpp:457] fc8_species_fc8_species_0_split <- fc8_species
I0704 15:29:12.513342 25189 net.cpp:414] fc8_species_fc8_species_0_split -> fc8_species_fc8_species_0_split_0
I0704 15:29:12.513348 25189 net.cpp:414] fc8_species_fc8_species_0_split -> fc8_species_fc8_species_0_split_1
I0704 15:29:12.513376 25189 net.cpp:153] Setting up fc8_species_fc8_species_0_split
I0704 15:29:12.513381 25189 net.cpp:160] Top shape: 200 967 (193400)
I0704 15:29:12.513382 25189 net.cpp:160] Top shape: 200 967 (193400)
I0704 15:29:12.513384 25189 net.cpp:168] Memory required for data: 357055200
I0704 15:29:12.513386 25189 layer_factory.hpp:76] Creating layer loss
I0704 15:29:12.513389 25189 net.cpp:109] Creating Layer loss
I0704 15:29:12.513391 25189 net.cpp:457] loss <- fc8_species_fc8_species_0_split_0
I0704 15:29:12.513394 25189 net.cpp:457] loss <- label_label_0_split_0
I0704 15:29:12.513396 25189 net.cpp:414] loss -> loss
…
