…
I0706 16:17:43.566975  4886 net.cpp:52] Initializing net from parameters:
state {
phase: TRAIN
}
layer {
name: "data"
type: "Data"
top: "data"
include {
phase: TRAIN
}
transform_param {
mean_file: "/home/ffw/scratch/plantClef/scatnet_output/train/a4_m2_s1s2_f2/lmdb_mean_coeff.binaryproto"
}
data_param {
source: "/home/ffw/scratch/plantClef/scatnet_output/train/a4_m2_s1s2_f2/lmdb_data"
batch_size: 32
backend: LMDB
}
}
layer {
name: "label"
type: "Data"
top: "label"
include {
phase: TRAIN
}
data_param {
source: "/home/ffw/scratch/plantClef/scatnet_output/train/a4_m2_s1s2_f2/lmdb_labels"
batch_size: 32
backend: LMDB
}
}
layer {
name: "pool1"
type: "Pooling"
bottom: "data"
top: "pool1"
pooling_param {
pool: MAX
kernel_size: 6
stride: 5
}
}
layer {
name: "conv3"
type: "Convolution"
bottom: "pool1"
top: "conv3"
param {
lr_mult: 1
decay_mult: 1
}
param {
lr_mult: 2
decay_mult: 0
}
convolution_param {
num_output: 384
pad: 1
kernel_size: 3
weight_filler {
type: "gaussian"
std: 0.01
}
bias_filler {
type: "constant"
value: 0
}
}
}
layer {
name: "relu3"
type: "ReLU"
bottom: "conv3"
top: "conv3"
}
layer {
name: "conv4"
type: "Convolution"
bottom: "conv3"
top: "conv4"
param {
lr_mult: 1
decay_mult: 1
}
param {
lr_mult: 2
decay_mult: 0
}
convolution_param {
num_output: 384
pad: 1
kernel_size: 3
group: 2
weight_filler {
type: "gaussian"
std: 0.01
}
bias_filler {
type: "constant"
value: 0.1
}
}
}
layer {
name: "relu4"
type: "ReLU"
bottom: "conv4"
top: "conv4"
}
layer {
name: "conv5"
type: "Convolution"
bottom: "conv4"
top: "conv5"
param {
lr_mult: 1
decay_mult: 1
}
param {
lr_mult: 2
decay_mult: 0
}
convolution_param {
num_output: 256
pad: 1
kernel_size: 3
group: 1
weight_filler {
type: "gaussian"
std: 0.01
}
bias_filler {
type: "constant"
value: 0.1
}
}
}
layer {
name: "relu5"
type: "ReLU"
bottom: "conv5"
top: "conv5"
}
layer {
name: "pool5"
type: "Pooling"
bottom: "conv5"
top: "pool5"
pooling_param {
pool: MAX
kernel_size: 3
stride: 2
}
}
layer {
name: "fc6"
type: "InnerProduct"
bottom: "pool5"
top: "fc6"
param {
lr_mult: 1
decay_mult: 1
}
param {
lr_mult: 2
decay_mult: 0
}
inner_product_param {
num_output: 4096
weight_filler {
type: "gaussian"
std: 0.005
}
bias_filler {
type: "constant"
value: 0.1
}
}
}
layer {
name: "relu6"
type: "ReLU"
bottom: "fc6"
top: "fc6"
}
layer {
name: "drop6"
type: "Dropout"
bottom: "fc6"
top: "fc6"
dropout_param {
dropout_ratio: 0.5
}
}
layer {
name: "fc7"
type: "InnerProduct"
bottom: "fc6"
top: "fc7"
param {
lr_mult: 1
decay_mult: 1
}
param {
lr_mult: 2
decay_mult: 0
}
inner_product_param {
num_output: 4096
weight_filler {
type: "gaussian"
std: 0.005
}
bias_filler {
type: "constant"
value: 0.1
}
}
}
layer {
name: "relu7"
type: "ReLU"
bottom: "fc7"
top: "fc7"
}
layer {
name: "drop7"
type: "Dropout"
bottom: "fc7"
top: "fc7"
dropout_param {
dropout_ratio: 0.5
}
}
layer {
name: "fc8_species"
type: "InnerProduct"
bottom: "fc7"
top: "fc8_species"
param {
lr_mult: 1
decay_mult: 1
}
param {
lr_mult: 2
decay_mult: 0
}
inner_product_param {
num_output: 967
weight_filler {
type: "gaussian"
std: 0.005
}
bias_filler {
type: "constant"
value: 0.1
}
}
}
layer {
name: "loss"
type: "SoftmaxWithLoss"
bottom: "fc8_species"
bottom: "label"
top: "loss"
}
I0706 16:17:43.567025  4886 layer_factory.hpp:76] Creating layer data
I0706 16:17:43.567172  4886 net.cpp:109] Creating Layer data
I0706 16:17:43.567176  4886 net.cpp:414] data -> data
I0706 16:17:43.567188  4886 data_transformer.cpp:25] Loading mean file from: /home/ffw/scratch/plantClef/scatnet_output/train/a4_m2_s1s2_f2/lmdb_mean_coeff.binaryproto
I0706 16:17:43.571558  4900 db_lmdb.cpp:36] Opened lmdb /home/ffw/scratch/plantClef/scatnet_output/train/a4_m2_s1s2_f2/lmdb_data
I0706 16:17:43.585201  4886 data_layer.cpp:45] output data size: 32,75,105,105
I0706 16:17:43.698765  4886 net.cpp:153] Setting up data
I0706 16:17:43.698787  4886 net.cpp:160] Top shape: 32 75 105 105 (26460000)
I0706 16:17:43.698791  4886 net.cpp:168] Memory required for data: 105840000
I0706 16:17:43.698796  4886 layer_factory.hpp:76] Creating layer label
I0706 16:17:43.698842  4886 net.cpp:109] Creating Layer label
I0706 16:17:43.698856  4886 net.cpp:414] label -> label
I0706 16:17:43.701558  4902 db_lmdb.cpp:36] Opened lmdb /home/ffw/scratch/plantClef/scatnet_output/train/a4_m2_s1s2_f2/lmdb_labels
I0706 16:17:43.708840  4886 data_layer.cpp:45] output data size: 32,1,1,1
I0706 16:17:43.708971  4886 net.cpp:153] Setting up label
I0706 16:17:43.708978  4886 net.cpp:160] Top shape: 32 1 1 1 (32)
I0706 16:17:43.708981  4886 net.cpp:168] Memory required for data: 105840128
I0706 16:17:43.708983  4886 layer_factory.hpp:76] Creating layer pool1
I0706 16:17:43.708997  4886 net.cpp:109] Creating Layer pool1
I0706 16:17:43.708999  4886 net.cpp:457] pool1 <- data
I0706 16:17:43.709007  4886 net.cpp:414] pool1 -> pool1
I0706 16:17:43.709100  4886 net.cpp:153] Setting up pool1
I0706 16:17:43.709107  4886 net.cpp:160] Top shape: 32 75 21 21 (1058400)
I0706 16:17:43.709110  4886 net.cpp:168] Memory required for data: 110073728
I0706 16:17:43.709111  4886 layer_factory.hpp:76] Creating layer conv3
I0706 16:17:43.709118  4886 net.cpp:109] Creating Layer conv3
I0706 16:17:43.709120  4886 net.cpp:457] conv3 <- pool1
I0706 16:17:43.709123  4886 net.cpp:414] conv3 -> conv3
I0706 16:17:43.714746  4886 net.cpp:153] Setting up conv3
I0706 16:17:43.714763  4886 net.cpp:160] Top shape: 32 384 21 21 (5419008)
I0706 16:17:43.714766  4886 net.cpp:168] Memory required for data: 131749760
I0706 16:17:43.714776  4886 layer_factory.hpp:76] Creating layer relu3
I0706 16:17:43.714784  4886 net.cpp:109] Creating Layer relu3
I0706 16:17:43.714787  4886 net.cpp:457] relu3 <- conv3
I0706 16:17:43.714792  4886 net.cpp:400] relu3 -> conv3 (in-place)
I0706 16:17:43.714800  4886 net.cpp:153] Setting up relu3
I0706 16:17:43.714803  4886 net.cpp:160] Top shape: 32 384 21 21 (5419008)
I0706 16:17:43.714805  4886 net.cpp:168] Memory required for data: 153425792
I0706 16:17:43.714807  4886 layer_factory.hpp:76] Creating layer conv4
I0706 16:17:43.714813  4886 net.cpp:109] Creating Layer conv4
I0706 16:17:43.714815  4886 net.cpp:457] conv4 <- conv3
I0706 16:17:43.714819  4886 net.cpp:414] conv4 -> conv4
I0706 16:17:43.727807  4886 net.cpp:153] Setting up conv4
I0706 16:17:43.727829  4886 net.cpp:160] Top shape: 32 384 21 21 (5419008)
I0706 16:17:43.727833  4886 net.cpp:168] Memory required for data: 175101824
I0706 16:17:43.727841  4886 layer_factory.hpp:76] Creating layer relu4
I0706 16:17:43.727850  4886 net.cpp:109] Creating Layer relu4
I0706 16:17:43.727854  4886 net.cpp:457] relu4 <- conv4
I0706 16:17:43.727859  4886 net.cpp:400] relu4 -> conv4 (in-place)
I0706 16:17:43.727888  4886 net.cpp:153] Setting up relu4
I0706 16:17:43.727891  4886 net.cpp:160] Top shape: 32 384 21 21 (5419008)
I0706 16:17:43.727895  4886 net.cpp:168] Memory required for data: 196777856
I0706 16:17:43.727896  4886 layer_factory.hpp:76] Creating layer conv5
I0706 16:17:43.727903  4886 net.cpp:109] Creating Layer conv5
I0706 16:17:43.727905  4886 net.cpp:457] conv5 <- conv4
I0706 16:17:43.727910  4886 net.cpp:414] conv5 -> conv5
I0706 16:17:43.745084  4886 net.cpp:153] Setting up conv5
I0706 16:17:43.745102  4886 net.cpp:160] Top shape: 32 256 21 21 (3612672)
I0706 16:17:43.745105  4886 net.cpp:168] Memory required for data: 211228544
I0706 16:17:43.745113  4886 layer_factory.hpp:76] Creating layer relu5
I0706 16:17:43.745122  4886 net.cpp:109] Creating Layer relu5
I0706 16:17:43.745126  4886 net.cpp:457] relu5 <- conv5
I0706 16:17:43.745129  4886 net.cpp:400] relu5 -> conv5 (in-place)
I0706 16:17:43.745136  4886 net.cpp:153] Setting up relu5
I0706 16:17:43.745138  4886 net.cpp:160] Top shape: 32 256 21 21 (3612672)
I0706 16:17:43.745141  4886 net.cpp:168] Memory required for data: 225679232
I0706 16:17:43.745141  4886 layer_factory.hpp:76] Creating layer pool5
I0706 16:17:43.745146  4886 net.cpp:109] Creating Layer pool5
I0706 16:17:43.745149  4886 net.cpp:457] pool5 <- conv5
I0706 16:17:43.745152  4886 net.cpp:414] pool5 -> pool5
I0706 16:17:43.745177  4886 net.cpp:153] Setting up pool5
I0706 16:17:43.745180  4886 net.cpp:160] Top shape: 32 256 10 10 (819200)
I0706 16:17:43.745182  4886 net.cpp:168] Memory required for data: 228956032
I0706 16:17:43.745183  4886 layer_factory.hpp:76] Creating layer fc6
I0706 16:17:43.745188  4886 net.cpp:109] Creating Layer fc6
I0706 16:17:43.745190  4886 net.cpp:457] fc6 <- pool5
I0706 16:17:43.745193  4886 net.cpp:414] fc6 -> fc6
I0706 16:17:45.732295  4886 net.cpp:153] Setting up fc6
I0706 16:17:45.732314  4886 net.cpp:160] Top shape: 32 4096 (131072)
I0706 16:17:45.732317  4886 net.cpp:168] Memory required for data: 229480320
I0706 16:17:45.732323  4886 layer_factory.hpp:76] Creating layer relu6
I0706 16:17:45.732329  4886 net.cpp:109] Creating Layer relu6
I0706 16:17:45.732332  4886 net.cpp:457] relu6 <- fc6
I0706 16:17:45.732336  4886 net.cpp:400] relu6 -> fc6 (in-place)
I0706 16:17:45.732343  4886 net.cpp:153] Setting up relu6
I0706 16:17:45.732347  4886 net.cpp:160] Top shape: 32 4096 (131072)
I0706 16:17:45.732347  4886 net.cpp:168] Memory required for data: 230004608
I0706 16:17:45.732349  4886 layer_factory.hpp:76] Creating layer drop6
I0706 16:17:45.732358  4886 net.cpp:109] Creating Layer drop6
I0706 16:17:45.732360  4886 net.cpp:457] drop6 <- fc6
I0706 16:17:45.732362  4886 net.cpp:400] drop6 -> fc6 (in-place)
I0706 16:17:45.732380  4886 net.cpp:153] Setting up drop6
I0706 16:17:45.732383  4886 net.cpp:160] Top shape: 32 4096 (131072)
I0706 16:17:45.732385  4886 net.cpp:168] Memory required for data: 230528896
I0706 16:17:45.732386  4886 layer_factory.hpp:76] Creating layer fc7
I0706 16:17:45.732391  4886 net.cpp:109] Creating Layer fc7
I0706 16:17:45.732393  4886 net.cpp:457] fc7 <- fc6
I0706 16:17:45.732395  4886 net.cpp:414] fc7 -> fc7
I0706 16:17:46.044961  4886 net.cpp:153] Setting up fc7
I0706 16:17:46.044981  4886 net.cpp:160] Top shape: 32 4096 (131072)
I0706 16:17:46.044984  4886 net.cpp:168] Memory required for data: 231053184
I0706 16:17:46.044992  4886 layer_factory.hpp:76] Creating layer relu7
I0706 16:17:46.044999  4886 net.cpp:109] Creating Layer relu7
I0706 16:17:46.045002  4886 net.cpp:457] relu7 <- fc7
I0706 16:17:46.045006  4886 net.cpp:400] relu7 -> fc7 (in-place)
I0706 16:17:46.045013  4886 net.cpp:153] Setting up relu7
I0706 16:17:46.045017  4886 net.cpp:160] Top shape: 32 4096 (131072)
I0706 16:17:46.045018  4886 net.cpp:168] Memory required for data: 231577472
I0706 16:17:46.045019  4886 layer_factory.hpp:76] Creating layer drop7
I0706 16:17:46.045023  4886 net.cpp:109] Creating Layer drop7
I0706 16:17:46.045025  4886 net.cpp:457] drop7 <- fc7
I0706 16:17:46.045028  4886 net.cpp:400] drop7 -> fc7 (in-place)
I0706 16:17:46.045066  4886 net.cpp:153] Setting up drop7
I0706 16:17:46.045070  4886 net.cpp:160] Top shape: 32 4096 (131072)
I0706 16:17:46.045073  4886 net.cpp:168] Memory required for data: 232101760
I0706 16:17:46.045074  4886 layer_factory.hpp:76] Creating layer fc8_species
I0706 16:17:46.045079  4886 net.cpp:109] Creating Layer fc8_species
I0706 16:17:46.045081  4886 net.cpp:457] fc8_species <- fc7
I0706 16:17:46.045084  4886 net.cpp:414] fc8_species -> fc8_species
I0706 16:17:46.120256  4886 net.cpp:153] Setting up fc8_species
I0706 16:17:46.120275  4886 net.cpp:160] Top shape: 32 967 (30944)
I0706 16:17:46.120277  4886 net.cpp:168] Memory required for data: 232225536
I0706 16:17:46.120282  4886 layer_factory.hpp:76] Creating layer loss
I0706 16:17:46.120296  4886 net.cpp:109] Creating Layer loss
I0706 16:17:46.120299  4886 net.cpp:457] loss <- fc8_species
I0706 16:17:46.120302  4886 net.cpp:457] loss <- label
I0706 16:17:46.120306  4886 net.cpp:414] loss -> loss
I0706 16:17:46.120312  4886 layer_factory.hpp:76] Creating layer loss
…
I0706 16:17:46.121582  4886 net.cpp:52] Initializing net from parameters:
state {
phase: TEST
}
layer {
name: "data"
type: "Data"
top: "data"
include {
phase: TEST
}
transform_param {
mean_file: "/home/ffw/scratch/plantClef/scatnet_output/train/a4_m2_s1s2_f2/lmdb_mean_coeff.binaryproto"
}
data_param {
source: "/home/ffw/scratch/plantClef/scatnet_output/test/a4_m2_s1s2_f2/lmdb_data"
batch_size: 32
backend: LMDB
}
}
layer {
name: "label"
type: "Data"
top: "label"
include {
phase: TEST
}
data_param {
source: "/home/ffw/scratch/plantClef/scatnet_output/test/a4_m2_s1s2_f2/lmdb_labels"
batch_size: 32
backend: LMDB
}
}
layer {
name: "pool1"
type: "Pooling"
bottom: "data"
top: "pool1"
pooling_param {
pool: MAX
kernel_size: 6
stride: 5
}
}
layer {
name: "conv3"
type: "Convolution"
bottom: "pool1"
top: "conv3"
param {
lr_mult: 1
decay_mult: 1
}
param {
lr_mult: 2
decay_mult: 0
}
convolution_param {
num_output: 384
pad: 1
kernel_size: 3
weight_filler {
type: "gaussian"
std: 0.01
}
bias_filler {
type: "constant"
value: 0
}
}
}
layer {
name: "relu3"
type: "ReLU"
bottom: "conv3"
top: "conv3"
}
layer {
name: "conv4"
type: "Convolution"
bottom: "conv3"
top: "conv4"
param {
lr_mult: 1
decay_mult: 1
}
param {
lr_mult: 2
decay_mult: 0
}
convolution_param {
num_output: 384
pad: 1
kernel_size: 3
group: 2
weight_filler {
type: "gaussian"
std: 0.01
}
bias_filler {
type: "constant"
value: 0.1
}
}
}
layer {
name: "relu4"
type: "ReLU"
bottom: "conv4"
top: "conv4"
}
layer {
name: "conv5"
type: "Convolution"
bottom: "conv4"
top: "conv5"
param {
lr_mult: 1
decay_mult: 1
}
param {
lr_mult: 2
decay_mult: 0
}
convolution_param {
num_output: 256
pad: 1
kernel_size: 3
group: 1
weight_filler {
type: "gaussian"
std: 0.01
}
bias_filler {
type: "constant"
value: 0.1
}
}
}
layer {
name: "relu5"
type: "ReLU"
bottom: "conv5"
top: "conv5"
}
layer {
name: "pool5"
type: "Pooling"
bottom: "conv5"
top: "pool5"
pooling_param {
pool: MAX
kernel_size: 3
stride: 2
}
}
layer {
name: "fc6"
type: "InnerProduct"
bottom: "pool5"
top: "fc6"
param {
lr_mult: 1
decay_mult: 1
}
param {
lr_mult: 2
decay_mult: 0
}
inner_product_param {
num_output: 4096
weight_filler {
type: "gaussian"
std: 0.005
}
bias_filler {
type: "constant"
value: 0.1
}
}
}
layer {
name: "relu6"
type: "ReLU"
bottom: "fc6"
top: "fc6"
}
layer {
name: "drop6"
type: "Dropout"
bottom: "fc6"
top: "fc6"
dropout_param {
dropout_ratio: 0.5
}
}
layer {
name: "fc7"
type: "InnerProduct"
bottom: "fc6"
top: "fc7"
param {
lr_mult: 1
decay_mult: 1
}
param {
lr_mult: 2
decay_mult: 0
}
inner_product_param {
num_output: 4096
weight_filler {
type: "gaussian"
std: 0.005
}
bias_filler {
type: "constant"
value: 0.1
}
}
}
layer {
name: "relu7"
type: "ReLU"
bottom: "fc7"
top: "fc7"
}
layer {
name: "drop7"
type: "Dropout"
bottom: "fc7"
top: "fc7"
dropout_param {
dropout_ratio: 0.5
}
}
layer {
name: "fc8_species"
type: "InnerProduct"
bottom: "fc7"
top: "fc8_species"
param {
lr_mult: 1
decay_mult: 1
}
param {
lr_mult: 2
decay_mult: 0
}
inner_product_param {
num_output: 967
weight_filler {
type: "gaussian"
std: 0.005
}
bias_filler {
type: "constant"
value: 0.1
}
}
}
layer {
name: "loss"
type: "SoftmaxWithLoss"
bottom: "fc8_species"
bottom: "label"
top: "loss"
}
layer {
name: "accuracy"
type: "Accuracy"
bottom: "fc8_species"
bottom: "label"
top: "accuracy"
include {
phase: TEST
}
}
I0706 16:17:46.121642  4886 layer_factory.hpp:76] Creating layer data
I0706 16:17:46.121693  4886 net.cpp:109] Creating Layer data
I0706 16:17:46.121697  4886 net.cpp:414] data -> data
I0706 16:17:46.121702  4886 data_transformer.cpp:25] Loading mean file from: /home/ffw/scratch/plantClef/scatnet_output/train/a4_m2_s1s2_f2/lmdb_mean_coeff.binaryproto
I0706 16:17:46.123312  4904 db_lmdb.cpp:36] Opened lmdb /home/ffw/scratch/plantClef/scatnet_output/test/a4_m2_s1s2_f2/lmdb_data
I0706 16:17:46.127723  4886 data_layer.cpp:45] output data size: 32,75,105,105
I0706 16:17:46.240070  4886 net.cpp:153] Setting up data
I0706 16:17:46.240089  4886 net.cpp:160] Top shape: 32 75 105 105 (26460000)
I0706 16:17:46.240092  4886 net.cpp:168] Memory required for data: 105840000
I0706 16:17:46.240095  4886 layer_factory.hpp:76] Creating layer label
I0706 16:17:46.240133  4886 net.cpp:109] Creating Layer label
I0706 16:17:46.240146  4886 net.cpp:414] label -> label
I0706 16:17:46.241850  4906 db_lmdb.cpp:36] Opened lmdb /home/ffw/scratch/plantClef/scatnet_output/test/a4_m2_s1s2_f2/lmdb_labels
I0706 16:17:46.250099  4886 data_layer.cpp:45] output data size: 32,1,1,1
I0706 16:17:46.250332  4886 net.cpp:153] Setting up label
I0706 16:17:46.250342  4886 net.cpp:160] Top shape: 32 1 1 1 (32)
I0706 16:17:46.250344  4886 net.cpp:168] Memory required for data: 105840128
I0706 16:17:46.250347  4886 layer_factory.hpp:76] Creating layer label_label_0_split
I0706 16:17:46.250355  4886 net.cpp:109] Creating Layer label_label_0_split
I0706 16:17:46.250358  4886 net.cpp:457] label_label_0_split <- label
I0706 16:17:46.250362  4886 net.cpp:414] label_label_0_split -> label_label_0_split_0
I0706 16:17:46.250367  4886 net.cpp:414] label_label_0_split -> label_label_0_split_1
I0706 16:17:46.250442  4886 net.cpp:153] Setting up label_label_0_split
I0706 16:17:46.250445  4886 net.cpp:160] Top shape: 32 1 1 1 (32)
I0706 16:17:46.250447  4886 net.cpp:160] Top shape: 32 1 1 1 (32)
I0706 16:17:46.250449  4886 net.cpp:168] Memory required for data: 105840384
I0706 16:17:46.250452  4886 layer_factory.hpp:76] Creating layer pool1
I0706 16:17:46.250457  4886 net.cpp:109] Creating Layer pool1
I0706 16:17:46.250458  4886 net.cpp:457] pool1 <- data
I0706 16:17:46.250461  4886 net.cpp:414] pool1 -> pool1
I0706 16:17:46.250479  4886 net.cpp:153] Setting up pool1
I0706 16:17:46.250483  4886 net.cpp:160] Top shape: 32 75 21 21 (1058400)
I0706 16:17:46.250484  4886 net.cpp:168] Memory required for data: 110073984
I0706 16:17:46.250486  4886 layer_factory.hpp:76] Creating layer conv3
I0706 16:17:46.250494  4886 net.cpp:109] Creating Layer conv3
I0706 16:17:46.250496  4886 net.cpp:457] conv3 <- pool1
I0706 16:17:46.250499  4886 net.cpp:414] conv3 -> conv3
I0706 16:17:46.256085  4886 net.cpp:153] Setting up conv3
I0706 16:17:46.256103  4886 net.cpp:160] Top shape: 32 384 21 21 (5419008)
I0706 16:17:46.256105  4886 net.cpp:168] Memory required for data: 131750016
I0706 16:17:46.256114  4886 layer_factory.hpp:76] Creating layer relu3
I0706 16:17:46.256120  4886 net.cpp:109] Creating Layer relu3
I0706 16:17:46.256124  4886 net.cpp:457] relu3 <- conv3
I0706 16:17:46.256127  4886 net.cpp:400] relu3 -> conv3 (in-place)
I0706 16:17:46.256134  4886 net.cpp:153] Setting up relu3
I0706 16:17:46.256136  4886 net.cpp:160] Top shape: 32 384 21 21 (5419008)
I0706 16:17:46.256137  4886 net.cpp:168] Memory required for data: 153426048
I0706 16:17:46.256139  4886 layer_factory.hpp:76] Creating layer conv4
I0706 16:17:46.256145  4886 net.cpp:109] Creating Layer conv4
I0706 16:17:46.256147  4886 net.cpp:457] conv4 <- conv3
I0706 16:17:46.256150  4886 net.cpp:414] conv4 -> conv4
I0706 16:17:46.269076  4886 net.cpp:153] Setting up conv4
I0706 16:17:46.269093  4886 net.cpp:160] Top shape: 32 384 21 21 (5419008)
I0706 16:17:46.269095  4886 net.cpp:168] Memory required for data: 175102080
I0706 16:17:46.269104  4886 layer_factory.hpp:76] Creating layer relu4
I0706 16:17:46.269110  4886 net.cpp:109] Creating Layer relu4
I0706 16:17:46.269112  4886 net.cpp:457] relu4 <- conv4
I0706 16:17:46.269116  4886 net.cpp:400] relu4 -> conv4 (in-place)
I0706 16:17:46.269121  4886 net.cpp:153] Setting up relu4
I0706 16:17:46.269124  4886 net.cpp:160] Top shape: 32 384 21 21 (5419008)
I0706 16:17:46.269126  4886 net.cpp:168] Memory required for data: 196778112
I0706 16:17:46.269127  4886 layer_factory.hpp:76] Creating layer conv5
I0706 16:17:46.269134  4886 net.cpp:109] Creating Layer conv5
I0706 16:17:46.269136  4886 net.cpp:457] conv5 <- conv4
I0706 16:17:46.269140  4886 net.cpp:414] conv5 -> conv5
I0706 16:17:46.286696  4886 net.cpp:153] Setting up conv5
I0706 16:17:46.286713  4886 net.cpp:160] Top shape: 32 256 21 21 (3612672)
I0706 16:17:46.286715  4886 net.cpp:168] Memory required for data: 211228800
I0706 16:17:46.286723  4886 layer_factory.hpp:76] Creating layer relu5
I0706 16:17:46.286731  4886 net.cpp:109] Creating Layer relu5
I0706 16:17:46.286733  4886 net.cpp:457] relu5 <- conv5
I0706 16:17:46.286736  4886 net.cpp:400] relu5 -> conv5 (in-place)
I0706 16:17:46.286757  4886 net.cpp:153] Setting up relu5
I0706 16:17:46.286761  4886 net.cpp:160] Top shape: 32 256 21 21 (3612672)
I0706 16:17:46.286762  4886 net.cpp:168] Memory required for data: 225679488
I0706 16:17:46.286764  4886 layer_factory.hpp:76] Creating layer pool5
I0706 16:17:46.286768  4886 net.cpp:109] Creating Layer pool5
I0706 16:17:46.286770  4886 net.cpp:457] pool5 <- conv5
I0706 16:17:46.286773  4886 net.cpp:414] pool5 -> pool5
I0706 16:17:46.286795  4886 net.cpp:153] Setting up pool5
I0706 16:17:46.286798  4886 net.cpp:160] Top shape: 32 256 10 10 (819200)
I0706 16:17:46.286800  4886 net.cpp:168] Memory required for data: 228956288
I0706 16:17:46.286803  4886 layer_factory.hpp:76] Creating layer fc6
I0706 16:17:46.286808  4886 net.cpp:109] Creating Layer fc6
I0706 16:17:46.286819  4886 net.cpp:457] fc6 <- pool5
I0706 16:17:46.286823  4886 net.cpp:414] fc6 -> fc6
I0706 16:17:48.248754  4886 net.cpp:153] Setting up fc6
I0706 16:17:48.248774  4886 net.cpp:160] Top shape: 32 4096 (131072)
I0706 16:17:48.248775  4886 net.cpp:168] Memory required for data: 229480576
I0706 16:17:48.248781  4886 layer_factory.hpp:76] Creating layer relu6
I0706 16:17:48.248788  4886 net.cpp:109] Creating Layer relu6
I0706 16:17:48.248791  4886 net.cpp:457] relu6 <- fc6
I0706 16:17:48.248795  4886 net.cpp:400] relu6 -> fc6 (in-place)
I0706 16:17:48.248802  4886 net.cpp:153] Setting up relu6
I0706 16:17:48.248805  4886 net.cpp:160] Top shape: 32 4096 (131072)
I0706 16:17:48.248807  4886 net.cpp:168] Memory required for data: 230004864
I0706 16:17:48.248808  4886 layer_factory.hpp:76] Creating layer drop6
I0706 16:17:48.248813  4886 net.cpp:109] Creating Layer drop6
I0706 16:17:48.248816  4886 net.cpp:457] drop6 <- fc6
I0706 16:17:48.248817  4886 net.cpp:400] drop6 -> fc6 (in-place)
I0706 16:17:48.248837  4886 net.cpp:153] Setting up drop6
I0706 16:17:48.248841  4886 net.cpp:160] Top shape: 32 4096 (131072)
I0706 16:17:48.248842  4886 net.cpp:168] Memory required for data: 230529152
I0706 16:17:48.248844  4886 layer_factory.hpp:76] Creating layer fc7
I0706 16:17:48.248848  4886 net.cpp:109] Creating Layer fc7
I0706 16:17:48.248850  4886 net.cpp:457] fc7 <- fc6
I0706 16:17:48.248853  4886 net.cpp:414] fc7 -> fc7
I0706 16:17:48.552709  4886 net.cpp:153] Setting up fc7
I0706 16:17:48.552729  4886 net.cpp:160] Top shape: 32 4096 (131072)
I0706 16:17:48.552731  4886 net.cpp:168] Memory required for data: 231053440
I0706 16:17:48.552741  4886 layer_factory.hpp:76] Creating layer relu7
I0706 16:17:48.552747  4886 net.cpp:109] Creating Layer relu7
I0706 16:17:48.552750  4886 net.cpp:457] relu7 <- fc7
I0706 16:17:48.552753  4886 net.cpp:400] relu7 -> fc7 (in-place)
I0706 16:17:48.552760  4886 net.cpp:153] Setting up relu7
I0706 16:17:48.552763  4886 net.cpp:160] Top shape: 32 4096 (131072)
I0706 16:17:48.552764  4886 net.cpp:168] Memory required for data: 231577728
I0706 16:17:48.552767  4886 layer_factory.hpp:76] Creating layer drop7
I0706 16:17:48.552772  4886 net.cpp:109] Creating Layer drop7
I0706 16:17:48.552773  4886 net.cpp:457] drop7 <- fc7
I0706 16:17:48.552777  4886 net.cpp:400] drop7 -> fc7 (in-place)
I0706 16:17:48.552796  4886 net.cpp:153] Setting up drop7
I0706 16:17:48.552799  4886 net.cpp:160] Top shape: 32 4096 (131072)
I0706 16:17:48.552801  4886 net.cpp:168] Memory required for data: 232102016
I0706 16:17:48.552803  4886 layer_factory.hpp:76] Creating layer fc8_species
I0706 16:17:48.552809  4886 net.cpp:109] Creating Layer fc8_species
I0706 16:17:48.552809  4886 net.cpp:457] fc8_species <- fc7
I0706 16:17:48.552812  4886 net.cpp:414] fc8_species -> fc8_species
I0706 16:17:48.624305  4886 net.cpp:153] Setting up fc8_species
I0706 16:17:48.624323  4886 net.cpp:160] Top shape: 32 967 (30944)
I0706 16:17:48.624326  4886 net.cpp:168] Memory required for data: 232225792
I0706 16:17:48.624331  4886 layer_factory.hpp:76] Creating layer fc8_species_fc8_species_0_split
I0706 16:17:48.624336  4886 net.cpp:109] Creating Layer fc8_species_fc8_species_0_split
I0706 16:17:48.624339  4886 net.cpp:457] fc8_species_fc8_species_0_split <- fc8_species
I0706 16:17:48.624364  4886 net.cpp:414] fc8_species_fc8_species_0_split -> fc8_species_fc8_species_0_split_0
I0706 16:17:48.624371  4886 net.cpp:414] fc8_species_fc8_species_0_split -> fc8_species_fc8_species_0_split_1
I0706 16:17:48.624393  4886 net.cpp:153] Setting up fc8_species_fc8_species_0_split
I0706 16:17:48.624395  4886 net.cpp:160] Top shape: 32 967 (30944)
I0706 16:17:48.624397  4886 net.cpp:160] Top shape: 32 967 (30944)
I0706 16:17:48.624399  4886 net.cpp:168] Memory required for data: 232473344
I0706 16:17:48.624402  4886 layer_factory.hpp:76] Creating layer loss
I0706 16:17:48.624404  4886 net.cpp:109] Creating Layer loss
I0706 16:17:48.624406  4886 net.cpp:457] loss <- fc8_species_fc8_species_0_split_0
I0706 16:17:48.624409  4886 net.cpp:457] loss <- label_label_0_split_0
I0706 16:17:48.624411  4886 net.cpp:414] loss -> loss
…
