…
I0703 15:05:22.834303 14543 net.cpp:325] The NetState phase (0) differed from the phase (1) specified by a rule in layer accuracy
I0703 15:05:22.834408 14543 net.cpp:52] Initializing net from parameters:
state {
phase: TRAIN
}
layer {
name: "data"
type: "Data"
top: "data"
include {
phase: TRAIN
}
data_param {
source: "/home/ffw/scratch/plantClef/scatnet_output/train/a1_m0_s1_f2/lmdb_data"
batch_size: 64
backend: LMDB
}
}
layer {
name: "label"
type: "Data"
top: "label"
include {
phase: TRAIN
}
data_param {
source: "/home/ffw/scratch/plantClef/scatnet_output/train/a1_m0_s1_f2/lmdb_labels"
batch_size: 64
backend: LMDB
}
}
layer {
name: "conv1"
type: "Convolution"
bottom: "data"
top: "conv1"
param {
lr_mult: 1
decay_mult: 1
}
param {
lr_mult: 2
decay_mult: 0
}
convolution_param {
num_output: 96
kernel_size: 11
stride: 4
weight_filler {
type: "gaussian"
std: 0.01
}
bias_filler {
type: "constant"
value: 0
}
}
}
layer {
name: "relu1"
type: "ReLU"
bottom: "conv1"
top: "conv1"
}
layer {
name: "norm1"
type: "LRN"
bottom: "conv1"
top: "norm1"
lrn_param {
local_size: 5
alpha: 0.0001
beta: 0.75
}
}
layer {
name: "pool1"
type: "Pooling"
bottom: "norm1"
top: "pool1"
pooling_param {
pool: MAX
kernel_size: 3
stride: 2
}
}
layer {
name: "conv2"
type: "Convolution"
bottom: "pool1"
top: "conv2"
param {
lr_mult: 1
decay_mult: 1
}
param {
lr_mult: 2
decay_mult: 0
}
convolution_param {
num_output: 256
pad: 2
kernel_size: 5
group: 2
weight_filler {
type: "gaussian"
std: 0.01
}
bias_filler {
type: "constant"
value: 0.1
}
}
}
layer {
name: "relu2"
type: "ReLU"
bottom: "conv2"
top: "conv2"
}
layer {
name: "norm2"
type: "LRN"
bottom: "conv2"
top: "norm2"
lrn_param {
local_size: 5
alpha: 0.0001
beta: 0.75
}
}
layer {
name: "pool2"
type: "Pooling"
bottom: "norm2"
top: "pool2"
pooling_param {
pool: MAX
kernel_size: 3
stride: 2
}
}
layer {
name: "conv3"
type: "Convolution"
bottom: "pool2"
top: "conv3"
param {
lr_mult: 1
decay_mult: 1
}
param {
lr_mult: 2
decay_mult: 0
}
convolution_param {
num_output: 384
pad: 1
kernel_size: 3
weight_filler {
type: "gaussian"
std: 0.01
}
bias_filler {
type: "constant"
value: 0
}
}
}
layer {
name: "relu3"
type: "ReLU"
bottom: "conv3"
top: "conv3"
}
layer {
name: "conv4"
type: "Convolution"
bottom: "conv3"
top: "conv4"
param {
lr_mult: 1
decay_mult: 1
}
param {
lr_mult: 2
decay_mult: 0
}
convolution_param {
num_output: 384
pad: 1
kernel_size: 3
group: 2
weight_filler {
type: "gaussian"
std: 0.01
}
bias_filler {
type: "constant"
value: 0.1
}
}
}
layer {
name: "relu4"
type: "ReLU"
bottom: "conv4"
top: "conv4"
}
layer {
name: "conv5"
type: "Convolution"
bottom: "conv4"
top: "conv5"
param {
lr_mult: 1
decay_mult: 1
}
param {
lr_mult: 2
decay_mult: 0
}
convolution_param {
num_output: 256
pad: 1
kernel_size: 3
group: 1
weight_filler {
type: "gaussian"
std: 0.01
}
bias_filler {
type: "constant"
value: 0.1
}
}
}
layer {
name: "relu5"
type: "ReLU"
bottom: "conv5"
top: "conv5"
}
layer {
name: "pool5"
type: "Pooling"
bottom: "conv5"
top: "pool5"
pooling_param {
pool: MAX
kernel_size: 3
stride: 2
}
}
layer {
name: "fc6"
type: "InnerProduct"
bottom: "pool5"
top: "fc6"
param {
lr_mult: 1
decay_mult: 1
}
param {
lr_mult: 2
decay_mult: 0
}
inner_product_param {
num_output: 4096
weight_filler {
type: "gaussian"
std: 0.005
}
bias_filler {
type: "constant"
value: 0.1
}
}
}
layer {
name: "relu6"
type: "ReLU"
bottom: "fc6"
top: "fc6"
}
layer {
name: "drop6"
type: "Dropout"
bottom: "fc6"
top: "fc6"
dropout_param {
dropout_ratio: 0.5
}
}
layer {
name: "fc7"
type: "InnerProduct"
bottom: "fc6"
top: "fc7"
param {
lr_mult: 1
decay_mult: 1
}
param {
lr_mult: 2
decay_mult: 0
}
inner_product_param {
num_output: 4096
weight_filler {
type: "gaussian"
std: 0.005
}
bias_filler {
type: "constant"
value: 0.1
}
}
}
layer {
name: "relu7"
type: "ReLU"
bottom: "fc7"
top: "fc7"
}
layer {
name: "drop7"
type: "Dropout"
bottom: "fc7"
top: "fc7"
dropout_param {
dropout_ratio: 0.5
}
}
layer {
name: "fc8_species"
type: "InnerProduct"
bottom: "fc7"
top: "fc8_species"
param {
lr_mult: 1
decay_mult: 1
}
param {
lr_mult: 2
decay_mult: 0
}
inner_product_param {
num_output: 967
weight_filler {
type: "gaussian"
std: 0.005
}
bias_filler {
type: "constant"
value: 0.1
}
}
}
layer {
name: "loss"
type: "SoftmaxWithLoss"
bottom: "fc8_species"
bottom: "label"
top: "loss"
}
I0703 15:05:22.834470 14543 layer_factory.hpp:76] Creating layer data
I0703 15:05:22.837265 14543 net.cpp:109] Creating Layer data
I0703 15:05:22.837273 14543 net.cpp:414] data -> data
I0703 15:05:22.838609 14555 db_lmdb.cpp:36] Opened lmdb /home/ffw/scratch/plantClef/scatnet_output/train/a1_m0_s1_f2/lmdb_data
I0703 15:05:22.839079 14543 data_layer.cpp:45] output data size: 64,3,224,224
I0703 15:05:22.893026 14543 net.cpp:153] Setting up data
I0703 15:05:22.893054 14543 net.cpp:160] Top shape: 64 3 224 224 (9633792)
I0703 15:05:22.893056 14543 net.cpp:168] Memory required for data: 38535168
I0703 15:05:22.893064 14543 layer_factory.hpp:76] Creating layer label
I0703 15:05:22.893133 14543 net.cpp:109] Creating Layer label
I0703 15:05:22.893148 14543 net.cpp:414] label -> label
I0703 15:05:22.897804 14557 db_lmdb.cpp:36] Opened lmdb /home/ffw/scratch/plantClef/scatnet_output/train/a1_m0_s1_f2/lmdb_labels
I0703 15:05:22.897899 14543 data_layer.cpp:45] output data size: 64,1,1,1
I0703 15:05:22.897999 14543 net.cpp:153] Setting up label
I0703 15:05:22.898005 14543 net.cpp:160] Top shape: 64 1 1 1 (64)
I0703 15:05:22.898007 14543 net.cpp:168] Memory required for data: 38535424
I0703 15:05:22.898010 14543 layer_factory.hpp:76] Creating layer conv1
I0703 15:05:22.898018 14543 net.cpp:109] Creating Layer conv1
I0703 15:05:22.898031 14543 net.cpp:457] conv1 <- data
I0703 15:05:22.898039 14543 net.cpp:414] conv1 -> conv1
I0703 15:05:22.900179 14543 net.cpp:153] Setting up conv1
I0703 15:05:22.900192 14543 net.cpp:160] Top shape: 64 96 54 54 (17915904)
I0703 15:05:22.900194 14543 net.cpp:168] Memory required for data: 110199040
I0703 15:05:22.900203 14543 layer_factory.hpp:76] Creating layer relu1
I0703 15:05:22.900209 14543 net.cpp:109] Creating Layer relu1
I0703 15:05:22.900213 14543 net.cpp:457] relu1 <- conv1
I0703 15:05:22.900215 14543 net.cpp:400] relu1 -> conv1 (in-place)
I0703 15:05:22.900226 14543 net.cpp:153] Setting up relu1
I0703 15:05:22.900229 14543 net.cpp:160] Top shape: 64 96 54 54 (17915904)
I0703 15:05:22.900231 14543 net.cpp:168] Memory required for data: 181862656
I0703 15:05:22.900233 14543 layer_factory.hpp:76] Creating layer norm1
I0703 15:05:22.900398 14543 net.cpp:109] Creating Layer norm1
I0703 15:05:22.900415 14543 net.cpp:457] norm1 <- conv1
I0703 15:05:22.900418 14543 net.cpp:414] norm1 -> norm1
I0703 15:05:22.900454 14543 net.cpp:153] Setting up norm1
I0703 15:05:22.900457 14543 net.cpp:160] Top shape: 64 96 54 54 (17915904)
I0703 15:05:22.900459 14543 net.cpp:168] Memory required for data: 253526272
I0703 15:05:22.900460 14543 layer_factory.hpp:76] Creating layer pool1
I0703 15:05:22.900465 14543 net.cpp:109] Creating Layer pool1
I0703 15:05:22.900467 14543 net.cpp:457] pool1 <- norm1
I0703 15:05:22.900470 14543 net.cpp:414] pool1 -> pool1
I0703 15:05:22.900490 14543 net.cpp:153] Setting up pool1
I0703 15:05:22.900493 14543 net.cpp:160] Top shape: 64 96 27 27 (4478976)
I0703 15:05:22.900496 14543 net.cpp:168] Memory required for data: 271442176
I0703 15:05:22.900497 14543 layer_factory.hpp:76] Creating layer conv2
I0703 15:05:22.900501 14543 net.cpp:109] Creating Layer conv2
I0703 15:05:22.900503 14543 net.cpp:457] conv2 <- pool1
I0703 15:05:22.900506 14543 net.cpp:414] conv2 -> conv2
I0703 15:05:22.907487 14543 net.cpp:153] Setting up conv2
I0703 15:05:22.907505 14543 net.cpp:160] Top shape: 64 256 27 27 (11943936)
I0703 15:05:22.907507 14543 net.cpp:168] Memory required for data: 319217920
I0703 15:05:22.907516 14543 layer_factory.hpp:76] Creating layer relu2
I0703 15:05:22.907524 14543 net.cpp:109] Creating Layer relu2
I0703 15:05:22.907527 14543 net.cpp:457] relu2 <- conv2
I0703 15:05:22.907531 14543 net.cpp:400] relu2 -> conv2 (in-place)
I0703 15:05:22.907538 14543 net.cpp:153] Setting up relu2
I0703 15:05:22.907541 14543 net.cpp:160] Top shape: 64 256 27 27 (11943936)
I0703 15:05:22.907543 14543 net.cpp:168] Memory required for data: 366993664
I0703 15:05:22.907546 14543 layer_factory.hpp:76] Creating layer norm2
I0703 15:05:22.907552 14543 net.cpp:109] Creating Layer norm2
I0703 15:05:22.907553 14543 net.cpp:457] norm2 <- conv2
I0703 15:05:22.907557 14543 net.cpp:414] norm2 -> norm2
I0703 15:05:22.907585 14543 net.cpp:153] Setting up norm2
I0703 15:05:22.907589 14543 net.cpp:160] Top shape: 64 256 27 27 (11943936)
I0703 15:05:22.907591 14543 net.cpp:168] Memory required for data: 414769408
I0703 15:05:22.907593 14543 layer_factory.hpp:76] Creating layer pool2
I0703 15:05:22.907598 14543 net.cpp:109] Creating Layer pool2
I0703 15:05:22.907599 14543 net.cpp:457] pool2 <- norm2
I0703 15:05:22.907603 14543 net.cpp:414] pool2 -> pool2
I0703 15:05:22.907624 14543 net.cpp:153] Setting up pool2
I0703 15:05:22.907626 14543 net.cpp:160] Top shape: 64 256 13 13 (2768896)
I0703 15:05:22.907629 14543 net.cpp:168] Memory required for data: 425844992
I0703 15:05:22.907630 14543 layer_factory.hpp:76] Creating layer conv3
I0703 15:05:22.907635 14543 net.cpp:109] Creating Layer conv3
I0703 15:05:22.907637 14543 net.cpp:457] conv3 <- pool2
I0703 15:05:22.907640 14543 net.cpp:414] conv3 -> conv3
I0703 15:05:22.925300 14543 net.cpp:153] Setting up conv3
I0703 15:05:22.925319 14543 net.cpp:160] Top shape: 64 384 13 13 (4153344)
I0703 15:05:22.925323 14543 net.cpp:168] Memory required for data: 442458368
I0703 15:05:22.925330 14543 layer_factory.hpp:76] Creating layer relu3
I0703 15:05:22.925338 14543 net.cpp:109] Creating Layer relu3
I0703 15:05:22.925341 14543 net.cpp:457] relu3 <- conv3
I0703 15:05:22.925345 14543 net.cpp:400] relu3 -> conv3 (in-place)
I0703 15:05:22.925353 14543 net.cpp:153] Setting up relu3
I0703 15:05:22.925354 14543 net.cpp:160] Top shape: 64 384 13 13 (4153344)
I0703 15:05:22.925356 14543 net.cpp:168] Memory required for data: 459071744
I0703 15:05:22.925359 14543 layer_factory.hpp:76] Creating layer conv4
I0703 15:05:22.925364 14543 net.cpp:109] Creating Layer conv4
I0703 15:05:22.925366 14543 net.cpp:457] conv4 <- conv3
I0703 15:05:22.925370 14543 net.cpp:414] conv4 -> conv4
I0703 15:05:22.938622 14543 net.cpp:153] Setting up conv4
I0703 15:05:22.938642 14543 net.cpp:160] Top shape: 64 384 13 13 (4153344)
I0703 15:05:22.938644 14543 net.cpp:168] Memory required for data: 475685120
I0703 15:05:22.938649 14543 layer_factory.hpp:76] Creating layer relu4
I0703 15:05:22.938657 14543 net.cpp:109] Creating Layer relu4
I0703 15:05:22.938679 14543 net.cpp:457] relu4 <- conv4
I0703 15:05:22.938684 14543 net.cpp:400] relu4 -> conv4 (in-place)
I0703 15:05:22.938690 14543 net.cpp:153] Setting up relu4
I0703 15:05:22.938694 14543 net.cpp:160] Top shape: 64 384 13 13 (4153344)
I0703 15:05:22.938695 14543 net.cpp:168] Memory required for data: 492298496
I0703 15:05:22.938697 14543 layer_factory.hpp:76] Creating layer conv5
I0703 15:05:22.938704 14543 net.cpp:109] Creating Layer conv5
I0703 15:05:22.938705 14543 net.cpp:457] conv5 <- conv4
I0703 15:05:22.938709 14543 net.cpp:414] conv5 -> conv5
I0703 15:05:22.956274 14543 net.cpp:153] Setting up conv5
I0703 15:05:22.956291 14543 net.cpp:160] Top shape: 64 256 13 13 (2768896)
I0703 15:05:22.956293 14543 net.cpp:168] Memory required for data: 503374080
I0703 15:05:22.956301 14543 layer_factory.hpp:76] Creating layer relu5
I0703 15:05:22.956307 14543 net.cpp:109] Creating Layer relu5
I0703 15:05:22.956310 14543 net.cpp:457] relu5 <- conv5
I0703 15:05:22.956313 14543 net.cpp:400] relu5 -> conv5 (in-place)
I0703 15:05:22.956320 14543 net.cpp:153] Setting up relu5
I0703 15:05:22.956321 14543 net.cpp:160] Top shape: 64 256 13 13 (2768896)
I0703 15:05:22.956323 14543 net.cpp:168] Memory required for data: 514449664
I0703 15:05:22.956326 14543 layer_factory.hpp:76] Creating layer pool5
I0703 15:05:22.956331 14543 net.cpp:109] Creating Layer pool5
I0703 15:05:22.956332 14543 net.cpp:457] pool5 <- conv5
I0703 15:05:22.956334 14543 net.cpp:414] pool5 -> pool5
I0703 15:05:22.956357 14543 net.cpp:153] Setting up pool5
I0703 15:05:22.956359 14543 net.cpp:160] Top shape: 64 256 6 6 (589824)
I0703 15:05:22.956362 14543 net.cpp:168] Memory required for data: 516808960
I0703 15:05:22.956363 14543 layer_factory.hpp:76] Creating layer fc6
I0703 15:05:22.956368 14543 net.cpp:109] Creating Layer fc6
I0703 15:05:22.956370 14543 net.cpp:457] fc6 <- pool5
I0703 15:05:22.956372 14543 net.cpp:414] fc6 -> fc6
I0703 15:05:23.645107 14543 net.cpp:153] Setting up fc6
I0703 15:05:23.645126 14543 net.cpp:160] Top shape: 64 4096 (262144)
I0703 15:05:23.645129 14543 net.cpp:168] Memory required for data: 517857536
I0703 15:05:23.645135 14543 layer_factory.hpp:76] Creating layer relu6
I0703 15:05:23.645143 14543 net.cpp:109] Creating Layer relu6
I0703 15:05:23.645145 14543 net.cpp:457] relu6 <- fc6
I0703 15:05:23.645149 14543 net.cpp:400] relu6 -> fc6 (in-place)
I0703 15:05:23.645156 14543 net.cpp:153] Setting up relu6
I0703 15:05:23.645159 14543 net.cpp:160] Top shape: 64 4096 (262144)
I0703 15:05:23.645160 14543 net.cpp:168] Memory required for data: 518906112
I0703 15:05:23.645162 14543 layer_factory.hpp:76] Creating layer drop6
I0703 15:05:23.646968 14543 net.cpp:109] Creating Layer drop6
I0703 15:05:23.646975 14543 net.cpp:457] drop6 <- fc6
I0703 15:05:23.646977 14543 net.cpp:400] drop6 -> fc6 (in-place)
I0703 15:05:23.647002 14543 net.cpp:153] Setting up drop6
I0703 15:05:23.647006 14543 net.cpp:160] Top shape: 64 4096 (262144)
I0703 15:05:23.647007 14543 net.cpp:168] Memory required for data: 519954688
I0703 15:05:23.647011 14543 layer_factory.hpp:76] Creating layer fc7
I0703 15:05:23.647014 14543 net.cpp:109] Creating Layer fc7
I0703 15:05:23.647017 14543 net.cpp:457] fc7 <- fc6
I0703 15:05:23.647019 14543 net.cpp:414] fc7 -> fc7
I0703 15:05:23.985397 14543 net.cpp:153] Setting up fc7
I0703 15:05:23.985415 14543 net.cpp:160] Top shape: 64 4096 (262144)
I0703 15:05:23.985419 14543 net.cpp:168] Memory required for data: 521003264
I0703 15:05:23.985424 14543 layer_factory.hpp:76] Creating layer relu7
I0703 15:05:23.985430 14543 net.cpp:109] Creating Layer relu7
I0703 15:05:23.985435 14543 net.cpp:457] relu7 <- fc7
I0703 15:05:23.985438 14543 net.cpp:400] relu7 -> fc7 (in-place)
I0703 15:05:23.985445 14543 net.cpp:153] Setting up relu7
I0703 15:05:23.985447 14543 net.cpp:160] Top shape: 64 4096 (262144)
I0703 15:05:23.985450 14543 net.cpp:168] Memory required for data: 522051840
I0703 15:05:23.985451 14543 layer_factory.hpp:76] Creating layer drop7
I0703 15:05:23.985455 14543 net.cpp:109] Creating Layer drop7
I0703 15:05:23.985476 14543 net.cpp:457] drop7 <- fc7
I0703 15:05:23.985479 14543 net.cpp:400] drop7 -> fc7 (in-place)
I0703 15:05:23.985497 14543 net.cpp:153] Setting up drop7
I0703 15:05:23.985501 14543 net.cpp:160] Top shape: 64 4096 (262144)
I0703 15:05:23.985502 14543 net.cpp:168] Memory required for data: 523100416
I0703 15:05:23.985504 14543 layer_factory.hpp:76] Creating layer fc8_species
I0703 15:05:23.985508 14543 net.cpp:109] Creating Layer fc8_species
I0703 15:05:23.985510 14543 net.cpp:457] fc8_species <- fc7
I0703 15:05:23.985513 14543 net.cpp:414] fc8_species -> fc8_species
I0703 15:05:24.070500 14543 net.cpp:153] Setting up fc8_species
I0703 15:05:24.070518 14543 net.cpp:160] Top shape: 64 967 (61888)
I0703 15:05:24.070521 14543 net.cpp:168] Memory required for data: 523347968
I0703 15:05:24.070528 14543 layer_factory.hpp:76] Creating layer loss
I0703 15:05:24.072232 14543 net.cpp:109] Creating Layer loss
I0703 15:05:24.072238 14543 net.cpp:457] loss <- fc8_species
I0703 15:05:24.072242 14543 net.cpp:457] loss <- label
I0703 15:05:24.072245 14543 net.cpp:414] loss -> loss
I0703 15:05:24.072252 14543 layer_factory.hpp:76] Creating layer loss
…
I0703 15:05:24.073292 14543 net.cpp:325] The NetState phase (1) differed from the phase (0) specified by a rule in layer label
I0703 15:05:24.073402 14543 net.cpp:52] Initializing net from parameters:
state {
phase: TEST
}
layer {
name: "data"
type: "Data"
top: "data"
include {
phase: TEST
}
data_param {
source: "/home/ffw/scratch/plantClef/scatnet_output/test/a1_m0_s1_f2/lmdb_data"
batch_size: 64
backend: LMDB
}
}
layer {
name: "label"
type: "Data"
top: "label"
include {
phase: TEST
}
data_param {
source: "/home/ffw/scratch/plantClef/scatnet_output/test/a1_m0_s1_f2/lmdb_labels"
batch_size: 64
backend: LMDB
}
}
layer {
name: "conv1"
type: "Convolution"
bottom: "data"
top: "conv1"
param {
lr_mult: 1
decay_mult: 1
}
param {
lr_mult: 2
decay_mult: 0
}
convolution_param {
num_output: 96
kernel_size: 11
stride: 4
weight_filler {
type: "gaussian"
std: 0.01
}
bias_filler {
type: "constant"
value: 0
}
}
}
layer {
name: "relu1"
type: "ReLU"
bottom: "conv1"
top: "conv1"
}
layer {
name: "norm1"
type: "LRN"
bottom: "conv1"
top: "norm1"
lrn_param {
local_size: 5
alpha: 0.0001
beta: 0.75
}
}
layer {
name: "pool1"
type: "Pooling"
bottom: "norm1"
top: "pool1"
pooling_param {
pool: MAX
kernel_size: 3
stride: 2
}
}
layer {
name: "conv2"
type: "Convolution"
bottom: "pool1"
top: "conv2"
param {
lr_mult: 1
decay_mult: 1
}
param {
lr_mult: 2
decay_mult: 0
}
convolution_param {
num_output: 256
pad: 2
kernel_size: 5
group: 2
weight_filler {
type: "gaussian"
std: 0.01
}
bias_filler {
type: "constant"
value: 0.1
}
}
}
layer {
name: "relu2"
type: "ReLU"
bottom: "conv2"
top: "conv2"
}
layer {
name: "norm2"
type: "LRN"
bottom: "conv2"
top: "norm2"
lrn_param {
local_size: 5
alpha: 0.0001
beta: 0.75
}
}
layer {
name: "pool2"
type: "Pooling"
bottom: "norm2"
top: "pool2"
pooling_param {
pool: MAX
kernel_size: 3
stride: 2
}
}
layer {
name: "conv3"
type: "Convolution"
bottom: "pool2"
top: "conv3"
param {
lr_mult: 1
decay_mult: 1
}
param {
lr_mult: 2
decay_mult: 0
}
convolution_param {
num_output: 384
pad: 1
kernel_size: 3
weight_filler {
type: "gaussian"
std: 0.01
}
bias_filler {
type: "constant"
value: 0
}
}
}
layer {
name: "relu3"
type: "ReLU"
bottom: "conv3"
top: "conv3"
}
layer {
name: "conv4"
type: "Convolution"
bottom: "conv3"
top: "conv4"
param {
lr_mult: 1
decay_mult: 1
}
param {
lr_mult: 2
decay_mult: 0
}
convolution_param {
num_output: 384
pad: 1
kernel_size: 3
group: 2
weight_filler {
type: "gaussian"
std: 0.01
}
bias_filler {
type: "constant"
value: 0.1
}
}
}
layer {
name: "relu4"
type: "ReLU"
bottom: "conv4"
top: "conv4"
}
layer {
name: "conv5"
type: "Convolution"
bottom: "conv4"
top: "conv5"
param {
lr_mult: 1
decay_mult: 1
}
param {
lr_mult: 2
decay_mult: 0
}
convolution_param {
num_output: 256
pad: 1
kernel_size: 3
group: 1
weight_filler {
type: "gaussian"
std: 0.01
}
bias_filler {
type: "constant"
value: 0.1
}
}
}
layer {
name: "relu5"
type: "ReLU"
bottom: "conv5"
top: "conv5"
}
layer {
name: "pool5"
type: "Pooling"
bottom: "conv5"
top: "pool5"
pooling_param {
pool: MAX
kernel_size: 3
stride: 2
}
}
layer {
name: "fc6"
type: "InnerProduct"
bottom: "pool5"
top: "fc6"
param {
lr_mult: 1
decay_mult: 1
}
param {
lr_mult: 2
decay_mult: 0
}
inner_product_param {
num_output: 4096
weight_filler {
type: "gaussian"
std: 0.005
}
bias_filler {
type: "constant"
value: 0.1
}
}
}
layer {
name: "relu6"
type: "ReLU"
bottom: "fc6"
top: "fc6"
}
layer {
name: "drop6"
type: "Dropout"
bottom: "fc6"
top: "fc6"
dropout_param {
dropout_ratio: 0.5
}
}
layer {
name: "fc7"
type: "InnerProduct"
bottom: "fc6"
top: "fc7"
param {
lr_mult: 1
decay_mult: 1
}
param {
lr_mult: 2
decay_mult: 0
}
inner_product_param {
num_output: 4096
weight_filler {
type: "gaussian"
std: 0.005
}
bias_filler {
type: "constant"
value: 0.1
}
}
}
layer {
name: "relu7"
type: "ReLU"
bottom: "fc7"
top: "fc7"
}
layer {
name: "drop7"
type: "Dropout"
bottom: "fc7"
top: "fc7"
dropout_param {
dropout_ratio: 0.5
}
}
layer {
name: "fc8_species"
type: "InnerProduct"
bottom: "fc7"
top: "fc8_species"
param {
lr_mult: 1
decay_mult: 1
}
param {
lr_mult: 2
decay_mult: 0
}
inner_product_param {
num_output: 967
weight_filler {
type: "gaussian"
std: 0.005
}
bias_filler {
type: "constant"
value: 0.1
}
}
}
layer {
name: "loss"
type: "SoftmaxWithLoss"
bottom: "fc8_species"
bottom: "label"
top: "loss"
}
layer {
name: "accuracy"
type: "Accuracy"
bottom: "fc8_species"
bottom: "label"
top: "accuracy"
include {
phase: TEST
}
}
I0703 15:05:24.073484 14543 layer_factory.hpp:76] Creating layer data
I0703 15:05:24.073549 14543 net.cpp:109] Creating Layer data
I0703 15:05:24.073554 14543 net.cpp:414] data -> data
I0703 15:05:24.074383 14561 db_lmdb.cpp:36] Opened lmdb /home/ffw/scratch/plantClef/scatnet_output/test/a1_m0_s1_f2/lmdb_data
I0703 15:05:24.074573 14543 data_layer.cpp:45] output data size: 64,3,224,224
I0703 15:05:24.132454 14543 net.cpp:153] Setting up data
I0703 15:05:24.132475 14543 net.cpp:160] Top shape: 64 3 224 224 (9633792)
I0703 15:05:24.132478 14543 net.cpp:168] Memory required for data: 38535168
I0703 15:05:24.132483 14543 layer_factory.hpp:76] Creating layer label
I0703 15:05:24.132545 14543 net.cpp:109] Creating Layer label
I0703 15:05:24.132561 14543 net.cpp:414] label -> label
I0703 15:05:24.134037 14563 db_lmdb.cpp:36] Opened lmdb /home/ffw/scratch/plantClef/scatnet_output/test/a1_m0_s1_f2/lmdb_labels
I0703 15:05:24.137029 14543 data_layer.cpp:45] output data size: 64,1,1,1
I0703 15:05:24.137939 14543 net.cpp:153] Setting up label
I0703 15:05:24.137948 14543 net.cpp:160] Top shape: 64 1 1 1 (64)
I0703 15:05:24.137950 14543 net.cpp:168] Memory required for data: 38535424
I0703 15:05:24.137953 14543 layer_factory.hpp:76] Creating layer label_label_0_split
I0703 15:05:24.137969 14543 net.cpp:109] Creating Layer label_label_0_split
I0703 15:05:24.137970 14543 net.cpp:457] label_label_0_split <- label
I0703 15:05:24.137974 14543 net.cpp:414] label_label_0_split -> label_label_0_split_0
I0703 15:05:24.137979 14543 net.cpp:414] label_label_0_split -> label_label_0_split_1
I0703 15:05:24.138043 14543 net.cpp:153] Setting up label_label_0_split
I0703 15:05:24.138049 14543 net.cpp:160] Top shape: 64 1 1 1 (64)
I0703 15:05:24.138051 14543 net.cpp:160] Top shape: 64 1 1 1 (64)
I0703 15:05:24.138053 14543 net.cpp:168] Memory required for data: 38535936
I0703 15:05:24.138056 14543 layer_factory.hpp:76] Creating layer conv1
I0703 15:05:24.138062 14543 net.cpp:109] Creating Layer conv1
I0703 15:05:24.138063 14543 net.cpp:457] conv1 <- data
I0703 15:05:24.138067 14543 net.cpp:414] conv1 -> conv1
I0703 15:05:24.138926 14543 net.cpp:153] Setting up conv1
I0703 15:05:24.138931 14543 net.cpp:160] Top shape: 64 96 54 54 (17915904)
I0703 15:05:24.138933 14543 net.cpp:168] Memory required for data: 110199552
I0703 15:05:24.138941 14543 layer_factory.hpp:76] Creating layer relu1
I0703 15:05:24.138945 14543 net.cpp:109] Creating Layer relu1
I0703 15:05:24.138948 14543 net.cpp:457] relu1 <- conv1
I0703 15:05:24.138952 14543 net.cpp:400] relu1 -> conv1 (in-place)
I0703 15:05:24.138957 14543 net.cpp:153] Setting up relu1
I0703 15:05:24.138959 14543 net.cpp:160] Top shape: 64 96 54 54 (17915904)
I0703 15:05:24.138962 14543 net.cpp:168] Memory required for data: 181863168
I0703 15:05:24.138963 14543 layer_factory.hpp:76] Creating layer norm1
I0703 15:05:24.138968 14543 net.cpp:109] Creating Layer norm1
I0703 15:05:24.138970 14543 net.cpp:457] norm1 <- conv1
I0703 15:05:24.138972 14543 net.cpp:414] norm1 -> norm1
I0703 15:05:24.138995 14543 net.cpp:153] Setting up norm1
I0703 15:05:24.138998 14543 net.cpp:160] Top shape: 64 96 54 54 (17915904)
I0703 15:05:24.139015 14543 net.cpp:168] Memory required for data: 253526784
I0703 15:05:24.139017 14543 layer_factory.hpp:76] Creating layer pool1
I0703 15:05:24.139022 14543 net.cpp:109] Creating Layer pool1
I0703 15:05:24.139024 14543 net.cpp:457] pool1 <- norm1
I0703 15:05:24.139026 14543 net.cpp:414] pool1 -> pool1
I0703 15:05:24.139048 14543 net.cpp:153] Setting up pool1
I0703 15:05:24.139052 14543 net.cpp:160] Top shape: 64 96 27 27 (4478976)
I0703 15:05:24.139053 14543 net.cpp:168] Memory required for data: 271442688
I0703 15:05:24.139055 14543 layer_factory.hpp:76] Creating layer conv2
I0703 15:05:24.139060 14543 net.cpp:109] Creating Layer conv2
I0703 15:05:24.139062 14543 net.cpp:457] conv2 <- pool1
I0703 15:05:24.139065 14543 net.cpp:414] conv2 -> conv2
I0703 15:05:24.145289 14543 net.cpp:153] Setting up conv2
I0703 15:05:24.145306 14543 net.cpp:160] Top shape: 64 256 27 27 (11943936)
I0703 15:05:24.145310 14543 net.cpp:168] Memory required for data: 319218432
I0703 15:05:24.145318 14543 layer_factory.hpp:76] Creating layer relu2
I0703 15:05:24.145326 14543 net.cpp:109] Creating Layer relu2
I0703 15:05:24.145330 14543 net.cpp:457] relu2 <- conv2
I0703 15:05:24.145334 14543 net.cpp:400] relu2 -> conv2 (in-place)
I0703 15:05:24.145339 14543 net.cpp:153] Setting up relu2
I0703 15:05:24.145344 14543 net.cpp:160] Top shape: 64 256 27 27 (11943936)
I0703 15:05:24.145345 14543 net.cpp:168] Memory required for data: 366994176
I0703 15:05:24.145347 14543 layer_factory.hpp:76] Creating layer norm2
I0703 15:05:24.145352 14543 net.cpp:109] Creating Layer norm2
I0703 15:05:24.145355 14543 net.cpp:457] norm2 <- conv2
I0703 15:05:24.145359 14543 net.cpp:414] norm2 -> norm2
I0703 15:05:24.145386 14543 net.cpp:153] Setting up norm2
I0703 15:05:24.145391 14543 net.cpp:160] Top shape: 64 256 27 27 (11943936)
I0703 15:05:24.145393 14543 net.cpp:168] Memory required for data: 414769920
I0703 15:05:24.145395 14543 layer_factory.hpp:76] Creating layer pool2
I0703 15:05:24.145400 14543 net.cpp:109] Creating Layer pool2
I0703 15:05:24.145402 14543 net.cpp:457] pool2 <- norm2
I0703 15:05:24.145404 14543 net.cpp:414] pool2 -> pool2
I0703 15:05:24.145423 14543 net.cpp:153] Setting up pool2
I0703 15:05:24.145426 14543 net.cpp:160] Top shape: 64 256 13 13 (2768896)
I0703 15:05:24.145428 14543 net.cpp:168] Memory required for data: 425845504
I0703 15:05:24.145429 14543 layer_factory.hpp:76] Creating layer conv3
I0703 15:05:24.145434 14543 net.cpp:109] Creating Layer conv3
I0703 15:05:24.145437 14543 net.cpp:457] conv3 <- pool2
I0703 15:05:24.145440 14543 net.cpp:414] conv3 -> conv3
I0703 15:05:24.162498 14543 net.cpp:153] Setting up conv3
I0703 15:05:24.162515 14543 net.cpp:160] Top shape: 64 384 13 13 (4153344)
I0703 15:05:24.162518 14543 net.cpp:168] Memory required for data: 442458880
I0703 15:05:24.162528 14543 layer_factory.hpp:76] Creating layer relu3
I0703 15:05:24.162536 14543 net.cpp:109] Creating Layer relu3
I0703 15:05:24.162539 14543 net.cpp:457] relu3 <- conv3
I0703 15:05:24.162544 14543 net.cpp:400] relu3 -> conv3 (in-place)
I0703 15:05:24.162550 14543 net.cpp:153] Setting up relu3
I0703 15:05:24.162554 14543 net.cpp:160] Top shape: 64 384 13 13 (4153344)
I0703 15:05:24.162556 14543 net.cpp:168] Memory required for data: 459072256
I0703 15:05:24.162559 14543 layer_factory.hpp:76] Creating layer conv4
I0703 15:05:24.162564 14543 net.cpp:109] Creating Layer conv4
I0703 15:05:24.162566 14543 net.cpp:457] conv4 <- conv3
I0703 15:05:24.162569 14543 net.cpp:414] conv4 -> conv4
I0703 15:05:24.175406 14543 net.cpp:153] Setting up conv4
I0703 15:05:24.175425 14543 net.cpp:160] Top shape: 64 384 13 13 (4153344)
I0703 15:05:24.175427 14543 net.cpp:168] Memory required for data: 475685632
I0703 15:05:24.175432 14543 layer_factory.hpp:76] Creating layer relu4
I0703 15:05:24.175438 14543 net.cpp:109] Creating Layer relu4
I0703 15:05:24.175441 14543 net.cpp:457] relu4 <- conv4
I0703 15:05:24.175444 14543 net.cpp:400] relu4 -> conv4 (in-place)
I0703 15:05:24.175451 14543 net.cpp:153] Setting up relu4
I0703 15:05:24.175453 14543 net.cpp:160] Top shape: 64 384 13 13 (4153344)
I0703 15:05:24.175472 14543 net.cpp:168] Memory required for data: 492299008
I0703 15:05:24.175474 14543 layer_factory.hpp:76] Creating layer conv5
I0703 15:05:24.175480 14543 net.cpp:109] Creating Layer conv5
I0703 15:05:24.175482 14543 net.cpp:457] conv5 <- conv4
I0703 15:05:24.175485 14543 net.cpp:414] conv5 -> conv5
I0703 15:05:24.192776 14543 net.cpp:153] Setting up conv5
I0703 15:05:24.192803 14543 net.cpp:160] Top shape: 64 256 13 13 (2768896)
I0703 15:05:24.192806 14543 net.cpp:168] Memory required for data: 503374592
I0703 15:05:24.192813 14543 layer_factory.hpp:76] Creating layer relu5
I0703 15:05:24.192821 14543 net.cpp:109] Creating Layer relu5
I0703 15:05:24.192824 14543 net.cpp:457] relu5 <- conv5
I0703 15:05:24.192837 14543 net.cpp:400] relu5 -> conv5 (in-place)
I0703 15:05:24.192843 14543 net.cpp:153] Setting up relu5
I0703 15:05:24.192847 14543 net.cpp:160] Top shape: 64 256 13 13 (2768896)
I0703 15:05:24.192847 14543 net.cpp:168] Memory required for data: 514450176
I0703 15:05:24.192849 14543 layer_factory.hpp:76] Creating layer pool5
I0703 15:05:24.192853 14543 net.cpp:109] Creating Layer pool5
I0703 15:05:24.192855 14543 net.cpp:457] pool5 <- conv5
I0703 15:05:24.192858 14543 net.cpp:414] pool5 -> pool5
I0703 15:05:24.192883 14543 net.cpp:153] Setting up pool5
I0703 15:05:24.192885 14543 net.cpp:160] Top shape: 64 256 6 6 (589824)
I0703 15:05:24.192886 14543 net.cpp:168] Memory required for data: 516809472
I0703 15:05:24.192888 14543 layer_factory.hpp:76] Creating layer fc6
I0703 15:05:24.192893 14543 net.cpp:109] Creating Layer fc6
I0703 15:05:24.192894 14543 net.cpp:457] fc6 <- pool5
I0703 15:05:24.192898 14543 net.cpp:414] fc6 -> fc6
I0703 15:05:24.885078 14543 net.cpp:153] Setting up fc6
I0703 15:05:24.885098 14543 net.cpp:160] Top shape: 64 4096 (262144)
I0703 15:05:24.885102 14543 net.cpp:168] Memory required for data: 517858048
I0703 15:05:24.885107 14543 layer_factory.hpp:76] Creating layer relu6
I0703 15:05:24.885113 14543 net.cpp:109] Creating Layer relu6
I0703 15:05:24.885116 14543 net.cpp:457] relu6 <- fc6
I0703 15:05:24.885119 14543 net.cpp:400] relu6 -> fc6 (in-place)
I0703 15:05:24.885126 14543 net.cpp:153] Setting up relu6
I0703 15:05:24.885128 14543 net.cpp:160] Top shape: 64 4096 (262144)
I0703 15:05:24.885129 14543 net.cpp:168] Memory required for data: 518906624
I0703 15:05:24.885131 14543 layer_factory.hpp:76] Creating layer drop6
I0703 15:05:24.885135 14543 net.cpp:109] Creating Layer drop6
I0703 15:05:24.885138 14543 net.cpp:457] drop6 <- fc6
I0703 15:05:24.885140 14543 net.cpp:400] drop6 -> fc6 (in-place)
I0703 15:05:24.885152 14543 net.cpp:153] Setting up drop6
I0703 15:05:24.885155 14543 net.cpp:160] Top shape: 64 4096 (262144)
I0703 15:05:24.885156 14543 net.cpp:168] Memory required for data: 519955200
I0703 15:05:24.885159 14543 layer_factory.hpp:76] Creating layer fc7
I0703 15:05:24.885162 14543 net.cpp:109] Creating Layer fc7
I0703 15:05:24.885164 14543 net.cpp:457] fc7 <- fc6
I0703 15:05:24.885167 14543 net.cpp:414] fc7 -> fc7
I0703 15:05:25.190172 14543 net.cpp:153] Setting up fc7
I0703 15:05:25.190191 14543 net.cpp:160] Top shape: 64 4096 (262144)
I0703 15:05:25.190192 14543 net.cpp:168] Memory required for data: 521003776
I0703 15:05:25.190198 14543 layer_factory.hpp:76] Creating layer relu7
I0703 15:05:25.190204 14543 net.cpp:109] Creating Layer relu7
I0703 15:05:25.190207 14543 net.cpp:457] relu7 <- fc7
I0703 15:05:25.190210 14543 net.cpp:400] relu7 -> fc7 (in-place)
I0703 15:05:25.190217 14543 net.cpp:153] Setting up relu7
I0703 15:05:25.190219 14543 net.cpp:160] Top shape: 64 4096 (262144)
I0703 15:05:25.190222 14543 net.cpp:168] Memory required for data: 522052352
I0703 15:05:25.190222 14543 layer_factory.hpp:76] Creating layer drop7
I0703 15:05:25.190227 14543 net.cpp:109] Creating Layer drop7
I0703 15:05:25.190228 14543 net.cpp:457] drop7 <- fc7
I0703 15:05:25.190232 14543 net.cpp:400] drop7 -> fc7 (in-place)
I0703 15:05:25.190243 14543 net.cpp:153] Setting up drop7
I0703 15:05:25.190246 14543 net.cpp:160] Top shape: 64 4096 (262144)
I0703 15:05:25.190264 14543 net.cpp:168] Memory required for data: 523100928
I0703 15:05:25.190266 14543 layer_factory.hpp:76] Creating layer fc8_species
I0703 15:05:25.190270 14543 net.cpp:109] Creating Layer fc8_species
I0703 15:05:25.190273 14543 net.cpp:457] fc8_species <- fc7
I0703 15:05:25.190274 14543 net.cpp:414] fc8_species -> fc8_species
I0703 15:05:25.285195 14543 net.cpp:153] Setting up fc8_species
I0703 15:05:25.285214 14543 net.cpp:160] Top shape: 64 967 (61888)
I0703 15:05:25.285218 14543 net.cpp:168] Memory required for data: 523348480
I0703 15:05:25.285223 14543 layer_factory.hpp:76] Creating layer fc8_species_fc8_species_0_split
I0703 15:05:25.285229 14543 net.cpp:109] Creating Layer fc8_species_fc8_species_0_split
I0703 15:05:25.285233 14543 net.cpp:457] fc8_species_fc8_species_0_split <- fc8_species
I0703 15:05:25.285238 14543 net.cpp:414] fc8_species_fc8_species_0_split -> fc8_species_fc8_species_0_split_0
I0703 15:05:25.285243 14543 net.cpp:414] fc8_species_fc8_species_0_split -> fc8_species_fc8_species_0_split_1
I0703 15:05:25.285269 14543 net.cpp:153] Setting up fc8_species_fc8_species_0_split
I0703 15:05:25.285271 14543 net.cpp:160] Top shape: 64 967 (61888)
I0703 15:05:25.285274 14543 net.cpp:160] Top shape: 64 967 (61888)
I0703 15:05:25.285275 14543 net.cpp:168] Memory required for data: 523843584
I0703 15:05:25.285277 14543 layer_factory.hpp:76] Creating layer loss
I0703 15:05:25.285280 14543 net.cpp:109] Creating Layer loss
I0703 15:05:25.285282 14543 net.cpp:457] loss <- fc8_species_fc8_species_0_split_0
I0703 15:05:25.285285 14543 net.cpp:457] loss <- label_label_0_split_0
I0703 15:05:25.285287 14543 net.cpp:414] loss -> loss
…
