…
I0708 11:02:14.346336 31135 net.cpp:52] Initializing net from parameters:
state {
phase: TRAIN
}
layer {
name: "data"
type: "Data"
top: "data"
include {
phase: TRAIN
}
transform_param {
mean_file: "/home/ffw/scratch/plantClef/scatnet_output/train/a4_m2_s1s2_f2/lmdb_mean_coeff.binaryproto"
}
data_param {
source: "/home/ffw/scratch/plantClef/scatnet_output/train/a4_m2_s1s2_f2/lmdb_data"
batch_size: 32
backend: LMDB
}
}
layer {
name: "label"
type: "Data"
top: "label"
include {
phase: TRAIN
}
data_param {
source: "/home/ffw/scratch/plantClef/scatnet_output/train/a4_m2_s1s2_f2/lmdb_labels"
batch_size: 32
backend: LMDB
}
}
layer {
name: "pool1"
type: "Pooling"
bottom: "data"
top: "pool1"
pooling_param {
pool: MAX
kernel_size: 6
stride: 5
}
}
layer {
name: "conv3"
type: "Convolution"
bottom: "pool1"
top: "conv3"
param {
lr_mult: 1
decay_mult: 1
}
param {
lr_mult: 2
decay_mult: 0
}
convolution_param {
num_output: 384
pad: 1
kernel_size: 3
weight_filler {
type: "gaussian"
std: 0.01
}
bias_filler {
type: "constant"
value: 0
}
}
}
layer {
name: "relu3"
type: "ReLU"
bottom: "conv3"
top: "conv3"
}
layer {
name: "conv4"
type: "Convolution"
bottom: "conv3"
top: "conv4"
param {
lr_mult: 1
decay_mult: 1
}
param {
lr_mult: 2
decay_mult: 0
}
convolution_param {
num_output: 384
pad: 1
kernel_size: 3
group: 2
weight_filler {
type: "gaussian"
std: 0.01
}
bias_filler {
type: "constant"
value: 0.1
}
}
}
layer {
name: "relu4"
type: "ReLU"
bottom: "conv4"
top: "conv4"
}
layer {
name: "conv5"
type: "Convolution"
bottom: "conv4"
top: "conv5"
param {
lr_mult: 1
decay_mult: 1
}
param {
lr_mult: 2
decay_mult: 0
}
convolution_param {
num_output: 256
pad: 1
kernel_size: 3
group: 1
weight_filler {
type: "gaussian"
std: 0.01
}
bias_filler {
type: "constant"
value: 0.1
}
}
}
layer {
name: "relu5"
type: "ReLU"
bottom: "conv5"
top: "conv5"
}
layer {
name: "pool5"
type: "Pooling"
bottom: "conv5"
top: "pool5"
pooling_param {
pool: MAX
kernel_size: 3
stride: 2
}
}
layer {
name: "fc6"
type: "InnerProduct"
bottom: "pool5"
top: "fc6"
param {
lr_mult: 1
decay_mult: 1
}
param {
lr_mult: 2
decay_mult: 0
}
inner_product_param {
num_output: 4096
weight_filler {
type: "gaussian"
std: 0.005
}
bias_filler {
type: "constant"
value: 0.1
}
}
}
layer {
name: "relu6"
type: "ReLU"
bottom: "fc6"
top: "fc6"
}
layer {
name: "drop6"
type: "Dropout"
bottom: "fc6"
top: "fc6"
dropout_param {
dropout_ratio: 0.5
}
}
layer {
name: "fc7"
type: "InnerProduct"
bottom: "fc6"
top: "fc7"
param {
lr_mult: 1
decay_mult: 1
}
param {
lr_mult: 2
decay_mult: 0
}
inner_product_param {
num_output: 4096
weight_filler {
type: "gaussian"
std: 0.005
}
bias_filler {
type: "constant"
value: 0.1
}
}
}
layer {
name: "relu7"
type: "ReLU"
bottom: "fc7"
top: "fc7"
}
layer {
name: "drop7"
type: "Dropout"
bottom: "fc7"
top: "fc7"
dropout_param {
dropout_ratio: 0.5
}
}
layer {
name: "fc8_species"
type: "InnerProduct"
bottom: "fc7"
top: "fc8_species"
param {
lr_mult: 1
decay_mult: 1
}
param {
lr_mult: 2
decay_mult: 0
}
inner_product_param {
num_output: 967
weight_filler {
type: "gaussian"
std: 0.005
}
bias_filler {
type: "constant"
value: 0.1
}
}
}
layer {
name: "loss"
type: "SoftmaxWithLoss"
bottom: "fc8_species"
bottom: "label"
top: "loss"
}
I0708 11:02:14.346391 31135 layer_factory.hpp:76] Creating layer data
I0708 11:02:14.346451 31135 net.cpp:109] Creating Layer data
I0708 11:02:14.346457 31135 net.cpp:414] data -> data
I0708 11:02:14.346472 31135 data_transformer.cpp:25] Loading mean file from: /home/ffw/scratch/plantClef/scatnet_output/train/a4_m2_s1s2_f2/lmdb_mean_coeff.binaryproto
I0708 11:02:14.350734 31147 db_lmdb.cpp:36] Opened lmdb /home/ffw/scratch/plantClef/scatnet_output/train/a4_m2_s1s2_f2/lmdb_data
I0708 11:02:14.362999 31135 data_layer.cpp:45] output data size: 32,75,105,105
I0708 11:02:14.473084 31135 net.cpp:153] Setting up data
I0708 11:02:14.473130 31135 net.cpp:160] Top shape: 32 75 105 105 (26460000)
I0708 11:02:14.473134 31135 net.cpp:168] Memory required for data: 105840000
I0708 11:02:14.473140 31135 layer_factory.hpp:76] Creating layer label
I0708 11:02:14.473186 31135 net.cpp:109] Creating Layer label
I0708 11:02:14.473189 31135 net.cpp:414] label -> label
I0708 11:02:14.475852 31149 db_lmdb.cpp:36] Opened lmdb /home/ffw/scratch/plantClef/scatnet_output/train/a4_m2_s1s2_f2/lmdb_labels
I0708 11:02:14.483526 31135 data_layer.cpp:45] output data size: 32,1,1,1
I0708 11:02:14.483738 31135 net.cpp:153] Setting up label
I0708 11:02:14.483747 31135 net.cpp:160] Top shape: 32 1 1 1 (32)
I0708 11:02:14.483749 31135 net.cpp:168] Memory required for data: 105840128
I0708 11:02:14.483753 31135 layer_factory.hpp:76] Creating layer pool1
I0708 11:02:14.483762 31135 net.cpp:109] Creating Layer pool1
I0708 11:02:14.483765 31135 net.cpp:457] pool1 <- data
I0708 11:02:14.483773 31135 net.cpp:414] pool1 -> pool1
I0708 11:02:14.483814 31135 net.cpp:153] Setting up pool1
I0708 11:02:14.483819 31135 net.cpp:160] Top shape: 32 75 21 21 (1058400)
I0708 11:02:14.483820 31135 net.cpp:168] Memory required for data: 110073728
I0708 11:02:14.483822 31135 layer_factory.hpp:76] Creating layer conv3
I0708 11:02:14.483830 31135 net.cpp:109] Creating Layer conv3
I0708 11:02:14.483831 31135 net.cpp:457] conv3 <- pool1
I0708 11:02:14.483835 31135 net.cpp:414] conv3 -> conv3
I0708 11:02:14.489436 31135 net.cpp:153] Setting up conv3
I0708 11:02:14.489454 31135 net.cpp:160] Top shape: 32 384 21 21 (5419008)
I0708 11:02:14.489456 31135 net.cpp:168] Memory required for data: 131749760
I0708 11:02:14.489466 31135 layer_factory.hpp:76] Creating layer relu3
I0708 11:02:14.489475 31135 net.cpp:109] Creating Layer relu3
I0708 11:02:14.489477 31135 net.cpp:457] relu3 <- conv3
I0708 11:02:14.489480 31135 net.cpp:400] relu3 -> conv3 (in-place)
I0708 11:02:14.489490 31135 net.cpp:153] Setting up relu3
I0708 11:02:14.489491 31135 net.cpp:160] Top shape: 32 384 21 21 (5419008)
I0708 11:02:14.489493 31135 net.cpp:168] Memory required for data: 153425792
I0708 11:02:14.489495 31135 layer_factory.hpp:76] Creating layer conv4
I0708 11:02:14.489501 31135 net.cpp:109] Creating Layer conv4
I0708 11:02:14.489502 31135 net.cpp:457] conv4 <- conv3
I0708 11:02:14.489506 31135 net.cpp:414] conv4 -> conv4
I0708 11:02:14.502279 31135 net.cpp:153] Setting up conv4
I0708 11:02:14.502295 31135 net.cpp:160] Top shape: 32 384 21 21 (5419008)
I0708 11:02:14.502297 31135 net.cpp:168] Memory required for data: 175101824
I0708 11:02:14.502305 31135 layer_factory.hpp:76] Creating layer relu4
I0708 11:02:14.502311 31135 net.cpp:109] Creating Layer relu4
I0708 11:02:14.502315 31135 net.cpp:457] relu4 <- conv4
I0708 11:02:14.502317 31135 net.cpp:400] relu4 -> conv4 (in-place)
I0708 11:02:14.502341 31135 net.cpp:153] Setting up relu4
I0708 11:02:14.502343 31135 net.cpp:160] Top shape: 32 384 21 21 (5419008)
I0708 11:02:14.502346 31135 net.cpp:168] Memory required for data: 196777856
I0708 11:02:14.502347 31135 layer_factory.hpp:76] Creating layer conv5
I0708 11:02:14.502353 31135 net.cpp:109] Creating Layer conv5
I0708 11:02:14.502356 31135 net.cpp:457] conv5 <- conv4
I0708 11:02:14.502358 31135 net.cpp:414] conv5 -> conv5
I0708 11:02:14.520292 31135 net.cpp:153] Setting up conv5
I0708 11:02:14.520308 31135 net.cpp:160] Top shape: 32 256 21 21 (3612672)
I0708 11:02:14.520310 31135 net.cpp:168] Memory required for data: 211228544
I0708 11:02:14.520318 31135 layer_factory.hpp:76] Creating layer relu5
I0708 11:02:14.520325 31135 net.cpp:109] Creating Layer relu5
I0708 11:02:14.520328 31135 net.cpp:457] relu5 <- conv5
I0708 11:02:14.520333 31135 net.cpp:400] relu5 -> conv5 (in-place)
I0708 11:02:14.520339 31135 net.cpp:153] Setting up relu5
I0708 11:02:14.520341 31135 net.cpp:160] Top shape: 32 256 21 21 (3612672)
I0708 11:02:14.520342 31135 net.cpp:168] Memory required for data: 225679232
I0708 11:02:14.520344 31135 layer_factory.hpp:76] Creating layer pool5
I0708 11:02:14.520349 31135 net.cpp:109] Creating Layer pool5
I0708 11:02:14.520350 31135 net.cpp:457] pool5 <- conv5
I0708 11:02:14.520354 31135 net.cpp:414] pool5 -> pool5
I0708 11:02:14.520372 31135 net.cpp:153] Setting up pool5
I0708 11:02:14.520375 31135 net.cpp:160] Top shape: 32 256 10 10 (819200)
I0708 11:02:14.520376 31135 net.cpp:168] Memory required for data: 228956032
I0708 11:02:14.520378 31135 layer_factory.hpp:76] Creating layer fc6
I0708 11:02:14.520383 31135 net.cpp:109] Creating Layer fc6
I0708 11:02:14.520385 31135 net.cpp:457] fc6 <- pool5
I0708 11:02:14.520387 31135 net.cpp:414] fc6 -> fc6
I0708 11:02:16.478246 31135 net.cpp:153] Setting up fc6
I0708 11:02:16.478267 31135 net.cpp:160] Top shape: 32 4096 (131072)
I0708 11:02:16.478271 31135 net.cpp:168] Memory required for data: 229480320
I0708 11:02:16.478277 31135 layer_factory.hpp:76] Creating layer relu6
I0708 11:02:16.478286 31135 net.cpp:109] Creating Layer relu6
I0708 11:02:16.478288 31135 net.cpp:457] relu6 <- fc6
I0708 11:02:16.478292 31135 net.cpp:400] relu6 -> fc6 (in-place)
I0708 11:02:16.478299 31135 net.cpp:153] Setting up relu6
I0708 11:02:16.478302 31135 net.cpp:160] Top shape: 32 4096 (131072)
I0708 11:02:16.478303 31135 net.cpp:168] Memory required for data: 230004608
I0708 11:02:16.478305 31135 layer_factory.hpp:76] Creating layer drop6
I0708 11:02:16.478314 31135 net.cpp:109] Creating Layer drop6
I0708 11:02:16.478317 31135 net.cpp:457] drop6 <- fc6
I0708 11:02:16.478318 31135 net.cpp:400] drop6 -> fc6 (in-place)
I0708 11:02:16.478333 31135 net.cpp:153] Setting up drop6
I0708 11:02:16.478337 31135 net.cpp:160] Top shape: 32 4096 (131072)
I0708 11:02:16.478338 31135 net.cpp:168] Memory required for data: 230528896
I0708 11:02:16.478339 31135 layer_factory.hpp:76] Creating layer fc7
I0708 11:02:16.478344 31135 net.cpp:109] Creating Layer fc7
I0708 11:02:16.478346 31135 net.cpp:457] fc7 <- fc6
I0708 11:02:16.478349 31135 net.cpp:414] fc7 -> fc7
I0708 11:02:16.781517 31135 net.cpp:153] Setting up fc7
I0708 11:02:16.781538 31135 net.cpp:160] Top shape: 32 4096 (131072)
I0708 11:02:16.781539 31135 net.cpp:168] Memory required for data: 231053184
I0708 11:02:16.781548 31135 layer_factory.hpp:76] Creating layer relu7
I0708 11:02:16.781553 31135 net.cpp:109] Creating Layer relu7
I0708 11:02:16.781556 31135 net.cpp:457] relu7 <- fc7
I0708 11:02:16.781560 31135 net.cpp:400] relu7 -> fc7 (in-place)
I0708 11:02:16.781566 31135 net.cpp:153] Setting up relu7
I0708 11:02:16.781569 31135 net.cpp:160] Top shape: 32 4096 (131072)
I0708 11:02:16.781571 31135 net.cpp:168] Memory required for data: 231577472
I0708 11:02:16.781572 31135 layer_factory.hpp:76] Creating layer drop7
I0708 11:02:16.781576 31135 net.cpp:109] Creating Layer drop7
I0708 11:02:16.781579 31135 net.cpp:457] drop7 <- fc7
I0708 11:02:16.781580 31135 net.cpp:400] drop7 -> fc7 (in-place)
I0708 11:02:16.781615 31135 net.cpp:153] Setting up drop7
I0708 11:02:16.781618 31135 net.cpp:160] Top shape: 32 4096 (131072)
I0708 11:02:16.781620 31135 net.cpp:168] Memory required for data: 232101760
I0708 11:02:16.781622 31135 layer_factory.hpp:76] Creating layer fc8_species
I0708 11:02:16.781628 31135 net.cpp:109] Creating Layer fc8_species
I0708 11:02:16.781630 31135 net.cpp:457] fc8_species <- fc7
I0708 11:02:16.781632 31135 net.cpp:414] fc8_species -> fc8_species
I0708 11:02:16.853512 31135 net.cpp:153] Setting up fc8_species
I0708 11:02:16.853528 31135 net.cpp:160] Top shape: 32 967 (30944)
I0708 11:02:16.853531 31135 net.cpp:168] Memory required for data: 232225536
I0708 11:02:16.853538 31135 layer_factory.hpp:76] Creating layer loss
I0708 11:02:16.853543 31135 net.cpp:109] Creating Layer loss
I0708 11:02:16.853546 31135 net.cpp:457] loss <- fc8_species
I0708 11:02:16.853549 31135 net.cpp:457] loss <- label
I0708 11:02:16.853554 31135 net.cpp:414] loss -> loss
I0708 11:02:16.853567 31135 layer_factory.hpp:76] Creating layer loss
…
I0708 11:02:16.854984 31135 net.cpp:52] Initializing net from parameters:
state {
phase: TEST
}
layer {
name: "data"
type: "Data"
top: "data"
include {
phase: TEST
}
transform_param {
mean_file: "/home/ffw/scratch/plantClef/scatnet_output/train/a4_m2_s1s2_f2/lmdb_mean_coeff.binaryproto"
}
data_param {
source: "/home/ffw/scratch/plantClef/scatnet_output/test/a4_m2_s1s2_f2/lmdb_data"
batch_size: 32
backend: LMDB
}
}
layer {
name: "label"
type: "Data"
top: "label"
include {
phase: TEST
}
data_param {
source: "/home/ffw/scratch/plantClef/scatnet_output/test/a4_m2_s1s2_f2/lmdb_labels"
batch_size: 32
backend: LMDB
}
}
layer {
name: "pool1"
type: "Pooling"
bottom: "data"
top: "pool1"
pooling_param {
pool: MAX
kernel_size: 6
stride: 5
}
}
layer {
name: "conv3"
type: "Convolution"
bottom: "pool1"
top: "conv3"
param {
lr_mult: 1
decay_mult: 1
}
param {
lr_mult: 2
decay_mult: 0
}
convolution_param {
num_output: 384
pad: 1
kernel_size: 3
weight_filler {
type: "gaussian"
std: 0.01
}
bias_filler {
type: "constant"
value: 0
}
}
}
layer {
name: "relu3"
type: "ReLU"
bottom: "conv3"
top: "conv3"
}
layer {
name: "conv4"
type: "Convolution"
bottom: "conv3"
top: "conv4"
param {
lr_mult: 1
decay_mult: 1
}
param {
lr_mult: 2
decay_mult: 0
}
convolution_param {
num_output: 384
pad: 1
kernel_size: 3
group: 2
weight_filler {
type: "gaussian"
std: 0.01
}
bias_filler {
type: "constant"
value: 0.1
}
}
}
layer {
name: "relu4"
type: "ReLU"
bottom: "conv4"
top: "conv4"
}
layer {
name: "conv5"
type: "Convolution"
bottom: "conv4"
top: "conv5"
param {
lr_mult: 1
decay_mult: 1
}
param {
lr_mult: 2
decay_mult: 0
}
convolution_param {
num_output: 256
pad: 1
kernel_size: 3
group: 1
weight_filler {
type: "gaussian"
std: 0.01
}
bias_filler {
type: "constant"
value: 0.1
}
}
}
layer {
name: "relu5"
type: "ReLU"
bottom: "conv5"
top: "conv5"
}
layer {
name: "pool5"
type: "Pooling"
bottom: "conv5"
top: "pool5"
pooling_param {
pool: MAX
kernel_size: 3
stride: 2
}
}
layer {
name: "fc6"
type: "InnerProduct"
bottom: "pool5"
top: "fc6"
param {
lr_mult: 1
decay_mult: 1
}
param {
lr_mult: 2
decay_mult: 0
}
inner_product_param {
num_output: 4096
weight_filler {
type: "gaussian"
std: 0.005
}
bias_filler {
type: "constant"
value: 0.1
}
}
}
layer {
name: "relu6"
type: "ReLU"
bottom: "fc6"
top: "fc6"
}
layer {
name: "drop6"
type: "Dropout"
bottom: "fc6"
top: "fc6"
dropout_param {
dropout_ratio: 0.5
}
}
layer {
name: "fc7"
type: "InnerProduct"
bottom: "fc6"
top: "fc7"
param {
lr_mult: 1
decay_mult: 1
}
param {
lr_mult: 2
decay_mult: 0
}
inner_product_param {
num_output: 4096
weight_filler {
type: "gaussian"
std: 0.005
}
bias_filler {
type: "constant"
value: 0.1
}
}
}
layer {
name: "relu7"
type: "ReLU"
bottom: "fc7"
top: "fc7"
}
layer {
name: "drop7"
type: "Dropout"
bottom: "fc7"
top: "fc7"
dropout_param {
dropout_ratio: 0.5
}
}
layer {
name: "fc8_species"
type: "InnerProduct"
bottom: "fc7"
top: "fc8_species"
param {
lr_mult: 1
decay_mult: 1
}
param {
lr_mult: 2
decay_mult: 0
}
inner_product_param {
num_output: 967
weight_filler {
type: "gaussian"
std: 0.005
}
bias_filler {
type: "constant"
value: 0.1
}
}
}
layer {
name: "loss"
type: "SoftmaxWithLoss"
bottom: "fc8_species"
bottom: "label"
top: "loss"
}
layer {
name: "accuracy"
type: "Accuracy"
bottom: "fc8_species"
bottom: "label"
top: "accuracy"
include {
phase: TEST
}
}
I0708 11:02:16.855046 31135 layer_factory.hpp:76] Creating layer data
I0708 11:02:16.855098 31135 net.cpp:109] Creating Layer data
I0708 11:02:16.855111 31135 net.cpp:414] data -> data
I0708 11:02:16.855116 31135 data_transformer.cpp:25] Loading mean file from: /home/ffw/scratch/plantClef/scatnet_output/train/a4_m2_s1s2_f2/lmdb_mean_coeff.binaryproto
I0708 11:02:16.856495 31151 db_lmdb.cpp:36] Opened lmdb /home/ffw/scratch/plantClef/scatnet_output/test/a4_m2_s1s2_f2/lmdb_data
I0708 11:02:16.864384 31135 data_layer.cpp:45] output data size: 32,75,105,105
I0708 11:02:16.975829 31135 net.cpp:153] Setting up data
I0708 11:02:16.975849 31135 net.cpp:160] Top shape: 32 75 105 105 (26460000)
I0708 11:02:16.975852 31135 net.cpp:168] Memory required for data: 105840000
I0708 11:02:16.975857 31135 layer_factory.hpp:76] Creating layer label
I0708 11:02:16.975900 31135 net.cpp:109] Creating Layer label
I0708 11:02:16.975915 31135 net.cpp:414] label -> label
I0708 11:02:16.979583 31153 db_lmdb.cpp:36] Opened lmdb /home/ffw/scratch/plantClef/scatnet_output/test/a4_m2_s1s2_f2/lmdb_labels
I0708 11:02:16.986261 31135 data_layer.cpp:45] output data size: 32,1,1,1
I0708 11:02:16.986433 31135 net.cpp:153] Setting up label
I0708 11:02:16.986443 31135 net.cpp:160] Top shape: 32 1 1 1 (32)
I0708 11:02:16.986445 31135 net.cpp:168] Memory required for data: 105840128
I0708 11:02:16.986449 31135 layer_factory.hpp:76] Creating layer label_label_0_split
I0708 11:02:16.986460 31135 net.cpp:109] Creating Layer label_label_0_split
I0708 11:02:16.986464 31135 net.cpp:457] label_label_0_split <- label
I0708 11:02:16.986467 31135 net.cpp:414] label_label_0_split -> label_label_0_split_0
I0708 11:02:16.986474 31135 net.cpp:414] label_label_0_split -> label_label_0_split_1
I0708 11:02:16.986570 31135 net.cpp:153] Setting up label_label_0_split
I0708 11:02:16.986579 31135 net.cpp:160] Top shape: 32 1 1 1 (32)
I0708 11:02:16.986582 31135 net.cpp:160] Top shape: 32 1 1 1 (32)
I0708 11:02:16.986584 31135 net.cpp:168] Memory required for data: 105840384
I0708 11:02:16.986587 31135 layer_factory.hpp:76] Creating layer pool1
I0708 11:02:16.986593 31135 net.cpp:109] Creating Layer pool1
I0708 11:02:16.986595 31135 net.cpp:457] pool1 <- data
I0708 11:02:16.986598 31135 net.cpp:414] pool1 -> pool1
I0708 11:02:16.986624 31135 net.cpp:153] Setting up pool1
I0708 11:02:16.986627 31135 net.cpp:160] Top shape: 32 75 21 21 (1058400)
I0708 11:02:16.986629 31135 net.cpp:168] Memory required for data: 110073984
I0708 11:02:16.986631 31135 layer_factory.hpp:76] Creating layer conv3
I0708 11:02:16.986637 31135 net.cpp:109] Creating Layer conv3
I0708 11:02:16.986640 31135 net.cpp:457] conv3 <- pool1
I0708 11:02:16.986644 31135 net.cpp:414] conv3 -> conv3
I0708 11:02:16.992331 31135 net.cpp:153] Setting up conv3
I0708 11:02:16.992349 31135 net.cpp:160] Top shape: 32 384 21 21 (5419008)
I0708 11:02:16.992352 31135 net.cpp:168] Memory required for data: 131750016
I0708 11:02:16.992359 31135 layer_factory.hpp:76] Creating layer relu3
I0708 11:02:16.992367 31135 net.cpp:109] Creating Layer relu3
I0708 11:02:16.992368 31135 net.cpp:457] relu3 <- conv3
I0708 11:02:16.992372 31135 net.cpp:400] relu3 -> conv3 (in-place)
I0708 11:02:16.992378 31135 net.cpp:153] Setting up relu3
I0708 11:02:16.992380 31135 net.cpp:160] Top shape: 32 384 21 21 (5419008)
I0708 11:02:16.992383 31135 net.cpp:168] Memory required for data: 153426048
I0708 11:02:16.992384 31135 layer_factory.hpp:76] Creating layer conv4
I0708 11:02:16.992389 31135 net.cpp:109] Creating Layer conv4
I0708 11:02:16.992391 31135 net.cpp:457] conv4 <- conv3
I0708 11:02:16.992393 31135 net.cpp:414] conv4 -> conv4
I0708 11:02:17.006024 31135 net.cpp:153] Setting up conv4
I0708 11:02:17.006042 31135 net.cpp:160] Top shape: 32 384 21 21 (5419008)
I0708 11:02:17.006044 31135 net.cpp:168] Memory required for data: 175102080
I0708 11:02:17.006052 31135 layer_factory.hpp:76] Creating layer relu4
I0708 11:02:17.006058 31135 net.cpp:109] Creating Layer relu4
I0708 11:02:17.006062 31135 net.cpp:457] relu4 <- conv4
I0708 11:02:17.006065 31135 net.cpp:400] relu4 -> conv4 (in-place)
I0708 11:02:17.006070 31135 net.cpp:153] Setting up relu4
I0708 11:02:17.006073 31135 net.cpp:160] Top shape: 32 384 21 21 (5419008)
I0708 11:02:17.006074 31135 net.cpp:168] Memory required for data: 196778112
I0708 11:02:17.006077 31135 layer_factory.hpp:76] Creating layer conv5
I0708 11:02:17.006083 31135 net.cpp:109] Creating Layer conv5
I0708 11:02:17.006084 31135 net.cpp:457] conv5 <- conv4
I0708 11:02:17.006088 31135 net.cpp:414] conv5 -> conv5
I0708 11:02:17.024103 31135 net.cpp:153] Setting up conv5
I0708 11:02:17.024119 31135 net.cpp:160] Top shape: 32 256 21 21 (3612672)
I0708 11:02:17.024121 31135 net.cpp:168] Memory required for data: 211228800
I0708 11:02:17.024128 31135 layer_factory.hpp:76] Creating layer relu5
I0708 11:02:17.024134 31135 net.cpp:109] Creating Layer relu5
I0708 11:02:17.024137 31135 net.cpp:457] relu5 <- conv5
I0708 11:02:17.024142 31135 net.cpp:400] relu5 -> conv5 (in-place)
I0708 11:02:17.024163 31135 net.cpp:153] Setting up relu5
I0708 11:02:17.024165 31135 net.cpp:160] Top shape: 32 256 21 21 (3612672)
I0708 11:02:17.024166 31135 net.cpp:168] Memory required for data: 225679488
I0708 11:02:17.024168 31135 layer_factory.hpp:76] Creating layer pool5
I0708 11:02:17.024173 31135 net.cpp:109] Creating Layer pool5
I0708 11:02:17.024174 31135 net.cpp:457] pool5 <- conv5
I0708 11:02:17.024176 31135 net.cpp:414] pool5 -> pool5
I0708 11:02:17.024199 31135 net.cpp:153] Setting up pool5
I0708 11:02:17.024202 31135 net.cpp:160] Top shape: 32 256 10 10 (819200)
I0708 11:02:17.024204 31135 net.cpp:168] Memory required for data: 228956288
I0708 11:02:17.024205 31135 layer_factory.hpp:76] Creating layer fc6
I0708 11:02:17.024209 31135 net.cpp:109] Creating Layer fc6
I0708 11:02:17.024211 31135 net.cpp:457] fc6 <- pool5
I0708 11:02:17.024214 31135 net.cpp:414] fc6 -> fc6
I0708 11:02:17.173118 31152 blocking_queue.cpp:50] Waiting for data
I0708 11:02:18.991767 31135 net.cpp:153] Setting up fc6
I0708 11:02:18.991786 31135 net.cpp:160] Top shape: 32 4096 (131072)
I0708 11:02:18.991789 31135 net.cpp:168] Memory required for data: 229480576
I0708 11:02:18.991796 31135 layer_factory.hpp:76] Creating layer relu6
I0708 11:02:18.991803 31135 net.cpp:109] Creating Layer relu6
I0708 11:02:18.991806 31135 net.cpp:457] relu6 <- fc6
I0708 11:02:18.991809 31135 net.cpp:400] relu6 -> fc6 (in-place)
I0708 11:02:18.991816 31135 net.cpp:153] Setting up relu6
I0708 11:02:18.991818 31135 net.cpp:160] Top shape: 32 4096 (131072)
I0708 11:02:18.991821 31135 net.cpp:168] Memory required for data: 230004864
I0708 11:02:18.991822 31135 layer_factory.hpp:76] Creating layer drop6
I0708 11:02:18.991827 31135 net.cpp:109] Creating Layer drop6
I0708 11:02:18.991828 31135 net.cpp:457] drop6 <- fc6
I0708 11:02:18.991830 31135 net.cpp:400] drop6 -> fc6 (in-place)
I0708 11:02:18.991849 31135 net.cpp:153] Setting up drop6
I0708 11:02:18.991852 31135 net.cpp:160] Top shape: 32 4096 (131072)
I0708 11:02:18.991854 31135 net.cpp:168] Memory required for data: 230529152
I0708 11:02:18.991857 31135 layer_factory.hpp:76] Creating layer fc7
I0708 11:02:18.991860 31135 net.cpp:109] Creating Layer fc7
I0708 11:02:18.991863 31135 net.cpp:457] fc7 <- fc6
I0708 11:02:18.991865 31135 net.cpp:414] fc7 -> fc7
I0708 11:02:19.300149 31135 net.cpp:153] Setting up fc7
I0708 11:02:19.300168 31135 net.cpp:160] Top shape: 32 4096 (131072)
I0708 11:02:19.300171 31135 net.cpp:168] Memory required for data: 231053440
I0708 11:02:19.300180 31135 layer_factory.hpp:76] Creating layer relu7
I0708 11:02:19.300187 31135 net.cpp:109] Creating Layer relu7
I0708 11:02:19.300190 31135 net.cpp:457] relu7 <- fc7
I0708 11:02:19.300194 31135 net.cpp:400] relu7 -> fc7 (in-place)
I0708 11:02:19.300200 31135 net.cpp:153] Setting up relu7
I0708 11:02:19.300204 31135 net.cpp:160] Top shape: 32 4096 (131072)
I0708 11:02:19.300205 31135 net.cpp:168] Memory required for data: 231577728
I0708 11:02:19.300206 31135 layer_factory.hpp:76] Creating layer drop7
I0708 11:02:19.300212 31135 net.cpp:109] Creating Layer drop7
I0708 11:02:19.300215 31135 net.cpp:457] drop7 <- fc7
I0708 11:02:19.300217 31135 net.cpp:400] drop7 -> fc7 (in-place)
I0708 11:02:19.300236 31135 net.cpp:153] Setting up drop7
I0708 11:02:19.300240 31135 net.cpp:160] Top shape: 32 4096 (131072)
I0708 11:02:19.300241 31135 net.cpp:168] Memory required for data: 232102016
I0708 11:02:19.300242 31135 layer_factory.hpp:76] Creating layer fc8_species
I0708 11:02:19.300247 31135 net.cpp:109] Creating Layer fc8_species
I0708 11:02:19.300249 31135 net.cpp:457] fc8_species <- fc7
I0708 11:02:19.300252 31135 net.cpp:414] fc8_species -> fc8_species
I0708 11:02:19.373409 31135 net.cpp:153] Setting up fc8_species
I0708 11:02:19.373427 31135 net.cpp:160] Top shape: 32 967 (30944)
I0708 11:02:19.373430 31135 net.cpp:168] Memory required for data: 232225792
I0708 11:02:19.373435 31135 layer_factory.hpp:76] Creating layer fc8_species_fc8_species_0_split
I0708 11:02:19.373441 31135 net.cpp:109] Creating Layer fc8_species_fc8_species_0_split
I0708 11:02:19.373461 31135 net.cpp:457] fc8_species_fc8_species_0_split <- fc8_species
I0708 11:02:19.373466 31135 net.cpp:414] fc8_species_fc8_species_0_split -> fc8_species_fc8_species_0_split_0
I0708 11:02:19.373471 31135 net.cpp:414] fc8_species_fc8_species_0_split -> fc8_species_fc8_species_0_split_1
I0708 11:02:19.373500 31135 net.cpp:153] Setting up fc8_species_fc8_species_0_split
I0708 11:02:19.373503 31135 net.cpp:160] Top shape: 32 967 (30944)
I0708 11:02:19.373505 31135 net.cpp:160] Top shape: 32 967 (30944)
I0708 11:02:19.373507 31135 net.cpp:168] Memory required for data: 232473344
I0708 11:02:19.373509 31135 layer_factory.hpp:76] Creating layer loss
I0708 11:02:19.373512 31135 net.cpp:109] Creating Layer loss
I0708 11:02:19.373514 31135 net.cpp:457] loss <- fc8_species_fc8_species_0_split_0
I0708 11:02:19.373517 31135 net.cpp:457] loss <- label_label_0_split_0
I0708 11:02:19.373519 31135 net.cpp:414] loss -> loss
…
