…
state {
phase: TRAIN
}
layer {
name: "data"
type: "Data"
top: "data"
include {
phase: TRAIN
}
transform_param {
mean_file: "/home/ffw/scratch/plantClef/scatnet_output/train/a4_m2_s1s2s4s8_f2/lmdb_mean_coeff.binaryproto"
}
data_param {
source: "/home/ffw/scratch/plantClef/scatnet_output/train/a4_m2_s1s2s4s8_f2/lmdb_data"
batch_size: 200
backend: LMDB
}
}
layer {
name: "label"
type: "Data"
top: "label"
include {
phase: TRAIN
}
data_param {
source: "/home/ffw/scratch/plantClef/scatnet_output/train/a4_m2_s1s2s4s8_f2/lmdb_labels"
batch_size: 200
backend: LMDB
}
}
layer {
name: "pool1"
type: "Pooling"
bottom: "data"
top: "pool1"
pooling_param {
pool: MAX
kernel_size: 3
stride: 2
}
}
layer {
name: "conv5"
type: "Convolution"
bottom: "pool1"
top: "conv5"
param {
lr_mult: 1
decay_mult: 1
}
param {
lr_mult: 2
decay_mult: 0
}
convolution_param {
num_output: 256
pad: 1
kernel_size: 3
group: 1
weight_filler {
type: "gaussian"
std: 0.01
}
bias_filler {
type: "constant"
value: 0.1
}
}
}
layer {
name: "relu5"
type: "ReLU"
bottom: "conv5"
top: "conv5"
}
layer {
name: "pool5"
type: "Pooling"
bottom: "conv5"
top: "pool5"
pooling_param {
pool: MAX
kernel_size: 3
stride: 2
}
}
layer {
name: "fc6"
type: "InnerProduct"
bottom: "pool5"
top: "fc6"
param {
lr_mult: 1
decay_mult: 1
}
param {
lr_mult: 2
decay_mult: 0
}
inner_product_param {
num_output: 4096
weight_filler {
type: "gaussian"
std: 0.005
}
bias_filler {
type: "constant"
value: 0.1
}
}
}
layer {
name: "relu6"
type: "ReLU"
bottom: "fc6"
top: "fc6"
}
layer {
name: "drop6"
type: "Dropout"
bottom: "fc6"
top: "fc6"
dropout_param {
dropout_ratio: 0.5
}
}
layer {
name: "fc7"
type: "InnerProduct"
bottom: "fc6"
top: "fc7"
param {
lr_mult: 1
decay_mult: 1
}
param {
lr_mult: 2
decay_mult: 0
}
inner_product_param {
num_output: 4096
weight_filler {
type: "gaussian"
std: 0.005
}
bias_filler {
type: "constant"
value: 0.1
}
}
}
layer {
name: "relu7"
type: "ReLU"
bottom: "fc7"
top: "fc7"
}
layer {
name: "drop7"
type: "Dropout"
bottom: "fc7"
top: "fc7"
dropout_param {
dropout_ratio: 0.5
}
}
layer {
name: "fc8_species"
type: "InnerProduct"
bottom: "fc7"
top: "fc8_species"
param {
lr_mult: 1
decay_mult: 1
}
param {
lr_mult: 2
decay_mult: 0
}
inner_product_param {
num_output: 967
weight_filler {
type: "gaussian"
std: 0.005
}
bias_filler {
type: "constant"
value: 0.1
}
}
}
layer {
name: "loss"
type: "SoftmaxWithLoss"
bottom: "fc8_species"
bottom: "label"
top: "loss"
}
I0704 21:08:48.666810 30069 layer_factory.hpp:76] Creating layer data
I0704 21:08:48.666911 30069 net.cpp:109] Creating Layer data
I0704 21:08:48.666916 30069 net.cpp:414] data -> data
I0704 21:08:48.666934 30069 data_transformer.cpp:25] Loading mean file from: /home/ffw/scratch/plantClef/scatnet_output/train/a4_m2_s1s2s4s8_f2/lmdb_mean_coeff.binaryproto
I0704 21:08:48.668263 30081 db_lmdb.cpp:36] Opened lmdb /home/ffw/scratch/plantClef/scatnet_output/train/a4_m2_s1s2s4s8_f2/lmdb_data
I0704 21:08:48.668402 30069 data_layer.cpp:45] output data size: 200,339,19,19
I0704 21:08:48.773313 30069 net.cpp:153] Setting up data
I0704 21:08:48.773339 30069 net.cpp:160] Top shape: 200 339 19 19 (24475800)
I0704 21:08:48.773342 30069 net.cpp:168] Memory required for data: 97903200
I0704 21:08:48.773349 30069 layer_factory.hpp:76] Creating layer label
I0704 21:08:48.773442 30069 net.cpp:109] Creating Layer label
I0704 21:08:48.773458 30069 net.cpp:414] label -> label
I0704 21:08:48.774724 30083 db_lmdb.cpp:36] Opened lmdb /home/ffw/scratch/plantClef/scatnet_output/train/a4_m2_s1s2s4s8_f2/lmdb_labels
I0704 21:08:48.782335 30069 data_layer.cpp:45] output data size: 200,1,1,1
I0704 21:08:48.782414 30069 net.cpp:153] Setting up label
I0704 21:08:48.782420 30069 net.cpp:160] Top shape: 200 1 1 1 (200)
I0704 21:08:48.782421 30069 net.cpp:168] Memory required for data: 97904000
I0704 21:08:48.782424 30069 layer_factory.hpp:76] Creating layer pool1
I0704 21:08:48.782434 30069 net.cpp:109] Creating Layer pool1
I0704 21:08:48.782436 30069 net.cpp:457] pool1 <- data
I0704 21:08:48.782444 30069 net.cpp:414] pool1 -> pool1
I0704 21:08:48.782485 30069 net.cpp:153] Setting up pool1
I0704 21:08:48.782488 30069 net.cpp:160] Top shape: 200 339 9 9 (5491800)
I0704 21:08:48.782490 30069 net.cpp:168] Memory required for data: 119871200
I0704 21:08:48.782492 30069 layer_factory.hpp:76] Creating layer conv5
I0704 21:08:48.782497 30069 net.cpp:109] Creating Layer conv5
I0704 21:08:48.782500 30069 net.cpp:457] conv5 <- pool1
I0704 21:08:48.782502 30069 net.cpp:414] conv5 -> conv5
I0704 21:08:48.797442 30069 net.cpp:153] Setting up conv5
I0704 21:08:48.797458 30069 net.cpp:160] Top shape: 200 256 9 9 (4147200)
I0704 21:08:48.797461 30069 net.cpp:168] Memory required for data: 136460000
I0704 21:08:48.797480 30069 layer_factory.hpp:76] Creating layer relu5
I0704 21:08:48.797488 30069 net.cpp:109] Creating Layer relu5
I0704 21:08:48.797490 30069 net.cpp:457] relu5 <- conv5
I0704 21:08:48.797494 30069 net.cpp:400] relu5 -> conv5 (in-place)
I0704 21:08:48.797502 30069 net.cpp:153] Setting up relu5
I0704 21:08:48.797504 30069 net.cpp:160] Top shape: 200 256 9 9 (4147200)
I0704 21:08:48.797505 30069 net.cpp:168] Memory required for data: 153048800
I0704 21:08:48.797508 30069 layer_factory.hpp:76] Creating layer pool5
I0704 21:08:48.797511 30069 net.cpp:109] Creating Layer pool5
I0704 21:08:48.797513 30069 net.cpp:457] pool5 <- conv5
I0704 21:08:48.797516 30069 net.cpp:414] pool5 -> pool5
I0704 21:08:48.797549 30069 net.cpp:153] Setting up pool5
I0704 21:08:48.797552 30069 net.cpp:160] Top shape: 200 256 4 4 (819200)
I0704 21:08:48.797554 30069 net.cpp:168] Memory required for data: 156325600
I0704 21:08:48.797566 30069 layer_factory.hpp:76] Creating layer fc6
I0704 21:08:48.797570 30069 net.cpp:109] Creating Layer fc6
I0704 21:08:48.797572 30069 net.cpp:457] fc6 <- pool5
I0704 21:08:48.797575 30069 net.cpp:414] fc6 -> fc6
I0704 21:08:49.105968 30069 net.cpp:153] Setting up fc6
I0704 21:08:49.105988 30069 net.cpp:160] Top shape: 200 4096 (819200)
I0704 21:08:49.105990 30069 net.cpp:168] Memory required for data: 159602400
I0704 21:08:49.105998 30069 layer_factory.hpp:76] Creating layer relu6
I0704 21:08:49.106005 30069 net.cpp:109] Creating Layer relu6
I0704 21:08:49.106009 30069 net.cpp:457] relu6 <- fc6
I0704 21:08:49.106012 30069 net.cpp:400] relu6 -> fc6 (in-place)
I0704 21:08:49.106019 30069 net.cpp:153] Setting up relu6
I0704 21:08:49.106022 30069 net.cpp:160] Top shape: 200 4096 (819200)
I0704 21:08:49.106024 30069 net.cpp:168] Memory required for data: 162879200
I0704 21:08:49.106026 30069 layer_factory.hpp:76] Creating layer drop6
I0704 21:08:49.106037 30069 net.cpp:109] Creating Layer drop6
I0704 21:08:49.106040 30069 net.cpp:457] drop6 <- fc6
I0704 21:08:49.106042 30069 net.cpp:400] drop6 -> fc6 (in-place)
I0704 21:08:49.106076 30069 net.cpp:153] Setting up drop6
I0704 21:08:49.106081 30069 net.cpp:160] Top shape: 200 4096 (819200)
I0704 21:08:49.106081 30069 net.cpp:168] Memory required for data: 166156000
I0704 21:08:49.106083 30069 layer_factory.hpp:76] Creating layer fc7
I0704 21:08:49.106088 30069 net.cpp:109] Creating Layer fc7
I0704 21:08:49.106091 30069 net.cpp:457] fc7 <- fc6
I0704 21:08:49.106093 30069 net.cpp:414] fc7 -> fc7
I0704 21:08:49.409703 30069 net.cpp:153] Setting up fc7
I0704 21:08:49.409720 30069 net.cpp:160] Top shape: 200 4096 (819200)
I0704 21:08:49.409723 30069 net.cpp:168] Memory required for data: 169432800
I0704 21:08:49.409731 30069 layer_factory.hpp:76] Creating layer relu7
I0704 21:08:49.409737 30069 net.cpp:109] Creating Layer relu7
I0704 21:08:49.409740 30069 net.cpp:457] relu7 <- fc7
I0704 21:08:49.409744 30069 net.cpp:400] relu7 -> fc7 (in-place)
I0704 21:08:49.409751 30069 net.cpp:153] Setting up relu7
I0704 21:08:49.409754 30069 net.cpp:160] Top shape: 200 4096 (819200)
I0704 21:08:49.409755 30069 net.cpp:168] Memory required for data: 172709600
I0704 21:08:49.409757 30069 layer_factory.hpp:76] Creating layer drop7
I0704 21:08:49.409761 30069 net.cpp:109] Creating Layer drop7
I0704 21:08:49.409762 30069 net.cpp:457] drop7 <- fc7
I0704 21:08:49.409765 30069 net.cpp:400] drop7 -> fc7 (in-place)
I0704 21:08:49.409782 30069 net.cpp:153] Setting up drop7
I0704 21:08:49.409785 30069 net.cpp:160] Top shape: 200 4096 (819200)
I0704 21:08:49.409787 30069 net.cpp:168] Memory required for data: 175986400
I0704 21:08:49.409790 30069 layer_factory.hpp:76] Creating layer fc8_species
I0704 21:08:49.409793 30069 net.cpp:109] Creating Layer fc8_species
I0704 21:08:49.409795 30069 net.cpp:457] fc8_species <- fc7
I0704 21:08:49.409798 30069 net.cpp:414] fc8_species -> fc8_species
I0704 21:08:49.483430 30069 net.cpp:153] Setting up fc8_species
I0704 21:08:49.483448 30069 net.cpp:160] Top shape: 200 967 (193400)
I0704 21:08:49.483450 30069 net.cpp:168] Memory required for data: 176760000
I0704 21:08:49.483455 30069 layer_factory.hpp:76] Creating layer loss
I0704 21:08:49.483466 30069 net.cpp:109] Creating Layer loss
I0704 21:08:49.483469 30069 net.cpp:457] loss <- fc8_species
I0704 21:08:49.483474 30069 net.cpp:457] loss <- label
I0704 21:08:49.483476 30069 net.cpp:414] loss -> loss
I0704 21:08:49.483484 30069 layer_factory.hpp:76] Creating layer loss
…
I0704 21:08:49.484516 30069 net.cpp:52] Initializing net from parameters:
state {
phase: TEST
}
layer {
name: "data"
type: "Data"
top: "data"
include {
phase: TEST
}
transform_param {
mean_file: "/home/ffw/scratch/plantClef/scatnet_output/train/a4_m2_s1s2s4s8_f2/lmdb_mean_coeff.binaryproto"
}
data_param {
source: "/home/ffw/scratch/plantClef/scatnet_output/test/a4_m2_s1s2s4s8_f2/lmdb_data"
batch_size: 200
backend: LMDB
}
}
layer {
name: "label"
type: "Data"
top: "label"
include {
phase: TEST
}
data_param {
source: "/home/ffw/scratch/plantClef/scatnet_output/test/a4_m2_s1s2s4s8_f2/lmdb_labels"
batch_size: 200
backend: LMDB
}
}
layer {
name: "pool1"
type: "Pooling"
bottom: "data"
top: "pool1"
pooling_param {
pool: MAX
kernel_size: 3
stride: 2
}
}
layer {
name: "conv5"
type: "Convolution"
bottom: "pool1"
top: "conv5"
param {
lr_mult: 1
decay_mult: 1
}
param {
lr_mult: 2
decay_mult: 0
}
convolution_param {
num_output: 256
pad: 1
kernel_size: 3
group: 1
weight_filler {
type: "gaussian"
std: 0.01
}
bias_filler {
type: "constant"
value: 0.1
}
}
}
layer {
name: "relu5"
type: "ReLU"
bottom: "conv5"
top: "conv5"
}
layer {
name: "pool5"
type: "Pooling"
bottom: "conv5"
top: "pool5"
pooling_param {
pool: MAX
kernel_size: 3
stride: 2
}
}
layer {
name: "fc6"
type: "InnerProduct"
bottom: "pool5"
top: "fc6"
param {
lr_mult: 1
decay_mult: 1
}
param {
lr_mult: 2
decay_mult: 0
}
inner_product_param {
num_output: 4096
weight_filler {
type: "gaussian"
std: 0.005
}
bias_filler {
type: "constant"
value: 0.1
}
}
}
layer {
name: "relu6"
type: "ReLU"
bottom: "fc6"
top: "fc6"
}
layer {
name: "drop6"
type: "Dropout"
bottom: "fc6"
top: "fc6"
dropout_param {
dropout_ratio: 0.5
}
}
layer {
name: "fc7"
type: "InnerProduct"
bottom: "fc6"
top: "fc7"
param {
lr_mult: 1
decay_mult: 1
}
param {
lr_mult: 2
decay_mult: 0
}
inner_product_param {
num_output: 4096
weight_filler {
type: "gaussian"
std: 0.005
}
bias_filler {
type: "constant"
value: 0.1
}
}
}
layer {
name: "relu7"
type: "ReLU"
bottom: "fc7"
top: "fc7"
}
layer {
name: "drop7"
type: "Dropout"
bottom: "fc7"
top: "fc7"
dropout_param {
dropout_ratio: 0.5
}
}
layer {
name: "fc8_species"
type: "InnerProduct"
bottom: "fc7"
top: "fc8_species"
param {
lr_mult: 1
decay_mult: 1
}
param {
lr_mult: 2
decay_mult: 0
}
inner_product_param {
num_output: 967
weight_filler {
type: "gaussian"
std: 0.005
}
bias_filler {
type: "constant"
value: 0.1
}
}
}
layer {
name: "loss"
type: "SoftmaxWithLoss"
bottom: "fc8_species"
bottom: "label"
top: "loss"
}
layer {
name: "accuracy"
type: "Accuracy"
bottom: "fc8_species"
bottom: "label"
top: "accuracy"
include {
phase: TEST
}
}
I0704 21:08:49.484558 30069 layer_factory.hpp:76] Creating layer data
I0704 21:08:49.484750 30069 net.cpp:109] Creating Layer data
I0704 21:08:49.484753 30069 net.cpp:414] data -> data
I0704 21:08:49.484758 30069 data_transformer.cpp:25] Loading mean file from: /home/ffw/scratch/plantClef/scatnet_output/train/a4_m2_s1s2s4s8_f2/lmdb_mean_coeff.binaryproto
I0704 21:08:49.485880 30085 db_lmdb.cpp:36] Opened lmdb /home/ffw/scratch/plantClef/scatnet_output/test/a4_m2_s1s2s4s8_f2/lmdb_data
I0704 21:08:49.486012 30069 data_layer.cpp:45] output data size: 200,339,19,19
I0704 21:08:49.589593 30069 net.cpp:153] Setting up data
I0704 21:08:49.589612 30069 net.cpp:160] Top shape: 200 339 19 19 (24475800)
I0704 21:08:49.589615 30069 net.cpp:168] Memory required for data: 97903200
I0704 21:08:49.589634 30069 layer_factory.hpp:76] Creating layer label
I0704 21:08:49.589725 30069 net.cpp:109] Creating Layer label
I0704 21:08:49.589740 30069 net.cpp:414] label -> label
I0704 21:08:49.590945 30087 db_lmdb.cpp:36] Opened lmdb /home/ffw/scratch/plantClef/scatnet_output/test/a4_m2_s1s2s4s8_f2/lmdb_labels
I0704 21:08:49.598572 30069 data_layer.cpp:45] output data size: 200,1,1,1
I0704 21:08:49.598664 30069 net.cpp:153] Setting up label
I0704 21:08:49.598670 30069 net.cpp:160] Top shape: 200 1 1 1 (200)
I0704 21:08:49.598671 30069 net.cpp:168] Memory required for data: 97904000
I0704 21:08:49.598675 30069 layer_factory.hpp:76] Creating layer label_label_0_split
I0704 21:08:49.598680 30069 net.cpp:109] Creating Layer label_label_0_split
I0704 21:08:49.598682 30069 net.cpp:457] label_label_0_split <- label
I0704 21:08:49.598685 30069 net.cpp:414] label_label_0_split -> label_label_0_split_0
I0704 21:08:49.598690 30069 net.cpp:414] label_label_0_split -> label_label_0_split_1
I0704 21:08:49.598774 30069 net.cpp:153] Setting up label_label_0_split
I0704 21:08:49.598783 30069 net.cpp:160] Top shape: 200 1 1 1 (200)
I0704 21:08:49.598784 30069 net.cpp:160] Top shape: 200 1 1 1 (200)
I0704 21:08:49.598786 30069 net.cpp:168] Memory required for data: 97905600
I0704 21:08:49.598788 30069 layer_factory.hpp:76] Creating layer pool1
I0704 21:08:49.598793 30069 net.cpp:109] Creating Layer pool1
I0704 21:08:49.598795 30069 net.cpp:457] pool1 <- data
I0704 21:08:49.598798 30069 net.cpp:414] pool1 -> pool1
I0704 21:08:49.598821 30069 net.cpp:153] Setting up pool1
I0704 21:08:49.598825 30069 net.cpp:160] Top shape: 200 339 9 9 (5491800)
I0704 21:08:49.598826 30069 net.cpp:168] Memory required for data: 119872800
I0704 21:08:49.598829 30069 layer_factory.hpp:76] Creating layer conv5
I0704 21:08:49.598834 30069 net.cpp:109] Creating Layer conv5
I0704 21:08:49.598836 30069 net.cpp:457] conv5 <- pool1
I0704 21:08:49.598839 30069 net.cpp:414] conv5 -> conv5
I0704 21:08:49.613672 30069 net.cpp:153] Setting up conv5
I0704 21:08:49.613692 30069 net.cpp:160] Top shape: 200 256 9 9 (4147200)
I0704 21:08:49.613695 30069 net.cpp:168] Memory required for data: 136461600
I0704 21:08:49.613704 30069 layer_factory.hpp:76] Creating layer relu5
I0704 21:08:49.613711 30069 net.cpp:109] Creating Layer relu5
I0704 21:08:49.613714 30069 net.cpp:457] relu5 <- conv5
I0704 21:08:49.613718 30069 net.cpp:400] relu5 -> conv5 (in-place)
I0704 21:08:49.613724 30069 net.cpp:153] Setting up relu5
I0704 21:08:49.613729 30069 net.cpp:160] Top shape: 200 256 9 9 (4147200)
I0704 21:08:49.613730 30069 net.cpp:168] Memory required for data: 153050400
I0704 21:08:49.613732 30069 layer_factory.hpp:76] Creating layer pool5
I0704 21:08:49.613736 30069 net.cpp:109] Creating Layer pool5
I0704 21:08:49.613739 30069 net.cpp:457] pool5 <- conv5
I0704 21:08:49.613742 30069 net.cpp:414] pool5 -> pool5
I0704 21:08:49.613772 30069 net.cpp:153] Setting up pool5
I0704 21:08:49.613775 30069 net.cpp:160] Top shape: 200 256 4 4 (819200)
I0704 21:08:49.613777 30069 net.cpp:168] Memory required for data: 156327200
I0704 21:08:49.613780 30069 layer_factory.hpp:76] Creating layer fc6
I0704 21:08:49.613785 30069 net.cpp:109] Creating Layer fc6
I0704 21:08:49.613786 30069 net.cpp:457] fc6 <- pool5
I0704 21:08:49.613790 30069 net.cpp:414] fc6 -> fc6
I0704 21:08:49.923080 30069 net.cpp:153] Setting up fc6
I0704 21:08:49.923100 30069 net.cpp:160] Top shape: 200 4096 (819200)
I0704 21:08:49.923104 30069 net.cpp:168] Memory required for data: 159604000
I0704 21:08:49.923112 30069 layer_factory.hpp:76] Creating layer relu6
I0704 21:08:49.923120 30069 net.cpp:109] Creating Layer relu6
I0704 21:08:49.923123 30069 net.cpp:457] relu6 <- fc6
I0704 21:08:49.923127 30069 net.cpp:400] relu6 -> fc6 (in-place)
I0704 21:08:49.923135 30069 net.cpp:153] Setting up relu6
I0704 21:08:49.923136 30069 net.cpp:160] Top shape: 200 4096 (819200)
I0704 21:08:49.923138 30069 net.cpp:168] Memory required for data: 162880800
I0704 21:08:49.923141 30069 layer_factory.hpp:76] Creating layer drop6
I0704 21:08:49.923144 30069 net.cpp:109] Creating Layer drop6
I0704 21:08:49.923164 30069 net.cpp:457] drop6 <- fc6
I0704 21:08:49.923167 30069 net.cpp:400] drop6 -> fc6 (in-place)
I0704 21:08:49.923187 30069 net.cpp:153] Setting up drop6
I0704 21:08:49.923190 30069 net.cpp:160] Top shape: 200 4096 (819200)
I0704 21:08:49.923192 30069 net.cpp:168] Memory required for data: 166157600
I0704 21:08:49.923193 30069 layer_factory.hpp:76] Creating layer fc7
I0704 21:08:49.923198 30069 net.cpp:109] Creating Layer fc7
I0704 21:08:49.923200 30069 net.cpp:457] fc7 <- fc6
I0704 21:08:49.923203 30069 net.cpp:414] fc7 -> fc7
I0704 21:08:50.229964 30069 net.cpp:153] Setting up fc7
I0704 21:08:50.229982 30069 net.cpp:160] Top shape: 200 4096 (819200)
I0704 21:08:50.229985 30069 net.cpp:168] Memory required for data: 169434400
I0704 21:08:50.229993 30069 layer_factory.hpp:76] Creating layer relu7
I0704 21:08:50.230000 30069 net.cpp:109] Creating Layer relu7
I0704 21:08:50.230002 30069 net.cpp:457] relu7 <- fc7
I0704 21:08:50.230006 30069 net.cpp:400] relu7 -> fc7 (in-place)
I0704 21:08:50.230013 30069 net.cpp:153] Setting up relu7
I0704 21:08:50.230015 30069 net.cpp:160] Top shape: 200 4096 (819200)
I0704 21:08:50.230017 30069 net.cpp:168] Memory required for data: 172711200
I0704 21:08:50.230020 30069 layer_factory.hpp:76] Creating layer drop7
I0704 21:08:50.230024 30069 net.cpp:109] Creating Layer drop7
I0704 21:08:50.230026 30069 net.cpp:457] drop7 <- fc7
I0704 21:08:50.230028 30069 net.cpp:400] drop7 -> fc7 (in-place)
I0704 21:08:50.230047 30069 net.cpp:153] Setting up drop7
I0704 21:08:50.230051 30069 net.cpp:160] Top shape: 200 4096 (819200)
I0704 21:08:50.230052 30069 net.cpp:168] Memory required for data: 175988000
I0704 21:08:50.230054 30069 layer_factory.hpp:76] Creating layer fc8_species
I0704 21:08:50.230059 30069 net.cpp:109] Creating Layer fc8_species
I0704 21:08:50.230062 30069 net.cpp:457] fc8_species <- fc7
I0704 21:08:50.230064 30069 net.cpp:414] fc8_species -> fc8_species
I0704 21:08:50.302284 30069 net.cpp:153] Setting up fc8_species
I0704 21:08:50.302301 30069 net.cpp:160] Top shape: 200 967 (193400)
I0704 21:08:50.302304 30069 net.cpp:168] Memory required for data: 176761600
I0704 21:08:50.302310 30069 layer_factory.hpp:76] Creating layer fc8_species_fc8_species_0_split
I0704 21:08:50.302316 30069 net.cpp:109] Creating Layer fc8_species_fc8_species_0_split
I0704 21:08:50.302320 30069 net.cpp:457] fc8_species_fc8_species_0_split <- fc8_species
I0704 21:08:50.302325 30069 net.cpp:414] fc8_species_fc8_species_0_split -> fc8_species_fc8_species_0_split_0
I0704 21:08:50.302330 30069 net.cpp:414] fc8_species_fc8_species_0_split -> fc8_species_fc8_species_0_split_1
I0704 21:08:50.302356 30069 net.cpp:153] Setting up fc8_species_fc8_species_0_split
I0704 21:08:50.302359 30069 net.cpp:160] Top shape: 200 967 (193400)
I0704 21:08:50.302362 30069 net.cpp:160] Top shape: 200 967 (193400)
I0704 21:08:50.302364 30069 net.cpp:168] Memory required for data: 178308800
I0704 21:08:50.302366 30069 layer_factory.hpp:76] Creating layer loss
I0704 21:08:50.302371 30069 net.cpp:109] Creating Layer loss
I0704 21:08:50.302372 30069 net.cpp:457] loss <- fc8_species_fc8_species_0_split_0
I0704 21:08:50.302374 30069 net.cpp:457] loss <- label_label_0_split_0
I0704 21:08:50.302377 30069 net.cpp:414] loss -> loss
…
