…
state {
phase: TRAIN
}
layer {
name: "data"
type: "Data"
top: "data"
include {
phase: TRAIN
}
transform_param {
mean_file: "/home/ffw/scratch/plantClef/scatnet_output/train/a4_m2_s1s2s4s8_f2/lmdb_mean_coeff.binaryproto"
}
data_param {
source: "/home/ffw/scratch/plantClef/scatnet_output/train/a4_m2_s1s2s4s8_f2/lmdb_data"
batch_size: 200
backend: LMDB
}
}
layer {
name: "label"
type: "Data"
top: "label"
include {
phase: TRAIN
}
data_param {
source: "/home/ffw/scratch/plantClef/scatnet_output/train/a4_m2_s1s2s4s8_f2/lmdb_labels"
batch_size: 200
backend: LMDB
}
}
layer {
name: "pool1"
type: "Pooling"
bottom: "data"
top: "pool1"
pooling_param {
pool: MAX
kernel_size: 2
stride: 1
}
}
layer {
name: "conv5"
type: "Convolution"
bottom: "pool1"
top: "conv5"
param {
lr_mult: 1
decay_mult: 1
}
param {
lr_mult: 2
decay_mult: 0
}
convolution_param {
num_output: 256
pad: 1
kernel_size: 3
group: 1
weight_filler {
type: "gaussian"
std: 0.01
}
bias_filler {
type: "constant"
value: 0.1
}
}
}
layer {
name: "relu5"
type: "ReLU"
bottom: "conv5"
top: "conv5"
}
layer {
name: "pool5"
type: "Pooling"
bottom: "conv5"
top: "pool5"
pooling_param {
pool: MAX
kernel_size: 3
stride: 2
}
}
layer {
name: "fc6"
type: "InnerProduct"
bottom: "pool5"
top: "fc6"
param {
lr_mult: 1
decay_mult: 1
}
param {
lr_mult: 2
decay_mult: 0
}
inner_product_param {
num_output: 4096
weight_filler {
type: "gaussian"
std: 0.005
}
bias_filler {
type: "constant"
value: 0.1
}
}
}
layer {
name: "relu6"
type: "ReLU"
bottom: "fc6"
top: "fc6"
}
layer {
name: "drop6"
type: "Dropout"
bottom: "fc6"
top: "fc6"
dropout_param {
dropout_ratio: 0.5
}
}
layer {
name: "fc7"
type: "InnerProduct"
bottom: "fc6"
top: "fc7"
param {
lr_mult: 1
decay_mult: 1
}
param {
lr_mult: 2
decay_mult: 0
}
inner_product_param {
num_output: 4096
weight_filler {
type: "gaussian"
std: 0.005
}
bias_filler {
type: "constant"
value: 0.1
}
}
}
layer {
name: "relu7"
type: "ReLU"
bottom: "fc7"
top: "fc7"
}
layer {
name: "drop7"
type: "Dropout"
bottom: "fc7"
top: "fc7"
dropout_param {
dropout_ratio: 0.5
}
}
layer {
name: "fc8_species"
type: "InnerProduct"
bottom: "fc7"
top: "fc8_species"
param {
lr_mult: 1
decay_mult: 1
}
param {
lr_mult: 2
decay_mult: 0
}
inner_product_param {
num_output: 967
weight_filler {
type: "gaussian"
std: 0.005
}
bias_filler {
type: "constant"
value: 0.1
}
}
}
layer {
name: "loss"
type: "SoftmaxWithLoss"
bottom: "fc8_species"
bottom: "label"
top: "loss"
}
I0705 21:49:46.056726 14631 layer_factory.hpp:76] Creating layer data
I0705 21:49:46.056920 14631 net.cpp:109] Creating Layer data
I0705 21:49:46.056924 14631 net.cpp:414] data -> data
I0705 21:49:46.056934 14631 data_transformer.cpp:25] Loading mean file from: /home/ffw/scratch/plantClef/scatnet_output/train/a4_m2_s1s2s4s8_f2/lmdb_mean_coeff.binaryproto
I0705 21:49:46.058244 14643 db_lmdb.cpp:36] Opened lmdb /home/ffw/scratch/plantClef/scatnet_output/train/a4_m2_s1s2s4s8_f2/lmdb_data
I0705 21:49:46.058378 14631 data_layer.cpp:45] output data size: 200,339,19,19
I0705 21:49:46.164434 14631 net.cpp:153] Setting up data
I0705 21:49:46.164454 14631 net.cpp:160] Top shape: 200 339 19 19 (24475800)
I0705 21:49:46.164458 14631 net.cpp:168] Memory required for data: 97903200
I0705 21:49:46.164461 14631 layer_factory.hpp:76] Creating layer label
I0705 21:49:46.164552 14631 net.cpp:109] Creating Layer label
I0705 21:49:46.164566 14631 net.cpp:414] label -> label
I0705 21:49:46.165870 14645 db_lmdb.cpp:36] Opened lmdb /home/ffw/scratch/plantClef/scatnet_output/train/a4_m2_s1s2s4s8_f2/lmdb_labels
I0705 21:49:46.173529 14631 data_layer.cpp:45] output data size: 200,1,1,1
I0705 21:49:46.173609 14631 net.cpp:153] Setting up label
I0705 21:49:46.173615 14631 net.cpp:160] Top shape: 200 1 1 1 (200)
I0705 21:49:46.173617 14631 net.cpp:168] Memory required for data: 97904000
I0705 21:49:46.173619 14631 layer_factory.hpp:76] Creating layer pool1
I0705 21:49:46.173625 14631 net.cpp:109] Creating Layer pool1
I0705 21:49:46.173627 14631 net.cpp:457] pool1 <- data
I0705 21:49:46.173634 14631 net.cpp:414] pool1 -> pool1
I0705 21:49:46.173667 14631 net.cpp:153] Setting up pool1
I0705 21:49:46.173671 14631 net.cpp:160] Top shape: 200 339 18 18 (21967200)
I0705 21:49:46.173672 14631 net.cpp:168] Memory required for data: 185772800
I0705 21:49:46.173674 14631 layer_factory.hpp:76] Creating layer conv5
I0705 21:49:46.173679 14631 net.cpp:109] Creating Layer conv5
I0705 21:49:46.173681 14631 net.cpp:457] conv5 <- pool1
I0705 21:49:46.173684 14631 net.cpp:414] conv5 -> conv5
I0705 21:49:46.188539 14631 net.cpp:153] Setting up conv5
I0705 21:49:46.188555 14631 net.cpp:160] Top shape: 200 256 18 18 (16588800)
I0705 21:49:46.188556 14631 net.cpp:168] Memory required for data: 252128000
I0705 21:49:46.188566 14631 layer_factory.hpp:76] Creating layer relu5
I0705 21:49:46.188573 14631 net.cpp:109] Creating Layer relu5
I0705 21:49:46.188575 14631 net.cpp:457] relu5 <- conv5
I0705 21:49:46.188580 14631 net.cpp:400] relu5 -> conv5 (in-place)
I0705 21:49:46.188586 14631 net.cpp:153] Setting up relu5
I0705 21:49:46.188590 14631 net.cpp:160] Top shape: 200 256 18 18 (16588800)
I0705 21:49:46.188591 14631 net.cpp:168] Memory required for data: 318483200
I0705 21:49:46.188592 14631 layer_factory.hpp:76] Creating layer pool5
I0705 21:49:46.188596 14631 net.cpp:109] Creating Layer pool5
I0705 21:49:46.188598 14631 net.cpp:457] pool5 <- conv5
I0705 21:49:46.188601 14631 net.cpp:414] pool5 -> pool5
I0705 21:49:46.188621 14631 net.cpp:153] Setting up pool5
I0705 21:49:46.188624 14631 net.cpp:160] Top shape: 200 256 9 9 (4147200)
I0705 21:49:46.188627 14631 net.cpp:168] Memory required for data: 335072000
I0705 21:49:46.188628 14631 layer_factory.hpp:76] Creating layer fc6
I0705 21:49:46.188632 14631 net.cpp:109] Creating Layer fc6
I0705 21:49:46.188634 14631 net.cpp:457] fc6 <- pool5
I0705 21:49:46.188637 14631 net.cpp:414] fc6 -> fc6
I0705 21:49:47.738020 14631 net.cpp:153] Setting up fc6
I0705 21:49:47.738037 14631 net.cpp:160] Top shape: 200 4096 (819200)
I0705 21:49:47.738040 14631 net.cpp:168] Memory required for data: 338348800
I0705 21:49:47.738047 14631 layer_factory.hpp:76] Creating layer relu6
I0705 21:49:47.738054 14631 net.cpp:109] Creating Layer relu6
I0705 21:49:47.738056 14631 net.cpp:457] relu6 <- fc6
I0705 21:49:47.738059 14631 net.cpp:400] relu6 -> fc6 (in-place)
I0705 21:49:47.738065 14631 net.cpp:153] Setting up relu6
I0705 21:49:47.738068 14631 net.cpp:160] Top shape: 200 4096 (819200)
I0705 21:49:47.738070 14631 net.cpp:168] Memory required for data: 341625600
I0705 21:49:47.738071 14631 layer_factory.hpp:76] Creating layer drop6
I0705 21:49:47.738081 14631 net.cpp:109] Creating Layer drop6
I0705 21:49:47.738082 14631 net.cpp:457] drop6 <- fc6
I0705 21:49:47.738085 14631 net.cpp:400] drop6 -> fc6 (in-place)
I0705 21:49:47.738116 14631 net.cpp:153] Setting up drop6
I0705 21:49:47.738118 14631 net.cpp:160] Top shape: 200 4096 (819200)
I0705 21:49:47.738121 14631 net.cpp:168] Memory required for data: 344902400
I0705 21:49:47.738122 14631 layer_factory.hpp:76] Creating layer fc7
I0705 21:49:47.738126 14631 net.cpp:109] Creating Layer fc7
I0705 21:49:47.738128 14631 net.cpp:457] fc7 <- fc6
I0705 21:49:47.738131 14631 net.cpp:414] fc7 -> fc7
I0705 21:49:48.040371 14631 net.cpp:153] Setting up fc7
I0705 21:49:48.040390 14631 net.cpp:160] Top shape: 200 4096 (819200)
I0705 21:49:48.040392 14631 net.cpp:168] Memory required for data: 348179200
I0705 21:49:48.040400 14631 layer_factory.hpp:76] Creating layer relu7
I0705 21:49:48.040406 14631 net.cpp:109] Creating Layer relu7
I0705 21:49:48.040408 14631 net.cpp:457] relu7 <- fc7
I0705 21:49:48.040412 14631 net.cpp:400] relu7 -> fc7 (in-place)
I0705 21:49:48.040418 14631 net.cpp:153] Setting up relu7
I0705 21:49:48.040421 14631 net.cpp:160] Top shape: 200 4096 (819200)
I0705 21:49:48.040422 14631 net.cpp:168] Memory required for data: 351456000
I0705 21:49:48.040423 14631 layer_factory.hpp:76] Creating layer drop7
I0705 21:49:48.040427 14631 net.cpp:109] Creating Layer drop7
I0705 21:49:48.040429 14631 net.cpp:457] drop7 <- fc7
I0705 21:49:48.040431 14631 net.cpp:400] drop7 -> fc7 (in-place)
I0705 21:49:48.040446 14631 net.cpp:153] Setting up drop7
I0705 21:49:48.040449 14631 net.cpp:160] Top shape: 200 4096 (819200)
I0705 21:49:48.040452 14631 net.cpp:168] Memory required for data: 354732800
I0705 21:49:48.040452 14631 layer_factory.hpp:76] Creating layer fc8_species
I0705 21:49:48.040457 14631 net.cpp:109] Creating Layer fc8_species
I0705 21:49:48.040458 14631 net.cpp:457] fc8_species <- fc7
I0705 21:49:48.040462 14631 net.cpp:414] fc8_species -> fc8_species
I0705 21:49:48.112059 14631 net.cpp:153] Setting up fc8_species
I0705 21:49:48.112076 14631 net.cpp:160] Top shape: 200 967 (193400)
I0705 21:49:48.112079 14631 net.cpp:168] Memory required for data: 355506400
I0705 21:49:48.112084 14631 layer_factory.hpp:76] Creating layer loss
I0705 21:49:48.112097 14631 net.cpp:109] Creating Layer loss
I0705 21:49:48.112100 14631 net.cpp:457] loss <- fc8_species
I0705 21:49:48.112103 14631 net.cpp:457] loss <- label
I0705 21:49:48.112107 14631 net.cpp:414] loss -> loss
I0705 21:49:48.112113 14631 layer_factory.hpp:76] Creating layer loss
…
I0705 21:49:48.113147 14631 net.cpp:52] Initializing net from parameters:
state {
phase: TEST
}
layer {
name: "data"
type: "Data"
top: "data"
include {
phase: TEST
}
transform_param {
mean_file: "/home/ffw/scratch/plantClef/scatnet_output/train/a4_m2_s1s2s4s8_f2/lmdb_mean_coeff.binaryproto"
}
data_param {
source: "/home/ffw/scratch/plantClef/scatnet_output/test/a4_m2_s1s2s4s8_f2/lmdb_data"
batch_size: 200
backend: LMDB
}
}
layer {
name: "label"
type: "Data"
top: "label"
include {
phase: TEST
}
data_param {
source: "/home/ffw/scratch/plantClef/scatnet_output/test/a4_m2_s1s2s4s8_f2/lmdb_labels"
batch_size: 200
backend: LMDB
}
}
layer {
name: "pool1"
type: "Pooling"
bottom: "data"
top: "pool1"
pooling_param {
pool: MAX
kernel_size: 2
stride: 1
}
}
layer {
name: "conv5"
type: "Convolution"
bottom: "pool1"
top: "conv5"
param {
lr_mult: 1
decay_mult: 1
}
param {
lr_mult: 2
decay_mult: 0
}
convolution_param {
num_output: 256
pad: 1
kernel_size: 3
group: 1
weight_filler {
type: "gaussian"
std: 0.01
}
bias_filler {
type: "constant"
value: 0.1
}
}
}
layer {
name: "relu5"
type: "ReLU"
bottom: "conv5"
top: "conv5"
}
layer {
name: "pool5"
type: "Pooling"
bottom: "conv5"
top: "pool5"
pooling_param {
pool: MAX
kernel_size: 3
stride: 2
}
}
layer {
name: "fc6"
type: "InnerProduct"
bottom: "pool5"
top: "fc6"
param {
lr_mult: 1
decay_mult: 1
}
param {
lr_mult: 2
decay_mult: 0
}
inner_product_param {
num_output: 4096
weight_filler {
type: "gaussian"
std: 0.005
}
bias_filler {
type: "constant"
value: 0.1
}
}
}
layer {
name: "relu6"
type: "ReLU"
bottom: "fc6"
top: "fc6"
}
layer {
name: "drop6"
type: "Dropout"
bottom: "fc6"
top: "fc6"
dropout_param {
dropout_ratio: 0.5
}
}
layer {
name: "fc7"
type: "InnerProduct"
bottom: "fc6"
top: "fc7"
param {
lr_mult: 1
decay_mult: 1
}
param {
lr_mult: 2
decay_mult: 0
}
inner_product_param {
num_output: 4096
weight_filler {
type: "gaussian"
std: 0.005
}
bias_filler {
type: "constant"
value: 0.1
}
}
}
layer {
name: "relu7"
type: "ReLU"
bottom: "fc7"
top: "fc7"
}
layer {
name: "drop7"
type: "Dropout"
bottom: "fc7"
top: "fc7"
dropout_param {
dropout_ratio: 0.5
}
}
layer {
name: "fc8_species"
type: "InnerProduct"
bottom: "fc7"
top: "fc8_species"
param {
lr_mult: 1
decay_mult: 1
}
param {
lr_mult: 2
decay_mult: 0
}
inner_product_param {
num_output: 967
weight_filler {
type: "gaussian"
std: 0.005
}
bias_filler {
type: "constant"
value: 0.1
}
}
}
layer {
name: "loss"
type: "SoftmaxWithLoss"
bottom: "fc8_species"
bottom: "label"
top: "loss"
}
layer {
name: "accuracy"
type: "Accuracy"
bottom: "fc8_species"
bottom: "label"
top: "accuracy"
include {
phase: TEST
}
}
I0705 21:49:48.113199 14631 layer_factory.hpp:76] Creating layer data
I0705 21:49:48.113313 14631 net.cpp:109] Creating Layer data
I0705 21:49:48.113320 14631 net.cpp:414] data -> data
I0705 21:49:48.113327 14631 data_transformer.cpp:25] Loading mean file from: /home/ffw/scratch/plantClef/scatnet_output/train/a4_m2_s1s2s4s8_f2/lmdb_mean_coeff.binaryproto
I0705 21:49:48.114264 14647 db_lmdb.cpp:36] Opened lmdb /home/ffw/scratch/plantClef/scatnet_output/test/a4_m2_s1s2s4s8_f2/lmdb_data
I0705 21:49:48.114413 14631 data_layer.cpp:45] output data size: 200,339,19,19
I0705 21:49:48.218286 14631 net.cpp:153] Setting up data
I0705 21:49:48.218302 14631 net.cpp:160] Top shape: 200 339 19 19 (24475800)
I0705 21:49:48.218304 14631 net.cpp:168] Memory required for data: 97903200
I0705 21:49:48.218322 14631 layer_factory.hpp:76] Creating layer label
I0705 21:49:48.218415 14631 net.cpp:109] Creating Layer label
I0705 21:49:48.218428 14631 net.cpp:414] label -> label
I0705 21:49:48.219534 14649 db_lmdb.cpp:36] Opened lmdb /home/ffw/scratch/plantClef/scatnet_output/test/a4_m2_s1s2s4s8_f2/lmdb_labels
I0705 21:49:48.227165 14631 data_layer.cpp:45] output data size: 200,1,1,1
I0705 21:49:48.227340 14631 net.cpp:153] Setting up label
I0705 21:49:48.227346 14631 net.cpp:160] Top shape: 200 1 1 1 (200)
I0705 21:49:48.227349 14631 net.cpp:168] Memory required for data: 97904000
I0705 21:49:48.227350 14631 layer_factory.hpp:76] Creating layer label_label_0_split
I0705 21:49:48.227355 14631 net.cpp:109] Creating Layer label_label_0_split
I0705 21:49:48.227357 14631 net.cpp:457] label_label_0_split <- label
I0705 21:49:48.227360 14631 net.cpp:414] label_label_0_split -> label_label_0_split_0
I0705 21:49:48.227363 14631 net.cpp:414] label_label_0_split -> label_label_0_split_1
I0705 21:49:48.227407 14631 net.cpp:153] Setting up label_label_0_split
I0705 21:49:48.227411 14631 net.cpp:160] Top shape: 200 1 1 1 (200)
I0705 21:49:48.227413 14631 net.cpp:160] Top shape: 200 1 1 1 (200)
I0705 21:49:48.227416 14631 net.cpp:168] Memory required for data: 97905600
I0705 21:49:48.227417 14631 layer_factory.hpp:76] Creating layer pool1
I0705 21:49:48.227421 14631 net.cpp:109] Creating Layer pool1
I0705 21:49:48.227423 14631 net.cpp:457] pool1 <- data
I0705 21:49:48.227426 14631 net.cpp:414] pool1 -> pool1
I0705 21:49:48.227444 14631 net.cpp:153] Setting up pool1
I0705 21:49:48.227447 14631 net.cpp:160] Top shape: 200 339 18 18 (21967200)
I0705 21:49:48.227449 14631 net.cpp:168] Memory required for data: 185774400
I0705 21:49:48.227450 14631 layer_factory.hpp:76] Creating layer conv5
I0705 21:49:48.227458 14631 net.cpp:109] Creating Layer conv5
I0705 21:49:48.227458 14631 net.cpp:457] conv5 <- pool1
I0705 21:49:48.227461 14631 net.cpp:414] conv5 -> conv5
I0705 21:49:48.242076 14631 net.cpp:153] Setting up conv5
I0705 21:49:48.242094 14631 net.cpp:160] Top shape: 200 256 18 18 (16588800)
I0705 21:49:48.242096 14631 net.cpp:168] Memory required for data: 252129600
I0705 21:49:48.242103 14631 layer_factory.hpp:76] Creating layer relu5
I0705 21:49:48.242110 14631 net.cpp:109] Creating Layer relu5
I0705 21:49:48.242112 14631 net.cpp:457] relu5 <- conv5
I0705 21:49:48.242116 14631 net.cpp:400] relu5 -> conv5 (in-place)
I0705 21:49:48.242121 14631 net.cpp:153] Setting up relu5
I0705 21:49:48.242123 14631 net.cpp:160] Top shape: 200 256 18 18 (16588800)
I0705 21:49:48.242125 14631 net.cpp:168] Memory required for data: 318484800
I0705 21:49:48.242127 14631 layer_factory.hpp:76] Creating layer pool5
I0705 21:49:48.242130 14631 net.cpp:109] Creating Layer pool5
I0705 21:49:48.242132 14631 net.cpp:457] pool5 <- conv5
I0705 21:49:48.242135 14631 net.cpp:414] pool5 -> pool5
I0705 21:49:48.242156 14631 net.cpp:153] Setting up pool5
I0705 21:49:48.242157 14631 net.cpp:160] Top shape: 200 256 9 9 (4147200)
I0705 21:49:48.242159 14631 net.cpp:168] Memory required for data: 335073600
I0705 21:49:48.242161 14631 layer_factory.hpp:76] Creating layer fc6
I0705 21:49:48.242166 14631 net.cpp:109] Creating Layer fc6
I0705 21:49:48.242167 14631 net.cpp:457] fc6 <- pool5
I0705 21:49:48.242171 14631 net.cpp:414] fc6 -> fc6
I0705 21:49:49.792390 14631 net.cpp:153] Setting up fc6
I0705 21:49:49.792408 14631 net.cpp:160] Top shape: 200 4096 (819200)
I0705 21:49:49.792412 14631 net.cpp:168] Memory required for data: 338350400
I0705 21:49:49.792419 14631 layer_factory.hpp:76] Creating layer relu6
I0705 21:49:49.792426 14631 net.cpp:109] Creating Layer relu6
I0705 21:49:49.792429 14631 net.cpp:457] relu6 <- fc6
I0705 21:49:49.792433 14631 net.cpp:400] relu6 -> fc6 (in-place)
I0705 21:49:49.792439 14631 net.cpp:153] Setting up relu6
I0705 21:49:49.792443 14631 net.cpp:160] Top shape: 200 4096 (819200)
I0705 21:49:49.792443 14631 net.cpp:168] Memory required for data: 341627200
I0705 21:49:49.792445 14631 layer_factory.hpp:76] Creating layer drop6
I0705 21:49:49.792469 14631 net.cpp:109] Creating Layer drop6
I0705 21:49:49.792470 14631 net.cpp:457] drop6 <- fc6
I0705 21:49:49.792472 14631 net.cpp:400] drop6 -> fc6 (in-place)
I0705 21:49:49.792495 14631 net.cpp:153] Setting up drop6
I0705 21:49:49.792497 14631 net.cpp:160] Top shape: 200 4096 (819200)
I0705 21:49:49.792500 14631 net.cpp:168] Memory required for data: 344904000
I0705 21:49:49.792501 14631 layer_factory.hpp:76] Creating layer fc7
I0705 21:49:49.792506 14631 net.cpp:109] Creating Layer fc7
I0705 21:49:49.792507 14631 net.cpp:457] fc7 <- fc6
I0705 21:49:49.792510 14631 net.cpp:414] fc7 -> fc7
I0705 21:49:50.096465 14631 net.cpp:153] Setting up fc7
I0705 21:49:50.096484 14631 net.cpp:160] Top shape: 200 4096 (819200)
I0705 21:49:50.096487 14631 net.cpp:168] Memory required for data: 348180800
I0705 21:49:50.096494 14631 layer_factory.hpp:76] Creating layer relu7
I0705 21:49:50.096500 14631 net.cpp:109] Creating Layer relu7
I0705 21:49:50.096503 14631 net.cpp:457] relu7 <- fc7
I0705 21:49:50.096508 14631 net.cpp:400] relu7 -> fc7 (in-place)
I0705 21:49:50.096513 14631 net.cpp:153] Setting up relu7
I0705 21:49:50.096515 14631 net.cpp:160] Top shape: 200 4096 (819200)
I0705 21:49:50.096518 14631 net.cpp:168] Memory required for data: 351457600
I0705 21:49:50.096518 14631 layer_factory.hpp:76] Creating layer drop7
I0705 21:49:50.096524 14631 net.cpp:109] Creating Layer drop7
I0705 21:49:50.096524 14631 net.cpp:457] drop7 <- fc7
I0705 21:49:50.096527 14631 net.cpp:400] drop7 -> fc7 (in-place)
I0705 21:49:50.096544 14631 net.cpp:153] Setting up drop7
I0705 21:49:50.096546 14631 net.cpp:160] Top shape: 200 4096 (819200)
I0705 21:49:50.096547 14631 net.cpp:168] Memory required for data: 354734400
I0705 21:49:50.096549 14631 layer_factory.hpp:76] Creating layer fc8_species
I0705 21:49:50.096554 14631 net.cpp:109] Creating Layer fc8_species
I0705 21:49:50.096556 14631 net.cpp:457] fc8_species <- fc7
I0705 21:49:50.096559 14631 net.cpp:414] fc8_species -> fc8_species
I0705 21:49:50.168491 14631 net.cpp:153] Setting up fc8_species
I0705 21:49:50.168507 14631 net.cpp:160] Top shape: 200 967 (193400)
I0705 21:49:50.168510 14631 net.cpp:168] Memory required for data: 355508000
I0705 21:49:50.168516 14631 layer_factory.hpp:76] Creating layer fc8_species_fc8_species_0_split
I0705 21:49:50.168522 14631 net.cpp:109] Creating Layer fc8_species_fc8_species_0_split
I0705 21:49:50.168525 14631 net.cpp:457] fc8_species_fc8_species_0_split <- fc8_species
I0705 21:49:50.168529 14631 net.cpp:414] fc8_species_fc8_species_0_split -> fc8_species_fc8_species_0_split_0
I0705 21:49:50.168534 14631 net.cpp:414] fc8_species_fc8_species_0_split -> fc8_species_fc8_species_0_split_1
I0705 21:49:50.168561 14631 net.cpp:153] Setting up fc8_species_fc8_species_0_split
I0705 21:49:50.168565 14631 net.cpp:160] Top shape: 200 967 (193400)
I0705 21:49:50.168566 14631 net.cpp:160] Top shape: 200 967 (193400)
I0705 21:49:50.168568 14631 net.cpp:168] Memory required for data: 357055200
I0705 21:49:50.168570 14631 layer_factory.hpp:76] Creating layer loss
I0705 21:49:50.168573 14631 net.cpp:109] Creating Layer loss
I0705 21:49:50.168576 14631 net.cpp:457] loss <- fc8_species_fc8_species_0_split_0
I0705 21:49:50.168577 14631 net.cpp:457] loss <- label_label_0_split_0
I0705 21:49:50.168581 14631 net.cpp:414] loss -> loss
…
