…
I0706 13:01:45.372313 16994 net.cpp:325] The NetState phase (0) differed from the phase (1) specified by a rule in layer accuracy
I0706 13:01:45.372519 16994 net.cpp:52] Initializing net from parameters:
state {
phase: TRAIN
}
layer {
name: "train-data"
type: "Data"
top: "data"
top: "label"
include {
phase: TRAIN
}
transform_param {
mirror: true
crop_size: 227
mean_file: "/home/zml374/workspace/DIGITS/digits/jobs/20160704-085910-0cc9/mean.binaryproto"
}
data_param {
source: "/home/zml374/workspace/DIGITS/digits/jobs/20160704-085910-0cc9/train_db"
batch_size: 200
backend: LMDB
}
}
layer {
name: "conv1"
type: "Convolution"
bottom: "data"
top: "conv1"
param {
lr_mult: 0
decay_mult: 0
}
param {
lr_mult: 0
decay_mult: 0
}
convolution_param {
num_output: 96
kernel_size: 11
stride: 4
weight_filler {
type: "gaussian"
std: 0.01
}
bias_filler {
type: "constant"
value: 0
}
}
}
layer {
name: "relu1"
type: "ReLU"
bottom: "conv1"
top: "conv1"
}
layer {
name: "norm1"
type: "LRN"
bottom: "conv1"
top: "norm1"
lrn_param {
local_size: 5
alpha: 0.0001
beta: 0.75
}
}
layer {
name: "pool1"
type: "Pooling"
bottom: "norm1"
top: "pool1"
pooling_param {
pool: MAX
kernel_size: 3
stride: 2
}
}
layer {
name: "conv2_clean"
type: "Convolution"
bottom: "pool1"
top: "conv2_clean"
param {
lr_mult: 1
decay_mult: 1
}
param {
lr_mult: 2
decay_mult: 0
}
convolution_param {
num_output: 256
pad: 2
kernel_size: 5
group: 2
weight_filler {
type: "gaussian"
std: 0.01
}
bias_filler {
type: "constant"
value: 0.1
}
}
}
layer {
name: "relu2"
type: "ReLU"
bottom: "conv2_clean"
top: "conv2_clean"
}
layer {
name: "norm2"
type: "LRN"
bottom: "conv2_clean"
top: "norm2"
lrn_param {
local_size: 5
alpha: 0.0001
beta: 0.75
}
}
layer {
name: "pool2"
type: "Pooling"
bottom: "norm2"
top: "pool2"
pooling_param {
pool: MAX
kernel_size: 3
stride: 2
}
}
layer {
name: "conv3_clean"
type: "Convolution"
bottom: "pool2"
top: "conv3_clean"
param {
lr_mult: 1
decay_mult: 1
}
param {
lr_mult: 2
decay_mult: 0
}
convolution_param {
num_output: 384
pad: 1
kernel_size: 3
weight_filler {
type: "gaussian"
std: 0.01
}
bias_filler {
type: "constant"
value: 0
}
}
}
layer {
name: "relu3"
type: "ReLU"
bottom: "conv3_clean"
top: "conv3_clean"
}
layer {
name: "conv4_clean"
type: "Convolution"
bottom: "conv3_clean"
top: "conv4_clean"
param {
lr_mult: 1
decay_mult: 1
}
param {
lr_mult: 2
decay_mult: 0
}
convolution_param {
num_output: 384
pad: 1
kernel_size: 3
group: 2
weight_filler {
type: "gaussian"
std: 0.01
}
bias_filler {
type: "constant"
value: 0.1
}
}
}
layer {
name: "relu4"
type: "ReLU"
bottom: "conv4_clean"
top: "conv4_clean"
}
layer {
name: "conv5_clean"
type: "Convolution"
bottom: "conv4_clean"
top: "conv5_clean"
param {
lr_mult: 1
decay_mult: 1
}
param {
lr_mult: 2
decay_mult: 0
}
convolution_param {
num_output: 256
pad: 1
kernel_size: 3
group: 2
weight_filler {
type: "gaussian"
std: 0.01
}
bias_filler {
type: "constant"
value: 0.1
}
}
}
layer {
name: "relu5"
type: "ReLU"
bottom: "conv5_clean"
top: "conv5_clean"
}
layer {
name: "pool5"
type: "Pooling"
bottom: "conv5_clean"
top: "pool5"
pooling_param {
pool: MAX
kernel_size: 3
stride: 2
}
}
layer {
name: "fc6_clean"
type: "InnerProduct"
bottom: "pool5"
top: "fc6_clean"
param {
lr_mult: 1
decay_mult: 1
}
param {
lr_mult: 2
decay_mult: 0
}
inner_product_param {
num_output: 4096
weight_filler {
type: "gaussian"
std: 0.005
}
bias_filler {
type: "constant"
value: 0.1
}
}
}
layer {
name: "relu6"
type: "ReLU"
bottom: "fc6_clean"
top: "fc6_clean"
}
layer {
name: "drop6"
type: "Dropout"
bottom: "fc6_clean"
top: "fc6_clean"
dropout_param {
dropout_ratio: 0.5
}
}
layer {
name: "fc7_clean"
type: "InnerProduct"
bottom: "fc6_clean"
top: "fc7_clean"
param {
lr_mult: 1
decay_mult: 1
}
param {
lr_mult: 2
decay_mult: 0
}
inner_product_param {
num_output: 4096
weight_filler {
type: "gaussian"
std: 0.005
}
bias_filler {
type: "constant"
value: 0.1
}
}
}
layer {
name: "relu7"
type: "ReLU"
bottom: "fc7_clean"
top: "fc7_clean"
}
layer {
name: "drop7"
type: "Dropout"
bottom: "fc7_clean"
top: "fc7_clean"
dropout_param {
dropout_ratio: 0.5
}
}
layer {
name: "fc8_clean"
type: "InnerProduct"
bottom: "fc7_clean"
top: "fc8_clean"
param {
lr_mult: 1
decay_mult: 1
}
param {
lr_mult: 2
decay_mult: 0
}
inner_product_param {
num_output: 967
weight_filler {
type: "gaussian"
std: 0.01
}
bias_filler {
type: "constant"
value: 0
}
}
}
layer {
name: "loss"
type: "SoftmaxWithLoss"
bottom: "fc8_clean"
bottom: "label"
top: "loss"
}
I0706 13:01:45.372653 16994 layer_factory.hpp:76] Creating layer train-data
I0706 13:01:45.373965 16994 net.cpp:109] Creating Layer train-data
I0706 13:01:45.373978 16994 net.cpp:414] train-data -> data
I0706 13:01:45.374009 16994 net.cpp:414] train-data -> label
I0706 13:01:45.374024 16994 data_transformer.cpp:25] Loading mean file from: /home/zml374/workspace/DIGITS/digits/jobs/20160704-085910-0cc9/mean.binaryproto
I0706 13:01:45.376308 17022 db_lmdb.cpp:36] Opened lmdb /home/zml374/workspace/DIGITS/digits/jobs/20160704-085910-0cc9/train_db
I0706 13:01:45.382349 16994 data_layer.cpp:45] output data size: 200,3,227,227
I0706 13:01:45.703874 16994 net.cpp:153] Setting up train-data
I0706 13:01:45.703932 16994 net.cpp:160] Top shape: 200 3 227 227 (30917400)
I0706 13:01:45.703940 16994 net.cpp:160] Top shape: 200 (200)
I0706 13:01:45.703945 16994 net.cpp:168] Memory required for data: 123670400
I0706 13:01:45.703958 16994 layer_factory.hpp:76] Creating layer conv1
I0706 13:01:45.703985 16994 net.cpp:109] Creating Layer conv1
I0706 13:01:45.703992 16994 net.cpp:457] conv1 <- data
I0706 13:01:45.704011 16994 net.cpp:414] conv1 -> conv1
I0706 13:01:45.707556 16994 net.cpp:153] Setting up conv1
I0706 13:01:45.707574 16994 net.cpp:160] Top shape: 200 96 55 55 (58080000)
I0706 13:01:45.707579 16994 net.cpp:168] Memory required for data: 355990400
I0706 13:01:45.707599 16994 layer_factory.hpp:76] Creating layer relu1
I0706 13:01:45.707612 16994 net.cpp:109] Creating Layer relu1
I0706 13:01:45.707618 16994 net.cpp:457] relu1 <- conv1
I0706 13:01:45.707628 16994 net.cpp:400] relu1 -> conv1 (in-place)
I0706 13:01:45.707643 16994 net.cpp:153] Setting up relu1
I0706 13:01:45.707649 16994 net.cpp:160] Top shape: 200 96 55 55 (58080000)
I0706 13:01:45.707653 16994 net.cpp:168] Memory required for data: 588310400
I0706 13:01:45.707659 16994 layer_factory.hpp:76] Creating layer norm1
I0706 13:01:45.707677 16994 net.cpp:109] Creating Layer norm1
I0706 13:01:45.707682 16994 net.cpp:457] norm1 <- conv1
I0706 13:01:45.707690 16994 net.cpp:414] norm1 -> norm1
I0706 13:01:45.707743 16994 net.cpp:153] Setting up norm1
I0706 13:01:45.707753 16994 net.cpp:160] Top shape: 200 96 55 55 (58080000)
I0706 13:01:45.707757 16994 net.cpp:168] Memory required for data: 820630400
I0706 13:01:45.707803 16994 layer_factory.hpp:76] Creating layer pool1
I0706 13:01:45.707816 16994 net.cpp:109] Creating Layer pool1
I0706 13:01:45.707821 16994 net.cpp:457] pool1 <- norm1
I0706 13:01:45.707830 16994 net.cpp:414] pool1 -> pool1
I0706 13:01:45.707883 16994 net.cpp:153] Setting up pool1
I0706 13:01:45.707893 16994 net.cpp:160] Top shape: 200 96 27 27 (13996800)
I0706 13:01:45.707898 16994 net.cpp:168] Memory required for data: 876617600
I0706 13:01:45.707903 16994 layer_factory.hpp:76] Creating layer conv2_clean
I0706 13:01:45.707914 16994 net.cpp:109] Creating Layer conv2_clean
I0706 13:01:45.707919 16994 net.cpp:457] conv2_clean <- pool1
I0706 13:01:45.707928 16994 net.cpp:414] conv2_clean -> conv2_clean
I0706 13:01:45.723651 16994 net.cpp:153] Setting up conv2_clean
I0706 13:01:45.723671 16994 net.cpp:160] Top shape: 200 256 27 27 (37324800)
I0706 13:01:45.723676 16994 net.cpp:168] Memory required for data: 1025916800
I0706 13:01:45.723688 16994 layer_factory.hpp:76] Creating layer relu2
I0706 13:01:45.723700 16994 net.cpp:109] Creating Layer relu2
I0706 13:01:45.723704 16994 net.cpp:457] relu2 <- conv2_clean
I0706 13:01:45.723712 16994 net.cpp:400] relu2 -> conv2_clean (in-place)
I0706 13:01:45.723722 16994 net.cpp:153] Setting up relu2
I0706 13:01:45.723728 16994 net.cpp:160] Top shape: 200 256 27 27 (37324800)
I0706 13:01:45.723733 16994 net.cpp:168] Memory required for data: 1175216000
I0706 13:01:45.723737 16994 layer_factory.hpp:76] Creating layer norm2
I0706 13:01:45.723747 16994 net.cpp:109] Creating Layer norm2
I0706 13:01:45.723752 16994 net.cpp:457] norm2 <- conv2_clean
I0706 13:01:45.723758 16994 net.cpp:414] norm2 -> norm2
I0706 13:01:45.723805 16994 net.cpp:153] Setting up norm2
I0706 13:01:45.723814 16994 net.cpp:160] Top shape: 200 256 27 27 (37324800)
I0706 13:01:45.723819 16994 net.cpp:168] Memory required for data: 1324515200
I0706 13:01:45.723824 16994 layer_factory.hpp:76] Creating layer pool2
I0706 13:01:45.723834 16994 net.cpp:109] Creating Layer pool2
I0706 13:01:45.723839 16994 net.cpp:457] pool2 <- norm2
I0706 13:01:45.723847 16994 net.cpp:414] pool2 -> pool2
I0706 13:01:45.723889 16994 net.cpp:153] Setting up pool2
I0706 13:01:45.723897 16994 net.cpp:160] Top shape: 200 256 13 13 (8652800)
I0706 13:01:45.723902 16994 net.cpp:168] Memory required for data: 1359126400
I0706 13:01:45.723906 16994 layer_factory.hpp:76] Creating layer conv3_clean
I0706 13:01:45.723918 16994 net.cpp:109] Creating Layer conv3_clean
I0706 13:01:45.723924 16994 net.cpp:457] conv3_clean <- pool2
I0706 13:01:45.723933 16994 net.cpp:414] conv3_clean -> conv3_clean
I0706 13:01:45.758263 16994 net.cpp:153] Setting up conv3_clean
I0706 13:01:45.758280 16994 net.cpp:160] Top shape: 200 384 13 13 (12979200)
I0706 13:01:45.758285 16994 net.cpp:168] Memory required for data: 1411043200
I0706 13:01:45.758296 16994 layer_factory.hpp:76] Creating layer relu3
I0706 13:01:45.758306 16994 net.cpp:109] Creating Layer relu3
I0706 13:01:45.758311 16994 net.cpp:457] relu3 <- conv3_clean
I0706 13:01:45.758318 16994 net.cpp:400] relu3 -> conv3_clean (in-place)
I0706 13:01:45.758327 16994 net.cpp:153] Setting up relu3
I0706 13:01:45.758334 16994 net.cpp:160] Top shape: 200 384 13 13 (12979200)
I0706 13:01:45.758338 16994 net.cpp:168] Memory required for data: 1462960000
I0706 13:01:45.758342 16994 layer_factory.hpp:76] Creating layer conv4_clean
I0706 13:01:45.758353 16994 net.cpp:109] Creating Layer conv4_clean
I0706 13:01:45.758358 16994 net.cpp:457] conv4_clean <- conv3_clean
I0706 13:01:45.758366 16994 net.cpp:414] conv4_clean -> conv4_clean
I0706 13:01:45.784235 16994 net.cpp:153] Setting up conv4_clean
I0706 13:01:45.784251 16994 net.cpp:160] Top shape: 200 384 13 13 (12979200)
I0706 13:01:45.784256 16994 net.cpp:168] Memory required for data: 1514876800
I0706 13:01:45.784265 16994 layer_factory.hpp:76] Creating layer relu4
I0706 13:01:45.784273 16994 net.cpp:109] Creating Layer relu4
I0706 13:01:45.784278 16994 net.cpp:457] relu4 <- conv4_clean
I0706 13:01:45.784286 16994 net.cpp:400] relu4 -> conv4_clean (in-place)
I0706 13:01:45.784313 16994 net.cpp:153] Setting up relu4
I0706 13:01:45.784320 16994 net.cpp:160] Top shape: 200 384 13 13 (12979200)
I0706 13:01:45.784325 16994 net.cpp:168] Memory required for data: 1566793600
I0706 13:01:45.784330 16994 layer_factory.hpp:76] Creating layer conv5_clean
I0706 13:01:45.784340 16994 net.cpp:109] Creating Layer conv5_clean
I0706 13:01:45.784345 16994 net.cpp:457] conv5_clean <- conv4_clean
I0706 13:01:45.784354 16994 net.cpp:414] conv5_clean -> conv5_clean
I0706 13:01:45.801748 16994 net.cpp:153] Setting up conv5_clean
I0706 13:01:45.801764 16994 net.cpp:160] Top shape: 200 256 13 13 (8652800)
I0706 13:01:45.801769 16994 net.cpp:168] Memory required for data: 1601404800
I0706 13:01:45.801779 16994 layer_factory.hpp:76] Creating layer relu5
I0706 13:01:45.801789 16994 net.cpp:109] Creating Layer relu5
I0706 13:01:45.801794 16994 net.cpp:457] relu5 <- conv5_clean
I0706 13:01:45.801800 16994 net.cpp:400] relu5 -> conv5_clean (in-place)
I0706 13:01:45.801810 16994 net.cpp:153] Setting up relu5
I0706 13:01:45.801815 16994 net.cpp:160] Top shape: 200 256 13 13 (8652800)
I0706 13:01:45.801820 16994 net.cpp:168] Memory required for data: 1636016000
I0706 13:01:45.801825 16994 layer_factory.hpp:76] Creating layer pool5
I0706 13:01:45.801832 16994 net.cpp:109] Creating Layer pool5
I0706 13:01:45.801836 16994 net.cpp:457] pool5 <- conv5_clean
I0706 13:01:45.801842 16994 net.cpp:414] pool5 -> pool5
I0706 13:01:45.801885 16994 net.cpp:153] Setting up pool5
I0706 13:01:45.801894 16994 net.cpp:160] Top shape: 200 256 6 6 (1843200)
I0706 13:01:45.801898 16994 net.cpp:168] Memory required for data: 1643388800
I0706 13:01:45.801903 16994 layer_factory.hpp:76] Creating layer fc6_clean
I0706 13:01:45.801915 16994 net.cpp:109] Creating Layer fc6_clean
I0706 13:01:45.801920 16994 net.cpp:457] fc6_clean <- pool5
I0706 13:01:45.801928 16994 net.cpp:414] fc6_clean -> fc6_clean
I0706 13:01:47.125311 16994 net.cpp:153] Setting up fc6_clean
I0706 13:01:47.125349 16994 net.cpp:160] Top shape: 200 4096 (819200)
I0706 13:01:47.125352 16994 net.cpp:168] Memory required for data: 1646665600
I0706 13:01:47.125363 16994 layer_factory.hpp:76] Creating layer relu6
I0706 13:01:47.125376 16994 net.cpp:109] Creating Layer relu6
I0706 13:01:47.125382 16994 net.cpp:457] relu6 <- fc6_clean
I0706 13:01:47.125391 16994 net.cpp:400] relu6 -> fc6_clean (in-place)
I0706 13:01:47.125406 16994 net.cpp:153] Setting up relu6
I0706 13:01:47.125409 16994 net.cpp:160] Top shape: 200 4096 (819200)
I0706 13:01:47.125413 16994 net.cpp:168] Memory required for data: 1649942400
I0706 13:01:47.125416 16994 layer_factory.hpp:76] Creating layer drop6
I0706 13:01:47.125437 16994 net.cpp:109] Creating Layer drop6
I0706 13:01:47.125442 16994 net.cpp:457] drop6 <- fc6_clean
I0706 13:01:47.125447 16994 net.cpp:400] drop6 -> fc6_clean (in-place)
I0706 13:01:47.125481 16994 net.cpp:153] Setting up drop6
I0706 13:01:47.125488 16994 net.cpp:160] Top shape: 200 4096 (819200)
I0706 13:01:47.125491 16994 net.cpp:168] Memory required for data: 1653219200
I0706 13:01:47.125495 16994 layer_factory.hpp:76] Creating layer fc7_clean
I0706 13:01:47.125504 16994 net.cpp:109] Creating Layer fc7_clean
I0706 13:01:47.125509 16994 net.cpp:457] fc7_clean <- fc6_clean
I0706 13:01:47.125514 16994 net.cpp:414] fc7_clean -> fc7_clean
I0706 13:01:47.655457 16994 net.cpp:153] Setting up fc7_clean
I0706 13:01:47.655493 16994 net.cpp:160] Top shape: 200 4096 (819200)
I0706 13:01:47.655498 16994 net.cpp:168] Memory required for data: 1656496000
I0706 13:01:47.655509 16994 layer_factory.hpp:76] Creating layer relu7
I0706 13:01:47.655522 16994 net.cpp:109] Creating Layer relu7
I0706 13:01:47.655527 16994 net.cpp:457] relu7 <- fc7_clean
I0706 13:01:47.655537 16994 net.cpp:400] relu7 -> fc7_clean (in-place)
I0706 13:01:47.655551 16994 net.cpp:153] Setting up relu7
I0706 13:01:47.655555 16994 net.cpp:160] Top shape: 200 4096 (819200)
I0706 13:01:47.655560 16994 net.cpp:168] Memory required for data: 1659772800
I0706 13:01:47.655562 16994 layer_factory.hpp:76] Creating layer drop7
I0706 13:01:47.655604 16994 net.cpp:109] Creating Layer drop7
I0706 13:01:47.655609 16994 net.cpp:457] drop7 <- fc7_clean
I0706 13:01:47.655616 16994 net.cpp:400] drop7 -> fc7_clean (in-place)
I0706 13:01:47.655647 16994 net.cpp:153] Setting up drop7
I0706 13:01:47.655654 16994 net.cpp:160] Top shape: 200 4096 (819200)
I0706 13:01:47.655658 16994 net.cpp:168] Memory required for data: 1663049600
I0706 13:01:47.655674 16994 layer_factory.hpp:76] Creating layer fc8_clean
I0706 13:01:47.655683 16994 net.cpp:109] Creating Layer fc8_clean
I0706 13:01:47.655686 16994 net.cpp:457] fc8_clean <- fc7_clean
I0706 13:01:47.655694 16994 net.cpp:414] fc8_clean -> fc8_clean
I0706 13:01:47.777629 16994 net.cpp:153] Setting up fc8_clean
I0706 13:01:47.777642 16994 net.cpp:160] Top shape: 200 967 (193400)
I0706 13:01:47.777647 16994 net.cpp:168] Memory required for data: 1663823200
I0706 13:01:47.777652 16994 layer_factory.hpp:76] Creating layer loss
I0706 13:01:47.777670 16994 net.cpp:109] Creating Layer loss
I0706 13:01:47.777674 16994 net.cpp:457] loss <- fc8_clean
I0706 13:01:47.777679 16994 net.cpp:457] loss <- label
I0706 13:01:47.777685 16994 net.cpp:414] loss -> loss
I0706 13:01:47.777694 16994 layer_factory.hpp:76] Creating layer loss
…
I0706 13:01:47.779294 16994 net.cpp:325] The NetState phase (1) differed from the phase (0) specified by a rule in layer train-data
I0706 13:01:47.779526 16994 net.cpp:52] Initializing net from parameters:
state {
phase: TEST
}
layer {
name: "val-data"
type: "Data"
top: "data"
top: "label"
include {
phase: TEST
}
transform_param {
crop_size: 227
mean_file: "/home/zml374/workspace/DIGITS/digits/jobs/20160704-085910-0cc9/mean.binaryproto"
}
data_param {
source: "/home/zml374/workspace/DIGITS/digits/jobs/20160704-085910-0cc9/val_db"
batch_size: 200
backend: LMDB
}
}
layer {
name: "conv1"
type: "Convolution"
bottom: "data"
top: "conv1"
param {
lr_mult: 0
decay_mult: 0
}
param {
lr_mult: 0
decay_mult: 0
}
convolution_param {
num_output: 96
kernel_size: 11
stride: 4
weight_filler {
type: "gaussian"
std: 0.01
}
bias_filler {
type: "constant"
value: 0
}
}
}
layer {
name: "relu1"
type: "ReLU"
bottom: "conv1"
top: "conv1"
}
layer {
name: "norm1"
type: "LRN"
bottom: "conv1"
top: "norm1"
lrn_param {
local_size: 5
alpha: 0.0001
beta: 0.75
}
}
layer {
name: "pool1"
type: "Pooling"
bottom: "norm1"
top: "pool1"
pooling_param {
pool: MAX
kernel_size: 3
stride: 2
}
}
layer {
name: "conv2_clean"
type: "Convolution"
bottom: "pool1"
top: "conv2_clean"
param {
lr_mult: 1
decay_mult: 1
}
param {
lr_mult: 2
decay_mult: 0
}
convolution_param {
num_output: 256
pad: 2
kernel_size: 5
group: 2
weight_filler {
type: "gaussian"
std: 0.01
}
bias_filler {
type: "constant"
value: 0.1
}
}
}
layer {
name: "relu2"
type: "ReLU"
bottom: "conv2_clean"
top: "conv2_clean"
}
layer {
name: "norm2"
type: "LRN"
bottom: "conv2_clean"
top: "norm2"
lrn_param {
local_size: 5
alpha: 0.0001
beta: 0.75
}
}
layer {
name: "pool2"
type: "Pooling"
bottom: "norm2"
top: "pool2"
pooling_param {
pool: MAX
kernel_size: 3
stride: 2
}
}
layer {
name: "conv3_clean"
type: "Convolution"
bottom: "pool2"
top: "conv3_clean"
param {
lr_mult: 1
decay_mult: 1
}
param {
lr_mult: 2
decay_mult: 0
}
convolution_param {
num_output: 384
pad: 1
kernel_size: 3
weight_filler {
type: "gaussian"
std: 0.01
}
bias_filler {
type: "constant"
value: 0
}
}
}
layer {
name: "relu3"
type: "ReLU"
bottom: "conv3_clean"
top: "conv3_clean"
}
layer {
name: "conv4_clean"
type: "Convolution"
bottom: "conv3_clean"
top: "conv4_clean"
param {
lr_mult: 1
decay_mult: 1
}
param {
lr_mult: 2
decay_mult: 0
}
convolution_param {
num_output: 384
pad: 1
kernel_size: 3
group: 2
weight_filler {
type: "gaussian"
std: 0.01
}
bias_filler {
type: "constant"
value: 0.1
}
}
}
layer {
name: "relu4"
type: "ReLU"
bottom: "conv4_clean"
top: "conv4_clean"
}
layer {
name: "conv5_clean"
type: "Convolution"
bottom: "conv4_clean"
top: "conv5_clean"
param {
lr_mult: 1
decay_mult: 1
}
param {
lr_mult: 2
decay_mult: 0
}
convolution_param {
num_output: 256
pad: 1
kernel_size: 3
group: 2
weight_filler {
type: "gaussian"
std: 0.01
}
bias_filler {
type: "constant"
value: 0.1
}
}
}
layer {
name: "relu5"
type: "ReLU"
bottom: "conv5_clean"
top: "conv5_clean"
}
layer {
name: "pool5"
type: "Pooling"
bottom: "conv5_clean"
top: "pool5"
pooling_param {
pool: MAX
kernel_size: 3
stride: 2
}
}
layer {
name: "fc6_clean"
type: "InnerProduct"
bottom: "pool5"
top: "fc6_clean"
param {
lr_mult: 1
decay_mult: 1
}
param {
lr_mult: 2
decay_mult: 0
}
inner_product_param {
num_output: 4096
weight_filler {
type: "gaussian"
std: 0.005
}
bias_filler {
type: "constant"
value: 0.1
}
}
}
layer {
name: "relu6"
type: "ReLU"
bottom: "fc6_clean"
top: "fc6_clean"
}
layer {
name: "drop6"
type: "Dropout"
bottom: "fc6_clean"
top: "fc6_clean"
dropout_param {
dropout_ratio: 0.5
}
}
layer {
name: "fc7_clean"
type: "InnerProduct"
bottom: "fc6_clean"
top: "fc7_clean"
param {
lr_mult: 1
decay_mult: 1
}
param {
lr_mult: 2
decay_mult: 0
}
inner_product_param {
num_output: 4096
weight_filler {
type: "gaussian"
std: 0.005
}
bias_filler {
type: "constant"
value: 0.1
}
}
}
layer {
name: "relu7"
type: "ReLU"
bottom: "fc7_clean"
top: "fc7_clean"
}
layer {
name: "drop7"
type: "Dropout"
bottom: "fc7_clean"
top: "fc7_clean"
dropout_param {
dropout_ratio: 0.5
}
}
layer {
name: "fc8_clean"
type: "InnerProduct"
bottom: "fc7_clean"
top: "fc8_clean"
param {
lr_mult: 1
decay_mult: 1
}
param {
lr_mult: 2
decay_mult: 0
}
inner_product_param {
num_output: 967
weight_filler {
type: "gaussian"
std: 0.01
}
bias_filler {
type: "constant"
value: 0
}
}
}
layer {
name: "accuracy"
type: "Accuracy"
bottom: "fc8_clean"
bottom: "label"
top: "accuracy"
include {
phase: TEST
}
}
layer {
name: "loss"
type: "SoftmaxWithLoss"
bottom: "fc8_clean"
bottom: "label"
top: "loss"
}
I0706 13:01:47.779675 16994 layer_factory.hpp:76] Creating layer val-data
I0706 13:01:47.779881 16994 net.cpp:109] Creating Layer val-data
I0706 13:01:47.779904 16994 net.cpp:414] val-data -> data
I0706 13:01:47.779912 16994 net.cpp:414] val-data -> label
I0706 13:01:47.779922 16994 data_transformer.cpp:25] Loading mean file from: /home/zml374/workspace/DIGITS/digits/jobs/20160704-085910-0cc9/mean.binaryproto
I0706 13:01:47.781183 17024 db_lmdb.cpp:36] Opened lmdb /home/zml374/workspace/DIGITS/digits/jobs/20160704-085910-0cc9/val_db
I0706 13:01:47.785295 16994 data_layer.cpp:45] output data size: 200,3,227,227
I0706 13:01:48.072393 16994 net.cpp:153] Setting up val-data
I0706 13:01:48.072433 16994 net.cpp:160] Top shape: 200 3 227 227 (30917400)
I0706 13:01:48.072440 16994 net.cpp:160] Top shape: 200 (200)
I0706 13:01:48.072443 16994 net.cpp:168] Memory required for data: 123670400
I0706 13:01:48.072450 16994 layer_factory.hpp:76] Creating layer label_val-data_1_split
I0706 13:01:48.072468 16994 net.cpp:109] Creating Layer label_val-data_1_split
I0706 13:01:48.072473 16994 net.cpp:457] label_val-data_1_split <- label
I0706 13:01:48.072481 16994 net.cpp:414] label_val-data_1_split -> label_val-data_1_split_0
I0706 13:01:48.072492 16994 net.cpp:414] label_val-data_1_split -> label_val-data_1_split_1
I0706 13:01:48.072623 16994 net.cpp:153] Setting up label_val-data_1_split
I0706 13:01:48.072633 16994 net.cpp:160] Top shape: 200 (200)
I0706 13:01:48.072638 16994 net.cpp:160] Top shape: 200 (200)
I0706 13:01:48.072641 16994 net.cpp:168] Memory required for data: 123672000
I0706 13:01:48.072644 16994 layer_factory.hpp:76] Creating layer conv1
I0706 13:01:48.072659 16994 net.cpp:109] Creating Layer conv1
I0706 13:01:48.072664 16994 net.cpp:457] conv1 <- data
I0706 13:01:48.072671 16994 net.cpp:414] conv1 -> conv1
I0706 13:01:48.074234 16994 net.cpp:153] Setting up conv1
I0706 13:01:48.074245 16994 net.cpp:160] Top shape: 200 96 55 55 (58080000)
I0706 13:01:48.074249 16994 net.cpp:168] Memory required for data: 355992000
I0706 13:01:48.074262 16994 layer_factory.hpp:76] Creating layer relu1
I0706 13:01:48.074271 16994 net.cpp:109] Creating Layer relu1
I0706 13:01:48.074275 16994 net.cpp:457] relu1 <- conv1
I0706 13:01:48.074281 16994 net.cpp:400] relu1 -> conv1 (in-place)
I0706 13:01:48.074290 16994 net.cpp:153] Setting up relu1
I0706 13:01:48.074295 16994 net.cpp:160] Top shape: 200 96 55 55 (58080000)
I0706 13:01:48.074300 16994 net.cpp:168] Memory required for data: 588312000
I0706 13:01:48.074303 16994 layer_factory.hpp:76] Creating layer norm1
I0706 13:01:48.074314 16994 net.cpp:109] Creating Layer norm1
I0706 13:01:48.074318 16994 net.cpp:457] norm1 <- conv1
I0706 13:01:48.074326 16994 net.cpp:414] norm1 -> norm1
I0706 13:01:48.074394 16994 net.cpp:153] Setting up norm1
I0706 13:01:48.074401 16994 net.cpp:160] Top shape: 200 96 55 55 (58080000)
I0706 13:01:48.074405 16994 net.cpp:168] Memory required for data: 820632000
I0706 13:01:48.074409 16994 layer_factory.hpp:76] Creating layer pool1
I0706 13:01:48.074419 16994 net.cpp:109] Creating Layer pool1
I0706 13:01:48.074457 16994 net.cpp:457] pool1 <- norm1
I0706 13:01:48.074465 16994 net.cpp:414] pool1 -> pool1
I0706 13:01:48.074504 16994 net.cpp:153] Setting up pool1
I0706 13:01:48.074511 16994 net.cpp:160] Top shape: 200 96 27 27 (13996800)
I0706 13:01:48.074513 16994 net.cpp:168] Memory required for data: 876619200
I0706 13:01:48.074517 16994 layer_factory.hpp:76] Creating layer conv2_clean
I0706 13:01:48.074527 16994 net.cpp:109] Creating Layer conv2_clean
I0706 13:01:48.074530 16994 net.cpp:457] conv2_clean <- pool1
I0706 13:01:48.074537 16994 net.cpp:414] conv2_clean -> conv2_clean
I0706 13:01:48.089629 16994 net.cpp:153] Setting up conv2_clean
I0706 13:01:48.089644 16994 net.cpp:160] Top shape: 200 256 27 27 (37324800)
I0706 13:01:48.089648 16994 net.cpp:168] Memory required for data: 1025918400
I0706 13:01:48.089658 16994 layer_factory.hpp:76] Creating layer relu2
I0706 13:01:48.089665 16994 net.cpp:109] Creating Layer relu2
I0706 13:01:48.089669 16994 net.cpp:457] relu2 <- conv2_clean
I0706 13:01:48.089675 16994 net.cpp:400] relu2 -> conv2_clean (in-place)
I0706 13:01:48.089684 16994 net.cpp:153] Setting up relu2
I0706 13:01:48.089689 16994 net.cpp:160] Top shape: 200 256 27 27 (37324800)
I0706 13:01:48.089691 16994 net.cpp:168] Memory required for data: 1175217600
I0706 13:01:48.089694 16994 layer_factory.hpp:76] Creating layer norm2
I0706 13:01:48.089702 16994 net.cpp:109] Creating Layer norm2
I0706 13:01:48.089705 16994 net.cpp:457] norm2 <- conv2_clean
I0706 13:01:48.089710 16994 net.cpp:414] norm2 -> norm2
I0706 13:01:48.089750 16994 net.cpp:153] Setting up norm2
I0706 13:01:48.089757 16994 net.cpp:160] Top shape: 200 256 27 27 (37324800)
I0706 13:01:48.089761 16994 net.cpp:168] Memory required for data: 1324516800
I0706 13:01:48.089763 16994 layer_factory.hpp:76] Creating layer pool2
I0706 13:01:48.089771 16994 net.cpp:109] Creating Layer pool2
I0706 13:01:48.089776 16994 net.cpp:457] pool2 <- norm2
I0706 13:01:48.089781 16994 net.cpp:414] pool2 -> pool2
I0706 13:01:48.089814 16994 net.cpp:153] Setting up pool2
I0706 13:01:48.089820 16994 net.cpp:160] Top shape: 200 256 13 13 (8652800)
I0706 13:01:48.089823 16994 net.cpp:168] Memory required for data: 1359128000
I0706 13:01:48.089828 16994 layer_factory.hpp:76] Creating layer conv3_clean
I0706 13:01:48.089836 16994 net.cpp:109] Creating Layer conv3_clean
I0706 13:01:48.089840 16994 net.cpp:457] conv3_clean <- pool2
I0706 13:01:48.089845 16994 net.cpp:414] conv3_clean -> conv3_clean
I0706 13:01:48.116333 16994 net.cpp:153] Setting up conv3_clean
I0706 13:01:48.116344 16994 net.cpp:160] Top shape: 200 384 13 13 (12979200)
I0706 13:01:48.116348 16994 net.cpp:168] Memory required for data: 1411044800
I0706 13:01:48.116358 16994 layer_factory.hpp:76] Creating layer relu3
I0706 13:01:48.116364 16994 net.cpp:109] Creating Layer relu3
I0706 13:01:48.116369 16994 net.cpp:457] relu3 <- conv3_clean
I0706 13:01:48.116374 16994 net.cpp:400] relu3 -> conv3_clean (in-place)
I0706 13:01:48.116380 16994 net.cpp:153] Setting up relu3
I0706 13:01:48.116385 16994 net.cpp:160] Top shape: 200 384 13 13 (12979200)
I0706 13:01:48.116389 16994 net.cpp:168] Memory required for data: 1462961600
I0706 13:01:48.116391 16994 layer_factory.hpp:76] Creating layer conv4_clean
I0706 13:01:48.116400 16994 net.cpp:109] Creating Layer conv4_clean
I0706 13:01:48.116403 16994 net.cpp:457] conv4_clean <- conv3_clean
I0706 13:01:48.116410 16994 net.cpp:414] conv4_clean -> conv4_clean
I0706 13:01:48.136595 16994 net.cpp:153] Setting up conv4_clean
I0706 13:01:48.136606 16994 net.cpp:160] Top shape: 200 384 13 13 (12979200)
I0706 13:01:48.136610 16994 net.cpp:168] Memory required for data: 1514878400
I0706 13:01:48.136616 16994 layer_factory.hpp:76] Creating layer relu4
I0706 13:01:48.136623 16994 net.cpp:109] Creating Layer relu4
I0706 13:01:48.136626 16994 net.cpp:457] relu4 <- conv4_clean
I0706 13:01:48.136632 16994 net.cpp:400] relu4 -> conv4_clean (in-place)
I0706 13:01:48.136638 16994 net.cpp:153] Setting up relu4
I0706 13:01:48.136643 16994 net.cpp:160] Top shape: 200 384 13 13 (12979200)
I0706 13:01:48.136659 16994 net.cpp:168] Memory required for data: 1566795200
I0706 13:01:48.136664 16994 layer_factory.hpp:76] Creating layer conv5_clean
I0706 13:01:48.136673 16994 net.cpp:109] Creating Layer conv5_clean
I0706 13:01:48.136677 16994 net.cpp:457] conv5_clean <- conv4_clean
I0706 13:01:48.136683 16994 net.cpp:414] conv5_clean -> conv5_clean
I0706 13:01:48.150192 16994 net.cpp:153] Setting up conv5_clean
I0706 13:01:48.150204 16994 net.cpp:160] Top shape: 200 256 13 13 (8652800)
I0706 13:01:48.150208 16994 net.cpp:168] Memory required for data: 1601406400
I0706 13:01:48.150218 16994 layer_factory.hpp:76] Creating layer relu5
I0706 13:01:48.150224 16994 net.cpp:109] Creating Layer relu5
I0706 13:01:48.150228 16994 net.cpp:457] relu5 <- conv5_clean
I0706 13:01:48.150233 16994 net.cpp:400] relu5 -> conv5_clean (in-place)
I0706 13:01:48.150240 16994 net.cpp:153] Setting up relu5
I0706 13:01:48.150245 16994 net.cpp:160] Top shape: 200 256 13 13 (8652800)
I0706 13:01:48.150249 16994 net.cpp:168] Memory required for data: 1636017600
I0706 13:01:48.150251 16994 layer_factory.hpp:76] Creating layer pool5
I0706 13:01:48.150259 16994 net.cpp:109] Creating Layer pool5
I0706 13:01:48.150262 16994 net.cpp:457] pool5 <- conv5_clean
I0706 13:01:48.150269 16994 net.cpp:414] pool5 -> pool5
I0706 13:01:48.150305 16994 net.cpp:153] Setting up pool5
I0706 13:01:48.150310 16994 net.cpp:160] Top shape: 200 256 6 6 (1843200)
I0706 13:01:48.150315 16994 net.cpp:168] Memory required for data: 1643390400
I0706 13:01:48.150317 16994 layer_factory.hpp:76] Creating layer fc6_clean
I0706 13:01:48.150326 16994 net.cpp:109] Creating Layer fc6_clean
I0706 13:01:48.150331 16994 net.cpp:457] fc6_clean <- pool5
I0706 13:01:48.150337 16994 net.cpp:414] fc6_clean -> fc6_clean
I0706 13:01:49.296876 16994 net.cpp:153] Setting up fc6_clean
I0706 13:01:49.296913 16994 net.cpp:160] Top shape: 200 4096 (819200)
I0706 13:01:49.296918 16994 net.cpp:168] Memory required for data: 1646667200
I0706 13:01:49.296929 16994 layer_factory.hpp:76] Creating layer relu6
I0706 13:01:49.296943 16994 net.cpp:109] Creating Layer relu6
I0706 13:01:49.296948 16994 net.cpp:457] relu6 <- fc6_clean
I0706 13:01:49.296957 16994 net.cpp:400] relu6 -> fc6_clean (in-place)
I0706 13:01:49.296972 16994 net.cpp:153] Setting up relu6
I0706 13:01:49.296977 16994 net.cpp:160] Top shape: 200 4096 (819200)
I0706 13:01:49.296979 16994 net.cpp:168] Memory required for data: 1649944000
I0706 13:01:49.296983 16994 layer_factory.hpp:76] Creating layer drop6
I0706 13:01:49.297005 16994 net.cpp:109] Creating Layer drop6
I0706 13:01:49.297009 16994 net.cpp:457] drop6 <- fc6_clean
I0706 13:01:49.297015 16994 net.cpp:400] drop6 -> fc6_clean (in-place)
I0706 13:01:49.297047 16994 net.cpp:153] Setting up drop6
I0706 13:01:49.297054 16994 net.cpp:160] Top shape: 200 4096 (819200)
I0706 13:01:49.297057 16994 net.cpp:168] Memory required for data: 1653220800
I0706 13:01:49.297060 16994 layer_factory.hpp:76] Creating layer fc7_clean
I0706 13:01:49.297071 16994 net.cpp:109] Creating Layer fc7_clean
I0706 13:01:49.297075 16994 net.cpp:457] fc7_clean <- fc6_clean
I0706 13:01:49.297081 16994 net.cpp:414] fc7_clean -> fc7_clean
I0706 13:01:49.806381 16994 net.cpp:153] Setting up fc7_clean
I0706 13:01:49.806417 16994 net.cpp:160] Top shape: 200 4096 (819200)
I0706 13:01:49.806421 16994 net.cpp:168] Memory required for data: 1656497600
I0706 13:01:49.806432 16994 layer_factory.hpp:76] Creating layer relu7
I0706 13:01:49.806447 16994 net.cpp:109] Creating Layer relu7
I0706 13:01:49.806452 16994 net.cpp:457] relu7 <- fc7_clean
I0706 13:01:49.806462 16994 net.cpp:400] relu7 -> fc7_clean (in-place)
I0706 13:01:49.806475 16994 net.cpp:153] Setting up relu7
I0706 13:01:49.806480 16994 net.cpp:160] Top shape: 200 4096 (819200)
I0706 13:01:49.806484 16994 net.cpp:168] Memory required for data: 1659774400
I0706 13:01:49.806488 16994 layer_factory.hpp:76] Creating layer drop7
I0706 13:01:49.806496 16994 net.cpp:109] Creating Layer drop7
I0706 13:01:49.806499 16994 net.cpp:457] drop7 <- fc7_clean
I0706 13:01:49.806551 16994 net.cpp:400] drop7 -> fc7_clean (in-place)
I0706 13:01:49.806587 16994 net.cpp:153] Setting up drop7
I0706 13:01:49.806593 16994 net.cpp:160] Top shape: 200 4096 (819200)
I0706 13:01:49.806597 16994 net.cpp:168] Memory required for data: 1663051200
I0706 13:01:49.806602 16994 layer_factory.hpp:76] Creating layer fc8_clean
I0706 13:01:49.806610 16994 net.cpp:109] Creating Layer fc8_clean
I0706 13:01:49.806614 16994 net.cpp:457] fc8_clean <- fc7_clean
I0706 13:01:49.806620 16994 net.cpp:414] fc8_clean -> fc8_clean
I0706 13:01:49.924625 16994 net.cpp:153] Setting up fc8_clean
I0706 13:01:49.924649 16994 net.cpp:160] Top shape: 200 967 (193400)
I0706 13:01:49.924652 16994 net.cpp:168] Memory required for data: 1663824800
I0706 13:01:49.924662 16994 layer_factory.hpp:76] Creating layer fc8_clean_fc8_clean_0_split
I0706 13:01:49.924672 16994 net.cpp:109] Creating Layer fc8_clean_fc8_clean_0_split
I0706 13:01:49.924677 16994 net.cpp:457] fc8_clean_fc8_clean_0_split <- fc8_clean
I0706 13:01:49.924685 16994 net.cpp:414] fc8_clean_fc8_clean_0_split -> fc8_clean_fc8_clean_0_split_0
I0706 13:01:49.924693 16994 net.cpp:414] fc8_clean_fc8_clean_0_split -> fc8_clean_fc8_clean_0_split_1
I0706 13:01:49.924749 16994 net.cpp:153] Setting up fc8_clean_fc8_clean_0_split
I0706 13:01:49.924757 16994 net.cpp:160] Top shape: 200 967 (193400)
I0706 13:01:49.924762 16994 net.cpp:160] Top shape: 200 967 (193400)
I0706 13:01:49.924764 16994 net.cpp:168] Memory required for data: 1665372000
I0706 13:01:49.924768 16994 layer_factory.hpp:76] Creating layer accuracy
I0706 13:01:49.924777 16994 net.cpp:109] Creating Layer accuracy
I0706 13:01:49.924780 16994 net.cpp:457] accuracy <- fc8_clean_fc8_clean_0_split_0
I0706 13:01:49.924785 16994 net.cpp:457] accuracy <- label_val-data_1_split_0
I0706 13:01:49.924792 16994 net.cpp:414] accuracy -> accuracy
…
