…
I0706 10:05:30.690270 16458 net.cpp:325] The NetState phase (0) differed from the phase (1) specified by a rule in layer accuracy
I0706 10:05:30.690476 16458 net.cpp:52] Initializing net from parameters:
state {
phase: TRAIN
}
layer {
name: "train-data"
type: "Data"
top: "data"
top: "label"
include {
phase: TRAIN
}
transform_param {
mirror: true
crop_size: 227
mean_file: "/home/zml374/workspace/DIGITS/digits/jobs/20160704-085910-0cc9/mean.binaryproto"
}
data_param {
source: "/home/zml374/workspace/DIGITS/digits/jobs/20160704-085910-0cc9/train_db"
batch_size: 200
backend: LMDB
}
}
layer {
name: "conv1"
type: "Convolution"
bottom: "data"
top: "conv1"
param {
lr_mult: 0
decay_mult: 0
}
param {
lr_mult: 0
decay_mult: 0
}
convolution_param {
num_output: 96
kernel_size: 11
stride: 4
weight_filler {
type: "gaussian"
std: 0.01
}
bias_filler {
type: "constant"
value: 0
}
}
}
layer {
name: "relu1"
type: "ReLU"
bottom: "conv1"
top: "conv1"
}
layer {
name: "norm1"
type: "LRN"
bottom: "conv1"
top: "norm1"
lrn_param {
local_size: 5
alpha: 0.0001
beta: 0.75
}
}
layer {
name: "pool1"
type: "Pooling"
bottom: "norm1"
top: "pool1"
pooling_param {
pool: MAX
kernel_size: 3
stride: 2
}
}
layer {
name: "conv2"
type: "Convolution"
bottom: "pool1"
top: "conv2"
param {
lr_mult: 0
decay_mult: 0
}
param {
lr_mult: 0
decay_mult: 0
}
convolution_param {
num_output: 256
pad: 2
kernel_size: 5
group: 2
weight_filler {
type: "gaussian"
std: 0.01
}
bias_filler {
type: "constant"
value: 0.1
}
}
}
layer {
name: "relu2"
type: "ReLU"
bottom: "conv2"
top: "conv2"
}
layer {
name: "norm2"
type: "LRN"
bottom: "conv2"
top: "norm2"
lrn_param {
local_size: 5
alpha: 0.0001
beta: 0.75
}
}
layer {
name: "pool2"
type: "Pooling"
bottom: "norm2"
top: "pool2"
pooling_param {
pool: MAX
kernel_size: 3
stride: 2
}
}
layer {
name: "conv3_clean"
type: "Convolution"
bottom: "pool2"
top: "conv3_clean"
param {
lr_mult: 1
decay_mult: 1
}
param {
lr_mult: 2
decay_mult: 0
}
convolution_param {
num_output: 384
pad: 1
kernel_size: 3
weight_filler {
type: "gaussian"
std: 0.01
}
bias_filler {
type: "constant"
value: 0
}
}
}
layer {
name: "relu3"
type: "ReLU"
bottom: "conv3_clean"
top: "conv3_clean"
}
layer {
name: "conv4_clean"
type: "Convolution"
bottom: "conv3_clean"
top: "conv4_clean"
param {
lr_mult: 1
decay_mult: 1
}
param {
lr_mult: 2
decay_mult: 0
}
convolution_param {
num_output: 384
pad: 1
kernel_size: 3
group: 2
weight_filler {
type: "gaussian"
std: 0.01
}
bias_filler {
type: "constant"
value: 0.1
}
}
}
layer {
name: "relu4"
type: "ReLU"
bottom: "conv4_clean"
top: "conv4_clean"
}
layer {
name: "conv5_clean"
type: "Convolution"
bottom: "conv4_clean"
top: "conv5_clean"
param {
lr_mult: 1
decay_mult: 1
}
param {
lr_mult: 2
decay_mult: 0
}
convolution_param {
num_output: 256
pad: 1
kernel_size: 3
group: 2
weight_filler {
type: "gaussian"
std: 0.01
}
bias_filler {
type: "constant"
value: 0.1
}
}
}
layer {
name: "relu5"
type: "ReLU"
bottom: "conv5_clean"
top: "conv5_clean"
}
layer {
name: "pool5"
type: "Pooling"
bottom: "conv5_clean"
top: "pool5"
pooling_param {
pool: MAX
kernel_size: 3
stride: 2
}
}
layer {
name: "fc6_clean"
type: "InnerProduct"
bottom: "pool5"
top: "fc6_clean"
param {
lr_mult: 1
decay_mult: 1
}
param {
lr_mult: 2
decay_mult: 0
}
inner_product_param {
num_output: 4096
weight_filler {
type: "gaussian"
std: 0.005
}
bias_filler {
type: "constant"
value: 0.1
}
}
}
layer {
name: "relu6"
type: "ReLU"
bottom: "fc6_clean"
top: "fc6_clean"
}
layer {
name: "drop6"
type: "Dropout"
bottom: "fc6_clean"
top: "fc6_clean"
dropout_param {
dropout_ratio: 0.5
}
}
layer {
name: "fc7_clean"
type: "InnerProduct"
bottom: "fc6_clean"
top: "fc7_clean"
param {
lr_mult: 1
decay_mult: 1
}
param {
lr_mult: 2
decay_mult: 0
}
inner_product_param {
num_output: 4096
weight_filler {
type: "gaussian"
std: 0.005
}
bias_filler {
type: "constant"
value: 0.1
}
}
}
layer {
name: "relu7"
type: "ReLU"
bottom: "fc7_clean"
top: "fc7_clean"
}
layer {
name: "drop7"
type: "Dropout"
bottom: "fc7_clean"
top: "fc7_clean"
dropout_param {
dropout_ratio: 0.5
}
}
layer {
name: "fc8_clean"
type: "InnerProduct"
bottom: "fc7_clean"
top: "fc8_clean"
param {
lr_mult: 1
decay_mult: 1
}
param {
lr_mult: 2
decay_mult: 0
}
inner_product_param {
num_output: 967
weight_filler {
type: "gaussian"
std: 0.01
}
bias_filler {
type: "constant"
value: 0
}
}
}
layer {
name: "loss"
type: "SoftmaxWithLoss"
bottom: "fc8_clean"
bottom: "label"
top: "loss"
}
I0706 10:05:30.690615 16458 layer_factory.hpp:76] Creating layer train-data
I0706 10:05:30.691248 16458 net.cpp:109] Creating Layer train-data
I0706 10:05:30.691263 16458 net.cpp:414] train-data -> data
I0706 10:05:30.691298 16458 net.cpp:414] train-data -> label
I0706 10:05:30.691311 16458 data_transformer.cpp:25] Loading mean file from: /home/zml374/workspace/DIGITS/digits/jobs/20160704-085910-0cc9/mean.binaryproto
I0706 10:05:30.692570 16486 db_lmdb.cpp:36] Opened lmdb /home/zml374/workspace/DIGITS/digits/jobs/20160704-085910-0cc9/train_db
I0706 10:05:30.699496 16458 data_layer.cpp:45] output data size: 200,3,227,227
I0706 10:05:31.025539 16458 net.cpp:153] Setting up train-data
I0706 10:05:31.025591 16458 net.cpp:160] Top shape: 200 3 227 227 (30917400)
I0706 10:05:31.025600 16458 net.cpp:160] Top shape: 200 (200)
I0706 10:05:31.025605 16458 net.cpp:168] Memory required for data: 123670400
I0706 10:05:31.025617 16458 layer_factory.hpp:76] Creating layer conv1
I0706 10:05:31.025642 16458 net.cpp:109] Creating Layer conv1
I0706 10:05:31.025648 16458 net.cpp:457] conv1 <- data
I0706 10:05:31.025665 16458 net.cpp:414] conv1 -> conv1
I0706 10:05:31.029263 16458 net.cpp:153] Setting up conv1
I0706 10:05:31.029281 16458 net.cpp:160] Top shape: 200 96 55 55 (58080000)
I0706 10:05:31.029286 16458 net.cpp:168] Memory required for data: 355990400
I0706 10:05:31.029306 16458 layer_factory.hpp:76] Creating layer relu1
I0706 10:05:31.029320 16458 net.cpp:109] Creating Layer relu1
I0706 10:05:31.029325 16458 net.cpp:457] relu1 <- conv1
I0706 10:05:31.029333 16458 net.cpp:400] relu1 -> conv1 (in-place)
I0706 10:05:31.029350 16458 net.cpp:153] Setting up relu1
I0706 10:05:31.029356 16458 net.cpp:160] Top shape: 200 96 55 55 (58080000)
I0706 10:05:31.029361 16458 net.cpp:168] Memory required for data: 588310400
I0706 10:05:31.029366 16458 layer_factory.hpp:76] Creating layer norm1
I0706 10:05:31.029383 16458 net.cpp:109] Creating Layer norm1
I0706 10:05:31.029389 16458 net.cpp:457] norm1 <- conv1
I0706 10:05:31.029397 16458 net.cpp:414] norm1 -> norm1
I0706 10:05:31.029455 16458 net.cpp:153] Setting up norm1
I0706 10:05:31.029465 16458 net.cpp:160] Top shape: 200 96 55 55 (58080000)
I0706 10:05:31.029469 16458 net.cpp:168] Memory required for data: 820630400
I0706 10:05:31.029515 16458 layer_factory.hpp:76] Creating layer pool1
I0706 10:05:31.029528 16458 net.cpp:109] Creating Layer pool1
I0706 10:05:31.029533 16458 net.cpp:457] pool1 <- norm1
I0706 10:05:31.029541 16458 net.cpp:414] pool1 -> pool1
I0706 10:05:31.029593 16458 net.cpp:153] Setting up pool1
I0706 10:05:31.029604 16458 net.cpp:160] Top shape: 200 96 27 27 (13996800)
I0706 10:05:31.029608 16458 net.cpp:168] Memory required for data: 876617600
I0706 10:05:31.029613 16458 layer_factory.hpp:76] Creating layer conv2
I0706 10:05:31.029624 16458 net.cpp:109] Creating Layer conv2
I0706 10:05:31.029628 16458 net.cpp:457] conv2 <- pool1
I0706 10:05:31.029638 16458 net.cpp:414] conv2 -> conv2
I0706 10:05:31.044486 16458 net.cpp:153] Setting up conv2
I0706 10:05:31.044503 16458 net.cpp:160] Top shape: 200 256 27 27 (37324800)
I0706 10:05:31.044508 16458 net.cpp:168] Memory required for data: 1025916800
I0706 10:05:31.044520 16458 layer_factory.hpp:76] Creating layer relu2
I0706 10:05:31.044530 16458 net.cpp:109] Creating Layer relu2
I0706 10:05:31.044535 16458 net.cpp:457] relu2 <- conv2
I0706 10:05:31.044544 16458 net.cpp:400] relu2 -> conv2 (in-place)
I0706 10:05:31.044553 16458 net.cpp:153] Setting up relu2
I0706 10:05:31.044560 16458 net.cpp:160] Top shape: 200 256 27 27 (37324800)
I0706 10:05:31.044564 16458 net.cpp:168] Memory required for data: 1175216000
I0706 10:05:31.044569 16458 layer_factory.hpp:76] Creating layer norm2
I0706 10:05:31.044579 16458 net.cpp:109] Creating Layer norm2
I0706 10:05:31.044582 16458 net.cpp:457] norm2 <- conv2
I0706 10:05:31.044589 16458 net.cpp:414] norm2 -> norm2
I0706 10:05:31.044636 16458 net.cpp:153] Setting up norm2
I0706 10:05:31.044644 16458 net.cpp:160] Top shape: 200 256 27 27 (37324800)
I0706 10:05:31.044648 16458 net.cpp:168] Memory required for data: 1324515200
I0706 10:05:31.044653 16458 layer_factory.hpp:76] Creating layer pool2
I0706 10:05:31.044664 16458 net.cpp:109] Creating Layer pool2
I0706 10:05:31.044669 16458 net.cpp:457] pool2 <- norm2
I0706 10:05:31.044677 16458 net.cpp:414] pool2 -> pool2
I0706 10:05:31.044718 16458 net.cpp:153] Setting up pool2
I0706 10:05:31.044725 16458 net.cpp:160] Top shape: 200 256 13 13 (8652800)
I0706 10:05:31.044730 16458 net.cpp:168] Memory required for data: 1359126400
I0706 10:05:31.044734 16458 layer_factory.hpp:76] Creating layer conv3_clean
I0706 10:05:31.044745 16458 net.cpp:109] Creating Layer conv3_clean
I0706 10:05:31.044751 16458 net.cpp:457] conv3_clean <- pool2
I0706 10:05:31.044760 16458 net.cpp:414] conv3_clean -> conv3_clean
I0706 10:05:31.078469 16458 net.cpp:153] Setting up conv3_clean
I0706 10:05:31.078485 16458 net.cpp:160] Top shape: 200 384 13 13 (12979200)
I0706 10:05:31.078490 16458 net.cpp:168] Memory required for data: 1411043200
I0706 10:05:31.078502 16458 layer_factory.hpp:76] Creating layer relu3
I0706 10:05:31.078512 16458 net.cpp:109] Creating Layer relu3
I0706 10:05:31.078516 16458 net.cpp:457] relu3 <- conv3_clean
I0706 10:05:31.078524 16458 net.cpp:400] relu3 -> conv3_clean (in-place)
I0706 10:05:31.078533 16458 net.cpp:153] Setting up relu3
I0706 10:05:31.078539 16458 net.cpp:160] Top shape: 200 384 13 13 (12979200)
I0706 10:05:31.078543 16458 net.cpp:168] Memory required for data: 1462960000
I0706 10:05:31.078548 16458 layer_factory.hpp:76] Creating layer conv4_clean
I0706 10:05:31.078557 16458 net.cpp:109] Creating Layer conv4_clean
I0706 10:05:31.078562 16458 net.cpp:457] conv4_clean <- conv3_clean
I0706 10:05:31.078568 16458 net.cpp:414] conv4_clean -> conv4_clean
I0706 10:05:31.103974 16458 net.cpp:153] Setting up conv4_clean
I0706 10:05:31.103989 16458 net.cpp:160] Top shape: 200 384 13 13 (12979200)
I0706 10:05:31.103994 16458 net.cpp:168] Memory required for data: 1514876800
I0706 10:05:31.104003 16458 layer_factory.hpp:76] Creating layer relu4
I0706 10:05:31.104012 16458 net.cpp:109] Creating Layer relu4
I0706 10:05:31.104017 16458 net.cpp:457] relu4 <- conv4_clean
I0706 10:05:31.104023 16458 net.cpp:400] relu4 -> conv4_clean (in-place)
I0706 10:05:31.104032 16458 net.cpp:153] Setting up relu4
I0706 10:05:31.104056 16458 net.cpp:160] Top shape: 200 384 13 13 (12979200)
I0706 10:05:31.104061 16458 net.cpp:168] Memory required for data: 1566793600
I0706 10:05:31.104066 16458 layer_factory.hpp:76] Creating layer conv5_clean
I0706 10:05:31.104077 16458 net.cpp:109] Creating Layer conv5_clean
I0706 10:05:31.104081 16458 net.cpp:457] conv5_clean <- conv4_clean
I0706 10:05:31.104089 16458 net.cpp:414] conv5_clean -> conv5_clean
I0706 10:05:31.121193 16458 net.cpp:153] Setting up conv5_clean
I0706 10:05:31.121208 16458 net.cpp:160] Top shape: 200 256 13 13 (8652800)
I0706 10:05:31.121213 16458 net.cpp:168] Memory required for data: 1601404800
I0706 10:05:31.121225 16458 layer_factory.hpp:76] Creating layer relu5
I0706 10:05:31.121234 16458 net.cpp:109] Creating Layer relu5
I0706 10:05:31.121239 16458 net.cpp:457] relu5 <- conv5_clean
I0706 10:05:31.121246 16458 net.cpp:400] relu5 -> conv5_clean (in-place)
I0706 10:05:31.121255 16458 net.cpp:153] Setting up relu5
I0706 10:05:31.121261 16458 net.cpp:160] Top shape: 200 256 13 13 (8652800)
I0706 10:05:31.121266 16458 net.cpp:168] Memory required for data: 1636016000
I0706 10:05:31.121270 16458 layer_factory.hpp:76] Creating layer pool5
I0706 10:05:31.121279 16458 net.cpp:109] Creating Layer pool5
I0706 10:05:31.121284 16458 net.cpp:457] pool5 <- conv5_clean
I0706 10:05:31.121290 16458 net.cpp:414] pool5 -> pool5
I0706 10:05:31.121336 16458 net.cpp:153] Setting up pool5
I0706 10:05:31.121345 16458 net.cpp:160] Top shape: 200 256 6 6 (1843200)
I0706 10:05:31.121348 16458 net.cpp:168] Memory required for data: 1643388800
I0706 10:05:31.121353 16458 layer_factory.hpp:76] Creating layer fc6_clean
I0706 10:05:31.121366 16458 net.cpp:109] Creating Layer fc6_clean
I0706 10:05:31.121371 16458 net.cpp:457] fc6_clean <- pool5
I0706 10:05:31.121379 16458 net.cpp:414] fc6_clean -> fc6_clean
I0706 10:05:32.652015 16458 net.cpp:153] Setting up fc6_clean
I0706 10:05:32.652057 16458 net.cpp:160] Top shape: 200 4096 (819200)
I0706 10:05:32.652062 16458 net.cpp:168] Memory required for data: 1646665600
I0706 10:05:32.652077 16458 layer_factory.hpp:76] Creating layer relu6
I0706 10:05:32.652091 16458 net.cpp:109] Creating Layer relu6
I0706 10:05:32.652098 16458 net.cpp:457] relu6 <- fc6_clean
I0706 10:05:32.652109 16458 net.cpp:400] relu6 -> fc6_clean (in-place)
I0706 10:05:32.652127 16458 net.cpp:153] Setting up relu6
I0706 10:05:32.652132 16458 net.cpp:160] Top shape: 200 4096 (819200)
I0706 10:05:32.652137 16458 net.cpp:168] Memory required for data: 1649942400
I0706 10:05:32.652143 16458 layer_factory.hpp:76] Creating layer drop6
I0706 10:05:32.652161 16458 net.cpp:109] Creating Layer drop6
I0706 10:05:32.652166 16458 net.cpp:457] drop6 <- fc6_clean
I0706 10:05:32.652173 16458 net.cpp:400] drop6 -> fc6_clean (in-place)
I0706 10:05:32.652210 16458 net.cpp:153] Setting up drop6
I0706 10:05:32.652220 16458 net.cpp:160] Top shape: 200 4096 (819200)
I0706 10:05:32.652223 16458 net.cpp:168] Memory required for data: 1653219200
I0706 10:05:32.652228 16458 layer_factory.hpp:76] Creating layer fc7_clean
I0706 10:05:32.652240 16458 net.cpp:109] Creating Layer fc7_clean
I0706 10:05:32.652245 16458 net.cpp:457] fc7_clean <- fc6_clean
I0706 10:05:32.652253 16458 net.cpp:414] fc7_clean -> fc7_clean
I0706 10:05:33.332824 16458 net.cpp:153] Setting up fc7_clean
I0706 10:05:33.332862 16458 net.cpp:160] Top shape: 200 4096 (819200)
I0706 10:05:33.332867 16458 net.cpp:168] Memory required for data: 1656496000
I0706 10:05:33.332880 16458 layer_factory.hpp:76] Creating layer relu7
I0706 10:05:33.332895 16458 net.cpp:109] Creating Layer relu7
I0706 10:05:33.332902 16458 net.cpp:457] relu7 <- fc7_clean
I0706 10:05:33.332913 16458 net.cpp:400] relu7 -> fc7_clean (in-place)
I0706 10:05:33.332929 16458 net.cpp:153] Setting up relu7
I0706 10:05:33.332936 16458 net.cpp:160] Top shape: 200 4096 (819200)
I0706 10:05:33.332939 16458 net.cpp:168] Memory required for data: 1659772800
I0706 10:05:33.332944 16458 layer_factory.hpp:76] Creating layer drop7
I0706 10:05:33.332953 16458 net.cpp:109] Creating Layer drop7
I0706 10:05:33.332996 16458 net.cpp:457] drop7 <- fc7_clean
I0706 10:05:33.333004 16458 net.cpp:400] drop7 -> fc7_clean (in-place)
I0706 10:05:33.333042 16458 net.cpp:153] Setting up drop7
I0706 10:05:33.333050 16458 net.cpp:160] Top shape: 200 4096 (819200)
I0706 10:05:33.333055 16458 net.cpp:168] Memory required for data: 1663049600
I0706 10:05:33.333060 16458 layer_factory.hpp:76] Creating layer fc8_clean
I0706 10:05:33.333070 16458 net.cpp:109] Creating Layer fc8_clean
I0706 10:05:33.333076 16458 net.cpp:457] fc8_clean <- fc7_clean
I0706 10:05:33.333083 16458 net.cpp:414] fc8_clean -> fc8_clean
I0706 10:05:33.491355 16458 net.cpp:153] Setting up fc8_clean
I0706 10:05:33.491374 16458 net.cpp:160] Top shape: 200 967 (193400)
I0706 10:05:33.491379 16458 net.cpp:168] Memory required for data: 1663823200
I0706 10:05:33.491387 16458 layer_factory.hpp:76] Creating layer loss
I0706 10:05:33.491399 16458 net.cpp:109] Creating Layer loss
I0706 10:05:33.491403 16458 net.cpp:457] loss <- fc8_clean
I0706 10:05:33.491410 16458 net.cpp:457] loss <- label
I0706 10:05:33.491417 16458 net.cpp:414] loss -> loss
I0706 10:05:33.491430 16458 layer_factory.hpp:76] Creating layer loss
…
I0706 10:05:33.493305 16458 net.cpp:325] The NetState phase (1) differed from the phase (0) specified by a rule in layer train-data
I0706 10:05:33.493525 16458 net.cpp:52] Initializing net from parameters:
state {
phase: TEST
}
layer {
name: "val-data"
type: "Data"
top: "data"
top: "label"
include {
phase: TEST
}
transform_param {
crop_size: 227
mean_file: "/home/zml374/workspace/DIGITS/digits/jobs/20160704-085910-0cc9/mean.binaryproto"
}
data_param {
source: "/home/zml374/workspace/DIGITS/digits/jobs/20160704-085910-0cc9/val_db"
batch_size: 200
backend: LMDB
}
}
layer {
name: "conv1"
type: "Convolution"
bottom: "data"
top: "conv1"
param {
lr_mult: 0
decay_mult: 0
}
param {
lr_mult: 0
decay_mult: 0
}
convolution_param {
num_output: 96
kernel_size: 11
stride: 4
weight_filler {
type: "gaussian"
std: 0.01
}
bias_filler {
type: "constant"
value: 0
}
}
}
layer {
name: "relu1"
type: "ReLU"
bottom: "conv1"
top: "conv1"
}
layer {
name: "norm1"
type: "LRN"
bottom: "conv1"
top: "norm1"
lrn_param {
local_size: 5
alpha: 0.0001
beta: 0.75
}
}
layer {
name: "pool1"
type: "Pooling"
bottom: "norm1"
top: "pool1"
pooling_param {
pool: MAX
kernel_size: 3
stride: 2
}
}
layer {
name: "conv2"
type: "Convolution"
bottom: "pool1"
top: "conv2"
param {
lr_mult: 0
decay_mult: 0
}
param {
lr_mult: 0
decay_mult: 0
}
convolution_param {
num_output: 256
pad: 2
kernel_size: 5
group: 2
weight_filler {
type: "gaussian"
std: 0.01
}
bias_filler {
type: "constant"
value: 0.1
}
}
}
layer {
name: "relu2"
type: "ReLU"
bottom: "conv2"
top: "conv2"
}
layer {
name: "norm2"
type: "LRN"
bottom: "conv2"
top: "norm2"
lrn_param {
local_size: 5
alpha: 0.0001
beta: 0.75
}
}
layer {
name: "pool2"
type: "Pooling"
bottom: "norm2"
top: "pool2"
pooling_param {
pool: MAX
kernel_size: 3
stride: 2
}
}
layer {
name: "conv3_clean"
type: "Convolution"
bottom: "pool2"
top: "conv3_clean"
param {
lr_mult: 1
decay_mult: 1
}
param {
lr_mult: 2
decay_mult: 0
}
convolution_param {
num_output: 384
pad: 1
kernel_size: 3
weight_filler {
type: "gaussian"
std: 0.01
}
bias_filler {
type: "constant"
value: 0
}
}
}
layer {
name: "relu3"
type: "ReLU"
bottom: "conv3_clean"
top: "conv3_clean"
}
layer {
name: "conv4_clean"
type: "Convolution"
bottom: "conv3_clean"
top: "conv4_clean"
param {
lr_mult: 1
decay_mult: 1
}
param {
lr_mult: 2
decay_mult: 0
}
convolution_param {
num_output: 384
pad: 1
kernel_size: 3
group: 2
weight_filler {
type: "gaussian"
std: 0.01
}
bias_filler {
type: "constant"
value: 0.1
}
}
}
layer {
name: "relu4"
type: "ReLU"
bottom: "conv4_clean"
top: "conv4_clean"
}
layer {
name: "conv5_clean"
type: "Convolution"
bottom: "conv4_clean"
top: "conv5_clean"
param {
lr_mult: 1
decay_mult: 1
}
param {
lr_mult: 2
decay_mult: 0
}
convolution_param {
num_output: 256
pad: 1
kernel_size: 3
group: 2
weight_filler {
type: "gaussian"
std: 0.01
}
bias_filler {
type: "constant"
value: 0.1
}
}
}
layer {
name: "relu5"
type: "ReLU"
bottom: "conv5_clean"
top: "conv5_clean"
}
layer {
name: "pool5"
type: "Pooling"
bottom: "conv5_clean"
top: "pool5"
pooling_param {
pool: MAX
kernel_size: 3
stride: 2
}
}
layer {
name: "fc6_clean"
type: "InnerProduct"
bottom: "pool5"
top: "fc6_clean"
param {
lr_mult: 1
decay_mult: 1
}
param {
lr_mult: 2
decay_mult: 0
}
inner_product_param {
num_output: 4096
weight_filler {
type: "gaussian"
std: 0.005
}
bias_filler {
type: "constant"
value: 0.1
}
}
}
layer {
name: "relu6"
type: "ReLU"
bottom: "fc6_clean"
top: "fc6_clean"
}
layer {
name: "drop6"
type: "Dropout"
bottom: "fc6_clean"
top: "fc6_clean"
dropout_param {
dropout_ratio: 0.5
}
}
layer {
name: "fc7_clean"
type: "InnerProduct"
bottom: "fc6_clean"
top: "fc7_clean"
param {
lr_mult: 1
decay_mult: 1
}
param {
lr_mult: 2
decay_mult: 0
}
inner_product_param {
num_output: 4096
weight_filler {
type: "gaussian"
std: 0.005
}
bias_filler {
type: "constant"
value: 0.1
}
}
}
layer {
name: "relu7"
type: "ReLU"
bottom: "fc7_clean"
top: "fc7_clean"
}
layer {
name: "drop7"
type: "Dropout"
bottom: "fc7_clean"
top: "fc7_clean"
dropout_param {
dropout_ratio: 0.5
}
}
layer {
name: "fc8_clean"
type: "InnerProduct"
bottom: "fc7_clean"
top: "fc8_clean"
param {
lr_mult: 1
decay_mult: 1
}
param {
lr_mult: 2
decay_mult: 0
}
inner_product_param {
num_output: 967
weight_filler {
type: "gaussian"
std: 0.01
}
bias_filler {
type: "constant"
value: 0
}
}
}
layer {
name: "accuracy"
type: "Accuracy"
bottom: "fc8_clean"
bottom: "label"
top: "accuracy"
include {
phase: TEST
}
}
layer {
name: "loss"
type: "SoftmaxWithLoss"
bottom: "fc8_clean"
bottom: "label"
top: "loss"
}
I0706 10:05:33.493671 16458 layer_factory.hpp:76] Creating layer val-data
I0706 10:05:33.493896 16458 net.cpp:109] Creating Layer val-data
I0706 10:05:33.493909 16458 net.cpp:414] val-data -> data
I0706 10:05:33.493921 16458 net.cpp:414] val-data -> label
I0706 10:05:33.493932 16458 data_transformer.cpp:25] Loading mean file from: /home/zml374/workspace/DIGITS/digits/jobs/20160704-085910-0cc9/mean.binaryproto
I0706 10:05:33.495487 16488 db_lmdb.cpp:36] Opened lmdb /home/zml374/workspace/DIGITS/digits/jobs/20160704-085910-0cc9/val_db
I0706 10:05:33.500288 16458 data_layer.cpp:45] output data size: 200,3,227,227
I0706 10:05:33.802520 16458 net.cpp:153] Setting up val-data
I0706 10:05:33.802566 16458 net.cpp:160] Top shape: 200 3 227 227 (30917400)
I0706 10:05:33.802573 16458 net.cpp:160] Top shape: 200 (200)
I0706 10:05:33.802578 16458 net.cpp:168] Memory required for data: 123670400
I0706 10:05:33.802587 16458 layer_factory.hpp:76] Creating layer label_val-data_1_split
I0706 10:05:33.802614 16458 net.cpp:109] Creating Layer label_val-data_1_split
I0706 10:05:33.802620 16458 net.cpp:457] label_val-data_1_split <- label
I0706 10:05:33.802633 16458 net.cpp:414] label_val-data_1_split -> label_val-data_1_split_0
I0706 10:05:33.802645 16458 net.cpp:414] label_val-data_1_split -> label_val-data_1_split_1
I0706 10:05:33.802814 16458 net.cpp:153] Setting up label_val-data_1_split
I0706 10:05:33.802826 16458 net.cpp:160] Top shape: 200 (200)
I0706 10:05:33.802834 16458 net.cpp:160] Top shape: 200 (200)
I0706 10:05:33.802837 16458 net.cpp:168] Memory required for data: 123672000
I0706 10:05:33.802842 16458 layer_factory.hpp:76] Creating layer conv1
I0706 10:05:33.802860 16458 net.cpp:109] Creating Layer conv1
I0706 10:05:33.802865 16458 net.cpp:457] conv1 <- data
I0706 10:05:33.802875 16458 net.cpp:414] conv1 -> conv1
I0706 10:05:33.804636 16458 net.cpp:153] Setting up conv1
I0706 10:05:33.804652 16458 net.cpp:160] Top shape: 200 96 55 55 (58080000)
I0706 10:05:33.804657 16458 net.cpp:168] Memory required for data: 355992000
I0706 10:05:33.804672 16458 layer_factory.hpp:76] Creating layer relu1
I0706 10:05:33.804683 16458 net.cpp:109] Creating Layer relu1
I0706 10:05:33.804689 16458 net.cpp:457] relu1 <- conv1
I0706 10:05:33.804697 16458 net.cpp:400] relu1 -> conv1 (in-place)
I0706 10:05:33.804708 16458 net.cpp:153] Setting up relu1
I0706 10:05:33.804714 16458 net.cpp:160] Top shape: 200 96 55 55 (58080000)
I0706 10:05:33.804719 16458 net.cpp:168] Memory required for data: 588312000
I0706 10:05:33.804724 16458 layer_factory.hpp:76] Creating layer norm1
I0706 10:05:33.804738 16458 net.cpp:109] Creating Layer norm1
I0706 10:05:33.804741 16458 net.cpp:457] norm1 <- conv1
I0706 10:05:33.804749 16458 net.cpp:414] norm1 -> norm1
I0706 10:05:33.805047 16458 net.cpp:153] Setting up norm1
I0706 10:05:33.805059 16458 net.cpp:160] Top shape: 200 96 55 55 (58080000)
I0706 10:05:33.805064 16458 net.cpp:168] Memory required for data: 820632000
I0706 10:05:33.805069 16458 layer_factory.hpp:76] Creating layer pool1
I0706 10:05:33.805080 16458 net.cpp:109] Creating Layer pool1
I0706 10:05:33.805085 16458 net.cpp:457] pool1 <- norm1
I0706 10:05:33.805136 16458 net.cpp:414] pool1 -> pool1
I0706 10:05:33.805249 16458 net.cpp:153] Setting up pool1
I0706 10:05:33.805261 16458 net.cpp:160] Top shape: 200 96 27 27 (13996800)
I0706 10:05:33.805266 16458 net.cpp:168] Memory required for data: 876619200
I0706 10:05:33.805271 16458 layer_factory.hpp:76] Creating layer conv2
I0706 10:05:33.805284 16458 net.cpp:109] Creating Layer conv2
I0706 10:05:33.805289 16458 net.cpp:457] conv2 <- pool1
I0706 10:05:33.805297 16458 net.cpp:414] conv2 -> conv2
I0706 10:05:33.824458 16458 net.cpp:153] Setting up conv2
I0706 10:05:33.824473 16458 net.cpp:160] Top shape: 200 256 27 27 (37324800)
I0706 10:05:33.824478 16458 net.cpp:168] Memory required for data: 1025918400
I0706 10:05:33.824491 16458 layer_factory.hpp:76] Creating layer relu2
I0706 10:05:33.824499 16458 net.cpp:109] Creating Layer relu2
I0706 10:05:33.824506 16458 net.cpp:457] relu2 <- conv2
I0706 10:05:33.824512 16458 net.cpp:400] relu2 -> conv2 (in-place)
I0706 10:05:33.824522 16458 net.cpp:153] Setting up relu2
I0706 10:05:33.824527 16458 net.cpp:160] Top shape: 200 256 27 27 (37324800)
I0706 10:05:33.824532 16458 net.cpp:168] Memory required for data: 1175217600
I0706 10:05:33.824537 16458 layer_factory.hpp:76] Creating layer norm2
I0706 10:05:33.824545 16458 net.cpp:109] Creating Layer norm2
I0706 10:05:33.824550 16458 net.cpp:457] norm2 <- conv2
I0706 10:05:33.824558 16458 net.cpp:414] norm2 -> norm2
I0706 10:05:33.824606 16458 net.cpp:153] Setting up norm2
I0706 10:05:33.824615 16458 net.cpp:160] Top shape: 200 256 27 27 (37324800)
I0706 10:05:33.824621 16458 net.cpp:168] Memory required for data: 1324516800
I0706 10:05:33.824626 16458 layer_factory.hpp:76] Creating layer pool2
I0706 10:05:33.824635 16458 net.cpp:109] Creating Layer pool2
I0706 10:05:33.824640 16458 net.cpp:457] pool2 <- norm2
I0706 10:05:33.824646 16458 net.cpp:414] pool2 -> pool2
I0706 10:05:33.824688 16458 net.cpp:153] Setting up pool2
I0706 10:05:33.824697 16458 net.cpp:160] Top shape: 200 256 13 13 (8652800)
I0706 10:05:33.824702 16458 net.cpp:168] Memory required for data: 1359128000
I0706 10:05:33.824707 16458 layer_factory.hpp:76] Creating layer conv3_clean
I0706 10:05:33.824717 16458 net.cpp:109] Creating Layer conv3_clean
I0706 10:05:33.824722 16458 net.cpp:457] conv3_clean <- pool2
I0706 10:05:33.824730 16458 net.cpp:414] conv3_clean -> conv3_clean
I0706 10:05:33.858263 16458 net.cpp:153] Setting up conv3_clean
I0706 10:05:33.858278 16458 net.cpp:160] Top shape: 200 384 13 13 (12979200)
I0706 10:05:33.858283 16458 net.cpp:168] Memory required for data: 1411044800
I0706 10:05:33.858295 16458 layer_factory.hpp:76] Creating layer relu3
I0706 10:05:33.858304 16458 net.cpp:109] Creating Layer relu3
I0706 10:05:33.858309 16458 net.cpp:457] relu3 <- conv3_clean
I0706 10:05:33.858316 16458 net.cpp:400] relu3 -> conv3_clean (in-place)
I0706 10:05:33.858325 16458 net.cpp:153] Setting up relu3
I0706 10:05:33.858331 16458 net.cpp:160] Top shape: 200 384 13 13 (12979200)
I0706 10:05:33.858335 16458 net.cpp:168] Memory required for data: 1462961600
I0706 10:05:33.858340 16458 layer_factory.hpp:76] Creating layer conv4_clean
I0706 10:05:33.858350 16458 net.cpp:109] Creating Layer conv4_clean
I0706 10:05:33.858353 16458 net.cpp:457] conv4_clean <- conv3_clean
I0706 10:05:33.858362 16458 net.cpp:414] conv4_clean -> conv4_clean
I0706 10:05:33.883508 16458 net.cpp:153] Setting up conv4_clean
I0706 10:05:33.883524 16458 net.cpp:160] Top shape: 200 384 13 13 (12979200)
I0706 10:05:33.883528 16458 net.cpp:168] Memory required for data: 1514878400
I0706 10:05:33.883538 16458 layer_factory.hpp:76] Creating layer relu4
I0706 10:05:33.883545 16458 net.cpp:109] Creating Layer relu4
I0706 10:05:33.883550 16458 net.cpp:457] relu4 <- conv4_clean
I0706 10:05:33.883558 16458 net.cpp:400] relu4 -> conv4_clean (in-place)
I0706 10:05:33.883566 16458 net.cpp:153] Setting up relu4
I0706 10:05:33.883572 16458 net.cpp:160] Top shape: 200 384 13 13 (12979200)
I0706 10:05:33.883576 16458 net.cpp:168] Memory required for data: 1566795200
I0706 10:05:33.883580 16458 layer_factory.hpp:76] Creating layer conv5_clean
I0706 10:05:33.883607 16458 net.cpp:109] Creating Layer conv5_clean
I0706 10:05:33.883612 16458 net.cpp:457] conv5_clean <- conv4_clean
I0706 10:05:33.883620 16458 net.cpp:414] conv5_clean -> conv5_clean
I0706 10:05:33.900691 16458 net.cpp:153] Setting up conv5_clean
I0706 10:05:33.900706 16458 net.cpp:160] Top shape: 200 256 13 13 (8652800)
I0706 10:05:33.900710 16458 net.cpp:168] Memory required for data: 1601406400
I0706 10:05:33.900722 16458 layer_factory.hpp:76] Creating layer relu5
I0706 10:05:33.900732 16458 net.cpp:109] Creating Layer relu5
I0706 10:05:33.900737 16458 net.cpp:457] relu5 <- conv5_clean
I0706 10:05:33.900743 16458 net.cpp:400] relu5 -> conv5_clean (in-place)
I0706 10:05:33.900753 16458 net.cpp:153] Setting up relu5
I0706 10:05:33.900758 16458 net.cpp:160] Top shape: 200 256 13 13 (8652800)
I0706 10:05:33.900763 16458 net.cpp:168] Memory required for data: 1636017600
I0706 10:05:33.900766 16458 layer_factory.hpp:76] Creating layer pool5
I0706 10:05:33.900777 16458 net.cpp:109] Creating Layer pool5
I0706 10:05:33.900781 16458 net.cpp:457] pool5 <- conv5_clean
I0706 10:05:33.900789 16458 net.cpp:414] pool5 -> pool5
I0706 10:05:33.900835 16458 net.cpp:153] Setting up pool5
I0706 10:05:33.900843 16458 net.cpp:160] Top shape: 200 256 6 6 (1843200)
I0706 10:05:33.900847 16458 net.cpp:168] Memory required for data: 1643390400
I0706 10:05:33.900852 16458 layer_factory.hpp:76] Creating layer fc6_clean
I0706 10:05:33.900863 16458 net.cpp:109] Creating Layer fc6_clean
I0706 10:05:33.900867 16458 net.cpp:457] fc6_clean <- pool5
I0706 10:05:33.900876 16458 net.cpp:414] fc6_clean -> fc6_clean
I0706 10:05:35.338999 16458 net.cpp:153] Setting up fc6_clean
I0706 10:05:35.339036 16458 net.cpp:160] Top shape: 200 4096 (819200)
I0706 10:05:35.339042 16458 net.cpp:168] Memory required for data: 1646667200
I0706 10:05:35.339054 16458 layer_factory.hpp:76] Creating layer relu6
I0706 10:05:35.339069 16458 net.cpp:109] Creating Layer relu6
I0706 10:05:35.339076 16458 net.cpp:457] relu6 <- fc6_clean
I0706 10:05:35.339087 16458 net.cpp:400] relu6 -> fc6_clean (in-place)
I0706 10:05:35.339102 16458 net.cpp:153] Setting up relu6
I0706 10:05:35.339108 16458 net.cpp:160] Top shape: 200 4096 (819200)
I0706 10:05:35.339113 16458 net.cpp:168] Memory required for data: 1649944000
I0706 10:05:35.339118 16458 layer_factory.hpp:76] Creating layer drop6
I0706 10:05:35.339126 16458 net.cpp:109] Creating Layer drop6
I0706 10:05:35.339131 16458 net.cpp:457] drop6 <- fc6_clean
I0706 10:05:35.339138 16458 net.cpp:400] drop6 -> fc6_clean (in-place)
I0706 10:05:35.339174 16458 net.cpp:153] Setting up drop6
I0706 10:05:35.339184 16458 net.cpp:160] Top shape: 200 4096 (819200)
I0706 10:05:35.339187 16458 net.cpp:168] Memory required for data: 1653220800
I0706 10:05:35.339192 16458 layer_factory.hpp:76] Creating layer fc7_clean
I0706 10:05:35.339205 16458 net.cpp:109] Creating Layer fc7_clean
I0706 10:05:35.339210 16458 net.cpp:457] fc7_clean <- fc6_clean
I0706 10:05:35.339226 16458 net.cpp:414] fc7_clean -> fc7_clean
I0706 10:05:35.977268 16458 net.cpp:153] Setting up fc7_clean
I0706 10:05:35.977304 16458 net.cpp:160] Top shape: 200 4096 (819200)
I0706 10:05:35.977309 16458 net.cpp:168] Memory required for data: 1656497600
I0706 10:05:35.977322 16458 layer_factory.hpp:76] Creating layer relu7
I0706 10:05:35.977337 16458 net.cpp:109] Creating Layer relu7
I0706 10:05:35.977347 16458 net.cpp:457] relu7 <- fc7_clean
I0706 10:05:35.977360 16458 net.cpp:400] relu7 -> fc7_clean (in-place)
I0706 10:05:35.977375 16458 net.cpp:153] Setting up relu7
I0706 10:05:35.977381 16458 net.cpp:160] Top shape: 200 4096 (819200)
I0706 10:05:35.977386 16458 net.cpp:168] Memory required for data: 1659774400
I0706 10:05:35.977391 16458 layer_factory.hpp:76] Creating layer drop7
I0706 10:05:35.977401 16458 net.cpp:109] Creating Layer drop7
I0706 10:05:35.977406 16458 net.cpp:457] drop7 <- fc7_clean
I0706 10:05:35.977413 16458 net.cpp:400] drop7 -> fc7_clean (in-place)
I0706 10:05:35.977454 16458 net.cpp:153] Setting up drop7
I0706 10:05:35.977496 16458 net.cpp:160] Top shape: 200 4096 (819200)
I0706 10:05:35.977502 16458 net.cpp:168] Memory required for data: 1663051200
I0706 10:05:35.977507 16458 layer_factory.hpp:76] Creating layer fc8_clean
I0706 10:05:35.977519 16458 net.cpp:109] Creating Layer fc8_clean
I0706 10:05:35.977524 16458 net.cpp:457] fc8_clean <- fc7_clean
I0706 10:05:35.977532 16458 net.cpp:414] fc8_clean -> fc8_clean
I0706 10:05:36.125849 16458 net.cpp:153] Setting up fc8_clean
I0706 10:05:36.125877 16458 net.cpp:160] Top shape: 200 967 (193400)
I0706 10:05:36.125882 16458 net.cpp:168] Memory required for data: 1663824800
I0706 10:05:36.125895 16458 layer_factory.hpp:76] Creating layer fc8_clean_fc8_clean_0_split
I0706 10:05:36.125905 16458 net.cpp:109] Creating Layer fc8_clean_fc8_clean_0_split
I0706 10:05:36.125912 16458 net.cpp:457] fc8_clean_fc8_clean_0_split <- fc8_clean
I0706 10:05:36.125922 16458 net.cpp:414] fc8_clean_fc8_clean_0_split -> fc8_clean_fc8_clean_0_split_0
I0706 10:05:36.125932 16458 net.cpp:414] fc8_clean_fc8_clean_0_split -> fc8_clean_fc8_clean_0_split_1
I0706 10:05:36.125985 16458 net.cpp:153] Setting up fc8_clean_fc8_clean_0_split
I0706 10:05:36.125994 16458 net.cpp:160] Top shape: 200 967 (193400)
I0706 10:05:36.126000 16458 net.cpp:160] Top shape: 200 967 (193400)
I0706 10:05:36.126004 16458 net.cpp:168] Memory required for data: 1665372000
I0706 10:05:36.126009 16458 layer_factory.hpp:76] Creating layer accuracy
I0706 10:05:36.126019 16458 net.cpp:109] Creating Layer accuracy
I0706 10:05:36.126024 16458 net.cpp:457] accuracy <- fc8_clean_fc8_clean_0_split_0
I0706 10:05:36.126029 16458 net.cpp:457] accuracy <- label_val-data_1_split_0
I0706 10:05:36.126037 16458 net.cpp:414] accuracy -> accuracy
…
