…
I0708 00:31:24.946337 24447 net.cpp:325] The NetState phase (0) differed from the phase (1) specified by a rule in layer accuracy
I0708 00:31:24.946436 24447 net.cpp:52] Initializing net from parameters:
state {
phase: TRAIN
}
layer {
name: "train-data"
type: "Data"
top: "data"
top: "label"
include {
phase: TRAIN
}
transform_param {
mirror: true
crop_size: 227
mean_file: "/home/ffw/scratch/digits/jobs/20160624-120053-bb9a/mean.binaryproto"
}
data_param {
source: "/home/ffw/scratch/digits/jobs/20160624-120053-bb9a/train_db"
batch_size: 128
backend: LMDB
}
}
layer {
name: "conv1"
type: "Convolution"
bottom: "data"
top: "conv1"
param {
lr_mult: 0
decay_mult: 0
}
param {
lr_mult: 0
decay_mult: 0
}
convolution_param {
num_output: 96
kernel_size: 11
stride: 4
weight_filler {
type: "gaussian"
std: 0.01
}
bias_filler {
type: "constant"
value: 0
}
}
}
layer {
name: "relu1"
type: "ReLU"
bottom: "conv1"
top: "conv1"
}
layer {
name: "norm1"
type: "LRN"
bottom: "conv1"
top: "norm1"
lrn_param {
local_size: 5
alpha: 0.0001
beta: 0.75
}
}
layer {
name: "pool1"
type: "Pooling"
bottom: "norm1"
top: "pool1"
pooling_param {
pool: MAX
kernel_size: 3
stride: 2
}
}
layer {
name: "conv2"
type: "Convolution"
bottom: "pool1"
top: "conv2"
param {
lr_mult: 0
decay_mult: 0
}
param {
lr_mult: 0
decay_mult: 0
}
convolution_param {
num_output: 256
pad: 2
kernel_size: 5
group: 2
weight_filler {
type: "gaussian"
std: 0.01
}
bias_filler {
type: "constant"
value: 0.1
}
}
}
layer {
name: "relu2"
type: "ReLU"
bottom: "conv2"
top: "conv2"
}
layer {
name: "norm2"
type: "LRN"
bottom: "conv2"
top: "norm2"
lrn_param {
local_size: 5
alpha: 0.0001
beta: 0.75
}
}
layer {
name: "pool2"
type: "Pooling"
bottom: "norm2"
top: "pool2"
pooling_param {
pool: MAX
kernel_size: 3
stride: 2
}
}
layer {
name: "conv3"
type: "Convolution"
bottom: "pool2"
top: "conv3"
param {
lr_mult: 0
decay_mult: 0
}
param {
lr_mult: 0
decay_mult: 0
}
convolution_param {
num_output: 384
pad: 1
kernel_size: 3
weight_filler {
type: "gaussian"
std: 0.01
}
bias_filler {
type: "constant"
value: 0
}
}
}
layer {
name: "relu3"
type: "ReLU"
bottom: "conv3"
top: "conv3"
}
layer {
name: "conv4"
type: "Convolution"
bottom: "conv3"
top: "conv4"
param {
lr_mult: 0
decay_mult: 0
}
param {
lr_mult: 0
decay_mult: 0
}
convolution_param {
num_output: 384
pad: 1
kernel_size: 3
group: 2
weight_filler {
type: "gaussian"
std: 0.01
}
bias_filler {
type: "constant"
value: 0.1
}
}
}
layer {
name: "relu4"
type: "ReLU"
bottom: "conv4"
top: "conv4"
}
layer {
name: "conv5"
type: "Convolution"
bottom: "conv4"
top: "conv5"
param {
lr_mult: 0
decay_mult: 0
}
param {
lr_mult: 0
decay_mult: 0
}
convolution_param {
num_output: 256
pad: 1
kernel_size: 3
group: 2
weight_filler {
type: "gaussian"
std: 0.01
}
bias_filler {
type: "constant"
value: 0.1
}
}
}
layer {
name: "relu5"
type: "ReLU"
bottom: "conv5"
top: "conv5"
}
layer {
name: "pool5"
type: "Pooling"
bottom: "conv5"
top: "pool5"
pooling_param {
pool: MAX
kernel_size: 3
stride: 2
}
}
layer {
name: "fc6"
type: "InnerProduct"
bottom: "pool5"
top: "fc6"
param {
lr_mult: 0
decay_mult: 0
}
param {
lr_mult: 0
decay_mult: 0
}
inner_product_param {
num_output: 4096
weight_filler {
type: "gaussian"
std: 0.005
}
bias_filler {
type: "constant"
value: 0.1
}
}
}
layer {
name: "relu6"
type: "ReLU"
bottom: "fc6"
top: "fc6"
}
layer {
name: "drop6"
type: "Dropout"
bottom: "fc6"
top: "fc6"
dropout_param {
dropout_ratio: 0.5
}
}
layer {
name: "fc7"
type: "InnerProduct"
bottom: "fc6"
top: "fc7"
param {
lr_mult: 0
decay_mult: 0
}
param {
lr_mult: 0
decay_mult: 0
}
inner_product_param {
num_output: 4096
weight_filler {
type: "gaussian"
std: 0.005
}
bias_filler {
type: "constant"
value: 0.1
}
}
}
layer {
name: "relu7"
type: "ReLU"
bottom: "fc7"
top: "fc7"
}
layer {
name: "drop7"
type: "Dropout"
bottom: "fc7"
top: "fc7"
dropout_param {
dropout_ratio: 0.5
}
}
layer {
name: "fc8_clean"
type: "InnerProduct"
bottom: "fc7"
top: "fc8_clean"
param {
lr_mult: 1
decay_mult: 1
}
param {
lr_mult: 2
decay_mult: 0
}
inner_product_param {
num_output: 967
weight_filler {
type: "gaussian"
std: 0.01
}
bias_filler {
type: "constant"
value: 0
}
}
}
layer {
name: "loss"
type: "SoftmaxWithLoss"
bottom: "fc8_clean"
bottom: "label"
top: "loss"
}
I0708 00:31:24.946501 24447 layer_factory.hpp:76] Creating layer train-data
I0708 00:31:24.946594 24447 net.cpp:109] Creating Layer train-data
I0708 00:31:24.946599 24447 net.cpp:414] train-data -> data
I0708 00:31:24.946609 24447 net.cpp:414] train-data -> label
I0708 00:31:24.946614 24447 data_transformer.cpp:25] Loading mean file from: /home/ffw/scratch/digits/jobs/20160624-120053-bb9a/mean.binaryproto
I0708 00:31:24.950260 24459 db_lmdb.cpp:36] Opened lmdb /home/ffw/scratch/digits/jobs/20160624-120053-bb9a/train_db
I0708 00:31:24.956181 24447 data_layer.cpp:45] output data size: 128,3,227,227
I0708 00:31:25.042346 24447 net.cpp:153] Setting up train-data
I0708 00:31:25.042374 24447 net.cpp:160] Top shape: 128 3 227 227 (19787136)
I0708 00:31:25.042382 24447 net.cpp:160] Top shape: 128 (128)
I0708 00:31:25.042385 24447 net.cpp:168] Memory required for data: 79149056
I0708 00:31:25.042392 24447 layer_factory.hpp:76] Creating layer conv1
I0708 00:31:25.042410 24447 net.cpp:109] Creating Layer conv1
I0708 00:31:25.042413 24447 net.cpp:457] conv1 <- data
I0708 00:31:25.042420 24447 net.cpp:414] conv1 -> conv1
I0708 00:31:25.044020 24447 net.cpp:153] Setting up conv1
I0708 00:31:25.044028 24447 net.cpp:160] Top shape: 128 96 55 55 (37171200)
I0708 00:31:25.044030 24447 net.cpp:168] Memory required for data: 227833856
I0708 00:31:25.044039 24447 layer_factory.hpp:76] Creating layer relu1
I0708 00:31:25.044044 24447 net.cpp:109] Creating Layer relu1
I0708 00:31:25.044046 24447 net.cpp:457] relu1 <- conv1
I0708 00:31:25.044049 24447 net.cpp:400] relu1 -> conv1 (in-place)
I0708 00:31:25.044060 24447 net.cpp:153] Setting up relu1
I0708 00:31:25.044064 24447 net.cpp:160] Top shape: 128 96 55 55 (37171200)
I0708 00:31:25.044064 24447 net.cpp:168] Memory required for data: 376518656
I0708 00:31:25.044066 24447 layer_factory.hpp:76] Creating layer norm1
I0708 00:31:25.044070 24447 net.cpp:109] Creating Layer norm1
I0708 00:31:25.044072 24447 net.cpp:457] norm1 <- conv1
I0708 00:31:25.044076 24447 net.cpp:414] norm1 -> norm1
I0708 00:31:25.044118 24447 net.cpp:153] Setting up norm1
I0708 00:31:25.044124 24447 net.cpp:160] Top shape: 128 96 55 55 (37171200)
I0708 00:31:25.044126 24447 net.cpp:168] Memory required for data: 525203456
I0708 00:31:25.044128 24447 layer_factory.hpp:76] Creating layer pool1
I0708 00:31:25.044133 24447 net.cpp:109] Creating Layer pool1
I0708 00:31:25.044137 24447 net.cpp:457] pool1 <- norm1
I0708 00:31:25.044162 24447 net.cpp:414] pool1 -> pool1
I0708 00:31:25.044191 24447 net.cpp:153] Setting up pool1
I0708 00:31:25.044205 24447 net.cpp:160] Top shape: 128 96 27 27 (8957952)
I0708 00:31:25.044208 24447 net.cpp:168] Memory required for data: 561035264
I0708 00:31:25.044209 24447 layer_factory.hpp:76] Creating layer conv2
I0708 00:31:25.044214 24447 net.cpp:109] Creating Layer conv2
I0708 00:31:25.044215 24447 net.cpp:457] conv2 <- pool1
I0708 00:31:25.044219 24447 net.cpp:414] conv2 -> conv2
I0708 00:31:25.053372 24447 net.cpp:153] Setting up conv2
I0708 00:31:25.053386 24447 net.cpp:160] Top shape: 128 256 27 27 (23887872)
I0708 00:31:25.053388 24447 net.cpp:168] Memory required for data: 656586752
I0708 00:31:25.053401 24447 layer_factory.hpp:76] Creating layer relu2
I0708 00:31:25.053412 24447 net.cpp:109] Creating Layer relu2
I0708 00:31:25.053417 24447 net.cpp:457] relu2 <- conv2
I0708 00:31:25.053423 24447 net.cpp:400] relu2 -> conv2 (in-place)
I0708 00:31:25.053432 24447 net.cpp:153] Setting up relu2
I0708 00:31:25.053437 24447 net.cpp:160] Top shape: 128 256 27 27 (23887872)
I0708 00:31:25.053439 24447 net.cpp:168] Memory required for data: 752138240
I0708 00:31:25.053442 24447 layer_factory.hpp:76] Creating layer norm2
I0708 00:31:25.053447 24447 net.cpp:109] Creating Layer norm2
I0708 00:31:25.053449 24447 net.cpp:457] norm2 <- conv2
I0708 00:31:25.053452 24447 net.cpp:414] norm2 -> norm2
I0708 00:31:25.053488 24447 net.cpp:153] Setting up norm2
I0708 00:31:25.053491 24447 net.cpp:160] Top shape: 128 256 27 27 (23887872)
I0708 00:31:25.053493 24447 net.cpp:168] Memory required for data: 847689728
I0708 00:31:25.053495 24447 layer_factory.hpp:76] Creating layer pool2
I0708 00:31:25.053499 24447 net.cpp:109] Creating Layer pool2
I0708 00:31:25.053501 24447 net.cpp:457] pool2 <- norm2
I0708 00:31:25.053504 24447 net.cpp:414] pool2 -> pool2
I0708 00:31:25.053522 24447 net.cpp:153] Setting up pool2
I0708 00:31:25.053524 24447 net.cpp:160] Top shape: 128 256 13 13 (5537792)
I0708 00:31:25.053526 24447 net.cpp:168] Memory required for data: 869840896
I0708 00:31:25.053529 24447 layer_factory.hpp:76] Creating layer conv3
I0708 00:31:25.053532 24447 net.cpp:109] Creating Layer conv3
I0708 00:31:25.053534 24447 net.cpp:457] conv3 <- pool2
I0708 00:31:25.053539 24447 net.cpp:414] conv3 -> conv3
I0708 00:31:25.073210 24447 net.cpp:153] Setting up conv3
I0708 00:31:25.073225 24447 net.cpp:160] Top shape: 128 384 13 13 (8306688)
I0708 00:31:25.073230 24447 net.cpp:168] Memory required for data: 903067648
I0708 00:31:25.073240 24447 layer_factory.hpp:76] Creating layer relu3
I0708 00:31:25.073251 24447 net.cpp:109] Creating Layer relu3
I0708 00:31:25.073256 24447 net.cpp:457] relu3 <- conv3
I0708 00:31:25.073262 24447 net.cpp:400] relu3 -> conv3 (in-place)
I0708 00:31:25.073271 24447 net.cpp:153] Setting up relu3
I0708 00:31:25.073277 24447 net.cpp:160] Top shape: 128 384 13 13 (8306688)
I0708 00:31:25.073281 24447 net.cpp:168] Memory required for data: 936294400
I0708 00:31:25.073283 24447 layer_factory.hpp:76] Creating layer conv4
I0708 00:31:25.073293 24447 net.cpp:109] Creating Layer conv4
I0708 00:31:25.073297 24447 net.cpp:457] conv4 <- conv3
I0708 00:31:25.073302 24447 net.cpp:414] conv4 -> conv4
I0708 00:31:25.087790 24447 net.cpp:153] Setting up conv4
I0708 00:31:25.087806 24447 net.cpp:160] Top shape: 128 384 13 13 (8306688)
I0708 00:31:25.087810 24447 net.cpp:168] Memory required for data: 969521152
I0708 00:31:25.087815 24447 layer_factory.hpp:76] Creating layer relu4
I0708 00:31:25.087821 24447 net.cpp:109] Creating Layer relu4
I0708 00:31:25.087823 24447 net.cpp:457] relu4 <- conv4
I0708 00:31:25.087827 24447 net.cpp:400] relu4 -> conv4 (in-place)
I0708 00:31:25.087833 24447 net.cpp:153] Setting up relu4
I0708 00:31:25.087836 24447 net.cpp:160] Top shape: 128 384 13 13 (8306688)
I0708 00:31:25.087838 24447 net.cpp:168] Memory required for data: 1002747904
I0708 00:31:25.087841 24447 layer_factory.hpp:76] Creating layer conv5
I0708 00:31:25.087846 24447 net.cpp:109] Creating Layer conv5
I0708 00:31:25.087865 24447 net.cpp:457] conv5 <- conv4
I0708 00:31:25.087873 24447 net.cpp:414] conv5 -> conv5
I0708 00:31:25.097410 24447 net.cpp:153] Setting up conv5
I0708 00:31:25.097430 24447 net.cpp:160] Top shape: 128 256 13 13 (5537792)
I0708 00:31:25.097434 24447 net.cpp:168] Memory required for data: 1024899072
I0708 00:31:25.097450 24447 layer_factory.hpp:76] Creating layer relu5
I0708 00:31:25.097462 24447 net.cpp:109] Creating Layer relu5
I0708 00:31:25.097468 24447 net.cpp:457] relu5 <- conv5
I0708 00:31:25.097478 24447 net.cpp:400] relu5 -> conv5 (in-place)
I0708 00:31:25.097488 24447 net.cpp:153] Setting up relu5
I0708 00:31:25.097492 24447 net.cpp:160] Top shape: 128 256 13 13 (5537792)
I0708 00:31:25.097496 24447 net.cpp:168] Memory required for data: 1047050240
I0708 00:31:25.097499 24447 layer_factory.hpp:76] Creating layer pool5
I0708 00:31:25.097506 24447 net.cpp:109] Creating Layer pool5
I0708 00:31:25.097508 24447 net.cpp:457] pool5 <- conv5
I0708 00:31:25.097513 24447 net.cpp:414] pool5 -> pool5
I0708 00:31:25.097553 24447 net.cpp:153] Setting up pool5
I0708 00:31:25.097555 24447 net.cpp:160] Top shape: 128 256 6 6 (1179648)
I0708 00:31:25.097558 24447 net.cpp:168] Memory required for data: 1051768832
I0708 00:31:25.097559 24447 layer_factory.hpp:76] Creating layer fc6
I0708 00:31:25.097565 24447 net.cpp:109] Creating Layer fc6
I0708 00:31:25.097568 24447 net.cpp:457] fc6 <- pool5
I0708 00:31:25.097570 24447 net.cpp:414] fc6 -> fc6
I0708 00:31:25.795276 24447 net.cpp:153] Setting up fc6
I0708 00:31:25.795295 24447 net.cpp:160] Top shape: 128 4096 (524288)
I0708 00:31:25.795297 24447 net.cpp:168] Memory required for data: 1053865984
I0708 00:31:25.795302 24447 layer_factory.hpp:76] Creating layer relu6
I0708 00:31:25.795308 24447 net.cpp:109] Creating Layer relu6
I0708 00:31:25.795310 24447 net.cpp:457] relu6 <- fc6
I0708 00:31:25.795315 24447 net.cpp:400] relu6 -> fc6 (in-place)
I0708 00:31:25.795320 24447 net.cpp:153] Setting up relu6
I0708 00:31:25.795322 24447 net.cpp:160] Top shape: 128 4096 (524288)
I0708 00:31:25.795325 24447 net.cpp:168] Memory required for data: 1055963136
I0708 00:31:25.795325 24447 layer_factory.hpp:76] Creating layer drop6
I0708 00:31:25.795334 24447 net.cpp:109] Creating Layer drop6
I0708 00:31:25.795336 24447 net.cpp:457] drop6 <- fc6
I0708 00:31:25.795338 24447 net.cpp:400] drop6 -> fc6 (in-place)
I0708 00:31:25.795348 24447 net.cpp:153] Setting up drop6
I0708 00:31:25.795351 24447 net.cpp:160] Top shape: 128 4096 (524288)
I0708 00:31:25.795352 24447 net.cpp:168] Memory required for data: 1058060288
I0708 00:31:25.795354 24447 layer_factory.hpp:76] Creating layer fc7
I0708 00:31:25.795358 24447 net.cpp:109] Creating Layer fc7
I0708 00:31:25.795361 24447 net.cpp:457] fc7 <- fc6
I0708 00:31:25.795362 24447 net.cpp:414] fc7 -> fc7
I0708 00:31:26.102121 24447 net.cpp:153] Setting up fc7
I0708 00:31:26.102140 24447 net.cpp:160] Top shape: 128 4096 (524288)
I0708 00:31:26.102144 24447 net.cpp:168] Memory required for data: 1060157440
I0708 00:31:26.102150 24447 layer_factory.hpp:76] Creating layer relu7
I0708 00:31:26.102156 24447 net.cpp:109] Creating Layer relu7
I0708 00:31:26.102160 24447 net.cpp:457] relu7 <- fc7
I0708 00:31:26.102164 24447 net.cpp:400] relu7 -> fc7 (in-place)
I0708 00:31:26.102171 24447 net.cpp:153] Setting up relu7
I0708 00:31:26.102174 24447 net.cpp:160] Top shape: 128 4096 (524288)
I0708 00:31:26.102176 24447 net.cpp:168] Memory required for data: 1062254592
I0708 00:31:26.102179 24447 layer_factory.hpp:76] Creating layer drop7
I0708 00:31:26.102183 24447 net.cpp:109] Creating Layer drop7
I0708 00:31:26.102186 24447 net.cpp:457] drop7 <- fc7
I0708 00:31:26.102188 24447 net.cpp:400] drop7 -> fc7 (in-place)
I0708 00:31:26.102202 24447 net.cpp:153] Setting up drop7
I0708 00:31:26.102205 24447 net.cpp:160] Top shape: 128 4096 (524288)
I0708 00:31:26.102206 24447 net.cpp:168] Memory required for data: 1064351744
I0708 00:31:26.102208 24447 layer_factory.hpp:76] Creating layer fc8_clean
I0708 00:31:26.102213 24447 net.cpp:109] Creating Layer fc8_clean
I0708 00:31:26.102232 24447 net.cpp:457] fc8_clean <- fc7
I0708 00:31:26.102236 24447 net.cpp:414] fc8_clean -> fc8_clean
I0708 00:31:26.173805 24447 net.cpp:153] Setting up fc8_clean
I0708 00:31:26.173822 24447 net.cpp:160] Top shape: 128 967 (123776)
I0708 00:31:26.173825 24447 net.cpp:168] Memory required for data: 1064846848
I0708 00:31:26.173830 24447 layer_factory.hpp:76] Creating layer loss
I0708 00:31:26.173845 24447 net.cpp:109] Creating Layer loss
I0708 00:31:26.173847 24447 net.cpp:457] loss <- fc8_clean
I0708 00:31:26.173851 24447 net.cpp:457] loss <- label
I0708 00:31:26.173854 24447 net.cpp:414] loss -> loss
I0708 00:31:26.173861 24447 layer_factory.hpp:76] Creating layer loss
…
I0708 00:31:26.174835 24447 solver.cpp:187] Creating test net (#0) specified by net file: train_val.prototxt
I0708 00:31:26.174871 24447 net.cpp:325] The NetState phase (1) differed from the phase (0) specified by a rule in layer train-data
I0708 00:31:26.174973 24447 net.cpp:52] Initializing net from parameters:
state {
phase: TEST
}
layer {
name: "val-data"
type: "Data"
top: "data"
top: "label"
include {
phase: TEST
}
transform_param {
crop_size: 227
mean_file: "/home/ffw/scratch/digits/jobs/20160624-120053-bb9a/mean.binaryproto"
}
data_param {
source: "/home/ffw/scratch/digits/jobs/20160624-120053-bb9a/val_db"
batch_size: 32
backend: LMDB
}
}
layer {
name: "conv1"
type: "Convolution"
bottom: "data"
top: "conv1"
param {
lr_mult: 0
decay_mult: 0
}
param {
lr_mult: 0
decay_mult: 0
}
convolution_param {
num_output: 96
kernel_size: 11
stride: 4
weight_filler {
type: "gaussian"
std: 0.01
}
bias_filler {
type: "constant"
value: 0
}
}
}
layer {
name: "relu1"
type: "ReLU"
bottom: "conv1"
top: "conv1"
}
layer {
name: "norm1"
type: "LRN"
bottom: "conv1"
top: "norm1"
lrn_param {
local_size: 5
alpha: 0.0001
beta: 0.75
}
}
layer {
name: "pool1"
type: "Pooling"
bottom: "norm1"
top: "pool1"
pooling_param {
pool: MAX
kernel_size: 3
stride: 2
}
}
layer {
name: "conv2"
type: "Convolution"
bottom: "pool1"
top: "conv2"
param {
lr_mult: 0
decay_mult: 0
}
param {
lr_mult: 0
decay_mult: 0
}
convolution_param {
num_output: 256
pad: 2
kernel_size: 5
group: 2
weight_filler {
type: "gaussian"
std: 0.01
}
bias_filler {
type: "constant"
value: 0.1
}
}
}
layer {
name: "relu2"
type: "ReLU"
bottom: "conv2"
top: "conv2"
}
layer {
name: "norm2"
type: "LRN"
bottom: "conv2"
top: "norm2"
lrn_param {
local_size: 5
alpha: 0.0001
beta: 0.75
}
}
layer {
name: "pool2"
type: "Pooling"
bottom: "norm2"
top: "pool2"
pooling_param {
pool: MAX
kernel_size: 3
stride: 2
}
}
layer {
name: "conv3"
type: "Convolution"
bottom: "pool2"
top: "conv3"
param {
lr_mult: 0
decay_mult: 0
}
param {
lr_mult: 0
decay_mult: 0
}
convolution_param {
num_output: 384
pad: 1
kernel_size: 3
weight_filler {
type: "gaussian"
std: 0.01
}
bias_filler {
type: "constant"
value: 0
}
}
}
layer {
name: "relu3"
type: "ReLU"
bottom: "conv3"
top: "conv3"
}
layer {
name: "conv4"
type: "Convolution"
bottom: "conv3"
top: "conv4"
param {
lr_mult: 0
decay_mult: 0
}
param {
lr_mult: 0
decay_mult: 0
}
convolution_param {
num_output: 384
pad: 1
kernel_size: 3
group: 2
weight_filler {
type: "gaussian"
std: 0.01
}
bias_filler {
type: "constant"
value: 0.1
}
}
}
layer {
name: "relu4"
type: "ReLU"
bottom: "conv4"
top: "conv4"
}
layer {
name: "conv5"
type: "Convolution"
bottom: "conv4"
top: "conv5"
param {
lr_mult: 0
decay_mult: 0
}
param {
lr_mult: 0
decay_mult: 0
}
convolution_param {
num_output: 256
pad: 1
kernel_size: 3
group: 2
weight_filler {
type: "gaussian"
std: 0.01
}
bias_filler {
type: "constant"
value: 0.1
}
}
}
layer {
name: "relu5"
type: "ReLU"
bottom: "conv5"
top: "conv5"
}
layer {
name: "pool5"
type: "Pooling"
bottom: "conv5"
top: "pool5"
pooling_param {
pool: MAX
kernel_size: 3
stride: 2
}
}
layer {
name: "fc6"
type: "InnerProduct"
bottom: "pool5"
top: "fc6"
param {
lr_mult: 0
decay_mult: 0
}
param {
lr_mult: 0
decay_mult: 0
}
inner_product_param {
num_output: 4096
weight_filler {
type: "gaussian"
std: 0.005
}
bias_filler {
type: "constant"
value: 0.1
}
}
}
layer {
name: "relu6"
type: "ReLU"
bottom: "fc6"
top: "fc6"
}
layer {
name: "drop6"
type: "Dropout"
bottom: "fc6"
top: "fc6"
dropout_param {
dropout_ratio: 0.5
}
}
layer {
name: "fc7"
type: "InnerProduct"
bottom: "fc6"
top: "fc7"
param {
lr_mult: 0
decay_mult: 0
}
param {
lr_mult: 0
decay_mult: 0
}
inner_product_param {
num_output: 4096
weight_filler {
type: "gaussian"
std: 0.005
}
bias_filler {
type: "constant"
value: 0.1
}
}
}
layer {
name: "relu7"
type: "ReLU"
bottom: "fc7"
top: "fc7"
}
layer {
name: "drop7"
type: "Dropout"
bottom: "fc7"
top: "fc7"
dropout_param {
dropout_ratio: 0.5
}
}
layer {
name: "fc8_clean"
type: "InnerProduct"
bottom: "fc7"
top: "fc8_clean"
param {
lr_mult: 1
decay_mult: 1
}
param {
lr_mult: 2
decay_mult: 0
}
inner_product_param {
num_output: 967
weight_filler {
type: "gaussian"
std: 0.01
}
bias_filler {
type: "constant"
value: 0
}
}
}
layer {
name: "accuracy"
type: "Accuracy"
bottom: "fc8_clean"
bottom: "label"
top: "accuracy"
include {
phase: TEST
}
}
layer {
name: "loss"
type: "SoftmaxWithLoss"
bottom: "fc8_clean"
bottom: "label"
top: "loss"
}
I0708 00:31:26.175046 24447 layer_factory.hpp:76] Creating layer val-data
I0708 00:31:26.175096 24447 net.cpp:109] Creating Layer val-data
I0708 00:31:26.175110 24447 net.cpp:414] val-data -> data
I0708 00:31:26.175115 24447 net.cpp:414] val-data -> label
I0708 00:31:26.175119 24447 data_transformer.cpp:25] Loading mean file from: /home/ffw/scratch/digits/jobs/20160624-120053-bb9a/mean.binaryproto
I0708 00:31:26.177656 24463 db_lmdb.cpp:36] Opened lmdb /home/ffw/scratch/digits/jobs/20160624-120053-bb9a/val_db
I0708 00:31:26.182046 24447 data_layer.cpp:45] output data size: 32,3,227,227
I0708 00:31:26.204002 24447 net.cpp:153] Setting up val-data
I0708 00:31:26.204021 24447 net.cpp:160] Top shape: 32 3 227 227 (4946784)
I0708 00:31:26.204026 24447 net.cpp:160] Top shape: 32 (32)
I0708 00:31:26.204028 24447 net.cpp:168] Memory required for data: 19787264
I0708 00:31:26.204032 24447 layer_factory.hpp:76] Creating layer label_val-data_1_split
I0708 00:31:26.204041 24447 net.cpp:109] Creating Layer label_val-data_1_split
I0708 00:31:26.204043 24447 net.cpp:457] label_val-data_1_split <- label
I0708 00:31:26.204048 24447 net.cpp:414] label_val-data_1_split -> label_val-data_1_split_0
I0708 00:31:26.204054 24447 net.cpp:414] label_val-data_1_split -> label_val-data_1_split_1
I0708 00:31:26.204149 24447 net.cpp:153] Setting up label_val-data_1_split
I0708 00:31:26.204154 24447 net.cpp:160] Top shape: 32 (32)
I0708 00:31:26.204157 24447 net.cpp:160] Top shape: 32 (32)
I0708 00:31:26.204159 24447 net.cpp:168] Memory required for data: 19787520
I0708 00:31:26.204161 24447 layer_factory.hpp:76] Creating layer conv1
I0708 00:31:26.204169 24447 net.cpp:109] Creating Layer conv1
I0708 00:31:26.204171 24447 net.cpp:457] conv1 <- data
I0708 00:31:26.204175 24447 net.cpp:414] conv1 -> conv1
I0708 00:31:26.205116 24447 net.cpp:153] Setting up conv1
I0708 00:31:26.205123 24447 net.cpp:160] Top shape: 32 96 55 55 (9292800)
I0708 00:31:26.205126 24447 net.cpp:168] Memory required for data: 56958720
I0708 00:31:26.205132 24447 layer_factory.hpp:76] Creating layer relu1
I0708 00:31:26.205137 24447 net.cpp:109] Creating Layer relu1
I0708 00:31:26.205139 24447 net.cpp:457] relu1 <- conv1
I0708 00:31:26.205142 24447 net.cpp:400] relu1 -> conv1 (in-place)
I0708 00:31:26.205152 24447 net.cpp:153] Setting up relu1
I0708 00:31:26.205154 24447 net.cpp:160] Top shape: 32 96 55 55 (9292800)
I0708 00:31:26.205155 24447 net.cpp:168] Memory required for data: 94129920
I0708 00:31:26.205157 24447 layer_factory.hpp:76] Creating layer norm1
I0708 00:31:26.205163 24447 net.cpp:109] Creating Layer norm1
I0708 00:31:26.205164 24447 net.cpp:457] norm1 <- conv1
I0708 00:31:26.205168 24447 net.cpp:414] norm1 -> norm1
I0708 00:31:26.205190 24447 net.cpp:153] Setting up norm1
I0708 00:31:26.205193 24447 net.cpp:160] Top shape: 32 96 55 55 (9292800)
I0708 00:31:26.205195 24447 net.cpp:168] Memory required for data: 131301120
I0708 00:31:26.205196 24447 layer_factory.hpp:76] Creating layer pool1
I0708 00:31:26.205200 24447 net.cpp:109] Creating Layer pool1
I0708 00:31:26.205204 24447 net.cpp:457] pool1 <- norm1
I0708 00:31:26.205205 24447 net.cpp:414] pool1 -> pool1
I0708 00:31:26.205224 24447 net.cpp:153] Setting up pool1
I0708 00:31:26.205226 24447 net.cpp:160] Top shape: 32 96 27 27 (2239488)
I0708 00:31:26.205227 24447 net.cpp:168] Memory required for data: 140259072
I0708 00:31:26.205229 24447 layer_factory.hpp:76] Creating layer conv2
I0708 00:31:26.205234 24447 net.cpp:109] Creating Layer conv2
I0708 00:31:26.205235 24447 net.cpp:457] conv2 <- pool1
I0708 00:31:26.205238 24447 net.cpp:414] conv2 -> conv2
I0708 00:31:26.211336 24447 net.cpp:153] Setting up conv2
I0708 00:31:26.211350 24447 net.cpp:160] Top shape: 32 256 27 27 (5971968)
I0708 00:31:26.211352 24447 net.cpp:168] Memory required for data: 164146944
I0708 00:31:26.211375 24447 layer_factory.hpp:76] Creating layer relu2
I0708 00:31:26.211382 24447 net.cpp:109] Creating Layer relu2
I0708 00:31:26.211385 24447 net.cpp:457] relu2 <- conv2
I0708 00:31:26.211390 24447 net.cpp:400] relu2 -> conv2 (in-place)
I0708 00:31:26.211395 24447 net.cpp:153] Setting up relu2
I0708 00:31:26.211398 24447 net.cpp:160] Top shape: 32 256 27 27 (5971968)
I0708 00:31:26.211400 24447 net.cpp:168] Memory required for data: 188034816
I0708 00:31:26.211402 24447 layer_factory.hpp:76] Creating layer norm2
I0708 00:31:26.211407 24447 net.cpp:109] Creating Layer norm2
I0708 00:31:26.211410 24447 net.cpp:457] norm2 <- conv2
I0708 00:31:26.211413 24447 net.cpp:414] norm2 -> norm2
I0708 00:31:26.211449 24447 net.cpp:153] Setting up norm2
I0708 00:31:26.211454 24447 net.cpp:160] Top shape: 32 256 27 27 (5971968)
I0708 00:31:26.211457 24447 net.cpp:168] Memory required for data: 211922688
I0708 00:31:26.211458 24447 layer_factory.hpp:76] Creating layer pool2
I0708 00:31:26.211467 24447 net.cpp:109] Creating Layer pool2
I0708 00:31:26.211469 24447 net.cpp:457] pool2 <- norm2
I0708 00:31:26.211472 24447 net.cpp:414] pool2 -> pool2
I0708 00:31:26.211495 24447 net.cpp:153] Setting up pool2
I0708 00:31:26.211498 24447 net.cpp:160] Top shape: 32 256 13 13 (1384448)
I0708 00:31:26.211500 24447 net.cpp:168] Memory required for data: 217460480
I0708 00:31:26.211503 24447 layer_factory.hpp:76] Creating layer conv3
I0708 00:31:26.211508 24447 net.cpp:109] Creating Layer conv3
I0708 00:31:26.211509 24447 net.cpp:457] conv3 <- pool2
I0708 00:31:26.211511 24447 net.cpp:414] conv3 -> conv3
I0708 00:31:26.228442 24447 net.cpp:153] Setting up conv3
I0708 00:31:26.228457 24447 net.cpp:160] Top shape: 32 384 13 13 (2076672)
I0708 00:31:26.228461 24447 net.cpp:168] Memory required for data: 225767168
I0708 00:31:26.228467 24447 layer_factory.hpp:76] Creating layer relu3
I0708 00:31:26.228476 24447 net.cpp:109] Creating Layer relu3
I0708 00:31:26.228478 24447 net.cpp:457] relu3 <- conv3
I0708 00:31:26.228482 24447 net.cpp:400] relu3 -> conv3 (in-place)
I0708 00:31:26.228489 24447 net.cpp:153] Setting up relu3
I0708 00:31:26.228492 24447 net.cpp:160] Top shape: 32 384 13 13 (2076672)
I0708 00:31:26.228493 24447 net.cpp:168] Memory required for data: 234073856
I0708 00:31:26.228495 24447 layer_factory.hpp:76] Creating layer conv4
I0708 00:31:26.228502 24447 net.cpp:109] Creating Layer conv4
I0708 00:31:26.228503 24447 net.cpp:457] conv4 <- conv3
I0708 00:31:26.228507 24447 net.cpp:414] conv4 -> conv4
I0708 00:31:26.241186 24447 net.cpp:153] Setting up conv4
I0708 00:31:26.241201 24447 net.cpp:160] Top shape: 32 384 13 13 (2076672)
I0708 00:31:26.241204 24447 net.cpp:168] Memory required for data: 242380544
I0708 00:31:26.241209 24447 layer_factory.hpp:76] Creating layer relu4
I0708 00:31:26.241214 24447 net.cpp:109] Creating Layer relu4
I0708 00:31:26.241216 24447 net.cpp:457] relu4 <- conv4
I0708 00:31:26.241220 24447 net.cpp:400] relu4 -> conv4 (in-place)
I0708 00:31:26.241225 24447 net.cpp:153] Setting up relu4
I0708 00:31:26.241228 24447 net.cpp:160] Top shape: 32 384 13 13 (2076672)
I0708 00:31:26.241230 24447 net.cpp:168] Memory required for data: 250687232
I0708 00:31:26.241231 24447 layer_factory.hpp:76] Creating layer conv5
I0708 00:31:26.241236 24447 net.cpp:109] Creating Layer conv5
I0708 00:31:26.241237 24447 net.cpp:457] conv5 <- conv4
I0708 00:31:26.241241 24447 net.cpp:414] conv5 -> conv5
I0708 00:31:26.249861 24447 net.cpp:153] Setting up conv5
I0708 00:31:26.249872 24447 net.cpp:160] Top shape: 32 256 13 13 (1384448)
I0708 00:31:26.249874 24447 net.cpp:168] Memory required for data: 256225024
I0708 00:31:26.249881 24447 layer_factory.hpp:76] Creating layer relu5
I0708 00:31:26.249887 24447 net.cpp:109] Creating Layer relu5
I0708 00:31:26.249891 24447 net.cpp:457] relu5 <- conv5
I0708 00:31:26.249894 24447 net.cpp:400] relu5 -> conv5 (in-place)
I0708 00:31:26.249899 24447 net.cpp:153] Setting up relu5
I0708 00:31:26.249902 24447 net.cpp:160] Top shape: 32 256 13 13 (1384448)
I0708 00:31:26.249917 24447 net.cpp:168] Memory required for data: 261762816
I0708 00:31:26.249918 24447 layer_factory.hpp:76] Creating layer pool5
I0708 00:31:26.249924 24447 net.cpp:109] Creating Layer pool5
I0708 00:31:26.249927 24447 net.cpp:457] pool5 <- conv5
I0708 00:31:26.249929 24447 net.cpp:414] pool5 -> pool5
I0708 00:31:26.249955 24447 net.cpp:153] Setting up pool5
I0708 00:31:26.249958 24447 net.cpp:160] Top shape: 32 256 6 6 (294912)
I0708 00:31:26.249959 24447 net.cpp:168] Memory required for data: 262942464
I0708 00:31:26.249961 24447 layer_factory.hpp:76] Creating layer fc6
I0708 00:31:26.249965 24447 net.cpp:109] Creating Layer fc6
I0708 00:31:26.249968 24447 net.cpp:457] fc6 <- pool5
I0708 00:31:26.249970 24447 net.cpp:414] fc6 -> fc6
I0708 00:31:27.254317 24447 net.cpp:153] Setting up fc6
I0708 00:31:27.254339 24447 net.cpp:160] Top shape: 32 4096 (131072)
I0708 00:31:27.254343 24447 net.cpp:168] Memory required for data: 263466752
I0708 00:31:27.254351 24447 layer_factory.hpp:76] Creating layer relu6
I0708 00:31:27.254360 24447 net.cpp:109] Creating Layer relu6
I0708 00:31:27.254365 24447 net.cpp:457] relu6 <- fc6
I0708 00:31:27.254372 24447 net.cpp:400] relu6 -> fc6 (in-place)
I0708 00:31:27.254381 24447 net.cpp:153] Setting up relu6
I0708 00:31:27.254385 24447 net.cpp:160] Top shape: 32 4096 (131072)
I0708 00:31:27.254387 24447 net.cpp:168] Memory required for data: 263991040
I0708 00:31:27.254390 24447 layer_factory.hpp:76] Creating layer drop6
I0708 00:31:27.254396 24447 net.cpp:109] Creating Layer drop6
I0708 00:31:27.254400 24447 net.cpp:457] drop6 <- fc6
I0708 00:31:27.254403 24447 net.cpp:400] drop6 -> fc6 (in-place)
I0708 00:31:27.254426 24447 net.cpp:153] Setting up drop6
I0708 00:31:27.254431 24447 net.cpp:160] Top shape: 32 4096 (131072)
I0708 00:31:27.254433 24447 net.cpp:168] Memory required for data: 264515328
I0708 00:31:27.254436 24447 layer_factory.hpp:76] Creating layer fc7
I0708 00:31:27.254441 24447 net.cpp:109] Creating Layer fc7
I0708 00:31:27.254444 24447 net.cpp:457] fc7 <- fc6
I0708 00:31:27.254448 24447 net.cpp:414] fc7 -> fc7
I0708 00:31:27.578943 24447 net.cpp:153] Setting up fc7
I0708 00:31:27.578963 24447 net.cpp:160] Top shape: 32 4096 (131072)
I0708 00:31:27.578965 24447 net.cpp:168] Memory required for data: 265039616
I0708 00:31:27.578970 24447 layer_factory.hpp:76] Creating layer relu7
I0708 00:31:27.578977 24447 net.cpp:109] Creating Layer relu7
I0708 00:31:27.578980 24447 net.cpp:457] relu7 <- fc7
I0708 00:31:27.578985 24447 net.cpp:400] relu7 -> fc7 (in-place)
I0708 00:31:27.578994 24447 net.cpp:153] Setting up relu7
I0708 00:31:27.578996 24447 net.cpp:160] Top shape: 32 4096 (131072)
I0708 00:31:27.578997 24447 net.cpp:168] Memory required for data: 265563904
I0708 00:31:27.579000 24447 layer_factory.hpp:76] Creating layer drop7
I0708 00:31:27.579005 24447 net.cpp:109] Creating Layer drop7
I0708 00:31:27.579006 24447 net.cpp:457] drop7 <- fc7
I0708 00:31:27.579010 24447 net.cpp:400] drop7 -> fc7 (in-place)
I0708 00:31:27.579027 24447 net.cpp:153] Setting up drop7
I0708 00:31:27.579030 24447 net.cpp:160] Top shape: 32 4096 (131072)
I0708 00:31:27.579032 24447 net.cpp:168] Memory required for data: 266088192
I0708 00:31:27.579035 24447 layer_factory.hpp:76] Creating layer fc8_clean
I0708 00:31:27.579038 24447 net.cpp:109] Creating Layer fc8_clean
I0708 00:31:27.579041 24447 net.cpp:457] fc8_clean <- fc7
I0708 00:31:27.579043 24447 net.cpp:414] fc8_clean -> fc8_clean
I0708 00:31:27.650621 24447 net.cpp:153] Setting up fc8_clean
I0708 00:31:27.650640 24447 net.cpp:160] Top shape: 32 967 (30944)
I0708 00:31:27.650641 24447 net.cpp:168] Memory required for data: 266211968
I0708 00:31:27.650646 24447 layer_factory.hpp:76] Creating layer fc8_clean_fc8_clean_0_split
I0708 00:31:27.650653 24447 net.cpp:109] Creating Layer fc8_clean_fc8_clean_0_split
I0708 00:31:27.650656 24447 net.cpp:457] fc8_clean_fc8_clean_0_split <- fc8_clean
I0708 00:31:27.650661 24447 net.cpp:414] fc8_clean_fc8_clean_0_split -> fc8_clean_fc8_clean_0_split_0
I0708 00:31:27.650666 24447 net.cpp:414] fc8_clean_fc8_clean_0_split -> fc8_clean_fc8_clean_0_split_1
I0708 00:31:27.650712 24447 net.cpp:153] Setting up fc8_clean_fc8_clean_0_split
I0708 00:31:27.650715 24447 net.cpp:160] Top shape: 32 967 (30944)
I0708 00:31:27.650717 24447 net.cpp:160] Top shape: 32 967 (30944)
I0708 00:31:27.650719 24447 net.cpp:168] Memory required for data: 266459520
I0708 00:31:27.650722 24447 layer_factory.hpp:76] Creating layer accuracy
I0708 00:31:27.650725 24447 net.cpp:109] Creating Layer accuracy
I0708 00:31:27.650727 24447 net.cpp:457] accuracy <- fc8_clean_fc8_clean_0_split_0
I0708 00:31:27.650730 24447 net.cpp:457] accuracy <- label_val-data_1_split_0
I0708 00:31:27.650733 24447 net.cpp:414] accuracy -> accuracy
…
