…
I0705 07:20:05.874593  1795 net.cpp:325] The NetState phase (0) differed from the phase (1) specified by a rule in layer accuracy
I0705 07:20:05.874794  1795 net.cpp:52] Initializing net from parameters:
state {
phase: TRAIN
}
layer {
name: "train-data"
type: "Data"
top: "data"
top: "label"
include {
phase: TRAIN
}
transform_param {
mirror: true
crop_size: 227
mean_file: "/home/zml374/workspace/DIGITS/digits/jobs/20160704-085910-0cc9/mean.binaryproto"
}
data_param {
source: "/home/zml374/workspace/DIGITS/digits/jobs/20160704-085910-0cc9/train_db"
batch_size: 400
backend: LMDB
}
}
layer {
name: "conv1"
type: "Convolution"
bottom: "data"
top: "conv1"
param {
lr_mult: 0
decay_mult: 0
}
param {
lr_mult: 0
decay_mult: 0
}
convolution_param {
num_output: 96
kernel_size: 11
stride: 4
weight_filler {
type: "gaussian"
std: 0.01
}
bias_filler {
type: "constant"
value: 0
}
}
}
layer {
name: "relu1"
type: "ReLU"
bottom: "conv1"
top: "conv1"
}
layer {
name: "norm1"
type: "LRN"
bottom: "conv1"
top: "norm1"
lrn_param {
local_size: 5
alpha: 0.0001
beta: 0.75
}
}
layer {
name: "pool1"
type: "Pooling"
bottom: "norm1"
top: "pool1"
pooling_param {
pool: MAX
kernel_size: 3
stride: 2
}
}
layer {
name: "conv2"
type: "Convolution"
bottom: "pool1"
top: "conv2"
param {
lr_mult: 0
decay_mult: 0
}
param {
lr_mult: 0
decay_mult: 0
}
convolution_param {
num_output: 256
pad: 2
kernel_size: 5
group: 2
weight_filler {
type: "gaussian"
std: 0.01
}
bias_filler {
type: "constant"
value: 0.1
}
}
}
layer {
name: "relu2"
type: "ReLU"
bottom: "conv2"
top: "conv2"
}
layer {
name: "norm2"
type: "LRN"
bottom: "conv2"
top: "norm2"
lrn_param {
local_size: 5
alpha: 0.0001
beta: 0.75
}
}
layer {
name: "pool2"
type: "Pooling"
bottom: "norm2"
top: "pool2"
pooling_param {
pool: MAX
kernel_size: 3
stride: 2
}
}
layer {
name: "conv3"
type: "Convolution"
bottom: "pool2"
top: "conv3"
param {
lr_mult: 0
decay_mult: 0
}
param {
lr_mult: 0
decay_mult: 0
}
convolution_param {
num_output: 384
pad: 1
kernel_size: 3
weight_filler {
type: "gaussian"
std: 0.01
}
bias_filler {
type: "constant"
value: 0
}
}
}
layer {
name: "relu3"
type: "ReLU"
bottom: "conv3"
top: "conv3"
}
layer {
name: "conv4"
type: "Convolution"
bottom: "conv3"
top: "conv4"
param {
lr_mult: 0
decay_mult: 0
}
param {
lr_mult: 0
decay_mult: 0
}
convolution_param {
num_output: 384
pad: 1
kernel_size: 3
group: 2
weight_filler {
type: "gaussian"
std: 0.01
}
bias_filler {
type: "constant"
value: 0.1
}
}
}
layer {
name: "relu4"
type: "ReLU"
bottom: "conv4"
top: "conv4"
}
layer {
name: "conv5"
type: "Convolution"
bottom: "conv4"
top: "conv5"
param {
lr_mult: 0
decay_mult: 0
}
param {
lr_mult: 0
decay_mult: 0
}
convolution_param {
num_output: 256
pad: 1
kernel_size: 3
group: 2
weight_filler {
type: "gaussian"
std: 0.01
}
bias_filler {
type: "constant"
value: 0.1
}
}
}
layer {
name: "relu5"
type: "ReLU"
bottom: "conv5"
top: "conv5"
}
layer {
name: "pool5"
type: "Pooling"
bottom: "conv5"
top: "pool5"
pooling_param {
pool: MAX
kernel_size: 3
stride: 2
}
}
layer {
name: "fc6"
type: "InnerProduct"
bottom: "pool5"
top: "fc6"
param {
lr_mult: 0
decay_mult: 0
}
param {
lr_mult: 0
decay_mult: 0
}
inner_product_param {
num_output: 4096
weight_filler {
type: "gaussian"
std: 0.005
}
bias_filler {
type: "constant"
value: 0.1
}
}
}
layer {
name: "relu6"
type: "ReLU"
bottom: "fc6"
top: "fc6"
}
layer {
name: "drop6"
type: "Dropout"
bottom: "fc6"
top: "fc6"
dropout_param {
dropout_ratio: 0.5
}
}
layer {
name: "fc7"
type: "InnerProduct"
bottom: "fc6"
top: "fc7"
param {
lr_mult: 0
decay_mult: 0
}
param {
lr_mult: 0
decay_mult: 0
}
inner_product_param {
num_output: 4096
weight_filler {
type: "gaussian"
std: 0.005
}
bias_filler {
type: "constant"
value: 0.1
}
}
}
layer {
name: "relu7"
type: "ReLU"
bottom: "fc7"
top: "fc7"
}
layer {
name: "drop7"
type: "Dropout"
bottom: "fc7"
top: "fc7"
dropout_param {
dropout_ratio: 0.5
}
}
layer {
name: "fc8_clean"
type: "InnerProduct"
bottom: "fc7"
top: "fc8_clean"
param {
lr_mult: 1
decay_mult: 1
}
param {
lr_mult: 2
decay_mult: 0
}
inner_product_param {
num_output: 967
weight_filler {
type: "gaussian"
std: 0.01
}
bias_filler {
type: "constant"
value: 0
}
}
}
layer {
name: "loss"
type: "SoftmaxWithLoss"
bottom: "fc8_clean"
bottom: "label"
top: "loss"
}
I0705 07:20:05.874935  1795 layer_factory.hpp:76] Creating layer train-data
I0705 07:20:05.875679  1795 net.cpp:109] Creating Layer train-data
I0705 07:20:05.875695  1795 net.cpp:414] train-data -> data
I0705 07:20:05.875722  1795 net.cpp:414] train-data -> label
I0705 07:20:05.875736  1795 data_transformer.cpp:25] Loading mean file from: /home/zml374/workspace/DIGITS/digits/jobs/20160704-085910-0cc9/mean.binaryproto
I0705 07:20:05.877867  1824 db_lmdb.cpp:36] Opened lmdb /home/zml374/workspace/DIGITS/digits/jobs/20160704-085910-0cc9/train_db
I0705 07:20:05.883729  1795 data_layer.cpp:45] output data size: 400,3,227,227
I0705 07:20:06.471477  1795 net.cpp:153] Setting up train-data
I0705 07:20:06.471536  1795 net.cpp:160] Top shape: 400 3 227 227 (61834800)
I0705 07:20:06.471545  1795 net.cpp:160] Top shape: 400 (400)
I0705 07:20:06.471551  1795 net.cpp:168] Memory required for data: 247340800
I0705 07:20:06.471565  1795 layer_factory.hpp:76] Creating layer conv1
I0705 07:20:06.471591  1795 net.cpp:109] Creating Layer conv1
I0705 07:20:06.471599  1795 net.cpp:457] conv1 <- data
I0705 07:20:06.471618  1795 net.cpp:414] conv1 -> conv1
I0705 07:20:06.475042  1795 net.cpp:153] Setting up conv1
I0705 07:20:06.475060  1795 net.cpp:160] Top shape: 400 96 55 55 (116160000)
I0705 07:20:06.475066  1795 net.cpp:168] Memory required for data: 711980800
I0705 07:20:06.475087  1795 layer_factory.hpp:76] Creating layer relu1
I0705 07:20:06.475101  1795 net.cpp:109] Creating Layer relu1
I0705 07:20:06.475106  1795 net.cpp:457] relu1 <- conv1
I0705 07:20:06.475116  1795 net.cpp:400] relu1 -> conv1 (in-place)
I0705 07:20:06.475132  1795 net.cpp:153] Setting up relu1
I0705 07:20:06.475141  1795 net.cpp:160] Top shape: 400 96 55 55 (116160000)
I0705 07:20:06.475144  1795 net.cpp:168] Memory required for data: 1176620800
I0705 07:20:06.475149  1795 layer_factory.hpp:76] Creating layer norm1
I0705 07:20:06.475170  1795 net.cpp:109] Creating Layer norm1
I0705 07:20:06.475177  1795 net.cpp:457] norm1 <- conv1
I0705 07:20:06.475183  1795 net.cpp:414] norm1 -> norm1
I0705 07:20:06.475769  1795 net.cpp:153] Setting up norm1
I0705 07:20:06.475783  1795 net.cpp:160] Top shape: 400 96 55 55 (116160000)
I0705 07:20:06.475788  1795 net.cpp:168] Memory required for data: 1641260800
I0705 07:20:06.475793  1795 layer_factory.hpp:76] Creating layer pool1
I0705 07:20:06.475808  1795 net.cpp:109] Creating Layer pool1
I0705 07:20:06.475857  1795 net.cpp:457] pool1 <- norm1
I0705 07:20:06.475867  1795 net.cpp:414] pool1 -> pool1
I0705 07:20:06.475944  1795 net.cpp:153] Setting up pool1
I0705 07:20:06.475958  1795 net.cpp:160] Top shape: 400 96 27 27 (27993600)
I0705 07:20:06.475963  1795 net.cpp:168] Memory required for data: 1753235200
I0705 07:20:06.475968  1795 layer_factory.hpp:76] Creating layer conv2
I0705 07:20:06.475982  1795 net.cpp:109] Creating Layer conv2
I0705 07:20:06.475987  1795 net.cpp:457] conv2 <- pool1
I0705 07:20:06.476001  1795 net.cpp:414] conv2 -> conv2
I0705 07:20:06.503321  1795 net.cpp:153] Setting up conv2
I0705 07:20:06.503352  1795 net.cpp:160] Top shape: 400 256 27 27 (74649600)
I0705 07:20:06.503357  1795 net.cpp:168] Memory required for data: 2051833600
I0705 07:20:06.503371  1795 layer_factory.hpp:76] Creating layer relu2
I0705 07:20:06.503381  1795 net.cpp:109] Creating Layer relu2
I0705 07:20:06.503386  1795 net.cpp:457] relu2 <- conv2
I0705 07:20:06.503394  1795 net.cpp:400] relu2 -> conv2 (in-place)
I0705 07:20:06.503404  1795 net.cpp:153] Setting up relu2
I0705 07:20:06.503412  1795 net.cpp:160] Top shape: 400 256 27 27 (74649600)
I0705 07:20:06.503417  1795 net.cpp:168] Memory required for data: 2350432000
I0705 07:20:06.503422  1795 layer_factory.hpp:76] Creating layer norm2
I0705 07:20:06.503430  1795 net.cpp:109] Creating Layer norm2
I0705 07:20:06.503435  1795 net.cpp:457] norm2 <- conv2
I0705 07:20:06.503443  1795 net.cpp:414] norm2 -> norm2
I0705 07:20:06.503490  1795 net.cpp:153] Setting up norm2
I0705 07:20:06.503499  1795 net.cpp:160] Top shape: 400 256 27 27 (74649600)
I0705 07:20:06.503504  1795 net.cpp:168] Memory required for data: 2649030400
I0705 07:20:06.503509  1795 layer_factory.hpp:76] Creating layer pool2
I0705 07:20:06.503520  1795 net.cpp:109] Creating Layer pool2
I0705 07:20:06.503525  1795 net.cpp:457] pool2 <- norm2
I0705 07:20:06.503532  1795 net.cpp:414] pool2 -> pool2
I0705 07:20:06.503582  1795 net.cpp:153] Setting up pool2
I0705 07:20:06.503589  1795 net.cpp:160] Top shape: 400 256 13 13 (17305600)
I0705 07:20:06.503594  1795 net.cpp:168] Memory required for data: 2718252800
I0705 07:20:06.503599  1795 layer_factory.hpp:76] Creating layer conv3
I0705 07:20:06.503612  1795 net.cpp:109] Creating Layer conv3
I0705 07:20:06.503617  1795 net.cpp:457] conv3 <- pool2
I0705 07:20:06.503625  1795 net.cpp:414] conv3 -> conv3
I0705 07:20:06.537220  1795 net.cpp:153] Setting up conv3
I0705 07:20:06.537238  1795 net.cpp:160] Top shape: 400 384 13 13 (25958400)
I0705 07:20:06.537245  1795 net.cpp:168] Memory required for data: 2822086400
I0705 07:20:06.537256  1795 layer_factory.hpp:76] Creating layer relu3
I0705 07:20:06.537266  1795 net.cpp:109] Creating Layer relu3
I0705 07:20:06.537271  1795 net.cpp:457] relu3 <- conv3
I0705 07:20:06.537278  1795 net.cpp:400] relu3 -> conv3 (in-place)
I0705 07:20:06.537287  1795 net.cpp:153] Setting up relu3
I0705 07:20:06.537293  1795 net.cpp:160] Top shape: 400 384 13 13 (25958400)
I0705 07:20:06.537298  1795 net.cpp:168] Memory required for data: 2925920000
I0705 07:20:06.537302  1795 layer_factory.hpp:76] Creating layer conv4
I0705 07:20:06.537313  1795 net.cpp:109] Creating Layer conv4
I0705 07:20:06.537318  1795 net.cpp:457] conv4 <- conv3
I0705 07:20:06.537328  1795 net.cpp:414] conv4 -> conv4
I0705 07:20:06.562573  1795 net.cpp:153] Setting up conv4
I0705 07:20:06.562590  1795 net.cpp:160] Top shape: 400 384 13 13 (25958400)
I0705 07:20:06.562595  1795 net.cpp:168] Memory required for data: 3029753600
I0705 07:20:06.562604  1795 layer_factory.hpp:76] Creating layer relu4
I0705 07:20:06.562613  1795 net.cpp:109] Creating Layer relu4
I0705 07:20:06.562618  1795 net.cpp:457] relu4 <- conv4
I0705 07:20:06.562625  1795 net.cpp:400] relu4 -> conv4 (in-place)
I0705 07:20:06.562635  1795 net.cpp:153] Setting up relu4
I0705 07:20:06.562641  1795 net.cpp:160] Top shape: 400 384 13 13 (25958400)
I0705 07:20:06.562645  1795 net.cpp:168] Memory required for data: 3133587200
I0705 07:20:06.562650  1795 layer_factory.hpp:76] Creating layer conv5
I0705 07:20:06.562661  1795 net.cpp:109] Creating Layer conv5
I0705 07:20:06.562685  1795 net.cpp:457] conv5 <- conv4
I0705 07:20:06.562695  1795 net.cpp:414] conv5 -> conv5
I0705 07:20:06.579653  1795 net.cpp:153] Setting up conv5
I0705 07:20:06.579669  1795 net.cpp:160] Top shape: 400 256 13 13 (17305600)
I0705 07:20:06.579674  1795 net.cpp:168] Memory required for data: 3202809600
I0705 07:20:06.579687  1795 layer_factory.hpp:76] Creating layer relu5
I0705 07:20:06.579696  1795 net.cpp:109] Creating Layer relu5
I0705 07:20:06.579701  1795 net.cpp:457] relu5 <- conv5
I0705 07:20:06.579710  1795 net.cpp:400] relu5 -> conv5 (in-place)
I0705 07:20:06.579718  1795 net.cpp:153] Setting up relu5
I0705 07:20:06.579725  1795 net.cpp:160] Top shape: 400 256 13 13 (17305600)
I0705 07:20:06.579728  1795 net.cpp:168] Memory required for data: 3272032000
I0705 07:20:06.579733  1795 layer_factory.hpp:76] Creating layer pool5
I0705 07:20:06.579742  1795 net.cpp:109] Creating Layer pool5
I0705 07:20:06.579746  1795 net.cpp:457] pool5 <- conv5
I0705 07:20:06.579752  1795 net.cpp:414] pool5 -> pool5
I0705 07:20:06.579804  1795 net.cpp:153] Setting up pool5
I0705 07:20:06.579814  1795 net.cpp:160] Top shape: 400 256 6 6 (3686400)
I0705 07:20:06.579818  1795 net.cpp:168] Memory required for data: 3286777600
I0705 07:20:06.579824  1795 layer_factory.hpp:76] Creating layer fc6
I0705 07:20:06.579838  1795 net.cpp:109] Creating Layer fc6
I0705 07:20:06.579843  1795 net.cpp:457] fc6 <- pool5
I0705 07:20:06.579851  1795 net.cpp:414] fc6 -> fc6
I0705 07:20:07.851518  1795 net.cpp:153] Setting up fc6
I0705 07:20:07.851570  1795 net.cpp:160] Top shape: 400 4096 (1638400)
I0705 07:20:07.851575  1795 net.cpp:168] Memory required for data: 3293331200
I0705 07:20:07.851588  1795 layer_factory.hpp:76] Creating layer relu6
I0705 07:20:07.851600  1795 net.cpp:109] Creating Layer relu6
I0705 07:20:07.851606  1795 net.cpp:457] relu6 <- fc6
I0705 07:20:07.851615  1795 net.cpp:400] relu6 -> fc6 (in-place)
I0705 07:20:07.851629  1795 net.cpp:153] Setting up relu6
I0705 07:20:07.851634  1795 net.cpp:160] Top shape: 400 4096 (1638400)
I0705 07:20:07.851639  1795 net.cpp:168] Memory required for data: 3299884800
I0705 07:20:07.851642  1795 layer_factory.hpp:76] Creating layer drop6
I0705 07:20:07.851663  1795 net.cpp:109] Creating Layer drop6
I0705 07:20:07.851667  1795 net.cpp:457] drop6 <- fc6
I0705 07:20:07.851672  1795 net.cpp:400] drop6 -> fc6 (in-place)
I0705 07:20:07.851696  1795 net.cpp:153] Setting up drop6
I0705 07:20:07.851703  1795 net.cpp:160] Top shape: 400 4096 (1638400)
I0705 07:20:07.851707  1795 net.cpp:168] Memory required for data: 3306438400
I0705 07:20:07.851711  1795 layer_factory.hpp:76] Creating layer fc7
I0705 07:20:07.851719  1795 net.cpp:109] Creating Layer fc7
I0705 07:20:07.851723  1795 net.cpp:457] fc7 <- fc6
I0705 07:20:07.851729  1795 net.cpp:414] fc7 -> fc7
I0705 07:20:08.355134  1795 net.cpp:153] Setting up fc7
I0705 07:20:08.355175  1795 net.cpp:160] Top shape: 400 4096 (1638400)
I0705 07:20:08.355178  1795 net.cpp:168] Memory required for data: 3312992000
I0705 07:20:08.355190  1795 layer_factory.hpp:76] Creating layer relu7
I0705 07:20:08.355204  1795 net.cpp:109] Creating Layer relu7
I0705 07:20:08.355209  1795 net.cpp:457] relu7 <- fc7
I0705 07:20:08.355226  1795 net.cpp:400] relu7 -> fc7 (in-place)
I0705 07:20:08.355242  1795 net.cpp:153] Setting up relu7
I0705 07:20:08.355247  1795 net.cpp:160] Top shape: 400 4096 (1638400)
I0705 07:20:08.355249  1795 net.cpp:168] Memory required for data: 3319545600
I0705 07:20:08.355253  1795 layer_factory.hpp:76] Creating layer drop7
I0705 07:20:08.355262  1795 net.cpp:109] Creating Layer drop7
I0705 07:20:08.355265  1795 net.cpp:457] drop7 <- fc7
I0705 07:20:08.355270  1795 net.cpp:400] drop7 -> fc7 (in-place)
I0705 07:20:08.355296  1795 net.cpp:153] Setting up drop7
I0705 07:20:08.355304  1795 net.cpp:160] Top shape: 400 4096 (1638400)
I0705 07:20:08.355307  1795 net.cpp:168] Memory required for data: 3326099200
I0705 07:20:08.355310  1795 layer_factory.hpp:76] Creating layer fc8_clean
I0705 07:20:08.355357  1795 net.cpp:109] Creating Layer fc8_clean
I0705 07:20:08.355361  1795 net.cpp:457] fc8_clean <- fc7
I0705 07:20:08.355368  1795 net.cpp:414] fc8_clean -> fc8_clean
I0705 07:20:08.471710  1795 net.cpp:153] Setting up fc8_clean
I0705 07:20:08.471722  1795 net.cpp:160] Top shape: 400 967 (386800)
I0705 07:20:08.471726  1795 net.cpp:168] Memory required for data: 3327646400
I0705 07:20:08.471734  1795 layer_factory.hpp:76] Creating layer loss
I0705 07:20:08.471742  1795 net.cpp:109] Creating Layer loss
I0705 07:20:08.471746  1795 net.cpp:457] loss <- fc8_clean
I0705 07:20:08.471751  1795 net.cpp:457] loss <- label
I0705 07:20:08.471757  1795 net.cpp:414] loss -> loss
I0705 07:20:08.471776  1795 layer_factory.hpp:76] Creating layer loss
…
I0705 07:20:08.473613  1795 net.cpp:325] The NetState phase (1) differed from the phase (0) specified by a rule in layer train-data
I0705 07:20:08.473796  1795 net.cpp:52] Initializing net from parameters:
state {
phase: TEST
}
layer {
name: "val-data"
type: "Data"
top: "data"
top: "label"
include {
phase: TEST
}
transform_param {
crop_size: 227
mean_file: "/home/zml374/workspace/DIGITS/digits/jobs/20160704-085910-0cc9/mean.binaryproto"
}
data_param {
source: "/home/zml374/workspace/DIGITS/digits/jobs/20160704-085910-0cc9/val_db"
batch_size: 400
backend: LMDB
}
}
layer {
name: "conv1"
type: "Convolution"
bottom: "data"
top: "conv1"
param {
lr_mult: 0
decay_mult: 0
}
param {
lr_mult: 0
decay_mult: 0
}
convolution_param {
num_output: 96
kernel_size: 11
stride: 4
weight_filler {
type: "gaussian"
std: 0.01
}
bias_filler {
type: "constant"
value: 0
}
}
}
layer {
name: "relu1"
type: "ReLU"
bottom: "conv1"
top: "conv1"
}
layer {
name: "norm1"
type: "LRN"
bottom: "conv1"
top: "norm1"
lrn_param {
local_size: 5
alpha: 0.0001
beta: 0.75
}
}
layer {
name: "pool1"
type: "Pooling"
bottom: "norm1"
top: "pool1"
pooling_param {
pool: MAX
kernel_size: 3
stride: 2
}
}
layer {
name: "conv2"
type: "Convolution"
bottom: "pool1"
top: "conv2"
param {
lr_mult: 0
decay_mult: 0
}
param {
lr_mult: 0
decay_mult: 0
}
convolution_param {
num_output: 256
pad: 2
kernel_size: 5
group: 2
weight_filler {
type: "gaussian"
std: 0.01
}
bias_filler {
type: "constant"
value: 0.1
}
}
}
layer {
name: "relu2"
type: "ReLU"
bottom: "conv2"
top: "conv2"
}
layer {
name: "norm2"
type: "LRN"
bottom: "conv2"
top: "norm2"
lrn_param {
local_size: 5
alpha: 0.0001
beta: 0.75
}
}
layer {
name: "pool2"
type: "Pooling"
bottom: "norm2"
top: "pool2"
pooling_param {
pool: MAX
kernel_size: 3
stride: 2
}
}
layer {
name: "conv3"
type: "Convolution"
bottom: "pool2"
top: "conv3"
param {
lr_mult: 0
decay_mult: 0
}
param {
lr_mult: 0
decay_mult: 0
}
convolution_param {
num_output: 384
pad: 1
kernel_size: 3
weight_filler {
type: "gaussian"
std: 0.01
}
bias_filler {
type: "constant"
value: 0
}
}
}
layer {
name: "relu3"
type: "ReLU"
bottom: "conv3"
top: "conv3"
}
layer {
name: "conv4"
type: "Convolution"
bottom: "conv3"
top: "conv4"
param {
lr_mult: 0
decay_mult: 0
}
param {
lr_mult: 0
decay_mult: 0
}
convolution_param {
num_output: 384
pad: 1
kernel_size: 3
group: 2
weight_filler {
type: "gaussian"
std: 0.01
}
bias_filler {
type: "constant"
value: 0.1
}
}
}
layer {
name: "relu4"
type: "ReLU"
bottom: "conv4"
top: "conv4"
}
layer {
name: "conv5"
type: "Convolution"
bottom: "conv4"
top: "conv5"
param {
lr_mult: 0
decay_mult: 0
}
param {
lr_mult: 0
decay_mult: 0
}
convolution_param {
num_output: 256
pad: 1
kernel_size: 3
group: 2
weight_filler {
type: "gaussian"
std: 0.01
}
bias_filler {
type: "constant"
value: 0.1
}
}
}
layer {
name: "relu5"
type: "ReLU"
bottom: "conv5"
top: "conv5"
}
layer {
name: "pool5"
type: "Pooling"
bottom: "conv5"
top: "pool5"
pooling_param {
pool: MAX
kernel_size: 3
stride: 2
}
}
layer {
name: "fc6"
type: "InnerProduct"
bottom: "pool5"
top: "fc6"
param {
lr_mult: 0
decay_mult: 0
}
param {
lr_mult: 0
decay_mult: 0
}
inner_product_param {
num_output: 4096
weight_filler {
type: "gaussian"
std: 0.005
}
bias_filler {
type: "constant"
value: 0.1
}
}
}
layer {
name: "relu6"
type: "ReLU"
bottom: "fc6"
top: "fc6"
}
layer {
name: "drop6"
type: "Dropout"
bottom: "fc6"
top: "fc6"
dropout_param {
dropout_ratio: 0.5
}
}
layer {
name: "fc7"
type: "InnerProduct"
bottom: "fc6"
top: "fc7"
param {
lr_mult: 0
decay_mult: 0
}
param {
lr_mult: 0
decay_mult: 0
}
inner_product_param {
num_output: 4096
weight_filler {
type: "gaussian"
std: 0.005
}
bias_filler {
type: "constant"
value: 0.1
}
}
}
layer {
name: "relu7"
type: "ReLU"
bottom: "fc7"
top: "fc7"
}
layer {
name: "drop7"
type: "Dropout"
bottom: "fc7"
top: "fc7"
dropout_param {
dropout_ratio: 0.5
}
}
layer {
name: "fc8_clean"
type: "InnerProduct"
bottom: "fc7"
top: "fc8_clean"
param {
lr_mult: 1
decay_mult: 1
}
param {
lr_mult: 2
decay_mult: 0
}
inner_product_param {
num_output: 967
weight_filler {
type: "gaussian"
std: 0.01
}
bias_filler {
type: "constant"
value: 0
}
}
}
layer {
name: "accuracy"
type: "Accuracy"
bottom: "fc8_clean"
bottom: "label"
top: "accuracy"
include {
phase: TEST
}
}
layer {
name: "loss"
type: "SoftmaxWithLoss"
bottom: "fc8_clean"
bottom: "label"
top: "loss"
}
I0705 07:20:08.473947  1795 layer_factory.hpp:76] Creating layer val-data
I0705 07:20:08.474819  1795 net.cpp:109] Creating Layer val-data
I0705 07:20:08.474831  1795 net.cpp:414] val-data -> data
I0705 07:20:08.474841  1795 net.cpp:414] val-data -> label
I0705 07:20:08.474850  1795 data_transformer.cpp:25] Loading mean file from: /home/zml374/workspace/DIGITS/digits/jobs/20160704-085910-0cc9/mean.binaryproto
I0705 07:20:08.476120  1826 db_lmdb.cpp:36] Opened lmdb /home/zml374/workspace/DIGITS/digits/jobs/20160704-085910-0cc9/val_db
I0705 07:20:08.480203  1795 data_layer.cpp:45] output data size: 400,3,227,227
I0705 07:20:09.025557  1795 net.cpp:153] Setting up val-data
I0705 07:20:09.025598  1795 net.cpp:160] Top shape: 400 3 227 227 (61834800)
I0705 07:20:09.025604  1795 net.cpp:160] Top shape: 400 (400)
I0705 07:20:09.025607  1795 net.cpp:168] Memory required for data: 247340800
I0705 07:20:09.025614  1795 layer_factory.hpp:76] Creating layer label_val-data_1_split
I0705 07:20:09.025636  1795 net.cpp:109] Creating Layer label_val-data_1_split
I0705 07:20:09.025642  1795 net.cpp:457] label_val-data_1_split <- label
I0705 07:20:09.025652  1795 net.cpp:414] label_val-data_1_split -> label_val-data_1_split_0
I0705 07:20:09.025663  1795 net.cpp:414] label_val-data_1_split -> label_val-data_1_split_1
I0705 07:20:09.025773  1795 net.cpp:153] Setting up label_val-data_1_split
I0705 07:20:09.025784  1795 net.cpp:160] Top shape: 400 (400)
I0705 07:20:09.025789  1795 net.cpp:160] Top shape: 400 (400)
I0705 07:20:09.025792  1795 net.cpp:168] Memory required for data: 247344000
I0705 07:20:09.025796  1795 layer_factory.hpp:76] Creating layer conv1
I0705 07:20:09.025811  1795 net.cpp:109] Creating Layer conv1
I0705 07:20:09.025815  1795 net.cpp:457] conv1 <- data
I0705 07:20:09.025822  1795 net.cpp:414] conv1 -> conv1
I0705 07:20:09.027163  1795 net.cpp:153] Setting up conv1
I0705 07:20:09.027174  1795 net.cpp:160] Top shape: 400 96 55 55 (116160000)
I0705 07:20:09.027179  1795 net.cpp:168] Memory required for data: 711984000
I0705 07:20:09.027190  1795 layer_factory.hpp:76] Creating layer relu1
I0705 07:20:09.027200  1795 net.cpp:109] Creating Layer relu1
I0705 07:20:09.027204  1795 net.cpp:457] relu1 <- conv1
I0705 07:20:09.027218  1795 net.cpp:400] relu1 -> conv1 (in-place)
I0705 07:20:09.027228  1795 net.cpp:153] Setting up relu1
I0705 07:20:09.027235  1795 net.cpp:160] Top shape: 400 96 55 55 (116160000)
I0705 07:20:09.027237  1795 net.cpp:168] Memory required for data: 1176624000
I0705 07:20:09.027241  1795 layer_factory.hpp:76] Creating layer norm1
I0705 07:20:09.027252  1795 net.cpp:109] Creating Layer norm1
I0705 07:20:09.027256  1795 net.cpp:457] norm1 <- conv1
I0705 07:20:09.027262  1795 net.cpp:414] norm1 -> norm1
I0705 07:20:09.027305  1795 net.cpp:153] Setting up norm1
I0705 07:20:09.027313  1795 net.cpp:160] Top shape: 400 96 55 55 (116160000)
I0705 07:20:09.027318  1795 net.cpp:168] Memory required for data: 1641264000
I0705 07:20:09.027321  1795 layer_factory.hpp:76] Creating layer pool1
I0705 07:20:09.027330  1795 net.cpp:109] Creating Layer pool1
I0705 07:20:09.027334  1795 net.cpp:457] pool1 <- norm1
I0705 07:20:09.027340  1795 net.cpp:414] pool1 -> pool1
I0705 07:20:09.027377  1795 net.cpp:153] Setting up pool1
I0705 07:20:09.027384  1795 net.cpp:160] Top shape: 400 96 27 27 (27993600)
I0705 07:20:09.027387  1795 net.cpp:168] Memory required for data: 1753238400
I0705 07:20:09.027392  1795 layer_factory.hpp:76] Creating layer conv2
I0705 07:20:09.027401  1795 net.cpp:109] Creating Layer conv2
I0705 07:20:09.027405  1795 net.cpp:457] conv2 <- pool1
I0705 07:20:09.027411  1795 net.cpp:414] conv2 -> conv2
I0705 07:20:09.049778  1795 net.cpp:153] Setting up conv2
I0705 07:20:09.049828  1795 net.cpp:160] Top shape: 400 256 27 27 (74649600)
I0705 07:20:09.049832  1795 net.cpp:168] Memory required for data: 2051836800
I0705 07:20:09.049842  1795 layer_factory.hpp:76] Creating layer relu2
I0705 07:20:09.049851  1795 net.cpp:109] Creating Layer relu2
I0705 07:20:09.049855  1795 net.cpp:457] relu2 <- conv2
I0705 07:20:09.049861  1795 net.cpp:400] relu2 -> conv2 (in-place)
I0705 07:20:09.049870  1795 net.cpp:153] Setting up relu2
I0705 07:20:09.049875  1795 net.cpp:160] Top shape: 400 256 27 27 (74649600)
I0705 07:20:09.049877  1795 net.cpp:168] Memory required for data: 2350435200
I0705 07:20:09.049881  1795 layer_factory.hpp:76] Creating layer norm2
I0705 07:20:09.049890  1795 net.cpp:109] Creating Layer norm2
I0705 07:20:09.049893  1795 net.cpp:457] norm2 <- conv2
I0705 07:20:09.049901  1795 net.cpp:414] norm2 -> norm2
I0705 07:20:09.049942  1795 net.cpp:153] Setting up norm2
I0705 07:20:09.049950  1795 net.cpp:160] Top shape: 400 256 27 27 (74649600)
I0705 07:20:09.049954  1795 net.cpp:168] Memory required for data: 2649033600
I0705 07:20:09.049958  1795 layer_factory.hpp:76] Creating layer pool2
I0705 07:20:09.049965  1795 net.cpp:109] Creating Layer pool2
I0705 07:20:09.049969  1795 net.cpp:457] pool2 <- norm2
I0705 07:20:09.049975  1795 net.cpp:414] pool2 -> pool2
I0705 07:20:09.050011  1795 net.cpp:153] Setting up pool2
I0705 07:20:09.050017  1795 net.cpp:160] Top shape: 400 256 13 13 (17305600)
I0705 07:20:09.050021  1795 net.cpp:168] Memory required for data: 2718256000
I0705 07:20:09.050025  1795 layer_factory.hpp:76] Creating layer conv3
I0705 07:20:09.050034  1795 net.cpp:109] Creating Layer conv3
I0705 07:20:09.050038  1795 net.cpp:457] conv3 <- pool2
I0705 07:20:09.050045  1795 net.cpp:414] conv3 -> conv3
I0705 07:20:09.077421  1795 net.cpp:153] Setting up conv3
I0705 07:20:09.077435  1795 net.cpp:160] Top shape: 400 384 13 13 (25958400)
I0705 07:20:09.077438  1795 net.cpp:168] Memory required for data: 2822089600
I0705 07:20:09.077447  1795 layer_factory.hpp:76] Creating layer relu3
I0705 07:20:09.077455  1795 net.cpp:109] Creating Layer relu3
I0705 07:20:09.077460  1795 net.cpp:457] relu3 <- conv3
I0705 07:20:09.077466  1795 net.cpp:400] relu3 -> conv3 (in-place)
I0705 07:20:09.077472  1795 net.cpp:153] Setting up relu3
I0705 07:20:09.077477  1795 net.cpp:160] Top shape: 400 384 13 13 (25958400)
I0705 07:20:09.077481  1795 net.cpp:168] Memory required for data: 2925923200
I0705 07:20:09.077484  1795 layer_factory.hpp:76] Creating layer conv4
I0705 07:20:09.077492  1795 net.cpp:109] Creating Layer conv4
I0705 07:20:09.077497  1795 net.cpp:457] conv4 <- conv3
I0705 07:20:09.077503  1795 net.cpp:414] conv4 -> conv4
I0705 07:20:09.098140  1795 net.cpp:153] Setting up conv4
I0705 07:20:09.098153  1795 net.cpp:160] Top shape: 400 384 13 13 (25958400)
I0705 07:20:09.098157  1795 net.cpp:168] Memory required for data: 3029756800
I0705 07:20:09.098163  1795 layer_factory.hpp:76] Creating layer relu4
I0705 07:20:09.098171  1795 net.cpp:109] Creating Layer relu4
I0705 07:20:09.098176  1795 net.cpp:457] relu4 <- conv4
I0705 07:20:09.098181  1795 net.cpp:400] relu4 -> conv4 (in-place)
I0705 07:20:09.098188  1795 net.cpp:153] Setting up relu4
I0705 07:20:09.098193  1795 net.cpp:160] Top shape: 400 384 13 13 (25958400)
I0705 07:20:09.098196  1795 net.cpp:168] Memory required for data: 3133590400
I0705 07:20:09.098201  1795 layer_factory.hpp:76] Creating layer conv5
I0705 07:20:09.098208  1795 net.cpp:109] Creating Layer conv5
I0705 07:20:09.098212  1795 net.cpp:457] conv5 <- conv4
I0705 07:20:09.098218  1795 net.cpp:414] conv5 -> conv5
I0705 07:20:09.112062  1795 net.cpp:153] Setting up conv5
I0705 07:20:09.112076  1795 net.cpp:160] Top shape: 400 256 13 13 (17305600)
I0705 07:20:09.112079  1795 net.cpp:168] Memory required for data: 3202812800
I0705 07:20:09.112089  1795 layer_factory.hpp:76] Creating layer relu5
I0705 07:20:09.112097  1795 net.cpp:109] Creating Layer relu5
I0705 07:20:09.112100  1795 net.cpp:457] relu5 <- conv5
I0705 07:20:09.112107  1795 net.cpp:400] relu5 -> conv5 (in-place)
I0705 07:20:09.112146  1795 net.cpp:153] Setting up relu5
I0705 07:20:09.112152  1795 net.cpp:160] Top shape: 400 256 13 13 (17305600)
I0705 07:20:09.112155  1795 net.cpp:168] Memory required for data: 3272035200
I0705 07:20:09.112159  1795 layer_factory.hpp:76] Creating layer pool5
I0705 07:20:09.112169  1795 net.cpp:109] Creating Layer pool5
I0705 07:20:09.112174  1795 net.cpp:457] pool5 <- conv5
I0705 07:20:09.112180  1795 net.cpp:414] pool5 -> pool5
I0705 07:20:09.112221  1795 net.cpp:153] Setting up pool5
I0705 07:20:09.112229  1795 net.cpp:160] Top shape: 400 256 6 6 (3686400)
I0705 07:20:09.112233  1795 net.cpp:168] Memory required for data: 3286780800
I0705 07:20:09.112237  1795 layer_factory.hpp:76] Creating layer fc6
I0705 07:20:09.112246  1795 net.cpp:109] Creating Layer fc6
I0705 07:20:09.112251  1795 net.cpp:457] fc6 <- pool5
I0705 07:20:09.112257  1795 net.cpp:414] fc6 -> fc6
I0705 07:20:10.302882  1795 net.cpp:153] Setting up fc6
I0705 07:20:10.302918  1795 net.cpp:160] Top shape: 400 4096 (1638400)
I0705 07:20:10.302923  1795 net.cpp:168] Memory required for data: 3293334400
I0705 07:20:10.302934  1795 layer_factory.hpp:76] Creating layer relu6
I0705 07:20:10.302947  1795 net.cpp:109] Creating Layer relu6
I0705 07:20:10.302954  1795 net.cpp:457] relu6 <- fc6
I0705 07:20:10.302963  1795 net.cpp:400] relu6 -> fc6 (in-place)
I0705 07:20:10.302976  1795 net.cpp:153] Setting up relu6
I0705 07:20:10.302981  1795 net.cpp:160] Top shape: 400 4096 (1638400)
I0705 07:20:10.302984  1795 net.cpp:168] Memory required for data: 3299888000
I0705 07:20:10.302989  1795 layer_factory.hpp:76] Creating layer drop6
I0705 07:20:10.302996  1795 net.cpp:109] Creating Layer drop6
I0705 07:20:10.303000  1795 net.cpp:457] drop6 <- fc6
I0705 07:20:10.303005  1795 net.cpp:400] drop6 -> fc6 (in-place)
I0705 07:20:10.303032  1795 net.cpp:153] Setting up drop6
I0705 07:20:10.303040  1795 net.cpp:160] Top shape: 400 4096 (1638400)
I0705 07:20:10.303042  1795 net.cpp:168] Memory required for data: 3306441600
I0705 07:20:10.303046  1795 layer_factory.hpp:76] Creating layer fc7
I0705 07:20:10.303056  1795 net.cpp:109] Creating Layer fc7
I0705 07:20:10.303061  1795 net.cpp:457] fc7 <- fc6
I0705 07:20:10.303066  1795 net.cpp:414] fc7 -> fc7
I0705 07:20:10.829879  1795 net.cpp:153] Setting up fc7
I0705 07:20:10.829915  1795 net.cpp:160] Top shape: 400 4096 (1638400)
I0705 07:20:10.829919  1795 net.cpp:168] Memory required for data: 3312995200
I0705 07:20:10.829944  1795 layer_factory.hpp:76] Creating layer relu7
I0705 07:20:10.829957  1795 net.cpp:109] Creating Layer relu7
I0705 07:20:10.829963  1795 net.cpp:457] relu7 <- fc7
I0705 07:20:10.829972  1795 net.cpp:400] relu7 -> fc7 (in-place)
I0705 07:20:10.829987  1795 net.cpp:153] Setting up relu7
I0705 07:20:10.829993  1795 net.cpp:160] Top shape: 400 4096 (1638400)
I0705 07:20:10.829995  1795 net.cpp:168] Memory required for data: 3319548800
I0705 07:20:10.829999  1795 layer_factory.hpp:76] Creating layer drop7
I0705 07:20:10.830008  1795 net.cpp:109] Creating Layer drop7
I0705 07:20:10.830011  1795 net.cpp:457] drop7 <- fc7
I0705 07:20:10.830018  1795 net.cpp:400] drop7 -> fc7 (in-place)
I0705 07:20:10.830044  1795 net.cpp:153] Setting up drop7
I0705 07:20:10.830051  1795 net.cpp:160] Top shape: 400 4096 (1638400)
I0705 07:20:10.830055  1795 net.cpp:168] Memory required for data: 3326102400
I0705 07:20:10.830060  1795 layer_factory.hpp:76] Creating layer fc8_clean
I0705 07:20:10.830068  1795 net.cpp:109] Creating Layer fc8_clean
I0705 07:20:10.830072  1795 net.cpp:457] fc8_clean <- fc7
I0705 07:20:10.830080  1795 net.cpp:414] fc8_clean -> fc8_clean
I0705 07:20:10.952754  1795 net.cpp:153] Setting up fc8_clean
I0705 07:20:10.952788  1795 net.cpp:160] Top shape: 400 967 (386800)
I0705 07:20:10.952792  1795 net.cpp:168] Memory required for data: 3327649600
I0705 07:20:10.952803  1795 layer_factory.hpp:76] Creating layer fc8_clean_fc8_clean_0_split
I0705 07:20:10.952816  1795 net.cpp:109] Creating Layer fc8_clean_fc8_clean_0_split
I0705 07:20:10.952823  1795 net.cpp:457] fc8_clean_fc8_clean_0_split <- fc8_clean
I0705 07:20:10.952865  1795 net.cpp:414] fc8_clean_fc8_clean_0_split -> fc8_clean_fc8_clean_0_split_0
I0705 07:20:10.952877  1795 net.cpp:414] fc8_clean_fc8_clean_0_split -> fc8_clean_fc8_clean_0_split_1
I0705 07:20:10.952919  1795 net.cpp:153] Setting up fc8_clean_fc8_clean_0_split
I0705 07:20:10.952926  1795 net.cpp:160] Top shape: 400 967 (386800)
I0705 07:20:10.952930  1795 net.cpp:160] Top shape: 400 967 (386800)
I0705 07:20:10.952934  1795 net.cpp:168] Memory required for data: 3330744000
I0705 07:20:10.952937  1795 layer_factory.hpp:76] Creating layer accuracy
I0705 07:20:10.952946  1795 net.cpp:109] Creating Layer accuracy
I0705 07:20:10.952950  1795 net.cpp:457] accuracy <- fc8_clean_fc8_clean_0_split_0
I0705 07:20:10.952955  1795 net.cpp:457] accuracy <- label_val-data_1_split_0
I0705 07:20:10.952961  1795 net.cpp:414] accuracy -> accuracy
…
