…
I0703 23:24:30.422741  9778 net.cpp:52] Initializing net from parameters:
state {
phase: TRAIN
}
layer {
name: "data"
type: "Data"
top: "data"
include {
phase: TRAIN
}
transform_param {
mean_file: "/home/ffw/scratch/plantClef/scatnet_output/train/a4_m3_s1s2s4_f2/lmdb_mean_coeff.binaryproto"
}
data_param {
source: "/home/ffw/scratch/plantClef/scatnet_output/train/a4_m3_s1s2s4_f2/lmdb_data"
batch_size: 32
backend: LMDB
}
}
layer {
name: "label"
type: "Data"
top: "label"
include {
phase: TRAIN
}
data_param {
source: "/home/ffw/scratch/plantClef/scatnet_output/train/a4_m3_s1s2s4_f2/lmdb_labels"
batch_size: 32
backend: LMDB
}
}
layer {
name: "pool1"
type: "Pooling"
bottom: "data"
top: "pool1"
pooling_param {
pool: MAX
kernel_size: 6
stride: 5
}
}
layer {
name: "conv3"
type: "Convolution"
bottom: "pool1"
top: "conv3"
param {
lr_mult: 1
decay_mult: 1
}
param {
lr_mult: 2
decay_mult: 0
}
convolution_param {
num_output: 384
pad: 1
kernel_size: 3
weight_filler {
type: "gaussian"
std: 0.01
}
bias_filler {
type: "constant"
value: 0
}
}
}
layer {
name: "relu3"
type: "ReLU"
bottom: "conv3"
top: "conv3"
}
layer {
name: "conv4"
type: "Convolution"
bottom: "conv3"
top: "conv4"
param {
lr_mult: 1
decay_mult: 1
}
param {
lr_mult: 2
decay_mult: 0
}
convolution_param {
num_output: 384
pad: 1
kernel_size: 3
group: 2
weight_filler {
type: "gaussian"
std: 0.01
}
bias_filler {
type: "constant"
value: 0.1
}
}
}
layer {
name: "relu4"
type: "ReLU"
bottom: "conv4"
top: "conv4"
}
layer {
name: "conv5"
type: "Convolution"
bottom: "conv4"
top: "conv5"
param {
lr_mult: 1
decay_mult: 1
}
param {
lr_mult: 2
decay_mult: 0
}
convolution_param {
num_output: 256
pad: 1
kernel_size: 3
group: 1
weight_filler {
type: "gaussian"
std: 0.01
}
bias_filler {
type: "constant"
value: 0.1
}
}
}
layer {
name: "relu5"
type: "ReLU"
bottom: "conv5"
top: "conv5"
}
layer {
name: "pool5"
type: "Pooling"
bottom: "conv5"
top: "pool5"
pooling_param {
pool: MAX
kernel_size: 3
stride: 2
}
}
layer {
name: "fc6"
type: "InnerProduct"
bottom: "pool5"
top: "fc6"
param {
lr_mult: 1
decay_mult: 1
}
param {
lr_mult: 2
decay_mult: 0
}
inner_product_param {
num_output: 4096
weight_filler {
type: "gaussian"
std: 0.005
}
bias_filler {
type: "constant"
value: 0.1
}
}
}
layer {
name: "relu6"
type: "ReLU"
bottom: "fc6"
top: "fc6"
}
layer {
name: "drop6"
type: "Dropout"
bottom: "fc6"
top: "fc6"
dropout_param {
dropout_ratio: 0.5
}
}
layer {
name: "fc7"
type: "InnerProduct"
bottom: "fc6"
top: "fc7"
param {
lr_mult: 1
decay_mult: 1
}
param {
lr_mult: 2
decay_mult: 0
}
inner_product_param {
num_output: 4096
weight_filler {
type: "gaussian"
std: 0.005
}
bias_filler {
type: "constant"
value: 0.1
}
}
}
layer {
name: "relu7"
type: "ReLU"
bottom: "fc7"
top: "fc7"
}
layer {
name: "drop7"
type: "Dropout"
bottom: "fc7"
top: "fc7"
dropout_param {
dropout_ratio: 0.5
}
}
layer {
name: "fc8_species"
type: "InnerProduct"
bottom: "fc7"
top: "fc8_species"
param {
lr_mult: 1
decay_mult: 1
}
param {
lr_mult: 2
decay_mult: 0
}
inner_product_param {
num_output: 967
weight_filler {
type: "gaussian"
std: 0.005
}
bias_filler {
type: "constant"
value: 0.1
}
}
}
layer {
name: "loss"
type: "SoftmaxWithLoss"
bottom: "fc8_species"
bottom: "label"
top: "loss"
}
I0703 23:24:30.422798  9778 layer_factory.hpp:76] Creating layer data
I0703 23:24:30.423856  9778 net.cpp:109] Creating Layer data
I0703 23:24:30.423862  9778 net.cpp:414] data -> data
I0703 23:24:30.424329  9778 data_transformer.cpp:25] Loading mean file from: /home/ffw/scratch/plantClef/scatnet_output/train/a4_m3_s1s2s4_f2/lmdb_mean_coeff.binaryproto
I0703 23:24:30.425951  9790 db_lmdb.cpp:36] Opened lmdb /home/ffw/scratch/plantClef/scatnet_output/train/a4_m3_s1s2s4_f2/lmdb_data
I0703 23:24:30.444471  9778 data_layer.cpp:45] output data size: 32,375,47,47
I0703 23:24:30.560116  9778 net.cpp:153] Setting up data
I0703 23:24:30.560148  9778 net.cpp:160] Top shape: 32 375 47 47 (26508000)
I0703 23:24:30.560153  9778 net.cpp:168] Memory required for data: 106032000
I0703 23:24:30.560161  9778 layer_factory.hpp:76] Creating layer label
I0703 23:24:30.560214  9778 net.cpp:109] Creating Layer label
I0703 23:24:30.560228  9778 net.cpp:414] label -> label
I0703 23:24:30.564376  9792 db_lmdb.cpp:36] Opened lmdb /home/ffw/scratch/plantClef/scatnet_output/train/a4_m3_s1s2s4_f2/lmdb_labels
I0703 23:24:30.570978  9778 data_layer.cpp:45] output data size: 32,1,1,1
I0703 23:24:30.571146  9778 net.cpp:153] Setting up label
I0703 23:24:30.571166  9778 net.cpp:160] Top shape: 32 1 1 1 (32)
I0703 23:24:30.571169  9778 net.cpp:168] Memory required for data: 106032128
I0703 23:24:30.571172  9778 layer_factory.hpp:76] Creating layer pool1
I0703 23:24:30.571182  9778 net.cpp:109] Creating Layer pool1
I0703 23:24:30.571185  9778 net.cpp:457] pool1 <- data
I0703 23:24:30.571194  9778 net.cpp:414] pool1 -> pool1
I0703 23:24:30.571238  9778 net.cpp:153] Setting up pool1
I0703 23:24:30.571243  9778 net.cpp:160] Top shape: 32 375 10 10 (1200000)
I0703 23:24:30.571244  9778 net.cpp:168] Memory required for data: 110832128
I0703 23:24:30.571246  9778 layer_factory.hpp:76] Creating layer conv3
I0703 23:24:30.571252  9778 net.cpp:109] Creating Layer conv3
I0703 23:24:30.571254  9778 net.cpp:457] conv3 <- pool1
I0703 23:24:30.571259  9778 net.cpp:414] conv3 -> conv3
I0703 23:24:30.600631  9778 net.cpp:153] Setting up conv3
I0703 23:24:30.600674  9778 net.cpp:160] Top shape: 32 384 10 10 (1228800)
I0703 23:24:30.600682  9778 net.cpp:168] Memory required for data: 115747328
I0703 23:24:30.600694  9778 layer_factory.hpp:76] Creating layer relu3
I0703 23:24:30.600713  9778 net.cpp:109] Creating Layer relu3
I0703 23:24:30.600716  9778 net.cpp:457] relu3 <- conv3
I0703 23:24:30.600720  9778 net.cpp:400] relu3 -> conv3 (in-place)
I0703 23:24:30.600735  9778 net.cpp:153] Setting up relu3
I0703 23:24:30.600739  9778 net.cpp:160] Top shape: 32 384 10 10 (1228800)
I0703 23:24:30.600740  9778 net.cpp:168] Memory required for data: 120662528
I0703 23:24:30.600742  9778 layer_factory.hpp:76] Creating layer conv4
I0703 23:24:30.600749  9778 net.cpp:109] Creating Layer conv4
I0703 23:24:30.600750  9778 net.cpp:457] conv4 <- conv3
I0703 23:24:30.600754  9778 net.cpp:414] conv4 -> conv4
I0703 23:24:30.615399  9778 net.cpp:153] Setting up conv4
I0703 23:24:30.615417  9778 net.cpp:160] Top shape: 32 384 10 10 (1228800)
I0703 23:24:30.615420  9778 net.cpp:168] Memory required for data: 125577728
I0703 23:24:30.615427  9778 layer_factory.hpp:76] Creating layer relu4
I0703 23:24:30.615434  9778 net.cpp:109] Creating Layer relu4
I0703 23:24:30.615438  9778 net.cpp:457] relu4 <- conv4
I0703 23:24:30.615443  9778 net.cpp:400] relu4 -> conv4 (in-place)
I0703 23:24:30.615464  9778 net.cpp:153] Setting up relu4
I0703 23:24:30.615468  9778 net.cpp:160] Top shape: 32 384 10 10 (1228800)
I0703 23:24:30.615469  9778 net.cpp:168] Memory required for data: 130492928
I0703 23:24:30.615471  9778 layer_factory.hpp:76] Creating layer conv5
I0703 23:24:30.615478  9778 net.cpp:109] Creating Layer conv5
I0703 23:24:30.615479  9778 net.cpp:457] conv5 <- conv4
I0703 23:24:30.615483  9778 net.cpp:414] conv5 -> conv5
I0703 23:24:30.635092  9778 net.cpp:153] Setting up conv5
I0703 23:24:30.635126  9778 net.cpp:160] Top shape: 32 256 10 10 (819200)
I0703 23:24:30.635131  9778 net.cpp:168] Memory required for data: 133769728
I0703 23:24:30.635143  9778 layer_factory.hpp:76] Creating layer relu5
I0703 23:24:30.635154  9778 net.cpp:109] Creating Layer relu5
I0703 23:24:30.635157  9778 net.cpp:457] relu5 <- conv5
I0703 23:24:30.635161  9778 net.cpp:400] relu5 -> conv5 (in-place)
I0703 23:24:30.635169  9778 net.cpp:153] Setting up relu5
I0703 23:24:30.635171  9778 net.cpp:160] Top shape: 32 256 10 10 (819200)
I0703 23:24:30.635174  9778 net.cpp:168] Memory required for data: 137046528
I0703 23:24:30.635175  9778 layer_factory.hpp:76] Creating layer pool5
I0703 23:24:30.635179  9778 net.cpp:109] Creating Layer pool5
I0703 23:24:30.635181  9778 net.cpp:457] pool5 <- conv5
I0703 23:24:30.635184  9778 net.cpp:414] pool5 -> pool5
I0703 23:24:30.635213  9778 net.cpp:153] Setting up pool5
I0703 23:24:30.635216  9778 net.cpp:160] Top shape: 32 256 5 5 (204800)
I0703 23:24:30.635218  9778 net.cpp:168] Memory required for data: 137865728
I0703 23:24:30.635221  9778 layer_factory.hpp:76] Creating layer fc6
I0703 23:24:30.635226  9778 net.cpp:109] Creating Layer fc6
I0703 23:24:30.635227  9778 net.cpp:457] fc6 <- pool5
I0703 23:24:30.635231  9778 net.cpp:414] fc6 -> fc6
I0703 23:24:31.159888  9778 net.cpp:153] Setting up fc6
I0703 23:24:31.159906  9778 net.cpp:160] Top shape: 32 4096 (131072)
I0703 23:24:31.159909  9778 net.cpp:168] Memory required for data: 138390016
I0703 23:24:31.159914  9778 layer_factory.hpp:76] Creating layer relu6
I0703 23:24:31.159921  9778 net.cpp:109] Creating Layer relu6
I0703 23:24:31.159924  9778 net.cpp:457] relu6 <- fc6
I0703 23:24:31.159927  9778 net.cpp:400] relu6 -> fc6 (in-place)
I0703 23:24:31.159934  9778 net.cpp:153] Setting up relu6
I0703 23:24:31.159936  9778 net.cpp:160] Top shape: 32 4096 (131072)
I0703 23:24:31.159939  9778 net.cpp:168] Memory required for data: 138914304
I0703 23:24:31.159940  9778 layer_factory.hpp:76] Creating layer drop6
I0703 23:24:31.160487  9778 net.cpp:109] Creating Layer drop6
I0703 23:24:31.160493  9778 net.cpp:457] drop6 <- fc6
I0703 23:24:31.160496  9778 net.cpp:400] drop6 -> fc6 (in-place)
I0703 23:24:31.160516  9778 net.cpp:153] Setting up drop6
I0703 23:24:31.160518  9778 net.cpp:160] Top shape: 32 4096 (131072)
I0703 23:24:31.160521  9778 net.cpp:168] Memory required for data: 139438592
I0703 23:24:31.160522  9778 layer_factory.hpp:76] Creating layer fc7
I0703 23:24:31.160527  9778 net.cpp:109] Creating Layer fc7
I0703 23:24:31.160529  9778 net.cpp:457] fc7 <- fc6
I0703 23:24:31.160532  9778 net.cpp:414] fc7 -> fc7
I0703 23:24:31.464119  9778 net.cpp:153] Setting up fc7
I0703 23:24:31.464139  9778 net.cpp:160] Top shape: 32 4096 (131072)
I0703 23:24:31.464143  9778 net.cpp:168] Memory required for data: 139962880
I0703 23:24:31.464150  9778 layer_factory.hpp:76] Creating layer relu7
I0703 23:24:31.464156  9778 net.cpp:109] Creating Layer relu7
I0703 23:24:31.464159  9778 net.cpp:457] relu7 <- fc7
I0703 23:24:31.464162  9778 net.cpp:400] relu7 -> fc7 (in-place)
I0703 23:24:31.464169  9778 net.cpp:153] Setting up relu7
I0703 23:24:31.464171  9778 net.cpp:160] Top shape: 32 4096 (131072)
I0703 23:24:31.464174  9778 net.cpp:168] Memory required for data: 140487168
I0703 23:24:31.464175  9778 layer_factory.hpp:76] Creating layer drop7
I0703 23:24:31.464179  9778 net.cpp:109] Creating Layer drop7
I0703 23:24:31.464180  9778 net.cpp:457] drop7 <- fc7
I0703 23:24:31.464182  9778 net.cpp:400] drop7 -> fc7 (in-place)
I0703 23:24:31.464215  9778 net.cpp:153] Setting up drop7
I0703 23:24:31.464218  9778 net.cpp:160] Top shape: 32 4096 (131072)
I0703 23:24:31.464221  9778 net.cpp:168] Memory required for data: 141011456
I0703 23:24:31.464222  9778 layer_factory.hpp:76] Creating layer fc8_species
I0703 23:24:31.464228  9778 net.cpp:109] Creating Layer fc8_species
I0703 23:24:31.464231  9778 net.cpp:457] fc8_species <- fc7
I0703 23:24:31.464233  9778 net.cpp:414] fc8_species -> fc8_species
I0703 23:24:31.537050  9778 net.cpp:153] Setting up fc8_species
I0703 23:24:31.537066  9778 net.cpp:160] Top shape: 32 967 (30944)
I0703 23:24:31.537068  9778 net.cpp:168] Memory required for data: 141135232
I0703 23:24:31.537075  9778 layer_factory.hpp:76] Creating layer loss
I0703 23:24:31.537502  9778 net.cpp:109] Creating Layer loss
I0703 23:24:31.537506  9778 net.cpp:457] loss <- fc8_species
I0703 23:24:31.537510  9778 net.cpp:457] loss <- label
I0703 23:24:31.537513  9778 net.cpp:414] loss -> loss
I0703 23:24:31.537520  9778 layer_factory.hpp:76] Creating layer loss
…
I0703 23:24:31.538657  9778 net.cpp:52] Initializing net from parameters:
state {
phase: TEST
}
layer {
name: "data"
type: "Data"
top: "data"
include {
phase: TEST
}
transform_param {
mean_file: "/home/ffw/scratch/plantClef/scatnet_output/train/a4_m3_s1s2s4_f2/lmdb_mean_coeff.binaryproto"
}
data_param {
source: "/home/ffw/scratch/plantClef/scatnet_output/test/a4_m3_s1s2s4_f2/lmdb_data"
batch_size: 32
backend: LMDB
}
}
layer {
name: "label"
type: "Data"
top: "label"
include {
phase: TEST
}
data_param {
source: "/home/ffw/scratch/plantClef/scatnet_output/test/a4_m3_s1s2s4_f2/lmdb_labels"
batch_size: 32
backend: LMDB
}
}
layer {
name: "pool1"
type: "Pooling"
bottom: "data"
top: "pool1"
pooling_param {
pool: MAX
kernel_size: 6
stride: 5
}
}
layer {
name: "conv3"
type: "Convolution"
bottom: "pool1"
top: "conv3"
param {
lr_mult: 1
decay_mult: 1
}
param {
lr_mult: 2
decay_mult: 0
}
convolution_param {
num_output: 384
pad: 1
kernel_size: 3
weight_filler {
type: "gaussian"
std: 0.01
}
bias_filler {
type: "constant"
value: 0
}
}
}
layer {
name: "relu3"
type: "ReLU"
bottom: "conv3"
top: "conv3"
}
layer {
name: "conv4"
type: "Convolution"
bottom: "conv3"
top: "conv4"
param {
lr_mult: 1
decay_mult: 1
}
param {
lr_mult: 2
decay_mult: 0
}
convolution_param {
num_output: 384
pad: 1
kernel_size: 3
group: 2
weight_filler {
type: "gaussian"
std: 0.01
}
bias_filler {
type: "constant"
value: 0.1
}
}
}
layer {
name: "relu4"
type: "ReLU"
bottom: "conv4"
top: "conv4"
}
layer {
name: "conv5"
type: "Convolution"
bottom: "conv4"
top: "conv5"
param {
lr_mult: 1
decay_mult: 1
}
param {
lr_mult: 2
decay_mult: 0
}
convolution_param {
num_output: 256
pad: 1
kernel_size: 3
group: 1
weight_filler {
type: "gaussian"
std: 0.01
}
bias_filler {
type: "constant"
value: 0.1
}
}
}
layer {
name: "relu5"
type: "ReLU"
bottom: "conv5"
top: "conv5"
}
layer {
name: "pool5"
type: "Pooling"
bottom: "conv5"
top: "pool5"
pooling_param {
pool: MAX
kernel_size: 3
stride: 2
}
}
layer {
name: "fc6"
type: "InnerProduct"
bottom: "pool5"
top: "fc6"
param {
lr_mult: 1
decay_mult: 1
}
param {
lr_mult: 2
decay_mult: 0
}
inner_product_param {
num_output: 4096
weight_filler {
type: "gaussian"
std: 0.005
}
bias_filler {
type: "constant"
value: 0.1
}
}
}
layer {
name: "relu6"
type: "ReLU"
bottom: "fc6"
top: "fc6"
}
layer {
name: "drop6"
type: "Dropout"
bottom: "fc6"
top: "fc6"
dropout_param {
dropout_ratio: 0.5
}
}
layer {
name: "fc7"
type: "InnerProduct"
bottom: "fc6"
top: "fc7"
param {
lr_mult: 1
decay_mult: 1
}
param {
lr_mult: 2
decay_mult: 0
}
inner_product_param {
num_output: 4096
weight_filler {
type: "gaussian"
std: 0.005
}
bias_filler {
type: "constant"
value: 0.1
}
}
}
layer {
name: "relu7"
type: "ReLU"
bottom: "fc7"
top: "fc7"
}
layer {
name: "drop7"
type: "Dropout"
bottom: "fc7"
top: "fc7"
dropout_param {
dropout_ratio: 0.5
}
}
layer {
name: "fc8_species"
type: "InnerProduct"
bottom: "fc7"
top: "fc8_species"
param {
lr_mult: 1
decay_mult: 1
}
param {
lr_mult: 2
decay_mult: 0
}
inner_product_param {
num_output: 967
weight_filler {
type: "gaussian"
std: 0.005
}
bias_filler {
type: "constant"
value: 0.1
}
}
}
layer {
name: "loss"
type: "SoftmaxWithLoss"
bottom: "fc8_species"
bottom: "label"
top: "loss"
}
layer {
name: "accuracy"
type: "Accuracy"
bottom: "fc8_species"
bottom: "label"
top: "accuracy"
include {
phase: TEST
}
}
I0703 23:24:31.538720  9778 layer_factory.hpp:76] Creating layer data
I0703 23:24:31.538774  9778 net.cpp:109] Creating Layer data
I0703 23:24:31.538777  9778 net.cpp:414] data -> data
I0703 23:24:31.538784  9778 data_transformer.cpp:25] Loading mean file from: /home/ffw/scratch/plantClef/scatnet_output/train/a4_m3_s1s2s4_f2/lmdb_mean_coeff.binaryproto
I0703 23:24:31.539912  9794 db_lmdb.cpp:36] Opened lmdb /home/ffw/scratch/plantClef/scatnet_output/test/a4_m3_s1s2s4_f2/lmdb_data
I0703 23:24:31.544903  9778 data_layer.cpp:45] output data size: 32,375,47,47
I0703 23:24:31.660192  9778 net.cpp:153] Setting up data
I0703 23:24:31.660215  9778 net.cpp:160] Top shape: 32 375 47 47 (26508000)
I0703 23:24:31.660229  9778 net.cpp:168] Memory required for data: 106032000
I0703 23:24:31.660233  9778 layer_factory.hpp:76] Creating layer label
I0703 23:24:31.668076  9778 net.cpp:109] Creating Layer label
I0703 23:24:31.668097  9778 net.cpp:414] label -> label
I0703 23:24:31.680462  9796 db_lmdb.cpp:36] Opened lmdb /home/ffw/scratch/plantClef/scatnet_output/test/a4_m3_s1s2s4_f2/lmdb_labels
I0703 23:24:31.682992  9778 data_layer.cpp:45] output data size: 32,1,1,1
I0703 23:24:31.683154  9778 net.cpp:153] Setting up label
I0703 23:24:31.683164  9778 net.cpp:160] Top shape: 32 1 1 1 (32)
I0703 23:24:31.683167  9778 net.cpp:168] Memory required for data: 106032128
I0703 23:24:31.683172  9778 layer_factory.hpp:76] Creating layer label_label_0_split
I0703 23:24:31.683187  9778 net.cpp:109] Creating Layer label_label_0_split
I0703 23:24:31.683189  9778 net.cpp:457] label_label_0_split <- label
I0703 23:24:31.683195  9778 net.cpp:414] label_label_0_split -> label_label_0_split_0
I0703 23:24:31.683202  9778 net.cpp:414] label_label_0_split -> label_label_0_split_1
I0703 23:24:31.683318  9778 net.cpp:153] Setting up label_label_0_split
I0703 23:24:31.683331  9778 net.cpp:160] Top shape: 32 1 1 1 (32)
I0703 23:24:31.683333  9778 net.cpp:160] Top shape: 32 1 1 1 (32)
I0703 23:24:31.683336  9778 net.cpp:168] Memory required for data: 106032384
I0703 23:24:31.683337  9778 layer_factory.hpp:76] Creating layer pool1
I0703 23:24:31.683344  9778 net.cpp:109] Creating Layer pool1
I0703 23:24:31.683346  9778 net.cpp:457] pool1 <- data
I0703 23:24:31.683351  9778 net.cpp:414] pool1 -> pool1
I0703 23:24:31.683374  9778 net.cpp:153] Setting up pool1
I0703 23:24:31.683378  9778 net.cpp:160] Top shape: 32 375 10 10 (1200000)
I0703 23:24:31.683379  9778 net.cpp:168] Memory required for data: 110832384
I0703 23:24:31.683382  9778 layer_factory.hpp:76] Creating layer conv3
I0703 23:24:31.683389  9778 net.cpp:109] Creating Layer conv3
I0703 23:24:31.683392  9778 net.cpp:457] conv3 <- pool1
I0703 23:24:31.683394  9778 net.cpp:414] conv3 -> conv3
I0703 23:24:31.709734  9778 net.cpp:153] Setting up conv3
I0703 23:24:31.709753  9778 net.cpp:160] Top shape: 32 384 10 10 (1228800)
I0703 23:24:31.709756  9778 net.cpp:168] Memory required for data: 115747584
I0703 23:24:31.709764  9778 layer_factory.hpp:76] Creating layer relu3
I0703 23:24:31.709772  9778 net.cpp:109] Creating Layer relu3
I0703 23:24:31.709775  9778 net.cpp:457] relu3 <- conv3
I0703 23:24:31.709779  9778 net.cpp:400] relu3 -> conv3 (in-place)
I0703 23:24:31.709786  9778 net.cpp:153] Setting up relu3
I0703 23:24:31.709789  9778 net.cpp:160] Top shape: 32 384 10 10 (1228800)
I0703 23:24:31.709790  9778 net.cpp:168] Memory required for data: 120662784
I0703 23:24:31.709792  9778 layer_factory.hpp:76] Creating layer conv4
I0703 23:24:31.709799  9778 net.cpp:109] Creating Layer conv4
I0703 23:24:31.709800  9778 net.cpp:457] conv4 <- conv3
I0703 23:24:31.709805  9778 net.cpp:414] conv4 -> conv4
I0703 23:24:31.723719  9778 net.cpp:153] Setting up conv4
I0703 23:24:31.723747  9778 net.cpp:160] Top shape: 32 384 10 10 (1228800)
I0703 23:24:31.723748  9778 net.cpp:168] Memory required for data: 125577984
I0703 23:24:31.723758  9778 layer_factory.hpp:76] Creating layer relu4
I0703 23:24:31.723768  9778 net.cpp:109] Creating Layer relu4
I0703 23:24:31.723773  9778 net.cpp:457] relu4 <- conv4
I0703 23:24:31.723778  9778 net.cpp:400] relu4 -> conv4 (in-place)
I0703 23:24:31.723785  9778 net.cpp:153] Setting up relu4
I0703 23:24:31.723790  9778 net.cpp:160] Top shape: 32 384 10 10 (1228800)
I0703 23:24:31.723794  9778 net.cpp:168] Memory required for data: 130493184
I0703 23:24:31.723798  9778 layer_factory.hpp:76] Creating layer conv5
I0703 23:24:31.723805  9778 net.cpp:109] Creating Layer conv5
I0703 23:24:31.723809  9778 net.cpp:457] conv5 <- conv4
I0703 23:24:31.723812  9778 net.cpp:414] conv5 -> conv5
I0703 23:24:31.741865  9778 net.cpp:153] Setting up conv5
I0703 23:24:31.741883  9778 net.cpp:160] Top shape: 32 256 10 10 (819200)
I0703 23:24:31.741885  9778 net.cpp:168] Memory required for data: 133769984
I0703 23:24:31.741892  9778 layer_factory.hpp:76] Creating layer relu5
I0703 23:24:31.741899  9778 net.cpp:109] Creating Layer relu5
I0703 23:24:31.741901  9778 net.cpp:457] relu5 <- conv5
I0703 23:24:31.741905  9778 net.cpp:400] relu5 -> conv5 (in-place)
I0703 23:24:31.741926  9778 net.cpp:153] Setting up relu5
I0703 23:24:31.741930  9778 net.cpp:160] Top shape: 32 256 10 10 (819200)
I0703 23:24:31.741931  9778 net.cpp:168] Memory required for data: 137046784
I0703 23:24:31.741935  9778 layer_factory.hpp:76] Creating layer pool5
I0703 23:24:31.741938  9778 net.cpp:109] Creating Layer pool5
I0703 23:24:31.741940  9778 net.cpp:457] pool5 <- conv5
I0703 23:24:31.741943  9778 net.cpp:414] pool5 -> pool5
I0703 23:24:31.741969  9778 net.cpp:153] Setting up pool5
I0703 23:24:31.741972  9778 net.cpp:160] Top shape: 32 256 5 5 (204800)
I0703 23:24:31.741974  9778 net.cpp:168] Memory required for data: 137865984
I0703 23:24:31.741976  9778 layer_factory.hpp:76] Creating layer fc6
I0703 23:24:31.741981  9778 net.cpp:109] Creating Layer fc6
I0703 23:24:31.741983  9778 net.cpp:457] fc6 <- pool5
I0703 23:24:31.741986  9778 net.cpp:414] fc6 -> fc6
I0703 23:24:32.243573  9778 net.cpp:153] Setting up fc6
I0703 23:24:32.243593  9778 net.cpp:160] Top shape: 32 4096 (131072)
I0703 23:24:32.243597  9778 net.cpp:168] Memory required for data: 138390272
I0703 23:24:32.243603  9778 layer_factory.hpp:76] Creating layer relu6
I0703 23:24:32.243610  9778 net.cpp:109] Creating Layer relu6
I0703 23:24:32.243613  9778 net.cpp:457] relu6 <- fc6
I0703 23:24:32.243618  9778 net.cpp:400] relu6 -> fc6 (in-place)
I0703 23:24:32.243624  9778 net.cpp:153] Setting up relu6
I0703 23:24:32.243628  9778 net.cpp:160] Top shape: 32 4096 (131072)
I0703 23:24:32.243628  9778 net.cpp:168] Memory required for data: 138914560
I0703 23:24:32.243630  9778 layer_factory.hpp:76] Creating layer drop6
I0703 23:24:32.243634  9778 net.cpp:109] Creating Layer drop6
I0703 23:24:32.243636  9778 net.cpp:457] drop6 <- fc6
I0703 23:24:32.243639  9778 net.cpp:400] drop6 -> fc6 (in-place)
I0703 23:24:32.243659  9778 net.cpp:153] Setting up drop6
I0703 23:24:32.243661  9778 net.cpp:160] Top shape: 32 4096 (131072)
I0703 23:24:32.243664  9778 net.cpp:168] Memory required for data: 139438848
I0703 23:24:32.243664  9778 layer_factory.hpp:76] Creating layer fc7
I0703 23:24:32.243669  9778 net.cpp:109] Creating Layer fc7
I0703 23:24:32.243671  9778 net.cpp:457] fc7 <- fc6
I0703 23:24:32.243674  9778 net.cpp:414] fc7 -> fc7
I0703 23:24:32.548753  9778 net.cpp:153] Setting up fc7
I0703 23:24:32.548773  9778 net.cpp:160] Top shape: 32 4096 (131072)
I0703 23:24:32.548775  9778 net.cpp:168] Memory required for data: 139963136
I0703 23:24:32.548784  9778 layer_factory.hpp:76] Creating layer relu7
I0703 23:24:32.548791  9778 net.cpp:109] Creating Layer relu7
I0703 23:24:32.548794  9778 net.cpp:457] relu7 <- fc7
I0703 23:24:32.548797  9778 net.cpp:400] relu7 -> fc7 (in-place)
I0703 23:24:32.548805  9778 net.cpp:153] Setting up relu7
I0703 23:24:32.548809  9778 net.cpp:160] Top shape: 32 4096 (131072)
I0703 23:24:32.548810  9778 net.cpp:168] Memory required for data: 140487424
I0703 23:24:32.548812  9778 layer_factory.hpp:76] Creating layer drop7
I0703 23:24:32.548817  9778 net.cpp:109] Creating Layer drop7
I0703 23:24:32.548818  9778 net.cpp:457] drop7 <- fc7
I0703 23:24:32.548821  9778 net.cpp:400] drop7 -> fc7 (in-place)
I0703 23:24:32.548841  9778 net.cpp:153] Setting up drop7
I0703 23:24:32.548845  9778 net.cpp:160] Top shape: 32 4096 (131072)
I0703 23:24:32.548846  9778 net.cpp:168] Memory required for data: 141011712
I0703 23:24:32.548848  9778 layer_factory.hpp:76] Creating layer fc8_species
I0703 23:24:32.548852  9778 net.cpp:109] Creating Layer fc8_species
I0703 23:24:32.548854  9778 net.cpp:457] fc8_species <- fc7
I0703 23:24:32.548857  9778 net.cpp:414] fc8_species -> fc8_species
I0703 23:24:32.622213  9778 net.cpp:153] Setting up fc8_species
I0703 23:24:32.622232  9778 net.cpp:160] Top shape: 32 967 (30944)
I0703 23:24:32.622236  9778 net.cpp:168] Memory required for data: 141135488
I0703 23:24:32.622241  9778 layer_factory.hpp:76] Creating layer fc8_species_fc8_species_0_split
I0703 23:24:32.622247  9778 net.cpp:109] Creating Layer fc8_species_fc8_species_0_split
I0703 23:24:32.622251  9778 net.cpp:457] fc8_species_fc8_species_0_split <- fc8_species
I0703 23:24:32.622272  9778 net.cpp:414] fc8_species_fc8_species_0_split -> fc8_species_fc8_species_0_split_0
I0703 23:24:32.622278  9778 net.cpp:414] fc8_species_fc8_species_0_split -> fc8_species_fc8_species_0_split_1
I0703 23:24:32.622311  9778 net.cpp:153] Setting up fc8_species_fc8_species_0_split
I0703 23:24:32.622314  9778 net.cpp:160] Top shape: 32 967 (30944)
I0703 23:24:32.622318  9778 net.cpp:160] Top shape: 32 967 (30944)
I0703 23:24:32.622318  9778 net.cpp:168] Memory required for data: 141383040
I0703 23:24:32.622320  9778 layer_factory.hpp:76] Creating layer loss
I0703 23:24:32.622324  9778 net.cpp:109] Creating Layer loss
I0703 23:24:32.622326  9778 net.cpp:457] loss <- fc8_species_fc8_species_0_split_0
I0703 23:24:32.622328  9778 net.cpp:457] loss <- label_label_0_split_0
I0703 23:24:32.622331  9778 net.cpp:414] loss -> loss
…
