…
I0703 19:52:10.032315  5543 net.cpp:52] Initializing net from parameters:
state {
phase: TRAIN
}
layer {
name: "data"
type: "Data"
top: "data"
include {
phase: TRAIN
}
transform_param {
mean_file: "/home/ffw/scratch/plantClef/scatnet_output/train/a4_m2_s1s2_f2/lmdb_mean_coeff.binaryproto"
}
data_param {
source: "/home/ffw/scratch/plantClef/scatnet_output/train/a4_m2_s1s2_f2/lmdb_data"
batch_size: 32
backend: LMDB
}
}
layer {
name: "label"
type: "Data"
top: "label"
include {
phase: TRAIN
}
data_param {
source: "/home/ffw/scratch/plantClef/scatnet_output/train/a4_m2_s1s2_f2/lmdb_labels"
batch_size: 32
backend: LMDB
}
}
layer {
name: "pool1"
type: "Pooling"
bottom: "data"
top: "pool1"
pooling_param {
pool: MAX
kernel_size: 4
stride: 3
}
}
layer {
name: "conv2"
type: "Convolution"
bottom: "pool1"
top: "conv2"
param {
lr_mult: 1
decay_mult: 1
}
param {
lr_mult: 2
decay_mult: 0
}
convolution_param {
num_output: 256
pad: 2
kernel_size: 5
group: 1
weight_filler {
type: "gaussian"
std: 0.01
}
bias_filler {
type: "constant"
value: 0.1
}
}
}
layer {
name: "relu2"
type: "ReLU"
bottom: "conv2"
top: "conv2"
}
layer {
name: "norm2"
type: "LRN"
bottom: "conv2"
top: "norm2"
lrn_param {
local_size: 5
alpha: 0.0001
beta: 0.75
}
}
layer {
name: "pool2"
type: "Pooling"
bottom: "norm2"
top: "pool2"
pooling_param {
pool: MAX
kernel_size: 3
stride: 2
}
}
layer {
name: "conv3"
type: "Convolution"
bottom: "pool2"
top: "conv3"
param {
lr_mult: 1
decay_mult: 1
}
param {
lr_mult: 2
decay_mult: 0
}
convolution_param {
num_output: 384
pad: 1
kernel_size: 3
weight_filler {
type: "gaussian"
std: 0.01
}
bias_filler {
type: "constant"
value: 0
}
}
}
layer {
name: "relu3"
type: "ReLU"
bottom: "conv3"
top: "conv3"
}
layer {
name: "conv4"
type: "Convolution"
bottom: "conv3"
top: "conv4"
param {
lr_mult: 1
decay_mult: 1
}
param {
lr_mult: 2
decay_mult: 0
}
convolution_param {
num_output: 384
pad: 1
kernel_size: 3
group: 2
weight_filler {
type: "gaussian"
std: 0.01
}
bias_filler {
type: "constant"
value: 0.1
}
}
}
layer {
name: "relu4"
type: "ReLU"
bottom: "conv4"
top: "conv4"
}
layer {
name: "conv5"
type: "Convolution"
bottom: "conv4"
top: "conv5"
param {
lr_mult: 1
decay_mult: 1
}
param {
lr_mult: 2
decay_mult: 0
}
convolution_param {
num_output: 256
pad: 1
kernel_size: 3
group: 1
weight_filler {
type: "gaussian"
std: 0.01
}
bias_filler {
type: "constant"
value: 0.1
}
}
}
layer {
name: "relu5"
type: "ReLU"
bottom: "conv5"
top: "conv5"
}
layer {
name: "pool5"
type: "Pooling"
bottom: "conv5"
top: "pool5"
pooling_param {
pool: MAX
kernel_size: 3
stride: 2
}
}
layer {
name: "fc6"
type: "InnerProduct"
bottom: "pool5"
top: "fc6"
param {
lr_mult: 1
decay_mult: 1
}
param {
lr_mult: 2
decay_mult: 0
}
inner_product_param {
num_output: 4096
weight_filler {
type: "gaussian"
std: 0.005
}
bias_filler {
type: "constant"
value: 0.1
}
}
}
layer {
name: "relu6"
type: "ReLU"
bottom: "fc6"
top: "fc6"
}
layer {
name: "drop6"
type: "Dropout"
bottom: "fc6"
top: "fc6"
dropout_param {
dropout_ratio: 0.5
}
}
layer {
name: "fc7"
type: "InnerProduct"
bottom: "fc6"
top: "fc7"
param {
lr_mult: 1
decay_mult: 1
}
param {
lr_mult: 2
decay_mult: 0
}
inner_product_param {
num_output: 4096
weight_filler {
type: "gaussian"
std: 0.005
}
bias_filler {
type: "constant"
value: 0.1
}
}
}
layer {
name: "relu7"
type: "ReLU"
bottom: "fc7"
top: "fc7"
}
layer {
name: "drop7"
type: "Dropout"
bottom: "fc7"
top: "fc7"
dropout_param {
dropout_ratio: 0.5
}
}
layer {
name: "fc8_species"
type: "InnerProduct"
bottom: "fc7"
top: "fc8_species"
param {
lr_mult: 1
decay_mult: 1
}
param {
lr_mult: 2
decay_mult: 0
}
inner_product_param {
num_output: 967
weight_filler {
type: "gaussian"
std: 0.005
}
bias_filler {
type: "constant"
value: 0.1
}
}
}
layer {
name: "loss"
type: "SoftmaxWithLoss"
bottom: "fc8_species"
bottom: "label"
top: "loss"
}
I0703 19:52:10.032372  5543 layer_factory.hpp:76] Creating layer data
I0703 19:52:10.032431  5543 net.cpp:109] Creating Layer data
I0703 19:52:10.032436  5543 net.cpp:414] data -> data
I0703 19:52:10.032446  5543 data_transformer.cpp:25] Loading mean file from: /home/ffw/scratch/plantClef/scatnet_output/train/a4_m2_s1s2_f2/lmdb_mean_coeff.binaryproto
I0703 19:52:10.033294  5555 db_lmdb.cpp:36] Opened lmdb /home/ffw/scratch/plantClef/scatnet_output/train/a4_m2_s1s2_f2/lmdb_data
I0703 19:52:10.038161  5543 data_layer.cpp:45] output data size: 32,75,105,105
I0703 19:52:10.151269  5543 net.cpp:153] Setting up data
I0703 19:52:10.151314  5543 net.cpp:160] Top shape: 32 75 105 105 (26460000)
I0703 19:52:10.151316  5543 net.cpp:168] Memory required for data: 105840000
I0703 19:52:10.151321  5543 layer_factory.hpp:76] Creating layer label
I0703 19:52:10.151440  5543 net.cpp:109] Creating Layer label
I0703 19:52:10.151454  5543 net.cpp:414] label -> label
I0703 19:52:10.161027  5557 db_lmdb.cpp:36] Opened lmdb /home/ffw/scratch/plantClef/scatnet_output/train/a4_m2_s1s2_f2/lmdb_labels
I0703 19:52:10.161099  5543 data_layer.cpp:45] output data size: 32,1,1,1
I0703 19:52:10.161186  5543 net.cpp:153] Setting up label
I0703 19:52:10.161191  5543 net.cpp:160] Top shape: 32 1 1 1 (32)
I0703 19:52:10.161193  5543 net.cpp:168] Memory required for data: 105840128
I0703 19:52:10.161195  5543 layer_factory.hpp:76] Creating layer pool1
I0703 19:52:10.161201  5543 net.cpp:109] Creating Layer pool1
I0703 19:52:10.161202  5543 net.cpp:457] pool1 <- data
I0703 19:52:10.161208  5543 net.cpp:414] pool1 -> pool1
I0703 19:52:10.161272  5543 net.cpp:153] Setting up pool1
I0703 19:52:10.161275  5543 net.cpp:160] Top shape: 32 75 35 35 (2940000)
I0703 19:52:10.161278  5543 net.cpp:168] Memory required for data: 117600128
I0703 19:52:10.161279  5543 layer_factory.hpp:76] Creating layer conv2
I0703 19:52:10.161284  5543 net.cpp:109] Creating Layer conv2
I0703 19:52:10.161285  5543 net.cpp:457] conv2 <- pool1
I0703 19:52:10.161289  5543 net.cpp:414] conv2 -> conv2
I0703 19:52:10.170800  5543 net.cpp:153] Setting up conv2
I0703 19:52:10.170819  5543 net.cpp:160] Top shape: 32 256 35 35 (10035200)
I0703 19:52:10.170821  5543 net.cpp:168] Memory required for data: 157740928
I0703 19:52:10.170831  5543 layer_factory.hpp:76] Creating layer relu2
I0703 19:52:10.170840  5543 net.cpp:109] Creating Layer relu2
I0703 19:52:10.170842  5543 net.cpp:457] relu2 <- conv2
I0703 19:52:10.170845  5543 net.cpp:400] relu2 -> conv2 (in-place)
I0703 19:52:10.170855  5543 net.cpp:153] Setting up relu2
I0703 19:52:10.170856  5543 net.cpp:160] Top shape: 32 256 35 35 (10035200)
I0703 19:52:10.170858  5543 net.cpp:168] Memory required for data: 197881728
I0703 19:52:10.170874  5543 layer_factory.hpp:76] Creating layer norm2
I0703 19:52:10.170879  5543 net.cpp:109] Creating Layer norm2
I0703 19:52:10.170881  5543 net.cpp:457] norm2 <- conv2
I0703 19:52:10.170883  5543 net.cpp:414] norm2 -> norm2
I0703 19:52:10.170908  5543 net.cpp:153] Setting up norm2
I0703 19:52:10.170912  5543 net.cpp:160] Top shape: 32 256 35 35 (10035200)
I0703 19:52:10.170913  5543 net.cpp:168] Memory required for data: 238022528
I0703 19:52:10.170915  5543 layer_factory.hpp:76] Creating layer pool2
I0703 19:52:10.170919  5543 net.cpp:109] Creating Layer pool2
I0703 19:52:10.170920  5543 net.cpp:457] pool2 <- norm2
I0703 19:52:10.170923  5543 net.cpp:414] pool2 -> pool2
I0703 19:52:10.170940  5543 net.cpp:153] Setting up pool2
I0703 19:52:10.170943  5543 net.cpp:160] Top shape: 32 256 17 17 (2367488)
I0703 19:52:10.170945  5543 net.cpp:168] Memory required for data: 247492480
I0703 19:52:10.170946  5543 layer_factory.hpp:76] Creating layer conv3
I0703 19:52:10.170951  5543 net.cpp:109] Creating Layer conv3
I0703 19:52:10.170953  5543 net.cpp:457] conv3 <- pool2
I0703 19:52:10.170956  5543 net.cpp:414] conv3 -> conv3
I0703 19:52:10.187690  5543 net.cpp:153] Setting up conv3
I0703 19:52:10.187710  5543 net.cpp:160] Top shape: 32 384 17 17 (3551232)
I0703 19:52:10.187711  5543 net.cpp:168] Memory required for data: 261697408
I0703 19:52:10.187718  5543 layer_factory.hpp:76] Creating layer relu3
I0703 19:52:10.187726  5543 net.cpp:109] Creating Layer relu3
I0703 19:52:10.187729  5543 net.cpp:457] relu3 <- conv3
I0703 19:52:10.187732  5543 net.cpp:400] relu3 -> conv3 (in-place)
I0703 19:52:10.187738  5543 net.cpp:153] Setting up relu3
I0703 19:52:10.187741  5543 net.cpp:160] Top shape: 32 384 17 17 (3551232)
I0703 19:52:10.187742  5543 net.cpp:168] Memory required for data: 275902336
I0703 19:52:10.187743  5543 layer_factory.hpp:76] Creating layer conv4
I0703 19:52:10.187748  5543 net.cpp:109] Creating Layer conv4
I0703 19:52:10.187750  5543 net.cpp:457] conv4 <- conv3
I0703 19:52:10.187753  5543 net.cpp:414] conv4 -> conv4
I0703 19:52:10.200179  5543 net.cpp:153] Setting up conv4
I0703 19:52:10.200197  5543 net.cpp:160] Top shape: 32 384 17 17 (3551232)
I0703 19:52:10.200199  5543 net.cpp:168] Memory required for data: 290107264
I0703 19:52:10.200207  5543 layer_factory.hpp:76] Creating layer relu4
I0703 19:52:10.200214  5543 net.cpp:109] Creating Layer relu4
I0703 19:52:10.200217  5543 net.cpp:457] relu4 <- conv4
I0703 19:52:10.200222  5543 net.cpp:400] relu4 -> conv4 (in-place)
I0703 19:52:10.200227  5543 net.cpp:153] Setting up relu4
I0703 19:52:10.200229  5543 net.cpp:160] Top shape: 32 384 17 17 (3551232)
I0703 19:52:10.200230  5543 net.cpp:168] Memory required for data: 304312192
I0703 19:52:10.200232  5543 layer_factory.hpp:76] Creating layer conv5
I0703 19:52:10.200237  5543 net.cpp:109] Creating Layer conv5
I0703 19:52:10.200239  5543 net.cpp:457] conv5 <- conv4
I0703 19:52:10.200242  5543 net.cpp:414] conv5 -> conv5
I0703 19:52:10.217231  5543 net.cpp:153] Setting up conv5
I0703 19:52:10.217250  5543 net.cpp:160] Top shape: 32 256 17 17 (2367488)
I0703 19:52:10.217252  5543 net.cpp:168] Memory required for data: 313782144
I0703 19:52:10.217257  5543 layer_factory.hpp:76] Creating layer relu5
I0703 19:52:10.217264  5543 net.cpp:109] Creating Layer relu5
I0703 19:52:10.217267  5543 net.cpp:457] relu5 <- conv5
I0703 19:52:10.217270  5543 net.cpp:400] relu5 -> conv5 (in-place)
I0703 19:52:10.217277  5543 net.cpp:153] Setting up relu5
I0703 19:52:10.217278  5543 net.cpp:160] Top shape: 32 256 17 17 (2367488)
I0703 19:52:10.217280  5543 net.cpp:168] Memory required for data: 323252096
I0703 19:52:10.217283  5543 layer_factory.hpp:76] Creating layer pool5
I0703 19:52:10.217286  5543 net.cpp:109] Creating Layer pool5
I0703 19:52:10.217288  5543 net.cpp:457] pool5 <- conv5
I0703 19:52:10.217290  5543 net.cpp:414] pool5 -> pool5
I0703 19:52:10.217310  5543 net.cpp:153] Setting up pool5
I0703 19:52:10.217314  5543 net.cpp:160] Top shape: 32 256 8 8 (524288)
I0703 19:52:10.217332  5543 net.cpp:168] Memory required for data: 325349248
I0703 19:52:10.217334  5543 layer_factory.hpp:76] Creating layer fc6
I0703 19:52:10.217339  5543 net.cpp:109] Creating Layer fc6
I0703 19:52:10.217340  5543 net.cpp:457] fc6 <- pool5
I0703 19:52:10.217344  5543 net.cpp:414] fc6 -> fc6
I0703 19:52:11.504621  5543 net.cpp:153] Setting up fc6
I0703 19:52:11.504638  5543 net.cpp:160] Top shape: 32 4096 (131072)
I0703 19:52:11.504642  5543 net.cpp:168] Memory required for data: 325873536
I0703 19:52:11.504648  5543 layer_factory.hpp:76] Creating layer relu6
I0703 19:52:11.504654  5543 net.cpp:109] Creating Layer relu6
I0703 19:52:11.504657  5543 net.cpp:457] relu6 <- fc6
I0703 19:52:11.504660  5543 net.cpp:400] relu6 -> fc6 (in-place)
I0703 19:52:11.504667  5543 net.cpp:153] Setting up relu6
I0703 19:52:11.504669  5543 net.cpp:160] Top shape: 32 4096 (131072)
I0703 19:52:11.504672  5543 net.cpp:168] Memory required for data: 326397824
I0703 19:52:11.504673  5543 layer_factory.hpp:76] Creating layer drop6
I0703 19:52:11.504686  5543 net.cpp:109] Creating Layer drop6
I0703 19:52:11.504688  5543 net.cpp:457] drop6 <- fc6
I0703 19:52:11.504690  5543 net.cpp:400] drop6 -> fc6 (in-place)
I0703 19:52:11.504705  5543 net.cpp:153] Setting up drop6
I0703 19:52:11.504709  5543 net.cpp:160] Top shape: 32 4096 (131072)
I0703 19:52:11.504710  5543 net.cpp:168] Memory required for data: 326922112
I0703 19:52:11.504711  5543 layer_factory.hpp:76] Creating layer fc7
I0703 19:52:11.504716  5543 net.cpp:109] Creating Layer fc7
I0703 19:52:11.504717  5543 net.cpp:457] fc7 <- fc6
I0703 19:52:11.504720  5543 net.cpp:414] fc7 -> fc7
I0703 19:52:11.822918  5543 net.cpp:153] Setting up fc7
I0703 19:52:11.822934  5543 net.cpp:160] Top shape: 32 4096 (131072)
I0703 19:52:11.822937  5543 net.cpp:168] Memory required for data: 327446400
I0703 19:52:11.822942  5543 layer_factory.hpp:76] Creating layer relu7
I0703 19:52:11.822948  5543 net.cpp:109] Creating Layer relu7
I0703 19:52:11.822950  5543 net.cpp:457] relu7 <- fc7
I0703 19:52:11.822954  5543 net.cpp:400] relu7 -> fc7 (in-place)
I0703 19:52:11.822960  5543 net.cpp:153] Setting up relu7
I0703 19:52:11.822962  5543 net.cpp:160] Top shape: 32 4096 (131072)
I0703 19:52:11.822964  5543 net.cpp:168] Memory required for data: 327970688
I0703 19:52:11.822967  5543 layer_factory.hpp:76] Creating layer drop7
I0703 19:52:11.822969  5543 net.cpp:109] Creating Layer drop7
I0703 19:52:11.822971  5543 net.cpp:457] drop7 <- fc7
I0703 19:52:11.822973  5543 net.cpp:400] drop7 -> fc7 (in-place)
I0703 19:52:11.822988  5543 net.cpp:153] Setting up drop7
I0703 19:52:11.822990  5543 net.cpp:160] Top shape: 32 4096 (131072)
I0703 19:52:11.822993  5543 net.cpp:168] Memory required for data: 328494976
I0703 19:52:11.822993  5543 layer_factory.hpp:76] Creating layer fc8_species
I0703 19:52:11.822998  5543 net.cpp:109] Creating Layer fc8_species
I0703 19:52:11.822999  5543 net.cpp:457] fc8_species <- fc7
I0703 19:52:11.823002  5543 net.cpp:414] fc8_species -> fc8_species
I0703 19:52:11.899960  5543 net.cpp:153] Setting up fc8_species
I0703 19:52:11.899977  5543 net.cpp:160] Top shape: 32 967 (30944)
I0703 19:52:11.899979  5543 net.cpp:168] Memory required for data: 328618752
I0703 19:52:11.899986  5543 layer_factory.hpp:76] Creating layer loss
I0703 19:52:11.899997  5543 net.cpp:109] Creating Layer loss
I0703 19:52:11.900001  5543 net.cpp:457] loss <- fc8_species
I0703 19:52:11.900003  5543 net.cpp:457] loss <- label
I0703 19:52:11.900007  5543 net.cpp:414] loss -> loss
I0703 19:52:11.900013  5543 layer_factory.hpp:76] Creating layer loss
…
I0703 19:52:11.900964  5543 net.cpp:52] Initializing net from parameters:
state {
phase: TEST
}
layer {
name: "data"
type: "Data"
top: "data"
include {
phase: TEST
}
transform_param {
mean_file: "/home/ffw/scratch/plantClef/scatnet_output/train/a4_m2_s1s2_f2/lmdb_mean_coeff.binaryproto"
}
data_param {
source: "/home/ffw/scratch/plantClef/scatnet_output/test/a4_m2_s1s2_f2/lmdb_data"
batch_size: 32
backend: LMDB
}
}
layer {
name: "label"
type: "Data"
top: "label"
include {
phase: TEST
}
data_param {
source: "/home/ffw/scratch/plantClef/scatnet_output/test/a4_m2_s1s2_f2/lmdb_labels"
batch_size: 32
backend: LMDB
}
}
layer {
name: "pool1"
type: "Pooling"
bottom: "data"
top: "pool1"
pooling_param {
pool: MAX
kernel_size: 4
stride: 3
}
}
layer {
name: "conv2"
type: "Convolution"
bottom: "pool1"
top: "conv2"
param {
lr_mult: 1
decay_mult: 1
}
param {
lr_mult: 2
decay_mult: 0
}
convolution_param {
num_output: 256
pad: 2
kernel_size: 5
group: 1
weight_filler {
type: "gaussian"
std: 0.01
}
bias_filler {
type: "constant"
value: 0.1
}
}
}
layer {
name: "relu2"
type: "ReLU"
bottom: "conv2"
top: "conv2"
}
layer {
name: "norm2"
type: "LRN"
bottom: "conv2"
top: "norm2"
lrn_param {
local_size: 5
alpha: 0.0001
beta: 0.75
}
}
layer {
name: "pool2"
type: "Pooling"
bottom: "norm2"
top: "pool2"
pooling_param {
pool: MAX
kernel_size: 3
stride: 2
}
}
layer {
name: "conv3"
type: "Convolution"
bottom: "pool2"
top: "conv3"
param {
lr_mult: 1
decay_mult: 1
}
param {
lr_mult: 2
decay_mult: 0
}
convolution_param {
num_output: 384
pad: 1
kernel_size: 3
weight_filler {
type: "gaussian"
std: 0.01
}
bias_filler {
type: "constant"
value: 0
}
}
}
layer {
name: "relu3"
type: "ReLU"
bottom: "conv3"
top: "conv3"
}
layer {
name: "conv4"
type: "Convolution"
bottom: "conv3"
top: "conv4"
param {
lr_mult: 1
decay_mult: 1
}
param {
lr_mult: 2
decay_mult: 0
}
convolution_param {
num_output: 384
pad: 1
kernel_size: 3
group: 2
weight_filler {
type: "gaussian"
std: 0.01
}
bias_filler {
type: "constant"
value: 0.1
}
}
}
layer {
name: "relu4"
type: "ReLU"
bottom: "conv4"
top: "conv4"
}
layer {
name: "conv5"
type: "Convolution"
bottom: "conv4"
top: "conv5"
param {
lr_mult: 1
decay_mult: 1
}
param {
lr_mult: 2
decay_mult: 0
}
convolution_param {
num_output: 256
pad: 1
kernel_size: 3
group: 1
weight_filler {
type: "gaussian"
std: 0.01
}
bias_filler {
type: "constant"
value: 0.1
}
}
}
layer {
name: "relu5"
type: "ReLU"
bottom: "conv5"
top: "conv5"
}
layer {
name: "pool5"
type: "Pooling"
bottom: "conv5"
top: "pool5"
pooling_param {
pool: MAX
kernel_size: 3
stride: 2
}
}
layer {
name: "fc6"
type: "InnerProduct"
bottom: "pool5"
top: "fc6"
param {
lr_mult: 1
decay_mult: 1
}
param {
lr_mult: 2
decay_mult: 0
}
inner_product_param {
num_output: 4096
weight_filler {
type: "gaussian"
std: 0.005
}
bias_filler {
type: "constant"
value: 0.1
}
}
}
layer {
name: "relu6"
type: "ReLU"
bottom: "fc6"
top: "fc6"
}
layer {
name: "drop6"
type: "Dropout"
bottom: "fc6"
top: "fc6"
dropout_param {
dropout_ratio: 0.5
}
}
layer {
name: "fc7"
type: "InnerProduct"
bottom: "fc6"
top: "fc7"
param {
lr_mult: 1
decay_mult: 1
}
param {
lr_mult: 2
decay_mult: 0
}
inner_product_param {
num_output: 4096
weight_filler {
type: "gaussian"
std: 0.005
}
bias_filler {
type: "constant"
value: 0.1
}
}
}
layer {
name: "relu7"
type: "ReLU"
bottom: "fc7"
top: "fc7"
}
layer {
name: "drop7"
type: "Dropout"
bottom: "fc7"
top: "fc7"
dropout_param {
dropout_ratio: 0.5
}
}
layer {
name: "fc8_species"
type: "InnerProduct"
bottom: "fc7"
top: "fc8_species"
param {
lr_mult: 1
decay_mult: 1
}
param {
lr_mult: 2
decay_mult: 0
}
inner_product_param {
num_output: 967
weight_filler {
type: "gaussian"
std: 0.005
}
bias_filler {
type: "constant"
value: 0.1
}
}
}
layer {
name: "loss"
type: "SoftmaxWithLoss"
bottom: "fc8_species"
bottom: "label"
top: "loss"
}
layer {
name: "accuracy"
type: "Accuracy"
bottom: "fc8_species"
bottom: "label"
top: "accuracy"
include {
phase: TEST
}
}
I0703 19:52:11.901022  5543 layer_factory.hpp:76] Creating layer data
I0703 19:52:11.901070  5543 net.cpp:109] Creating Layer data
I0703 19:52:11.901084  5543 net.cpp:414] data -> data
I0703 19:52:11.901089  5543 data_transformer.cpp:25] Loading mean file from: /home/ffw/scratch/plantClef/scatnet_output/train/a4_m2_s1s2_f2/lmdb_mean_coeff.binaryproto
I0703 19:52:11.901849  5559 db_lmdb.cpp:36] Opened lmdb /home/ffw/scratch/plantClef/scatnet_output/test/a4_m2_s1s2_f2/lmdb_data
I0703 19:52:11.905629  5543 data_layer.cpp:45] output data size: 32,75,105,105
I0703 19:52:12.017711  5543 net.cpp:153] Setting up data
I0703 19:52:12.017731  5543 net.cpp:160] Top shape: 32 75 105 105 (26460000)
I0703 19:52:12.017735  5543 net.cpp:168] Memory required for data: 105840000
I0703 19:52:12.017740  5543 layer_factory.hpp:76] Creating layer label
I0703 19:52:12.017779  5543 net.cpp:109] Creating Layer label
I0703 19:52:12.017793  5543 net.cpp:414] label -> label
I0703 19:52:12.019237  5561 db_lmdb.cpp:36] Opened lmdb /home/ffw/scratch/plantClef/scatnet_output/test/a4_m2_s1s2_f2/lmdb_labels
I0703 19:52:12.027496  5543 data_layer.cpp:45] output data size: 32,1,1,1
I0703 19:52:12.027592  5543 net.cpp:153] Setting up label
I0703 19:52:12.027598  5543 net.cpp:160] Top shape: 32 1 1 1 (32)
I0703 19:52:12.027601  5543 net.cpp:168] Memory required for data: 105840128
I0703 19:52:12.027603  5543 layer_factory.hpp:76] Creating layer label_label_0_split
I0703 19:52:12.027622  5543 net.cpp:109] Creating Layer label_label_0_split
I0703 19:52:12.027624  5543 net.cpp:457] label_label_0_split <- label
I0703 19:52:12.027628  5543 net.cpp:414] label_label_0_split -> label_label_0_split_0
I0703 19:52:12.027632  5543 net.cpp:414] label_label_0_split -> label_label_0_split_1
I0703 19:52:12.027667  5543 net.cpp:153] Setting up label_label_0_split
I0703 19:52:12.027670  5543 net.cpp:160] Top shape: 32 1 1 1 (32)
I0703 19:52:12.027673  5543 net.cpp:160] Top shape: 32 1 1 1 (32)
I0703 19:52:12.027674  5543 net.cpp:168] Memory required for data: 105840384
I0703 19:52:12.027676  5543 layer_factory.hpp:76] Creating layer pool1
I0703 19:52:12.027681  5543 net.cpp:109] Creating Layer pool1
I0703 19:52:12.027683  5543 net.cpp:457] pool1 <- data
I0703 19:52:12.027685  5543 net.cpp:414] pool1 -> pool1
I0703 19:52:12.027706  5543 net.cpp:153] Setting up pool1
I0703 19:52:12.027709  5543 net.cpp:160] Top shape: 32 75 35 35 (2940000)
I0703 19:52:12.027711  5543 net.cpp:168] Memory required for data: 117600384
I0703 19:52:12.027714  5543 layer_factory.hpp:76] Creating layer conv2
I0703 19:52:12.027719  5543 net.cpp:109] Creating Layer conv2
I0703 19:52:12.027721  5543 net.cpp:457] conv2 <- pool1
I0703 19:52:12.027724  5543 net.cpp:414] conv2 -> conv2
I0703 19:52:12.036797  5543 net.cpp:153] Setting up conv2
I0703 19:52:12.036815  5543 net.cpp:160] Top shape: 32 256 35 35 (10035200)
I0703 19:52:12.036818  5543 net.cpp:168] Memory required for data: 157741184
I0703 19:52:12.036824  5543 layer_factory.hpp:76] Creating layer relu2
I0703 19:52:12.036831  5543 net.cpp:109] Creating Layer relu2
I0703 19:52:12.036834  5543 net.cpp:457] relu2 <- conv2
I0703 19:52:12.036837  5543 net.cpp:400] relu2 -> conv2 (in-place)
I0703 19:52:12.036844  5543 net.cpp:153] Setting up relu2
I0703 19:52:12.036845  5543 net.cpp:160] Top shape: 32 256 35 35 (10035200)
I0703 19:52:12.036846  5543 net.cpp:168] Memory required for data: 197881984
I0703 19:52:12.036849  5543 layer_factory.hpp:76] Creating layer norm2
I0703 19:52:12.036854  5543 net.cpp:109] Creating Layer norm2
I0703 19:52:12.036854  5543 net.cpp:457] norm2 <- conv2
I0703 19:52:12.036857  5543 net.cpp:414] norm2 -> norm2
I0703 19:52:12.036878  5543 net.cpp:153] Setting up norm2
I0703 19:52:12.036881  5543 net.cpp:160] Top shape: 32 256 35 35 (10035200)
I0703 19:52:12.036882  5543 net.cpp:168] Memory required for data: 238022784
I0703 19:52:12.036885  5543 layer_factory.hpp:76] Creating layer pool2
I0703 19:52:12.036887  5543 net.cpp:109] Creating Layer pool2
I0703 19:52:12.036890  5543 net.cpp:457] pool2 <- norm2
I0703 19:52:12.036892  5543 net.cpp:414] pool2 -> pool2
I0703 19:52:12.036909  5543 net.cpp:153] Setting up pool2
I0703 19:52:12.036912  5543 net.cpp:160] Top shape: 32 256 17 17 (2367488)
I0703 19:52:12.036913  5543 net.cpp:168] Memory required for data: 247492736
I0703 19:52:12.036916  5543 layer_factory.hpp:76] Creating layer conv3
I0703 19:52:12.036921  5543 net.cpp:109] Creating Layer conv3
I0703 19:52:12.036922  5543 net.cpp:457] conv3 <- pool2
I0703 19:52:12.036926  5543 net.cpp:414] conv3 -> conv3
I0703 19:52:12.054090  5543 net.cpp:153] Setting up conv3
I0703 19:52:12.054112  5543 net.cpp:160] Top shape: 32 384 17 17 (3551232)
I0703 19:52:12.054114  5543 net.cpp:168] Memory required for data: 261697664
I0703 19:52:12.054123  5543 layer_factory.hpp:76] Creating layer relu3
I0703 19:52:12.054131  5543 net.cpp:109] Creating Layer relu3
I0703 19:52:12.054132  5543 net.cpp:457] relu3 <- conv3
I0703 19:52:12.054136  5543 net.cpp:400] relu3 -> conv3 (in-place)
I0703 19:52:12.054142  5543 net.cpp:153] Setting up relu3
I0703 19:52:12.054144  5543 net.cpp:160] Top shape: 32 384 17 17 (3551232)
I0703 19:52:12.054147  5543 net.cpp:168] Memory required for data: 275902592
I0703 19:52:12.054148  5543 layer_factory.hpp:76] Creating layer conv4
I0703 19:52:12.054153  5543 net.cpp:109] Creating Layer conv4
I0703 19:52:12.054155  5543 net.cpp:457] conv4 <- conv3
I0703 19:52:12.054158  5543 net.cpp:414] conv4 -> conv4
I0703 19:52:12.066907  5543 net.cpp:153] Setting up conv4
I0703 19:52:12.066927  5543 net.cpp:160] Top shape: 32 384 17 17 (3551232)
I0703 19:52:12.066929  5543 net.cpp:168] Memory required for data: 290107520
I0703 19:52:12.066937  5543 layer_factory.hpp:76] Creating layer relu4
I0703 19:52:12.066943  5543 net.cpp:109] Creating Layer relu4
I0703 19:52:12.066946  5543 net.cpp:457] relu4 <- conv4
I0703 19:52:12.066949  5543 net.cpp:400] relu4 -> conv4 (in-place)
I0703 19:52:12.066956  5543 net.cpp:153] Setting up relu4
I0703 19:52:12.066958  5543 net.cpp:160] Top shape: 32 384 17 17 (3551232)
I0703 19:52:12.066961  5543 net.cpp:168] Memory required for data: 304312448
I0703 19:52:12.066962  5543 layer_factory.hpp:76] Creating layer conv5
I0703 19:52:12.066967  5543 net.cpp:109] Creating Layer conv5
I0703 19:52:12.066968  5543 net.cpp:457] conv5 <- conv4
I0703 19:52:12.066972  5543 net.cpp:414] conv5 -> conv5
I0703 19:52:12.083931  5543 net.cpp:153] Setting up conv5
I0703 19:52:12.083950  5543 net.cpp:160] Top shape: 32 256 17 17 (2367488)
I0703 19:52:12.083951  5543 net.cpp:168] Memory required for data: 313782400
I0703 19:52:12.083956  5543 layer_factory.hpp:76] Creating layer relu5
I0703 19:52:12.083962  5543 net.cpp:109] Creating Layer relu5
I0703 19:52:12.083966  5543 net.cpp:457] relu5 <- conv5
I0703 19:52:12.083969  5543 net.cpp:400] relu5 -> conv5 (in-place)
I0703 19:52:12.083974  5543 net.cpp:153] Setting up relu5
I0703 19:52:12.083977  5543 net.cpp:160] Top shape: 32 256 17 17 (2367488)
I0703 19:52:12.083978  5543 net.cpp:168] Memory required for data: 323252352
I0703 19:52:12.083981  5543 layer_factory.hpp:76] Creating layer pool5
I0703 19:52:12.083984  5543 net.cpp:109] Creating Layer pool5
I0703 19:52:12.083986  5543 net.cpp:457] pool5 <- conv5
I0703 19:52:12.083988  5543 net.cpp:414] pool5 -> pool5
I0703 19:52:12.084010  5543 net.cpp:153] Setting up pool5
I0703 19:52:12.084013  5543 net.cpp:160] Top shape: 32 256 8 8 (524288)
I0703 19:52:12.084015  5543 net.cpp:168] Memory required for data: 325349504
I0703 19:52:12.084017  5543 layer_factory.hpp:76] Creating layer fc6
I0703 19:52:12.084022  5543 net.cpp:109] Creating Layer fc6
I0703 19:52:12.084023  5543 net.cpp:457] fc6 <- pool5
I0703 19:52:12.084027  5543 net.cpp:414] fc6 -> fc6
I0703 19:52:13.306439  5543 net.cpp:153] Setting up fc6
I0703 19:52:13.306457  5543 net.cpp:160] Top shape: 32 4096 (131072)
I0703 19:52:13.306460  5543 net.cpp:168] Memory required for data: 325873792
I0703 19:52:13.306468  5543 layer_factory.hpp:76] Creating layer relu6
I0703 19:52:13.306475  5543 net.cpp:109] Creating Layer relu6
I0703 19:52:13.306478  5543 net.cpp:457] relu6 <- fc6
I0703 19:52:13.306483  5543 net.cpp:400] relu6 -> fc6 (in-place)
I0703 19:52:13.306488  5543 net.cpp:153] Setting up relu6
I0703 19:52:13.306490  5543 net.cpp:160] Top shape: 32 4096 (131072)
I0703 19:52:13.306493  5543 net.cpp:168] Memory required for data: 326398080
I0703 19:52:13.306494  5543 layer_factory.hpp:76] Creating layer drop6
I0703 19:52:13.306499  5543 net.cpp:109] Creating Layer drop6
I0703 19:52:13.306499  5543 net.cpp:457] drop6 <- fc6
I0703 19:52:13.306501  5543 net.cpp:400] drop6 -> fc6 (in-place)
I0703 19:52:13.306519  5543 net.cpp:153] Setting up drop6
I0703 19:52:13.306520  5543 net.cpp:160] Top shape: 32 4096 (131072)
I0703 19:52:13.306522  5543 net.cpp:168] Memory required for data: 326922368
I0703 19:52:13.306524  5543 layer_factory.hpp:76] Creating layer fc7
I0703 19:52:13.306529  5543 net.cpp:109] Creating Layer fc7
I0703 19:52:13.306530  5543 net.cpp:457] fc7 <- fc6
I0703 19:52:13.306532  5543 net.cpp:414] fc7 -> fc7
I0703 19:52:13.609747  5543 net.cpp:153] Setting up fc7
I0703 19:52:13.609765  5543 net.cpp:160] Top shape: 32 4096 (131072)
I0703 19:52:13.609766  5543 net.cpp:168] Memory required for data: 327446656
I0703 19:52:13.609771  5543 layer_factory.hpp:76] Creating layer relu7
I0703 19:52:13.609777  5543 net.cpp:109] Creating Layer relu7
I0703 19:52:13.609781  5543 net.cpp:457] relu7 <- fc7
I0703 19:52:13.609784  5543 net.cpp:400] relu7 -> fc7 (in-place)
I0703 19:52:13.609807  5543 net.cpp:153] Setting up relu7
I0703 19:52:13.609809  5543 net.cpp:160] Top shape: 32 4096 (131072)
I0703 19:52:13.609812  5543 net.cpp:168] Memory required for data: 327970944
I0703 19:52:13.609813  5543 layer_factory.hpp:76] Creating layer drop7
I0703 19:52:13.609817  5543 net.cpp:109] Creating Layer drop7
I0703 19:52:13.609818  5543 net.cpp:457] drop7 <- fc7
I0703 19:52:13.609822  5543 net.cpp:400] drop7 -> fc7 (in-place)
I0703 19:52:13.609838  5543 net.cpp:153] Setting up drop7
I0703 19:52:13.609840  5543 net.cpp:160] Top shape: 32 4096 (131072)
I0703 19:52:13.609843  5543 net.cpp:168] Memory required for data: 328495232
I0703 19:52:13.609844  5543 layer_factory.hpp:76] Creating layer fc8_species
I0703 19:52:13.609848  5543 net.cpp:109] Creating Layer fc8_species
I0703 19:52:13.609849  5543 net.cpp:457] fc8_species <- fc7
I0703 19:52:13.609853  5543 net.cpp:414] fc8_species -> fc8_species
I0703 19:52:13.681991  5543 net.cpp:153] Setting up fc8_species
I0703 19:52:13.682006  5543 net.cpp:160] Top shape: 32 967 (30944)
I0703 19:52:13.682009  5543 net.cpp:168] Memory required for data: 328619008
I0703 19:52:13.682014  5543 layer_factory.hpp:76] Creating layer fc8_species_fc8_species_0_split
I0703 19:52:13.682020  5543 net.cpp:109] Creating Layer fc8_species_fc8_species_0_split
I0703 19:52:13.682024  5543 net.cpp:457] fc8_species_fc8_species_0_split <- fc8_species
I0703 19:52:13.682026  5543 net.cpp:414] fc8_species_fc8_species_0_split -> fc8_species_fc8_species_0_split_0
I0703 19:52:13.682031  5543 net.cpp:414] fc8_species_fc8_species_0_split -> fc8_species_fc8_species_0_split_1
I0703 19:52:13.682055  5543 net.cpp:153] Setting up fc8_species_fc8_species_0_split
I0703 19:52:13.682059  5543 net.cpp:160] Top shape: 32 967 (30944)
I0703 19:52:13.682061  5543 net.cpp:160] Top shape: 32 967 (30944)
I0703 19:52:13.682062  5543 net.cpp:168] Memory required for data: 328866560
I0703 19:52:13.682065  5543 layer_factory.hpp:76] Creating layer loss
I0703 19:52:13.682068  5543 net.cpp:109] Creating Layer loss
I0703 19:52:13.682070  5543 net.cpp:457] loss <- fc8_species_fc8_species_0_split_0
I0703 19:52:13.682072  5543 net.cpp:457] loss <- label_label_0_split_0
I0703 19:52:13.682075  5543 net.cpp:414] loss -> loss
…
