…
I0703 20:42:14.666489  6792 net.cpp:52] Initializing net from parameters:
state {
phase: TRAIN
}
layer {
name: "data"
type: "Data"
top: "data"
include {
phase: TRAIN
}
transform_param {
mean_file: "/home/ffw/scratch/plantClef/scatnet_output/train/a4_m2_s1s2_f2/lmdb_mean_coeff.binaryproto"
}
data_param {
source: "/home/ffw/scratch/plantClef/scatnet_output/train/a4_m2_s1s2_f2/lmdb_data"
batch_size: 32
backend: LMDB
}
}
layer {
name: "label"
type: "Data"
top: "label"
include {
phase: TRAIN
}
data_param {
source: "/home/ffw/scratch/plantClef/scatnet_output/train/a4_m2_s1s2_f2/lmdb_labels"
batch_size: 32
backend: LMDB
}
}
layer {
name: "pool1"
type: "Pooling"
bottom: "data"
top: "pool1"
pooling_param {
pool: MAX
kernel_size: 6
stride: 5
}
}
layer {
name: "conv3"
type: "Convolution"
bottom: "pool1"
top: "conv3"
param {
lr_mult: 1
decay_mult: 1
}
param {
lr_mult: 2
decay_mult: 0
}
convolution_param {
num_output: 384
pad: 1
kernel_size: 3
weight_filler {
type: "gaussian"
std: 0.01
}
bias_filler {
type: "constant"
value: 0
}
}
}
layer {
name: "relu3"
type: "ReLU"
bottom: "conv3"
top: "conv3"
}
layer {
name: "conv4"
type: "Convolution"
bottom: "conv3"
top: "conv4"
param {
lr_mult: 1
decay_mult: 1
}
param {
lr_mult: 2
decay_mult: 0
}
convolution_param {
num_output: 384
pad: 1
kernel_size: 3
group: 2
weight_filler {
type: "gaussian"
std: 0.01
}
bias_filler {
type: "constant"
value: 0.1
}
}
}
layer {
name: "relu4"
type: "ReLU"
bottom: "conv4"
top: "conv4"
}
layer {
name: "conv5"
type: "Convolution"
bottom: "conv4"
top: "conv5"
param {
lr_mult: 1
decay_mult: 1
}
param {
lr_mult: 2
decay_mult: 0
}
convolution_param {
num_output: 256
pad: 1
kernel_size: 3
group: 1
weight_filler {
type: "gaussian"
std: 0.01
}
bias_filler {
type: "constant"
value: 0.1
}
}
}
layer {
name: "relu5"
type: "ReLU"
bottom: "conv5"
top: "conv5"
}
layer {
name: "pool5"
type: "Pooling"
bottom: "conv5"
top: "pool5"
pooling_param {
pool: MAX
kernel_size: 3
stride: 2
}
}
layer {
name: "fc6"
type: "InnerProduct"
bottom: "pool5"
top: "fc6"
param {
lr_mult: 1
decay_mult: 1
}
param {
lr_mult: 2
decay_mult: 0
}
inner_product_param {
num_output: 4096
weight_filler {
type: "gaussian"
std: 0.005
}
bias_filler {
type: "constant"
value: 0.1
}
}
}
layer {
name: "relu6"
type: "ReLU"
bottom: "fc6"
top: "fc6"
}
layer {
name: "drop6"
type: "Dropout"
bottom: "fc6"
top: "fc6"
dropout_param {
dropout_ratio: 0.5
}
}
layer {
name: "fc7"
type: "InnerProduct"
bottom: "fc6"
top: "fc7"
param {
lr_mult: 1
decay_mult: 1
}
param {
lr_mult: 2
decay_mult: 0
}
inner_product_param {
num_output: 4096
weight_filler {
type: "gaussian"
std: 0.005
}
bias_filler {
type: "constant"
value: 0.1
}
}
}
layer {
name: "relu7"
type: "ReLU"
bottom: "fc7"
top: "fc7"
}
layer {
name: "drop7"
type: "Dropout"
bottom: "fc7"
top: "fc7"
dropout_param {
dropout_ratio: 0.5
}
}
layer {
name: "fc8_species"
type: "InnerProduct"
bottom: "fc7"
top: "fc8_species"
param {
lr_mult: 1
decay_mult: 1
}
param {
lr_mult: 2
decay_mult: 0
}
inner_product_param {
num_output: 967
weight_filler {
type: "gaussian"
std: 0.005
}
bias_filler {
type: "constant"
value: 0.1
}
}
}
layer {
name: "loss"
type: "SoftmaxWithLoss"
bottom: "fc8_species"
bottom: "label"
top: "loss"
}
I0703 20:42:14.666538  6792 layer_factory.hpp:76] Creating layer data
I0703 20:42:14.666596  6792 net.cpp:109] Creating Layer data
I0703 20:42:14.666600  6792 net.cpp:414] data -> data
I0703 20:42:14.666623  6792 data_transformer.cpp:25] Loading mean file from: /home/ffw/scratch/plantClef/scatnet_output/train/a4_m2_s1s2_f2/lmdb_mean_coeff.binaryproto
I0703 20:42:14.667676  6804 db_lmdb.cpp:36] Opened lmdb /home/ffw/scratch/plantClef/scatnet_output/train/a4_m2_s1s2_f2/lmdb_data
I0703 20:42:14.672672  6792 data_layer.cpp:45] output data size: 32,75,105,105
I0703 20:42:14.784648  6792 net.cpp:153] Setting up data
I0703 20:42:14.784674  6792 net.cpp:160] Top shape: 32 75 105 105 (26460000)
I0703 20:42:14.784677  6792 net.cpp:168] Memory required for data: 105840000
I0703 20:42:14.784682  6792 layer_factory.hpp:76] Creating layer label
I0703 20:42:14.784798  6792 net.cpp:109] Creating Layer label
I0703 20:42:14.784802  6792 net.cpp:414] label -> label
I0703 20:42:14.785786  6806 db_lmdb.cpp:36] Opened lmdb /home/ffw/scratch/plantClef/scatnet_output/train/a4_m2_s1s2_f2/lmdb_labels
I0703 20:42:14.794013  6792 data_layer.cpp:45] output data size: 32,1,1,1
I0703 20:42:14.794095  6792 net.cpp:153] Setting up label
I0703 20:42:14.794100  6792 net.cpp:160] Top shape: 32 1 1 1 (32)
I0703 20:42:14.794102  6792 net.cpp:168] Memory required for data: 105840128
I0703 20:42:14.794106  6792 layer_factory.hpp:76] Creating layer pool1
I0703 20:42:14.794111  6792 net.cpp:109] Creating Layer pool1
I0703 20:42:14.794112  6792 net.cpp:457] pool1 <- data
I0703 20:42:14.794118  6792 net.cpp:414] pool1 -> pool1
I0703 20:42:14.794173  6792 net.cpp:153] Setting up pool1
I0703 20:42:14.794178  6792 net.cpp:160] Top shape: 32 75 21 21 (1058400)
I0703 20:42:14.794178  6792 net.cpp:168] Memory required for data: 110073728
I0703 20:42:14.794180  6792 layer_factory.hpp:76] Creating layer conv3
I0703 20:42:14.794186  6792 net.cpp:109] Creating Layer conv3
I0703 20:42:14.794188  6792 net.cpp:457] conv3 <- pool1
I0703 20:42:14.794191  6792 net.cpp:414] conv3 -> conv3
I0703 20:42:14.799512  6792 net.cpp:153] Setting up conv3
I0703 20:42:14.799530  6792 net.cpp:160] Top shape: 32 384 21 21 (5419008)
I0703 20:42:14.799533  6792 net.cpp:168] Memory required for data: 131749760
I0703 20:42:14.799542  6792 layer_factory.hpp:76] Creating layer relu3
I0703 20:42:14.799549  6792 net.cpp:109] Creating Layer relu3
I0703 20:42:14.799552  6792 net.cpp:457] relu3 <- conv3
I0703 20:42:14.799556  6792 net.cpp:400] relu3 -> conv3 (in-place)
I0703 20:42:14.799564  6792 net.cpp:153] Setting up relu3
I0703 20:42:14.799566  6792 net.cpp:160] Top shape: 32 384 21 21 (5419008)
I0703 20:42:14.799568  6792 net.cpp:168] Memory required for data: 153425792
I0703 20:42:14.799571  6792 layer_factory.hpp:76] Creating layer conv4
I0703 20:42:14.799576  6792 net.cpp:109] Creating Layer conv4
I0703 20:42:14.799577  6792 net.cpp:457] conv4 <- conv3
I0703 20:42:14.799581  6792 net.cpp:414] conv4 -> conv4
I0703 20:42:14.811908  6792 net.cpp:153] Setting up conv4
I0703 20:42:14.811928  6792 net.cpp:160] Top shape: 32 384 21 21 (5419008)
I0703 20:42:14.811930  6792 net.cpp:168] Memory required for data: 175101824
I0703 20:42:14.811938  6792 layer_factory.hpp:76] Creating layer relu4
I0703 20:42:14.811944  6792 net.cpp:109] Creating Layer relu4
I0703 20:42:14.811945  6792 net.cpp:457] relu4 <- conv4
I0703 20:42:14.811949  6792 net.cpp:400] relu4 -> conv4 (in-place)
I0703 20:42:14.811972  6792 net.cpp:153] Setting up relu4
I0703 20:42:14.811975  6792 net.cpp:160] Top shape: 32 384 21 21 (5419008)
I0703 20:42:14.811976  6792 net.cpp:168] Memory required for data: 196777856
I0703 20:42:14.811978  6792 layer_factory.hpp:76] Creating layer conv5
I0703 20:42:14.811983  6792 net.cpp:109] Creating Layer conv5
I0703 20:42:14.811985  6792 net.cpp:457] conv5 <- conv4
I0703 20:42:14.811988  6792 net.cpp:414] conv5 -> conv5
I0703 20:42:14.829082  6792 net.cpp:153] Setting up conv5
I0703 20:42:14.829102  6792 net.cpp:160] Top shape: 32 256 21 21 (3612672)
I0703 20:42:14.829103  6792 net.cpp:168] Memory required for data: 211228544
I0703 20:42:14.829110  6792 layer_factory.hpp:76] Creating layer relu5
I0703 20:42:14.829118  6792 net.cpp:109] Creating Layer relu5
I0703 20:42:14.829120  6792 net.cpp:457] relu5 <- conv5
I0703 20:42:14.829124  6792 net.cpp:400] relu5 -> conv5 (in-place)
I0703 20:42:14.829129  6792 net.cpp:153] Setting up relu5
I0703 20:42:14.829131  6792 net.cpp:160] Top shape: 32 256 21 21 (3612672)
I0703 20:42:14.829133  6792 net.cpp:168] Memory required for data: 225679232
I0703 20:42:14.829135  6792 layer_factory.hpp:76] Creating layer pool5
I0703 20:42:14.829138  6792 net.cpp:109] Creating Layer pool5
I0703 20:42:14.829140  6792 net.cpp:457] pool5 <- conv5
I0703 20:42:14.829144  6792 net.cpp:414] pool5 -> pool5
I0703 20:42:14.829162  6792 net.cpp:153] Setting up pool5
I0703 20:42:14.829165  6792 net.cpp:160] Top shape: 32 256 10 10 (819200)
I0703 20:42:14.829167  6792 net.cpp:168] Memory required for data: 228956032
I0703 20:42:14.829169  6792 layer_factory.hpp:76] Creating layer fc6
I0703 20:42:14.829172  6792 net.cpp:109] Creating Layer fc6
I0703 20:42:14.829174  6792 net.cpp:457] fc6 <- pool5
I0703 20:42:14.829177  6792 net.cpp:414] fc6 -> fc6
I0703 20:42:16.783685  6792 net.cpp:153] Setting up fc6
I0703 20:42:16.783704  6792 net.cpp:160] Top shape: 32 4096 (131072)
I0703 20:42:16.783705  6792 net.cpp:168] Memory required for data: 229480320
I0703 20:42:16.783710  6792 layer_factory.hpp:76] Creating layer relu6
I0703 20:42:16.783717  6792 net.cpp:109] Creating Layer relu6
I0703 20:42:16.783720  6792 net.cpp:457] relu6 <- fc6
I0703 20:42:16.783723  6792 net.cpp:400] relu6 -> fc6 (in-place)
I0703 20:42:16.783730  6792 net.cpp:153] Setting up relu6
I0703 20:42:16.783732  6792 net.cpp:160] Top shape: 32 4096 (131072)
I0703 20:42:16.783733  6792 net.cpp:168] Memory required for data: 230004608
I0703 20:42:16.783735  6792 layer_factory.hpp:76] Creating layer drop6
I0703 20:42:16.783745  6792 net.cpp:109] Creating Layer drop6
I0703 20:42:16.783746  6792 net.cpp:457] drop6 <- fc6
I0703 20:42:16.783749  6792 net.cpp:400] drop6 -> fc6 (in-place)
I0703 20:42:16.783763  6792 net.cpp:153] Setting up drop6
I0703 20:42:16.783766  6792 net.cpp:160] Top shape: 32 4096 (131072)
I0703 20:42:16.783767  6792 net.cpp:168] Memory required for data: 230528896
I0703 20:42:16.783769  6792 layer_factory.hpp:76] Creating layer fc7
I0703 20:42:16.783773  6792 net.cpp:109] Creating Layer fc7
I0703 20:42:16.783776  6792 net.cpp:457] fc7 <- fc6
I0703 20:42:16.783777  6792 net.cpp:414] fc7 -> fc7
I0703 20:42:17.095023  6792 net.cpp:153] Setting up fc7
I0703 20:42:17.095041  6792 net.cpp:160] Top shape: 32 4096 (131072)
I0703 20:42:17.095043  6792 net.cpp:168] Memory required for data: 231053184
I0703 20:42:17.095052  6792 layer_factory.hpp:76] Creating layer relu7
I0703 20:42:17.095057  6792 net.cpp:109] Creating Layer relu7
I0703 20:42:17.095060  6792 net.cpp:457] relu7 <- fc7
I0703 20:42:17.095063  6792 net.cpp:400] relu7 -> fc7 (in-place)
I0703 20:42:17.095069  6792 net.cpp:153] Setting up relu7
I0703 20:42:17.095072  6792 net.cpp:160] Top shape: 32 4096 (131072)
I0703 20:42:17.095073  6792 net.cpp:168] Memory required for data: 231577472
I0703 20:42:17.095075  6792 layer_factory.hpp:76] Creating layer drop7
I0703 20:42:17.095079  6792 net.cpp:109] Creating Layer drop7
I0703 20:42:17.095082  6792 net.cpp:457] drop7 <- fc7
I0703 20:42:17.095083  6792 net.cpp:400] drop7 -> fc7 (in-place)
I0703 20:42:17.095115  6792 net.cpp:153] Setting up drop7
I0703 20:42:17.095118  6792 net.cpp:160] Top shape: 32 4096 (131072)
I0703 20:42:17.095119  6792 net.cpp:168] Memory required for data: 232101760
I0703 20:42:17.095121  6792 layer_factory.hpp:76] Creating layer fc8_species
I0703 20:42:17.095127  6792 net.cpp:109] Creating Layer fc8_species
I0703 20:42:17.095129  6792 net.cpp:457] fc8_species <- fc7
I0703 20:42:17.095131  6792 net.cpp:414] fc8_species -> fc8_species
I0703 20:42:17.169989  6792 net.cpp:153] Setting up fc8_species
I0703 20:42:17.170006  6792 net.cpp:160] Top shape: 32 967 (30944)
I0703 20:42:17.170008  6792 net.cpp:168] Memory required for data: 232225536
I0703 20:42:17.170013  6792 layer_factory.hpp:76] Creating layer loss
I0703 20:42:17.170018  6792 net.cpp:109] Creating Layer loss
I0703 20:42:17.170022  6792 net.cpp:457] loss <- fc8_species
I0703 20:42:17.170024  6792 net.cpp:457] loss <- label
I0703 20:42:17.170028  6792 net.cpp:414] loss -> loss
I0703 20:42:17.170034  6792 layer_factory.hpp:76] Creating layer loss
…
I0703 20:42:17.171186  6792 net.cpp:52] Initializing net from parameters:
state {
phase: TEST
}
layer {
name: "data"
type: "Data"
top: "data"
include {
phase: TEST
}
transform_param {
mean_file: "/home/ffw/scratch/plantClef/scatnet_output/train/a4_m2_s1s2_f2/lmdb_mean_coeff.binaryproto"
}
data_param {
source: "/home/ffw/scratch/plantClef/scatnet_output/test/a4_m2_s1s2_f2/lmdb_data"
batch_size: 32
backend: LMDB
}
}
layer {
name: "label"
type: "Data"
top: "label"
include {
phase: TEST
}
data_param {
source: "/home/ffw/scratch/plantClef/scatnet_output/test/a4_m2_s1s2_f2/lmdb_labels"
batch_size: 32
backend: LMDB
}
}
layer {
name: "pool1"
type: "Pooling"
bottom: "data"
top: "pool1"
pooling_param {
pool: MAX
kernel_size: 6
stride: 5
}
}
layer {
name: "conv3"
type: "Convolution"
bottom: "pool1"
top: "conv3"
param {
lr_mult: 1
decay_mult: 1
}
param {
lr_mult: 2
decay_mult: 0
}
convolution_param {
num_output: 384
pad: 1
kernel_size: 3
weight_filler {
type: "gaussian"
std: 0.01
}
bias_filler {
type: "constant"
value: 0
}
}
}
layer {
name: "relu3"
type: "ReLU"
bottom: "conv3"
top: "conv3"
}
layer {
name: "conv4"
type: "Convolution"
bottom: "conv3"
top: "conv4"
param {
lr_mult: 1
decay_mult: 1
}
param {
lr_mult: 2
decay_mult: 0
}
convolution_param {
num_output: 384
pad: 1
kernel_size: 3
group: 2
weight_filler {
type: "gaussian"
std: 0.01
}
bias_filler {
type: "constant"
value: 0.1
}
}
}
layer {
name: "relu4"
type: "ReLU"
bottom: "conv4"
top: "conv4"
}
layer {
name: "conv5"
type: "Convolution"
bottom: "conv4"
top: "conv5"
param {
lr_mult: 1
decay_mult: 1
}
param {
lr_mult: 2
decay_mult: 0
}
convolution_param {
num_output: 256
pad: 1
kernel_size: 3
group: 1
weight_filler {
type: "gaussian"
std: 0.01
}
bias_filler {
type: "constant"
value: 0.1
}
}
}
layer {
name: "relu5"
type: "ReLU"
bottom: "conv5"
top: "conv5"
}
layer {
name: "pool5"
type: "Pooling"
bottom: "conv5"
top: "pool5"
pooling_param {
pool: MAX
kernel_size: 3
stride: 2
}
}
layer {
name: "fc6"
type: "InnerProduct"
bottom: "pool5"
top: "fc6"
param {
lr_mult: 1
decay_mult: 1
}
param {
lr_mult: 2
decay_mult: 0
}
inner_product_param {
num_output: 4096
weight_filler {
type: "gaussian"
std: 0.005
}
bias_filler {
type: "constant"
value: 0.1
}
}
}
layer {
name: "relu6"
type: "ReLU"
bottom: "fc6"
top: "fc6"
}
layer {
name: "drop6"
type: "Dropout"
bottom: "fc6"
top: "fc6"
dropout_param {
dropout_ratio: 0.5
}
}
layer {
name: "fc7"
type: "InnerProduct"
bottom: "fc6"
top: "fc7"
param {
lr_mult: 1
decay_mult: 1
}
param {
lr_mult: 2
decay_mult: 0
}
inner_product_param {
num_output: 4096
weight_filler {
type: "gaussian"
std: 0.005
}
bias_filler {
type: "constant"
value: 0.1
}
}
}
layer {
name: "relu7"
type: "ReLU"
bottom: "fc7"
top: "fc7"
}
layer {
name: "drop7"
type: "Dropout"
bottom: "fc7"
top: "fc7"
dropout_param {
dropout_ratio: 0.5
}
}
layer {
name: "fc8_species"
type: "InnerProduct"
bottom: "fc7"
top: "fc8_species"
param {
lr_mult: 1
decay_mult: 1
}
param {
lr_mult: 2
decay_mult: 0
}
inner_product_param {
num_output: 967
weight_filler {
type: "gaussian"
std: 0.005
}
bias_filler {
type: "constant"
value: 0.1
}
}
}
layer {
name: "loss"
type: "SoftmaxWithLoss"
bottom: "fc8_species"
bottom: "label"
top: "loss"
}
layer {
name: "accuracy"
type: "Accuracy"
bottom: "fc8_species"
bottom: "label"
top: "accuracy"
include {
phase: TEST
}
}
I0703 20:42:17.171247  6792 layer_factory.hpp:76] Creating layer data
I0703 20:42:17.171300  6792 net.cpp:109] Creating Layer data
I0703 20:42:17.171305  6792 net.cpp:414] data -> data
I0703 20:42:17.171310  6792 data_transformer.cpp:25] Loading mean file from: /home/ffw/scratch/plantClef/scatnet_output/train/a4_m2_s1s2_f2/lmdb_mean_coeff.binaryproto
I0703 20:42:17.172055  6809 db_lmdb.cpp:36] Opened lmdb /home/ffw/scratch/plantClef/scatnet_output/test/a4_m2_s1s2_f2/lmdb_data
I0703 20:42:17.175922  6792 data_layer.cpp:45] output data size: 32,75,105,105
I0703 20:42:17.288121  6792 net.cpp:153] Setting up data
I0703 20:42:17.288141  6792 net.cpp:160] Top shape: 32 75 105 105 (26460000)
I0703 20:42:17.288142  6792 net.cpp:168] Memory required for data: 105840000
I0703 20:42:17.288146  6792 layer_factory.hpp:76] Creating layer label
I0703 20:42:17.288182  6792 net.cpp:109] Creating Layer label
I0703 20:42:17.288197  6792 net.cpp:414] label -> label
I0703 20:42:17.289758  6811 db_lmdb.cpp:36] Opened lmdb /home/ffw/scratch/plantClef/scatnet_output/test/a4_m2_s1s2_f2/lmdb_labels
I0703 20:42:17.298037  6792 data_layer.cpp:45] output data size: 32,1,1,1
I0703 20:42:17.298125  6792 net.cpp:153] Setting up label
I0703 20:42:17.298130  6792 net.cpp:160] Top shape: 32 1 1 1 (32)
I0703 20:42:17.298132  6792 net.cpp:168] Memory required for data: 105840128
I0703 20:42:17.298135  6792 layer_factory.hpp:76] Creating layer label_label_0_split
I0703 20:42:17.298140  6792 net.cpp:109] Creating Layer label_label_0_split
I0703 20:42:17.298141  6792 net.cpp:457] label_label_0_split <- label
I0703 20:42:17.298144  6792 net.cpp:414] label_label_0_split -> label_label_0_split_0
I0703 20:42:17.298148  6792 net.cpp:414] label_label_0_split -> label_label_0_split_1
I0703 20:42:17.298195  6792 net.cpp:153] Setting up label_label_0_split
I0703 20:42:17.298200  6792 net.cpp:160] Top shape: 32 1 1 1 (32)
I0703 20:42:17.298202  6792 net.cpp:160] Top shape: 32 1 1 1 (32)
I0703 20:42:17.298203  6792 net.cpp:168] Memory required for data: 105840384
I0703 20:42:17.298205  6792 layer_factory.hpp:76] Creating layer pool1
I0703 20:42:17.298209  6792 net.cpp:109] Creating Layer pool1
I0703 20:42:17.298212  6792 net.cpp:457] pool1 <- data
I0703 20:42:17.298214  6792 net.cpp:414] pool1 -> pool1
I0703 20:42:17.298231  6792 net.cpp:153] Setting up pool1
I0703 20:42:17.298234  6792 net.cpp:160] Top shape: 32 75 21 21 (1058400)
I0703 20:42:17.298235  6792 net.cpp:168] Memory required for data: 110073984
I0703 20:42:17.298238  6792 layer_factory.hpp:76] Creating layer conv3
I0703 20:42:17.298243  6792 net.cpp:109] Creating Layer conv3
I0703 20:42:17.298244  6792 net.cpp:457] conv3 <- pool1
I0703 20:42:17.298248  6792 net.cpp:414] conv3 -> conv3
I0703 20:42:17.303366  6792 net.cpp:153] Setting up conv3
I0703 20:42:17.303383  6792 net.cpp:160] Top shape: 32 384 21 21 (5419008)
I0703 20:42:17.303385  6792 net.cpp:168] Memory required for data: 131750016
I0703 20:42:17.303393  6792 layer_factory.hpp:76] Creating layer relu3
I0703 20:42:17.303400  6792 net.cpp:109] Creating Layer relu3
I0703 20:42:17.303402  6792 net.cpp:457] relu3 <- conv3
I0703 20:42:17.303406  6792 net.cpp:400] relu3 -> conv3 (in-place)
I0703 20:42:17.303411  6792 net.cpp:153] Setting up relu3
I0703 20:42:17.303413  6792 net.cpp:160] Top shape: 32 384 21 21 (5419008)
I0703 20:42:17.303416  6792 net.cpp:168] Memory required for data: 153426048
I0703 20:42:17.303417  6792 layer_factory.hpp:76] Creating layer conv4
I0703 20:42:17.303422  6792 net.cpp:109] Creating Layer conv4
I0703 20:42:17.303424  6792 net.cpp:457] conv4 <- conv3
I0703 20:42:17.303427  6792 net.cpp:414] conv4 -> conv4
I0703 20:42:17.315881  6792 net.cpp:153] Setting up conv4
I0703 20:42:17.315899  6792 net.cpp:160] Top shape: 32 384 21 21 (5419008)
I0703 20:42:17.315901  6792 net.cpp:168] Memory required for data: 175102080
I0703 20:42:17.315909  6792 layer_factory.hpp:76] Creating layer relu4
I0703 20:42:17.315915  6792 net.cpp:109] Creating Layer relu4
I0703 20:42:17.315918  6792 net.cpp:457] relu4 <- conv4
I0703 20:42:17.315922  6792 net.cpp:400] relu4 -> conv4 (in-place)
I0703 20:42:17.315927  6792 net.cpp:153] Setting up relu4
I0703 20:42:17.315929  6792 net.cpp:160] Top shape: 32 384 21 21 (5419008)
I0703 20:42:17.315930  6792 net.cpp:168] Memory required for data: 196778112
I0703 20:42:17.315932  6792 layer_factory.hpp:76] Creating layer conv5
I0703 20:42:17.315937  6792 net.cpp:109] Creating Layer conv5
I0703 20:42:17.315939  6792 net.cpp:457] conv5 <- conv4
I0703 20:42:17.315943  6792 net.cpp:414] conv5 -> conv5
I0703 20:42:17.332195  6792 net.cpp:153] Setting up conv5
I0703 20:42:17.332212  6792 net.cpp:160] Top shape: 32 256 21 21 (3612672)
I0703 20:42:17.332214  6792 net.cpp:168] Memory required for data: 211228800
I0703 20:42:17.332221  6792 layer_factory.hpp:76] Creating layer relu5
I0703 20:42:17.332227  6792 net.cpp:109] Creating Layer relu5
I0703 20:42:17.332231  6792 net.cpp:457] relu5 <- conv5
I0703 20:42:17.332233  6792 net.cpp:400] relu5 -> conv5 (in-place)
I0703 20:42:17.332257  6792 net.cpp:153] Setting up relu5
I0703 20:42:17.332259  6792 net.cpp:160] Top shape: 32 256 21 21 (3612672)
I0703 20:42:17.332262  6792 net.cpp:168] Memory required for data: 225679488
I0703 20:42:17.332263  6792 layer_factory.hpp:76] Creating layer pool5
I0703 20:42:17.332267  6792 net.cpp:109] Creating Layer pool5
I0703 20:42:17.332268  6792 net.cpp:457] pool5 <- conv5
I0703 20:42:17.332272  6792 net.cpp:414] pool5 -> pool5
I0703 20:42:17.332291  6792 net.cpp:153] Setting up pool5
I0703 20:42:17.332294  6792 net.cpp:160] Top shape: 32 256 10 10 (819200)
I0703 20:42:17.332296  6792 net.cpp:168] Memory required for data: 228956288
I0703 20:42:17.332298  6792 layer_factory.hpp:76] Creating layer fc6
I0703 20:42:17.332303  6792 net.cpp:109] Creating Layer fc6
I0703 20:42:17.332304  6792 net.cpp:457] fc6 <- pool5
I0703 20:42:17.332307  6792 net.cpp:414] fc6 -> fc6
I0703 20:42:19.241261  6792 net.cpp:153] Setting up fc6
I0703 20:42:19.241278  6792 net.cpp:160] Top shape: 32 4096 (131072)
I0703 20:42:19.241281  6792 net.cpp:168] Memory required for data: 229480576
I0703 20:42:19.241287  6792 layer_factory.hpp:76] Creating layer relu6
I0703 20:42:19.241294  6792 net.cpp:109] Creating Layer relu6
I0703 20:42:19.241297  6792 net.cpp:457] relu6 <- fc6
I0703 20:42:19.241300  6792 net.cpp:400] relu6 -> fc6 (in-place)
I0703 20:42:19.241307  6792 net.cpp:153] Setting up relu6
I0703 20:42:19.241309  6792 net.cpp:160] Top shape: 32 4096 (131072)
I0703 20:42:19.241312  6792 net.cpp:168] Memory required for data: 230004864
I0703 20:42:19.241312  6792 layer_factory.hpp:76] Creating layer drop6
I0703 20:42:19.241317  6792 net.cpp:109] Creating Layer drop6
I0703 20:42:19.241318  6792 net.cpp:457] drop6 <- fc6
I0703 20:42:19.241322  6792 net.cpp:400] drop6 -> fc6 (in-place)
I0703 20:42:19.241339  6792 net.cpp:153] Setting up drop6
I0703 20:42:19.241343  6792 net.cpp:160] Top shape: 32 4096 (131072)
I0703 20:42:19.241344  6792 net.cpp:168] Memory required for data: 230529152
I0703 20:42:19.241345  6792 layer_factory.hpp:76] Creating layer fc7
I0703 20:42:19.241350  6792 net.cpp:109] Creating Layer fc7
I0703 20:42:19.241351  6792 net.cpp:457] fc7 <- fc6
I0703 20:42:19.241354  6792 net.cpp:414] fc7 -> fc7
I0703 20:42:19.545291  6792 net.cpp:153] Setting up fc7
I0703 20:42:19.545310  6792 net.cpp:160] Top shape: 32 4096 (131072)
I0703 20:42:19.545312  6792 net.cpp:168] Memory required for data: 231053440
I0703 20:42:19.545320  6792 layer_factory.hpp:76] Creating layer relu7
I0703 20:42:19.545327  6792 net.cpp:109] Creating Layer relu7
I0703 20:42:19.545330  6792 net.cpp:457] relu7 <- fc7
I0703 20:42:19.545333  6792 net.cpp:400] relu7 -> fc7 (in-place)
I0703 20:42:19.545341  6792 net.cpp:153] Setting up relu7
I0703 20:42:19.545342  6792 net.cpp:160] Top shape: 32 4096 (131072)
I0703 20:42:19.545344  6792 net.cpp:168] Memory required for data: 231577728
I0703 20:42:19.545346  6792 layer_factory.hpp:76] Creating layer drop7
I0703 20:42:19.545351  6792 net.cpp:109] Creating Layer drop7
I0703 20:42:19.545353  6792 net.cpp:457] drop7 <- fc7
I0703 20:42:19.545356  6792 net.cpp:400] drop7 -> fc7 (in-place)
I0703 20:42:19.545375  6792 net.cpp:153] Setting up drop7
I0703 20:42:19.545378  6792 net.cpp:160] Top shape: 32 4096 (131072)
I0703 20:42:19.545379  6792 net.cpp:168] Memory required for data: 232102016
I0703 20:42:19.545382  6792 layer_factory.hpp:76] Creating layer fc8_species
I0703 20:42:19.545385  6792 net.cpp:109] Creating Layer fc8_species
I0703 20:42:19.545387  6792 net.cpp:457] fc8_species <- fc7
I0703 20:42:19.545390  6792 net.cpp:414] fc8_species -> fc8_species
I0703 20:42:19.617061  6792 net.cpp:153] Setting up fc8_species
I0703 20:42:19.617079  6792 net.cpp:160] Top shape: 32 967 (30944)
I0703 20:42:19.617081  6792 net.cpp:168] Memory required for data: 232225792
I0703 20:42:19.617086  6792 layer_factory.hpp:76] Creating layer fc8_species_fc8_species_0_split
I0703 20:42:19.617092  6792 net.cpp:109] Creating Layer fc8_species_fc8_species_0_split
I0703 20:42:19.617095  6792 net.cpp:457] fc8_species_fc8_species_0_split <- fc8_species
I0703 20:42:19.617117  6792 net.cpp:414] fc8_species_fc8_species_0_split -> fc8_species_fc8_species_0_split_0
I0703 20:42:19.617123  6792 net.cpp:414] fc8_species_fc8_species_0_split -> fc8_species_fc8_species_0_split_1
I0703 20:42:19.617151  6792 net.cpp:153] Setting up fc8_species_fc8_species_0_split
I0703 20:42:19.617154  6792 net.cpp:160] Top shape: 32 967 (30944)
I0703 20:42:19.617157  6792 net.cpp:160] Top shape: 32 967 (30944)
I0703 20:42:19.617158  6792 net.cpp:168] Memory required for data: 232473344
I0703 20:42:19.617161  6792 layer_factory.hpp:76] Creating layer loss
I0703 20:42:19.617163  6792 net.cpp:109] Creating Layer loss
I0703 20:42:19.617166  6792 net.cpp:457] loss <- fc8_species_fc8_species_0_split_0
I0703 20:42:19.617167  6792 net.cpp:457] loss <- label_label_0_split_0
I0703 20:42:19.617171  6792 net.cpp:414] loss -> loss
…
