…
I0624 18:28:09.666254  4178 net.cpp:325] The NetState phase (0) differed from the phase (1) specified by a rule in layer data
I0624 18:28:09.666265  4178 net.cpp:325] The NetState phase (0) differed from the phase (1) specified by a rule in layer accuracy
I0624 18:28:09.666383  4178 net.cpp:52] Initializing net from parameters:
state {
phase: TRAIN
}
layer {
name: "data"
type: "Data"
top: "data"
top: "label"
include {
phase: TRAIN
}
transform_param {
mirror: true
crop_size: 227
mean_file: "/usr/share/digits/digits/jobs/20160624-120053-bb9a/mean.binaryproto"
}
data_param {
source: "/usr/share/digits/digits/jobs/20160624-120053-bb9a/train_db"
batch_size: 100
backend: LMDB
}
}
layer {
name: "conv1"
type: "Convolution"
bottom: "data"
top: "conv1"
param {
lr_mult: 1
decay_mult: 1
}
param {
lr_mult: 2
decay_mult: 0
}
convolution_param {
num_output: 96
kernel_size: 11
stride: 4
weight_filler {
type: "gaussian"
std: 0.01
}
bias_filler {
type: "constant"
value: 0
}
}
}
layer {
name: "relu1"
type: "ReLU"
bottom: "conv1"
top: "conv1"
}
layer {
name: "norm1"
type: "LRN"
bottom: "conv1"
top: "norm1"
lrn_param {
local_size: 5
alpha: 0.0001
beta: 0.75
}
}
layer {
name: "pool1"
type: "Pooling"
bottom: "norm1"
top: "pool1"
pooling_param {
pool: MAX
kernel_size: 3
stride: 2
}
}
layer {
name: "conv2"
type: "Convolution"
bottom: "pool1"
top: "conv2"
param {
lr_mult: 1
decay_mult: 1
}
param {
lr_mult: 2
decay_mult: 0
}
convolution_param {
num_output: 256
pad: 2
kernel_size: 5
group: 2
weight_filler {
type: "gaussian"
std: 0.01
}
bias_filler {
type: "constant"
value: 0.1
}
}
}
layer {
name: "relu2"
type: "ReLU"
bottom: "conv2"
top: "conv2"
}
layer {
name: "norm2"
type: "LRN"
bottom: "conv2"
top: "norm2"
lrn_param {
local_size: 5
alpha: 0.0001
beta: 0.75
}
}
layer {
name: "pool2"
type: "Pooling"
bottom: "norm2"
top: "pool2"
pooling_param {
pool: MAX
kernel_size: 3
stride: 2
}
}
layer {
name: "conv3"
type: "Convolution"
bottom: "pool2"
top: "conv3"
param {
lr_mult: 1
decay_mult: 1
}
param {
lr_mult: 2
decay_mult: 0
}
convolution_param {
num_output: 384
pad: 1
kernel_size: 3
weight_filler {
type: "gaussian"
std: 0.01
}
bias_filler {
type: "constant"
value: 0
}
}
}
layer {
name: "relu3"
type: "ReLU"
bottom: "conv3"
top: "conv3"
}
layer {
name: "conv4"
type: "Convolution"
bottom: "conv3"
top: "conv4"
param {
lr_mult: 1
decay_mult: 1
}
param {
lr_mult: 2
decay_mult: 0
}
convolution_param {
num_output: 384
pad: 1
kernel_size: 3
group: 2
weight_filler {
type: "gaussian"
std: 0.01
}
bias_filler {
type: "constant"
value: 0.1
}
}
}
layer {
name: "relu4"
type: "ReLU"
bottom: "conv4"
top: "conv4"
}
layer {
name: "conv5"
type: "Convolution"
bottom: "conv4"
top: "conv5"
param {
lr_mult: 1
decay_mult: 1
}
param {
lr_mult: 2
decay_mult: 0
}
convolution_param {
num_output: 256
pad: 1
kernel_size: 3
group: 2
weight_filler {
type: "gaussian"
std: 0.01
}
bias_filler {
type: "constant"
value: 0.1
}
}
}
layer {
name: "relu5"
type: "ReLU"
bottom: "conv5"
top: "conv5"
}
layer {
name: "pool5"
type: "Pooling"
bottom: "conv5"
top: "pool5"
pooling_param {
pool: MAX
kernel_size: 3
stride: 2
}
}
layer {
name: "fc6"
type: "InnerProduct"
bottom: "pool5"
top: "fc6"
param {
lr_mult: 1
decay_mult: 1
}
param {
lr_mult: 2
decay_mult: 0
}
inner_product_param {
num_output: 4096
weight_filler {
type: "gaussian"
std: 0.005
}
bias_filler {
type: "constant"
value: 0.1
}
}
}
layer {
name: "relu6"
type: "ReLU"
bottom: "fc6"
top: "fc6"
}
layer {
name: "drop6"
type: "Dropout"
bottom: "fc6"
top: "fc6"
dropout_param {
dropout_ratio: 0.5
}
}
layer {
name: "fc7"
type: "InnerProduct"
bottom: "fc6"
top: "fc7"
param {
lr_mult: 1
decay_mult: 1
}
param {
lr_mult: 2
decay_mult: 0
}
inner_product_param {
num_output: 4096
weight_filler {
type: "gaussian"
std: 0.005
}
bias_filler {
type: "constant"
value: 0.1
}
}
}
layer {
name: "relu7"
type: "ReLU"
bottom: "fc7"
top: "fc7"
}
layer {
name: "drop7"
type: "Dropout"
bottom: "fc7"
top: "fc7"
dropout_param {
dropout_ratio: 0.5
}
}
layer {
name: "fc8_species"
type: "InnerProduct"
bottom: "fc7"
top: "fc8_species"
param {
lr_mult: 1
decay_mult: 1
}
param {
lr_mult: 2
decay_mult: 0
}
inner_product_param {
num_output: 967
weight_filler {
type: "gaussian"
std: 0.01
}
bias_filler {
type: "constant"
value: 0
}
}
}
layer {
name: "loss"
type: "SoftmaxWithLoss"
bottom: "fc8_species"
bottom: "label"
top: "loss"
}
I0624 18:28:09.666460  4178 layer_factory.hpp:76] Creating layer data
I0624 18:28:09.666534  4178 net.cpp:109] Creating Layer data
I0624 18:28:09.666539  4178 net.cpp:414] data -> data
I0624 18:28:09.666549  4178 net.cpp:414] data -> label
I0624 18:28:09.666563  4178 data_transformer.cpp:25] Loading mean file from: /usr/share/digits/digits/jobs/20160624-120053-bb9a/mean.binaryproto
I0624 18:28:09.669749  4190 db_lmdb.cpp:36] Opened lmdb /usr/share/digits/digits/jobs/20160624-120053-bb9a/train_db
I0624 18:28:09.675431  4178 data_layer.cpp:45] output data size: 100,3,227,227
I0624 18:28:09.738711  4178 net.cpp:153] Setting up data
I0624 18:28:09.738732  4178 net.cpp:160] Top shape: 100 3 227 227 (15458700)
I0624 18:28:09.738736  4178 net.cpp:160] Top shape: 100 (100)
I0624 18:28:09.738739  4178 net.cpp:168] Memory required for data: 61835200
I0624 18:28:09.738744  4178 layer_factory.hpp:76] Creating layer conv1
I0624 18:28:09.738754  4178 net.cpp:109] Creating Layer conv1
I0624 18:28:09.738756  4178 net.cpp:457] conv1 <- data
I0624 18:28:09.738765  4178 net.cpp:414] conv1 -> conv1
I0624 18:28:09.740237  4178 net.cpp:153] Setting up conv1
I0624 18:28:09.740247  4178 net.cpp:160] Top shape: 100 96 55 55 (29040000)
I0624 18:28:09.740248  4178 net.cpp:168] Memory required for data: 177995200
I0624 18:28:09.740258  4178 layer_factory.hpp:76] Creating layer relu1
I0624 18:28:09.740265  4178 net.cpp:109] Creating Layer relu1
I0624 18:28:09.740269  4178 net.cpp:457] relu1 <- conv1
I0624 18:28:09.740274  4178 net.cpp:400] relu1 -> conv1 (in-place)
I0624 18:28:09.740288  4178 net.cpp:153] Setting up relu1
I0624 18:28:09.740293  4178 net.cpp:160] Top shape: 100 96 55 55 (29040000)
I0624 18:28:09.740296  4178 net.cpp:168] Memory required for data: 294155200
I0624 18:28:09.740299  4178 layer_factory.hpp:76] Creating layer norm1
I0624 18:28:09.740623  4178 net.cpp:109] Creating Layer norm1
I0624 18:28:09.740633  4178 net.cpp:457] norm1 <- conv1
I0624 18:28:09.740638  4178 net.cpp:414] norm1 -> norm1
I0624 18:28:09.740679  4178 net.cpp:153] Setting up norm1
I0624 18:28:09.740684  4178 net.cpp:160] Top shape: 100 96 55 55 (29040000)
I0624 18:28:09.740687  4178 net.cpp:168] Memory required for data: 410315200
I0624 18:28:09.740690  4178 layer_factory.hpp:76] Creating layer pool1
I0624 18:28:09.740696  4178 net.cpp:109] Creating Layer pool1
I0624 18:28:09.740699  4178 net.cpp:457] pool1 <- norm1
I0624 18:28:09.740700  4178 net.cpp:414] pool1 -> pool1
I0624 18:28:09.740736  4178 net.cpp:153] Setting up pool1
I0624 18:28:09.740739  4178 net.cpp:160] Top shape: 100 96 27 27 (6998400)
I0624 18:28:09.740741  4178 net.cpp:168] Memory required for data: 438308800
I0624 18:28:09.740743  4178 layer_factory.hpp:76] Creating layer conv2
I0624 18:28:09.740747  4178 net.cpp:109] Creating Layer conv2
I0624 18:28:09.740749  4178 net.cpp:457] conv2 <- pool1
I0624 18:28:09.740752  4178 net.cpp:414] conv2 -> conv2
I0624 18:28:09.747578  4178 net.cpp:153] Setting up conv2
I0624 18:28:09.747592  4178 net.cpp:160] Top shape: 100 256 27 27 (18662400)
I0624 18:28:09.747596  4178 net.cpp:168] Memory required for data: 512958400
I0624 18:28:09.747604  4178 layer_factory.hpp:76] Creating layer relu2
I0624 18:28:09.747611  4178 net.cpp:109] Creating Layer relu2
I0624 18:28:09.747616  4178 net.cpp:457] relu2 <- conv2
I0624 18:28:09.747620  4178 net.cpp:400] relu2 -> conv2 (in-place)
I0624 18:28:09.747627  4178 net.cpp:153] Setting up relu2
I0624 18:28:09.747632  4178 net.cpp:160] Top shape: 100 256 27 27 (18662400)
I0624 18:28:09.747634  4178 net.cpp:168] Memory required for data: 587608000
I0624 18:28:09.747637  4178 layer_factory.hpp:76] Creating layer norm2
I0624 18:28:09.747644  4178 net.cpp:109] Creating Layer norm2
I0624 18:28:09.747647  4178 net.cpp:457] norm2 <- conv2
I0624 18:28:09.747651  4178 net.cpp:414] norm2 -> norm2
I0624 18:28:09.747683  4178 net.cpp:153] Setting up norm2
I0624 18:28:09.747689  4178 net.cpp:160] Top shape: 100 256 27 27 (18662400)
I0624 18:28:09.747692  4178 net.cpp:168] Memory required for data: 662257600
I0624 18:28:09.747695  4178 layer_factory.hpp:76] Creating layer pool2
I0624 18:28:09.747700  4178 net.cpp:109] Creating Layer pool2
I0624 18:28:09.747702  4178 net.cpp:457] pool2 <- norm2
I0624 18:28:09.747705  4178 net.cpp:414] pool2 -> pool2
I0624 18:28:09.747723  4178 net.cpp:153] Setting up pool2
I0624 18:28:09.747726  4178 net.cpp:160] Top shape: 100 256 13 13 (4326400)
I0624 18:28:09.747727  4178 net.cpp:168] Memory required for data: 679563200
I0624 18:28:09.747730  4178 layer_factory.hpp:76] Creating layer conv3
I0624 18:28:09.747735  4178 net.cpp:109] Creating Layer conv3
I0624 18:28:09.747736  4178 net.cpp:457] conv3 <- pool2
I0624 18:28:09.747740  4178 net.cpp:414] conv3 -> conv3
I0624 18:28:09.765903  4178 net.cpp:153] Setting up conv3
I0624 18:28:09.765921  4178 net.cpp:160] Top shape: 100 384 13 13 (6489600)
I0624 18:28:09.765923  4178 net.cpp:168] Memory required for data: 705521600
I0624 18:28:09.765931  4178 layer_factory.hpp:76] Creating layer relu3
I0624 18:28:09.765938  4178 net.cpp:109] Creating Layer relu3
I0624 18:28:09.765941  4178 net.cpp:457] relu3 <- conv3
I0624 18:28:09.765947  4178 net.cpp:400] relu3 -> conv3 (in-place)
I0624 18:28:09.765955  4178 net.cpp:153] Setting up relu3
I0624 18:28:09.765960  4178 net.cpp:160] Top shape: 100 384 13 13 (6489600)
I0624 18:28:09.765964  4178 net.cpp:168] Memory required for data: 731480000
I0624 18:28:09.765966  4178 layer_factory.hpp:76] Creating layer conv4
I0624 18:28:09.765974  4178 net.cpp:109] Creating Layer conv4
I0624 18:28:09.765976  4178 net.cpp:457] conv4 <- conv3
I0624 18:28:09.765981  4178 net.cpp:414] conv4 -> conv4
I0624 18:28:09.779618  4178 net.cpp:153] Setting up conv4
I0624 18:28:09.779635  4178 net.cpp:160] Top shape: 100 384 13 13 (6489600)
I0624 18:28:09.779638  4178 net.cpp:168] Memory required for data: 757438400
I0624 18:28:09.779642  4178 layer_factory.hpp:76] Creating layer relu4
I0624 18:28:09.779649  4178 net.cpp:109] Creating Layer relu4
I0624 18:28:09.779650  4178 net.cpp:457] relu4 <- conv4
I0624 18:28:09.779654  4178 net.cpp:400] relu4 -> conv4 (in-place)
I0624 18:28:09.779659  4178 net.cpp:153] Setting up relu4
I0624 18:28:09.779662  4178 net.cpp:160] Top shape: 100 384 13 13 (6489600)
I0624 18:28:09.779664  4178 net.cpp:168] Memory required for data: 783396800
I0624 18:28:09.779665  4178 layer_factory.hpp:76] Creating layer conv5
I0624 18:28:09.779670  4178 net.cpp:109] Creating Layer conv5
I0624 18:28:09.779672  4178 net.cpp:457] conv5 <- conv4
I0624 18:28:09.779690  4178 net.cpp:414] conv5 -> conv5
I0624 18:28:09.788801  4178 net.cpp:153] Setting up conv5
I0624 18:28:09.788822  4178 net.cpp:160] Top shape: 100 256 13 13 (4326400)
I0624 18:28:09.788826  4178 net.cpp:168] Memory required for data: 800702400
I0624 18:28:09.788841  4178 layer_factory.hpp:76] Creating layer relu5
I0624 18:28:09.788849  4178 net.cpp:109] Creating Layer relu5
I0624 18:28:09.788854  4178 net.cpp:457] relu5 <- conv5
I0624 18:28:09.788857  4178 net.cpp:400] relu5 -> conv5 (in-place)
I0624 18:28:09.788863  4178 net.cpp:153] Setting up relu5
I0624 18:28:09.788866  4178 net.cpp:160] Top shape: 100 256 13 13 (4326400)
I0624 18:28:09.788867  4178 net.cpp:168] Memory required for data: 818008000
I0624 18:28:09.788869  4178 layer_factory.hpp:76] Creating layer pool5
I0624 18:28:09.788873  4178 net.cpp:109] Creating Layer pool5
I0624 18:28:09.788874  4178 net.cpp:457] pool5 <- conv5
I0624 18:28:09.788877  4178 net.cpp:414] pool5 -> pool5
I0624 18:28:09.788902  4178 net.cpp:153] Setting up pool5
I0624 18:28:09.788903  4178 net.cpp:160] Top shape: 100 256 6 6 (921600)
I0624 18:28:09.788905  4178 net.cpp:168] Memory required for data: 821694400
I0624 18:28:09.788908  4178 layer_factory.hpp:76] Creating layer fc6
I0624 18:28:09.788913  4178 net.cpp:109] Creating Layer fc6
I0624 18:28:09.788914  4178 net.cpp:457] fc6 <- pool5
I0624 18:28:09.788918  4178 net.cpp:414] fc6 -> fc6
I0624 18:28:10.498888  4178 net.cpp:153] Setting up fc6
I0624 18:28:10.498905  4178 net.cpp:160] Top shape: 100 4096 (409600)
I0624 18:28:10.498908  4178 net.cpp:168] Memory required for data: 823332800
I0624 18:28:10.498914  4178 layer_factory.hpp:76] Creating layer relu6
I0624 18:28:10.498919  4178 net.cpp:109] Creating Layer relu6
I0624 18:28:10.498922  4178 net.cpp:457] relu6 <- fc6
I0624 18:28:10.498926  4178 net.cpp:400] relu6 -> fc6 (in-place)
I0624 18:28:10.498932  4178 net.cpp:153] Setting up relu6
I0624 18:28:10.498935  4178 net.cpp:160] Top shape: 100 4096 (409600)
I0624 18:28:10.498936  4178 net.cpp:168] Memory required for data: 824971200
I0624 18:28:10.498939  4178 layer_factory.hpp:76] Creating layer drop6
I0624 18:28:10.498950  4178 net.cpp:109] Creating Layer drop6
I0624 18:28:10.498950  4178 net.cpp:457] drop6 <- fc6
I0624 18:28:10.498953  4178 net.cpp:400] drop6 -> fc6 (in-place)
I0624 18:28:10.498968  4178 net.cpp:153] Setting up drop6
I0624 18:28:10.498970  4178 net.cpp:160] Top shape: 100 4096 (409600)
I0624 18:28:10.498972  4178 net.cpp:168] Memory required for data: 826609600
I0624 18:28:10.498975  4178 layer_factory.hpp:76] Creating layer fc7
I0624 18:28:10.498978  4178 net.cpp:109] Creating Layer fc7
I0624 18:28:10.498980  4178 net.cpp:457] fc7 <- fc6
I0624 18:28:10.498983  4178 net.cpp:414] fc7 -> fc7
I0624 18:28:10.801583  4178 net.cpp:153] Setting up fc7
I0624 18:28:10.801601  4178 net.cpp:160] Top shape: 100 4096 (409600)
I0624 18:28:10.801604  4178 net.cpp:168] Memory required for data: 828248000
I0624 18:28:10.801609  4178 layer_factory.hpp:76] Creating layer relu7
I0624 18:28:10.801616  4178 net.cpp:109] Creating Layer relu7
I0624 18:28:10.801620  4178 net.cpp:457] relu7 <- fc7
I0624 18:28:10.801623  4178 net.cpp:400] relu7 -> fc7 (in-place)
I0624 18:28:10.801630  4178 net.cpp:153] Setting up relu7
I0624 18:28:10.801632  4178 net.cpp:160] Top shape: 100 4096 (409600)
I0624 18:28:10.801635  4178 net.cpp:168] Memory required for data: 829886400
I0624 18:28:10.801636  4178 layer_factory.hpp:76] Creating layer drop7
I0624 18:28:10.801640  4178 net.cpp:109] Creating Layer drop7
I0624 18:28:10.801642  4178 net.cpp:457] drop7 <- fc7
I0624 18:28:10.801645  4178 net.cpp:400] drop7 -> fc7 (in-place)
I0624 18:28:10.801661  4178 net.cpp:153] Setting up drop7
I0624 18:28:10.801664  4178 net.cpp:160] Top shape: 100 4096 (409600)
I0624 18:28:10.801666  4178 net.cpp:168] Memory required for data: 831524800
I0624 18:28:10.801667  4178 layer_factory.hpp:76] Creating layer fc8_species
I0624 18:28:10.801672  4178 net.cpp:109] Creating Layer fc8_species
I0624 18:28:10.801674  4178 net.cpp:457] fc8_species <- fc7
I0624 18:28:10.801695  4178 net.cpp:414] fc8_species -> fc8_species
I0624 18:28:10.873569  4178 net.cpp:153] Setting up fc8_species
I0624 18:28:10.873585  4178 net.cpp:160] Top shape: 100 967 (96700)
I0624 18:28:10.873589  4178 net.cpp:168] Memory required for data: 831911600
I0624 18:28:10.873594  4178 layer_factory.hpp:76] Creating layer loss
I0624 18:28:10.873607  4178 net.cpp:109] Creating Layer loss
I0624 18:28:10.873610  4178 net.cpp:457] loss <- fc8_species
I0624 18:28:10.873613  4178 net.cpp:457] loss <- label
I0624 18:28:10.873617  4178 net.cpp:414] loss -> loss
I0624 18:28:10.873623  4178 layer_factory.hpp:76] Creating layer loss
…
I0624 18:28:10.874511  4178 solver.cpp:187] Creating test net (#0) specified by net file: train_val.prototxt
I0624 18:28:10.874546  4178 net.cpp:325] The NetState phase (1) differed from the phase (0) specified by a rule in layer data
I0624 18:28:10.874660  4178 net.cpp:52] Initializing net from parameters:
state {
phase: TEST
}
layer {
name: "data"
type: "Data"
top: "data"
top: "label"
include {
phase: TEST
}
transform_param {
crop_size: 227
mean_file: "/usr/share/digits/digits/jobs/20160624-120053-bb9a/mean.binaryproto"
}
data_param {
source: "/usr/share/digits/digits/jobs/20160624-120053-bb9a/val_db"
batch_size: 100
backend: LMDB
}
}
layer {
name: "conv1"
type: "Convolution"
bottom: "data"
top: "conv1"
param {
lr_mult: 1
decay_mult: 1
}
param {
lr_mult: 2
decay_mult: 0
}
convolution_param {
num_output: 96
kernel_size: 11
stride: 4
weight_filler {
type: "gaussian"
std: 0.01
}
bias_filler {
type: "constant"
value: 0
}
}
}
layer {
name: "relu1"
type: "ReLU"
bottom: "conv1"
top: "conv1"
}
layer {
name: "norm1"
type: "LRN"
bottom: "conv1"
top: "norm1"
lrn_param {
local_size: 5
alpha: 0.0001
beta: 0.75
}
}
layer {
name: "pool1"
type: "Pooling"
bottom: "norm1"
top: "pool1"
pooling_param {
pool: MAX
kernel_size: 3
stride: 2
}
}
layer {
name: "conv2"
type: "Convolution"
bottom: "pool1"
top: "conv2"
param {
lr_mult: 1
decay_mult: 1
}
param {
lr_mult: 2
decay_mult: 0
}
convolution_param {
num_output: 256
pad: 2
kernel_size: 5
group: 2
weight_filler {
type: "gaussian"
std: 0.01
}
bias_filler {
type: "constant"
value: 0.1
}
}
}
layer {
name: "relu2"
type: "ReLU"
bottom: "conv2"
top: "conv2"
}
layer {
name: "norm2"
type: "LRN"
bottom: "conv2"
top: "norm2"
lrn_param {
local_size: 5
alpha: 0.0001
beta: 0.75
}
}
layer {
name: "pool2"
type: "Pooling"
bottom: "norm2"
top: "pool2"
pooling_param {
pool: MAX
kernel_size: 3
stride: 2
}
}
layer {
name: "conv3"
type: "Convolution"
bottom: "pool2"
top: "conv3"
param {
lr_mult: 1
decay_mult: 1
}
param {
lr_mult: 2
decay_mult: 0
}
convolution_param {
num_output: 384
pad: 1
kernel_size: 3
weight_filler {
type: "gaussian"
std: 0.01
}
bias_filler {
type: "constant"
value: 0
}
}
}
layer {
name: "relu3"
type: "ReLU"
bottom: "conv3"
top: "conv3"
}
layer {
name: "conv4"
type: "Convolution"
bottom: "conv3"
top: "conv4"
param {
lr_mult: 1
decay_mult: 1
}
param {
lr_mult: 2
decay_mult: 0
}
convolution_param {
num_output: 384
pad: 1
kernel_size: 3
group: 2
weight_filler {
type: "gaussian"
std: 0.01
}
bias_filler {
type: "constant"
value: 0.1
}
}
}
layer {
name: "relu4"
type: "ReLU"
bottom: "conv4"
top: "conv4"
}
layer {
name: "conv5"
type: "Convolution"
bottom: "conv4"
top: "conv5"
param {
lr_mult: 1
decay_mult: 1
}
param {
lr_mult: 2
decay_mult: 0
}
convolution_param {
num_output: 256
pad: 1
kernel_size: 3
group: 2
weight_filler {
type: "gaussian"
std: 0.01
}
bias_filler {
type: "constant"
value: 0.1
}
}
}
layer {
name: "relu5"
type: "ReLU"
bottom: "conv5"
top: "conv5"
}
layer {
name: "pool5"
type: "Pooling"
bottom: "conv5"
top: "pool5"
pooling_param {
pool: MAX
kernel_size: 3
stride: 2
}
}
layer {
name: "fc6"
type: "InnerProduct"
bottom: "pool5"
top: "fc6"
param {
lr_mult: 1
decay_mult: 1
}
param {
lr_mult: 2
decay_mult: 0
}
inner_product_param {
num_output: 4096
weight_filler {
type: "gaussian"
std: 0.005
}
bias_filler {
type: "constant"
value: 0.1
}
}
}
layer {
name: "relu6"
type: "ReLU"
bottom: "fc6"
top: "fc6"
}
layer {
name: "drop6"
type: "Dropout"
bottom: "fc6"
top: "fc6"
dropout_param {
dropout_ratio: 0.5
}
}
layer {
name: "fc7"
type: "InnerProduct"
bottom: "fc6"
top: "fc7"
param {
lr_mult: 1
decay_mult: 1
}
param {
lr_mult: 2
decay_mult: 0
}
inner_product_param {
num_output: 4096
weight_filler {
type: "gaussian"
std: 0.005
}
bias_filler {
type: "constant"
value: 0.1
}
}
}
layer {
name: "relu7"
type: "ReLU"
bottom: "fc7"
top: "fc7"
}
layer {
name: "drop7"
type: "Dropout"
bottom: "fc7"
top: "fc7"
dropout_param {
dropout_ratio: 0.5
}
}
layer {
name: "fc8_species"
type: "InnerProduct"
bottom: "fc7"
top: "fc8_species"
param {
lr_mult: 1
decay_mult: 1
}
param {
lr_mult: 2
decay_mult: 0
}
inner_product_param {
num_output: 967
weight_filler {
type: "gaussian"
std: 0.01
}
bias_filler {
type: "constant"
value: 0
}
}
}
layer {
name: "loss"
type: "SoftmaxWithLoss"
bottom: "fc8_species"
bottom: "label"
top: "loss"
}
layer {
name: "accuracy"
type: "Accuracy"
bottom: "fc8_species"
bottom: "label"
top: "accuracy"
include {
phase: TEST
}
}
I0624 18:28:10.874748  4178 layer_factory.hpp:76] Creating layer data
I0624 18:28:10.874820  4178 net.cpp:109] Creating Layer data
I0624 18:28:10.874825  4178 net.cpp:414] data -> data
I0624 18:28:10.874830  4178 net.cpp:414] data -> label
I0624 18:28:10.874833  4178 data_transformer.cpp:25] Loading mean file from: /usr/share/digits/digits/jobs/20160624-120053-bb9a/mean.binaryproto
I0624 18:28:10.877517  4192 db_lmdb.cpp:36] Opened lmdb /usr/share/digits/digits/jobs/20160624-120053-bb9a/val_db
I0624 18:28:10.881201  4178 data_layer.cpp:45] output data size: 100,3,227,227
I0624 18:28:10.943670  4178 net.cpp:153] Setting up data
I0624 18:28:10.943688  4178 net.cpp:160] Top shape: 100 3 227 227 (15458700)
I0624 18:28:10.943691  4178 net.cpp:160] Top shape: 100 (100)
I0624 18:28:10.943693  4178 net.cpp:168] Memory required for data: 61835200
I0624 18:28:10.943697  4178 layer_factory.hpp:76] Creating layer label_data_1_split
I0624 18:28:10.943713  4178 net.cpp:109] Creating Layer label_data_1_split
I0624 18:28:10.943717  4178 net.cpp:457] label_data_1_split <- label
I0624 18:28:10.943730  4178 net.cpp:414] label_data_1_split -> label_data_1_split_0
I0624 18:28:10.943735  4178 net.cpp:414] label_data_1_split -> label_data_1_split_1
I0624 18:28:10.943927  4178 net.cpp:153] Setting up label_data_1_split
I0624 18:28:10.943934  4178 net.cpp:160] Top shape: 100 (100)
I0624 18:28:10.943938  4178 net.cpp:160] Top shape: 100 (100)
I0624 18:28:10.943949  4178 net.cpp:168] Memory required for data: 61836000
I0624 18:28:10.943951  4178 layer_factory.hpp:76] Creating layer conv1
I0624 18:28:10.943958  4178 net.cpp:109] Creating Layer conv1
I0624 18:28:10.943960  4178 net.cpp:457] conv1 <- data
I0624 18:28:10.943964  4178 net.cpp:414] conv1 -> conv1
I0624 18:28:10.944809  4178 net.cpp:153] Setting up conv1
I0624 18:28:10.944814  4178 net.cpp:160] Top shape: 100 96 55 55 (29040000)
I0624 18:28:10.944816  4178 net.cpp:168] Memory required for data: 177996000
I0624 18:28:10.944823  4178 layer_factory.hpp:76] Creating layer relu1
I0624 18:28:10.944826  4178 net.cpp:109] Creating Layer relu1
I0624 18:28:10.944828  4178 net.cpp:457] relu1 <- conv1
I0624 18:28:10.944831  4178 net.cpp:400] relu1 -> conv1 (in-place)
I0624 18:28:10.944835  4178 net.cpp:153] Setting up relu1
I0624 18:28:10.944839  4178 net.cpp:160] Top shape: 100 96 55 55 (29040000)
I0624 18:28:10.944839  4178 net.cpp:168] Memory required for data: 294156000
I0624 18:28:10.944841  4178 layer_factory.hpp:76] Creating layer norm1
I0624 18:28:10.944846  4178 net.cpp:109] Creating Layer norm1
I0624 18:28:10.944849  4178 net.cpp:457] norm1 <- conv1
I0624 18:28:10.944850  4178 net.cpp:414] norm1 -> norm1
I0624 18:28:10.944870  4178 net.cpp:153] Setting up norm1
I0624 18:28:10.944874  4178 net.cpp:160] Top shape: 100 96 55 55 (29040000)
I0624 18:28:10.944875  4178 net.cpp:168] Memory required for data: 410316000
I0624 18:28:10.944876  4178 layer_factory.hpp:76] Creating layer pool1
I0624 18:28:10.944880  4178 net.cpp:109] Creating Layer pool1
I0624 18:28:10.944882  4178 net.cpp:457] pool1 <- norm1
I0624 18:28:10.944885  4178 net.cpp:414] pool1 -> pool1
I0624 18:28:10.944901  4178 net.cpp:153] Setting up pool1
I0624 18:28:10.944905  4178 net.cpp:160] Top shape: 100 96 27 27 (6998400)
I0624 18:28:10.944906  4178 net.cpp:168] Memory required for data: 438309600
I0624 18:28:10.944907  4178 layer_factory.hpp:76] Creating layer conv2
I0624 18:28:10.944911  4178 net.cpp:109] Creating Layer conv2
I0624 18:28:10.944913  4178 net.cpp:457] conv2 <- pool1
I0624 18:28:10.944916  4178 net.cpp:414] conv2 -> conv2
I0624 18:28:10.952225  4178 net.cpp:153] Setting up conv2
I0624 18:28:10.952239  4178 net.cpp:160] Top shape: 100 256 27 27 (18662400)
I0624 18:28:10.952241  4178 net.cpp:168] Memory required for data: 512959200
I0624 18:28:10.952249  4178 layer_factory.hpp:76] Creating layer relu2
I0624 18:28:10.952255  4178 net.cpp:109] Creating Layer relu2
I0624 18:28:10.952256  4178 net.cpp:457] relu2 <- conv2
I0624 18:28:10.952260  4178 net.cpp:400] relu2 -> conv2 (in-place)
I0624 18:28:10.952276  4178 net.cpp:153] Setting up relu2
I0624 18:28:10.952280  4178 net.cpp:160] Top shape: 100 256 27 27 (18662400)
I0624 18:28:10.952281  4178 net.cpp:168] Memory required for data: 587608800
I0624 18:28:10.952282  4178 layer_factory.hpp:76] Creating layer norm2
I0624 18:28:10.952288  4178 net.cpp:109] Creating Layer norm2
I0624 18:28:10.952291  4178 net.cpp:457] norm2 <- conv2
I0624 18:28:10.952293  4178 net.cpp:414] norm2 -> norm2
I0624 18:28:10.952316  4178 net.cpp:153] Setting up norm2
I0624 18:28:10.952319  4178 net.cpp:160] Top shape: 100 256 27 27 (18662400)
I0624 18:28:10.952321  4178 net.cpp:168] Memory required for data: 662258400
I0624 18:28:10.952322  4178 layer_factory.hpp:76] Creating layer pool2
I0624 18:28:10.952327  4178 net.cpp:109] Creating Layer pool2
I0624 18:28:10.952328  4178 net.cpp:457] pool2 <- norm2
I0624 18:28:10.952330  4178 net.cpp:414] pool2 -> pool2
I0624 18:28:10.952348  4178 net.cpp:153] Setting up pool2
I0624 18:28:10.952350  4178 net.cpp:160] Top shape: 100 256 13 13 (4326400)
I0624 18:28:10.952353  4178 net.cpp:168] Memory required for data: 679564000
I0624 18:28:10.952354  4178 layer_factory.hpp:76] Creating layer conv3
I0624 18:28:10.952360  4178 net.cpp:109] Creating Layer conv3
I0624 18:28:10.952361  4178 net.cpp:457] conv3 <- pool2
I0624 18:28:10.952364  4178 net.cpp:414] conv3 -> conv3
I0624 18:28:10.969820  4178 net.cpp:153] Setting up conv3
I0624 18:28:10.969838  4178 net.cpp:160] Top shape: 100 384 13 13 (6489600)
I0624 18:28:10.969841  4178 net.cpp:168] Memory required for data: 705522400
I0624 18:28:10.969848  4178 layer_factory.hpp:76] Creating layer relu3
I0624 18:28:10.969856  4178 net.cpp:109] Creating Layer relu3
I0624 18:28:10.969858  4178 net.cpp:457] relu3 <- conv3
I0624 18:28:10.969862  4178 net.cpp:400] relu3 -> conv3 (in-place)
I0624 18:28:10.969867  4178 net.cpp:153] Setting up relu3
I0624 18:28:10.969871  4178 net.cpp:160] Top shape: 100 384 13 13 (6489600)
I0624 18:28:10.969871  4178 net.cpp:168] Memory required for data: 731480800
I0624 18:28:10.969873  4178 layer_factory.hpp:76] Creating layer conv4
I0624 18:28:10.969878  4178 net.cpp:109] Creating Layer conv4
I0624 18:28:10.969880  4178 net.cpp:457] conv4 <- conv3
I0624 18:28:10.969883  4178 net.cpp:414] conv4 -> conv4
I0624 18:28:10.983063  4178 net.cpp:153] Setting up conv4
I0624 18:28:10.983081  4178 net.cpp:160] Top shape: 100 384 13 13 (6489600)
I0624 18:28:10.983083  4178 net.cpp:168] Memory required for data: 757439200
I0624 18:28:10.983088  4178 layer_factory.hpp:76] Creating layer relu4
I0624 18:28:10.983093  4178 net.cpp:109] Creating Layer relu4
I0624 18:28:10.983095  4178 net.cpp:457] relu4 <- conv4
I0624 18:28:10.983099  4178 net.cpp:400] relu4 -> conv4 (in-place)
I0624 18:28:10.983103  4178 net.cpp:153] Setting up relu4
I0624 18:28:10.983105  4178 net.cpp:160] Top shape: 100 384 13 13 (6489600)
I0624 18:28:10.983117  4178 net.cpp:168] Memory required for data: 783397600
I0624 18:28:10.983119  4178 layer_factory.hpp:76] Creating layer conv5
I0624 18:28:10.983124  4178 net.cpp:109] Creating Layer conv5
I0624 18:28:10.983126  4178 net.cpp:457] conv5 <- conv4
I0624 18:28:10.983129  4178 net.cpp:414] conv5 -> conv5
I0624 18:28:10.992000  4178 net.cpp:153] Setting up conv5
I0624 18:28:10.992017  4178 net.cpp:160] Top shape: 100 256 13 13 (4326400)
I0624 18:28:10.992019  4178 net.cpp:168] Memory required for data: 800703200
I0624 18:28:10.992027  4178 layer_factory.hpp:76] Creating layer relu5
I0624 18:28:10.992033  4178 net.cpp:109] Creating Layer relu5
I0624 18:28:10.992035  4178 net.cpp:457] relu5 <- conv5
I0624 18:28:10.992039  4178 net.cpp:400] relu5 -> conv5 (in-place)
I0624 18:28:10.992045  4178 net.cpp:153] Setting up relu5
I0624 18:28:10.992048  4178 net.cpp:160] Top shape: 100 256 13 13 (4326400)
I0624 18:28:10.992049  4178 net.cpp:168] Memory required for data: 818008800
I0624 18:28:10.992051  4178 layer_factory.hpp:76] Creating layer pool5
I0624 18:28:10.992056  4178 net.cpp:109] Creating Layer pool5
I0624 18:28:10.992058  4178 net.cpp:457] pool5 <- conv5
I0624 18:28:10.992075  4178 net.cpp:414] pool5 -> pool5
I0624 18:28:10.992101  4178 net.cpp:153] Setting up pool5
I0624 18:28:10.992105  4178 net.cpp:160] Top shape: 100 256 6 6 (921600)
I0624 18:28:10.992105  4178 net.cpp:168] Memory required for data: 821695200
I0624 18:28:10.992107  4178 layer_factory.hpp:76] Creating layer fc6
I0624 18:28:10.992112  4178 net.cpp:109] Creating Layer fc6
I0624 18:28:10.992113  4178 net.cpp:457] fc6 <- pool5
I0624 18:28:10.992116  4178 net.cpp:414] fc6 -> fc6
I0624 18:28:11.685223  4178 net.cpp:153] Setting up fc6
I0624 18:28:11.685240  4178 net.cpp:160] Top shape: 100 4096 (409600)
I0624 18:28:11.685241  4178 net.cpp:168] Memory required for data: 823333600
I0624 18:28:11.685246  4178 layer_factory.hpp:76] Creating layer relu6
I0624 18:28:11.685252  4178 net.cpp:109] Creating Layer relu6
I0624 18:28:11.685255  4178 net.cpp:457] relu6 <- fc6
I0624 18:28:11.685258  4178 net.cpp:400] relu6 -> fc6 (in-place)
I0624 18:28:11.685264  4178 net.cpp:153] Setting up relu6
I0624 18:28:11.685266  4178 net.cpp:160] Top shape: 100 4096 (409600)
I0624 18:28:11.685268  4178 net.cpp:168] Memory required for data: 824972000
I0624 18:28:11.685271  4178 layer_factory.hpp:76] Creating layer drop6
I0624 18:28:11.685273  4178 net.cpp:109] Creating Layer drop6
I0624 18:28:11.685276  4178 net.cpp:457] drop6 <- fc6
I0624 18:28:11.685277  4178 net.cpp:400] drop6 -> fc6 (in-place)
I0624 18:28:11.685292  4178 net.cpp:153] Setting up drop6
I0624 18:28:11.685295  4178 net.cpp:160] Top shape: 100 4096 (409600)
I0624 18:28:11.685297  4178 net.cpp:168] Memory required for data: 826610400
I0624 18:28:11.685298  4178 layer_factory.hpp:76] Creating layer fc7
I0624 18:28:11.685303  4178 net.cpp:109] Creating Layer fc7
I0624 18:28:11.685305  4178 net.cpp:457] fc7 <- fc6
I0624 18:28:11.685307  4178 net.cpp:414] fc7 -> fc7
I0624 18:28:11.987279  4178 net.cpp:153] Setting up fc7
I0624 18:28:11.987298  4178 net.cpp:160] Top shape: 100 4096 (409600)
I0624 18:28:11.987300  4178 net.cpp:168] Memory required for data: 828248800
I0624 18:28:11.987305  4178 layer_factory.hpp:76] Creating layer relu7
I0624 18:28:11.987311  4178 net.cpp:109] Creating Layer relu7
I0624 18:28:11.987314  4178 net.cpp:457] relu7 <- fc7
I0624 18:28:11.987318  4178 net.cpp:400] relu7 -> fc7 (in-place)
I0624 18:28:11.987324  4178 net.cpp:153] Setting up relu7
I0624 18:28:11.987326  4178 net.cpp:160] Top shape: 100 4096 (409600)
I0624 18:28:11.987329  4178 net.cpp:168] Memory required for data: 829887200
I0624 18:28:11.987330  4178 layer_factory.hpp:76] Creating layer drop7
I0624 18:28:11.987334  4178 net.cpp:109] Creating Layer drop7
I0624 18:28:11.987335  4178 net.cpp:457] drop7 <- fc7
I0624 18:28:11.987339  4178 net.cpp:400] drop7 -> fc7 (in-place)
I0624 18:28:11.987354  4178 net.cpp:153] Setting up drop7
I0624 18:28:11.987356  4178 net.cpp:160] Top shape: 100 4096 (409600)
I0624 18:28:11.987359  4178 net.cpp:168] Memory required for data: 831525600
I0624 18:28:11.987360  4178 layer_factory.hpp:76] Creating layer fc8_species
I0624 18:28:11.987365  4178 net.cpp:109] Creating Layer fc8_species
I0624 18:28:11.987365  4178 net.cpp:457] fc8_species <- fc7
I0624 18:28:11.987368  4178 net.cpp:414] fc8_species -> fc8_species
I0624 18:28:12.058836  4178 net.cpp:153] Setting up fc8_species
I0624 18:28:12.058854  4178 net.cpp:160] Top shape: 100 967 (96700)
I0624 18:28:12.058856  4178 net.cpp:168] Memory required for data: 831912400
I0624 18:28:12.058861  4178 layer_factory.hpp:76] Creating layer fc8_species_fc8_species_0_split
I0624 18:28:12.058867  4178 net.cpp:109] Creating Layer fc8_species_fc8_species_0_split
I0624 18:28:12.058871  4178 net.cpp:457] fc8_species_fc8_species_0_split <- fc8_species
I0624 18:28:12.058874  4178 net.cpp:414] fc8_species_fc8_species_0_split -> fc8_species_fc8_species_0_split_0
I0624 18:28:12.058879  4178 net.cpp:414] fc8_species_fc8_species_0_split -> fc8_species_fc8_species_0_split_1
I0624 18:28:12.058902  4178 net.cpp:153] Setting up fc8_species_fc8_species_0_split
I0624 18:28:12.058904  4178 net.cpp:160] Top shape: 100 967 (96700)
I0624 18:28:12.058923  4178 net.cpp:160] Top shape: 100 967 (96700)
I0624 18:28:12.058924  4178 net.cpp:168] Memory required for data: 832686000
I0624 18:28:12.058925  4178 layer_factory.hpp:76] Creating layer loss
I0624 18:28:12.058929  4178 net.cpp:109] Creating Layer loss
I0624 18:28:12.058931  4178 net.cpp:457] loss <- fc8_species_fc8_species_0_split_0
I0624 18:28:12.058933  4178 net.cpp:457] loss <- label_data_1_split_0
I0624 18:28:12.058936  4178 net.cpp:414] loss -> loss
…
