…
state {
phase: TRAIN
}
layer {
name: "data"
type: "Data"
top: "data"
include {
phase: TRAIN
}
transform_param {
mean_file: "/home/ffw/scratch/plantClef/scatnet_output/train/a4_m2_s1s2s4s8_f2/lmdb_mean_coeff.binaryproto"
}
data_param {
source: "/home/ffw/scratch/plantClef/scatnet_output/train/a4_m2_s1s2s4s8_f2/lmdb_data"
batch_size: 200
backend: LMDB
}
}
layer {
name: "label"
type: "Data"
top: "label"
include {
phase: TRAIN
}
data_param {
source: "/home/ffw/scratch/plantClef/scatnet_output/train/a4_m2_s1s2s4s8_f2/lmdb_labels"
batch_size: 200
backend: LMDB
}
}
layer {
name: "conv5"
type: "Convolution"
bottom: "data"
top: "conv5"
param {
lr_mult: 1
decay_mult: 1
}
param {
lr_mult: 2
decay_mult: 0
}
convolution_param {
num_output: 256
pad: 1
kernel_size: 3
group: 1
weight_filler {
type: "gaussian"
std: 0.01
}
bias_filler {
type: "constant"
value: 0.1
}
}
}
layer {
name: "relu5"
type: "ReLU"
bottom: "conv5"
top: "conv5"
}
layer {
name: "pool5"
type: "Pooling"
bottom: "conv5"
top: "pool5"
pooling_param {
pool: MAX
kernel_size: 3
stride: 2
}
}
layer {
name: "fc6"
type: "InnerProduct"
bottom: "pool5"
top: "fc6"
param {
lr_mult: 1
decay_mult: 1
}
param {
lr_mult: 2
decay_mult: 0
}
inner_product_param {
num_output: 4096
weight_filler {
type: "gaussian"
std: 0.005
}
bias_filler {
type: "constant"
value: 0.1
}
}
}
layer {
name: "relu6"
type: "ReLU"
bottom: "fc6"
top: "fc6"
}
layer {
name: "drop6"
type: "Dropout"
bottom: "fc6"
top: "fc6"
dropout_param {
dropout_ratio: 0.5
}
}
layer {
name: "fc7"
type: "InnerProduct"
bottom: "fc6"
top: "fc7"
param {
lr_mult: 1
decay_mult: 1
}
param {
lr_mult: 2
decay_mult: 0
}
inner_product_param {
num_output: 4096
weight_filler {
type: "gaussian"
std: 0.005
}
bias_filler {
type: "constant"
value: 0.1
}
}
}
layer {
name: "relu7"
type: "ReLU"
bottom: "fc7"
top: "fc7"
}
layer {
name: "drop7"
type: "Dropout"
bottom: "fc7"
top: "fc7"
dropout_param {
dropout_ratio: 0.5
}
}
layer {
name: "fc8_species"
type: "InnerProduct"
bottom: "fc7"
top: "fc8_species"
param {
lr_mult: 1
decay_mult: 1
}
param {
lr_mult: 2
decay_mult: 0
}
inner_product_param {
num_output: 967
weight_filler {
type: "gaussian"
std: 0.005
}
bias_filler {
type: "constant"
value: 0.1
}
}
}
layer {
name: "loss"
type: "SoftmaxWithLoss"
bottom: "fc8_species"
bottom: "label"
top: "loss"
}
I0704 15:47:23.986623 25429 layer_factory.hpp:76] Creating layer data
I0704 15:47:23.988865 25429 net.cpp:109] Creating Layer data
I0704 15:47:23.988873 25429 net.cpp:414] data -> data
I0704 15:47:23.989228 25429 data_transformer.cpp:25] Loading mean file from: /home/ffw/scratch/plantClef/scatnet_output/train/a4_m2_s1s2s4s8_f2/lmdb_mean_coeff.binaryproto
I0704 15:47:23.989694 25441 db_lmdb.cpp:36] Opened lmdb /home/ffw/scratch/plantClef/scatnet_output/train/a4_m2_s1s2s4s8_f2/lmdb_data
I0704 15:47:23.990849 25429 data_layer.cpp:45] output data size: 200,339,19,19
I0704 15:47:24.095521 25429 net.cpp:153] Setting up data
I0704 15:47:24.095543 25429 net.cpp:160] Top shape: 200 339 19 19 (24475800)
I0704 15:47:24.095546 25429 net.cpp:168] Memory required for data: 97903200
I0704 15:47:24.095552 25429 layer_factory.hpp:76] Creating layer label
I0704 15:47:24.095753 25429 net.cpp:109] Creating Layer label
I0704 15:47:24.095759 25429 net.cpp:414] label -> label
I0704 15:47:24.104389 25443 db_lmdb.cpp:36] Opened lmdb /home/ffw/scratch/plantClef/scatnet_output/train/a4_m2_s1s2s4s8_f2/lmdb_labels
I0704 15:47:24.104470 25429 data_layer.cpp:45] output data size: 200,1,1,1
I0704 15:47:24.104555 25429 net.cpp:153] Setting up label
I0704 15:47:24.104573 25429 net.cpp:160] Top shape: 200 1 1 1 (200)
I0704 15:47:24.104574 25429 net.cpp:168] Memory required for data: 97904000
I0704 15:47:24.104578 25429 layer_factory.hpp:76] Creating layer conv5
I0704 15:47:24.104586 25429 net.cpp:109] Creating Layer conv5
I0704 15:47:24.104588 25429 net.cpp:457] conv5 <- data
I0704 15:47:24.104596 25429 net.cpp:414] conv5 -> conv5
I0704 15:47:24.121659 25429 net.cpp:153] Setting up conv5
I0704 15:47:24.121680 25429 net.cpp:160] Top shape: 200 256 19 19 (18483200)
I0704 15:47:24.121682 25429 net.cpp:168] Memory required for data: 171836800
I0704 15:47:24.121693 25429 layer_factory.hpp:76] Creating layer relu5
I0704 15:47:24.121701 25429 net.cpp:109] Creating Layer relu5
I0704 15:47:24.121703 25429 net.cpp:457] relu5 <- conv5
I0704 15:47:24.121708 25429 net.cpp:400] relu5 -> conv5 (in-place)
I0704 15:47:24.121717 25429 net.cpp:153] Setting up relu5
I0704 15:47:24.121721 25429 net.cpp:160] Top shape: 200 256 19 19 (18483200)
I0704 15:47:24.121722 25429 net.cpp:168] Memory required for data: 245769600
I0704 15:47:24.121724 25429 layer_factory.hpp:76] Creating layer pool5
I0704 15:47:24.121729 25429 net.cpp:109] Creating Layer pool5
I0704 15:47:24.121731 25429 net.cpp:457] pool5 <- conv5
I0704 15:47:24.121734 25429 net.cpp:414] pool5 -> pool5
I0704 15:47:24.121772 25429 net.cpp:153] Setting up pool5
I0704 15:47:24.121774 25429 net.cpp:160] Top shape: 200 256 9 9 (4147200)
I0704 15:47:24.121776 25429 net.cpp:168] Memory required for data: 262358400
I0704 15:47:24.121778 25429 layer_factory.hpp:76] Creating layer fc6
I0704 15:47:24.121783 25429 net.cpp:109] Creating Layer fc6
I0704 15:47:24.121785 25429 net.cpp:457] fc6 <- pool5
I0704 15:47:24.121788 25429 net.cpp:414] fc6 -> fc6
I0704 15:47:25.680892 25429 net.cpp:153] Setting up fc6
I0704 15:47:25.680912 25429 net.cpp:160] Top shape: 200 4096 (819200)
I0704 15:47:25.680914 25429 net.cpp:168] Memory required for data: 265635200
I0704 15:47:25.680923 25429 layer_factory.hpp:76] Creating layer relu6
I0704 15:47:25.680929 25429 net.cpp:109] Creating Layer relu6
I0704 15:47:25.680932 25429 net.cpp:457] relu6 <- fc6
I0704 15:47:25.680937 25429 net.cpp:400] relu6 -> fc6 (in-place)
I0704 15:47:25.680944 25429 net.cpp:153] Setting up relu6
I0704 15:47:25.680948 25429 net.cpp:160] Top shape: 200 4096 (819200)
I0704 15:47:25.680949 25429 net.cpp:168] Memory required for data: 268912000
I0704 15:47:25.680951 25429 layer_factory.hpp:76] Creating layer drop6
I0704 15:47:25.680959 25429 net.cpp:109] Creating Layer drop6
I0704 15:47:25.680961 25429 net.cpp:457] drop6 <- fc6
I0704 15:47:25.680964 25429 net.cpp:400] drop6 -> fc6 (in-place)
I0704 15:47:25.680984 25429 net.cpp:153] Setting up drop6
I0704 15:47:25.680985 25429 net.cpp:160] Top shape: 200 4096 (819200)
I0704 15:47:25.680987 25429 net.cpp:168] Memory required for data: 272188800
I0704 15:47:25.680989 25429 layer_factory.hpp:76] Creating layer fc7
I0704 15:47:25.680995 25429 net.cpp:109] Creating Layer fc7
I0704 15:47:25.680997 25429 net.cpp:457] fc7 <- fc6
I0704 15:47:25.681000 25429 net.cpp:414] fc7 -> fc7
I0704 15:47:25.986512 25429 net.cpp:153] Setting up fc7
I0704 15:47:25.986531 25429 net.cpp:160] Top shape: 200 4096 (819200)
I0704 15:47:25.986534 25429 net.cpp:168] Memory required for data: 275465600
I0704 15:47:25.986559 25429 layer_factory.hpp:76] Creating layer relu7
I0704 15:47:25.986567 25429 net.cpp:109] Creating Layer relu7
I0704 15:47:25.986569 25429 net.cpp:457] relu7 <- fc7
I0704 15:47:25.986573 25429 net.cpp:400] relu7 -> fc7 (in-place)
I0704 15:47:25.986579 25429 net.cpp:153] Setting up relu7
I0704 15:47:25.986582 25429 net.cpp:160] Top shape: 200 4096 (819200)
I0704 15:47:25.986583 25429 net.cpp:168] Memory required for data: 278742400
I0704 15:47:25.986585 25429 layer_factory.hpp:76] Creating layer drop7
I0704 15:47:25.986589 25429 net.cpp:109] Creating Layer drop7
I0704 15:47:25.986591 25429 net.cpp:457] drop7 <- fc7
I0704 15:47:25.986593 25429 net.cpp:400] drop7 -> fc7 (in-place)
I0704 15:47:25.986608 25429 net.cpp:153] Setting up drop7
I0704 15:47:25.986611 25429 net.cpp:160] Top shape: 200 4096 (819200)
I0704 15:47:25.986613 25429 net.cpp:168] Memory required for data: 282019200
I0704 15:47:25.986614 25429 layer_factory.hpp:76] Creating layer fc8_species
I0704 15:47:25.986619 25429 net.cpp:109] Creating Layer fc8_species
I0704 15:47:25.986621 25429 net.cpp:457] fc8_species <- fc7
I0704 15:47:25.986624 25429 net.cpp:414] fc8_species -> fc8_species
I0704 15:47:26.059077 25429 net.cpp:153] Setting up fc8_species
I0704 15:47:26.059095 25429 net.cpp:160] Top shape: 200 967 (193400)
I0704 15:47:26.059098 25429 net.cpp:168] Memory required for data: 282792800
I0704 15:47:26.059103 25429 layer_factory.hpp:76] Creating layer loss
I0704 15:47:26.059109 25429 net.cpp:109] Creating Layer loss
I0704 15:47:26.059113 25429 net.cpp:457] loss <- fc8_species
I0704 15:47:26.059116 25429 net.cpp:457] loss <- label
I0704 15:47:26.059119 25429 net.cpp:414] loss -> loss
I0704 15:47:26.059125 25429 layer_factory.hpp:76] Creating layer loss
…
state {
phase: TEST
}
layer {
name: "data"
type: "Data"
top: "data"
include {
phase: TEST
}
transform_param {
mean_file: "/home/ffw/scratch/plantClef/scatnet_output/train/a4_m2_s1s2s4s8_f2/lmdb_mean_coeff.binaryproto"
}
data_param {
source: "/home/ffw/scratch/plantClef/scatnet_output/test/a4_m2_s1s2s4s8_f2/lmdb_data"
batch_size: 200
backend: LMDB
}
}
layer {
name: "label"
type: "Data"
top: "label"
include {
phase: TEST
}
data_param {
source: "/home/ffw/scratch/plantClef/scatnet_output/test/a4_m2_s1s2s4s8_f2/lmdb_labels"
batch_size: 200
backend: LMDB
}
}
layer {
name: "conv5"
type: "Convolution"
bottom: "data"
top: "conv5"
param {
lr_mult: 1
decay_mult: 1
}
param {
lr_mult: 2
decay_mult: 0
}
convolution_param {
num_output: 256
pad: 1
kernel_size: 3
group: 1
weight_filler {
type: "gaussian"
std: 0.01
}
bias_filler {
type: "constant"
value: 0.1
}
}
}
layer {
name: "relu5"
type: "ReLU"
bottom: "conv5"
top: "conv5"
}
layer {
name: "pool5"
type: "Pooling"
bottom: "conv5"
top: "pool5"
pooling_param {
pool: MAX
kernel_size: 3
stride: 2
}
}
layer {
name: "fc6"
type: "InnerProduct"
bottom: "pool5"
top: "fc6"
param {
lr_mult: 1
decay_mult: 1
}
param {
lr_mult: 2
decay_mult: 0
}
inner_product_param {
num_output: 4096
weight_filler {
type: "gaussian"
std: 0.005
}
bias_filler {
type: "constant"
value: 0.1
}
}
}
layer {
name: "relu6"
type: "ReLU"
bottom: "fc6"
top: "fc6"
}
layer {
name: "drop6"
type: "Dropout"
bottom: "fc6"
top: "fc6"
dropout_param {
dropout_ratio: 0.5
}
}
layer {
name: "fc7"
type: "InnerProduct"
bottom: "fc6"
top: "fc7"
param {
lr_mult: 1
decay_mult: 1
}
param {
lr_mult: 2
decay_mult: 0
}
inner_product_param {
num_output: 4096
weight_filler {
type: "gaussian"
std: 0.005
}
bias_filler {
type: "constant"
value: 0.1
}
}
}
layer {
name: "relu7"
type: "ReLU"
bottom: "fc7"
top: "fc7"
}
layer {
name: "drop7"
type: "Dropout"
bottom: "fc7"
top: "fc7"
dropout_param {
dropout_ratio: 0.5
}
}
layer {
name: "fc8_species"
type: "InnerProduct"
bottom: "fc7"
top: "fc8_species"
param {
lr_mult: 1
decay_mult: 1
}
param {
lr_mult: 2
decay_mult: 0
}
inner_product_param {
num_output: 967
weight_filler {
type: "gaussian"
std: 0.005
}
bias_filler {
type: "constant"
value: 0.1
}
}
}
layer {
name: "loss"
type: "SoftmaxWithLoss"
bottom: "fc8_species"
bottom: "label"
top: "loss"
}
layer {
name: "accuracy"
type: "Accuracy"
bottom: "fc8_species"
bottom: "label"
top: "accuracy"
include {
phase: TEST
}
}
I0704 15:47:26.060101 25429 layer_factory.hpp:76] Creating layer data
I0704 15:47:26.060207 25429 net.cpp:109] Creating Layer data
I0704 15:47:26.060212 25429 net.cpp:414] data -> data
I0704 15:47:26.060217 25429 data_transformer.cpp:25] Loading mean file from: /home/ffw/scratch/plantClef/scatnet_output/train/a4_m2_s1s2s4s8_f2/lmdb_mean_coeff.binaryproto
I0704 15:47:26.061141 25445 db_lmdb.cpp:36] Opened lmdb /home/ffw/scratch/plantClef/scatnet_output/test/a4_m2_s1s2s4s8_f2/lmdb_data
I0704 15:47:26.061277 25429 data_layer.cpp:45] output data size: 200,339,19,19
I0704 15:47:26.166961 25429 net.cpp:153] Setting up data
I0704 15:47:26.166980 25429 net.cpp:160] Top shape: 200 339 19 19 (24475800)
I0704 15:47:26.166982 25429 net.cpp:168] Memory required for data: 97903200
I0704 15:47:26.166986 25429 layer_factory.hpp:76] Creating layer label
I0704 15:47:26.167075 25429 net.cpp:109] Creating Layer label
I0704 15:47:26.167090 25429 net.cpp:414] label -> label
I0704 15:47:26.176040 25447 db_lmdb.cpp:36] Opened lmdb /home/ffw/scratch/plantClef/scatnet_output/test/a4_m2_s1s2s4s8_f2/lmdb_labels
I0704 15:47:26.176115 25429 data_layer.cpp:45] output data size: 200,1,1,1
I0704 15:47:26.176205 25429 net.cpp:153] Setting up label
I0704 15:47:26.176213 25429 net.cpp:160] Top shape: 200 1 1 1 (200)
I0704 15:47:26.176214 25429 net.cpp:168] Memory required for data: 97904000
I0704 15:47:26.176216 25429 layer_factory.hpp:76] Creating layer label_label_0_split
I0704 15:47:26.176223 25429 net.cpp:109] Creating Layer label_label_0_split
I0704 15:47:26.176224 25429 net.cpp:457] label_label_0_split <- label
I0704 15:47:26.176242 25429 net.cpp:414] label_label_0_split -> label_label_0_split_0
I0704 15:47:26.176246 25429 net.cpp:414] label_label_0_split -> label_label_0_split_1
I0704 15:47:26.176281 25429 net.cpp:153] Setting up label_label_0_split
I0704 15:47:26.176286 25429 net.cpp:160] Top shape: 200 1 1 1 (200)
I0704 15:47:26.176288 25429 net.cpp:160] Top shape: 200 1 1 1 (200)
I0704 15:47:26.176290 25429 net.cpp:168] Memory required for data: 97905600
I0704 15:47:26.176292 25429 layer_factory.hpp:76] Creating layer conv5
I0704 15:47:26.176298 25429 net.cpp:109] Creating Layer conv5
I0704 15:47:26.176301 25429 net.cpp:457] conv5 <- data
I0704 15:47:26.176303 25429 net.cpp:414] conv5 -> conv5
I0704 15:47:26.190923 25429 net.cpp:153] Setting up conv5
I0704 15:47:26.190946 25429 net.cpp:160] Top shape: 200 256 19 19 (18483200)
I0704 15:47:26.190948 25429 net.cpp:168] Memory required for data: 171838400
I0704 15:47:26.190956 25429 layer_factory.hpp:76] Creating layer relu5
I0704 15:47:26.190964 25429 net.cpp:109] Creating Layer relu5
I0704 15:47:26.190966 25429 net.cpp:457] relu5 <- conv5
I0704 15:47:26.190970 25429 net.cpp:400] relu5 -> conv5 (in-place)
I0704 15:47:26.190975 25429 net.cpp:153] Setting up relu5
I0704 15:47:26.190979 25429 net.cpp:160] Top shape: 200 256 19 19 (18483200)
I0704 15:47:26.190980 25429 net.cpp:168] Memory required for data: 245771200
I0704 15:47:26.190982 25429 layer_factory.hpp:76] Creating layer pool5
I0704 15:47:26.190986 25429 net.cpp:109] Creating Layer pool5
I0704 15:47:26.190989 25429 net.cpp:457] pool5 <- conv5
I0704 15:47:26.190990 25429 net.cpp:414] pool5 -> pool5
I0704 15:47:26.191011 25429 net.cpp:153] Setting up pool5
I0704 15:47:26.191015 25429 net.cpp:160] Top shape: 200 256 9 9 (4147200)
I0704 15:47:26.191016 25429 net.cpp:168] Memory required for data: 262360000
I0704 15:47:26.191018 25429 layer_factory.hpp:76] Creating layer fc6
I0704 15:47:26.191022 25429 net.cpp:109] Creating Layer fc6
I0704 15:47:26.191025 25429 net.cpp:457] fc6 <- pool5
I0704 15:47:26.191027 25429 net.cpp:414] fc6 -> fc6
I0704 15:47:27.737752 25429 net.cpp:153] Setting up fc6
I0704 15:47:27.737771 25429 net.cpp:160] Top shape: 200 4096 (819200)
I0704 15:47:27.737774 25429 net.cpp:168] Memory required for data: 265636800
I0704 15:47:27.737783 25429 layer_factory.hpp:76] Creating layer relu6
I0704 15:47:27.737790 25429 net.cpp:109] Creating Layer relu6
I0704 15:47:27.737793 25429 net.cpp:457] relu6 <- fc6
I0704 15:47:27.737797 25429 net.cpp:400] relu6 -> fc6 (in-place)
I0704 15:47:27.737804 25429 net.cpp:153] Setting up relu6
I0704 15:47:27.737807 25429 net.cpp:160] Top shape: 200 4096 (819200)
I0704 15:47:27.737809 25429 net.cpp:168] Memory required for data: 268913600
I0704 15:47:27.737812 25429 layer_factory.hpp:76] Creating layer drop6
I0704 15:47:27.737817 25429 net.cpp:109] Creating Layer drop6
I0704 15:47:27.737818 25429 net.cpp:457] drop6 <- fc6
I0704 15:47:27.737821 25429 net.cpp:400] drop6 -> fc6 (in-place)
I0704 15:47:27.737839 25429 net.cpp:153] Setting up drop6
I0704 15:47:27.737843 25429 net.cpp:160] Top shape: 200 4096 (819200)
I0704 15:47:27.737844 25429 net.cpp:168] Memory required for data: 272190400
I0704 15:47:27.737846 25429 layer_factory.hpp:76] Creating layer fc7
I0704 15:47:27.737850 25429 net.cpp:109] Creating Layer fc7
I0704 15:47:27.737853 25429 net.cpp:457] fc7 <- fc6
I0704 15:47:27.737855 25429 net.cpp:414] fc7 -> fc7
I0704 15:47:28.041499 25429 net.cpp:153] Setting up fc7
I0704 15:47:28.041518 25429 net.cpp:160] Top shape: 200 4096 (819200)
I0704 15:47:28.041522 25429 net.cpp:168] Memory required for data: 275467200
I0704 15:47:28.041532 25429 layer_factory.hpp:76] Creating layer relu7
I0704 15:47:28.041538 25429 net.cpp:109] Creating Layer relu7
I0704 15:47:28.041541 25429 net.cpp:457] relu7 <- fc7
I0704 15:47:28.041545 25429 net.cpp:400] relu7 -> fc7 (in-place)
I0704 15:47:28.041553 25429 net.cpp:153] Setting up relu7
I0704 15:47:28.041555 25429 net.cpp:160] Top shape: 200 4096 (819200)
I0704 15:47:28.041558 25429 net.cpp:168] Memory required for data: 278744000
I0704 15:47:28.041559 25429 layer_factory.hpp:76] Creating layer drop7
I0704 15:47:28.041582 25429 net.cpp:109] Creating Layer drop7
I0704 15:47:28.041585 25429 net.cpp:457] drop7 <- fc7
I0704 15:47:28.041589 25429 net.cpp:400] drop7 -> fc7 (in-place)
I0704 15:47:28.041609 25429 net.cpp:153] Setting up drop7
I0704 15:47:28.041611 25429 net.cpp:160] Top shape: 200 4096 (819200)
I0704 15:47:28.041613 25429 net.cpp:168] Memory required for data: 282020800
I0704 15:47:28.041615 25429 layer_factory.hpp:76] Creating layer fc8_species
I0704 15:47:28.041620 25429 net.cpp:109] Creating Layer fc8_species
I0704 15:47:28.041621 25429 net.cpp:457] fc8_species <- fc7
I0704 15:47:28.041625 25429 net.cpp:414] fc8_species -> fc8_species
I0704 15:47:28.113912 25429 net.cpp:153] Setting up fc8_species
I0704 15:47:28.113929 25429 net.cpp:160] Top shape: 200 967 (193400)
I0704 15:47:28.113932 25429 net.cpp:168] Memory required for data: 282794400
I0704 15:47:28.113939 25429 layer_factory.hpp:76] Creating layer fc8_species_fc8_species_0_split
I0704 15:47:28.113945 25429 net.cpp:109] Creating Layer fc8_species_fc8_species_0_split
I0704 15:47:28.113948 25429 net.cpp:457] fc8_species_fc8_species_0_split <- fc8_species
I0704 15:47:28.113952 25429 net.cpp:414] fc8_species_fc8_species_0_split -> fc8_species_fc8_species_0_split_0
I0704 15:47:28.113958 25429 net.cpp:414] fc8_species_fc8_species_0_split -> fc8_species_fc8_species_0_split_1
I0704 15:47:28.113986 25429 net.cpp:153] Setting up fc8_species_fc8_species_0_split
I0704 15:47:28.113988 25429 net.cpp:160] Top shape: 200 967 (193400)
I0704 15:47:28.113991 25429 net.cpp:160] Top shape: 200 967 (193400)
I0704 15:47:28.113992 25429 net.cpp:168] Memory required for data: 284341600
I0704 15:47:28.113994 25429 layer_factory.hpp:76] Creating layer loss
I0704 15:47:28.113998 25429 net.cpp:109] Creating Layer loss
I0704 15:47:28.114001 25429 net.cpp:457] loss <- fc8_species_fc8_species_0_split_0
I0704 15:47:28.114003 25429 net.cpp:457] loss <- label_label_0_split_0
I0704 15:47:28.114006 25429 net.cpp:414] loss -> loss
…
