…
I0624 12:52:24.051122 30083 net.cpp:325] The NetState phase (0) differed from the phase (1) specified by a rule in layer data
I0624 12:52:24.051133 30083 net.cpp:325] The NetState phase (0) differed from the phase (1) specified by a rule in layer accuracy
I0624 12:52:24.051223 30083 net.cpp:52] Initializing net from parameters:
state {
phase: TRAIN
}
layer {
name: "data"
type: "Data"
top: "data"
top: "label"
include {
phase: TRAIN
}
transform_param {
mirror: true
crop_size: 227
mean_file: "/usr/share/digits/digits/jobs/20160624-120053-bb9a/mean.binaryproto"
}
data_param {
source: "/usr/share/digits/digits/jobs/20160624-120053-bb9a/train_db"
batch_size: 100
backend: LMDB
}
}
layer {
name: "conv1"
type: "Convolution"
bottom: "data"
top: "conv1"
param {
lr_mult: 1
decay_mult: 1
}
param {
lr_mult: 2
decay_mult: 0
}
convolution_param {
num_output: 96
kernel_size: 11
stride: 4
weight_filler {
type: "gaussian"
std: 0.01
}
bias_filler {
type: "constant"
value: 0
}
}
}
layer {
name: "relu1"
type: "ReLU"
bottom: "conv1"
top: "conv1"
}
layer {
name: "norm1"
type: "LRN"
bottom: "conv1"
top: "norm1"
lrn_param {
local_size: 5
alpha: 0.0001
beta: 0.75
}
}
layer {
name: "pool1"
type: "Pooling"
bottom: "norm1"
top: "pool1"
pooling_param {
pool: MAX
kernel_size: 3
stride: 2
}
}
layer {
name: "conv2"
type: "Convolution"
bottom: "pool1"
top: "conv2"
param {
lr_mult: 1
decay_mult: 1
}
param {
lr_mult: 2
decay_mult: 0
}
convolution_param {
num_output: 256
pad: 2
kernel_size: 5
group: 2
weight_filler {
type: "gaussian"
std: 0.01
}
bias_filler {
type: "constant"
value: 0.1
}
}
}
layer {
name: "relu2"
type: "ReLU"
bottom: "conv2"
top: "conv2"
}
layer {
name: "norm2"
type: "LRN"
bottom: "conv2"
top: "norm2"
lrn_param {
local_size: 5
alpha: 0.0001
beta: 0.75
}
}
layer {
name: "pool2"
type: "Pooling"
bottom: "norm2"
top: "pool2"
pooling_param {
pool: MAX
kernel_size: 3
stride: 2
}
}
layer {
name: "conv3"
type: "Convolution"
bottom: "pool2"
top: "conv3"
param {
lr_mult: 1
decay_mult: 1
}
param {
lr_mult: 2
decay_mult: 0
}
convolution_param {
num_output: 384
pad: 1
kernel_size: 3
weight_filler {
type: "gaussian"
std: 0.01
}
bias_filler {
type: "constant"
value: 0
}
}
}
layer {
name: "relu3"
type: "ReLU"
bottom: "conv3"
top: "conv3"
}
layer {
name: "conv4"
type: "Convolution"
bottom: "conv3"
top: "conv4"
param {
lr_mult: 1
decay_mult: 1
}
param {
lr_mult: 2
decay_mult: 0
}
convolution_param {
num_output: 384
pad: 1
kernel_size: 3
group: 2
weight_filler {
type: "gaussian"
std: 0.01
}
bias_filler {
type: "constant"
value: 0.1
}
}
}
layer {
name: "relu4"
type: "ReLU"
bottom: "conv4"
top: "conv4"
}
layer {
name: "conv5"
type: "Convolution"
bottom: "conv4"
top: "conv5"
param {
lr_mult: 1
decay_mult: 1
}
param {
lr_mult: 2
decay_mult: 0
}
convolution_param {
num_output: 256
pad: 1
kernel_size: 3
group: 2
weight_filler {
type: "gaussian"
std: 0.01
}
bias_filler {
type: "constant"
value: 0.1
}
}
}
layer {
name: "relu5"
type: "ReLU"
bottom: "conv5"
top: "conv5"
}
layer {
name: "pool5"
type: "Pooling"
bottom: "conv5"
top: "pool5"
pooling_param {
pool: MAX
kernel_size: 3
stride: 2
}
}
layer {
name: "fc6"
type: "InnerProduct"
bottom: "pool5"
top: "fc6"
param {
lr_mult: 1
decay_mult: 1
}
param {
lr_mult: 2
decay_mult: 0
}
inner_product_param {
num_output: 4096
weight_filler {
type: "gaussian"
std: 0.005
}
bias_filler {
type: "constant"
value: 0.1
}
}
}
layer {
name: "relu6"
type: "ReLU"
bottom: "fc6"
top: "fc6"
}
layer {
name: "drop6"
type: "Dropout"
bottom: "fc6"
top: "fc6"
dropout_param {
dropout_ratio: 0.5
}
}
layer {
name: "fc7"
type: "InnerProduct"
bottom: "fc6"
top: "fc7"
param {
lr_mult: 1
decay_mult: 1
}
param {
lr_mult: 2
decay_mult: 0
}
inner_product_param {
num_output: 4096
weight_filler {
type: "gaussian"
std: 0.005
}
bias_filler {
type: "constant"
value: 0.1
}
}
}
layer {
name: "relu7"
type: "ReLU"
bottom: "fc7"
top: "fc7"
}
layer {
name: "drop7"
type: "Dropout"
bottom: "fc7"
top: "fc7"
dropout_param {
dropout_ratio: 0.5
}
}
layer {
name: "fc8_species"
type: "InnerProduct"
bottom: "fc7"
top: "fc8_species"
param {
lr_mult: 1
decay_mult: 1
}
param {
lr_mult: 2
decay_mult: 0
}
inner_product_param {
num_output: 967
weight_filler {
type: "gaussian"
std: 0.01
}
bias_filler {
type: "constant"
value: 0
}
}
}
layer {
name: "loss"
type: "SoftmaxWithLoss"
bottom: "fc8_species"
bottom: "label"
top: "loss"
}
I0624 12:52:24.051298 30083 layer_factory.hpp:76] Creating layer data
I0624 12:52:24.051612 30083 net.cpp:109] Creating Layer data
I0624 12:52:24.051616 30083 net.cpp:414] data -> data
I0624 12:52:24.051626 30083 net.cpp:414] data -> label
I0624 12:52:24.051631 30083 data_transformer.cpp:25] Loading mean file from: /usr/share/digits/digits/jobs/20160624-120053-bb9a/mean.binaryproto
I0624 12:52:24.052325 30096 db_lmdb.cpp:36] Opened lmdb /usr/share/digits/digits/jobs/20160624-120053-bb9a/train_db
I0624 12:52:24.055115 30083 data_layer.cpp:45] output data size: 100,3,227,227
I0624 12:52:24.120057 30083 net.cpp:153] Setting up data
I0624 12:52:24.120077 30083 net.cpp:160] Top shape: 100 3 227 227 (15458700)
I0624 12:52:24.120082 30083 net.cpp:160] Top shape: 100 (100)
I0624 12:52:24.120085 30083 net.cpp:168] Memory required for data: 61835200
I0624 12:52:24.120090 30083 layer_factory.hpp:76] Creating layer conv1
I0624 12:52:24.120100 30083 net.cpp:109] Creating Layer conv1
I0624 12:52:24.120101 30083 net.cpp:457] conv1 <- data
I0624 12:52:24.120108 30083 net.cpp:414] conv1 -> conv1
I0624 12:52:24.121481 30083 net.cpp:153] Setting up conv1
I0624 12:52:24.121491 30083 net.cpp:160] Top shape: 100 96 55 55 (29040000)
I0624 12:52:24.121493 30083 net.cpp:168] Memory required for data: 177995200
I0624 12:52:24.121501 30083 layer_factory.hpp:76] Creating layer relu1
I0624 12:52:24.121507 30083 net.cpp:109] Creating Layer relu1
I0624 12:52:24.121510 30083 net.cpp:457] relu1 <- conv1
I0624 12:52:24.121512 30083 net.cpp:400] relu1 -> conv1 (in-place)
I0624 12:52:24.121520 30083 net.cpp:153] Setting up relu1
I0624 12:52:24.121522 30083 net.cpp:160] Top shape: 100 96 55 55 (29040000)
I0624 12:52:24.121523 30083 net.cpp:168] Memory required for data: 294155200
I0624 12:52:24.121526 30083 layer_factory.hpp:76] Creating layer norm1
I0624 12:52:24.121531 30083 net.cpp:109] Creating Layer norm1
I0624 12:52:24.121532 30083 net.cpp:457] norm1 <- conv1
I0624 12:52:24.121534 30083 net.cpp:414] norm1 -> norm1
I0624 12:52:24.121562 30083 net.cpp:153] Setting up norm1
I0624 12:52:24.121564 30083 net.cpp:160] Top shape: 100 96 55 55 (29040000)
I0624 12:52:24.121565 30083 net.cpp:168] Memory required for data: 410315200
I0624 12:52:24.121567 30083 layer_factory.hpp:76] Creating layer pool1
I0624 12:52:24.121572 30083 net.cpp:109] Creating Layer pool1
I0624 12:52:24.121573 30083 net.cpp:457] pool1 <- norm1
I0624 12:52:24.121575 30083 net.cpp:414] pool1 -> pool1
I0624 12:52:24.121608 30083 net.cpp:153] Setting up pool1
I0624 12:52:24.121611 30083 net.cpp:160] Top shape: 100 96 27 27 (6998400)
I0624 12:52:24.121613 30083 net.cpp:168] Memory required for data: 438308800
I0624 12:52:24.121615 30083 layer_factory.hpp:76] Creating layer conv2
I0624 12:52:24.121619 30083 net.cpp:109] Creating Layer conv2
I0624 12:52:24.121621 30083 net.cpp:457] conv2 <- pool1
I0624 12:52:24.121624 30083 net.cpp:414] conv2 -> conv2
I0624 12:52:24.128535 30083 net.cpp:153] Setting up conv2
I0624 12:52:24.128543 30083 net.cpp:160] Top shape: 100 256 27 27 (18662400)
I0624 12:52:24.128545 30083 net.cpp:168] Memory required for data: 512958400
I0624 12:52:24.128551 30083 layer_factory.hpp:76] Creating layer relu2
I0624 12:52:24.128554 30083 net.cpp:109] Creating Layer relu2
I0624 12:52:24.128556 30083 net.cpp:457] relu2 <- conv2
I0624 12:52:24.128559 30083 net.cpp:400] relu2 -> conv2 (in-place)
I0624 12:52:24.128563 30083 net.cpp:153] Setting up relu2
I0624 12:52:24.128566 30083 net.cpp:160] Top shape: 100 256 27 27 (18662400)
I0624 12:52:24.128567 30083 net.cpp:168] Memory required for data: 587608000
I0624 12:52:24.128569 30083 layer_factory.hpp:76] Creating layer norm2
I0624 12:52:24.128572 30083 net.cpp:109] Creating Layer norm2
I0624 12:52:24.128574 30083 net.cpp:457] norm2 <- conv2
I0624 12:52:24.128577 30083 net.cpp:414] norm2 -> norm2
I0624 12:52:24.128597 30083 net.cpp:153] Setting up norm2
I0624 12:52:24.128599 30083 net.cpp:160] Top shape: 100 256 27 27 (18662400)
I0624 12:52:24.128602 30083 net.cpp:168] Memory required for data: 662257600
I0624 12:52:24.128602 30083 layer_factory.hpp:76] Creating layer pool2
I0624 12:52:24.128607 30083 net.cpp:109] Creating Layer pool2
I0624 12:52:24.128608 30083 net.cpp:457] pool2 <- norm2
I0624 12:52:24.128612 30083 net.cpp:414] pool2 -> pool2
I0624 12:52:24.128626 30083 net.cpp:153] Setting up pool2
I0624 12:52:24.128628 30083 net.cpp:160] Top shape: 100 256 13 13 (4326400)
I0624 12:52:24.128630 30083 net.cpp:168] Memory required for data: 679563200
I0624 12:52:24.128633 30083 layer_factory.hpp:76] Creating layer conv3
I0624 12:52:24.128636 30083 net.cpp:109] Creating Layer conv3
I0624 12:52:24.128638 30083 net.cpp:457] conv3 <- pool2
I0624 12:52:24.128641 30083 net.cpp:414] conv3 -> conv3
I0624 12:52:24.145192 30083 net.cpp:153] Setting up conv3
I0624 12:52:24.145207 30083 net.cpp:160] Top shape: 100 384 13 13 (6489600)
I0624 12:52:24.145210 30083 net.cpp:168] Memory required for data: 705521600
I0624 12:52:24.145216 30083 layer_factory.hpp:76] Creating layer relu3
I0624 12:52:24.145222 30083 net.cpp:109] Creating Layer relu3
I0624 12:52:24.145226 30083 net.cpp:457] relu3 <- conv3
I0624 12:52:24.145238 30083 net.cpp:400] relu3 -> conv3 (in-place)
I0624 12:52:24.145243 30083 net.cpp:153] Setting up relu3
I0624 12:52:24.145247 30083 net.cpp:160] Top shape: 100 384 13 13 (6489600)
I0624 12:52:24.145248 30083 net.cpp:168] Memory required for data: 731480000
I0624 12:52:24.145251 30083 layer_factory.hpp:76] Creating layer conv4
I0624 12:52:24.145256 30083 net.cpp:109] Creating Layer conv4
I0624 12:52:24.145258 30083 net.cpp:457] conv4 <- conv3
I0624 12:52:24.145262 30083 net.cpp:414] conv4 -> conv4
I0624 12:52:24.157893 30083 net.cpp:153] Setting up conv4
I0624 12:52:24.157907 30083 net.cpp:160] Top shape: 100 384 13 13 (6489600)
I0624 12:52:24.157909 30083 net.cpp:168] Memory required for data: 757438400
I0624 12:52:24.157914 30083 layer_factory.hpp:76] Creating layer relu4
I0624 12:52:24.157920 30083 net.cpp:109] Creating Layer relu4
I0624 12:52:24.157922 30083 net.cpp:457] relu4 <- conv4
I0624 12:52:24.157927 30083 net.cpp:400] relu4 -> conv4 (in-place)
I0624 12:52:24.157932 30083 net.cpp:153] Setting up relu4
I0624 12:52:24.157933 30083 net.cpp:160] Top shape: 100 384 13 13 (6489600)
I0624 12:52:24.157935 30083 net.cpp:168] Memory required for data: 783396800
I0624 12:52:24.157938 30083 layer_factory.hpp:76] Creating layer conv5
I0624 12:52:24.157941 30083 net.cpp:109] Creating Layer conv5
I0624 12:52:24.157943 30083 net.cpp:457] conv5 <- conv4
I0624 12:52:24.157958 30083 net.cpp:414] conv5 -> conv5
I0624 12:52:24.166409 30083 net.cpp:153] Setting up conv5
I0624 12:52:24.166420 30083 net.cpp:160] Top shape: 100 256 13 13 (4326400)
I0624 12:52:24.166422 30083 net.cpp:168] Memory required for data: 800702400
I0624 12:52:24.166429 30083 layer_factory.hpp:76] Creating layer relu5
I0624 12:52:24.166434 30083 net.cpp:109] Creating Layer relu5
I0624 12:52:24.166435 30083 net.cpp:457] relu5 <- conv5
I0624 12:52:24.166438 30083 net.cpp:400] relu5 -> conv5 (in-place)
I0624 12:52:24.166442 30083 net.cpp:153] Setting up relu5
I0624 12:52:24.166445 30083 net.cpp:160] Top shape: 100 256 13 13 (4326400)
I0624 12:52:24.166447 30083 net.cpp:168] Memory required for data: 818008000
I0624 12:52:24.166448 30083 layer_factory.hpp:76] Creating layer pool5
I0624 12:52:24.166452 30083 net.cpp:109] Creating Layer pool5
I0624 12:52:24.166455 30083 net.cpp:457] pool5 <- conv5
I0624 12:52:24.166456 30083 net.cpp:414] pool5 -> pool5
I0624 12:52:24.166476 30083 net.cpp:153] Setting up pool5
I0624 12:52:24.166479 30083 net.cpp:160] Top shape: 100 256 6 6 (921600)
I0624 12:52:24.166481 30083 net.cpp:168] Memory required for data: 821694400
I0624 12:52:24.166482 30083 layer_factory.hpp:76] Creating layer fc6
I0624 12:52:24.166488 30083 net.cpp:109] Creating Layer fc6
I0624 12:52:24.166491 30083 net.cpp:457] fc6 <- pool5
I0624 12:52:24.166493 30083 net.cpp:414] fc6 -> fc6
I0624 12:52:24.864688 30083 net.cpp:153] Setting up fc6
I0624 12:52:24.864706 30083 net.cpp:160] Top shape: 100 4096 (409600)
I0624 12:52:24.864709 30083 net.cpp:168] Memory required for data: 823332800
I0624 12:52:24.864715 30083 layer_factory.hpp:76] Creating layer relu6
I0624 12:52:24.864722 30083 net.cpp:109] Creating Layer relu6
I0624 12:52:24.864723 30083 net.cpp:457] relu6 <- fc6
I0624 12:52:24.864727 30083 net.cpp:400] relu6 -> fc6 (in-place)
I0624 12:52:24.864733 30083 net.cpp:153] Setting up relu6
I0624 12:52:24.864737 30083 net.cpp:160] Top shape: 100 4096 (409600)
I0624 12:52:24.864738 30083 net.cpp:168] Memory required for data: 824971200
I0624 12:52:24.864739 30083 layer_factory.hpp:76] Creating layer drop6
I0624 12:52:24.864750 30083 net.cpp:109] Creating Layer drop6
I0624 12:52:24.864751 30083 net.cpp:457] drop6 <- fc6
I0624 12:52:24.864754 30083 net.cpp:400] drop6 -> fc6 (in-place)
I0624 12:52:24.864771 30083 net.cpp:153] Setting up drop6
I0624 12:52:24.864774 30083 net.cpp:160] Top shape: 100 4096 (409600)
I0624 12:52:24.864775 30083 net.cpp:168] Memory required for data: 826609600
I0624 12:52:24.864778 30083 layer_factory.hpp:76] Creating layer fc7
I0624 12:52:24.864781 30083 net.cpp:109] Creating Layer fc7
I0624 12:52:24.864784 30083 net.cpp:457] fc7 <- fc6
I0624 12:52:24.864786 30083 net.cpp:414] fc7 -> fc7
I0624 12:52:25.168619 30083 net.cpp:153] Setting up fc7
I0624 12:52:25.168638 30083 net.cpp:160] Top shape: 100 4096 (409600)
I0624 12:52:25.168642 30083 net.cpp:168] Memory required for data: 828248000
I0624 12:52:25.168648 30083 layer_factory.hpp:76] Creating layer relu7
I0624 12:52:25.168653 30083 net.cpp:109] Creating Layer relu7
I0624 12:52:25.168656 30083 net.cpp:457] relu7 <- fc7
I0624 12:52:25.168660 30083 net.cpp:400] relu7 -> fc7 (in-place)
I0624 12:52:25.168666 30083 net.cpp:153] Setting up relu7
I0624 12:52:25.168669 30083 net.cpp:160] Top shape: 100 4096 (409600)
I0624 12:52:25.168671 30083 net.cpp:168] Memory required for data: 829886400
I0624 12:52:25.168673 30083 layer_factory.hpp:76] Creating layer drop7
I0624 12:52:25.168676 30083 net.cpp:109] Creating Layer drop7
I0624 12:52:25.168678 30083 net.cpp:457] drop7 <- fc7
I0624 12:52:25.168680 30083 net.cpp:400] drop7 -> fc7 (in-place)
I0624 12:52:25.168699 30083 net.cpp:153] Setting up drop7
I0624 12:52:25.168700 30083 net.cpp:160] Top shape: 100 4096 (409600)
I0624 12:52:25.168702 30083 net.cpp:168] Memory required for data: 831524800
I0624 12:52:25.168704 30083 layer_factory.hpp:76] Creating layer fc8_species
I0624 12:52:25.168709 30083 net.cpp:109] Creating Layer fc8_species
I0624 12:52:25.168710 30083 net.cpp:457] fc8_species <- fc7
I0624 12:52:25.168730 30083 net.cpp:414] fc8_species -> fc8_species
I0624 12:52:25.240500 30083 net.cpp:153] Setting up fc8_species
I0624 12:52:25.240517 30083 net.cpp:160] Top shape: 100 967 (96700)
I0624 12:52:25.240520 30083 net.cpp:168] Memory required for data: 831911600
I0624 12:52:25.240525 30083 layer_factory.hpp:76] Creating layer loss
I0624 12:52:25.240537 30083 net.cpp:109] Creating Layer loss
I0624 12:52:25.240541 30083 net.cpp:457] loss <- fc8_species
I0624 12:52:25.240545 30083 net.cpp:457] loss <- label
I0624 12:52:25.240547 30083 net.cpp:414] loss -> loss
I0624 12:52:25.240553 30083 layer_factory.hpp:76] Creating layer loss
…
I0624 12:52:25.241428 30083 solver.cpp:187] Creating test net (#0) specified by net file: train_val.prototxt
I0624 12:52:25.241449 30083 net.cpp:325] The NetState phase (1) differed from the phase (0) specified by a rule in layer data
I0624 12:52:25.241554 30083 net.cpp:52] Initializing net from parameters:
state {
phase: TEST
}
layer {
name: "data"
type: "Data"
top: "data"
top: "label"
include {
phase: TEST
}
transform_param {
crop_size: 227
mean_file: "/usr/share/digits/digits/jobs/20160624-120053-bb9a/mean.binaryproto"
}
data_param {
source: "/usr/share/digits/digits/jobs/20160624-120053-bb9a/val_db"
batch_size: 100
backend: LMDB
}
}
layer {
name: "conv1"
type: "Convolution"
bottom: "data"
top: "conv1"
param {
lr_mult: 1
decay_mult: 1
}
param {
lr_mult: 2
decay_mult: 0
}
convolution_param {
num_output: 96
kernel_size: 11
stride: 4
weight_filler {
type: "gaussian"
std: 0.01
}
bias_filler {
type: "constant"
value: 0
}
}
}
layer {
name: "relu1"
type: "ReLU"
bottom: "conv1"
top: "conv1"
}
layer {
name: "norm1"
type: "LRN"
bottom: "conv1"
top: "norm1"
lrn_param {
local_size: 5
alpha: 0.0001
beta: 0.75
}
}
layer {
name: "pool1"
type: "Pooling"
bottom: "norm1"
top: "pool1"
pooling_param {
pool: MAX
kernel_size: 3
stride: 2
}
}
layer {
name: "conv2"
type: "Convolution"
bottom: "pool1"
top: "conv2"
param {
lr_mult: 1
decay_mult: 1
}
param {
lr_mult: 2
decay_mult: 0
}
convolution_param {
num_output: 256
pad: 2
kernel_size: 5
group: 2
weight_filler {
type: "gaussian"
std: 0.01
}
bias_filler {
type: "constant"
value: 0.1
}
}
}
layer {
name: "relu2"
type: "ReLU"
bottom: "conv2"
top: "conv2"
}
layer {
name: "norm2"
type: "LRN"
bottom: "conv2"
top: "norm2"
lrn_param {
local_size: 5
alpha: 0.0001
beta: 0.75
}
}
layer {
name: "pool2"
type: "Pooling"
bottom: "norm2"
top: "pool2"
pooling_param {
pool: MAX
kernel_size: 3
stride: 2
}
}
layer {
name: "conv3"
type: "Convolution"
bottom: "pool2"
top: "conv3"
param {
lr_mult: 1
decay_mult: 1
}
param {
lr_mult: 2
decay_mult: 0
}
convolution_param {
num_output: 384
pad: 1
kernel_size: 3
weight_filler {
type: "gaussian"
std: 0.01
}
bias_filler {
type: "constant"
value: 0
}
}
}
layer {
name: "relu3"
type: "ReLU"
bottom: "conv3"
top: "conv3"
}
layer {
name: "conv4"
type: "Convolution"
bottom: "conv3"
top: "conv4"
param {
lr_mult: 1
decay_mult: 1
}
param {
lr_mult: 2
decay_mult: 0
}
convolution_param {
num_output: 384
pad: 1
kernel_size: 3
group: 2
weight_filler {
type: "gaussian"
std: 0.01
}
bias_filler {
type: "constant"
value: 0.1
}
}
}
layer {
name: "relu4"
type: "ReLU"
bottom: "conv4"
top: "conv4"
}
layer {
name: "conv5"
type: "Convolution"
bottom: "conv4"
top: "conv5"
param {
lr_mult: 1
decay_mult: 1
}
param {
lr_mult: 2
decay_mult: 0
}
convolution_param {
num_output: 256
pad: 1
kernel_size: 3
group: 2
weight_filler {
type: "gaussian"
std: 0.01
}
bias_filler {
type: "constant"
value: 0.1
}
}
}
layer {
name: "relu5"
type: "ReLU"
bottom: "conv5"
top: "conv5"
}
layer {
name: "pool5"
type: "Pooling"
bottom: "conv5"
top: "pool5"
pooling_param {
pool: MAX
kernel_size: 3
stride: 2
}
}
layer {
name: "fc6"
type: "InnerProduct"
bottom: "pool5"
top: "fc6"
param {
lr_mult: 1
decay_mult: 1
}
param {
lr_mult: 2
decay_mult: 0
}
inner_product_param {
num_output: 4096
weight_filler {
type: "gaussian"
std: 0.005
}
bias_filler {
type: "constant"
value: 0.1
}
}
}
layer {
name: "relu6"
type: "ReLU"
bottom: "fc6"
top: "fc6"
}
layer {
name: "drop6"
type: "Dropout"
bottom: "fc6"
top: "fc6"
dropout_param {
dropout_ratio: 0.5
}
}
layer {
name: "fc7"
type: "InnerProduct"
bottom: "fc6"
top: "fc7"
param {
lr_mult: 1
decay_mult: 1
}
param {
lr_mult: 2
decay_mult: 0
}
inner_product_param {
num_output: 4096
weight_filler {
type: "gaussian"
std: 0.005
}
bias_filler {
type: "constant"
value: 0.1
}
}
}
layer {
name: "relu7"
type: "ReLU"
bottom: "fc7"
top: "fc7"
}
layer {
name: "drop7"
type: "Dropout"
bottom: "fc7"
top: "fc7"
dropout_param {
dropout_ratio: 0.5
}
}
layer {
name: "fc8_species"
type: "InnerProduct"
bottom: "fc7"
top: "fc8_species"
param {
lr_mult: 1
decay_mult: 1
}
param {
lr_mult: 2
decay_mult: 0
}
inner_product_param {
num_output: 967
weight_filler {
type: "gaussian"
std: 0.01
}
bias_filler {
type: "constant"
value: 0
}
}
}
layer {
name: "loss"
type: "SoftmaxWithLoss"
bottom: "fc8_species"
bottom: "label"
top: "loss"
}
layer {
name: "accuracy"
type: "Accuracy"
bottom: "fc8_species"
bottom: "label"
top: "accuracy"
include {
phase: TEST
}
}
I0624 12:52:25.241643 30083 layer_factory.hpp:76] Creating layer data
I0624 12:52:25.241808 30083 net.cpp:109] Creating Layer data
I0624 12:52:25.241812 30083 net.cpp:414] data -> data
I0624 12:52:25.241816 30083 net.cpp:414] data -> label
I0624 12:52:25.241822 30083 data_transformer.cpp:25] Loading mean file from: /usr/share/digits/digits/jobs/20160624-120053-bb9a/mean.binaryproto
I0624 12:52:25.242511 30098 db_lmdb.cpp:36] Opened lmdb /usr/share/digits/digits/jobs/20160624-120053-bb9a/val_db
I0624 12:52:25.245213 30083 data_layer.cpp:45] output data size: 100,3,227,227
I0624 12:52:25.308629 30083 net.cpp:153] Setting up data
I0624 12:52:25.308650 30083 net.cpp:160] Top shape: 100 3 227 227 (15458700)
I0624 12:52:25.308653 30083 net.cpp:160] Top shape: 100 (100)
I0624 12:52:25.308655 30083 net.cpp:168] Memory required for data: 61835200
I0624 12:52:25.308660 30083 layer_factory.hpp:76] Creating layer label_data_1_split
I0624 12:52:25.308666 30083 net.cpp:109] Creating Layer label_data_1_split
I0624 12:52:25.308670 30083 net.cpp:457] label_data_1_split <- label
I0624 12:52:25.308673 30083 net.cpp:414] label_data_1_split -> label_data_1_split_0
I0624 12:52:25.308677 30083 net.cpp:414] label_data_1_split -> label_data_1_split_1
I0624 12:52:25.308719 30083 net.cpp:153] Setting up label_data_1_split
I0624 12:52:25.308724 30083 net.cpp:160] Top shape: 100 (100)
I0624 12:52:25.308727 30083 net.cpp:160] Top shape: 100 (100)
I0624 12:52:25.308728 30083 net.cpp:168] Memory required for data: 61836000
I0624 12:52:25.308729 30083 layer_factory.hpp:76] Creating layer conv1
I0624 12:52:25.308737 30083 net.cpp:109] Creating Layer conv1
I0624 12:52:25.308738 30083 net.cpp:457] conv1 <- data
I0624 12:52:25.308742 30083 net.cpp:414] conv1 -> conv1
I0624 12:52:25.309566 30083 net.cpp:153] Setting up conv1
I0624 12:52:25.309573 30083 net.cpp:160] Top shape: 100 96 55 55 (29040000)
I0624 12:52:25.309576 30083 net.cpp:168] Memory required for data: 177996000
I0624 12:52:25.309582 30083 layer_factory.hpp:76] Creating layer relu1
I0624 12:52:25.309587 30083 net.cpp:109] Creating Layer relu1
I0624 12:52:25.309588 30083 net.cpp:457] relu1 <- conv1
I0624 12:52:25.309592 30083 net.cpp:400] relu1 -> conv1 (in-place)
I0624 12:52:25.309597 30083 net.cpp:153] Setting up relu1
I0624 12:52:25.309598 30083 net.cpp:160] Top shape: 100 96 55 55 (29040000)
I0624 12:52:25.309600 30083 net.cpp:168] Memory required for data: 294156000
I0624 12:52:25.309602 30083 layer_factory.hpp:76] Creating layer norm1
I0624 12:52:25.309607 30083 net.cpp:109] Creating Layer norm1
I0624 12:52:25.309609 30083 net.cpp:457] norm1 <- conv1
I0624 12:52:25.309612 30083 net.cpp:414] norm1 -> norm1
I0624 12:52:25.309633 30083 net.cpp:153] Setting up norm1
I0624 12:52:25.309636 30083 net.cpp:160] Top shape: 100 96 55 55 (29040000)
I0624 12:52:25.309638 30083 net.cpp:168] Memory required for data: 410316000
I0624 12:52:25.309639 30083 layer_factory.hpp:76] Creating layer pool1
I0624 12:52:25.309643 30083 net.cpp:109] Creating Layer pool1
I0624 12:52:25.309645 30083 net.cpp:457] pool1 <- norm1
I0624 12:52:25.309648 30083 net.cpp:414] pool1 -> pool1
I0624 12:52:25.309665 30083 net.cpp:153] Setting up pool1
I0624 12:52:25.309669 30083 net.cpp:160] Top shape: 100 96 27 27 (6998400)
I0624 12:52:25.309670 30083 net.cpp:168] Memory required for data: 438309600
I0624 12:52:25.309671 30083 layer_factory.hpp:76] Creating layer conv2
I0624 12:52:25.309675 30083 net.cpp:109] Creating Layer conv2
I0624 12:52:25.309677 30083 net.cpp:457] conv2 <- pool1
I0624 12:52:25.309680 30083 net.cpp:414] conv2 -> conv2
I0624 12:52:25.316601 30083 net.cpp:153] Setting up conv2
I0624 12:52:25.316606 30083 net.cpp:160] Top shape: 100 256 27 27 (18662400)
I0624 12:52:25.316608 30083 net.cpp:168] Memory required for data: 512959200
I0624 12:52:25.316613 30083 layer_factory.hpp:76] Creating layer relu2
I0624 12:52:25.316617 30083 net.cpp:109] Creating Layer relu2
I0624 12:52:25.316619 30083 net.cpp:457] relu2 <- conv2
I0624 12:52:25.316622 30083 net.cpp:400] relu2 -> conv2 (in-place)
I0624 12:52:25.316634 30083 net.cpp:153] Setting up relu2
I0624 12:52:25.316637 30083 net.cpp:160] Top shape: 100 256 27 27 (18662400)
I0624 12:52:25.316638 30083 net.cpp:168] Memory required for data: 587608800
I0624 12:52:25.316640 30083 layer_factory.hpp:76] Creating layer norm2
I0624 12:52:25.316644 30083 net.cpp:109] Creating Layer norm2
I0624 12:52:25.316647 30083 net.cpp:457] norm2 <- conv2
I0624 12:52:25.316649 30083 net.cpp:414] norm2 -> norm2
I0624 12:52:25.316670 30083 net.cpp:153] Setting up norm2
I0624 12:52:25.316673 30083 net.cpp:160] Top shape: 100 256 27 27 (18662400)
I0624 12:52:25.316675 30083 net.cpp:168] Memory required for data: 662258400
I0624 12:52:25.316678 30083 layer_factory.hpp:76] Creating layer pool2
I0624 12:52:25.316680 30083 net.cpp:109] Creating Layer pool2
I0624 12:52:25.316682 30083 net.cpp:457] pool2 <- norm2
I0624 12:52:25.316684 30083 net.cpp:414] pool2 -> pool2
I0624 12:52:25.316701 30083 net.cpp:153] Setting up pool2
I0624 12:52:25.316704 30083 net.cpp:160] Top shape: 100 256 13 13 (4326400)
I0624 12:52:25.316705 30083 net.cpp:168] Memory required for data: 679564000
I0624 12:52:25.316707 30083 layer_factory.hpp:76] Creating layer conv3
I0624 12:52:25.316711 30083 net.cpp:109] Creating Layer conv3
I0624 12:52:25.316714 30083 net.cpp:457] conv3 <- pool2
I0624 12:52:25.316716 30083 net.cpp:414] conv3 -> conv3
I0624 12:52:25.333166 30083 net.cpp:153] Setting up conv3
I0624 12:52:25.333183 30083 net.cpp:160] Top shape: 100 384 13 13 (6489600)
I0624 12:52:25.333184 30083 net.cpp:168] Memory required for data: 705522400
I0624 12:52:25.333191 30083 layer_factory.hpp:76] Creating layer relu3
I0624 12:52:25.333197 30083 net.cpp:109] Creating Layer relu3
I0624 12:52:25.333199 30083 net.cpp:457] relu3 <- conv3
I0624 12:52:25.333204 30083 net.cpp:400] relu3 -> conv3 (in-place)
I0624 12:52:25.333209 30083 net.cpp:153] Setting up relu3
I0624 12:52:25.333211 30083 net.cpp:160] Top shape: 100 384 13 13 (6489600)
I0624 12:52:25.333214 30083 net.cpp:168] Memory required for data: 731480800
I0624 12:52:25.333214 30083 layer_factory.hpp:76] Creating layer conv4
I0624 12:52:25.333220 30083 net.cpp:109] Creating Layer conv4
I0624 12:52:25.333221 30083 net.cpp:457] conv4 <- conv3
I0624 12:52:25.333225 30083 net.cpp:414] conv4 -> conv4
I0624 12:52:25.345679 30083 net.cpp:153] Setting up conv4
I0624 12:52:25.345692 30083 net.cpp:160] Top shape: 100 384 13 13 (6489600)
I0624 12:52:25.345695 30083 net.cpp:168] Memory required for data: 757439200
I0624 12:52:25.345700 30083 layer_factory.hpp:76] Creating layer relu4
I0624 12:52:25.345705 30083 net.cpp:109] Creating Layer relu4
I0624 12:52:25.345706 30083 net.cpp:457] relu4 <- conv4
I0624 12:52:25.345710 30083 net.cpp:400] relu4 -> conv4 (in-place)
I0624 12:52:25.345715 30083 net.cpp:153] Setting up relu4
I0624 12:52:25.345717 30083 net.cpp:160] Top shape: 100 384 13 13 (6489600)
I0624 12:52:25.345720 30083 net.cpp:168] Memory required for data: 783397600
I0624 12:52:25.345721 30083 layer_factory.hpp:76] Creating layer conv5
I0624 12:52:25.345726 30083 net.cpp:109] Creating Layer conv5
I0624 12:52:25.345727 30083 net.cpp:457] conv5 <- conv4
I0624 12:52:25.345731 30083 net.cpp:414] conv5 -> conv5
I0624 12:52:25.354013 30083 net.cpp:153] Setting up conv5
I0624 12:52:25.354024 30083 net.cpp:160] Top shape: 100 256 13 13 (4326400)
I0624 12:52:25.354027 30083 net.cpp:168] Memory required for data: 800703200
I0624 12:52:25.354032 30083 layer_factory.hpp:76] Creating layer relu5
I0624 12:52:25.354037 30083 net.cpp:109] Creating Layer relu5
I0624 12:52:25.354039 30083 net.cpp:457] relu5 <- conv5
I0624 12:52:25.354041 30083 net.cpp:400] relu5 -> conv5 (in-place)
I0624 12:52:25.354046 30083 net.cpp:153] Setting up relu5
I0624 12:52:25.354049 30083 net.cpp:160] Top shape: 100 256 13 13 (4326400)
I0624 12:52:25.354051 30083 net.cpp:168] Memory required for data: 818008800
I0624 12:52:25.354053 30083 layer_factory.hpp:76] Creating layer pool5
I0624 12:52:25.354058 30083 net.cpp:109] Creating Layer pool5
I0624 12:52:25.354059 30083 net.cpp:457] pool5 <- conv5
I0624 12:52:25.354076 30083 net.cpp:414] pool5 -> pool5
I0624 12:52:25.354099 30083 net.cpp:153] Setting up pool5
I0624 12:52:25.354102 30083 net.cpp:160] Top shape: 100 256 6 6 (921600)
I0624 12:52:25.354104 30083 net.cpp:168] Memory required for data: 821695200
I0624 12:52:25.354106 30083 layer_factory.hpp:76] Creating layer fc6
I0624 12:52:25.354110 30083 net.cpp:109] Creating Layer fc6
I0624 12:52:25.354112 30083 net.cpp:457] fc6 <- pool5
I0624 12:52:25.354115 30083 net.cpp:414] fc6 -> fc6
I0624 12:52:26.050365 30083 net.cpp:153] Setting up fc6
I0624 12:52:26.050382 30083 net.cpp:160] Top shape: 100 4096 (409600)
I0624 12:52:26.050385 30083 net.cpp:168] Memory required for data: 823333600
I0624 12:52:26.050390 30083 layer_factory.hpp:76] Creating layer relu6
I0624 12:52:26.050396 30083 net.cpp:109] Creating Layer relu6
I0624 12:52:26.050398 30083 net.cpp:457] relu6 <- fc6
I0624 12:52:26.050402 30083 net.cpp:400] relu6 -> fc6 (in-place)
I0624 12:52:26.050408 30083 net.cpp:153] Setting up relu6
I0624 12:52:26.050411 30083 net.cpp:160] Top shape: 100 4096 (409600)
I0624 12:52:26.050413 30083 net.cpp:168] Memory required for data: 824972000
I0624 12:52:26.050415 30083 layer_factory.hpp:76] Creating layer drop6
I0624 12:52:26.050418 30083 net.cpp:109] Creating Layer drop6
I0624 12:52:26.050420 30083 net.cpp:457] drop6 <- fc6
I0624 12:52:26.050423 30083 net.cpp:400] drop6 -> fc6 (in-place)
I0624 12:52:26.050441 30083 net.cpp:153] Setting up drop6
I0624 12:52:26.050444 30083 net.cpp:160] Top shape: 100 4096 (409600)
I0624 12:52:26.050446 30083 net.cpp:168] Memory required for data: 826610400
I0624 12:52:26.050447 30083 layer_factory.hpp:76] Creating layer fc7
I0624 12:52:26.050452 30083 net.cpp:109] Creating Layer fc7
I0624 12:52:26.050454 30083 net.cpp:457] fc7 <- fc6
I0624 12:52:26.050457 30083 net.cpp:414] fc7 -> fc7
I0624 12:52:26.352397 30083 net.cpp:153] Setting up fc7
I0624 12:52:26.352416 30083 net.cpp:160] Top shape: 100 4096 (409600)
I0624 12:52:26.352419 30083 net.cpp:168] Memory required for data: 828248800
I0624 12:52:26.352424 30083 layer_factory.hpp:76] Creating layer relu7
I0624 12:52:26.352432 30083 net.cpp:109] Creating Layer relu7
I0624 12:52:26.352434 30083 net.cpp:457] relu7 <- fc7
I0624 12:52:26.352438 30083 net.cpp:400] relu7 -> fc7 (in-place)
I0624 12:52:26.352444 30083 net.cpp:153] Setting up relu7
I0624 12:52:26.352447 30083 net.cpp:160] Top shape: 100 4096 (409600)
I0624 12:52:26.352448 30083 net.cpp:168] Memory required for data: 829887200
I0624 12:52:26.352450 30083 layer_factory.hpp:76] Creating layer drop7
I0624 12:52:26.352454 30083 net.cpp:109] Creating Layer drop7
I0624 12:52:26.352457 30083 net.cpp:457] drop7 <- fc7
I0624 12:52:26.352458 30083 net.cpp:400] drop7 -> fc7 (in-place)
I0624 12:52:26.352478 30083 net.cpp:153] Setting up drop7
I0624 12:52:26.352480 30083 net.cpp:160] Top shape: 100 4096 (409600)
I0624 12:52:26.352481 30083 net.cpp:168] Memory required for data: 831525600
I0624 12:52:26.352483 30083 layer_factory.hpp:76] Creating layer fc8_species
I0624 12:52:26.352488 30083 net.cpp:109] Creating Layer fc8_species
I0624 12:52:26.352489 30083 net.cpp:457] fc8_species <- fc7
I0624 12:52:26.352493 30083 net.cpp:414] fc8_species -> fc8_species
I0624 12:52:26.423848 30083 net.cpp:153] Setting up fc8_species
I0624 12:52:26.423866 30083 net.cpp:160] Top shape: 100 967 (96700)
I0624 12:52:26.423869 30083 net.cpp:168] Memory required for data: 831912400
I0624 12:52:26.423874 30083 layer_factory.hpp:76] Creating layer fc8_species_fc8_species_0_split
I0624 12:52:26.423880 30083 net.cpp:109] Creating Layer fc8_species_fc8_species_0_split
I0624 12:52:26.423883 30083 net.cpp:457] fc8_species_fc8_species_0_split <- fc8_species
I0624 12:52:26.423887 30083 net.cpp:414] fc8_species_fc8_species_0_split -> fc8_species_fc8_species_0_split_0
I0624 12:52:26.423892 30083 net.cpp:414] fc8_species_fc8_species_0_split -> fc8_species_fc8_species_0_split_1
I0624 12:52:26.423920 30083 net.cpp:153] Setting up fc8_species_fc8_species_0_split
I0624 12:52:26.423923 30083 net.cpp:160] Top shape: 100 967 (96700)
I0624 12:52:26.423940 30083 net.cpp:160] Top shape: 100 967 (96700)
I0624 12:52:26.423943 30083 net.cpp:168] Memory required for data: 832686000
I0624 12:52:26.423944 30083 layer_factory.hpp:76] Creating layer loss
I0624 12:52:26.423948 30083 net.cpp:109] Creating Layer loss
I0624 12:52:26.423949 30083 net.cpp:457] loss <- fc8_species_fc8_species_0_split_0
I0624 12:52:26.423952 30083 net.cpp:457] loss <- label_data_1_split_0
I0624 12:52:26.423955 30083 net.cpp:414] loss -> loss
…
