…
state {
phase: TRAIN
}
layer {
name: "data"
type: "Data"
top: "data"
include {
phase: TRAIN
}
transform_param {
mean_file: "/home/ffw/scratch/plantClef/scatnet_output/train/a4_m2_s1s2s4s8_f2/lmdb_mean_coeff.binaryproto"
}
data_param {
source: "/home/ffw/scratch/plantClef/scatnet_output/train/a4_m2_s1s2s4s8_f2/lmdb_data"
batch_size: 200
backend: LMDB
}
}
layer {
name: "label"
type: "Data"
top: "label"
include {
phase: TRAIN
}
data_param {
source: "/home/ffw/scratch/plantClef/scatnet_output/train/a4_m2_s1s2s4s8_f2/lmdb_labels"
batch_size: 200
backend: LMDB
}
}
layer {
name: "conv5"
type: "Convolution"
bottom: "data"
top: "conv5"
param {
lr_mult: 1
decay_mult: 1
}
param {
lr_mult: 2
decay_mult: 0
}
convolution_param {
num_output: 256
pad: 1
kernel_size: 3
group: 1
weight_filler {
type: "gaussian"
std: 0.01
}
bias_filler {
type: "constant"
value: 0.1
}
}
}
layer {
name: "relu5"
type: "ReLU"
bottom: "conv5"
top: "conv5"
}
layer {
name: "pool5"
type: "Pooling"
bottom: "conv5"
top: "pool5"
pooling_param {
pool: MAX
kernel_size: 3
stride: 2
}
}
layer {
name: "fc6"
type: "InnerProduct"
bottom: "pool5"
top: "fc6"
param {
lr_mult: 1
decay_mult: 1
}
param {
lr_mult: 2
decay_mult: 0
}
inner_product_param {
num_output: 4096
weight_filler {
type: "gaussian"
std: 0.005
}
bias_filler {
type: "constant"
value: 0.1
}
}
}
layer {
name: "relu6"
type: "ReLU"
bottom: "fc6"
top: "fc6"
}
layer {
name: "drop6"
type: "Dropout"
bottom: "fc6"
top: "fc6"
dropout_param {
dropout_ratio: 0.5
}
}
layer {
name: "fc7"
type: "InnerProduct"
bottom: "fc6"
top: "fc7"
param {
lr_mult: 1
decay_mult: 1
}
param {
lr_mult: 2
decay_mult: 0
}
inner_product_param {
num_output: 4096
weight_filler {
type: "gaussian"
std: 0.005
}
bias_filler {
type: "constant"
value: 0.1
}
}
}
layer {
name: "relu7"
type: "ReLU"
bottom: "fc7"
top: "fc7"
}
layer {
name: "drop7"
type: "Dropout"
bottom: "fc7"
top: "fc7"
dropout_param {
dropout_ratio: 0.5
}
}
layer {
name: "fc8_species"
type: "InnerProduct"
bottom: "fc7"
top: "fc8_species"
param {
lr_mult: 1
decay_mult: 1
}
param {
lr_mult: 2
decay_mult: 0
}
inner_product_param {
num_output: 967
weight_filler {
type: "gaussian"
std: 0.005
}
bias_filler {
type: "constant"
value: 0.1
}
}
}
layer {
name: "loss"
type: "SoftmaxWithLoss"
bottom: "fc8_species"
bottom: "label"
top: "loss"
}
I0704 16:36:54.775558 25863 layer_factory.hpp:76] Creating layer data
I0704 16:36:54.775672 25863 net.cpp:109] Creating Layer data
I0704 16:36:54.775679 25863 net.cpp:414] data -> data
I0704 16:36:54.775701 25863 data_transformer.cpp:25] Loading mean file from: /home/ffw/scratch/plantClef/scatnet_output/train/a4_m2_s1s2s4s8_f2/lmdb_mean_coeff.binaryproto
I0704 16:36:54.777357 25875 db_lmdb.cpp:36] Opened lmdb /home/ffw/scratch/plantClef/scatnet_output/train/a4_m2_s1s2s4s8_f2/lmdb_data
I0704 16:36:54.779165 25863 data_layer.cpp:45] output data size: 200,339,19,19
I0704 16:36:54.887503 25863 net.cpp:153] Setting up data
I0704 16:36:54.887526 25863 net.cpp:160] Top shape: 200 339 19 19 (24475800)
I0704 16:36:54.887529 25863 net.cpp:168] Memory required for data: 97903200
I0704 16:36:54.887533 25863 layer_factory.hpp:76] Creating layer label
I0704 16:36:54.887630 25863 net.cpp:109] Creating Layer label
I0704 16:36:54.887634 25863 net.cpp:414] label -> label
I0704 16:36:54.888736 25877 db_lmdb.cpp:36] Opened lmdb /home/ffw/scratch/plantClef/scatnet_output/train/a4_m2_s1s2s4s8_f2/lmdb_labels
I0704 16:36:54.896378 25863 data_layer.cpp:45] output data size: 200,1,1,1
I0704 16:36:54.896461 25863 net.cpp:153] Setting up label
I0704 16:36:54.896466 25863 net.cpp:160] Top shape: 200 1 1 1 (200)
I0704 16:36:54.896468 25863 net.cpp:168] Memory required for data: 97904000
I0704 16:36:54.896471 25863 layer_factory.hpp:76] Creating layer conv5
I0704 16:36:54.896477 25863 net.cpp:109] Creating Layer conv5
I0704 16:36:54.896479 25863 net.cpp:457] conv5 <- data
I0704 16:36:54.896486 25863 net.cpp:414] conv5 -> conv5
I0704 16:36:54.912412 25863 net.cpp:153] Setting up conv5
I0704 16:36:54.912431 25863 net.cpp:160] Top shape: 200 256 19 19 (18483200)
I0704 16:36:54.912433 25863 net.cpp:168] Memory required for data: 171836800
I0704 16:36:54.912442 25863 layer_factory.hpp:76] Creating layer relu5
I0704 16:36:54.912449 25863 net.cpp:109] Creating Layer relu5
I0704 16:36:54.912451 25863 net.cpp:457] relu5 <- conv5
I0704 16:36:54.912456 25863 net.cpp:400] relu5 -> conv5 (in-place)
I0704 16:36:54.912462 25863 net.cpp:153] Setting up relu5
I0704 16:36:54.912466 25863 net.cpp:160] Top shape: 200 256 19 19 (18483200)
I0704 16:36:54.912467 25863 net.cpp:168] Memory required for data: 245769600
I0704 16:36:54.912468 25863 layer_factory.hpp:76] Creating layer pool5
I0704 16:36:54.912472 25863 net.cpp:109] Creating Layer pool5
I0704 16:36:54.912474 25863 net.cpp:457] pool5 <- conv5
I0704 16:36:54.912477 25863 net.cpp:414] pool5 -> pool5
I0704 16:36:54.912508 25863 net.cpp:153] Setting up pool5
I0704 16:36:54.912511 25863 net.cpp:160] Top shape: 200 256 9 9 (4147200)
I0704 16:36:54.912513 25863 net.cpp:168] Memory required for data: 262358400
I0704 16:36:54.912514 25863 layer_factory.hpp:76] Creating layer fc6
I0704 16:36:54.912519 25863 net.cpp:109] Creating Layer fc6
I0704 16:36:54.912521 25863 net.cpp:457] fc6 <- pool5
I0704 16:36:54.912524 25863 net.cpp:414] fc6 -> fc6
I0704 16:36:56.525235 25863 net.cpp:153] Setting up fc6
I0704 16:36:56.525255 25863 net.cpp:160] Top shape: 200 4096 (819200)
I0704 16:36:56.525259 25863 net.cpp:168] Memory required for data: 265635200
I0704 16:36:56.525266 25863 layer_factory.hpp:76] Creating layer relu6
I0704 16:36:56.525272 25863 net.cpp:109] Creating Layer relu6
I0704 16:36:56.525275 25863 net.cpp:457] relu6 <- fc6
I0704 16:36:56.525279 25863 net.cpp:400] relu6 -> fc6 (in-place)
I0704 16:36:56.525285 25863 net.cpp:153] Setting up relu6
I0704 16:36:56.525288 25863 net.cpp:160] Top shape: 200 4096 (819200)
I0704 16:36:56.525290 25863 net.cpp:168] Memory required for data: 268912000
I0704 16:36:56.525292 25863 layer_factory.hpp:76] Creating layer drop6
I0704 16:36:56.525301 25863 net.cpp:109] Creating Layer drop6
I0704 16:36:56.525303 25863 net.cpp:457] drop6 <- fc6
I0704 16:36:56.525306 25863 net.cpp:400] drop6 -> fc6 (in-place)
I0704 16:36:56.525326 25863 net.cpp:153] Setting up drop6
I0704 16:36:56.525328 25863 net.cpp:160] Top shape: 200 4096 (819200)
I0704 16:36:56.525329 25863 net.cpp:168] Memory required for data: 272188800
I0704 16:36:56.525331 25863 layer_factory.hpp:76] Creating layer fc7
I0704 16:36:56.525337 25863 net.cpp:109] Creating Layer fc7
I0704 16:36:56.525338 25863 net.cpp:457] fc7 <- fc6
I0704 16:36:56.525341 25863 net.cpp:414] fc7 -> fc7
I0704 16:36:56.838573 25863 net.cpp:153] Setting up fc7
I0704 16:36:56.838593 25863 net.cpp:160] Top shape: 200 4096 (819200)
I0704 16:36:56.838595 25863 net.cpp:168] Memory required for data: 275465600
I0704 16:36:56.838624 25863 layer_factory.hpp:76] Creating layer relu7
I0704 16:36:56.838630 25863 net.cpp:109] Creating Layer relu7
I0704 16:36:56.838634 25863 net.cpp:457] relu7 <- fc7
I0704 16:36:56.838639 25863 net.cpp:400] relu7 -> fc7 (in-place)
I0704 16:36:56.838645 25863 net.cpp:153] Setting up relu7
I0704 16:36:56.838647 25863 net.cpp:160] Top shape: 200 4096 (819200)
I0704 16:36:56.838649 25863 net.cpp:168] Memory required for data: 278742400
I0704 16:36:56.838651 25863 layer_factory.hpp:76] Creating layer drop7
I0704 16:36:56.838655 25863 net.cpp:109] Creating Layer drop7
I0704 16:36:56.838657 25863 net.cpp:457] drop7 <- fc7
I0704 16:36:56.838660 25863 net.cpp:400] drop7 -> fc7 (in-place)
I0704 16:36:56.838677 25863 net.cpp:153] Setting up drop7
I0704 16:36:56.838680 25863 net.cpp:160] Top shape: 200 4096 (819200)
I0704 16:36:56.838682 25863 net.cpp:168] Memory required for data: 282019200
I0704 16:36:56.838683 25863 layer_factory.hpp:76] Creating layer fc8_species
I0704 16:36:56.838688 25863 net.cpp:109] Creating Layer fc8_species
I0704 16:36:56.838690 25863 net.cpp:457] fc8_species <- fc7
I0704 16:36:56.838692 25863 net.cpp:414] fc8_species -> fc8_species
I0704 16:36:56.914021 25863 net.cpp:153] Setting up fc8_species
I0704 16:36:56.914039 25863 net.cpp:160] Top shape: 200 967 (193400)
I0704 16:36:56.914042 25863 net.cpp:168] Memory required for data: 282792800
I0704 16:36:56.914048 25863 layer_factory.hpp:76] Creating layer loss
I0704 16:36:56.914054 25863 net.cpp:109] Creating Layer loss
I0704 16:36:56.914057 25863 net.cpp:457] loss <- fc8_species
I0704 16:36:56.914060 25863 net.cpp:457] loss <- label
I0704 16:36:56.914063 25863 net.cpp:414] loss -> loss
I0704 16:36:56.914069 25863 layer_factory.hpp:76] Creating layer loss
…
state {
phase: TEST
}
layer {
name: "data"
type: "Data"
top: "data"
include {
phase: TEST
}
transform_param {
mean_file: "/home/ffw/scratch/plantClef/scatnet_output/train/a4_m2_s1s2s4s8_f2/lmdb_mean_coeff.binaryproto"
}
data_param {
source: "/home/ffw/scratch/plantClef/scatnet_output/test/a4_m2_s1s2s4s8_f2/lmdb_data"
batch_size: 200
backend: LMDB
}
}
layer {
name: "label"
type: "Data"
top: "label"
include {
phase: TEST
}
data_param {
source: "/home/ffw/scratch/plantClef/scatnet_output/test/a4_m2_s1s2s4s8_f2/lmdb_labels"
batch_size: 200
backend: LMDB
}
}
layer {
name: "conv5"
type: "Convolution"
bottom: "data"
top: "conv5"
param {
lr_mult: 1
decay_mult: 1
}
param {
lr_mult: 2
decay_mult: 0
}
convolution_param {
num_output: 256
pad: 1
kernel_size: 3
group: 1
weight_filler {
type: "gaussian"
std: 0.01
}
bias_filler {
type: "constant"
value: 0.1
}
}
}
layer {
name: "relu5"
type: "ReLU"
bottom: "conv5"
top: "conv5"
}
layer {
name: "pool5"
type: "Pooling"
bottom: "conv5"
top: "pool5"
pooling_param {
pool: MAX
kernel_size: 3
stride: 2
}
}
layer {
name: "fc6"
type: "InnerProduct"
bottom: "pool5"
top: "fc6"
param {
lr_mult: 1
decay_mult: 1
}
param {
lr_mult: 2
decay_mult: 0
}
inner_product_param {
num_output: 4096
weight_filler {
type: "gaussian"
std: 0.005
}
bias_filler {
type: "constant"
value: 0.1
}
}
}
layer {
name: "relu6"
type: "ReLU"
bottom: "fc6"
top: "fc6"
}
layer {
name: "drop6"
type: "Dropout"
bottom: "fc6"
top: "fc6"
dropout_param {
dropout_ratio: 0.5
}
}
layer {
name: "fc7"
type: "InnerProduct"
bottom: "fc6"
top: "fc7"
param {
lr_mult: 1
decay_mult: 1
}
param {
lr_mult: 2
decay_mult: 0
}
inner_product_param {
num_output: 4096
weight_filler {
type: "gaussian"
std: 0.005
}
bias_filler {
type: "constant"
value: 0.1
}
}
}
layer {
name: "relu7"
type: "ReLU"
bottom: "fc7"
top: "fc7"
}
layer {
name: "drop7"
type: "Dropout"
bottom: "fc7"
top: "fc7"
dropout_param {
dropout_ratio: 0.5
}
}
layer {
name: "fc8_species"
type: "InnerProduct"
bottom: "fc7"
top: "fc8_species"
param {
lr_mult: 1
decay_mult: 1
}
param {
lr_mult: 2
decay_mult: 0
}
inner_product_param {
num_output: 967
weight_filler {
type: "gaussian"
std: 0.005
}
bias_filler {
type: "constant"
value: 0.1
}
}
}
layer {
name: "loss"
type: "SoftmaxWithLoss"
bottom: "fc8_species"
bottom: "label"
top: "loss"
}
layer {
name: "accuracy"
type: "Accuracy"
bottom: "fc8_species"
bottom: "label"
top: "accuracy"
include {
phase: TEST
}
}
I0704 16:36:56.915127 25863 layer_factory.hpp:76] Creating layer data
I0704 16:36:56.915227 25863 net.cpp:109] Creating Layer data
I0704 16:36:56.915241 25863 net.cpp:414] data -> data
I0704 16:36:56.915247 25863 data_transformer.cpp:25] Loading mean file from: /home/ffw/scratch/plantClef/scatnet_output/train/a4_m2_s1s2s4s8_f2/lmdb_mean_coeff.binaryproto
I0704 16:36:56.916219 25879 db_lmdb.cpp:36] Opened lmdb /home/ffw/scratch/plantClef/scatnet_output/test/a4_m2_s1s2s4s8_f2/lmdb_data
I0704 16:36:56.916354 25863 data_layer.cpp:45] output data size: 200,339,19,19
I0704 16:36:57.020051 25863 net.cpp:153] Setting up data
I0704 16:36:57.020069 25863 net.cpp:160] Top shape: 200 339 19 19 (24475800)
I0704 16:36:57.020072 25863 net.cpp:168] Memory required for data: 97903200
I0704 16:36:57.020076 25863 layer_factory.hpp:76] Creating layer label
I0704 16:36:57.020169 25863 net.cpp:109] Creating Layer label
I0704 16:36:57.020184 25863 net.cpp:414] label -> label
I0704 16:36:57.021416 25881 db_lmdb.cpp:36] Opened lmdb /home/ffw/scratch/plantClef/scatnet_output/test/a4_m2_s1s2s4s8_f2/lmdb_labels
I0704 16:36:57.029100 25863 data_layer.cpp:45] output data size: 200,1,1,1
I0704 16:36:57.029316 25863 net.cpp:153] Setting up label
I0704 16:36:57.029323 25863 net.cpp:160] Top shape: 200 1 1 1 (200)
I0704 16:36:57.029325 25863 net.cpp:168] Memory required for data: 97904000
I0704 16:36:57.029327 25863 layer_factory.hpp:76] Creating layer label_label_0_split
I0704 16:36:57.029333 25863 net.cpp:109] Creating Layer label_label_0_split
I0704 16:36:57.029335 25863 net.cpp:457] label_label_0_split <- label
I0704 16:36:57.029353 25863 net.cpp:414] label_label_0_split -> label_label_0_split_0
I0704 16:36:57.029358 25863 net.cpp:414] label_label_0_split -> label_label_0_split_1
I0704 16:36:57.029398 25863 net.cpp:153] Setting up label_label_0_split
I0704 16:36:57.029402 25863 net.cpp:160] Top shape: 200 1 1 1 (200)
I0704 16:36:57.029405 25863 net.cpp:160] Top shape: 200 1 1 1 (200)
I0704 16:36:57.029407 25863 net.cpp:168] Memory required for data: 97905600
I0704 16:36:57.029408 25863 layer_factory.hpp:76] Creating layer conv5
I0704 16:36:57.029415 25863 net.cpp:109] Creating Layer conv5
I0704 16:36:57.029417 25863 net.cpp:457] conv5 <- data
I0704 16:36:57.029420 25863 net.cpp:414] conv5 -> conv5
I0704 16:36:57.044528 25863 net.cpp:153] Setting up conv5
I0704 16:36:57.044548 25863 net.cpp:160] Top shape: 200 256 19 19 (18483200)
I0704 16:36:57.044550 25863 net.cpp:168] Memory required for data: 171838400
I0704 16:36:57.044559 25863 layer_factory.hpp:76] Creating layer relu5
I0704 16:36:57.044566 25863 net.cpp:109] Creating Layer relu5
I0704 16:36:57.044569 25863 net.cpp:457] relu5 <- conv5
I0704 16:36:57.044574 25863 net.cpp:400] relu5 -> conv5 (in-place)
I0704 16:36:57.044579 25863 net.cpp:153] Setting up relu5
I0704 16:36:57.044582 25863 net.cpp:160] Top shape: 200 256 19 19 (18483200)
I0704 16:36:57.044584 25863 net.cpp:168] Memory required for data: 245771200
I0704 16:36:57.044586 25863 layer_factory.hpp:76] Creating layer pool5
I0704 16:36:57.044591 25863 net.cpp:109] Creating Layer pool5
I0704 16:36:57.044592 25863 net.cpp:457] pool5 <- conv5
I0704 16:36:57.044595 25863 net.cpp:414] pool5 -> pool5
I0704 16:36:57.044622 25863 net.cpp:153] Setting up pool5
I0704 16:36:57.044626 25863 net.cpp:160] Top shape: 200 256 9 9 (4147200)
I0704 16:36:57.044628 25863 net.cpp:168] Memory required for data: 262360000
I0704 16:36:57.044630 25863 layer_factory.hpp:76] Creating layer fc6
I0704 16:36:57.044634 25863 net.cpp:109] Creating Layer fc6
I0704 16:36:57.044636 25863 net.cpp:457] fc6 <- pool5
I0704 16:36:57.044639 25863 net.cpp:414] fc6 -> fc6
I0704 16:36:58.609351 25863 net.cpp:153] Setting up fc6
I0704 16:36:58.609372 25863 net.cpp:160] Top shape: 200 4096 (819200)
I0704 16:36:58.609375 25863 net.cpp:168] Memory required for data: 265636800
I0704 16:36:58.609383 25863 layer_factory.hpp:76] Creating layer relu6
I0704 16:36:58.609390 25863 net.cpp:109] Creating Layer relu6
I0704 16:36:58.609392 25863 net.cpp:457] relu6 <- fc6
I0704 16:36:58.609396 25863 net.cpp:400] relu6 -> fc6 (in-place)
I0704 16:36:58.609403 25863 net.cpp:153] Setting up relu6
I0704 16:36:58.609405 25863 net.cpp:160] Top shape: 200 4096 (819200)
I0704 16:36:58.609407 25863 net.cpp:168] Memory required for data: 268913600
I0704 16:36:58.609410 25863 layer_factory.hpp:76] Creating layer drop6
I0704 16:36:58.609414 25863 net.cpp:109] Creating Layer drop6
I0704 16:36:58.609416 25863 net.cpp:457] drop6 <- fc6
I0704 16:36:58.609418 25863 net.cpp:400] drop6 -> fc6 (in-place)
I0704 16:36:58.609437 25863 net.cpp:153] Setting up drop6
I0704 16:36:58.609441 25863 net.cpp:160] Top shape: 200 4096 (819200)
I0704 16:36:58.609442 25863 net.cpp:168] Memory required for data: 272190400
I0704 16:36:58.609443 25863 layer_factory.hpp:76] Creating layer fc7
I0704 16:36:58.609448 25863 net.cpp:109] Creating Layer fc7
I0704 16:36:58.609450 25863 net.cpp:457] fc7 <- fc6
I0704 16:36:58.609452 25863 net.cpp:414] fc7 -> fc7
I0704 16:36:58.912353 25863 net.cpp:153] Setting up fc7
I0704 16:36:58.912372 25863 net.cpp:160] Top shape: 200 4096 (819200)
I0704 16:36:58.912375 25863 net.cpp:168] Memory required for data: 275467200
I0704 16:36:58.912384 25863 layer_factory.hpp:76] Creating layer relu7
I0704 16:36:58.912389 25863 net.cpp:109] Creating Layer relu7
I0704 16:36:58.912392 25863 net.cpp:457] relu7 <- fc7
I0704 16:36:58.912396 25863 net.cpp:400] relu7 -> fc7 (in-place)
I0704 16:36:58.912403 25863 net.cpp:153] Setting up relu7
I0704 16:36:58.912406 25863 net.cpp:160] Top shape: 200 4096 (819200)
I0704 16:36:58.912407 25863 net.cpp:168] Memory required for data: 278744000
I0704 16:36:58.912410 25863 layer_factory.hpp:76] Creating layer drop7
I0704 16:36:58.912431 25863 net.cpp:109] Creating Layer drop7
I0704 16:36:58.912433 25863 net.cpp:457] drop7 <- fc7
I0704 16:36:58.912436 25863 net.cpp:400] drop7 -> fc7 (in-place)
I0704 16:36:58.912457 25863 net.cpp:153] Setting up drop7
I0704 16:36:58.912459 25863 net.cpp:160] Top shape: 200 4096 (819200)
I0704 16:36:58.912461 25863 net.cpp:168] Memory required for data: 282020800
I0704 16:36:58.912463 25863 layer_factory.hpp:76] Creating layer fc8_species
I0704 16:36:58.912467 25863 net.cpp:109] Creating Layer fc8_species
I0704 16:36:58.912469 25863 net.cpp:457] fc8_species <- fc7
I0704 16:36:58.912472 25863 net.cpp:414] fc8_species -> fc8_species
I0704 16:36:58.985164 25863 net.cpp:153] Setting up fc8_species
I0704 16:36:58.985183 25863 net.cpp:160] Top shape: 200 967 (193400)
I0704 16:36:58.985186 25863 net.cpp:168] Memory required for data: 282794400
I0704 16:36:58.985191 25863 layer_factory.hpp:76] Creating layer fc8_species_fc8_species_0_split
I0704 16:36:58.985198 25863 net.cpp:109] Creating Layer fc8_species_fc8_species_0_split
I0704 16:36:58.985200 25863 net.cpp:457] fc8_species_fc8_species_0_split <- fc8_species
I0704 16:36:58.985204 25863 net.cpp:414] fc8_species_fc8_species_0_split -> fc8_species_fc8_species_0_split_0
I0704 16:36:58.985209 25863 net.cpp:414] fc8_species_fc8_species_0_split -> fc8_species_fc8_species_0_split_1
I0704 16:36:58.985239 25863 net.cpp:153] Setting up fc8_species_fc8_species_0_split
I0704 16:36:58.985241 25863 net.cpp:160] Top shape: 200 967 (193400)
I0704 16:36:58.985244 25863 net.cpp:160] Top shape: 200 967 (193400)
I0704 16:36:58.985245 25863 net.cpp:168] Memory required for data: 284341600
I0704 16:36:58.985246 25863 layer_factory.hpp:76] Creating layer loss
I0704 16:36:58.985250 25863 net.cpp:109] Creating Layer loss
I0704 16:36:58.985251 25863 net.cpp:457] loss <- fc8_species_fc8_species_0_split_0
I0704 16:36:58.985255 25863 net.cpp:457] loss <- label_label_0_split_0
I0704 16:36:58.985257 25863 net.cpp:414] loss -> loss
…
