…
I0704 14:44:39.261421 30624 net.cpp:325] The NetState phase (0) differed from the phase (1) specified by a rule in layer accuracy
I0704 14:44:39.261528 30624 net.cpp:52] Initializing net from parameters:
state {
phase: TRAIN
}
layer {
name: "train-data"
type: "Data"
top: "data"
top: "label"
include {
phase: TRAIN
}
transform_param {
mirror: true
crop_size: 227
mean_file: "/home/zml374/workspace/DIGITS/digits/jobs/20160704-085910-0cc9/mean.binaryproto"
}
data_param {
source: "/home/zml374/workspace/DIGITS/digits/jobs/20160704-085910-0cc9/train_db"
batch_size: 200
backend: LMDB
}
}
layer {
name: "fc6_clean"
type: "InnerProduct"
bottom: "data"
top: "fc6_clean"
param {
lr_mult: 1
decay_mult: 1
}
param {
lr_mult: 2
decay_mult: 0
}
inner_product_param {
num_output: 4096
weight_filler {
type: "gaussian"
std: 0.005
}
bias_filler {
type: "constant"
value: 0.1
}
}
}
layer {
name: "relu6"
type: "ReLU"
bottom: "fc6_clean"
top: "fc6_clean"
}
layer {
name: "drop6"
type: "Dropout"
bottom: "fc6_clean"
top: "fc6_clean"
dropout_param {
dropout_ratio: 0.5
}
}
layer {
name: "fc7_clean"
type: "InnerProduct"
bottom: "fc6_clean"
top: "fc7_clean"
param {
lr_mult: 1
decay_mult: 1
}
param {
lr_mult: 2
decay_mult: 0
}
inner_product_param {
num_output: 4096
weight_filler {
type: "gaussian"
std: 0.005
}
bias_filler {
type: "constant"
value: 0.1
}
}
}
layer {
name: "relu7"
type: "ReLU"
bottom: "fc7_clean"
top: "fc7_clean"
}
layer {
name: "drop7"
type: "Dropout"
bottom: "fc7_clean"
top: "fc7_clean"
dropout_param {
dropout_ratio: 0.5
}
}
layer {
name: "fc8_clean"
type: "InnerProduct"
bottom: "fc7_clean"
top: "fc8_clean"
param {
lr_mult: 1
decay_mult: 1
}
param {
lr_mult: 2
decay_mult: 0
}
inner_product_param {
num_output: 967
weight_filler {
type: "gaussian"
std: 0.01
}
bias_filler {
type: "constant"
value: 0
}
}
}
layer {
name: "loss"
type: "SoftmaxWithLoss"
bottom: "fc8_clean"
bottom: "label"
top: "loss"
}
I0704 14:44:39.261590 30624 layer_factory.hpp:76] Creating layer train-data
I0704 14:44:39.262209 30624 net.cpp:109] Creating Layer train-data
I0704 14:44:39.262224 30624 net.cpp:414] train-data -> data
I0704 14:44:39.262251 30624 net.cpp:414] train-data -> label
I0704 14:44:39.262265 30624 data_transformer.cpp:25] Loading mean file from: /home/zml374/workspace/DIGITS/digits/jobs/20160704-085910-0cc9/mean.binaryproto
I0704 14:44:39.264444 30652 db_lmdb.cpp:36] Opened lmdb /home/zml374/workspace/DIGITS/digits/jobs/20160704-085910-0cc9/train_db
I0704 14:44:39.270025 30624 data_layer.cpp:45] output data size: 200,3,227,227
I0704 14:44:39.569324 30624 net.cpp:153] Setting up train-data
I0704 14:44:39.569377 30624 net.cpp:160] Top shape: 200 3 227 227 (30917400)
I0704 14:44:39.569386 30624 net.cpp:160] Top shape: 200 (200)
I0704 14:44:39.569391 30624 net.cpp:168] Memory required for data: 123670400
I0704 14:44:39.569404 30624 layer_factory.hpp:76] Creating layer fc6_clean
I0704 14:44:39.569437 30624 net.cpp:109] Creating Layer fc6_clean
I0704 14:44:39.569443 30624 net.cpp:457] fc6_clean <- data
I0704 14:44:39.569463 30624 net.cpp:414] fc6_clean -> fc6_clean
I0704 14:45:03.746855 30624 net.cpp:153] Setting up fc6_clean
I0704 14:45:03.746906 30624 net.cpp:160] Top shape: 200 4096 (819200)
I0704 14:45:03.746956 30624 net.cpp:168] Memory required for data: 126947200
I0704 14:45:03.746989 30624 layer_factory.hpp:76] Creating layer relu6
I0704 14:45:03.747014 30624 net.cpp:109] Creating Layer relu6
I0704 14:45:03.747022 30624 net.cpp:457] relu6 <- fc6_clean
I0704 14:45:03.747032 30624 net.cpp:400] relu6 -> fc6_clean (in-place)
I0704 14:45:03.747069 30624 net.cpp:153] Setting up relu6
I0704 14:45:03.747078 30624 net.cpp:160] Top shape: 200 4096 (819200)
I0704 14:45:03.747083 30624 net.cpp:168] Memory required for data: 130224000
I0704 14:45:03.747088 30624 layer_factory.hpp:76] Creating layer drop6
I0704 14:45:03.747104 30624 net.cpp:109] Creating Layer drop6
I0704 14:45:03.747110 30624 net.cpp:457] drop6 <- fc6_clean
I0704 14:45:03.747117 30624 net.cpp:400] drop6 -> fc6_clean (in-place)
I0704 14:45:03.747156 30624 net.cpp:153] Setting up drop6
I0704 14:45:03.747165 30624 net.cpp:160] Top shape: 200 4096 (819200)
I0704 14:45:03.747170 30624 net.cpp:168] Memory required for data: 133500800
I0704 14:45:03.747174 30624 layer_factory.hpp:76] Creating layer fc7_clean
I0704 14:45:03.747189 30624 net.cpp:109] Creating Layer fc7_clean
I0704 14:45:03.747195 30624 net.cpp:457] fc7_clean <- fc6_clean
I0704 14:45:03.747203 30624 net.cpp:414] fc7_clean -> fc7_clean
I0704 14:45:04.390719 30624 net.cpp:153] Setting up fc7_clean
I0704 14:45:04.390763 30624 net.cpp:160] Top shape: 200 4096 (819200)
I0704 14:45:04.390770 30624 net.cpp:168] Memory required for data: 136777600
I0704 14:45:04.390792 30624 layer_factory.hpp:76] Creating layer relu7
I0704 14:45:04.390810 30624 net.cpp:109] Creating Layer relu7
I0704 14:45:04.390816 30624 net.cpp:457] relu7 <- fc7_clean
I0704 14:45:04.390827 30624 net.cpp:400] relu7 -> fc7_clean (in-place)
I0704 14:45:04.390846 30624 net.cpp:153] Setting up relu7
I0704 14:45:04.390852 30624 net.cpp:160] Top shape: 200 4096 (819200)
I0704 14:45:04.390857 30624 net.cpp:168] Memory required for data: 140054400
I0704 14:45:04.390862 30624 layer_factory.hpp:76] Creating layer drop7
I0704 14:45:04.390872 30624 net.cpp:109] Creating Layer drop7
I0704 14:45:04.390878 30624 net.cpp:457] drop7 <- fc7_clean
I0704 14:45:04.390885 30624 net.cpp:400] drop7 -> fc7_clean (in-place)
I0704 14:45:04.390923 30624 net.cpp:153] Setting up drop7
I0704 14:45:04.390933 30624 net.cpp:160] Top shape: 200 4096 (819200)
I0704 14:45:04.390936 30624 net.cpp:168] Memory required for data: 143331200
I0704 14:45:04.390941 30624 layer_factory.hpp:76] Creating layer fc8_clean
I0704 14:45:04.390954 30624 net.cpp:109] Creating Layer fc8_clean
I0704 14:45:04.390959 30624 net.cpp:457] fc8_clean <- fc7_clean
I0704 14:45:04.390967 30624 net.cpp:414] fc8_clean -> fc8_clean
I0704 14:45:04.541123 30624 net.cpp:153] Setting up fc8_clean
I0704 14:45:04.541141 30624 net.cpp:160] Top shape: 200 967 (193400)
I0704 14:45:04.541147 30624 net.cpp:168] Memory required for data: 144104800
I0704 14:45:04.541159 30624 layer_factory.hpp:76] Creating layer loss
I0704 14:45:04.541185 30624 net.cpp:109] Creating Layer loss
I0704 14:45:04.541191 30624 net.cpp:457] loss <- fc8_clean
I0704 14:45:04.541198 30624 net.cpp:457] loss <- label
I0704 14:45:04.541205 30624 net.cpp:414] loss -> loss
I0704 14:45:04.541218 30624 layer_factory.hpp:76] Creating layer loss
…
I0704 14:45:04.542732 30624 net.cpp:325] The NetState phase (1) differed from the phase (0) specified by a rule in layer train-data
I0704 14:45:04.542856 30624 net.cpp:52] Initializing net from parameters:
state {
phase: TEST
}
layer {
name: "val-data"
type: "Data"
top: "data"
top: "label"
include {
phase: TEST
}
transform_param {
crop_size: 227
mean_file: "/home/zml374/workspace/DIGITS/digits/jobs/20160704-085910-0cc9/mean.binaryproto"
}
data_param {
source: "/home/zml374/workspace/DIGITS/digits/jobs/20160704-085910-0cc9/val_db"
batch_size: 200
backend: LMDB
}
}
layer {
name: "fc6_clean"
type: "InnerProduct"
bottom: "data"
top: "fc6_clean"
param {
lr_mult: 1
decay_mult: 1
}
param {
lr_mult: 2
decay_mult: 0
}
inner_product_param {
num_output: 4096
weight_filler {
type: "gaussian"
std: 0.005
}
bias_filler {
type: "constant"
value: 0.1
}
}
}
layer {
name: "relu6"
type: "ReLU"
bottom: "fc6_clean"
top: "fc6_clean"
}
layer {
name: "drop6"
type: "Dropout"
bottom: "fc6_clean"
top: "fc6_clean"
dropout_param {
dropout_ratio: 0.5
}
}
layer {
name: "fc7_clean"
type: "InnerProduct"
bottom: "fc6_clean"
top: "fc7_clean"
param {
lr_mult: 1
decay_mult: 1
}
param {
lr_mult: 2
decay_mult: 0
}
inner_product_param {
num_output: 4096
weight_filler {
type: "gaussian"
std: 0.005
}
bias_filler {
type: "constant"
value: 0.1
}
}
}
layer {
name: "relu7"
type: "ReLU"
bottom: "fc7_clean"
top: "fc7_clean"
}
layer {
name: "drop7"
type: "Dropout"
bottom: "fc7_clean"
top: "fc7_clean"
dropout_param {
dropout_ratio: 0.5
}
}
layer {
name: "fc8_clean"
type: "InnerProduct"
bottom: "fc7_clean"
top: "fc8_clean"
param {
lr_mult: 1
decay_mult: 1
}
param {
lr_mult: 2
decay_mult: 0
}
inner_product_param {
num_output: 967
weight_filler {
type: "gaussian"
std: 0.01
}
bias_filler {
type: "constant"
value: 0
}
}
}
layer {
name: "accuracy"
type: "Accuracy"
bottom: "fc8_clean"
bottom: "label"
top: "accuracy"
include {
phase: TEST
}
}
layer {
name: "loss"
type: "SoftmaxWithLoss"
bottom: "fc8_clean"
bottom: "label"
top: "loss"
}
I0704 14:45:04.542940 30624 layer_factory.hpp:76] Creating layer val-data
I0704 14:45:04.543171 30624 net.cpp:109] Creating Layer val-data
I0704 14:45:04.543185 30624 net.cpp:414] val-data -> data
I0704 14:45:04.543196 30624 net.cpp:414] val-data -> label
I0704 14:45:04.543207 30624 data_transformer.cpp:25] Loading mean file from: /home/zml374/workspace/DIGITS/digits/jobs/20160704-085910-0cc9/mean.binaryproto
I0704 14:45:04.546618 30665 db_lmdb.cpp:36] Opened lmdb /home/zml374/workspace/DIGITS/digits/jobs/20160704-085910-0cc9/val_db
I0704 14:45:04.550768 30624 data_layer.cpp:45] output data size: 200,3,227,227
I0704 14:45:04.845077 30624 net.cpp:153] Setting up val-data
I0704 14:45:04.845127 30624 net.cpp:160] Top shape: 200 3 227 227 (30917400)
I0704 14:45:04.845136 30624 net.cpp:160] Top shape: 200 (200)
I0704 14:45:04.845142 30624 net.cpp:168] Memory required for data: 123670400
I0704 14:45:04.845151 30624 layer_factory.hpp:76] Creating layer label_val-data_1_split
I0704 14:45:04.845180 30624 net.cpp:109] Creating Layer label_val-data_1_split
I0704 14:45:04.845187 30624 net.cpp:457] label_val-data_1_split <- label
I0704 14:45:04.845198 30624 net.cpp:414] label_val-data_1_split -> label_val-data_1_split_0
I0704 14:45:04.845211 30624 net.cpp:414] label_val-data_1_split -> label_val-data_1_split_1
I0704 14:45:04.845340 30624 net.cpp:153] Setting up label_val-data_1_split
I0704 14:45:04.845351 30624 net.cpp:160] Top shape: 200 (200)
I0704 14:45:04.845357 30624 net.cpp:160] Top shape: 200 (200)
I0704 14:45:04.845362 30624 net.cpp:168] Memory required for data: 123672000
I0704 14:45:04.845367 30624 layer_factory.hpp:76] Creating layer fc6_clean
I0704 14:45:04.845381 30624 net.cpp:109] Creating Layer fc6_clean
I0704 14:45:04.845386 30624 net.cpp:457] fc6_clean <- data
I0704 14:45:04.845396 30624 net.cpp:414] fc6_clean -> fc6_clean
I0704 14:45:24.138190 30624 net.cpp:153] Setting up fc6_clean
I0704 14:45:24.138317 30624 net.cpp:160] Top shape: 200 4096 (819200)
I0704 14:45:24.138324 30624 net.cpp:168] Memory required for data: 126948800
I0704 14:45:24.138341 30624 layer_factory.hpp:76] Creating layer relu6
I0704 14:45:24.138356 30624 net.cpp:109] Creating Layer relu6
I0704 14:45:24.138362 30624 net.cpp:457] relu6 <- fc6_clean
I0704 14:45:24.138371 30624 net.cpp:400] relu6 -> fc6_clean (in-place)
I0704 14:45:24.138386 30624 net.cpp:153] Setting up relu6
I0704 14:45:24.138391 30624 net.cpp:160] Top shape: 200 4096 (819200)
I0704 14:45:24.138394 30624 net.cpp:168] Memory required for data: 130225600
I0704 14:45:24.138398 30624 layer_factory.hpp:76] Creating layer drop6
I0704 14:45:24.138408 30624 net.cpp:109] Creating Layer drop6
I0704 14:45:24.138412 30624 net.cpp:457] drop6 <- fc6_clean
I0704 14:45:24.138417 30624 net.cpp:400] drop6 -> fc6_clean (in-place)
I0704 14:45:24.138450 30624 net.cpp:153] Setting up drop6
I0704 14:45:24.138458 30624 net.cpp:160] Top shape: 200 4096 (819200)
I0704 14:45:24.138460 30624 net.cpp:168] Memory required for data: 133502400
I0704 14:45:24.138464 30624 layer_factory.hpp:76] Creating layer fc7_clean
I0704 14:45:24.138475 30624 net.cpp:109] Creating Layer fc7_clean
I0704 14:45:24.138478 30624 net.cpp:457] fc7_clean <- fc6_clean
I0704 14:45:24.138485 30624 net.cpp:414] fc7_clean -> fc7_clean
I0704 14:45:24.637964 30624 net.cpp:153] Setting up fc7_clean
I0704 14:45:24.638003 30624 net.cpp:160] Top shape: 200 4096 (819200)
I0704 14:45:24.638008 30624 net.cpp:168] Memory required for data: 136779200
I0704 14:45:24.638028 30624 layer_factory.hpp:76] Creating layer relu7
I0704 14:45:24.638043 30624 net.cpp:109] Creating Layer relu7
I0704 14:45:24.638049 30624 net.cpp:457] relu7 <- fc7_clean
I0704 14:45:24.638059 30624 net.cpp:400] relu7 -> fc7_clean (in-place)
I0704 14:45:24.638074 30624 net.cpp:153] Setting up relu7
I0704 14:45:24.638079 30624 net.cpp:160] Top shape: 200 4096 (819200)
I0704 14:45:24.638083 30624 net.cpp:168] Memory required for data: 140056000
I0704 14:45:24.638087 30624 layer_factory.hpp:76] Creating layer drop7
I0704 14:45:24.638097 30624 net.cpp:109] Creating Layer drop7
I0704 14:45:24.638100 30624 net.cpp:457] drop7 <- fc7_clean
I0704 14:45:24.638105 30624 net.cpp:400] drop7 -> fc7_clean (in-place)
I0704 14:45:24.638139 30624 net.cpp:153] Setting up drop7
I0704 14:45:24.638146 30624 net.cpp:160] Top shape: 200 4096 (819200)
I0704 14:45:24.638149 30624 net.cpp:168] Memory required for data: 143332800
I0704 14:45:24.638154 30624 layer_factory.hpp:76] Creating layer fc8_clean
I0704 14:45:24.638169 30624 net.cpp:109] Creating Layer fc8_clean
I0704 14:45:24.638172 30624 net.cpp:457] fc8_clean <- fc7_clean
I0704 14:45:24.638180 30624 net.cpp:414] fc8_clean -> fc8_clean
I0704 14:45:24.753545 30624 net.cpp:153] Setting up fc8_clean
I0704 14:45:24.753558 30624 net.cpp:160] Top shape: 200 967 (193400)
I0704 14:45:24.753562 30624 net.cpp:168] Memory required for data: 144106400
I0704 14:45:24.753571 30624 layer_factory.hpp:76] Creating layer fc8_clean_fc8_clean_0_split
I0704 14:45:24.753581 30624 net.cpp:109] Creating Layer fc8_clean_fc8_clean_0_split
I0704 14:45:24.753584 30624 net.cpp:457] fc8_clean_fc8_clean_0_split <- fc8_clean
I0704 14:45:24.753592 30624 net.cpp:414] fc8_clean_fc8_clean_0_split -> fc8_clean_fc8_clean_0_split_0
I0704 14:45:24.753599 30624 net.cpp:414] fc8_clean_fc8_clean_0_split -> fc8_clean_fc8_clean_0_split_1
I0704 14:45:24.753638 30624 net.cpp:153] Setting up fc8_clean_fc8_clean_0_split
I0704 14:45:24.753644 30624 net.cpp:160] Top shape: 200 967 (193400)
I0704 14:45:24.753649 30624 net.cpp:160] Top shape: 200 967 (193400)
I0704 14:45:24.753654 30624 net.cpp:168] Memory required for data: 145653600
I0704 14:45:24.753657 30624 layer_factory.hpp:76] Creating layer accuracy
I0704 14:45:24.753666 30624 net.cpp:109] Creating Layer accuracy
I0704 14:45:24.753669 30624 net.cpp:457] accuracy <- fc8_clean_fc8_clean_0_split_0
I0704 14:45:24.753674 30624 net.cpp:457] accuracy <- label_val-data_1_split_0
I0704 14:45:24.753681 30624 net.cpp:414] accuracy -> accuracy
…
