…
I0705 13:14:15.688987  4737 net.cpp:325] The NetState phase (0) differed from the phase (1) specified by a rule in layer accuracy
I0705 13:14:15.689201  4737 net.cpp:52] Initializing net from parameters:
state {
phase: TRAIN
}
layer {
name: "train-data"
type: "Data"
top: "data"
top: "label"
include {
phase: TRAIN
}
transform_param {
mirror: true
crop_size: 227
mean_file: "/home/zml374/workspace/DIGITS/digits/jobs/20160704-085910-0cc9/mean.binaryproto"
}
data_param {
source: "/home/zml374/workspace/DIGITS/digits/jobs/20160704-085910-0cc9/train_db"
batch_size: 200
backend: LMDB
}
}
layer {
name: "conv1"
type: "Convolution"
bottom: "data"
top: "conv1"
param {
lr_mult: 0
decay_mult: 0
}
param {
lr_mult: 0
decay_mult: 0
}
convolution_param {
num_output: 96
kernel_size: 11
stride: 4
weight_filler {
type: "gaussian"
std: 0.01
}
bias_filler {
type: "constant"
value: 0
}
}
}
layer {
name: "relu1"
type: "ReLU"
bottom: "conv1"
top: "conv1"
}
layer {
name: "norm1"
type: "LRN"
bottom: "conv1"
top: "norm1"
lrn_param {
local_size: 5
alpha: 0.0001
beta: 0.75
}
}
layer {
name: "pool1"
type: "Pooling"
bottom: "norm1"
top: "pool1"
pooling_param {
pool: MAX
kernel_size: 3
stride: 2
}
}
layer {
name: "conv2"
type: "Convolution"
bottom: "pool1"
top: "conv2"
param {
lr_mult: 0
decay_mult: 0
}
param {
lr_mult: 0
decay_mult: 0
}
convolution_param {
num_output: 256
pad: 2
kernel_size: 5
group: 2
weight_filler {
type: "gaussian"
std: 0.01
}
bias_filler {
type: "constant"
value: 0.1
}
}
}
layer {
name: "relu2"
type: "ReLU"
bottom: "conv2"
top: "conv2"
}
layer {
name: "norm2"
type: "LRN"
bottom: "conv2"
top: "norm2"
lrn_param {
local_size: 5
alpha: 0.0001
beta: 0.75
}
}
layer {
name: "pool2"
type: "Pooling"
bottom: "norm2"
top: "pool2"
pooling_param {
pool: MAX
kernel_size: 3
stride: 2
}
}
layer {
name: "conv3"
type: "Convolution"
bottom: "pool2"
top: "conv3"
param {
lr_mult: 0
decay_mult: 0
}
param {
lr_mult: 0
decay_mult: 0
}
convolution_param {
num_output: 384
pad: 1
kernel_size: 3
weight_filler {
type: "gaussian"
std: 0.01
}
bias_filler {
type: "constant"
value: 0
}
}
}
layer {
name: "relu3"
type: "ReLU"
bottom: "conv3"
top: "conv3"
}
layer {
name: "conv4"
type: "Convolution"
bottom: "conv3"
top: "conv4"
param {
lr_mult: 0
decay_mult: 0
}
param {
lr_mult: 0
decay_mult: 0
}
convolution_param {
num_output: 384
pad: 1
kernel_size: 3
group: 2
weight_filler {
type: "gaussian"
std: 0.01
}
bias_filler {
type: "constant"
value: 0.1
}
}
}
layer {
name: "relu4"
type: "ReLU"
bottom: "conv4"
top: "conv4"
}
layer {
name: "conv5_clean"
type: "Convolution"
bottom: "conv4"
top: "conv5_clean"
param {
lr_mult: 1
decay_mult: 1
}
param {
lr_mult: 2
decay_mult: 0
}
convolution_param {
num_output: 256
pad: 1
kernel_size: 3
group: 2
weight_filler {
type: "gaussian"
std: 0.01
}
bias_filler {
type: "constant"
value: 0.1
}
}
}
layer {
name: "relu5"
type: "ReLU"
bottom: "conv5_clean"
top: "conv5_clean"
}
layer {
name: "pool5"
type: "Pooling"
bottom: "conv5_clean"
top: "pool5"
pooling_param {
pool: MAX
kernel_size: 3
stride: 2
}
}
layer {
name: "fc6_clean"
type: "InnerProduct"
bottom: "pool5"
top: "fc6_clean"
param {
lr_mult: 1
decay_mult: 1
}
param {
lr_mult: 2
decay_mult: 0
}
inner_product_param {
num_output: 4096
weight_filler {
type: "gaussian"
std: 0.005
}
bias_filler {
type: "constant"
value: 0.1
}
}
}
layer {
name: "relu6"
type: "ReLU"
bottom: "fc6_clean"
top: "fc6_clean"
}
layer {
name: "drop6"
type: "Dropout"
bottom: "fc6_clean"
top: "fc6_clean"
dropout_param {
dropout_ratio: 0.5
}
}
layer {
name: "fc7_clean"
type: "InnerProduct"
bottom: "fc6_clean"
top: "fc7_clean"
param {
lr_mult: 1
decay_mult: 1
}
param {
lr_mult: 2
decay_mult: 0
}
inner_product_param {
num_output: 4096
weight_filler {
type: "gaussian"
std: 0.005
}
bias_filler {
type: "constant"
value: 0.1
}
}
}
layer {
name: "relu7"
type: "ReLU"
bottom: "fc7_clean"
top: "fc7_clean"
}
layer {
name: "drop7"
type: "Dropout"
bottom: "fc7_clean"
top: "fc7_clean"
dropout_param {
dropout_ratio: 0.5
}
}
layer {
name: "fc8_clean"
type: "InnerProduct"
bottom: "fc7_clean"
top: "fc8_clean"
param {
lr_mult: 1
decay_mult: 1
}
param {
lr_mult: 2
decay_mult: 0
}
inner_product_param {
num_output: 967
weight_filler {
type: "gaussian"
std: 0.01
}
bias_filler {
type: "constant"
value: 0
}
}
}
layer {
name: "loss"
type: "SoftmaxWithLoss"
bottom: "fc8_clean"
bottom: "label"
top: "loss"
}
I0705 13:14:15.689357  4737 layer_factory.hpp:76] Creating layer train-data
I0705 13:14:15.690021  4737 net.cpp:109] Creating Layer train-data
I0705 13:14:15.690034  4737 net.cpp:414] train-data -> data
I0705 13:14:15.690071  4737 net.cpp:414] train-data -> label
I0705 13:14:15.690106  4737 data_transformer.cpp:25] Loading mean file from: /home/zml374/workspace/DIGITS/digits/jobs/20160704-085910-0cc9/mean.binaryproto
I0705 13:14:15.691673  4766 db_lmdb.cpp:36] Opened lmdb /home/zml374/workspace/DIGITS/digits/jobs/20160704-085910-0cc9/train_db
I0705 13:14:15.698190  4737 data_layer.cpp:45] output data size: 200,3,227,227
I0705 13:14:15.995621  4737 net.cpp:153] Setting up train-data
I0705 13:14:15.995688  4737 net.cpp:160] Top shape: 200 3 227 227 (30917400)
I0705 13:14:15.995697  4737 net.cpp:160] Top shape: 200 (200)
I0705 13:14:15.995702  4737 net.cpp:168] Memory required for data: 123670400
I0705 13:14:15.995714  4737 layer_factory.hpp:76] Creating layer conv1
I0705 13:14:15.995740  4737 net.cpp:109] Creating Layer conv1
I0705 13:14:15.995748  4737 net.cpp:457] conv1 <- data
I0705 13:14:15.995765  4737 net.cpp:414] conv1 -> conv1
I0705 13:14:15.998952  4737 net.cpp:153] Setting up conv1
I0705 13:14:15.998972  4737 net.cpp:160] Top shape: 200 96 55 55 (58080000)
I0705 13:14:15.998977  4737 net.cpp:168] Memory required for data: 355990400
I0705 13:14:15.998996  4737 layer_factory.hpp:76] Creating layer relu1
I0705 13:14:15.999008  4737 net.cpp:109] Creating Layer relu1
I0705 13:14:15.999013  4737 net.cpp:457] relu1 <- conv1
I0705 13:14:15.999022  4737 net.cpp:400] relu1 -> conv1 (in-place)
I0705 13:14:15.999058  4737 net.cpp:153] Setting up relu1
I0705 13:14:15.999066  4737 net.cpp:160] Top shape: 200 96 55 55 (58080000)
I0705 13:14:15.999071  4737 net.cpp:168] Memory required for data: 588310400
I0705 13:14:15.999075  4737 layer_factory.hpp:76] Creating layer norm1
I0705 13:14:15.999092  4737 net.cpp:109] Creating Layer norm1
I0705 13:14:15.999097  4737 net.cpp:457] norm1 <- conv1
I0705 13:14:15.999105  4737 net.cpp:414] norm1 -> norm1
I0705 13:14:15.999167  4737 net.cpp:153] Setting up norm1
I0705 13:14:15.999176  4737 net.cpp:160] Top shape: 200 96 55 55 (58080000)
I0705 13:14:15.999181  4737 net.cpp:168] Memory required for data: 820630400
I0705 13:14:15.999186  4737 layer_factory.hpp:76] Creating layer pool1
I0705 13:14:15.999243  4737 net.cpp:109] Creating Layer pool1
I0705 13:14:15.999249  4737 net.cpp:457] pool1 <- norm1
I0705 13:14:15.999265  4737 net.cpp:414] pool1 -> pool1
I0705 13:14:15.999317  4737 net.cpp:153] Setting up pool1
I0705 13:14:15.999327  4737 net.cpp:160] Top shape: 200 96 27 27 (13996800)
I0705 13:14:15.999332  4737 net.cpp:168] Memory required for data: 876617600
I0705 13:14:15.999336  4737 layer_factory.hpp:76] Creating layer conv2
I0705 13:14:15.999348  4737 net.cpp:109] Creating Layer conv2
I0705 13:14:15.999353  4737 net.cpp:457] conv2 <- pool1
I0705 13:14:15.999362  4737 net.cpp:414] conv2 -> conv2
I0705 13:14:16.016017  4737 net.cpp:153] Setting up conv2
I0705 13:14:16.016036  4737 net.cpp:160] Top shape: 200 256 27 27 (37324800)
I0705 13:14:16.016041  4737 net.cpp:168] Memory required for data: 1025916800
I0705 13:14:16.016054  4737 layer_factory.hpp:76] Creating layer relu2
I0705 13:14:16.016064  4737 net.cpp:109] Creating Layer relu2
I0705 13:14:16.016070  4737 net.cpp:457] relu2 <- conv2
I0705 13:14:16.016078  4737 net.cpp:400] relu2 -> conv2 (in-place)
I0705 13:14:16.016088  4737 net.cpp:153] Setting up relu2
I0705 13:14:16.016094  4737 net.cpp:160] Top shape: 200 256 27 27 (37324800)
I0705 13:14:16.016099  4737 net.cpp:168] Memory required for data: 1175216000
I0705 13:14:16.016103  4737 layer_factory.hpp:76] Creating layer norm2
I0705 13:14:16.016113  4737 net.cpp:109] Creating Layer norm2
I0705 13:14:16.016118  4737 net.cpp:457] norm2 <- conv2
I0705 13:14:16.016125  4737 net.cpp:414] norm2 -> norm2
I0705 13:14:16.016170  4737 net.cpp:153] Setting up norm2
I0705 13:14:16.016180  4737 net.cpp:160] Top shape: 200 256 27 27 (37324800)
I0705 13:14:16.016183  4737 net.cpp:168] Memory required for data: 1324515200
I0705 13:14:16.016188  4737 layer_factory.hpp:76] Creating layer pool2
I0705 13:14:16.016198  4737 net.cpp:109] Creating Layer pool2
I0705 13:14:16.016203  4737 net.cpp:457] pool2 <- norm2
I0705 13:14:16.016211  4737 net.cpp:414] pool2 -> pool2
I0705 13:14:16.016260  4737 net.cpp:153] Setting up pool2
I0705 13:14:16.016268  4737 net.cpp:160] Top shape: 200 256 13 13 (8652800)
I0705 13:14:16.016273  4737 net.cpp:168] Memory required for data: 1359126400
I0705 13:14:16.016278  4737 layer_factory.hpp:76] Creating layer conv3
I0705 13:14:16.016289  4737 net.cpp:109] Creating Layer conv3
I0705 13:14:16.016294  4737 net.cpp:457] conv3 <- pool2
I0705 13:14:16.016301  4737 net.cpp:414] conv3 -> conv3
I0705 13:14:16.049782  4737 net.cpp:153] Setting up conv3
I0705 13:14:16.049798  4737 net.cpp:160] Top shape: 200 384 13 13 (12979200)
I0705 13:14:16.049803  4737 net.cpp:168] Memory required for data: 1411043200
I0705 13:14:16.049814  4737 layer_factory.hpp:76] Creating layer relu3
I0705 13:14:16.049823  4737 net.cpp:109] Creating Layer relu3
I0705 13:14:16.049828  4737 net.cpp:457] relu3 <- conv3
I0705 13:14:16.049835  4737 net.cpp:400] relu3 -> conv3 (in-place)
I0705 13:14:16.049844  4737 net.cpp:153] Setting up relu3
I0705 13:14:16.049850  4737 net.cpp:160] Top shape: 200 384 13 13 (12979200)
I0705 13:14:16.049855  4737 net.cpp:168] Memory required for data: 1462960000
I0705 13:14:16.049860  4737 layer_factory.hpp:76] Creating layer conv4
I0705 13:14:16.049870  4737 net.cpp:109] Creating Layer conv4
I0705 13:14:16.049873  4737 net.cpp:457] conv4 <- conv3
I0705 13:14:16.049881  4737 net.cpp:414] conv4 -> conv4
I0705 13:14:16.075053  4737 net.cpp:153] Setting up conv4
I0705 13:14:16.075069  4737 net.cpp:160] Top shape: 200 384 13 13 (12979200)
I0705 13:14:16.075074  4737 net.cpp:168] Memory required for data: 1514876800
I0705 13:14:16.075083  4737 layer_factory.hpp:76] Creating layer relu4
I0705 13:14:16.075093  4737 net.cpp:109] Creating Layer relu4
I0705 13:14:16.075098  4737 net.cpp:457] relu4 <- conv4
I0705 13:14:16.075104  4737 net.cpp:400] relu4 -> conv4 (in-place)
I0705 13:14:16.075114  4737 net.cpp:153] Setting up relu4
I0705 13:14:16.075120  4737 net.cpp:160] Top shape: 200 384 13 13 (12979200)
I0705 13:14:16.075124  4737 net.cpp:168] Memory required for data: 1566793600
I0705 13:14:16.075147  4737 layer_factory.hpp:76] Creating layer conv5_clean
I0705 13:14:16.075160  4737 net.cpp:109] Creating Layer conv5_clean
I0705 13:14:16.075165  4737 net.cpp:457] conv5_clean <- conv4
I0705 13:14:16.075173  4737 net.cpp:414] conv5_clean -> conv5_clean
I0705 13:14:16.092092  4737 net.cpp:153] Setting up conv5_clean
I0705 13:14:16.092108  4737 net.cpp:160] Top shape: 200 256 13 13 (8652800)
I0705 13:14:16.092113  4737 net.cpp:168] Memory required for data: 1601404800
I0705 13:14:16.092125  4737 layer_factory.hpp:76] Creating layer relu5
I0705 13:14:16.092134  4737 net.cpp:109] Creating Layer relu5
I0705 13:14:16.092139  4737 net.cpp:457] relu5 <- conv5_clean
I0705 13:14:16.092147  4737 net.cpp:400] relu5 -> conv5_clean (in-place)
I0705 13:14:16.092157  4737 net.cpp:153] Setting up relu5
I0705 13:14:16.092164  4737 net.cpp:160] Top shape: 200 256 13 13 (8652800)
I0705 13:14:16.092177  4737 net.cpp:168] Memory required for data: 1636016000
I0705 13:14:16.092181  4737 layer_factory.hpp:76] Creating layer pool5
I0705 13:14:16.092190  4737 net.cpp:109] Creating Layer pool5
I0705 13:14:16.092195  4737 net.cpp:457] pool5 <- conv5_clean
I0705 13:14:16.092202  4737 net.cpp:414] pool5 -> pool5
I0705 13:14:16.092248  4737 net.cpp:153] Setting up pool5
I0705 13:14:16.092257  4737 net.cpp:160] Top shape: 200 256 6 6 (1843200)
I0705 13:14:16.092262  4737 net.cpp:168] Memory required for data: 1643388800
I0705 13:14:16.092265  4737 layer_factory.hpp:76] Creating layer fc6_clean
I0705 13:14:16.092279  4737 net.cpp:109] Creating Layer fc6_clean
I0705 13:14:16.092284  4737 net.cpp:457] fc6_clean <- pool5
I0705 13:14:16.092293  4737 net.cpp:414] fc6_clean -> fc6_clean
I0705 13:14:17.537629  4737 net.cpp:153] Setting up fc6_clean
I0705 13:14:17.537672  4737 net.cpp:160] Top shape: 200 4096 (819200)
I0705 13:14:17.537678  4737 net.cpp:168] Memory required for data: 1646665600
I0705 13:14:17.537693  4737 layer_factory.hpp:76] Creating layer relu6
I0705 13:14:17.537708  4737 net.cpp:109] Creating Layer relu6
I0705 13:14:17.537714  4737 net.cpp:457] relu6 <- fc6_clean
I0705 13:14:17.537726  4737 net.cpp:400] relu6 -> fc6_clean (in-place)
I0705 13:14:17.537742  4737 net.cpp:153] Setting up relu6
I0705 13:14:17.537750  4737 net.cpp:160] Top shape: 200 4096 (819200)
I0705 13:14:17.537753  4737 net.cpp:168] Memory required for data: 1649942400
I0705 13:14:17.537758  4737 layer_factory.hpp:76] Creating layer drop6
I0705 13:14:17.537780  4737 net.cpp:109] Creating Layer drop6
I0705 13:14:17.537786  4737 net.cpp:457] drop6 <- fc6_clean
I0705 13:14:17.537792  4737 net.cpp:400] drop6 -> fc6_clean (in-place)
I0705 13:14:17.537829  4737 net.cpp:153] Setting up drop6
I0705 13:14:17.537837  4737 net.cpp:160] Top shape: 200 4096 (819200)
I0705 13:14:17.537842  4737 net.cpp:168] Memory required for data: 1653219200
I0705 13:14:17.537847  4737 layer_factory.hpp:76] Creating layer fc7_clean
I0705 13:14:17.537859  4737 net.cpp:109] Creating Layer fc7_clean
I0705 13:14:17.537864  4737 net.cpp:457] fc7_clean <- fc6_clean
I0705 13:14:17.537871  4737 net.cpp:414] fc7_clean -> fc7_clean
I0705 13:14:18.179311  4737 net.cpp:153] Setting up fc7_clean
I0705 13:14:18.179353  4737 net.cpp:160] Top shape: 200 4096 (819200)
I0705 13:14:18.179359  4737 net.cpp:168] Memory required for data: 1656496000
I0705 13:14:18.179373  4737 layer_factory.hpp:76] Creating layer relu7
I0705 13:14:18.179388  4737 net.cpp:109] Creating Layer relu7
I0705 13:14:18.179394  4737 net.cpp:457] relu7 <- fc7_clean
I0705 13:14:18.179405  4737 net.cpp:400] relu7 -> fc7_clean (in-place)
I0705 13:14:18.179421  4737 net.cpp:153] Setting up relu7
I0705 13:14:18.179427  4737 net.cpp:160] Top shape: 200 4096 (819200)
I0705 13:14:18.179432  4737 net.cpp:168] Memory required for data: 1659772800
I0705 13:14:18.179436  4737 layer_factory.hpp:76] Creating layer drop7
I0705 13:14:18.179446  4737 net.cpp:109] Creating Layer drop7
I0705 13:14:18.179451  4737 net.cpp:457] drop7 <- fc7_clean
I0705 13:14:18.179457  4737 net.cpp:400] drop7 -> fc7_clean (in-place)
I0705 13:14:18.179538  4737 net.cpp:153] Setting up drop7
I0705 13:14:18.179548  4737 net.cpp:160] Top shape: 200 4096 (819200)
I0705 13:14:18.179553  4737 net.cpp:168] Memory required for data: 1663049600
I0705 13:14:18.179558  4737 layer_factory.hpp:76] Creating layer fc8_clean
I0705 13:14:18.179569  4737 net.cpp:109] Creating Layer fc8_clean
I0705 13:14:18.179574  4737 net.cpp:457] fc8_clean <- fc7_clean
I0705 13:14:18.179581  4737 net.cpp:414] fc8_clean -> fc8_clean
I0705 13:14:18.327534  4737 net.cpp:153] Setting up fc8_clean
I0705 13:14:18.327550  4737 net.cpp:160] Top shape: 200 967 (193400)
I0705 13:14:18.327555  4737 net.cpp:168] Memory required for data: 1663823200
I0705 13:14:18.327564  4737 layer_factory.hpp:76] Creating layer loss
I0705 13:14:18.327585  4737 net.cpp:109] Creating Layer loss
I0705 13:14:18.327590  4737 net.cpp:457] loss <- fc8_clean
I0705 13:14:18.327597  4737 net.cpp:457] loss <- label
I0705 13:14:18.327605  4737 net.cpp:414] loss -> loss
I0705 13:14:18.327616  4737 layer_factory.hpp:76] Creating layer loss
…
I0705 13:14:18.329430  4737 net.cpp:325] The NetState phase (1) differed from the phase (0) specified by a rule in layer train-data
I0705 13:14:18.329649  4737 net.cpp:52] Initializing net from parameters:
state {
phase: TEST
}
layer {
name: "val-data"
type: "Data"
top: "data"
top: "label"
include {
phase: TEST
}
transform_param {
crop_size: 227
mean_file: "/home/zml374/workspace/DIGITS/digits/jobs/20160704-085910-0cc9/mean.binaryproto"
}
data_param {
source: "/home/zml374/workspace/DIGITS/digits/jobs/20160704-085910-0cc9/val_db"
batch_size: 200
backend: LMDB
}
}
layer {
name: "conv1"
type: "Convolution"
bottom: "data"
top: "conv1"
param {
lr_mult: 0
decay_mult: 0
}
param {
lr_mult: 0
decay_mult: 0
}
convolution_param {
num_output: 96
kernel_size: 11
stride: 4
weight_filler {
type: "gaussian"
std: 0.01
}
bias_filler {
type: "constant"
value: 0
}
}
}
layer {
name: "relu1"
type: "ReLU"
bottom: "conv1"
top: "conv1"
}
layer {
name: "norm1"
type: "LRN"
bottom: "conv1"
top: "norm1"
lrn_param {
local_size: 5
alpha: 0.0001
beta: 0.75
}
}
layer {
name: "pool1"
type: "Pooling"
bottom: "norm1"
top: "pool1"
pooling_param {
pool: MAX
kernel_size: 3
stride: 2
}
}
layer {
name: "conv2"
type: "Convolution"
bottom: "pool1"
top: "conv2"
param {
lr_mult: 0
decay_mult: 0
}
param {
lr_mult: 0
decay_mult: 0
}
convolution_param {
num_output: 256
pad: 2
kernel_size: 5
group: 2
weight_filler {
type: "gaussian"
std: 0.01
}
bias_filler {
type: "constant"
value: 0.1
}
}
}
layer {
name: "relu2"
type: "ReLU"
bottom: "conv2"
top: "conv2"
}
layer {
name: "norm2"
type: "LRN"
bottom: "conv2"
top: "norm2"
lrn_param {
local_size: 5
alpha: 0.0001
beta: 0.75
}
}
layer {
name: "pool2"
type: "Pooling"
bottom: "norm2"
top: "pool2"
pooling_param {
pool: MAX
kernel_size: 3
stride: 2
}
}
layer {
name: "conv3"
type: "Convolution"
bottom: "pool2"
top: "conv3"
param {
lr_mult: 0
decay_mult: 0
}
param {
lr_mult: 0
decay_mult: 0
}
convolution_param {
num_output: 384
pad: 1
kernel_size: 3
weight_filler {
type: "gaussian"
std: 0.01
}
bias_filler {
type: "constant"
value: 0
}
}
}
layer {
name: "relu3"
type: "ReLU"
bottom: "conv3"
top: "conv3"
}
layer {
name: "conv4"
type: "Convolution"
bottom: "conv3"
top: "conv4"
param {
lr_mult: 0
decay_mult: 0
}
param {
lr_mult: 0
decay_mult: 0
}
convolution_param {
num_output: 384
pad: 1
kernel_size: 3
group: 2
weight_filler {
type: "gaussian"
std: 0.01
}
bias_filler {
type: "constant"
value: 0.1
}
}
}
layer {
name: "relu4"
type: "ReLU"
bottom: "conv4"
top: "conv4"
}
layer {
name: "conv5_clean"
type: "Convolution"
bottom: "conv4"
top: "conv5_clean"
param {
lr_mult: 1
decay_mult: 1
}
param {
lr_mult: 2
decay_mult: 0
}
convolution_param {
num_output: 256
pad: 1
kernel_size: 3
group: 2
weight_filler {
type: "gaussian"
std: 0.01
}
bias_filler {
type: "constant"
value: 0.1
}
}
}
layer {
name: "relu5"
type: "ReLU"
bottom: "conv5_clean"
top: "conv5_clean"
}
layer {
name: "pool5"
type: "Pooling"
bottom: "conv5_clean"
top: "pool5"
pooling_param {
pool: MAX
kernel_size: 3
stride: 2
}
}
layer {
name: "fc6_clean"
type: "InnerProduct"
bottom: "pool5"
top: "fc6_clean"
param {
lr_mult: 1
decay_mult: 1
}
param {
lr_mult: 2
decay_mult: 0
}
inner_product_param {
num_output: 4096
weight_filler {
type: "gaussian"
std: 0.005
}
bias_filler {
type: "constant"
value: 0.1
}
}
}
layer {
name: "relu6"
type: "ReLU"
bottom: "fc6_clean"
top: "fc6_clean"
}
layer {
name: "drop6"
type: "Dropout"
bottom: "fc6_clean"
top: "fc6_clean"
dropout_param {
dropout_ratio: 0.5
}
}
layer {
name: "fc7_clean"
type: "InnerProduct"
bottom: "fc6_clean"
top: "fc7_clean"
param {
lr_mult: 1
decay_mult: 1
}
param {
lr_mult: 2
decay_mult: 0
}
inner_product_param {
num_output: 4096
weight_filler {
type: "gaussian"
std: 0.005
}
bias_filler {
type: "constant"
value: 0.1
}
}
}
layer {
name: "relu7"
type: "ReLU"
bottom: "fc7_clean"
top: "fc7_clean"
}
layer {
name: "drop7"
type: "Dropout"
bottom: "fc7_clean"
top: "fc7_clean"
dropout_param {
dropout_ratio: 0.5
}
}
layer {
name: "fc8_clean"
type: "InnerProduct"
bottom: "fc7_clean"
top: "fc8_clean"
param {
lr_mult: 1
decay_mult: 1
}
param {
lr_mult: 2
decay_mult: 0
}
inner_product_param {
num_output: 967
weight_filler {
type: "gaussian"
std: 0.01
}
bias_filler {
type: "constant"
value: 0
}
}
}
layer {
name: "accuracy"
type: "Accuracy"
bottom: "fc8_clean"
bottom: "label"
top: "accuracy"
include {
phase: TEST
}
}
layer {
name: "loss"
type: "SoftmaxWithLoss"
bottom: "fc8_clean"
bottom: "label"
top: "loss"
}
I0705 13:14:18.329795  4737 layer_factory.hpp:76] Creating layer val-data
I0705 13:14:18.330018  4737 net.cpp:109] Creating Layer val-data
I0705 13:14:18.330031  4737 net.cpp:414] val-data -> data
I0705 13:14:18.330044  4737 net.cpp:414] val-data -> label
I0705 13:14:18.330054  4737 data_transformer.cpp:25] Loading mean file from: /home/zml374/workspace/DIGITS/digits/jobs/20160704-085910-0cc9/mean.binaryproto
I0705 13:14:18.331723  4768 db_lmdb.cpp:36] Opened lmdb /home/zml374/workspace/DIGITS/digits/jobs/20160704-085910-0cc9/val_db
I0705 13:14:18.336405  4737 data_layer.cpp:45] output data size: 200,3,227,227
I0705 13:14:18.612864  4737 net.cpp:153] Setting up val-data
I0705 13:14:18.612926  4737 net.cpp:160] Top shape: 200 3 227 227 (30917400)
I0705 13:14:18.612936  4737 net.cpp:160] Top shape: 200 (200)
I0705 13:14:18.612939  4737 net.cpp:168] Memory required for data: 123670400
I0705 13:14:18.612948  4737 layer_factory.hpp:76] Creating layer label_val-data_1_split
I0705 13:14:18.612967  4737 net.cpp:109] Creating Layer label_val-data_1_split
I0705 13:14:18.612972  4737 net.cpp:457] label_val-data_1_split <- label
I0705 13:14:18.612983  4737 net.cpp:414] label_val-data_1_split -> label_val-data_1_split_0
I0705 13:14:18.612996  4737 net.cpp:414] label_val-data_1_split -> label_val-data_1_split_1
I0705 13:14:18.613107  4737 net.cpp:153] Setting up label_val-data_1_split
I0705 13:14:18.613119  4737 net.cpp:160] Top shape: 200 (200)
I0705 13:14:18.613126  4737 net.cpp:160] Top shape: 200 (200)
I0705 13:14:18.613129  4737 net.cpp:168] Memory required for data: 123672000
I0705 13:14:18.613135  4737 layer_factory.hpp:76] Creating layer conv1
I0705 13:14:18.613152  4737 net.cpp:109] Creating Layer conv1
I0705 13:14:18.613157  4737 net.cpp:457] conv1 <- data
I0705 13:14:18.613165  4737 net.cpp:414] conv1 -> conv1
I0705 13:14:18.614815  4737 net.cpp:153] Setting up conv1
I0705 13:14:18.614830  4737 net.cpp:160] Top shape: 200 96 55 55 (58080000)
I0705 13:14:18.614835  4737 net.cpp:168] Memory required for data: 355992000
I0705 13:14:18.614850  4737 layer_factory.hpp:76] Creating layer relu1
I0705 13:14:18.614861  4737 net.cpp:109] Creating Layer relu1
I0705 13:14:18.614866  4737 net.cpp:457] relu1 <- conv1
I0705 13:14:18.614874  4737 net.cpp:400] relu1 -> conv1 (in-place)
I0705 13:14:18.614884  4737 net.cpp:153] Setting up relu1
I0705 13:14:18.614891  4737 net.cpp:160] Top shape: 200 96 55 55 (58080000)
I0705 13:14:18.614895  4737 net.cpp:168] Memory required for data: 588312000
I0705 13:14:18.614899  4737 layer_factory.hpp:76] Creating layer norm1
I0705 13:14:18.614912  4737 net.cpp:109] Creating Layer norm1
I0705 13:14:18.614917  4737 net.cpp:457] norm1 <- conv1
I0705 13:14:18.614925  4737 net.cpp:414] norm1 -> norm1
I0705 13:14:18.614972  4737 net.cpp:153] Setting up norm1
I0705 13:14:18.614981  4737 net.cpp:160] Top shape: 200 96 55 55 (58080000)
I0705 13:14:18.614985  4737 net.cpp:168] Memory required for data: 820632000
I0705 13:14:18.614990  4737 layer_factory.hpp:76] Creating layer pool1
I0705 13:14:18.615001  4737 net.cpp:109] Creating Layer pool1
I0705 13:14:18.615006  4737 net.cpp:457] pool1 <- norm1
I0705 13:14:18.615015  4737 net.cpp:414] pool1 -> pool1
I0705 13:14:18.615058  4737 net.cpp:153] Setting up pool1
I0705 13:14:18.615067  4737 net.cpp:160] Top shape: 200 96 27 27 (13996800)
I0705 13:14:18.615070  4737 net.cpp:168] Memory required for data: 876619200
I0705 13:14:18.615116  4737 layer_factory.hpp:76] Creating layer conv2
I0705 13:14:18.615129  4737 net.cpp:109] Creating Layer conv2
I0705 13:14:18.615134  4737 net.cpp:457] conv2 <- pool1
I0705 13:14:18.615144  4737 net.cpp:414] conv2 -> conv2
I0705 13:14:18.629081  4737 net.cpp:153] Setting up conv2
I0705 13:14:18.629099  4737 net.cpp:160] Top shape: 200 256 27 27 (37324800)
I0705 13:14:18.629104  4737 net.cpp:168] Memory required for data: 1025918400
I0705 13:14:18.629117  4737 layer_factory.hpp:76] Creating layer relu2
I0705 13:14:18.629127  4737 net.cpp:109] Creating Layer relu2
I0705 13:14:18.629133  4737 net.cpp:457] relu2 <- conv2
I0705 13:14:18.629140  4737 net.cpp:400] relu2 -> conv2 (in-place)
I0705 13:14:18.629150  4737 net.cpp:153] Setting up relu2
I0705 13:14:18.629156  4737 net.cpp:160] Top shape: 200 256 27 27 (37324800)
I0705 13:14:18.629160  4737 net.cpp:168] Memory required for data: 1175217600
I0705 13:14:18.629165  4737 layer_factory.hpp:76] Creating layer norm2
I0705 13:14:18.629175  4737 net.cpp:109] Creating Layer norm2
I0705 13:14:18.629180  4737 net.cpp:457] norm2 <- conv2
I0705 13:14:18.629187  4737 net.cpp:414] norm2 -> norm2
I0705 13:14:18.629240  4737 net.cpp:153] Setting up norm2
I0705 13:14:18.629250  4737 net.cpp:160] Top shape: 200 256 27 27 (37324800)
I0705 13:14:18.629256  4737 net.cpp:168] Memory required for data: 1324516800
I0705 13:14:18.629259  4737 layer_factory.hpp:76] Creating layer pool2
I0705 13:14:18.629269  4737 net.cpp:109] Creating Layer pool2
I0705 13:14:18.629274  4737 net.cpp:457] pool2 <- norm2
I0705 13:14:18.629281  4737 net.cpp:414] pool2 -> pool2
I0705 13:14:18.629323  4737 net.cpp:153] Setting up pool2
I0705 13:14:18.629331  4737 net.cpp:160] Top shape: 200 256 13 13 (8652800)
I0705 13:14:18.629335  4737 net.cpp:168] Memory required for data: 1359128000
I0705 13:14:18.629340  4737 layer_factory.hpp:76] Creating layer conv3
I0705 13:14:18.629351  4737 net.cpp:109] Creating Layer conv3
I0705 13:14:18.629356  4737 net.cpp:457] conv3 <- pool2
I0705 13:14:18.629364  4737 net.cpp:414] conv3 -> conv3
I0705 13:14:18.662966  4737 net.cpp:153] Setting up conv3
I0705 13:14:18.662981  4737 net.cpp:160] Top shape: 200 384 13 13 (12979200)
I0705 13:14:18.662986  4737 net.cpp:168] Memory required for data: 1411044800
I0705 13:14:18.662997  4737 layer_factory.hpp:76] Creating layer relu3
I0705 13:14:18.663007  4737 net.cpp:109] Creating Layer relu3
I0705 13:14:18.663012  4737 net.cpp:457] relu3 <- conv3
I0705 13:14:18.663020  4737 net.cpp:400] relu3 -> conv3 (in-place)
I0705 13:14:18.663029  4737 net.cpp:153] Setting up relu3
I0705 13:14:18.663035  4737 net.cpp:160] Top shape: 200 384 13 13 (12979200)
I0705 13:14:18.663040  4737 net.cpp:168] Memory required for data: 1462961600
I0705 13:14:18.663044  4737 layer_factory.hpp:76] Creating layer conv4
I0705 13:14:18.663054  4737 net.cpp:109] Creating Layer conv4
I0705 13:14:18.663058  4737 net.cpp:457] conv4 <- conv3
I0705 13:14:18.663066  4737 net.cpp:414] conv4 -> conv4
I0705 13:14:18.688334  4737 net.cpp:153] Setting up conv4
I0705 13:14:18.688349  4737 net.cpp:160] Top shape: 200 384 13 13 (12979200)
I0705 13:14:18.688354  4737 net.cpp:168] Memory required for data: 1514878400
I0705 13:14:18.688364  4737 layer_factory.hpp:76] Creating layer relu4
I0705 13:14:18.688372  4737 net.cpp:109] Creating Layer relu4
I0705 13:14:18.688377  4737 net.cpp:457] relu4 <- conv4
I0705 13:14:18.688385  4737 net.cpp:400] relu4 -> conv4 (in-place)
I0705 13:14:18.688393  4737 net.cpp:153] Setting up relu4
I0705 13:14:18.688400  4737 net.cpp:160] Top shape: 200 384 13 13 (12979200)
I0705 13:14:18.688405  4737 net.cpp:168] Memory required for data: 1566795200
I0705 13:14:18.688410  4737 layer_factory.hpp:76] Creating layer conv5_clean
I0705 13:14:18.688419  4737 net.cpp:109] Creating Layer conv5_clean
I0705 13:14:18.688424  4737 net.cpp:457] conv5_clean <- conv4
I0705 13:14:18.688432  4737 net.cpp:414] conv5_clean -> conv5_clean
I0705 13:14:18.705598  4737 net.cpp:153] Setting up conv5_clean
I0705 13:14:18.705633  4737 net.cpp:160] Top shape: 200 256 13 13 (8652800)
I0705 13:14:18.705639  4737 net.cpp:168] Memory required for data: 1601406400
I0705 13:14:18.705651  4737 layer_factory.hpp:76] Creating layer relu5
I0705 13:14:18.705660  4737 net.cpp:109] Creating Layer relu5
I0705 13:14:18.705665  4737 net.cpp:457] relu5 <- conv5_clean
I0705 13:14:18.705673  4737 net.cpp:400] relu5 -> conv5_clean (in-place)
I0705 13:14:18.705683  4737 net.cpp:153] Setting up relu5
I0705 13:14:18.705689  4737 net.cpp:160] Top shape: 200 256 13 13 (8652800)
I0705 13:14:18.705693  4737 net.cpp:168] Memory required for data: 1636017600
I0705 13:14:18.705698  4737 layer_factory.hpp:76] Creating layer pool5
I0705 13:14:18.705708  4737 net.cpp:109] Creating Layer pool5
I0705 13:14:18.705713  4737 net.cpp:457] pool5 <- conv5_clean
I0705 13:14:18.705720  4737 net.cpp:414] pool5 -> pool5
I0705 13:14:18.705770  4737 net.cpp:153] Setting up pool5
I0705 13:14:18.705778  4737 net.cpp:160] Top shape: 200 256 6 6 (1843200)
I0705 13:14:18.705782  4737 net.cpp:168] Memory required for data: 1643390400
I0705 13:14:18.705786  4737 layer_factory.hpp:76] Creating layer fc6_clean
I0705 13:14:18.705798  4737 net.cpp:109] Creating Layer fc6_clean
I0705 13:14:18.705806  4737 net.cpp:457] fc6_clean <- pool5
I0705 13:14:18.705816  4737 net.cpp:414] fc6_clean -> fc6_clean
I0705 13:14:20.154777  4737 net.cpp:153] Setting up fc6_clean
I0705 13:14:20.154824  4737 net.cpp:160] Top shape: 200 4096 (819200)
I0705 13:14:20.154829  4737 net.cpp:168] Memory required for data: 1646667200
I0705 13:14:20.154842  4737 layer_factory.hpp:76] Creating layer relu6
I0705 13:14:20.154857  4737 net.cpp:109] Creating Layer relu6
I0705 13:14:20.154865  4737 net.cpp:457] relu6 <- fc6_clean
I0705 13:14:20.154877  4737 net.cpp:400] relu6 -> fc6_clean (in-place)
I0705 13:14:20.154893  4737 net.cpp:153] Setting up relu6
I0705 13:14:20.154899  4737 net.cpp:160] Top shape: 200 4096 (819200)
I0705 13:14:20.154904  4737 net.cpp:168] Memory required for data: 1649944000
I0705 13:14:20.154909  4737 layer_factory.hpp:76] Creating layer drop6
I0705 13:14:20.154919  4737 net.cpp:109] Creating Layer drop6
I0705 13:14:20.154924  4737 net.cpp:457] drop6 <- fc6_clean
I0705 13:14:20.154930  4737 net.cpp:400] drop6 -> fc6_clean (in-place)
I0705 13:14:20.154968  4737 net.cpp:153] Setting up drop6
I0705 13:14:20.154975  4737 net.cpp:160] Top shape: 200 4096 (819200)
I0705 13:14:20.154979  4737 net.cpp:168] Memory required for data: 1653220800
I0705 13:14:20.154984  4737 layer_factory.hpp:76] Creating layer fc7_clean
I0705 13:14:20.154997  4737 net.cpp:109] Creating Layer fc7_clean
I0705 13:14:20.155002  4737 net.cpp:457] fc7_clean <- fc6_clean
I0705 13:14:20.155011  4737 net.cpp:414] fc7_clean -> fc7_clean
I0705 13:14:20.799876  4737 net.cpp:153] Setting up fc7_clean
I0705 13:14:20.799921  4737 net.cpp:160] Top shape: 200 4096 (819200)
I0705 13:14:20.799927  4737 net.cpp:168] Memory required for data: 1656497600
I0705 13:14:20.799942  4737 layer_factory.hpp:76] Creating layer relu7
I0705 13:14:20.799957  4737 net.cpp:109] Creating Layer relu7
I0705 13:14:20.799964  4737 net.cpp:457] relu7 <- fc7_clean
I0705 13:14:20.799976  4737 net.cpp:400] relu7 -> fc7_clean (in-place)
I0705 13:14:20.799993  4737 net.cpp:153] Setting up relu7
I0705 13:14:20.799999  4737 net.cpp:160] Top shape: 200 4096 (819200)
I0705 13:14:20.800004  4737 net.cpp:168] Memory required for data: 1659774400
I0705 13:14:20.800009  4737 layer_factory.hpp:76] Creating layer drop7
I0705 13:14:20.800019  4737 net.cpp:109] Creating Layer drop7
I0705 13:14:20.800024  4737 net.cpp:457] drop7 <- fc7_clean
I0705 13:14:20.800030  4737 net.cpp:400] drop7 -> fc7_clean (in-place)
I0705 13:14:20.800071  4737 net.cpp:153] Setting up drop7
I0705 13:14:20.800079  4737 net.cpp:160] Top shape: 200 4096 (819200)
I0705 13:14:20.800083  4737 net.cpp:168] Memory required for data: 1663051200
I0705 13:14:20.800088  4737 layer_factory.hpp:76] Creating layer fc8_clean
I0705 13:14:20.800099  4737 net.cpp:109] Creating Layer fc8_clean
I0705 13:14:20.800104  4737 net.cpp:457] fc8_clean <- fc7_clean
I0705 13:14:20.800155  4737 net.cpp:414] fc8_clean -> fc8_clean
I0705 13:14:20.948489  4737 net.cpp:153] Setting up fc8_clean
I0705 13:14:20.948508  4737 net.cpp:160] Top shape: 200 967 (193400)
I0705 13:14:20.948513  4737 net.cpp:168] Memory required for data: 1663824800
I0705 13:14:20.948521  4737 layer_factory.hpp:76] Creating layer fc8_clean_fc8_clean_0_split
I0705 13:14:20.948532  4737 net.cpp:109] Creating Layer fc8_clean_fc8_clean_0_split
I0705 13:14:20.948537  4737 net.cpp:457] fc8_clean_fc8_clean_0_split <- fc8_clean
I0705 13:14:20.948545  4737 net.cpp:414] fc8_clean_fc8_clean_0_split -> fc8_clean_fc8_clean_0_split_0
I0705 13:14:20.948554  4737 net.cpp:414] fc8_clean_fc8_clean_0_split -> fc8_clean_fc8_clean_0_split_1
I0705 13:14:20.948602  4737 net.cpp:153] Setting up fc8_clean_fc8_clean_0_split
I0705 13:14:20.948611  4737 net.cpp:160] Top shape: 200 967 (193400)
I0705 13:14:20.948617  4737 net.cpp:160] Top shape: 200 967 (193400)
I0705 13:14:20.948621  4737 net.cpp:168] Memory required for data: 1665372000
I0705 13:14:20.948626  4737 layer_factory.hpp:76] Creating layer accuracy
I0705 13:14:20.948637  4737 net.cpp:109] Creating Layer accuracy
I0705 13:14:20.948642  4737 net.cpp:457] accuracy <- fc8_clean_fc8_clean_0_split_0
I0705 13:14:20.948647  4737 net.cpp:457] accuracy <- label_val-data_1_split_0
I0705 13:14:20.948655  4737 net.cpp:414] accuracy -> accuracy
…
