…
I0705 22:46:02.615417 15248 net.cpp:52] Initializing net from parameters:
state {
phase: TRAIN
}
layer {
name: "data"
type: "Data"
top: "data"
include {
phase: TRAIN
}
transform_param {
mean_file: "/home/ffw/scratch/plantClef/scatnet_output/train/a4_m3_s1s2s4_f2/lmdb_mean_coeff.binaryproto"
}
data_param {
source: "/home/ffw/scratch/plantClef/scatnet_output/train/a4_m3_s1s2s4_f2/lmdb_data"
batch_size: 32
backend: LMDB
}
}
layer {
name: "label"
type: "Data"
top: "label"
include {
phase: TRAIN
}
data_param {
source: "/home/ffw/scratch/plantClef/scatnet_output/train/a4_m3_s1s2s4_f2/lmdb_labels"
batch_size: 32
backend: LMDB
}
}
layer {
name: "pool1"
type: "Pooling"
bottom: "data"
top: "pool1"
pooling_param {
pool: MAX
kernel_size: 3
stride: 2
}
}
layer {
name: "conv3"
type: "Convolution"
bottom: "pool1"
top: "conv3"
param {
lr_mult: 1
decay_mult: 1
}
param {
lr_mult: 2
decay_mult: 0
}
convolution_param {
num_output: 384
pad: 1
kernel_size: 3
weight_filler {
type: "gaussian"
std: 0.01
}
bias_filler {
type: "constant"
value: 0
}
}
}
layer {
name: "relu3"
type: "ReLU"
bottom: "conv3"
top: "conv3"
}
layer {
name: "conv4"
type: "Convolution"
bottom: "conv3"
top: "conv4"
param {
lr_mult: 1
decay_mult: 1
}
param {
lr_mult: 2
decay_mult: 0
}
convolution_param {
num_output: 384
pad: 1
kernel_size: 3
group: 2
weight_filler {
type: "gaussian"
std: 0.01
}
bias_filler {
type: "constant"
value: 0.1
}
}
}
layer {
name: "relu4"
type: "ReLU"
bottom: "conv4"
top: "conv4"
}
layer {
name: "conv5"
type: "Convolution"
bottom: "conv4"
top: "conv5"
param {
lr_mult: 1
decay_mult: 1
}
param {
lr_mult: 2
decay_mult: 0
}
convolution_param {
num_output: 256
pad: 1
kernel_size: 3
group: 1
weight_filler {
type: "gaussian"
std: 0.01
}
bias_filler {
type: "constant"
value: 0.1
}
}
}
layer {
name: "relu5"
type: "ReLU"
bottom: "conv5"
top: "conv5"
}
layer {
name: "pool5"
type: "Pooling"
bottom: "conv5"
top: "pool5"
pooling_param {
pool: MAX
kernel_size: 3
stride: 2
}
}
layer {
name: "fc6"
type: "InnerProduct"
bottom: "pool5"
top: "fc6"
param {
lr_mult: 1
decay_mult: 1
}
param {
lr_mult: 2
decay_mult: 0
}
inner_product_param {
num_output: 4096
weight_filler {
type: "gaussian"
std: 0.005
}
bias_filler {
type: "constant"
value: 0.1
}
}
}
layer {
name: "relu6"
type: "ReLU"
bottom: "fc6"
top: "fc6"
}
layer {
name: "drop6"
type: "Dropout"
bottom: "fc6"
top: "fc6"
dropout_param {
dropout_ratio: 0.5
}
}
layer {
name: "fc7"
type: "InnerProduct"
bottom: "fc6"
top: "fc7"
param {
lr_mult: 1
decay_mult: 1
}
param {
lr_mult: 2
decay_mult: 0
}
inner_product_param {
num_output: 4096
weight_filler {
type: "gaussian"
std: 0.005
}
bias_filler {
type: "constant"
value: 0.1
}
}
}
layer {
name: "relu7"
type: "ReLU"
bottom: "fc7"
top: "fc7"
}
layer {
name: "drop7"
type: "Dropout"
bottom: "fc7"
top: "fc7"
dropout_param {
dropout_ratio: 0.5
}
}
layer {
name: "fc8_species"
type: "InnerProduct"
bottom: "fc7"
top: "fc8_species"
param {
lr_mult: 1
decay_mult: 1
}
param {
lr_mult: 2
decay_mult: 0
}
inner_product_param {
num_output: 967
weight_filler {
type: "gaussian"
std: 0.005
}
bias_filler {
type: "constant"
value: 0.1
}
}
}
layer {
name: "loss"
type: "SoftmaxWithLoss"
bottom: "fc8_species"
bottom: "label"
top: "loss"
}
I0705 22:46:02.615471 15248 layer_factory.hpp:76] Creating layer data
I0705 22:46:02.615535 15248 net.cpp:109] Creating Layer data
I0705 22:46:02.615540 15248 net.cpp:414] data -> data
I0705 22:46:02.615556 15248 data_transformer.cpp:25] Loading mean file from: /home/ffw/scratch/plantClef/scatnet_output/train/a4_m3_s1s2s4_f2/lmdb_mean_coeff.binaryproto
I0705 22:46:02.619539 15260 db_lmdb.cpp:36] Opened lmdb /home/ffw/scratch/plantClef/scatnet_output/train/a4_m3_s1s2s4_f2/lmdb_data
I0705 22:46:02.633550 15248 data_layer.cpp:45] output data size: 32,375,47,47
I0705 22:46:02.744109 15248 net.cpp:153] Setting up data
I0705 22:46:02.744132 15248 net.cpp:160] Top shape: 32 375 47 47 (26508000)
I0705 22:46:02.744135 15248 net.cpp:168] Memory required for data: 106032000
I0705 22:46:02.744141 15248 layer_factory.hpp:76] Creating layer label
I0705 22:46:02.744177 15248 net.cpp:109] Creating Layer label
I0705 22:46:02.744181 15248 net.cpp:414] label -> label
I0705 22:46:02.748575 15262 db_lmdb.cpp:36] Opened lmdb /home/ffw/scratch/plantClef/scatnet_output/train/a4_m3_s1s2s4_f2/lmdb_labels
I0705 22:46:02.754408 15248 data_layer.cpp:45] output data size: 32,1,1,1
I0705 22:46:02.754659 15248 net.cpp:153] Setting up label
I0705 22:46:02.754667 15248 net.cpp:160] Top shape: 32 1 1 1 (32)
I0705 22:46:02.754669 15248 net.cpp:168] Memory required for data: 106032128
I0705 22:46:02.754673 15248 layer_factory.hpp:76] Creating layer pool1
I0705 22:46:02.754683 15248 net.cpp:109] Creating Layer pool1
I0705 22:46:02.754684 15248 net.cpp:457] pool1 <- data
I0705 22:46:02.754693 15248 net.cpp:414] pool1 -> pool1
I0705 22:46:02.754760 15248 net.cpp:153] Setting up pool1
I0705 22:46:02.754765 15248 net.cpp:160] Top shape: 32 375 23 23 (6348000)
I0705 22:46:02.754766 15248 net.cpp:168] Memory required for data: 131424128
I0705 22:46:02.754768 15248 layer_factory.hpp:76] Creating layer conv3
I0705 22:46:02.754775 15248 net.cpp:109] Creating Layer conv3
I0705 22:46:02.754776 15248 net.cpp:457] conv3 <- pool1
I0705 22:46:02.754779 15248 net.cpp:414] conv3 -> conv3
I0705 22:46:02.780586 15248 net.cpp:153] Setting up conv3
I0705 22:46:02.780613 15248 net.cpp:160] Top shape: 32 384 23 23 (6500352)
I0705 22:46:02.780616 15248 net.cpp:168] Memory required for data: 157425536
I0705 22:46:02.780628 15248 layer_factory.hpp:76] Creating layer relu3
I0705 22:46:02.780639 15248 net.cpp:109] Creating Layer relu3
I0705 22:46:02.780643 15248 net.cpp:457] relu3 <- conv3
I0705 22:46:02.780647 15248 net.cpp:400] relu3 -> conv3 (in-place)
I0705 22:46:02.780664 15248 net.cpp:153] Setting up relu3
I0705 22:46:02.780666 15248 net.cpp:160] Top shape: 32 384 23 23 (6500352)
I0705 22:46:02.780668 15248 net.cpp:168] Memory required for data: 183426944
I0705 22:46:02.780670 15248 layer_factory.hpp:76] Creating layer conv4
I0705 22:46:02.780676 15248 net.cpp:109] Creating Layer conv4
I0705 22:46:02.780678 15248 net.cpp:457] conv4 <- conv3
I0705 22:46:02.780680 15248 net.cpp:414] conv4 -> conv4
I0705 22:46:02.793722 15248 net.cpp:153] Setting up conv4
I0705 22:46:02.793737 15248 net.cpp:160] Top shape: 32 384 23 23 (6500352)
I0705 22:46:02.793740 15248 net.cpp:168] Memory required for data: 209428352
I0705 22:46:02.793747 15248 layer_factory.hpp:76] Creating layer relu4
I0705 22:46:02.793753 15248 net.cpp:109] Creating Layer relu4
I0705 22:46:02.793756 15248 net.cpp:457] relu4 <- conv4
I0705 22:46:02.793761 15248 net.cpp:400] relu4 -> conv4 (in-place)
I0705 22:46:02.793781 15248 net.cpp:153] Setting up relu4
I0705 22:46:02.793784 15248 net.cpp:160] Top shape: 32 384 23 23 (6500352)
I0705 22:46:02.793786 15248 net.cpp:168] Memory required for data: 235429760
I0705 22:46:02.793787 15248 layer_factory.hpp:76] Creating layer conv5
I0705 22:46:02.793792 15248 net.cpp:109] Creating Layer conv5
I0705 22:46:02.793794 15248 net.cpp:457] conv5 <- conv4
I0705 22:46:02.793797 15248 net.cpp:414] conv5 -> conv5
I0705 22:46:02.811118 15248 net.cpp:153] Setting up conv5
I0705 22:46:02.811134 15248 net.cpp:160] Top shape: 32 256 23 23 (4333568)
I0705 22:46:02.811136 15248 net.cpp:168] Memory required for data: 252764032
I0705 22:46:02.811144 15248 layer_factory.hpp:76] Creating layer relu5
I0705 22:46:02.811151 15248 net.cpp:109] Creating Layer relu5
I0705 22:46:02.811154 15248 net.cpp:457] relu5 <- conv5
I0705 22:46:02.811158 15248 net.cpp:400] relu5 -> conv5 (in-place)
I0705 22:46:02.811163 15248 net.cpp:153] Setting up relu5
I0705 22:46:02.811166 15248 net.cpp:160] Top shape: 32 256 23 23 (4333568)
I0705 22:46:02.811167 15248 net.cpp:168] Memory required for data: 270098304
I0705 22:46:02.811169 15248 layer_factory.hpp:76] Creating layer pool5
I0705 22:46:02.811173 15248 net.cpp:109] Creating Layer pool5
I0705 22:46:02.811174 15248 net.cpp:457] pool5 <- conv5
I0705 22:46:02.811177 15248 net.cpp:414] pool5 -> pool5
I0705 22:46:02.811197 15248 net.cpp:153] Setting up pool5
I0705 22:46:02.811199 15248 net.cpp:160] Top shape: 32 256 11 11 (991232)
I0705 22:46:02.811202 15248 net.cpp:168] Memory required for data: 274063232
I0705 22:46:02.811203 15248 layer_factory.hpp:76] Creating layer fc6
I0705 22:46:02.811208 15248 net.cpp:109] Creating Layer fc6
I0705 22:46:02.811209 15248 net.cpp:457] fc6 <- pool5
I0705 22:46:02.811213 15248 net.cpp:414] fc6 -> fc6
I0705 22:46:05.151968 15248 net.cpp:153] Setting up fc6
I0705 22:46:05.151984 15248 net.cpp:160] Top shape: 32 4096 (131072)
I0705 22:46:05.151988 15248 net.cpp:168] Memory required for data: 274587520
I0705 22:46:05.151993 15248 layer_factory.hpp:76] Creating layer relu6
I0705 22:46:05.151999 15248 net.cpp:109] Creating Layer relu6
I0705 22:46:05.152003 15248 net.cpp:457] relu6 <- fc6
I0705 22:46:05.152006 15248 net.cpp:400] relu6 -> fc6 (in-place)
I0705 22:46:05.152012 15248 net.cpp:153] Setting up relu6
I0705 22:46:05.152014 15248 net.cpp:160] Top shape: 32 4096 (131072)
I0705 22:46:05.152016 15248 net.cpp:168] Memory required for data: 275111808
I0705 22:46:05.152019 15248 layer_factory.hpp:76] Creating layer drop6
I0705 22:46:05.152026 15248 net.cpp:109] Creating Layer drop6
I0705 22:46:05.152027 15248 net.cpp:457] drop6 <- fc6
I0705 22:46:05.152030 15248 net.cpp:400] drop6 -> fc6 (in-place)
I0705 22:46:05.152045 15248 net.cpp:153] Setting up drop6
I0705 22:46:05.152047 15248 net.cpp:160] Top shape: 32 4096 (131072)
I0705 22:46:05.152050 15248 net.cpp:168] Memory required for data: 275636096
I0705 22:46:05.152050 15248 layer_factory.hpp:76] Creating layer fc7
I0705 22:46:05.152055 15248 net.cpp:109] Creating Layer fc7
I0705 22:46:05.152057 15248 net.cpp:457] fc7 <- fc6
I0705 22:46:05.152060 15248 net.cpp:414] fc7 -> fc7
I0705 22:46:05.454188 15248 net.cpp:153] Setting up fc7
I0705 22:46:05.454207 15248 net.cpp:160] Top shape: 32 4096 (131072)
I0705 22:46:05.454210 15248 net.cpp:168] Memory required for data: 276160384
I0705 22:46:05.454218 15248 layer_factory.hpp:76] Creating layer relu7
I0705 22:46:05.454226 15248 net.cpp:109] Creating Layer relu7
I0705 22:46:05.454227 15248 net.cpp:457] relu7 <- fc7
I0705 22:46:05.454231 15248 net.cpp:400] relu7 -> fc7 (in-place)
I0705 22:46:05.454237 15248 net.cpp:153] Setting up relu7
I0705 22:46:05.454241 15248 net.cpp:160] Top shape: 32 4096 (131072)
I0705 22:46:05.454241 15248 net.cpp:168] Memory required for data: 276684672
I0705 22:46:05.454243 15248 layer_factory.hpp:76] Creating layer drop7
I0705 22:46:05.454246 15248 net.cpp:109] Creating Layer drop7
I0705 22:46:05.454248 15248 net.cpp:457] drop7 <- fc7
I0705 22:46:05.454252 15248 net.cpp:400] drop7 -> fc7 (in-place)
I0705 22:46:05.454283 15248 net.cpp:153] Setting up drop7
I0705 22:46:05.454287 15248 net.cpp:160] Top shape: 32 4096 (131072)
I0705 22:46:05.454288 15248 net.cpp:168] Memory required for data: 277208960
I0705 22:46:05.454290 15248 layer_factory.hpp:76] Creating layer fc8_species
I0705 22:46:05.454295 15248 net.cpp:109] Creating Layer fc8_species
I0705 22:46:05.454298 15248 net.cpp:457] fc8_species <- fc7
I0705 22:46:05.454299 15248 net.cpp:414] fc8_species -> fc8_species
I0705 22:46:05.527094 15248 net.cpp:153] Setting up fc8_species
I0705 22:46:05.527112 15248 net.cpp:160] Top shape: 32 967 (30944)
I0705 22:46:05.527113 15248 net.cpp:168] Memory required for data: 277332736
I0705 22:46:05.527119 15248 layer_factory.hpp:76] Creating layer loss
I0705 22:46:05.527132 15248 net.cpp:109] Creating Layer loss
I0705 22:46:05.527134 15248 net.cpp:457] loss <- fc8_species
I0705 22:46:05.527137 15248 net.cpp:457] loss <- label
I0705 22:46:05.527142 15248 net.cpp:414] loss -> loss
I0705 22:46:05.527148 15248 layer_factory.hpp:76] Creating layer loss
…
I0705 22:46:05.528136 15248 net.cpp:52] Initializing net from parameters:
state {
phase: TEST
}
layer {
name: "data"
type: "Data"
top: "data"
include {
phase: TEST
}
transform_param {
mean_file: "/home/ffw/scratch/plantClef/scatnet_output/train/a4_m3_s1s2s4_f2/lmdb_mean_coeff.binaryproto"
}
data_param {
source: "/home/ffw/scratch/plantClef/scatnet_output/test/a4_m3_s1s2s4_f2/lmdb_data"
batch_size: 32
backend: LMDB
}
}
layer {
name: "label"
type: "Data"
top: "label"
include {
phase: TEST
}
data_param {
source: "/home/ffw/scratch/plantClef/scatnet_output/test/a4_m3_s1s2s4_f2/lmdb_labels"
batch_size: 32
backend: LMDB
}
}
layer {
name: "pool1"
type: "Pooling"
bottom: "data"
top: "pool1"
pooling_param {
pool: MAX
kernel_size: 3
stride: 2
}
}
layer {
name: "conv3"
type: "Convolution"
bottom: "pool1"
top: "conv3"
param {
lr_mult: 1
decay_mult: 1
}
param {
lr_mult: 2
decay_mult: 0
}
convolution_param {
num_output: 384
pad: 1
kernel_size: 3
weight_filler {
type: "gaussian"
std: 0.01
}
bias_filler {
type: "constant"
value: 0
}
}
}
layer {
name: "relu3"
type: "ReLU"
bottom: "conv3"
top: "conv3"
}
layer {
name: "conv4"
type: "Convolution"
bottom: "conv3"
top: "conv4"
param {
lr_mult: 1
decay_mult: 1
}
param {
lr_mult: 2
decay_mult: 0
}
convolution_param {
num_output: 384
pad: 1
kernel_size: 3
group: 2
weight_filler {
type: "gaussian"
std: 0.01
}
bias_filler {
type: "constant"
value: 0.1
}
}
}
layer {
name: "relu4"
type: "ReLU"
bottom: "conv4"
top: "conv4"
}
layer {
name: "conv5"
type: "Convolution"
bottom: "conv4"
top: "conv5"
param {
lr_mult: 1
decay_mult: 1
}
param {
lr_mult: 2
decay_mult: 0
}
convolution_param {
num_output: 256
pad: 1
kernel_size: 3
group: 1
weight_filler {
type: "gaussian"
std: 0.01
}
bias_filler {
type: "constant"
value: 0.1
}
}
}
layer {
name: "relu5"
type: "ReLU"
bottom: "conv5"
top: "conv5"
}
layer {
name: "pool5"
type: "Pooling"
bottom: "conv5"
top: "pool5"
pooling_param {
pool: MAX
kernel_size: 3
stride: 2
}
}
layer {
name: "fc6"
type: "InnerProduct"
bottom: "pool5"
top: "fc6"
param {
lr_mult: 1
decay_mult: 1
}
param {
lr_mult: 2
decay_mult: 0
}
inner_product_param {
num_output: 4096
weight_filler {
type: "gaussian"
std: 0.005
}
bias_filler {
type: "constant"
value: 0.1
}
}
}
layer {
name: "relu6"
type: "ReLU"
bottom: "fc6"
top: "fc6"
}
layer {
name: "drop6"
type: "Dropout"
bottom: "fc6"
top: "fc6"
dropout_param {
dropout_ratio: 0.5
}
}
layer {
name: "fc7"
type: "InnerProduct"
bottom: "fc6"
top: "fc7"
param {
lr_mult: 1
decay_mult: 1
}
param {
lr_mult: 2
decay_mult: 0
}
inner_product_param {
num_output: 4096
weight_filler {
type: "gaussian"
std: 0.005
}
bias_filler {
type: "constant"
value: 0.1
}
}
}
layer {
name: "relu7"
type: "ReLU"
bottom: "fc7"
top: "fc7"
}
layer {
name: "drop7"
type: "Dropout"
bottom: "fc7"
top: "fc7"
dropout_param {
dropout_ratio: 0.5
}
}
layer {
name: "fc8_species"
type: "InnerProduct"
bottom: "fc7"
top: "fc8_species"
param {
lr_mult: 1
decay_mult: 1
}
param {
lr_mult: 2
decay_mult: 0
}
inner_product_param {
num_output: 967
weight_filler {
type: "gaussian"
std: 0.005
}
bias_filler {
type: "constant"
value: 0.1
}
}
}
layer {
name: "loss"
type: "SoftmaxWithLoss"
bottom: "fc8_species"
bottom: "label"
top: "loss"
}
layer {
name: "accuracy"
type: "Accuracy"
bottom: "fc8_species"
bottom: "label"
top: "accuracy"
include {
phase: TEST
}
}
I0705 22:46:05.528198 15248 layer_factory.hpp:76] Creating layer data
I0705 22:46:05.528244 15248 net.cpp:109] Creating Layer data
I0705 22:46:05.528249 15248 net.cpp:414] data -> data
I0705 22:46:05.528254 15248 data_transformer.cpp:25] Loading mean file from: /home/ffw/scratch/plantClef/scatnet_output/train/a4_m3_s1s2s4_f2/lmdb_mean_coeff.binaryproto
I0705 22:46:05.535909 15266 db_lmdb.cpp:36] Opened lmdb /home/ffw/scratch/plantClef/scatnet_output/test/a4_m3_s1s2s4_f2/lmdb_data
I0705 22:46:05.560842 15248 data_layer.cpp:45] output data size: 32,375,47,47
I0705 22:46:05.668850 15248 net.cpp:153] Setting up data
I0705 22:46:05.668869 15248 net.cpp:160] Top shape: 32 375 47 47 (26508000)
I0705 22:46:05.668872 15248 net.cpp:168] Memory required for data: 106032000
I0705 22:46:05.668876 15248 layer_factory.hpp:76] Creating layer label
I0705 22:46:05.668918 15248 net.cpp:109] Creating Layer label
I0705 22:46:05.668922 15248 net.cpp:414] label -> label
I0705 22:46:05.673632 15268 db_lmdb.cpp:36] Opened lmdb /home/ffw/scratch/plantClef/scatnet_output/test/a4_m3_s1s2s4_f2/lmdb_labels
I0705 22:46:05.679006 15248 data_layer.cpp:45] output data size: 32,1,1,1
I0705 22:46:05.679147 15248 net.cpp:153] Setting up label
I0705 22:46:05.679157 15248 net.cpp:160] Top shape: 32 1 1 1 (32)
I0705 22:46:05.679159 15248 net.cpp:168] Memory required for data: 106032128
I0705 22:46:05.679163 15248 layer_factory.hpp:76] Creating layer label_label_0_split
I0705 22:46:05.679172 15248 net.cpp:109] Creating Layer label_label_0_split
I0705 22:46:05.679175 15248 net.cpp:457] label_label_0_split <- label
I0705 22:46:05.679179 15248 net.cpp:414] label_label_0_split -> label_label_0_split_0
I0705 22:46:05.679185 15248 net.cpp:414] label_label_0_split -> label_label_0_split_1
I0705 22:46:05.679303 15248 net.cpp:153] Setting up label_label_0_split
I0705 22:46:05.679313 15248 net.cpp:160] Top shape: 32 1 1 1 (32)
I0705 22:46:05.679316 15248 net.cpp:160] Top shape: 32 1 1 1 (32)
I0705 22:46:05.679318 15248 net.cpp:168] Memory required for data: 106032384
I0705 22:46:05.679321 15248 layer_factory.hpp:76] Creating layer pool1
I0705 22:46:05.679337 15248 net.cpp:109] Creating Layer pool1
I0705 22:46:05.679338 15248 net.cpp:457] pool1 <- data
I0705 22:46:05.679342 15248 net.cpp:414] pool1 -> pool1
I0705 22:46:05.679366 15248 net.cpp:153] Setting up pool1
I0705 22:46:05.679370 15248 net.cpp:160] Top shape: 32 375 23 23 (6348000)
I0705 22:46:05.679373 15248 net.cpp:168] Memory required for data: 131424384
I0705 22:46:05.679374 15248 layer_factory.hpp:76] Creating layer conv3
I0705 22:46:05.679380 15248 net.cpp:109] Creating Layer conv3
I0705 22:46:05.679383 15248 net.cpp:457] conv3 <- pool1
I0705 22:46:05.679385 15248 net.cpp:414] conv3 -> conv3
I0705 22:46:05.705528 15248 net.cpp:153] Setting up conv3
I0705 22:46:05.705546 15248 net.cpp:160] Top shape: 32 384 23 23 (6500352)
I0705 22:46:05.705560 15248 net.cpp:168] Memory required for data: 157425792
I0705 22:46:05.705569 15248 layer_factory.hpp:76] Creating layer relu3
I0705 22:46:05.705576 15248 net.cpp:109] Creating Layer relu3
I0705 22:46:05.705590 15248 net.cpp:457] relu3 <- conv3
I0705 22:46:05.705593 15248 net.cpp:400] relu3 -> conv3 (in-place)
I0705 22:46:05.705600 15248 net.cpp:153] Setting up relu3
I0705 22:46:05.705603 15248 net.cpp:160] Top shape: 32 384 23 23 (6500352)
I0705 22:46:05.705605 15248 net.cpp:168] Memory required for data: 183427200
I0705 22:46:05.705607 15248 layer_factory.hpp:76] Creating layer conv4
I0705 22:46:05.705612 15248 net.cpp:109] Creating Layer conv4
I0705 22:46:05.705615 15248 net.cpp:457] conv4 <- conv3
I0705 22:46:05.705617 15248 net.cpp:414] conv4 -> conv4
I0705 22:46:05.719861 15248 net.cpp:153] Setting up conv4
I0705 22:46:05.719888 15248 net.cpp:160] Top shape: 32 384 23 23 (6500352)
I0705 22:46:05.719892 15248 net.cpp:168] Memory required for data: 209428608
I0705 22:46:05.719899 15248 layer_factory.hpp:76] Creating layer relu4
I0705 22:46:05.719907 15248 net.cpp:109] Creating Layer relu4
I0705 22:46:05.719910 15248 net.cpp:457] relu4 <- conv4
I0705 22:46:05.719914 15248 net.cpp:400] relu4 -> conv4 (in-place)
I0705 22:46:05.719921 15248 net.cpp:153] Setting up relu4
I0705 22:46:05.719924 15248 net.cpp:160] Top shape: 32 384 23 23 (6500352)
I0705 22:46:05.719926 15248 net.cpp:168] Memory required for data: 235430016
I0705 22:46:05.719928 15248 layer_factory.hpp:76] Creating layer conv5
I0705 22:46:05.719935 15248 net.cpp:109] Creating Layer conv5
I0705 22:46:05.719938 15248 net.cpp:457] conv5 <- conv4
I0705 22:46:05.719940 15248 net.cpp:414] conv5 -> conv5
I0705 22:46:05.737898 15248 net.cpp:153] Setting up conv5
I0705 22:46:05.737916 15248 net.cpp:160] Top shape: 32 256 23 23 (4333568)
I0705 22:46:05.737920 15248 net.cpp:168] Memory required for data: 252764288
I0705 22:46:05.737929 15248 layer_factory.hpp:76] Creating layer relu5
I0705 22:46:05.737936 15248 net.cpp:109] Creating Layer relu5
I0705 22:46:05.737939 15248 net.cpp:457] relu5 <- conv5
I0705 22:46:05.737943 15248 net.cpp:400] relu5 -> conv5 (in-place)
I0705 22:46:05.737965 15248 net.cpp:153] Setting up relu5
I0705 22:46:05.737969 15248 net.cpp:160] Top shape: 32 256 23 23 (4333568)
I0705 22:46:05.737972 15248 net.cpp:168] Memory required for data: 270098560
I0705 22:46:05.737973 15248 layer_factory.hpp:76] Creating layer pool5
I0705 22:46:05.737978 15248 net.cpp:109] Creating Layer pool5
I0705 22:46:05.737980 15248 net.cpp:457] pool5 <- conv5
I0705 22:46:05.737983 15248 net.cpp:414] pool5 -> pool5
I0705 22:46:05.738016 15248 net.cpp:153] Setting up pool5
I0705 22:46:05.738020 15248 net.cpp:160] Top shape: 32 256 11 11 (991232)
I0705 22:46:05.738023 15248 net.cpp:168] Memory required for data: 274063488
I0705 22:46:05.738024 15248 layer_factory.hpp:76] Creating layer fc6
I0705 22:46:05.738029 15248 net.cpp:109] Creating Layer fc6
I0705 22:46:05.738031 15248 net.cpp:457] fc6 <- pool5
I0705 22:46:05.738034 15248 net.cpp:414] fc6 -> fc6
I0705 22:46:08.098902 15248 net.cpp:153] Setting up fc6
I0705 22:46:08.098920 15248 net.cpp:160] Top shape: 32 4096 (131072)
I0705 22:46:08.098923 15248 net.cpp:168] Memory required for data: 274587776
I0705 22:46:08.098929 15248 layer_factory.hpp:76] Creating layer relu6
I0705 22:46:08.098937 15248 net.cpp:109] Creating Layer relu6
I0705 22:46:08.098939 15248 net.cpp:457] relu6 <- fc6
I0705 22:46:08.098943 15248 net.cpp:400] relu6 -> fc6 (in-place)
I0705 22:46:08.098950 15248 net.cpp:153] Setting up relu6
I0705 22:46:08.098953 15248 net.cpp:160] Top shape: 32 4096 (131072)
I0705 22:46:08.098954 15248 net.cpp:168] Memory required for data: 275112064
I0705 22:46:08.098956 15248 layer_factory.hpp:76] Creating layer drop6
I0705 22:46:08.098960 15248 net.cpp:109] Creating Layer drop6
I0705 22:46:08.098963 15248 net.cpp:457] drop6 <- fc6
I0705 22:46:08.098964 15248 net.cpp:400] drop6 -> fc6 (in-place)
I0705 22:46:08.098984 15248 net.cpp:153] Setting up drop6
I0705 22:46:08.098986 15248 net.cpp:160] Top shape: 32 4096 (131072)
I0705 22:46:08.098989 15248 net.cpp:168] Memory required for data: 275636352
I0705 22:46:08.098990 15248 layer_factory.hpp:76] Creating layer fc7
I0705 22:46:08.098995 15248 net.cpp:109] Creating Layer fc7
I0705 22:46:08.098996 15248 net.cpp:457] fc7 <- fc6
I0705 22:46:08.098999 15248 net.cpp:414] fc7 -> fc7
I0705 22:46:08.449048 15248 net.cpp:153] Setting up fc7
I0705 22:46:08.449065 15248 net.cpp:160] Top shape: 32 4096 (131072)
I0705 22:46:08.449069 15248 net.cpp:168] Memory required for data: 276160640
I0705 22:46:08.449077 15248 layer_factory.hpp:76] Creating layer relu7
I0705 22:46:08.449084 15248 net.cpp:109] Creating Layer relu7
I0705 22:46:08.449087 15248 net.cpp:457] relu7 <- fc7
I0705 22:46:08.449091 15248 net.cpp:400] relu7 -> fc7 (in-place)
I0705 22:46:08.449097 15248 net.cpp:153] Setting up relu7
I0705 22:46:08.449100 15248 net.cpp:160] Top shape: 32 4096 (131072)
I0705 22:46:08.449102 15248 net.cpp:168] Memory required for data: 276684928
I0705 22:46:08.449103 15248 layer_factory.hpp:76] Creating layer drop7
I0705 22:46:08.449110 15248 net.cpp:109] Creating Layer drop7
I0705 22:46:08.449110 15248 net.cpp:457] drop7 <- fc7
I0705 22:46:08.449113 15248 net.cpp:400] drop7 -> fc7 (in-place)
I0705 22:46:08.449132 15248 net.cpp:153] Setting up drop7
I0705 22:46:08.449136 15248 net.cpp:160] Top shape: 32 4096 (131072)
I0705 22:46:08.449137 15248 net.cpp:168] Memory required for data: 277209216
I0705 22:46:08.449139 15248 layer_factory.hpp:76] Creating layer fc8_species
I0705 22:46:08.449144 15248 net.cpp:109] Creating Layer fc8_species
I0705 22:46:08.449146 15248 net.cpp:457] fc8_species <- fc7
I0705 22:46:08.449149 15248 net.cpp:414] fc8_species -> fc8_species
I0705 22:46:08.522148 15248 net.cpp:153] Setting up fc8_species
I0705 22:46:08.522164 15248 net.cpp:160] Top shape: 32 967 (30944)
I0705 22:46:08.522167 15248 net.cpp:168] Memory required for data: 277332992
I0705 22:46:08.522173 15248 layer_factory.hpp:76] Creating layer fc8_species_fc8_species_0_split
I0705 22:46:08.522179 15248 net.cpp:109] Creating Layer fc8_species_fc8_species_0_split
I0705 22:46:08.522183 15248 net.cpp:457] fc8_species_fc8_species_0_split <- fc8_species
I0705 22:46:08.522204 15248 net.cpp:414] fc8_species_fc8_species_0_split -> fc8_species_fc8_species_0_split_0
I0705 22:46:08.522210 15248 net.cpp:414] fc8_species_fc8_species_0_split -> fc8_species_fc8_species_0_split_1
I0705 22:46:08.522238 15248 net.cpp:153] Setting up fc8_species_fc8_species_0_split
I0705 22:46:08.522241 15248 net.cpp:160] Top shape: 32 967 (30944)
I0705 22:46:08.522244 15248 net.cpp:160] Top shape: 32 967 (30944)
I0705 22:46:08.522245 15248 net.cpp:168] Memory required for data: 277580544
I0705 22:46:08.522248 15248 layer_factory.hpp:76] Creating layer loss
I0705 22:46:08.522251 15248 net.cpp:109] Creating Layer loss
I0705 22:46:08.522253 15248 net.cpp:457] loss <- fc8_species_fc8_species_0_split_0
I0705 22:46:08.522255 15248 net.cpp:457] loss <- label_label_0_split_0
I0705 22:46:08.522258 15248 net.cpp:414] loss -> loss
…
