…
I0705 08:36:32.228487  2097 net.cpp:325] The NetState phase (0) differed from the phase (1) specified by a rule in layer accuracy
I0705 08:36:32.228687  2097 net.cpp:52] Initializing net from parameters:
state {
phase: TRAIN
}
layer {
name: "train-data"
type: "Data"
top: "data"
top: "label"
include {
phase: TRAIN
}
transform_param {
mirror: true
crop_size: 227
mean_file: "/home/zml374/workspace/DIGITS/digits/jobs/20160704-085910-0cc9/mean.binaryproto"
}
data_param {
source: "/home/zml374/workspace/DIGITS/digits/jobs/20160704-085910-0cc9/train_db"
batch_size: 400
backend: LMDB
}
}
layer {
name: "conv1"
type: "Convolution"
bottom: "data"
top: "conv1"
param {
lr_mult: 0
decay_mult: 0
}
param {
lr_mult: 0
decay_mult: 0
}
convolution_param {
num_output: 96
kernel_size: 11
stride: 4
weight_filler {
type: "gaussian"
std: 0.01
}
bias_filler {
type: "constant"
value: 0
}
}
}
layer {
name: "relu1"
type: "ReLU"
bottom: "conv1"
top: "conv1"
}
layer {
name: "norm1"
type: "LRN"
bottom: "conv1"
top: "norm1"
lrn_param {
local_size: 5
alpha: 0.0001
beta: 0.75
}
}
layer {
name: "pool1"
type: "Pooling"
bottom: "norm1"
top: "pool1"
pooling_param {
pool: MAX
kernel_size: 3
stride: 2
}
}
layer {
name: "conv2"
type: "Convolution"
bottom: "pool1"
top: "conv2"
param {
lr_mult: 0
decay_mult: 0
}
param {
lr_mult: 0
decay_mult: 0
}
convolution_param {
num_output: 256
pad: 2
kernel_size: 5
group: 2
weight_filler {
type: "gaussian"
std: 0.01
}
bias_filler {
type: "constant"
value: 0.1
}
}
}
layer {
name: "relu2"
type: "ReLU"
bottom: "conv2"
top: "conv2"
}
layer {
name: "norm2"
type: "LRN"
bottom: "conv2"
top: "norm2"
lrn_param {
local_size: 5
alpha: 0.0001
beta: 0.75
}
}
layer {
name: "pool2"
type: "Pooling"
bottom: "norm2"
top: "pool2"
pooling_param {
pool: MAX
kernel_size: 3
stride: 2
}
}
layer {
name: "conv3"
type: "Convolution"
bottom: "pool2"
top: "conv3"
param {
lr_mult: 0
decay_mult: 0
}
param {
lr_mult: 0
decay_mult: 0
}
convolution_param {
num_output: 384
pad: 1
kernel_size: 3
weight_filler {
type: "gaussian"
std: 0.01
}
bias_filler {
type: "constant"
value: 0
}
}
}
layer {
name: "relu3"
type: "ReLU"
bottom: "conv3"
top: "conv3"
}
layer {
name: "conv4"
type: "Convolution"
bottom: "conv3"
top: "conv4"
param {
lr_mult: 0
decay_mult: 0
}
param {
lr_mult: 0
decay_mult: 0
}
convolution_param {
num_output: 384
pad: 1
kernel_size: 3
group: 2
weight_filler {
type: "gaussian"
std: 0.01
}
bias_filler {
type: "constant"
value: 0.1
}
}
}
layer {
name: "relu4"
type: "ReLU"
bottom: "conv4"
top: "conv4"
}
layer {
name: "conv5"
type: "Convolution"
bottom: "conv4"
top: "conv5"
param {
lr_mult: 1
decay_mult: 1
}
param {
lr_mult: 2
decay_mult: 0
}
convolution_param {
num_output: 256
pad: 1
kernel_size: 3
group: 2
weight_filler {
type: "gaussian"
std: 0.01
}
bias_filler {
type: "constant"
value: 0.1
}
}
}
layer {
name: "relu5"
type: "ReLU"
bottom: "conv5"
top: "conv5"
}
layer {
name: "pool5"
type: "Pooling"
bottom: "conv5"
top: "pool5"
pooling_param {
pool: MAX
kernel_size: 3
stride: 2
}
}
layer {
name: "fc6"
type: "InnerProduct"
bottom: "pool5"
top: "fc6"
param {
lr_mult: 1
decay_mult: 1
}
param {
lr_mult: 2
decay_mult: 0
}
inner_product_param {
num_output: 4096
weight_filler {
type: "gaussian"
std: 0.005
}
bias_filler {
type: "constant"
value: 0.1
}
}
}
layer {
name: "relu6"
type: "ReLU"
bottom: "fc6"
top: "fc6"
}
layer {
name: "drop6"
type: "Dropout"
bottom: "fc6"
top: "fc6"
dropout_param {
dropout_ratio: 0.5
}
}
layer {
name: "fc7"
type: "InnerProduct"
bottom: "fc6"
top: "fc7"
param {
lr_mult: 1
decay_mult: 1
}
param {
lr_mult: 2
decay_mult: 0
}
inner_product_param {
num_output: 4096
weight_filler {
type: "gaussian"
std: 0.005
}
bias_filler {
type: "constant"
value: 0.1
}
}
}
layer {
name: "relu7"
type: "ReLU"
bottom: "fc7"
top: "fc7"
}
layer {
name: "drop7"
type: "Dropout"
bottom: "fc7"
top: "fc7"
dropout_param {
dropout_ratio: 0.5
}
}
layer {
name: "fc8_clean"
type: "InnerProduct"
bottom: "fc7"
top: "fc8_clean"
param {
lr_mult: 1
decay_mult: 1
}
param {
lr_mult: 2
decay_mult: 0
}
inner_product_param {
num_output: 967
weight_filler {
type: "gaussian"
std: 0.01
}
bias_filler {
type: "constant"
value: 0
}
}
}
layer {
name: "loss"
type: "SoftmaxWithLoss"
bottom: "fc8_clean"
bottom: "label"
top: "loss"
}
I0705 08:36:32.228823  2097 layer_factory.hpp:76] Creating layer train-data
I0705 08:36:32.229571  2097 net.cpp:109] Creating Layer train-data
I0705 08:36:32.229589  2097 net.cpp:414] train-data -> data
I0705 08:36:32.229624  2097 net.cpp:414] train-data -> label
I0705 08:36:32.229635  2097 data_transformer.cpp:25] Loading mean file from: /home/zml374/workspace/DIGITS/digits/jobs/20160704-085910-0cc9/mean.binaryproto
I0705 08:36:32.230790  2125 db_lmdb.cpp:36] Opened lmdb /home/zml374/workspace/DIGITS/digits/jobs/20160704-085910-0cc9/train_db
I0705 08:36:32.237700  2097 data_layer.cpp:45] output data size: 400,3,227,227
I0705 08:36:32.806686  2097 net.cpp:153] Setting up train-data
I0705 08:36:32.806741  2097 net.cpp:160] Top shape: 400 3 227 227 (61834800)
I0705 08:36:32.806747  2097 net.cpp:160] Top shape: 400 (400)
I0705 08:36:32.806751  2097 net.cpp:168] Memory required for data: 247340800
I0705 08:36:32.806762  2097 layer_factory.hpp:76] Creating layer conv1
I0705 08:36:32.806788  2097 net.cpp:109] Creating Layer conv1
I0705 08:36:32.806793  2097 net.cpp:457] conv1 <- data
I0705 08:36:32.806810  2097 net.cpp:414] conv1 -> conv1
I0705 08:36:32.809602  2097 net.cpp:153] Setting up conv1
I0705 08:36:32.809615  2097 net.cpp:160] Top shape: 400 96 55 55 (116160000)
I0705 08:36:32.809619  2097 net.cpp:168] Memory required for data: 711980800
I0705 08:36:32.809636  2097 layer_factory.hpp:76] Creating layer relu1
I0705 08:36:32.809660  2097 net.cpp:109] Creating Layer relu1
I0705 08:36:32.809664  2097 net.cpp:457] relu1 <- conv1
I0705 08:36:32.809671  2097 net.cpp:400] relu1 -> conv1 (in-place)
I0705 08:36:32.809685  2097 net.cpp:153] Setting up relu1
I0705 08:36:32.809690  2097 net.cpp:160] Top shape: 400 96 55 55 (116160000)
I0705 08:36:32.809695  2097 net.cpp:168] Memory required for data: 1176620800
I0705 08:36:32.809697  2097 layer_factory.hpp:76] Creating layer norm1
I0705 08:36:32.809713  2097 net.cpp:109] Creating Layer norm1
I0705 08:36:32.809717  2097 net.cpp:457] norm1 <- conv1
I0705 08:36:32.809723  2097 net.cpp:414] norm1 -> norm1
I0705 08:36:32.810324  2097 net.cpp:153] Setting up norm1
I0705 08:36:32.810334  2097 net.cpp:160] Top shape: 400 96 55 55 (116160000)
I0705 08:36:32.810338  2097 net.cpp:168] Memory required for data: 1641260800
I0705 08:36:32.810343  2097 layer_factory.hpp:76] Creating layer pool1
I0705 08:36:32.810353  2097 net.cpp:109] Creating Layer pool1
I0705 08:36:32.810395  2097 net.cpp:457] pool1 <- norm1
I0705 08:36:32.810402  2097 net.cpp:414] pool1 -> pool1
I0705 08:36:32.810498  2097 net.cpp:153] Setting up pool1
I0705 08:36:32.810509  2097 net.cpp:160] Top shape: 400 96 27 27 (27993600)
I0705 08:36:32.810513  2097 net.cpp:168] Memory required for data: 1753235200
I0705 08:36:32.810516  2097 layer_factory.hpp:76] Creating layer conv2
I0705 08:36:32.810528  2097 net.cpp:109] Creating Layer conv2
I0705 08:36:32.810546  2097 net.cpp:457] conv2 <- pool1
I0705 08:36:32.810552  2097 net.cpp:414] conv2 -> conv2
I0705 08:36:32.839529  2097 net.cpp:153] Setting up conv2
I0705 08:36:32.839545  2097 net.cpp:160] Top shape: 400 256 27 27 (74649600)
I0705 08:36:32.839550  2097 net.cpp:168] Memory required for data: 2051833600
I0705 08:36:32.839558  2097 layer_factory.hpp:76] Creating layer relu2
I0705 08:36:32.839567  2097 net.cpp:109] Creating Layer relu2
I0705 08:36:32.839571  2097 net.cpp:457] relu2 <- conv2
I0705 08:36:32.839577  2097 net.cpp:400] relu2 -> conv2 (in-place)
I0705 08:36:32.839586  2097 net.cpp:153] Setting up relu2
I0705 08:36:32.839603  2097 net.cpp:160] Top shape: 400 256 27 27 (74649600)
I0705 08:36:32.839607  2097 net.cpp:168] Memory required for data: 2350432000
I0705 08:36:32.839610  2097 layer_factory.hpp:76] Creating layer norm2
I0705 08:36:32.839617  2097 net.cpp:109] Creating Layer norm2
I0705 08:36:32.839620  2097 net.cpp:457] norm2 <- conv2
I0705 08:36:32.839625  2097 net.cpp:414] norm2 -> norm2
I0705 08:36:32.839660  2097 net.cpp:153] Setting up norm2
I0705 08:36:32.839666  2097 net.cpp:160] Top shape: 400 256 27 27 (74649600)
I0705 08:36:32.839669  2097 net.cpp:168] Memory required for data: 2649030400
I0705 08:36:32.839673  2097 layer_factory.hpp:76] Creating layer pool2
I0705 08:36:32.839681  2097 net.cpp:109] Creating Layer pool2
I0705 08:36:32.839685  2097 net.cpp:457] pool2 <- norm2
I0705 08:36:32.839691  2097 net.cpp:414] pool2 -> pool2
I0705 08:36:32.839722  2097 net.cpp:153] Setting up pool2
I0705 08:36:32.839727  2097 net.cpp:160] Top shape: 400 256 13 13 (17305600)
I0705 08:36:32.839730  2097 net.cpp:168] Memory required for data: 2718252800
I0705 08:36:32.839735  2097 layer_factory.hpp:76] Creating layer conv3
I0705 08:36:32.839743  2097 net.cpp:109] Creating Layer conv3
I0705 08:36:32.839746  2097 net.cpp:457] conv3 <- pool2
I0705 08:36:32.839754  2097 net.cpp:414] conv3 -> conv3
I0705 08:36:32.878675  2097 net.cpp:153] Setting up conv3
I0705 08:36:32.878695  2097 net.cpp:160] Top shape: 400 384 13 13 (25958400)
I0705 08:36:32.878700  2097 net.cpp:168] Memory required for data: 2822086400
I0705 08:36:32.878713  2097 layer_factory.hpp:76] Creating layer relu3
I0705 08:36:32.878723  2097 net.cpp:109] Creating Layer relu3
I0705 08:36:32.878729  2097 net.cpp:457] relu3 <- conv3
I0705 08:36:32.878737  2097 net.cpp:400] relu3 -> conv3 (in-place)
I0705 08:36:32.878749  2097 net.cpp:153] Setting up relu3
I0705 08:36:32.878756  2097 net.cpp:160] Top shape: 400 384 13 13 (25958400)
I0705 08:36:32.878760  2097 net.cpp:168] Memory required for data: 2925920000
I0705 08:36:32.878765  2097 layer_factory.hpp:76] Creating layer conv4
I0705 08:36:32.878777  2097 net.cpp:109] Creating Layer conv4
I0705 08:36:32.878782  2097 net.cpp:457] conv4 <- conv3
I0705 08:36:32.878792  2097 net.cpp:414] conv4 -> conv4
I0705 08:36:32.905663  2097 net.cpp:153] Setting up conv4
I0705 08:36:32.905679  2097 net.cpp:160] Top shape: 400 384 13 13 (25958400)
I0705 08:36:32.905683  2097 net.cpp:168] Memory required for data: 3029753600
I0705 08:36:32.905692  2097 layer_factory.hpp:76] Creating layer relu4
I0705 08:36:32.905701  2097 net.cpp:109] Creating Layer relu4
I0705 08:36:32.905705  2097 net.cpp:457] relu4 <- conv4
I0705 08:36:32.905714  2097 net.cpp:400] relu4 -> conv4 (in-place)
I0705 08:36:32.905722  2097 net.cpp:153] Setting up relu4
I0705 08:36:32.905728  2097 net.cpp:160] Top shape: 400 384 13 13 (25958400)
I0705 08:36:32.905732  2097 net.cpp:168] Memory required for data: 3133587200
I0705 08:36:32.905736  2097 layer_factory.hpp:76] Creating layer conv5
I0705 08:36:32.905747  2097 net.cpp:109] Creating Layer conv5
I0705 08:36:32.905769  2097 net.cpp:457] conv5 <- conv4
I0705 08:36:32.905778  2097 net.cpp:414] conv5 -> conv5
I0705 08:36:32.922485  2097 net.cpp:153] Setting up conv5
I0705 08:36:32.922500  2097 net.cpp:160] Top shape: 400 256 13 13 (17305600)
I0705 08:36:32.922504  2097 net.cpp:168] Memory required for data: 3202809600
I0705 08:36:32.922516  2097 layer_factory.hpp:76] Creating layer relu5
I0705 08:36:32.922525  2097 net.cpp:109] Creating Layer relu5
I0705 08:36:32.922530  2097 net.cpp:457] relu5 <- conv5
I0705 08:36:32.922538  2097 net.cpp:400] relu5 -> conv5 (in-place)
I0705 08:36:32.922546  2097 net.cpp:153] Setting up relu5
I0705 08:36:32.922552  2097 net.cpp:160] Top shape: 400 256 13 13 (17305600)
I0705 08:36:32.922556  2097 net.cpp:168] Memory required for data: 3272032000
I0705 08:36:32.922560  2097 layer_factory.hpp:76] Creating layer pool5
I0705 08:36:32.922570  2097 net.cpp:109] Creating Layer pool5
I0705 08:36:32.922574  2097 net.cpp:457] pool5 <- conv5
I0705 08:36:32.922581  2097 net.cpp:414] pool5 -> pool5
I0705 08:36:32.922624  2097 net.cpp:153] Setting up pool5
I0705 08:36:32.922631  2097 net.cpp:160] Top shape: 400 256 6 6 (3686400)
I0705 08:36:32.922636  2097 net.cpp:168] Memory required for data: 3286777600
I0705 08:36:32.922641  2097 layer_factory.hpp:76] Creating layer fc6
I0705 08:36:32.922653  2097 net.cpp:109] Creating Layer fc6
I0705 08:36:32.922657  2097 net.cpp:457] fc6 <- pool5
I0705 08:36:32.922667  2097 net.cpp:414] fc6 -> fc6
I0705 08:36:34.059613  2097 net.cpp:153] Setting up fc6
I0705 08:36:34.059650  2097 net.cpp:160] Top shape: 400 4096 (1638400)
I0705 08:36:34.059655  2097 net.cpp:168] Memory required for data: 3293331200
I0705 08:36:34.059666  2097 layer_factory.hpp:76] Creating layer relu6
I0705 08:36:34.059679  2097 net.cpp:109] Creating Layer relu6
I0705 08:36:34.059684  2097 net.cpp:457] relu6 <- fc6
I0705 08:36:34.059694  2097 net.cpp:400] relu6 -> fc6 (in-place)
I0705 08:36:34.059707  2097 net.cpp:153] Setting up relu6
I0705 08:36:34.059712  2097 net.cpp:160] Top shape: 400 4096 (1638400)
I0705 08:36:34.059715  2097 net.cpp:168] Memory required for data: 3299884800
I0705 08:36:34.059720  2097 layer_factory.hpp:76] Creating layer drop6
I0705 08:36:34.059741  2097 net.cpp:109] Creating Layer drop6
I0705 08:36:34.059744  2097 net.cpp:457] drop6 <- fc6
I0705 08:36:34.059751  2097 net.cpp:400] drop6 -> fc6 (in-place)
I0705 08:36:34.059774  2097 net.cpp:153] Setting up drop6
I0705 08:36:34.059782  2097 net.cpp:160] Top shape: 400 4096 (1638400)
I0705 08:36:34.059785  2097 net.cpp:168] Memory required for data: 3306438400
I0705 08:36:34.059788  2097 layer_factory.hpp:76] Creating layer fc7
I0705 08:36:34.059798  2097 net.cpp:109] Creating Layer fc7
I0705 08:36:34.059800  2097 net.cpp:457] fc7 <- fc6
I0705 08:36:34.059808  2097 net.cpp:414] fc7 -> fc7
I0705 08:36:34.565991  2097 net.cpp:153] Setting up fc7
I0705 08:36:34.566031  2097 net.cpp:160] Top shape: 400 4096 (1638400)
I0705 08:36:34.566036  2097 net.cpp:168] Memory required for data: 3312992000
I0705 08:36:34.566047  2097 layer_factory.hpp:76] Creating layer relu7
I0705 08:36:34.566061  2097 net.cpp:109] Creating Layer relu7
I0705 08:36:34.566066  2097 net.cpp:457] relu7 <- fc7
I0705 08:36:34.566076  2097 net.cpp:400] relu7 -> fc7 (in-place)
I0705 08:36:34.566090  2097 net.cpp:153] Setting up relu7
I0705 08:36:34.566095  2097 net.cpp:160] Top shape: 400 4096 (1638400)
I0705 08:36:34.566098  2097 net.cpp:168] Memory required for data: 3319545600
I0705 08:36:34.566102  2097 layer_factory.hpp:76] Creating layer drop7
I0705 08:36:34.566110  2097 net.cpp:109] Creating Layer drop7
I0705 08:36:34.566113  2097 net.cpp:457] drop7 <- fc7
I0705 08:36:34.566118  2097 net.cpp:400] drop7 -> fc7 (in-place)
I0705 08:36:34.566140  2097 net.cpp:153] Setting up drop7
I0705 08:36:34.566146  2097 net.cpp:160] Top shape: 400 4096 (1638400)
I0705 08:36:34.566150  2097 net.cpp:168] Memory required for data: 3326099200
I0705 08:36:34.566154  2097 layer_factory.hpp:76] Creating layer fc8_clean
I0705 08:36:34.566201  2097 net.cpp:109] Creating Layer fc8_clean
I0705 08:36:34.566205  2097 net.cpp:457] fc8_clean <- fc7
I0705 08:36:34.566212  2097 net.cpp:414] fc8_clean -> fc8_clean
I0705 08:36:34.694563  2097 net.cpp:153] Setting up fc8_clean
I0705 08:36:34.694578  2097 net.cpp:160] Top shape: 400 967 (386800)
I0705 08:36:34.694582  2097 net.cpp:168] Memory required for data: 3327646400
I0705 08:36:34.694589  2097 layer_factory.hpp:76] Creating layer loss
I0705 08:36:34.694598  2097 net.cpp:109] Creating Layer loss
I0705 08:36:34.694602  2097 net.cpp:457] loss <- fc8_clean
I0705 08:36:34.694607  2097 net.cpp:457] loss <- label
I0705 08:36:34.694613  2097 net.cpp:414] loss -> loss
I0705 08:36:34.694622  2097 layer_factory.hpp:76] Creating layer loss
…
I0705 08:36:34.696445  2097 net.cpp:325] The NetState phase (1) differed from the phase (0) specified by a rule in layer train-data
I0705 08:36:34.696624  2097 net.cpp:52] Initializing net from parameters:
state {
phase: TEST
}
layer {
name: "val-data"
type: "Data"
top: "data"
top: "label"
include {
phase: TEST
}
transform_param {
crop_size: 227
mean_file: "/home/zml374/workspace/DIGITS/digits/jobs/20160704-085910-0cc9/mean.binaryproto"
}
data_param {
source: "/home/zml374/workspace/DIGITS/digits/jobs/20160704-085910-0cc9/val_db"
batch_size: 400
backend: LMDB
}
}
layer {
name: "conv1"
type: "Convolution"
bottom: "data"
top: "conv1"
param {
lr_mult: 0
decay_mult: 0
}
param {
lr_mult: 0
decay_mult: 0
}
convolution_param {
num_output: 96
kernel_size: 11
stride: 4
weight_filler {
type: "gaussian"
std: 0.01
}
bias_filler {
type: "constant"
value: 0
}
}
}
layer {
name: "relu1"
type: "ReLU"
bottom: "conv1"
top: "conv1"
}
layer {
name: "norm1"
type: "LRN"
bottom: "conv1"
top: "norm1"
lrn_param {
local_size: 5
alpha: 0.0001
beta: 0.75
}
}
layer {
name: "pool1"
type: "Pooling"
bottom: "norm1"
top: "pool1"
pooling_param {
pool: MAX
kernel_size: 3
stride: 2
}
}
layer {
name: "conv2"
type: "Convolution"
bottom: "pool1"
top: "conv2"
param {
lr_mult: 0
decay_mult: 0
}
param {
lr_mult: 0
decay_mult: 0
}
convolution_param {
num_output: 256
pad: 2
kernel_size: 5
group: 2
weight_filler {
type: "gaussian"
std: 0.01
}
bias_filler {
type: "constant"
value: 0.1
}
}
}
layer {
name: "relu2"
type: "ReLU"
bottom: "conv2"
top: "conv2"
}
layer {
name: "norm2"
type: "LRN"
bottom: "conv2"
top: "norm2"
lrn_param {
local_size: 5
alpha: 0.0001
beta: 0.75
}
}
layer {
name: "pool2"
type: "Pooling"
bottom: "norm2"
top: "pool2"
pooling_param {
pool: MAX
kernel_size: 3
stride: 2
}
}
layer {
name: "conv3"
type: "Convolution"
bottom: "pool2"
top: "conv3"
param {
lr_mult: 0
decay_mult: 0
}
param {
lr_mult: 0
decay_mult: 0
}
convolution_param {
num_output: 384
pad: 1
kernel_size: 3
weight_filler {
type: "gaussian"
std: 0.01
}
bias_filler {
type: "constant"
value: 0
}
}
}
layer {
name: "relu3"
type: "ReLU"
bottom: "conv3"
top: "conv3"
}
layer {
name: "conv4"
type: "Convolution"
bottom: "conv3"
top: "conv4"
param {
lr_mult: 0
decay_mult: 0
}
param {
lr_mult: 0
decay_mult: 0
}
convolution_param {
num_output: 384
pad: 1
kernel_size: 3
group: 2
weight_filler {
type: "gaussian"
std: 0.01
}
bias_filler {
type: "constant"
value: 0.1
}
}
}
layer {
name: "relu4"
type: "ReLU"
bottom: "conv4"
top: "conv4"
}
layer {
name: "conv5"
type: "Convolution"
bottom: "conv4"
top: "conv5"
param {
lr_mult: 1
decay_mult: 1
}
param {
lr_mult: 2
decay_mult: 0
}
convolution_param {
num_output: 256
pad: 1
kernel_size: 3
group: 2
weight_filler {
type: "gaussian"
std: 0.01
}
bias_filler {
type: "constant"
value: 0.1
}
}
}
layer {
name: "relu5"
type: "ReLU"
bottom: "conv5"
top: "conv5"
}
layer {
name: "pool5"
type: "Pooling"
bottom: "conv5"
top: "pool5"
pooling_param {
pool: MAX
kernel_size: 3
stride: 2
}
}
layer {
name: "fc6"
type: "InnerProduct"
bottom: "pool5"
top: "fc6"
param {
lr_mult: 1
decay_mult: 1
}
param {
lr_mult: 2
decay_mult: 0
}
inner_product_param {
num_output: 4096
weight_filler {
type: "gaussian"
std: 0.005
}
bias_filler {
type: "constant"
value: 0.1
}
}
}
layer {
name: "relu6"
type: "ReLU"
bottom: "fc6"
top: "fc6"
}
layer {
name: "drop6"
type: "Dropout"
bottom: "fc6"
top: "fc6"
dropout_param {
dropout_ratio: 0.5
}
}
layer {
name: "fc7"
type: "InnerProduct"
bottom: "fc6"
top: "fc7"
param {
lr_mult: 1
decay_mult: 1
}
param {
lr_mult: 2
decay_mult: 0
}
inner_product_param {
num_output: 4096
weight_filler {
type: "gaussian"
std: 0.005
}
bias_filler {
type: "constant"
value: 0.1
}
}
}
layer {
name: "relu7"
type: "ReLU"
bottom: "fc7"
top: "fc7"
}
layer {
name: "drop7"
type: "Dropout"
bottom: "fc7"
top: "fc7"
dropout_param {
dropout_ratio: 0.5
}
}
layer {
name: "fc8_clean"
type: "InnerProduct"
bottom: "fc7"
top: "fc8_clean"
param {
lr_mult: 1
decay_mult: 1
}
param {
lr_mult: 2
decay_mult: 0
}
inner_product_param {
num_output: 967
weight_filler {
type: "gaussian"
std: 0.01
}
bias_filler {
type: "constant"
value: 0
}
}
}
layer {
name: "accuracy"
type: "Accuracy"
bottom: "fc8_clean"
bottom: "label"
top: "accuracy"
include {
phase: TEST
}
}
layer {
name: "loss"
type: "SoftmaxWithLoss"
bottom: "fc8_clean"
bottom: "label"
top: "loss"
}
I0705 08:36:34.696777  2097 layer_factory.hpp:76] Creating layer val-data
I0705 08:36:34.697093  2097 net.cpp:109] Creating Layer val-data
I0705 08:36:34.697103  2097 net.cpp:414] val-data -> data
I0705 08:36:34.697113  2097 net.cpp:414] val-data -> label
I0705 08:36:34.697121  2097 data_transformer.cpp:25] Loading mean file from: /home/zml374/workspace/DIGITS/digits/jobs/20160704-085910-0cc9/mean.binaryproto
I0705 08:36:34.698328  2127 db_lmdb.cpp:36] Opened lmdb /home/zml374/workspace/DIGITS/digits/jobs/20160704-085910-0cc9/val_db
I0705 08:36:34.702410  2097 data_layer.cpp:45] output data size: 400,3,227,227
I0705 08:36:35.235378  2097 net.cpp:153] Setting up val-data
I0705 08:36:35.235422  2097 net.cpp:160] Top shape: 400 3 227 227 (61834800)
I0705 08:36:35.235430  2097 net.cpp:160] Top shape: 400 (400)
I0705 08:36:35.235433  2097 net.cpp:168] Memory required for data: 247340800
I0705 08:36:35.235440  2097 layer_factory.hpp:76] Creating layer label_val-data_1_split
I0705 08:36:35.235457  2097 net.cpp:109] Creating Layer label_val-data_1_split
I0705 08:36:35.235463  2097 net.cpp:457] label_val-data_1_split <- label
I0705 08:36:35.235473  2097 net.cpp:414] label_val-data_1_split -> label_val-data_1_split_0
I0705 08:36:35.235484  2097 net.cpp:414] label_val-data_1_split -> label_val-data_1_split_1
I0705 08:36:35.235584  2097 net.cpp:153] Setting up label_val-data_1_split
I0705 08:36:35.235594  2097 net.cpp:160] Top shape: 400 (400)
I0705 08:36:35.235599  2097 net.cpp:160] Top shape: 400 (400)
I0705 08:36:35.235602  2097 net.cpp:168] Memory required for data: 247344000
I0705 08:36:35.235606  2097 layer_factory.hpp:76] Creating layer conv1
I0705 08:36:35.235620  2097 net.cpp:109] Creating Layer conv1
I0705 08:36:35.235625  2097 net.cpp:457] conv1 <- data
I0705 08:36:35.235632  2097 net.cpp:414] conv1 -> conv1
I0705 08:36:35.236932  2097 net.cpp:153] Setting up conv1
I0705 08:36:35.236943  2097 net.cpp:160] Top shape: 400 96 55 55 (116160000)
I0705 08:36:35.236945  2097 net.cpp:168] Memory required for data: 711984000
I0705 08:36:35.236958  2097 layer_factory.hpp:76] Creating layer relu1
I0705 08:36:35.236966  2097 net.cpp:109] Creating Layer relu1
I0705 08:36:35.236970  2097 net.cpp:457] relu1 <- conv1
I0705 08:36:35.236976  2097 net.cpp:400] relu1 -> conv1 (in-place)
I0705 08:36:35.236984  2097 net.cpp:153] Setting up relu1
I0705 08:36:35.236989  2097 net.cpp:160] Top shape: 400 96 55 55 (116160000)
I0705 08:36:35.236994  2097 net.cpp:168] Memory required for data: 1176624000
I0705 08:36:35.236996  2097 layer_factory.hpp:76] Creating layer norm1
I0705 08:36:35.237006  2097 net.cpp:109] Creating Layer norm1
I0705 08:36:35.237010  2097 net.cpp:457] norm1 <- conv1
I0705 08:36:35.237015  2097 net.cpp:414] norm1 -> norm1
I0705 08:36:35.237056  2097 net.cpp:153] Setting up norm1
I0705 08:36:35.237062  2097 net.cpp:160] Top shape: 400 96 55 55 (116160000)
I0705 08:36:35.237066  2097 net.cpp:168] Memory required for data: 1641264000
I0705 08:36:35.237069  2097 layer_factory.hpp:76] Creating layer pool1
I0705 08:36:35.237078  2097 net.cpp:109] Creating Layer pool1
I0705 08:36:35.237082  2097 net.cpp:457] pool1 <- norm1
I0705 08:36:35.237087  2097 net.cpp:414] pool1 -> pool1
I0705 08:36:35.237121  2097 net.cpp:153] Setting up pool1
I0705 08:36:35.237128  2097 net.cpp:160] Top shape: 400 96 27 27 (27993600)
I0705 08:36:35.237130  2097 net.cpp:168] Memory required for data: 1753238400
I0705 08:36:35.237134  2097 layer_factory.hpp:76] Creating layer conv2
I0705 08:36:35.237143  2097 net.cpp:109] Creating Layer conv2
I0705 08:36:35.237148  2097 net.cpp:457] conv2 <- pool1
I0705 08:36:35.237154  2097 net.cpp:414] conv2 -> conv2
I0705 08:36:35.259562  2097 net.cpp:153] Setting up conv2
I0705 08:36:35.259577  2097 net.cpp:160] Top shape: 400 256 27 27 (74649600)
I0705 08:36:35.259609  2097 net.cpp:168] Memory required for data: 2051836800
I0705 08:36:35.259621  2097 layer_factory.hpp:76] Creating layer relu2
I0705 08:36:35.259629  2097 net.cpp:109] Creating Layer relu2
I0705 08:36:35.259634  2097 net.cpp:457] relu2 <- conv2
I0705 08:36:35.259640  2097 net.cpp:400] relu2 -> conv2 (in-place)
I0705 08:36:35.259649  2097 net.cpp:153] Setting up relu2
I0705 08:36:35.259652  2097 net.cpp:160] Top shape: 400 256 27 27 (74649600)
I0705 08:36:35.259655  2097 net.cpp:168] Memory required for data: 2350435200
I0705 08:36:35.259660  2097 layer_factory.hpp:76] Creating layer norm2
I0705 08:36:35.259667  2097 net.cpp:109] Creating Layer norm2
I0705 08:36:35.259670  2097 net.cpp:457] norm2 <- conv2
I0705 08:36:35.259676  2097 net.cpp:414] norm2 -> norm2
I0705 08:36:35.259717  2097 net.cpp:153] Setting up norm2
I0705 08:36:35.259726  2097 net.cpp:160] Top shape: 400 256 27 27 (74649600)
I0705 08:36:35.259728  2097 net.cpp:168] Memory required for data: 2649033600
I0705 08:36:35.259732  2097 layer_factory.hpp:76] Creating layer pool2
I0705 08:36:35.259739  2097 net.cpp:109] Creating Layer pool2
I0705 08:36:35.259743  2097 net.cpp:457] pool2 <- norm2
I0705 08:36:35.259749  2097 net.cpp:414] pool2 -> pool2
I0705 08:36:35.259783  2097 net.cpp:153] Setting up pool2
I0705 08:36:35.259789  2097 net.cpp:160] Top shape: 400 256 13 13 (17305600)
I0705 08:36:35.259793  2097 net.cpp:168] Memory required for data: 2718256000
I0705 08:36:35.259796  2097 layer_factory.hpp:76] Creating layer conv3
I0705 08:36:35.259805  2097 net.cpp:109] Creating Layer conv3
I0705 08:36:35.259809  2097 net.cpp:457] conv3 <- pool2
I0705 08:36:35.259829  2097 net.cpp:414] conv3 -> conv3
I0705 08:36:35.287041  2097 net.cpp:153] Setting up conv3
I0705 08:36:35.287053  2097 net.cpp:160] Top shape: 400 384 13 13 (25958400)
I0705 08:36:35.287057  2097 net.cpp:168] Memory required for data: 2822089600
I0705 08:36:35.287065  2097 layer_factory.hpp:76] Creating layer relu3
I0705 08:36:35.287073  2097 net.cpp:109] Creating Layer relu3
I0705 08:36:35.287077  2097 net.cpp:457] relu3 <- conv3
I0705 08:36:35.287083  2097 net.cpp:400] relu3 -> conv3 (in-place)
I0705 08:36:35.287091  2097 net.cpp:153] Setting up relu3
I0705 08:36:35.287096  2097 net.cpp:160] Top shape: 400 384 13 13 (25958400)
I0705 08:36:35.287098  2097 net.cpp:168] Memory required for data: 2925923200
I0705 08:36:35.287102  2097 layer_factory.hpp:76] Creating layer conv4
I0705 08:36:35.287109  2097 net.cpp:109] Creating Layer conv4
I0705 08:36:35.287112  2097 net.cpp:457] conv4 <- conv3
I0705 08:36:35.287119  2097 net.cpp:414] conv4 -> conv4
I0705 08:36:35.307512  2097 net.cpp:153] Setting up conv4
I0705 08:36:35.307525  2097 net.cpp:160] Top shape: 400 384 13 13 (25958400)
I0705 08:36:35.307529  2097 net.cpp:168] Memory required for data: 3029756800
I0705 08:36:35.307536  2097 layer_factory.hpp:76] Creating layer relu4
I0705 08:36:35.307543  2097 net.cpp:109] Creating Layer relu4
I0705 08:36:35.307548  2097 net.cpp:457] relu4 <- conv4
I0705 08:36:35.307554  2097 net.cpp:400] relu4 -> conv4 (in-place)
I0705 08:36:35.307562  2097 net.cpp:153] Setting up relu4
I0705 08:36:35.307566  2097 net.cpp:160] Top shape: 400 384 13 13 (25958400)
I0705 08:36:35.307570  2097 net.cpp:168] Memory required for data: 3133590400
I0705 08:36:35.307574  2097 layer_factory.hpp:76] Creating layer conv5
I0705 08:36:35.307582  2097 net.cpp:109] Creating Layer conv5
I0705 08:36:35.307585  2097 net.cpp:457] conv5 <- conv4
I0705 08:36:35.307592  2097 net.cpp:414] conv5 -> conv5
I0705 08:36:35.321297  2097 net.cpp:153] Setting up conv5
I0705 08:36:35.321310  2097 net.cpp:160] Top shape: 400 256 13 13 (17305600)
I0705 08:36:35.321315  2097 net.cpp:168] Memory required for data: 3202812800
I0705 08:36:35.321324  2097 layer_factory.hpp:76] Creating layer relu5
I0705 08:36:35.321332  2097 net.cpp:109] Creating Layer relu5
I0705 08:36:35.321336  2097 net.cpp:457] relu5 <- conv5
I0705 08:36:35.321342  2097 net.cpp:400] relu5 -> conv5 (in-place)
I0705 08:36:35.321349  2097 net.cpp:153] Setting up relu5
I0705 08:36:35.321368  2097 net.cpp:160] Top shape: 400 256 13 13 (17305600)
I0705 08:36:35.321372  2097 net.cpp:168] Memory required for data: 3272035200
I0705 08:36:35.321377  2097 layer_factory.hpp:76] Creating layer pool5
I0705 08:36:35.321387  2097 net.cpp:109] Creating Layer pool5
I0705 08:36:35.321389  2097 net.cpp:457] pool5 <- conv5
I0705 08:36:35.321396  2097 net.cpp:414] pool5 -> pool5
I0705 08:36:35.321436  2097 net.cpp:153] Setting up pool5
I0705 08:36:35.321442  2097 net.cpp:160] Top shape: 400 256 6 6 (3686400)
I0705 08:36:35.321446  2097 net.cpp:168] Memory required for data: 3286780800
I0705 08:36:35.321449  2097 layer_factory.hpp:76] Creating layer fc6
I0705 08:36:35.321460  2097 net.cpp:109] Creating Layer fc6
I0705 08:36:35.321462  2097 net.cpp:457] fc6 <- pool5
I0705 08:36:35.321470  2097 net.cpp:414] fc6 -> fc6
I0705 08:36:36.502653  2097 net.cpp:153] Setting up fc6
I0705 08:36:36.502691  2097 net.cpp:160] Top shape: 400 4096 (1638400)
I0705 08:36:36.502696  2097 net.cpp:168] Memory required for data: 3293334400
I0705 08:36:36.502707  2097 layer_factory.hpp:76] Creating layer relu6
I0705 08:36:36.502733  2097 net.cpp:109] Creating Layer relu6
I0705 08:36:36.502739  2097 net.cpp:457] relu6 <- fc6
I0705 08:36:36.502748  2097 net.cpp:400] relu6 -> fc6 (in-place)
I0705 08:36:36.502763  2097 net.cpp:153] Setting up relu6
I0705 08:36:36.502768  2097 net.cpp:160] Top shape: 400 4096 (1638400)
I0705 08:36:36.502771  2097 net.cpp:168] Memory required for data: 3299888000
I0705 08:36:36.502775  2097 layer_factory.hpp:76] Creating layer drop6
I0705 08:36:36.502784  2097 net.cpp:109] Creating Layer drop6
I0705 08:36:36.502787  2097 net.cpp:457] drop6 <- fc6
I0705 08:36:36.502792  2097 net.cpp:400] drop6 -> fc6 (in-place)
I0705 08:36:36.502831  2097 net.cpp:153] Setting up drop6
I0705 08:36:36.502838  2097 net.cpp:160] Top shape: 400 4096 (1638400)
I0705 08:36:36.502841  2097 net.cpp:168] Memory required for data: 3306441600
I0705 08:36:36.502846  2097 layer_factory.hpp:76] Creating layer fc7
I0705 08:36:36.502856  2097 net.cpp:109] Creating Layer fc7
I0705 08:36:36.502861  2097 net.cpp:457] fc7 <- fc6
I0705 08:36:36.502866  2097 net.cpp:414] fc7 -> fc7
I0705 08:36:37.025648  2097 net.cpp:153] Setting up fc7
I0705 08:36:37.025684  2097 net.cpp:160] Top shape: 400 4096 (1638400)
I0705 08:36:37.025689  2097 net.cpp:168] Memory required for data: 3312995200
I0705 08:36:37.025701  2097 layer_factory.hpp:76] Creating layer relu7
I0705 08:36:37.025714  2097 net.cpp:109] Creating Layer relu7
I0705 08:36:37.025720  2097 net.cpp:457] relu7 <- fc7
I0705 08:36:37.025730  2097 net.cpp:400] relu7 -> fc7 (in-place)
I0705 08:36:37.025744  2097 net.cpp:153] Setting up relu7
I0705 08:36:37.025749  2097 net.cpp:160] Top shape: 400 4096 (1638400)
I0705 08:36:37.025753  2097 net.cpp:168] Memory required for data: 3319548800
I0705 08:36:37.025758  2097 layer_factory.hpp:76] Creating layer drop7
I0705 08:36:37.025765  2097 net.cpp:109] Creating Layer drop7
I0705 08:36:37.025769  2097 net.cpp:457] drop7 <- fc7
I0705 08:36:37.025774  2097 net.cpp:400] drop7 -> fc7 (in-place)
I0705 08:36:37.025799  2097 net.cpp:153] Setting up drop7
I0705 08:36:37.025821  2097 net.cpp:160] Top shape: 400 4096 (1638400)
I0705 08:36:37.025825  2097 net.cpp:168] Memory required for data: 3326102400
I0705 08:36:37.025828  2097 layer_factory.hpp:76] Creating layer fc8_clean
I0705 08:36:37.025840  2097 net.cpp:109] Creating Layer fc8_clean
I0705 08:36:37.025842  2097 net.cpp:457] fc8_clean <- fc7
I0705 08:36:37.025849  2097 net.cpp:414] fc8_clean -> fc8_clean
I0705 08:36:37.146906  2097 net.cpp:153] Setting up fc8_clean
I0705 08:36:37.146941  2097 net.cpp:160] Top shape: 400 967 (386800)
I0705 08:36:37.146946  2097 net.cpp:168] Memory required for data: 3327649600
I0705 08:36:37.146957  2097 layer_factory.hpp:76] Creating layer fc8_clean_fc8_clean_0_split
I0705 08:36:37.146970  2097 net.cpp:109] Creating Layer fc8_clean_fc8_clean_0_split
I0705 08:36:37.146976  2097 net.cpp:457] fc8_clean_fc8_clean_0_split <- fc8_clean
I0705 08:36:37.146987  2097 net.cpp:414] fc8_clean_fc8_clean_0_split -> fc8_clean_fc8_clean_0_split_0
I0705 08:36:37.147032  2097 net.cpp:414] fc8_clean_fc8_clean_0_split -> fc8_clean_fc8_clean_0_split_1
I0705 08:36:37.147074  2097 net.cpp:153] Setting up fc8_clean_fc8_clean_0_split
I0705 08:36:37.147083  2097 net.cpp:160] Top shape: 400 967 (386800)
I0705 08:36:37.147086  2097 net.cpp:160] Top shape: 400 967 (386800)
I0705 08:36:37.147090  2097 net.cpp:168] Memory required for data: 3330744000
I0705 08:36:37.147094  2097 layer_factory.hpp:76] Creating layer accuracy
I0705 08:36:37.147104  2097 net.cpp:109] Creating Layer accuracy
I0705 08:36:37.147107  2097 net.cpp:457] accuracy <- fc8_clean_fc8_clean_0_split_0
I0705 08:36:37.147112  2097 net.cpp:457] accuracy <- label_val-data_1_split_0
I0705 08:36:37.147119  2097 net.cpp:414] accuracy -> accuracy
…
