…
state {
phase: TRAIN
}
layer {
name: "data"
type: "Data"
top: "data"
include {
phase: TRAIN
}
transform_param {
mean_file: "/home/ffw/scratch/plantClef/scatnet_output/train/a4_m2_s1s2s4s8_f2/lmdb_mean_coeff.binaryproto"
}
data_param {
source: "/home/ffw/scratch/plantClef/scatnet_output/train/a4_m2_s1s2s4s8_f2/lmdb_data"
batch_size: 100
backend: LMDB
}
}
layer {
name: "label"
type: "Data"
top: "label"
include {
phase: TRAIN
}
data_param {
source: "/home/ffw/scratch/plantClef/scatnet_output/train/a4_m2_s1s2s4s8_f2/lmdb_labels"
batch_size: 100
backend: LMDB
}
}
layer {
name: "conv4"
type: "Convolution"
bottom: "data"
top: "conv4"
param {
lr_mult: 1
decay_mult: 1
}
param {
lr_mult: 2
decay_mult: 0
}
convolution_param {
num_output: 384
pad: 1
kernel_size: 3
group: 1
weight_filler {
type: "gaussian"
std: 0.01
}
bias_filler {
type: "constant"
value: 0.1
}
}
}
layer {
name: "relu4"
type: "ReLU"
bottom: "conv4"
top: "conv4"
}
layer {
name: "conv5"
type: "Convolution"
bottom: "conv4"
top: "conv5"
param {
lr_mult: 1
decay_mult: 1
}
param {
lr_mult: 2
decay_mult: 0
}
convolution_param {
num_output: 256
pad: 1
kernel_size: 3
group: 1
weight_filler {
type: "gaussian"
std: 0.01
}
bias_filler {
type: "constant"
value: 0.1
}
}
}
layer {
name: "relu5"
type: "ReLU"
bottom: "conv5"
top: "conv5"
}
layer {
name: "pool5"
type: "Pooling"
bottom: "conv5"
top: "pool5"
pooling_param {
pool: MAX
kernel_size: 3
stride: 2
}
}
layer {
name: "fc6"
type: "InnerProduct"
bottom: "pool5"
top: "fc6"
param {
lr_mult: 1
decay_mult: 1
}
param {
lr_mult: 2
decay_mult: 0
}
inner_product_param {
num_output: 4096
weight_filler {
type: "gaussian"
std: 0.005
}
bias_filler {
type: "constant"
value: 0.1
}
}
}
layer {
name: "relu6"
type: "ReLU"
bottom: "fc6"
top: "fc6"
}
layer {
name: "drop6"
type: "Dropout"
bottom: "fc6"
top: "fc6"
dropout_param {
dropout_ratio: 0.5
}
}
layer {
name: "fc7"
type: "InnerProduct"
bottom: "fc6"
top: "fc7"
param {
lr_mult: 1
decay_mult: 1
}
param {
lr_mult: 2
decay_mult: 0
}
inner_product_param {
num_output: 4096
weight_filler {
type: "gaussian"
std: 0.005
}
bias_filler {
type: "constant"
value: 0.1
}
}
}
layer {
name: "relu7"
type: "ReLU"
bottom: "fc7"
top: "fc7"
}
layer {
name: "drop7"
type: "Dropout"
bottom: "fc7"
top: "fc7"
dropout_param {
dropout_ratio: 0.5
}
}
layer {
name: "fc8_species"
type: "InnerProduct"
bottom: "fc7"
top: "fc8_species"
param {
lr_mult: 1
decay_mult: 1
}
param {
lr_mult: 2
decay_mult: 0
}
inner_product_param {
num_output: 967
weight_filler {
type: "gaussian"
std: 0.005
}
bias_filler {
type: "constant"
value: 0.1
}
}
}
layer {
name: "loss"
type: "SoftmaxWithLoss"
bottom: "fc8_species"
bottom: "label"
top: "loss"
}
I0705 07:15:09.308897  6436 layer_factory.hpp:76] Creating layer data
I0705 07:15:09.308977  6436 net.cpp:109] Creating Layer data
I0705 07:15:09.308981  6436 net.cpp:414] data -> data
I0705 07:15:09.308992  6436 data_transformer.cpp:25] Loading mean file from: /home/ffw/scratch/plantClef/scatnet_output/train/a4_m2_s1s2s4s8_f2/lmdb_mean_coeff.binaryproto
I0705 07:15:09.309875  6448 db_lmdb.cpp:36] Opened lmdb /home/ffw/scratch/plantClef/scatnet_output/train/a4_m2_s1s2s4s8_f2/lmdb_data
I0705 07:15:09.310272  6436 data_layer.cpp:45] output data size: 100,339,19,19
I0705 07:15:09.364537  6436 net.cpp:153] Setting up data
I0705 07:15:09.364559  6436 net.cpp:160] Top shape: 100 339 19 19 (12237900)
I0705 07:15:09.364562  6436 net.cpp:168] Memory required for data: 48951600
I0705 07:15:09.364568  6436 layer_factory.hpp:76] Creating layer label
I0705 07:15:09.364639  6436 net.cpp:109] Creating Layer label
I0705 07:15:09.364644  6436 net.cpp:414] label -> label
I0705 07:15:09.365988  6450 db_lmdb.cpp:36] Opened lmdb /home/ffw/scratch/plantClef/scatnet_output/train/a4_m2_s1s2s4s8_f2/lmdb_labels
I0705 07:15:09.369766  6436 data_layer.cpp:45] output data size: 100,1,1,1
I0705 07:15:09.369849  6436 net.cpp:153] Setting up label
I0705 07:15:09.369855  6436 net.cpp:160] Top shape: 100 1 1 1 (100)
I0705 07:15:09.369858  6436 net.cpp:168] Memory required for data: 48952000
I0705 07:15:09.369859  6436 layer_factory.hpp:76] Creating layer conv4
I0705 07:15:09.369871  6436 net.cpp:109] Creating Layer conv4
I0705 07:15:09.369874  6436 net.cpp:457] conv4 <- data
I0705 07:15:09.369881  6436 net.cpp:414] conv4 -> conv4
I0705 07:15:09.392398  6436 net.cpp:153] Setting up conv4
I0705 07:15:09.392423  6436 net.cpp:160] Top shape: 100 384 19 19 (13862400)
I0705 07:15:09.392427  6436 net.cpp:168] Memory required for data: 104401600
I0705 07:15:09.392437  6436 layer_factory.hpp:76] Creating layer relu4
I0705 07:15:09.392444  6436 net.cpp:109] Creating Layer relu4
I0705 07:15:09.392447  6436 net.cpp:457] relu4 <- conv4
I0705 07:15:09.392451  6436 net.cpp:400] relu4 -> conv4 (in-place)
I0705 07:15:09.392458  6436 net.cpp:153] Setting up relu4
I0705 07:15:09.392462  6436 net.cpp:160] Top shape: 100 384 19 19 (13862400)
I0705 07:15:09.392462  6436 net.cpp:168] Memory required for data: 159851200
I0705 07:15:09.392464  6436 layer_factory.hpp:76] Creating layer conv5
I0705 07:15:09.392470  6436 net.cpp:109] Creating Layer conv5
I0705 07:15:09.392472  6436 net.cpp:457] conv5 <- conv4
I0705 07:15:09.392477  6436 net.cpp:414] conv5 -> conv5
I0705 07:15:09.409533  6436 net.cpp:153] Setting up conv5
I0705 07:15:09.409550  6436 net.cpp:160] Top shape: 100 256 19 19 (9241600)
I0705 07:15:09.409554  6436 net.cpp:168] Memory required for data: 196817600
I0705 07:15:09.409559  6436 layer_factory.hpp:76] Creating layer relu5
I0705 07:15:09.409566  6436 net.cpp:109] Creating Layer relu5
I0705 07:15:09.409569  6436 net.cpp:457] relu5 <- conv5
I0705 07:15:09.409574  6436 net.cpp:400] relu5 -> conv5 (in-place)
I0705 07:15:09.409579  6436 net.cpp:153] Setting up relu5
I0705 07:15:09.409582  6436 net.cpp:160] Top shape: 100 256 19 19 (9241600)
I0705 07:15:09.409584  6436 net.cpp:168] Memory required for data: 233784000
I0705 07:15:09.409585  6436 layer_factory.hpp:76] Creating layer pool5
I0705 07:15:09.409590  6436 net.cpp:109] Creating Layer pool5
I0705 07:15:09.409592  6436 net.cpp:457] pool5 <- conv5
I0705 07:15:09.409595  6436 net.cpp:414] pool5 -> pool5
I0705 07:15:09.409626  6436 net.cpp:153] Setting up pool5
I0705 07:15:09.409629  6436 net.cpp:160] Top shape: 100 256 9 9 (2073600)
I0705 07:15:09.409631  6436 net.cpp:168] Memory required for data: 242078400
I0705 07:15:09.409632  6436 layer_factory.hpp:76] Creating layer fc6
I0705 07:15:09.409637  6436 net.cpp:109] Creating Layer fc6
I0705 07:15:09.409639  6436 net.cpp:457] fc6 <- pool5
I0705 07:15:09.409642  6436 net.cpp:414] fc6 -> fc6
I0705 07:15:10.947219  6436 net.cpp:153] Setting up fc6
I0705 07:15:10.947237  6436 net.cpp:160] Top shape: 100 4096 (409600)
I0705 07:15:10.947255  6436 net.cpp:168] Memory required for data: 243716800
I0705 07:15:10.947263  6436 layer_factory.hpp:76] Creating layer relu6
I0705 07:15:10.947271  6436 net.cpp:109] Creating Layer relu6
I0705 07:15:10.947274  6436 net.cpp:457] relu6 <- fc6
I0705 07:15:10.947278  6436 net.cpp:400] relu6 -> fc6 (in-place)
I0705 07:15:10.947285  6436 net.cpp:153] Setting up relu6
I0705 07:15:10.947293  6436 net.cpp:160] Top shape: 100 4096 (409600)
I0705 07:15:10.947295  6436 net.cpp:168] Memory required for data: 245355200
I0705 07:15:10.947298  6436 layer_factory.hpp:76] Creating layer drop6
I0705 07:15:10.947306  6436 net.cpp:109] Creating Layer drop6
I0705 07:15:10.947319  6436 net.cpp:457] drop6 <- fc6
I0705 07:15:10.947322  6436 net.cpp:400] drop6 -> fc6 (in-place)
I0705 07:15:10.947362  6436 net.cpp:153] Setting up drop6
I0705 07:15:10.947366  6436 net.cpp:160] Top shape: 100 4096 (409600)
I0705 07:15:10.947368  6436 net.cpp:168] Memory required for data: 246993600
I0705 07:15:10.947381  6436 layer_factory.hpp:76] Creating layer fc7
I0705 07:15:10.947386  6436 net.cpp:109] Creating Layer fc7
I0705 07:15:10.947387  6436 net.cpp:457] fc7 <- fc6
I0705 07:15:10.947391  6436 net.cpp:414] fc7 -> fc7
I0705 07:15:11.248875  6436 net.cpp:153] Setting up fc7
I0705 07:15:11.248894  6436 net.cpp:160] Top shape: 100 4096 (409600)
I0705 07:15:11.248898  6436 net.cpp:168] Memory required for data: 248632000
I0705 07:15:11.248903  6436 layer_factory.hpp:76] Creating layer relu7
I0705 07:15:11.248909  6436 net.cpp:109] Creating Layer relu7
I0705 07:15:11.248913  6436 net.cpp:457] relu7 <- fc7
I0705 07:15:11.248915  6436 net.cpp:400] relu7 -> fc7 (in-place)
I0705 07:15:11.248922  6436 net.cpp:153] Setting up relu7
I0705 07:15:11.248924  6436 net.cpp:160] Top shape: 100 4096 (409600)
I0705 07:15:11.248926  6436 net.cpp:168] Memory required for data: 250270400
I0705 07:15:11.248929  6436 layer_factory.hpp:76] Creating layer drop7
I0705 07:15:11.248932  6436 net.cpp:109] Creating Layer drop7
I0705 07:15:11.248934  6436 net.cpp:457] drop7 <- fc7
I0705 07:15:11.248936  6436 net.cpp:400] drop7 -> fc7 (in-place)
I0705 07:15:11.248953  6436 net.cpp:153] Setting up drop7
I0705 07:15:11.248956  6436 net.cpp:160] Top shape: 100 4096 (409600)
I0705 07:15:11.248958  6436 net.cpp:168] Memory required for data: 251908800
I0705 07:15:11.248960  6436 layer_factory.hpp:76] Creating layer fc8_species
I0705 07:15:11.248965  6436 net.cpp:109] Creating Layer fc8_species
I0705 07:15:11.248966  6436 net.cpp:457] fc8_species <- fc7
I0705 07:15:11.248970  6436 net.cpp:414] fc8_species -> fc8_species
I0705 07:15:11.320428  6436 net.cpp:153] Setting up fc8_species
I0705 07:15:11.320446  6436 net.cpp:160] Top shape: 100 967 (96700)
I0705 07:15:11.320449  6436 net.cpp:168] Memory required for data: 252295600
I0705 07:15:11.320457  6436 layer_factory.hpp:76] Creating layer loss
I0705 07:15:11.320472  6436 net.cpp:109] Creating Layer loss
I0705 07:15:11.320474  6436 net.cpp:457] loss <- fc8_species
I0705 07:15:11.320477  6436 net.cpp:457] loss <- label
I0705 07:15:11.320482  6436 net.cpp:414] loss -> loss
I0705 07:15:11.320487  6436 layer_factory.hpp:76] Creating layer loss
…
state {
phase: TEST
}
layer {
name: "data"
type: "Data"
top: "data"
include {
phase: TEST
}
transform_param {
mean_file: "/home/ffw/scratch/plantClef/scatnet_output/train/a4_m2_s1s2s4s8_f2/lmdb_mean_coeff.binaryproto"
}
data_param {
source: "/home/ffw/scratch/plantClef/scatnet_output/test/a4_m2_s1s2s4s8_f2/lmdb_data"
batch_size: 100
backend: LMDB
}
}
layer {
name: "label"
type: "Data"
top: "label"
include {
phase: TEST
}
data_param {
source: "/home/ffw/scratch/plantClef/scatnet_output/test/a4_m2_s1s2s4s8_f2/lmdb_labels"
batch_size: 100
backend: LMDB
}
}
layer {
name: "conv4"
type: "Convolution"
bottom: "data"
top: "conv4"
param {
lr_mult: 1
decay_mult: 1
}
param {
lr_mult: 2
decay_mult: 0
}
convolution_param {
num_output: 384
pad: 1
kernel_size: 3
group: 1
weight_filler {
type: "gaussian"
std: 0.01
}
bias_filler {
type: "constant"
value: 0.1
}
}
}
layer {
name: "relu4"
type: "ReLU"
bottom: "conv4"
top: "conv4"
}
layer {
name: "conv5"
type: "Convolution"
bottom: "conv4"
top: "conv5"
param {
lr_mult: 1
decay_mult: 1
}
param {
lr_mult: 2
decay_mult: 0
}
convolution_param {
num_output: 256
pad: 1
kernel_size: 3
group: 1
weight_filler {
type: "gaussian"
std: 0.01
}
bias_filler {
type: "constant"
value: 0.1
}
}
}
layer {
name: "relu5"
type: "ReLU"
bottom: "conv5"
top: "conv5"
}
layer {
name: "pool5"
type: "Pooling"
bottom: "conv5"
top: "pool5"
pooling_param {
pool: MAX
kernel_size: 3
stride: 2
}
}
layer {
name: "fc6"
type: "InnerProduct"
bottom: "pool5"
top: "fc6"
param {
lr_mult: 1
decay_mult: 1
}
param {
lr_mult: 2
decay_mult: 0
}
inner_product_param {
num_output: 4096
weight_filler {
type: "gaussian"
std: 0.005
}
bias_filler {
type: "constant"
value: 0.1
}
}
}
layer {
name: "relu6"
type: "ReLU"
bottom: "fc6"
top: "fc6"
}
layer {
name: "drop6"
type: "Dropout"
bottom: "fc6"
top: "fc6"
dropout_param {
dropout_ratio: 0.5
}
}
layer {
name: "fc7"
type: "InnerProduct"
bottom: "fc6"
top: "fc7"
param {
lr_mult: 1
decay_mult: 1
}
param {
lr_mult: 2
decay_mult: 0
}
inner_product_param {
num_output: 4096
weight_filler {
type: "gaussian"
std: 0.005
}
bias_filler {
type: "constant"
value: 0.1
}
}
}
layer {
name: "relu7"
type: "ReLU"
bottom: "fc7"
top: "fc7"
}
layer {
name: "drop7"
type: "Dropout"
bottom: "fc7"
top: "fc7"
dropout_param {
dropout_ratio: 0.5
}
}
layer {
name: "fc8_species"
type: "InnerProduct"
bottom: "fc7"
top: "fc8_species"
param {
lr_mult: 1
decay_mult: 1
}
param {
lr_mult: 2
decay_mult: 0
}
inner_product_param {
num_output: 967
weight_filler {
type: "gaussian"
std: 0.005
}
bias_filler {
type: "constant"
value: 0.1
}
}
}
layer {
name: "loss"
type: "SoftmaxWithLoss"
bottom: "fc8_species"
bottom: "label"
top: "loss"
}
layer {
name: "accuracy"
type: "Accuracy"
bottom: "fc8_species"
bottom: "label"
top: "accuracy"
include {
phase: TEST
}
}
I0705 07:15:11.321192  6436 layer_factory.hpp:76] Creating layer data
I0705 07:15:11.321266  6436 net.cpp:109] Creating Layer data
I0705 07:15:11.321270  6436 net.cpp:414] data -> data
I0705 07:15:11.321275  6436 data_transformer.cpp:25] Loading mean file from: /home/ffw/scratch/plantClef/scatnet_output/train/a4_m2_s1s2s4s8_f2/lmdb_mean_coeff.binaryproto
I0705 07:15:11.322480  6452 db_lmdb.cpp:36] Opened lmdb /home/ffw/scratch/plantClef/scatnet_output/test/a4_m2_s1s2s4s8_f2/lmdb_data
I0705 07:15:11.322612  6436 data_layer.cpp:45] output data size: 100,339,19,19
I0705 07:15:11.374653  6436 net.cpp:153] Setting up data
I0705 07:15:11.374673  6436 net.cpp:160] Top shape: 100 339 19 19 (12237900)
I0705 07:15:11.374678  6436 net.cpp:168] Memory required for data: 48951600
I0705 07:15:11.374682  6436 layer_factory.hpp:76] Creating layer label
I0705 07:15:11.374773  6436 net.cpp:109] Creating Layer label
I0705 07:15:11.374780  6436 net.cpp:414] label -> label
I0705 07:15:11.375932  6454 db_lmdb.cpp:36] Opened lmdb /home/ffw/scratch/plantClef/scatnet_output/test/a4_m2_s1s2s4s8_f2/lmdb_labels
I0705 07:15:11.379771  6436 data_layer.cpp:45] output data size: 100,1,1,1
I0705 07:15:11.379860  6436 net.cpp:153] Setting up label
I0705 07:15:11.379866  6436 net.cpp:160] Top shape: 100 1 1 1 (100)
I0705 07:15:11.379868  6436 net.cpp:168] Memory required for data: 48952000
I0705 07:15:11.379870  6436 layer_factory.hpp:76] Creating layer label_label_0_split
I0705 07:15:11.379876  6436 net.cpp:109] Creating Layer label_label_0_split
I0705 07:15:11.379879  6436 net.cpp:457] label_label_0_split <- label
I0705 07:15:11.379883  6436 net.cpp:414] label_label_0_split -> label_label_0_split_0
I0705 07:15:11.379886  6436 net.cpp:414] label_label_0_split -> label_label_0_split_1
I0705 07:15:11.379935  6436 net.cpp:153] Setting up label_label_0_split
I0705 07:15:11.379940  6436 net.cpp:160] Top shape: 100 1 1 1 (100)
I0705 07:15:11.379941  6436 net.cpp:160] Top shape: 100 1 1 1 (100)
I0705 07:15:11.379943  6436 net.cpp:168] Memory required for data: 48952800
I0705 07:15:11.379945  6436 layer_factory.hpp:76] Creating layer conv4
I0705 07:15:11.379951  6436 net.cpp:109] Creating Layer conv4
I0705 07:15:11.379953  6436 net.cpp:457] conv4 <- data
I0705 07:15:11.379956  6436 net.cpp:414] conv4 -> conv4
I0705 07:15:11.403218  6436 net.cpp:153] Setting up conv4
I0705 07:15:11.403237  6436 net.cpp:160] Top shape: 100 384 19 19 (13862400)
I0705 07:15:11.403240  6436 net.cpp:168] Memory required for data: 104402400
I0705 07:15:11.403249  6436 layer_factory.hpp:76] Creating layer relu4
I0705 07:15:11.403255  6436 net.cpp:109] Creating Layer relu4
I0705 07:15:11.403259  6436 net.cpp:457] relu4 <- conv4
I0705 07:15:11.403262  6436 net.cpp:400] relu4 -> conv4 (in-place)
I0705 07:15:11.403269  6436 net.cpp:153] Setting up relu4
I0705 07:15:11.403271  6436 net.cpp:160] Top shape: 100 384 19 19 (13862400)
I0705 07:15:11.403272  6436 net.cpp:168] Memory required for data: 159852000
I0705 07:15:11.403275  6436 layer_factory.hpp:76] Creating layer conv5
I0705 07:15:11.403280  6436 net.cpp:109] Creating Layer conv5
I0705 07:15:11.403281  6436 net.cpp:457] conv5 <- conv4
I0705 07:15:11.403285  6436 net.cpp:414] conv5 -> conv5
I0705 07:15:11.420933  6436 net.cpp:153] Setting up conv5
I0705 07:15:11.420950  6436 net.cpp:160] Top shape: 100 256 19 19 (9241600)
I0705 07:15:11.420953  6436 net.cpp:168] Memory required for data: 196818400
I0705 07:15:11.420960  6436 layer_factory.hpp:76] Creating layer relu5
I0705 07:15:11.420966  6436 net.cpp:109] Creating Layer relu5
I0705 07:15:11.420969  6436 net.cpp:457] relu5 <- conv5
I0705 07:15:11.420974  6436 net.cpp:400] relu5 -> conv5 (in-place)
I0705 07:15:11.420999  6436 net.cpp:153] Setting up relu5
I0705 07:15:11.421001  6436 net.cpp:160] Top shape: 100 256 19 19 (9241600)
I0705 07:15:11.421003  6436 net.cpp:168] Memory required for data: 233784800
I0705 07:15:11.421005  6436 layer_factory.hpp:76] Creating layer pool5
I0705 07:15:11.421010  6436 net.cpp:109] Creating Layer pool5
I0705 07:15:11.421011  6436 net.cpp:457] pool5 <- conv5
I0705 07:15:11.421015  6436 net.cpp:414] pool5 -> pool5
I0705 07:15:11.421039  6436 net.cpp:153] Setting up pool5
I0705 07:15:11.421042  6436 net.cpp:160] Top shape: 100 256 9 9 (2073600)
I0705 07:15:11.421044  6436 net.cpp:168] Memory required for data: 242079200
I0705 07:15:11.421046  6436 layer_factory.hpp:76] Creating layer fc6
I0705 07:15:11.421051  6436 net.cpp:109] Creating Layer fc6
I0705 07:15:11.421053  6436 net.cpp:457] fc6 <- pool5
I0705 07:15:11.421056  6436 net.cpp:414] fc6 -> fc6
I0705 07:15:12.960407  6436 net.cpp:153] Setting up fc6
I0705 07:15:12.960423  6436 net.cpp:160] Top shape: 100 4096 (409600)
I0705 07:15:12.960427  6436 net.cpp:168] Memory required for data: 243717600
I0705 07:15:12.960434  6436 layer_factory.hpp:76] Creating layer relu6
I0705 07:15:12.960441  6436 net.cpp:109] Creating Layer relu6
I0705 07:15:12.960444  6436 net.cpp:457] relu6 <- fc6
I0705 07:15:12.960449  6436 net.cpp:400] relu6 -> fc6 (in-place)
I0705 07:15:12.960456  6436 net.cpp:153] Setting up relu6
I0705 07:15:12.960459  6436 net.cpp:160] Top shape: 100 4096 (409600)
I0705 07:15:12.960461  6436 net.cpp:168] Memory required for data: 245356000
I0705 07:15:12.960464  6436 layer_factory.hpp:76] Creating layer drop6
I0705 07:15:12.960467  6436 net.cpp:109] Creating Layer drop6
I0705 07:15:12.960469  6436 net.cpp:457] drop6 <- fc6
I0705 07:15:12.960471  6436 net.cpp:400] drop6 -> fc6 (in-place)
I0705 07:15:12.960490  6436 net.cpp:153] Setting up drop6
I0705 07:15:12.960494  6436 net.cpp:160] Top shape: 100 4096 (409600)
I0705 07:15:12.960495  6436 net.cpp:168] Memory required for data: 246994400
I0705 07:15:12.960497  6436 layer_factory.hpp:76] Creating layer fc7
I0705 07:15:12.960502  6436 net.cpp:109] Creating Layer fc7
I0705 07:15:12.960505  6436 net.cpp:457] fc7 <- fc6
I0705 07:15:12.960506  6436 net.cpp:414] fc7 -> fc7
I0705 07:15:13.262626  6436 net.cpp:153] Setting up fc7
I0705 07:15:13.262645  6436 net.cpp:160] Top shape: 100 4096 (409600)
I0705 07:15:13.262648  6436 net.cpp:168] Memory required for data: 248632800
I0705 07:15:13.262655  6436 layer_factory.hpp:76] Creating layer relu7
I0705 07:15:13.262660  6436 net.cpp:109] Creating Layer relu7
I0705 07:15:13.262663  6436 net.cpp:457] relu7 <- fc7
I0705 07:15:13.262667  6436 net.cpp:400] relu7 -> fc7 (in-place)
I0705 07:15:13.262675  6436 net.cpp:153] Setting up relu7
I0705 07:15:13.262677  6436 net.cpp:160] Top shape: 100 4096 (409600)
I0705 07:15:13.262679  6436 net.cpp:168] Memory required for data: 250271200
I0705 07:15:13.262681  6436 layer_factory.hpp:76] Creating layer drop7
I0705 07:15:13.262684  6436 net.cpp:109] Creating Layer drop7
I0705 07:15:13.262686  6436 net.cpp:457] drop7 <- fc7
I0705 07:15:13.262688  6436 net.cpp:400] drop7 -> fc7 (in-place)
I0705 07:15:13.262707  6436 net.cpp:153] Setting up drop7
I0705 07:15:13.262711  6436 net.cpp:160] Top shape: 100 4096 (409600)
I0705 07:15:13.262712  6436 net.cpp:168] Memory required for data: 251909600
I0705 07:15:13.262714  6436 layer_factory.hpp:76] Creating layer fc8_species
I0705 07:15:13.262719  6436 net.cpp:109] Creating Layer fc8_species
I0705 07:15:13.262720  6436 net.cpp:457] fc8_species <- fc7
I0705 07:15:13.262723  6436 net.cpp:414] fc8_species -> fc8_species
I0705 07:15:13.334156  6436 net.cpp:153] Setting up fc8_species
I0705 07:15:13.334172  6436 net.cpp:160] Top shape: 100 967 (96700)
I0705 07:15:13.334175  6436 net.cpp:168] Memory required for data: 252296400
I0705 07:15:13.334183  6436 layer_factory.hpp:76] Creating layer fc8_species_fc8_species_0_split
I0705 07:15:13.334189  6436 net.cpp:109] Creating Layer fc8_species_fc8_species_0_split
I0705 07:15:13.334192  6436 net.cpp:457] fc8_species_fc8_species_0_split <- fc8_species
I0705 07:15:13.334213  6436 net.cpp:414] fc8_species_fc8_species_0_split -> fc8_species_fc8_species_0_split_0
I0705 07:15:13.334218  6436 net.cpp:414] fc8_species_fc8_species_0_split -> fc8_species_fc8_species_0_split_1
I0705 07:15:13.334246  6436 net.cpp:153] Setting up fc8_species_fc8_species_0_split
I0705 07:15:13.334250  6436 net.cpp:160] Top shape: 100 967 (96700)
I0705 07:15:13.334252  6436 net.cpp:160] Top shape: 100 967 (96700)
I0705 07:15:13.334254  6436 net.cpp:168] Memory required for data: 253070000
I0705 07:15:13.334256  6436 layer_factory.hpp:76] Creating layer loss
I0705 07:15:13.334261  6436 net.cpp:109] Creating Layer loss
I0705 07:15:13.334264  6436 net.cpp:457] loss <- fc8_species_fc8_species_0_split_0
I0705 07:15:13.334265  6436 net.cpp:457] loss <- label_label_0_split_0
I0705 07:15:13.334269  6436 net.cpp:414] loss -> loss
…
