…
I0704 10:46:01.454573 29613 net.cpp:325] The NetState phase (0) differed from the phase (1) specified by a rule in layer accuracy
I0704 10:46:01.454785 29613 net.cpp:52] Initializing net from parameters:
state {
phase: TRAIN
}
layer {
name: "train-data"
type: "Data"
top: "data"
top: "label"
include {
phase: TRAIN
}
transform_param {
mirror: true
crop_size: 227
mean_file: "/home/zml374/workspace/DIGITS/digits/jobs/20160704-085910-0cc9/mean.binaryproto"
}
data_param {
source: "/home/zml374/workspace/DIGITS/digits/jobs/20160704-085910-0cc9/train_db"
batch_size: 400
backend: LMDB
}
}
layer {
name: "conv1"
type: "Convolution"
bottom: "data"
top: "conv1"
param {
lr_mult: 0
decay_mult: 0
}
param {
lr_mult: 0
decay_mult: 0
}
convolution_param {
num_output: 96
kernel_size: 11
stride: 4
weight_filler {
type: "gaussian"
std: 0.01
}
bias_filler {
type: "constant"
value: 0
}
}
}
layer {
name: "relu1"
type: "ReLU"
bottom: "conv1"
top: "conv1"
}
layer {
name: "norm1"
type: "LRN"
bottom: "conv1"
top: "norm1"
lrn_param {
local_size: 5
alpha: 0.0001
beta: 0.75
}
}
layer {
name: "pool1"
type: "Pooling"
bottom: "norm1"
top: "pool1"
pooling_param {
pool: MAX
kernel_size: 3
stride: 2
}
}
layer {
name: "conv2"
type: "Convolution"
bottom: "pool1"
top: "conv2"
param {
lr_mult: 0
decay_mult: 0
}
param {
lr_mult: 0
decay_mult: 0
}
convolution_param {
num_output: 256
pad: 2
kernel_size: 5
group: 2
weight_filler {
type: "gaussian"
std: 0.01
}
bias_filler {
type: "constant"
value: 0.1
}
}
}
layer {
name: "relu2"
type: "ReLU"
bottom: "conv2"
top: "conv2"
}
layer {
name: "norm2"
type: "LRN"
bottom: "conv2"
top: "norm2"
lrn_param {
local_size: 5
alpha: 0.0001
beta: 0.75
}
}
layer {
name: "pool2"
type: "Pooling"
bottom: "norm2"
top: "pool2"
pooling_param {
pool: MAX
kernel_size: 3
stride: 2
}
}
layer {
name: "conv3"
type: "Convolution"
bottom: "pool2"
top: "conv3"
param {
lr_mult: 0
decay_mult: 0
}
param {
lr_mult: 0
decay_mult: 0
}
convolution_param {
num_output: 384
pad: 1
kernel_size: 3
weight_filler {
type: "gaussian"
std: 0.01
}
bias_filler {
type: "constant"
value: 0
}
}
}
layer {
name: "relu3"
type: "ReLU"
bottom: "conv3"
top: "conv3"
}
layer {
name: "conv4"
type: "Convolution"
bottom: "conv3"
top: "conv4"
param {
lr_mult: 0
decay_mult: 0
}
param {
lr_mult: 0
decay_mult: 0
}
convolution_param {
num_output: 384
pad: 1
kernel_size: 3
group: 2
weight_filler {
type: "gaussian"
std: 0.01
}
bias_filler {
type: "constant"
value: 0.1
}
}
}
layer {
name: "relu4"
type: "ReLU"
bottom: "conv4"
top: "conv4"
}
layer {
name: "conv5"
type: "Convolution"
bottom: "conv4"
top: "conv5"
param {
lr_mult: 0
decay_mult: 0
}
param {
lr_mult: 0
decay_mult: 0
}
convolution_param {
num_output: 256
pad: 1
kernel_size: 3
group: 2
weight_filler {
type: "gaussian"
std: 0.01
}
bias_filler {
type: "constant"
value: 0.1
}
}
}
layer {
name: "relu5"
type: "ReLU"
bottom: "conv5"
top: "conv5"
}
layer {
name: "pool5"
type: "Pooling"
bottom: "conv5"
top: "pool5"
pooling_param {
pool: MAX
kernel_size: 3
stride: 2
}
}
layer {
name: "fc6_clean"
type: "InnerProduct"
bottom: "pool5"
top: "fc6_clean"
param {
lr_mult: 1
decay_mult: 1
}
param {
lr_mult: 2
decay_mult: 0
}
inner_product_param {
num_output: 4096
weight_filler {
type: "gaussian"
std: 0.005
}
bias_filler {
type: "constant"
value: 0.1
}
}
}
layer {
name: "relu6"
type: "ReLU"
bottom: "fc6_clean"
top: "fc6_clean"
}
layer {
name: "drop6"
type: "Dropout"
bottom: "fc6_clean"
top: "fc6_clean"
dropout_param {
dropout_ratio: 0.5
}
}
layer {
name: "fc7_clean"
type: "InnerProduct"
bottom: "fc6_clean"
top: "fc7_clean"
param {
lr_mult: 1
decay_mult: 1
}
param {
lr_mult: 2
decay_mult: 0
}
inner_product_param {
num_output: 4096
weight_filler {
type: "gaussian"
std: 0.005
}
bias_filler {
type: "constant"
value: 0.1
}
}
}
layer {
name: "relu7"
type: "ReLU"
bottom: "fc7_clean"
top: "fc7_clean"
}
layer {
name: "drop7"
type: "Dropout"
bottom: "fc7_clean"
top: "fc7_clean"
dropout_param {
dropout_ratio: 0.5
}
}
layer {
name: "fc8_clean"
type: "InnerProduct"
bottom: "fc7_clean"
top: "fc8_clean"
param {
lr_mult: 1
decay_mult: 1
}
param {
lr_mult: 2
decay_mult: 0
}
inner_product_param {
num_output: 967
weight_filler {
type: "gaussian"
std: 0.01
}
bias_filler {
type: "constant"
value: 0
}
}
}
layer {
name: "loss"
type: "SoftmaxWithLoss"
bottom: "fc8_clean"
bottom: "label"
top: "loss"
}
I0704 10:46:01.454921 29613 layer_factory.hpp:76] Creating layer train-data
I0704 10:46:01.455660 29613 net.cpp:109] Creating Layer train-data
I0704 10:46:01.455675 29613 net.cpp:414] train-data -> data
I0704 10:46:01.455700 29613 net.cpp:414] train-data -> label
I0704 10:46:01.455721 29613 data_transformer.cpp:25] Loading mean file from: /home/zml374/workspace/DIGITS/digits/jobs/20160704-085910-0cc9/mean.binaryproto
I0704 10:46:01.457093 29642 db_lmdb.cpp:36] Opened lmdb /home/zml374/workspace/DIGITS/digits/jobs/20160704-085910-0cc9/train_db
I0704 10:46:01.463562 29613 data_layer.cpp:45] output data size: 400,3,227,227
I0704 10:46:02.050390 29613 net.cpp:153] Setting up train-data
I0704 10:46:02.050443 29613 net.cpp:160] Top shape: 400 3 227 227 (61834800)
I0704 10:46:02.050452 29613 net.cpp:160] Top shape: 400 (400)
I0704 10:46:02.050457 29613 net.cpp:168] Memory required for data: 247340800
I0704 10:46:02.050469 29613 layer_factory.hpp:76] Creating layer conv1
I0704 10:46:02.050495 29613 net.cpp:109] Creating Layer conv1
I0704 10:46:02.050503 29613 net.cpp:457] conv1 <- data
I0704 10:46:02.050520 29613 net.cpp:414] conv1 -> conv1
I0704 10:46:02.053592 29613 net.cpp:153] Setting up conv1
I0704 10:46:02.053609 29613 net.cpp:160] Top shape: 400 96 55 55 (116160000)
I0704 10:46:02.053614 29613 net.cpp:168] Memory required for data: 711980800
I0704 10:46:02.053633 29613 layer_factory.hpp:76] Creating layer relu1
I0704 10:46:02.053645 29613 net.cpp:109] Creating Layer relu1
I0704 10:46:02.053652 29613 net.cpp:457] relu1 <- conv1
I0704 10:46:02.053659 29613 net.cpp:400] relu1 -> conv1 (in-place)
I0704 10:46:02.053674 29613 net.cpp:153] Setting up relu1
I0704 10:46:02.053681 29613 net.cpp:160] Top shape: 400 96 55 55 (116160000)
I0704 10:46:02.053686 29613 net.cpp:168] Memory required for data: 1176620800
I0704 10:46:02.053691 29613 layer_factory.hpp:76] Creating layer norm1
I0704 10:46:02.053709 29613 net.cpp:109] Creating Layer norm1
I0704 10:46:02.053714 29613 net.cpp:457] norm1 <- conv1
I0704 10:46:02.053721 29613 net.cpp:414] norm1 -> norm1
I0704 10:46:02.053776 29613 net.cpp:153] Setting up norm1
I0704 10:46:02.053786 29613 net.cpp:160] Top shape: 400 96 55 55 (116160000)
I0704 10:46:02.053789 29613 net.cpp:168] Memory required for data: 1641260800
I0704 10:46:02.053794 29613 layer_factory.hpp:76] Creating layer pool1
I0704 10:46:02.053846 29613 net.cpp:109] Creating Layer pool1
I0704 10:46:02.053853 29613 net.cpp:457] pool1 <- norm1
I0704 10:46:02.053860 29613 net.cpp:414] pool1 -> pool1
I0704 10:46:02.053915 29613 net.cpp:153] Setting up pool1
I0704 10:46:02.053925 29613 net.cpp:160] Top shape: 400 96 27 27 (27993600)
I0704 10:46:02.053930 29613 net.cpp:168] Memory required for data: 1753235200
I0704 10:46:02.053935 29613 layer_factory.hpp:76] Creating layer conv2
I0704 10:46:02.053946 29613 net.cpp:109] Creating Layer conv2
I0704 10:46:02.053951 29613 net.cpp:457] conv2 <- pool1
I0704 10:46:02.053959 29613 net.cpp:414] conv2 -> conv2
I0704 10:46:02.076674 29613 net.cpp:153] Setting up conv2
I0704 10:46:02.076695 29613 net.cpp:160] Top shape: 400 256 27 27 (74649600)
I0704 10:46:02.076700 29613 net.cpp:168] Memory required for data: 2051833600
I0704 10:46:02.076712 29613 layer_factory.hpp:76] Creating layer relu2
I0704 10:46:02.076722 29613 net.cpp:109] Creating Layer relu2
I0704 10:46:02.076728 29613 net.cpp:457] relu2 <- conv2
I0704 10:46:02.076736 29613 net.cpp:400] relu2 -> conv2 (in-place)
I0704 10:46:02.076746 29613 net.cpp:153] Setting up relu2
I0704 10:46:02.076753 29613 net.cpp:160] Top shape: 400 256 27 27 (74649600)
I0704 10:46:02.076758 29613 net.cpp:168] Memory required for data: 2350432000
I0704 10:46:02.076763 29613 layer_factory.hpp:76] Creating layer norm2
I0704 10:46:02.076772 29613 net.cpp:109] Creating Layer norm2
I0704 10:46:02.076777 29613 net.cpp:457] norm2 <- conv2
I0704 10:46:02.076784 29613 net.cpp:414] norm2 -> norm2
I0704 10:46:02.076829 29613 net.cpp:153] Setting up norm2
I0704 10:46:02.076838 29613 net.cpp:160] Top shape: 400 256 27 27 (74649600)
I0704 10:46:02.076843 29613 net.cpp:168] Memory required for data: 2649030400
I0704 10:46:02.076848 29613 layer_factory.hpp:76] Creating layer pool2
I0704 10:46:02.076859 29613 net.cpp:109] Creating Layer pool2
I0704 10:46:02.076864 29613 net.cpp:457] pool2 <- norm2
I0704 10:46:02.076871 29613 net.cpp:414] pool2 -> pool2
I0704 10:46:02.076915 29613 net.cpp:153] Setting up pool2
I0704 10:46:02.076922 29613 net.cpp:160] Top shape: 400 256 13 13 (17305600)
I0704 10:46:02.076927 29613 net.cpp:168] Memory required for data: 2718252800
I0704 10:46:02.076932 29613 layer_factory.hpp:76] Creating layer conv3
I0704 10:46:02.076942 29613 net.cpp:109] Creating Layer conv3
I0704 10:46:02.076947 29613 net.cpp:457] conv3 <- pool2
I0704 10:46:02.076956 29613 net.cpp:414] conv3 -> conv3
I0704 10:46:02.110584 29613 net.cpp:153] Setting up conv3
I0704 10:46:02.110601 29613 net.cpp:160] Top shape: 400 384 13 13 (25958400)
I0704 10:46:02.110606 29613 net.cpp:168] Memory required for data: 2822086400
I0704 10:46:02.110617 29613 layer_factory.hpp:76] Creating layer relu3
I0704 10:46:02.110626 29613 net.cpp:109] Creating Layer relu3
I0704 10:46:02.110632 29613 net.cpp:457] relu3 <- conv3
I0704 10:46:02.110638 29613 net.cpp:400] relu3 -> conv3 (in-place)
I0704 10:46:02.110648 29613 net.cpp:153] Setting up relu3
I0704 10:46:02.110654 29613 net.cpp:160] Top shape: 400 384 13 13 (25958400)
I0704 10:46:02.110659 29613 net.cpp:168] Memory required for data: 2925920000
I0704 10:46:02.110663 29613 layer_factory.hpp:76] Creating layer conv4
I0704 10:46:02.110676 29613 net.cpp:109] Creating Layer conv4
I0704 10:46:02.110680 29613 net.cpp:457] conv4 <- conv3
I0704 10:46:02.110687 29613 net.cpp:414] conv4 -> conv4
I0704 10:46:02.136025 29613 net.cpp:153] Setting up conv4
I0704 10:46:02.136040 29613 net.cpp:160] Top shape: 400 384 13 13 (25958400)
I0704 10:46:02.136045 29613 net.cpp:168] Memory required for data: 3029753600
I0704 10:46:02.136054 29613 layer_factory.hpp:76] Creating layer relu4
I0704 10:46:02.136065 29613 net.cpp:109] Creating Layer relu4
I0704 10:46:02.136070 29613 net.cpp:457] relu4 <- conv4
I0704 10:46:02.136076 29613 net.cpp:400] relu4 -> conv4 (in-place)
I0704 10:46:02.136085 29613 net.cpp:153] Setting up relu4
I0704 10:46:02.136091 29613 net.cpp:160] Top shape: 400 384 13 13 (25958400)
I0704 10:46:02.136096 29613 net.cpp:168] Memory required for data: 3133587200
I0704 10:46:02.136121 29613 layer_factory.hpp:76] Creating layer conv5
I0704 10:46:02.136134 29613 net.cpp:109] Creating Layer conv5
I0704 10:46:02.136139 29613 net.cpp:457] conv5 <- conv4
I0704 10:46:02.136149 29613 net.cpp:414] conv5 -> conv5
I0704 10:46:02.155237 29613 net.cpp:153] Setting up conv5
I0704 10:46:02.155299 29613 net.cpp:160] Top shape: 400 256 13 13 (17305600)
I0704 10:46:02.155310 29613 net.cpp:168] Memory required for data: 3202809600
I0704 10:46:02.155344 29613 layer_factory.hpp:76] Creating layer relu5
I0704 10:46:02.155367 29613 net.cpp:109] Creating Layer relu5
I0704 10:46:02.155380 29613 net.cpp:457] relu5 <- conv5
I0704 10:46:02.155396 29613 net.cpp:400] relu5 -> conv5 (in-place)
I0704 10:46:02.155419 29613 net.cpp:153] Setting up relu5
I0704 10:46:02.155432 29613 net.cpp:160] Top shape: 400 256 13 13 (17305600)
I0704 10:46:02.155441 29613 net.cpp:168] Memory required for data: 3272032000
I0704 10:46:02.155450 29613 layer_factory.hpp:76] Creating layer pool5
I0704 10:46:02.155467 29613 net.cpp:109] Creating Layer pool5
I0704 10:46:02.155477 29613 net.cpp:457] pool5 <- conv5
I0704 10:46:02.155490 29613 net.cpp:414] pool5 -> pool5
I0704 10:46:02.155586 29613 net.cpp:153] Setting up pool5
I0704 10:46:02.155603 29613 net.cpp:160] Top shape: 400 256 6 6 (3686400)
I0704 10:46:02.155612 29613 net.cpp:168] Memory required for data: 3286777600
I0704 10:46:02.155622 29613 layer_factory.hpp:76] Creating layer fc6_clean
I0704 10:46:02.155647 29613 net.cpp:109] Creating Layer fc6_clean
I0704 10:46:02.155656 29613 net.cpp:457] fc6_clean <- pool5
I0704 10:46:02.155671 29613 net.cpp:414] fc6_clean -> fc6_clean
I0704 10:46:03.617449 29613 net.cpp:153] Setting up fc6_clean
I0704 10:46:03.617491 29613 net.cpp:160] Top shape: 400 4096 (1638400)
I0704 10:46:03.617497 29613 net.cpp:168] Memory required for data: 3293331200
I0704 10:46:03.617511 29613 layer_factory.hpp:76] Creating layer relu6
I0704 10:46:03.617527 29613 net.cpp:109] Creating Layer relu6
I0704 10:46:03.617533 29613 net.cpp:457] relu6 <- fc6_clean
I0704 10:46:03.617543 29613 net.cpp:400] relu6 -> fc6_clean (in-place)
I0704 10:46:03.617559 29613 net.cpp:153] Setting up relu6
I0704 10:46:03.617565 29613 net.cpp:160] Top shape: 400 4096 (1638400)
I0704 10:46:03.617570 29613 net.cpp:168] Memory required for data: 3299884800
I0704 10:46:03.617574 29613 layer_factory.hpp:76] Creating layer drop6
I0704 10:46:03.617596 29613 net.cpp:109] Creating Layer drop6
I0704 10:46:03.617601 29613 net.cpp:457] drop6 <- fc6_clean
I0704 10:46:03.617609 29613 net.cpp:400] drop6 -> fc6_clean (in-place)
I0704 10:46:03.617642 29613 net.cpp:153] Setting up drop6
I0704 10:46:03.617651 29613 net.cpp:160] Top shape: 400 4096 (1638400)
I0704 10:46:03.617655 29613 net.cpp:168] Memory required for data: 3306438400
I0704 10:46:03.617660 29613 layer_factory.hpp:76] Creating layer fc7_clean
I0704 10:46:03.617672 29613 net.cpp:109] Creating Layer fc7_clean
I0704 10:46:03.617677 29613 net.cpp:457] fc7_clean <- fc6_clean
I0704 10:46:03.617686 29613 net.cpp:414] fc7_clean -> fc7_clean
I0704 10:46:04.253581 29613 net.cpp:153] Setting up fc7_clean
I0704 10:46:04.253614 29613 net.cpp:160] Top shape: 400 4096 (1638400)
I0704 10:46:04.253619 29613 net.cpp:168] Memory required for data: 3312992000
I0704 10:46:04.253630 29613 layer_factory.hpp:76] Creating layer relu7
I0704 10:46:04.253644 29613 net.cpp:109] Creating Layer relu7
I0704 10:46:04.253649 29613 net.cpp:457] relu7 <- fc7_clean
I0704 10:46:04.253659 29613 net.cpp:400] relu7 -> fc7_clean (in-place)
I0704 10:46:04.253671 29613 net.cpp:153] Setting up relu7
I0704 10:46:04.253676 29613 net.cpp:160] Top shape: 400 4096 (1638400)
I0704 10:46:04.253680 29613 net.cpp:168] Memory required for data: 3319545600
I0704 10:46:04.253684 29613 layer_factory.hpp:76] Creating layer drop7
I0704 10:46:04.253692 29613 net.cpp:109] Creating Layer drop7
I0704 10:46:04.253695 29613 net.cpp:457] drop7 <- fc7_clean
I0704 10:46:04.253700 29613 net.cpp:400] drop7 -> fc7_clean (in-place)
I0704 10:46:04.253726 29613 net.cpp:153] Setting up drop7
I0704 10:46:04.253732 29613 net.cpp:160] Top shape: 400 4096 (1638400)
I0704 10:46:04.253773 29613 net.cpp:168] Memory required for data: 3326099200
I0704 10:46:04.253778 29613 layer_factory.hpp:76] Creating layer fc8_clean
I0704 10:46:04.253787 29613 net.cpp:109] Creating Layer fc8_clean
I0704 10:46:04.253792 29613 net.cpp:457] fc8_clean <- fc7_clean
I0704 10:46:04.253798 29613 net.cpp:414] fc8_clean -> fc8_clean
I0704 10:46:04.370374 29613 net.cpp:153] Setting up fc8_clean
I0704 10:46:04.370400 29613 net.cpp:160] Top shape: 400 967 (386800)
I0704 10:46:04.370404 29613 net.cpp:168] Memory required for data: 3327646400
I0704 10:46:04.370414 29613 layer_factory.hpp:76] Creating layer loss
I0704 10:46:04.370425 29613 net.cpp:109] Creating Layer loss
I0704 10:46:04.370430 29613 net.cpp:457] loss <- fc8_clean
I0704 10:46:04.370437 29613 net.cpp:457] loss <- label
I0704 10:46:04.370443 29613 net.cpp:414] loss -> loss
I0704 10:46:04.370453 29613 layer_factory.hpp:76] Creating layer loss
…
I0704 10:46:04.372303 29613 net.cpp:325] The NetState phase (1) differed from the phase (0) specified by a rule in layer train-data
I0704 10:46:04.372498 29613 net.cpp:52] Initializing net from parameters:
state {
phase: TEST
}
layer {
name: "val-data"
type: "Data"
top: "data"
top: "label"
include {
phase: TEST
}
transform_param {
crop_size: 227
mean_file: "/home/zml374/workspace/DIGITS/digits/jobs/20160704-085910-0cc9/mean.binaryproto"
}
data_param {
source: "/home/zml374/workspace/DIGITS/digits/jobs/20160704-085910-0cc9/val_db"
batch_size: 400
backend: LMDB
}
}
layer {
name: "conv1"
type: "Convolution"
bottom: "data"
top: "conv1"
param {
lr_mult: 0
decay_mult: 0
}
param {
lr_mult: 0
decay_mult: 0
}
convolution_param {
num_output: 96
kernel_size: 11
stride: 4
weight_filler {
type: "gaussian"
std: 0.01
}
bias_filler {
type: "constant"
value: 0
}
}
}
layer {
name: "relu1"
type: "ReLU"
bottom: "conv1"
top: "conv1"
}
layer {
name: "norm1"
type: "LRN"
bottom: "conv1"
top: "norm1"
lrn_param {
local_size: 5
alpha: 0.0001
beta: 0.75
}
}
layer {
name: "pool1"
type: "Pooling"
bottom: "norm1"
top: "pool1"
pooling_param {
pool: MAX
kernel_size: 3
stride: 2
}
}
layer {
name: "conv2"
type: "Convolution"
bottom: "pool1"
top: "conv2"
param {
lr_mult: 0
decay_mult: 0
}
param {
lr_mult: 0
decay_mult: 0
}
convolution_param {
num_output: 256
pad: 2
kernel_size: 5
group: 2
weight_filler {
type: "gaussian"
std: 0.01
}
bias_filler {
type: "constant"
value: 0.1
}
}
}
layer {
name: "relu2"
type: "ReLU"
bottom: "conv2"
top: "conv2"
}
layer {
name: "norm2"
type: "LRN"
bottom: "conv2"
top: "norm2"
lrn_param {
local_size: 5
alpha: 0.0001
beta: 0.75
}
}
layer {
name: "pool2"
type: "Pooling"
bottom: "norm2"
top: "pool2"
pooling_param {
pool: MAX
kernel_size: 3
stride: 2
}
}
layer {
name: "conv3"
type: "Convolution"
bottom: "pool2"
top: "conv3"
param {
lr_mult: 0
decay_mult: 0
}
param {
lr_mult: 0
decay_mult: 0
}
convolution_param {
num_output: 384
pad: 1
kernel_size: 3
weight_filler {
type: "gaussian"
std: 0.01
}
bias_filler {
type: "constant"
value: 0
}
}
}
layer {
name: "relu3"
type: "ReLU"
bottom: "conv3"
top: "conv3"
}
layer {
name: "conv4"
type: "Convolution"
bottom: "conv3"
top: "conv4"
param {
lr_mult: 0
decay_mult: 0
}
param {
lr_mult: 0
decay_mult: 0
}
convolution_param {
num_output: 384
pad: 1
kernel_size: 3
group: 2
weight_filler {
type: "gaussian"
std: 0.01
}
bias_filler {
type: "constant"
value: 0.1
}
}
}
layer {
name: "relu4"
type: "ReLU"
bottom: "conv4"
top: "conv4"
}
layer {
name: "conv5"
type: "Convolution"
bottom: "conv4"
top: "conv5"
param {
lr_mult: 0
decay_mult: 0
}
param {
lr_mult: 0
decay_mult: 0
}
convolution_param {
num_output: 256
pad: 1
kernel_size: 3
group: 2
weight_filler {
type: "gaussian"
std: 0.01
}
bias_filler {
type: "constant"
value: 0.1
}
}
}
layer {
name: "relu5"
type: "ReLU"
bottom: "conv5"
top: "conv5"
}
layer {
name: "pool5"
type: "Pooling"
bottom: "conv5"
top: "pool5"
pooling_param {
pool: MAX
kernel_size: 3
stride: 2
}
}
layer {
name: "fc6_clean"
type: "InnerProduct"
bottom: "pool5"
top: "fc6_clean"
param {
lr_mult: 1
decay_mult: 1
}
param {
lr_mult: 2
decay_mult: 0
}
inner_product_param {
num_output: 4096
weight_filler {
type: "gaussian"
std: 0.005
}
bias_filler {
type: "constant"
value: 0.1
}
}
}
layer {
name: "relu6"
type: "ReLU"
bottom: "fc6_clean"
top: "fc6_clean"
}
layer {
name: "drop6"
type: "Dropout"
bottom: "fc6_clean"
top: "fc6_clean"
dropout_param {
dropout_ratio: 0.5
}
}
layer {
name: "fc7_clean"
type: "InnerProduct"
bottom: "fc6_clean"
top: "fc7_clean"
param {
lr_mult: 1
decay_mult: 1
}
param {
lr_mult: 2
decay_mult: 0
}
inner_product_param {
num_output: 4096
weight_filler {
type: "gaussian"
std: 0.005
}
bias_filler {
type: "constant"
value: 0.1
}
}
}
layer {
name: "relu7"
type: "ReLU"
bottom: "fc7_clean"
top: "fc7_clean"
}
layer {
name: "drop7"
type: "Dropout"
bottom: "fc7_clean"
top: "fc7_clean"
dropout_param {
dropout_ratio: 0.5
}
}
layer {
name: "fc8_clean"
type: "InnerProduct"
bottom: "fc7_clean"
top: "fc8_clean"
param {
lr_mult: 1
decay_mult: 1
}
param {
lr_mult: 2
decay_mult: 0
}
inner_product_param {
num_output: 967
weight_filler {
type: "gaussian"
std: 0.01
}
bias_filler {
type: "constant"
value: 0
}
}
}
layer {
name: "accuracy"
type: "Accuracy"
bottom: "fc8_clean"
bottom: "label"
top: "accuracy"
include {
phase: TEST
}
}
layer {
name: "loss"
type: "SoftmaxWithLoss"
bottom: "fc8_clean"
bottom: "label"
top: "loss"
}
I0704 10:46:04.372650 29613 layer_factory.hpp:76] Creating layer val-data
I0704 10:46:04.372941 29613 net.cpp:109] Creating Layer val-data
I0704 10:46:04.372951 29613 net.cpp:414] val-data -> data
I0704 10:46:04.372961 29613 net.cpp:414] val-data -> label
I0704 10:46:04.372982 29613 data_transformer.cpp:25] Loading mean file from: /home/zml374/workspace/DIGITS/digits/jobs/20160704-085910-0cc9/mean.binaryproto
I0704 10:46:04.374236 29644 db_lmdb.cpp:36] Opened lmdb /home/zml374/workspace/DIGITS/digits/jobs/20160704-085910-0cc9/val_db
I0704 10:46:04.378126 29613 data_layer.cpp:45] output data size: 400,3,227,227
I0704 10:46:04.909332 29613 net.cpp:153] Setting up val-data
I0704 10:46:04.909366 29613 net.cpp:160] Top shape: 400 3 227 227 (61834800)
I0704 10:46:04.909373 29613 net.cpp:160] Top shape: 400 (400)
I0704 10:46:04.909376 29613 net.cpp:168] Memory required for data: 247340800
I0704 10:46:04.909384 29613 layer_factory.hpp:76] Creating layer label_val-data_1_split
I0704 10:46:04.909399 29613 net.cpp:109] Creating Layer label_val-data_1_split
I0704 10:46:04.909404 29613 net.cpp:457] label_val-data_1_split <- label
I0704 10:46:04.909412 29613 net.cpp:414] label_val-data_1_split -> label_val-data_1_split_0
I0704 10:46:04.909423 29613 net.cpp:414] label_val-data_1_split -> label_val-data_1_split_1
I0704 10:46:04.909579 29613 net.cpp:153] Setting up label_val-data_1_split
I0704 10:46:04.909587 29613 net.cpp:160] Top shape: 400 (400)
I0704 10:46:04.909592 29613 net.cpp:160] Top shape: 400 (400)
I0704 10:46:04.909595 29613 net.cpp:168] Memory required for data: 247344000
I0704 10:46:04.909600 29613 layer_factory.hpp:76] Creating layer conv1
I0704 10:46:04.909613 29613 net.cpp:109] Creating Layer conv1
I0704 10:46:04.909617 29613 net.cpp:457] conv1 <- data
I0704 10:46:04.909626 29613 net.cpp:414] conv1 -> conv1
I0704 10:46:04.911175 29613 net.cpp:153] Setting up conv1
I0704 10:46:04.911187 29613 net.cpp:160] Top shape: 400 96 55 55 (116160000)
I0704 10:46:04.911190 29613 net.cpp:168] Memory required for data: 711984000
I0704 10:46:04.911202 29613 layer_factory.hpp:76] Creating layer relu1
I0704 10:46:04.911218 29613 net.cpp:109] Creating Layer relu1
I0704 10:46:04.911234 29613 net.cpp:457] relu1 <- conv1
I0704 10:46:04.911242 29613 net.cpp:400] relu1 -> conv1 (in-place)
I0704 10:46:04.911260 29613 net.cpp:153] Setting up relu1
I0704 10:46:04.911265 29613 net.cpp:160] Top shape: 400 96 55 55 (116160000)
I0704 10:46:04.911268 29613 net.cpp:168] Memory required for data: 1176624000
I0704 10:46:04.911272 29613 layer_factory.hpp:76] Creating layer norm1
I0704 10:46:04.911283 29613 net.cpp:109] Creating Layer norm1
I0704 10:46:04.911285 29613 net.cpp:457] norm1 <- conv1
I0704 10:46:04.911291 29613 net.cpp:414] norm1 -> norm1
I0704 10:46:04.911337 29613 net.cpp:153] Setting up norm1
I0704 10:46:04.911344 29613 net.cpp:160] Top shape: 400 96 55 55 (116160000)
I0704 10:46:04.911347 29613 net.cpp:168] Memory required for data: 1641264000
I0704 10:46:04.911351 29613 layer_factory.hpp:76] Creating layer pool1
I0704 10:46:04.911360 29613 net.cpp:109] Creating Layer pool1
I0704 10:46:04.911363 29613 net.cpp:457] pool1 <- norm1
I0704 10:46:04.911370 29613 net.cpp:414] pool1 -> pool1
I0704 10:46:04.911403 29613 net.cpp:153] Setting up pool1
I0704 10:46:04.911409 29613 net.cpp:160] Top shape: 400 96 27 27 (27993600)
I0704 10:46:04.911412 29613 net.cpp:168] Memory required for data: 1753238400
I0704 10:46:04.911417 29613 layer_factory.hpp:76] Creating layer conv2
I0704 10:46:04.911443 29613 net.cpp:109] Creating Layer conv2
I0704 10:46:04.911448 29613 net.cpp:457] conv2 <- pool1
I0704 10:46:04.911454 29613 net.cpp:414] conv2 -> conv2
I0704 10:46:04.934772 29613 net.cpp:153] Setting up conv2
I0704 10:46:04.934783 29613 net.cpp:160] Top shape: 400 256 27 27 (74649600)
I0704 10:46:04.934787 29613 net.cpp:168] Memory required for data: 2051836800
I0704 10:46:04.934797 29613 layer_factory.hpp:76] Creating layer relu2
I0704 10:46:04.934804 29613 net.cpp:109] Creating Layer relu2
I0704 10:46:04.934808 29613 net.cpp:457] relu2 <- conv2
I0704 10:46:04.934814 29613 net.cpp:400] relu2 -> conv2 (in-place)
I0704 10:46:04.934821 29613 net.cpp:153] Setting up relu2
I0704 10:46:04.934825 29613 net.cpp:160] Top shape: 400 256 27 27 (74649600)
I0704 10:46:04.934829 29613 net.cpp:168] Memory required for data: 2350435200
I0704 10:46:04.934833 29613 layer_factory.hpp:76] Creating layer norm2
I0704 10:46:04.934839 29613 net.cpp:109] Creating Layer norm2
I0704 10:46:04.934844 29613 net.cpp:457] norm2 <- conv2
I0704 10:46:04.934849 29613 net.cpp:414] norm2 -> norm2
I0704 10:46:04.934886 29613 net.cpp:153] Setting up norm2
I0704 10:46:04.934893 29613 net.cpp:160] Top shape: 400 256 27 27 (74649600)
I0704 10:46:04.934896 29613 net.cpp:168] Memory required for data: 2649033600
I0704 10:46:04.934900 29613 layer_factory.hpp:76] Creating layer pool2
I0704 10:46:04.934908 29613 net.cpp:109] Creating Layer pool2
I0704 10:46:04.934912 29613 net.cpp:457] pool2 <- norm2
I0704 10:46:04.934918 29613 net.cpp:414] pool2 -> pool2
I0704 10:46:04.934950 29613 net.cpp:153] Setting up pool2
I0704 10:46:04.934957 29613 net.cpp:160] Top shape: 400 256 13 13 (17305600)
I0704 10:46:04.934959 29613 net.cpp:168] Memory required for data: 2718256000
I0704 10:46:04.934963 29613 layer_factory.hpp:76] Creating layer conv3
I0704 10:46:04.934973 29613 net.cpp:109] Creating Layer conv3
I0704 10:46:04.934975 29613 net.cpp:457] conv3 <- pool2
I0704 10:46:04.934983 29613 net.cpp:414] conv3 -> conv3
I0704 10:46:04.961374 29613 net.cpp:153] Setting up conv3
I0704 10:46:04.961387 29613 net.cpp:160] Top shape: 400 384 13 13 (25958400)
I0704 10:46:04.961391 29613 net.cpp:168] Memory required for data: 2822089600
I0704 10:46:04.961400 29613 layer_factory.hpp:76] Creating layer relu3
I0704 10:46:04.961407 29613 net.cpp:109] Creating Layer relu3
I0704 10:46:04.961412 29613 net.cpp:457] relu3 <- conv3
I0704 10:46:04.961418 29613 net.cpp:400] relu3 -> conv3 (in-place)
I0704 10:46:04.961428 29613 net.cpp:153] Setting up relu3
I0704 10:46:04.961433 29613 net.cpp:160] Top shape: 400 384 13 13 (25958400)
I0704 10:46:04.961437 29613 net.cpp:168] Memory required for data: 2925923200
I0704 10:46:04.961441 29613 layer_factory.hpp:76] Creating layer conv4
I0704 10:46:04.961463 29613 net.cpp:109] Creating Layer conv4
I0704 10:46:04.961468 29613 net.cpp:457] conv4 <- conv3
I0704 10:46:04.961477 29613 net.cpp:414] conv4 -> conv4
I0704 10:46:04.981381 29613 net.cpp:153] Setting up conv4
I0704 10:46:04.981394 29613 net.cpp:160] Top shape: 400 384 13 13 (25958400)
I0704 10:46:04.981396 29613 net.cpp:168] Memory required for data: 3029756800
I0704 10:46:04.981403 29613 layer_factory.hpp:76] Creating layer relu4
I0704 10:46:04.981410 29613 net.cpp:109] Creating Layer relu4
I0704 10:46:04.981415 29613 net.cpp:457] relu4 <- conv4
I0704 10:46:04.981420 29613 net.cpp:400] relu4 -> conv4 (in-place)
I0704 10:46:04.981426 29613 net.cpp:153] Setting up relu4
I0704 10:46:04.981431 29613 net.cpp:160] Top shape: 400 384 13 13 (25958400)
I0704 10:46:04.981434 29613 net.cpp:168] Memory required for data: 3133590400
I0704 10:46:04.981438 29613 layer_factory.hpp:76] Creating layer conv5
I0704 10:46:04.981446 29613 net.cpp:109] Creating Layer conv5
I0704 10:46:04.981449 29613 net.cpp:457] conv5 <- conv4
I0704 10:46:04.981456 29613 net.cpp:414] conv5 -> conv5
I0704 10:46:04.994693 29613 net.cpp:153] Setting up conv5
I0704 10:46:04.994704 29613 net.cpp:160] Top shape: 400 256 13 13 (17305600)
I0704 10:46:04.994709 29613 net.cpp:168] Memory required for data: 3202812800
I0704 10:46:04.994731 29613 layer_factory.hpp:76] Creating layer relu5
I0704 10:46:04.994740 29613 net.cpp:109] Creating Layer relu5
I0704 10:46:04.994743 29613 net.cpp:457] relu5 <- conv5
I0704 10:46:04.994748 29613 net.cpp:400] relu5 -> conv5 (in-place)
I0704 10:46:04.994755 29613 net.cpp:153] Setting up relu5
I0704 10:46:04.994760 29613 net.cpp:160] Top shape: 400 256 13 13 (17305600)
I0704 10:46:04.994763 29613 net.cpp:168] Memory required for data: 3272035200
I0704 10:46:04.994766 29613 layer_factory.hpp:76] Creating layer pool5
I0704 10:46:04.994776 29613 net.cpp:109] Creating Layer pool5
I0704 10:46:04.994778 29613 net.cpp:457] pool5 <- conv5
I0704 10:46:04.994786 29613 net.cpp:414] pool5 -> pool5
I0704 10:46:04.994824 29613 net.cpp:153] Setting up pool5
I0704 10:46:04.994832 29613 net.cpp:160] Top shape: 400 256 6 6 (3686400)
I0704 10:46:04.994834 29613 net.cpp:168] Memory required for data: 3286780800
I0704 10:46:04.994837 29613 layer_factory.hpp:76] Creating layer fc6_clean
I0704 10:46:04.994848 29613 net.cpp:109] Creating Layer fc6_clean
I0704 10:46:04.994850 29613 net.cpp:457] fc6_clean <- pool5
I0704 10:46:04.994858 29613 net.cpp:414] fc6_clean -> fc6_clean
I0704 10:46:06.121712 29613 net.cpp:153] Setting up fc6_clean
I0704 10:46:06.121747 29613 net.cpp:160] Top shape: 400 4096 (1638400)
I0704 10:46:06.121750 29613 net.cpp:168] Memory required for data: 3293334400
I0704 10:46:06.121762 29613 layer_factory.hpp:76] Creating layer relu6
I0704 10:46:06.121776 29613 net.cpp:109] Creating Layer relu6
I0704 10:46:06.121781 29613 net.cpp:457] relu6 <- fc6_clean
I0704 10:46:06.121790 29613 net.cpp:400] relu6 -> fc6_clean (in-place)
I0704 10:46:06.121803 29613 net.cpp:153] Setting up relu6
I0704 10:46:06.121809 29613 net.cpp:160] Top shape: 400 4096 (1638400)
I0704 10:46:06.121811 29613 net.cpp:168] Memory required for data: 3299888000
I0704 10:46:06.121815 29613 layer_factory.hpp:76] Creating layer drop6
I0704 10:46:06.121824 29613 net.cpp:109] Creating Layer drop6
I0704 10:46:06.121827 29613 net.cpp:457] drop6 <- fc6_clean
I0704 10:46:06.121832 29613 net.cpp:400] drop6 -> fc6_clean (in-place)
I0704 10:46:06.121857 29613 net.cpp:153] Setting up drop6
I0704 10:46:06.121863 29613 net.cpp:160] Top shape: 400 4096 (1638400)
I0704 10:46:06.121867 29613 net.cpp:168] Memory required for data: 3306441600
I0704 10:46:06.121870 29613 layer_factory.hpp:76] Creating layer fc7_clean
I0704 10:46:06.121881 29613 net.cpp:109] Creating Layer fc7_clean
I0704 10:46:06.121884 29613 net.cpp:457] fc7_clean <- fc6_clean
I0704 10:46:06.121891 29613 net.cpp:414] fc7_clean -> fc7_clean
I0704 10:46:06.621032 29613 net.cpp:153] Setting up fc7_clean
I0704 10:46:06.621067 29613 net.cpp:160] Top shape: 400 4096 (1638400)
I0704 10:46:06.621070 29613 net.cpp:168] Memory required for data: 3312995200
I0704 10:46:06.621081 29613 layer_factory.hpp:76] Creating layer relu7
I0704 10:46:06.621094 29613 net.cpp:109] Creating Layer relu7
I0704 10:46:06.621101 29613 net.cpp:457] relu7 <- fc7_clean
I0704 10:46:06.621110 29613 net.cpp:400] relu7 -> fc7_clean (in-place)
I0704 10:46:06.621124 29613 net.cpp:153] Setting up relu7
I0704 10:46:06.621129 29613 net.cpp:160] Top shape: 400 4096 (1638400)
I0704 10:46:06.621131 29613 net.cpp:168] Memory required for data: 3319548800
I0704 10:46:06.621135 29613 layer_factory.hpp:76] Creating layer drop7
I0704 10:46:06.621143 29613 net.cpp:109] Creating Layer drop7
I0704 10:46:06.621147 29613 net.cpp:457] drop7 <- fc7_clean
I0704 10:46:06.621152 29613 net.cpp:400] drop7 -> fc7_clean (in-place)
I0704 10:46:06.621177 29613 net.cpp:153] Setting up drop7
I0704 10:46:06.621183 29613 net.cpp:160] Top shape: 400 4096 (1638400)
I0704 10:46:06.621187 29613 net.cpp:168] Memory required for data: 3326102400
I0704 10:46:06.621191 29613 layer_factory.hpp:76] Creating layer fc8_clean
I0704 10:46:06.621201 29613 net.cpp:109] Creating Layer fc8_clean
I0704 10:46:06.621204 29613 net.cpp:457] fc8_clean <- fc7_clean
I0704 10:46:06.621211 29613 net.cpp:414] fc8_clean -> fc8_clean
I0704 10:46:06.738908 29613 net.cpp:153] Setting up fc8_clean
I0704 10:46:06.738962 29613 net.cpp:160] Top shape: 400 967 (386800)
I0704 10:46:06.738967 29613 net.cpp:168] Memory required for data: 3327649600
I0704 10:46:06.738978 29613 layer_factory.hpp:76] Creating layer fc8_clean_fc8_clean_0_split
I0704 10:46:06.738989 29613 net.cpp:109] Creating Layer fc8_clean_fc8_clean_0_split
I0704 10:46:06.738994 29613 net.cpp:457] fc8_clean_fc8_clean_0_split <- fc8_clean
I0704 10:46:06.739003 29613 net.cpp:414] fc8_clean_fc8_clean_0_split -> fc8_clean_fc8_clean_0_split_0
I0704 10:46:06.739012 29613 net.cpp:414] fc8_clean_fc8_clean_0_split -> fc8_clean_fc8_clean_0_split_1
I0704 10:46:06.739049 29613 net.cpp:153] Setting up fc8_clean_fc8_clean_0_split
I0704 10:46:06.739056 29613 net.cpp:160] Top shape: 400 967 (386800)
I0704 10:46:06.739060 29613 net.cpp:160] Top shape: 400 967 (386800)
I0704 10:46:06.739063 29613 net.cpp:168] Memory required for data: 3330744000
I0704 10:46:06.739068 29613 layer_factory.hpp:76] Creating layer accuracy
I0704 10:46:06.739075 29613 net.cpp:109] Creating Layer accuracy
I0704 10:46:06.739078 29613 net.cpp:457] accuracy <- fc8_clean_fc8_clean_0_split_0
I0704 10:46:06.739084 29613 net.cpp:457] accuracy <- label_val-data_1_split_0
I0704 10:46:06.739089 29613 net.cpp:414] accuracy -> accuracy
…
