…
I0704 23:29:23.856973 32436 net.cpp:325] The NetState phase (0) differed from the phase (1) specified by a rule in layer accuracy
I0704 23:29:23.857179 32436 net.cpp:52] Initializing net from parameters:
state {
phase: TRAIN
}
layer {
name: "train-data"
type: "Data"
top: "data"
top: "label"
include {
phase: TRAIN
}
transform_param {
mirror: true
crop_size: 227
mean_file: "/home/zml374/workspace/DIGITS/digits/jobs/20160704-085910-0cc9/mean.binaryproto"
}
data_param {
source: "/home/zml374/workspace/DIGITS/digits/jobs/20160704-085910-0cc9/train_db"
batch_size: 400
backend: LMDB
}
}
layer {
name: "conv1"
type: "Convolution"
bottom: "data"
top: "conv1"
param {
lr_mult: 0
decay_mult: 0
}
param {
lr_mult: 0
decay_mult: 0
}
convolution_param {
num_output: 96
kernel_size: 11
stride: 4
weight_filler {
type: "gaussian"
std: 0.01
}
bias_filler {
type: "constant"
value: 0
}
}
}
layer {
name: "relu1"
type: "ReLU"
bottom: "conv1"
top: "conv1"
}
layer {
name: "norm1"
type: "LRN"
bottom: "conv1"
top: "norm1"
lrn_param {
local_size: 5
alpha: 0.0001
beta: 0.75
}
}
layer {
name: "pool1"
type: "Pooling"
bottom: "norm1"
top: "pool1"
pooling_param {
pool: MAX
kernel_size: 3
stride: 2
}
}
layer {
name: "conv2"
type: "Convolution"
bottom: "pool1"
top: "conv2"
param {
lr_mult: 0
decay_mult: 0
}
param {
lr_mult: 0
decay_mult: 0
}
convolution_param {
num_output: 256
pad: 2
kernel_size: 5
group: 2
weight_filler {
type: "gaussian"
std: 0.01
}
bias_filler {
type: "constant"
value: 0.1
}
}
}
layer {
name: "relu2"
type: "ReLU"
bottom: "conv2"
top: "conv2"
}
layer {
name: "norm2"
type: "LRN"
bottom: "conv2"
top: "norm2"
lrn_param {
local_size: 5
alpha: 0.0001
beta: 0.75
}
}
layer {
name: "pool2"
type: "Pooling"
bottom: "norm2"
top: "pool2"
pooling_param {
pool: MAX
kernel_size: 3
stride: 2
}
}
layer {
name: "conv3"
type: "Convolution"
bottom: "pool2"
top: "conv3"
param {
lr_mult: 0
decay_mult: 0
}
param {
lr_mult: 0
decay_mult: 0
}
convolution_param {
num_output: 384
pad: 1
kernel_size: 3
weight_filler {
type: "gaussian"
std: 0.01
}
bias_filler {
type: "constant"
value: 0
}
}
}
layer {
name: "relu3"
type: "ReLU"
bottom: "conv3"
top: "conv3"
}
layer {
name: "conv4"
type: "Convolution"
bottom: "conv3"
top: "conv4"
param {
lr_mult: 0
decay_mult: 0
}
param {
lr_mult: 0
decay_mult: 0
}
convolution_param {
num_output: 384
pad: 1
kernel_size: 3
group: 2
weight_filler {
type: "gaussian"
std: 0.01
}
bias_filler {
type: "constant"
value: 0.1
}
}
}
layer {
name: "relu4"
type: "ReLU"
bottom: "conv4"
top: "conv4"
}
layer {
name: "conv5"
type: "Convolution"
bottom: "conv4"
top: "conv5"
param {
lr_mult: 0
decay_mult: 0
}
param {
lr_mult: 0
decay_mult: 0
}
convolution_param {
num_output: 256
pad: 1
kernel_size: 3
group: 2
weight_filler {
type: "gaussian"
std: 0.01
}
bias_filler {
type: "constant"
value: 0.1
}
}
}
layer {
name: "relu5"
type: "ReLU"
bottom: "conv5"
top: "conv5"
}
layer {
name: "pool5"
type: "Pooling"
bottom: "conv5"
top: "pool5"
pooling_param {
pool: MAX
kernel_size: 3
stride: 2
}
}
layer {
name: "fc6_clean"
type: "InnerProduct"
bottom: "pool5"
top: "fc6_clean"
param {
lr_mult: 0
decay_mult: 0
}
param {
lr_mult: 0
decay_mult: 0
}
inner_product_param {
num_output: 4096
weight_filler {
type: "gaussian"
std: 0.005
}
bias_filler {
type: "constant"
value: 0.1
}
}
}
layer {
name: "relu6"
type: "ReLU"
bottom: "fc6_clean"
top: "fc6_clean"
}
layer {
name: "drop6"
type: "Dropout"
bottom: "fc6_clean"
top: "fc6_clean"
dropout_param {
dropout_ratio: 0.5
}
}
layer {
name: "fc7_clean"
type: "InnerProduct"
bottom: "fc6_clean"
top: "fc7_clean"
param {
lr_mult: 0
decay_mult: 0
}
param {
lr_mult: 0
decay_mult: 0
}
inner_product_param {
num_output: 4096
weight_filler {
type: "gaussian"
std: 0.005
}
bias_filler {
type: "constant"
value: 0.1
}
}
}
layer {
name: "relu7"
type: "ReLU"
bottom: "fc7_clean"
top: "fc7_clean"
}
layer {
name: "drop7"
type: "Dropout"
bottom: "fc7_clean"
top: "fc7_clean"
dropout_param {
dropout_ratio: 0.5
}
}
layer {
name: "fc8_clean"
type: "InnerProduct"
bottom: "fc7_clean"
top: "fc8_clean"
param {
lr_mult: 1
decay_mult: 1
}
param {
lr_mult: 2
decay_mult: 0
}
inner_product_param {
num_output: 967
weight_filler {
type: "gaussian"
std: 0.01
}
bias_filler {
type: "constant"
value: 0
}
}
}
layer {
name: "loss"
type: "SoftmaxWithLoss"
bottom: "fc8_clean"
bottom: "label"
top: "loss"
}
I0704 23:29:23.857311 32436 layer_factory.hpp:76] Creating layer train-data
I0704 23:29:23.858063 32436 net.cpp:109] Creating Layer train-data
I0704 23:29:23.858078 32436 net.cpp:414] train-data -> data
I0704 23:29:23.858104 32436 net.cpp:414] train-data -> label
I0704 23:29:23.858119 32436 data_transformer.cpp:25] Loading mean file from: /home/zml374/workspace/DIGITS/digits/jobs/20160704-085910-0cc9/mean.binaryproto
I0704 23:29:23.862108 32465 db_lmdb.cpp:36] Opened lmdb /home/zml374/workspace/DIGITS/digits/jobs/20160704-085910-0cc9/train_db
I0704 23:29:23.866513 32436 data_layer.cpp:45] output data size: 400,3,227,227
I0704 23:29:24.456604 32436 net.cpp:153] Setting up train-data
I0704 23:29:24.456671 32436 net.cpp:160] Top shape: 400 3 227 227 (61834800)
I0704 23:29:24.456681 32436 net.cpp:160] Top shape: 400 (400)
I0704 23:29:24.456686 32436 net.cpp:168] Memory required for data: 247340800
I0704 23:29:24.456699 32436 layer_factory.hpp:76] Creating layer conv1
I0704 23:29:24.456725 32436 net.cpp:109] Creating Layer conv1
I0704 23:29:24.456732 32436 net.cpp:457] conv1 <- data
I0704 23:29:24.456750 32436 net.cpp:414] conv1 -> conv1
I0704 23:29:24.460158 32436 net.cpp:153] Setting up conv1
I0704 23:29:24.460177 32436 net.cpp:160] Top shape: 400 96 55 55 (116160000)
I0704 23:29:24.460183 32436 net.cpp:168] Memory required for data: 711980800
I0704 23:29:24.460204 32436 layer_factory.hpp:76] Creating layer relu1
I0704 23:29:24.460218 32436 net.cpp:109] Creating Layer relu1
I0704 23:29:24.460223 32436 net.cpp:457] relu1 <- conv1
I0704 23:29:24.460232 32436 net.cpp:400] relu1 -> conv1 (in-place)
I0704 23:29:24.460254 32436 net.cpp:153] Setting up relu1
I0704 23:29:24.460261 32436 net.cpp:160] Top shape: 400 96 55 55 (116160000)
I0704 23:29:24.460266 32436 net.cpp:168] Memory required for data: 1176620800
I0704 23:29:24.460271 32436 layer_factory.hpp:76] Creating layer norm1
I0704 23:29:24.460288 32436 net.cpp:109] Creating Layer norm1
I0704 23:29:24.460292 32436 net.cpp:457] norm1 <- conv1
I0704 23:29:24.460299 32436 net.cpp:414] norm1 -> norm1
I0704 23:29:24.460363 32436 net.cpp:153] Setting up norm1
I0704 23:29:24.460373 32436 net.cpp:160] Top shape: 400 96 55 55 (116160000)
I0704 23:29:24.460378 32436 net.cpp:168] Memory required for data: 1641260800
I0704 23:29:24.460384 32436 layer_factory.hpp:76] Creating layer pool1
I0704 23:29:24.460438 32436 net.cpp:109] Creating Layer pool1
I0704 23:29:24.460445 32436 net.cpp:457] pool1 <- norm1
I0704 23:29:24.460453 32436 net.cpp:414] pool1 -> pool1
I0704 23:29:24.460507 32436 net.cpp:153] Setting up pool1
I0704 23:29:24.460518 32436 net.cpp:160] Top shape: 400 96 27 27 (27993600)
I0704 23:29:24.460523 32436 net.cpp:168] Memory required for data: 1753235200
I0704 23:29:24.460528 32436 layer_factory.hpp:76] Creating layer conv2
I0704 23:29:24.460541 32436 net.cpp:109] Creating Layer conv2
I0704 23:29:24.460546 32436 net.cpp:457] conv2 <- pool1
I0704 23:29:24.460553 32436 net.cpp:414] conv2 -> conv2
I0704 23:29:24.486225 32436 net.cpp:153] Setting up conv2
I0704 23:29:24.486246 32436 net.cpp:160] Top shape: 400 256 27 27 (74649600)
I0704 23:29:24.486251 32436 net.cpp:168] Memory required for data: 2051833600
I0704 23:29:24.486264 32436 layer_factory.hpp:76] Creating layer relu2
I0704 23:29:24.486274 32436 net.cpp:109] Creating Layer relu2
I0704 23:29:24.486281 32436 net.cpp:457] relu2 <- conv2
I0704 23:29:24.486289 32436 net.cpp:400] relu2 -> conv2 (in-place)
I0704 23:29:24.486299 32436 net.cpp:153] Setting up relu2
I0704 23:29:24.486306 32436 net.cpp:160] Top shape: 400 256 27 27 (74649600)
I0704 23:29:24.486311 32436 net.cpp:168] Memory required for data: 2350432000
I0704 23:29:24.486316 32436 layer_factory.hpp:76] Creating layer norm2
I0704 23:29:24.486325 32436 net.cpp:109] Creating Layer norm2
I0704 23:29:24.486330 32436 net.cpp:457] norm2 <- conv2
I0704 23:29:24.486338 32436 net.cpp:414] norm2 -> norm2
I0704 23:29:24.486392 32436 net.cpp:153] Setting up norm2
I0704 23:29:24.486400 32436 net.cpp:160] Top shape: 400 256 27 27 (74649600)
I0704 23:29:24.486404 32436 net.cpp:168] Memory required for data: 2649030400
I0704 23:29:24.486409 32436 layer_factory.hpp:76] Creating layer pool2
I0704 23:29:24.486421 32436 net.cpp:109] Creating Layer pool2
I0704 23:29:24.486425 32436 net.cpp:457] pool2 <- norm2
I0704 23:29:24.486434 32436 net.cpp:414] pool2 -> pool2
I0704 23:29:24.486474 32436 net.cpp:153] Setting up pool2
I0704 23:29:24.486484 32436 net.cpp:160] Top shape: 400 256 13 13 (17305600)
I0704 23:29:24.486488 32436 net.cpp:168] Memory required for data: 2718252800
I0704 23:29:24.486492 32436 layer_factory.hpp:76] Creating layer conv3
I0704 23:29:24.486505 32436 net.cpp:109] Creating Layer conv3
I0704 23:29:24.486510 32436 net.cpp:457] conv3 <- pool2
I0704 23:29:24.486521 32436 net.cpp:414] conv3 -> conv3
I0704 23:29:24.520102 32436 net.cpp:153] Setting up conv3
I0704 23:29:24.520118 32436 net.cpp:160] Top shape: 400 384 13 13 (25958400)
I0704 23:29:24.520124 32436 net.cpp:168] Memory required for data: 2822086400
I0704 23:29:24.520138 32436 layer_factory.hpp:76] Creating layer relu3
I0704 23:29:24.520148 32436 net.cpp:109] Creating Layer relu3
I0704 23:29:24.520153 32436 net.cpp:457] relu3 <- conv3
I0704 23:29:24.520160 32436 net.cpp:400] relu3 -> conv3 (in-place)
I0704 23:29:24.520170 32436 net.cpp:153] Setting up relu3
I0704 23:29:24.520176 32436 net.cpp:160] Top shape: 400 384 13 13 (25958400)
I0704 23:29:24.520181 32436 net.cpp:168] Memory required for data: 2925920000
I0704 23:29:24.520185 32436 layer_factory.hpp:76] Creating layer conv4
I0704 23:29:24.520196 32436 net.cpp:109] Creating Layer conv4
I0704 23:29:24.520201 32436 net.cpp:457] conv4 <- conv3
I0704 23:29:24.520210 32436 net.cpp:414] conv4 -> conv4
I0704 23:29:24.545408 32436 net.cpp:153] Setting up conv4
I0704 23:29:24.545423 32436 net.cpp:160] Top shape: 400 384 13 13 (25958400)
I0704 23:29:24.545428 32436 net.cpp:168] Memory required for data: 3029753600
I0704 23:29:24.545438 32436 layer_factory.hpp:76] Creating layer relu4
I0704 23:29:24.545445 32436 net.cpp:109] Creating Layer relu4
I0704 23:29:24.545450 32436 net.cpp:457] relu4 <- conv4
I0704 23:29:24.545459 32436 net.cpp:400] relu4 -> conv4 (in-place)
I0704 23:29:24.545467 32436 net.cpp:153] Setting up relu4
I0704 23:29:24.545475 32436 net.cpp:160] Top shape: 400 384 13 13 (25958400)
I0704 23:29:24.545478 32436 net.cpp:168] Memory required for data: 3133587200
I0704 23:29:24.545500 32436 layer_factory.hpp:76] Creating layer conv5
I0704 23:29:24.545513 32436 net.cpp:109] Creating Layer conv5
I0704 23:29:24.545518 32436 net.cpp:457] conv5 <- conv4
I0704 23:29:24.545528 32436 net.cpp:414] conv5 -> conv5
I0704 23:29:24.562456 32436 net.cpp:153] Setting up conv5
I0704 23:29:24.562471 32436 net.cpp:160] Top shape: 400 256 13 13 (17305600)
I0704 23:29:24.562476 32436 net.cpp:168] Memory required for data: 3202809600
I0704 23:29:24.562489 32436 layer_factory.hpp:76] Creating layer relu5
I0704 23:29:24.562500 32436 net.cpp:109] Creating Layer relu5
I0704 23:29:24.562505 32436 net.cpp:457] relu5 <- conv5
I0704 23:29:24.562512 32436 net.cpp:400] relu5 -> conv5 (in-place)
I0704 23:29:24.562522 32436 net.cpp:153] Setting up relu5
I0704 23:29:24.562528 32436 net.cpp:160] Top shape: 400 256 13 13 (17305600)
I0704 23:29:24.562533 32436 net.cpp:168] Memory required for data: 3272032000
I0704 23:29:24.562537 32436 layer_factory.hpp:76] Creating layer pool5
I0704 23:29:24.562546 32436 net.cpp:109] Creating Layer pool5
I0704 23:29:24.562551 32436 net.cpp:457] pool5 <- conv5
I0704 23:29:24.562558 32436 net.cpp:414] pool5 -> pool5
I0704 23:29:24.562604 32436 net.cpp:153] Setting up pool5
I0704 23:29:24.562613 32436 net.cpp:160] Top shape: 400 256 6 6 (3686400)
I0704 23:29:24.562618 32436 net.cpp:168] Memory required for data: 3286777600
I0704 23:29:24.562623 32436 layer_factory.hpp:76] Creating layer fc6_clean
I0704 23:29:24.562635 32436 net.cpp:109] Creating Layer fc6_clean
I0704 23:29:24.562640 32436 net.cpp:457] fc6_clean <- pool5
I0704 23:29:24.562649 32436 net.cpp:414] fc6_clean -> fc6_clean
I0704 23:29:25.771553 32436 net.cpp:153] Setting up fc6_clean
I0704 23:29:25.771587 32436 net.cpp:160] Top shape: 400 4096 (1638400)
I0704 23:29:25.771592 32436 net.cpp:168] Memory required for data: 3293331200
I0704 23:29:25.771605 32436 layer_factory.hpp:76] Creating layer relu6
I0704 23:29:25.771617 32436 net.cpp:109] Creating Layer relu6
I0704 23:29:25.771623 32436 net.cpp:457] relu6 <- fc6_clean
I0704 23:29:25.771632 32436 net.cpp:400] relu6 -> fc6_clean (in-place)
I0704 23:29:25.771646 32436 net.cpp:153] Setting up relu6
I0704 23:29:25.771651 32436 net.cpp:160] Top shape: 400 4096 (1638400)
I0704 23:29:25.771656 32436 net.cpp:168] Memory required for data: 3299884800
I0704 23:29:25.771659 32436 layer_factory.hpp:76] Creating layer drop6
I0704 23:29:25.771677 32436 net.cpp:109] Creating Layer drop6
I0704 23:29:25.771682 32436 net.cpp:457] drop6 <- fc6_clean
I0704 23:29:25.771687 32436 net.cpp:400] drop6 -> fc6_clean (in-place)
I0704 23:29:25.771710 32436 net.cpp:153] Setting up drop6
I0704 23:29:25.771716 32436 net.cpp:160] Top shape: 400 4096 (1638400)
I0704 23:29:25.771720 32436 net.cpp:168] Memory required for data: 3306438400
I0704 23:29:25.771724 32436 layer_factory.hpp:76] Creating layer fc7_clean
I0704 23:29:25.771734 32436 net.cpp:109] Creating Layer fc7_clean
I0704 23:29:25.771739 32436 net.cpp:457] fc7_clean <- fc6_clean
I0704 23:29:25.771745 32436 net.cpp:414] fc7_clean -> fc7_clean
I0704 23:29:26.261682 32436 net.cpp:153] Setting up fc7_clean
I0704 23:29:26.261716 32436 net.cpp:160] Top shape: 400 4096 (1638400)
I0704 23:29:26.261721 32436 net.cpp:168] Memory required for data: 3312992000
I0704 23:29:26.261734 32436 layer_factory.hpp:76] Creating layer relu7
I0704 23:29:26.261746 32436 net.cpp:109] Creating Layer relu7
I0704 23:29:26.261751 32436 net.cpp:457] relu7 <- fc7_clean
I0704 23:29:26.261760 32436 net.cpp:400] relu7 -> fc7_clean (in-place)
I0704 23:29:26.261773 32436 net.cpp:153] Setting up relu7
I0704 23:29:26.261778 32436 net.cpp:160] Top shape: 400 4096 (1638400)
I0704 23:29:26.261782 32436 net.cpp:168] Memory required for data: 3319545600
I0704 23:29:26.261786 32436 layer_factory.hpp:76] Creating layer drop7
I0704 23:29:26.261795 32436 net.cpp:109] Creating Layer drop7
I0704 23:29:26.261798 32436 net.cpp:457] drop7 <- fc7_clean
I0704 23:29:26.261803 32436 net.cpp:400] drop7 -> fc7_clean (in-place)
I0704 23:29:26.261832 32436 net.cpp:153] Setting up drop7
I0704 23:29:26.261839 32436 net.cpp:160] Top shape: 400 4096 (1638400)
I0704 23:29:26.261876 32436 net.cpp:168] Memory required for data: 3326099200
I0704 23:29:26.261881 32436 layer_factory.hpp:76] Creating layer fc8_clean
I0704 23:29:26.261891 32436 net.cpp:109] Creating Layer fc8_clean
I0704 23:29:26.261895 32436 net.cpp:457] fc8_clean <- fc7_clean
I0704 23:29:26.261903 32436 net.cpp:414] fc8_clean -> fc8_clean
I0704 23:29:26.376258 32436 net.cpp:153] Setting up fc8_clean
I0704 23:29:26.376274 32436 net.cpp:160] Top shape: 400 967 (386800)
I0704 23:29:26.376278 32436 net.cpp:168] Memory required for data: 3327646400
I0704 23:29:26.376286 32436 layer_factory.hpp:76] Creating layer loss
I0704 23:29:26.376296 32436 net.cpp:109] Creating Layer loss
I0704 23:29:26.376299 32436 net.cpp:457] loss <- fc8_clean
I0704 23:29:26.376305 32436 net.cpp:457] loss <- label
I0704 23:29:26.376310 32436 net.cpp:414] loss -> loss
I0704 23:29:26.376320 32436 layer_factory.hpp:76] Creating layer loss
…
I0704 23:29:26.378093 32436 net.cpp:325] The NetState phase (1) differed from the phase (0) specified by a rule in layer train-data
I0704 23:29:26.378262 32436 net.cpp:52] Initializing net from parameters:
state {
phase: TEST
}
layer {
name: "val-data"
type: "Data"
top: "data"
top: "label"
include {
phase: TEST
}
transform_param {
crop_size: 227
mean_file: "/home/zml374/workspace/DIGITS/digits/jobs/20160704-085910-0cc9/mean.binaryproto"
}
data_param {
source: "/home/zml374/workspace/DIGITS/digits/jobs/20160704-085910-0cc9/val_db"
batch_size: 400
backend: LMDB
}
}
layer {
name: "conv1"
type: "Convolution"
bottom: "data"
top: "conv1"
param {
lr_mult: 0
decay_mult: 0
}
param {
lr_mult: 0
decay_mult: 0
}
convolution_param {
num_output: 96
kernel_size: 11
stride: 4
weight_filler {
type: "gaussian"
std: 0.01
}
bias_filler {
type: "constant"
value: 0
}
}
}
layer {
name: "relu1"
type: "ReLU"
bottom: "conv1"
top: "conv1"
}
layer {
name: "norm1"
type: "LRN"
bottom: "conv1"
top: "norm1"
lrn_param {
local_size: 5
alpha: 0.0001
beta: 0.75
}
}
layer {
name: "pool1"
type: "Pooling"
bottom: "norm1"
top: "pool1"
pooling_param {
pool: MAX
kernel_size: 3
stride: 2
}
}
layer {
name: "conv2"
type: "Convolution"
bottom: "pool1"
top: "conv2"
param {
lr_mult: 0
decay_mult: 0
}
param {
lr_mult: 0
decay_mult: 0
}
convolution_param {
num_output: 256
pad: 2
kernel_size: 5
group: 2
weight_filler {
type: "gaussian"
std: 0.01
}
bias_filler {
type: "constant"
value: 0.1
}
}
}
layer {
name: "relu2"
type: "ReLU"
bottom: "conv2"
top: "conv2"
}
layer {
name: "norm2"
type: "LRN"
bottom: "conv2"
top: "norm2"
lrn_param {
local_size: 5
alpha: 0.0001
beta: 0.75
}
}
layer {
name: "pool2"
type: "Pooling"
bottom: "norm2"
top: "pool2"
pooling_param {
pool: MAX
kernel_size: 3
stride: 2
}
}
layer {
name: "conv3"
type: "Convolution"
bottom: "pool2"
top: "conv3"
param {
lr_mult: 0
decay_mult: 0
}
param {
lr_mult: 0
decay_mult: 0
}
convolution_param {
num_output: 384
pad: 1
kernel_size: 3
weight_filler {
type: "gaussian"
std: 0.01
}
bias_filler {
type: "constant"
value: 0
}
}
}
layer {
name: "relu3"
type: "ReLU"
bottom: "conv3"
top: "conv3"
}
layer {
name: "conv4"
type: "Convolution"
bottom: "conv3"
top: "conv4"
param {
lr_mult: 0
decay_mult: 0
}
param {
lr_mult: 0
decay_mult: 0
}
convolution_param {
num_output: 384
pad: 1
kernel_size: 3
group: 2
weight_filler {
type: "gaussian"
std: 0.01
}
bias_filler {
type: "constant"
value: 0.1
}
}
}
layer {
name: "relu4"
type: "ReLU"
bottom: "conv4"
top: "conv4"
}
layer {
name: "conv5"
type: "Convolution"
bottom: "conv4"
top: "conv5"
param {
lr_mult: 0
decay_mult: 0
}
param {
lr_mult: 0
decay_mult: 0
}
convolution_param {
num_output: 256
pad: 1
kernel_size: 3
group: 2
weight_filler {
type: "gaussian"
std: 0.01
}
bias_filler {
type: "constant"
value: 0.1
}
}
}
layer {
name: "relu5"
type: "ReLU"
bottom: "conv5"
top: "conv5"
}
layer {
name: "pool5"
type: "Pooling"
bottom: "conv5"
top: "pool5"
pooling_param {
pool: MAX
kernel_size: 3
stride: 2
}
}
layer {
name: "fc6_clean"
type: "InnerProduct"
bottom: "pool5"
top: "fc6_clean"
param {
lr_mult: 0
decay_mult: 0
}
param {
lr_mult: 0
decay_mult: 0
}
inner_product_param {
num_output: 4096
weight_filler {
type: "gaussian"
std: 0.005
}
bias_filler {
type: "constant"
value: 0.1
}
}
}
layer {
name: "relu6"
type: "ReLU"
bottom: "fc6_clean"
top: "fc6_clean"
}
layer {
name: "drop6"
type: "Dropout"
bottom: "fc6_clean"
top: "fc6_clean"
dropout_param {
dropout_ratio: 0.5
}
}
layer {
name: "fc7_clean"
type: "InnerProduct"
bottom: "fc6_clean"
top: "fc7_clean"
param {
lr_mult: 0
decay_mult: 0
}
param {
lr_mult: 0
decay_mult: 0
}
inner_product_param {
num_output: 4096
weight_filler {
type: "gaussian"
std: 0.005
}
bias_filler {
type: "constant"
value: 0.1
}
}
}
layer {
name: "relu7"
type: "ReLU"
bottom: "fc7_clean"
top: "fc7_clean"
}
layer {
name: "drop7"
type: "Dropout"
bottom: "fc7_clean"
top: "fc7_clean"
dropout_param {
dropout_ratio: 0.5
}
}
layer {
name: "fc8_clean"
type: "InnerProduct"
bottom: "fc7_clean"
top: "fc8_clean"
param {
lr_mult: 1
decay_mult: 1
}
param {
lr_mult: 2
decay_mult: 0
}
inner_product_param {
num_output: 967
weight_filler {
type: "gaussian"
std: 0.01
}
bias_filler {
type: "constant"
value: 0
}
}
}
layer {
name: "accuracy"
type: "Accuracy"
bottom: "fc8_clean"
bottom: "label"
top: "accuracy"
include {
phase: TEST
}
}
layer {
name: "loss"
type: "SoftmaxWithLoss"
bottom: "fc8_clean"
bottom: "label"
top: "loss"
}
I0704 23:29:26.378383 32436 layer_factory.hpp:76] Creating layer val-data
I0704 23:29:26.378676 32436 net.cpp:109] Creating Layer val-data
I0704 23:29:26.378689 32436 net.cpp:414] val-data -> data
I0704 23:29:26.378697 32436 net.cpp:414] val-data -> label
I0704 23:29:26.378720 32436 data_transformer.cpp:25] Loading mean file from: /home/zml374/workspace/DIGITS/digits/jobs/20160704-085910-0cc9/mean.binaryproto
I0704 23:29:26.380019 32467 db_lmdb.cpp:36] Opened lmdb /home/zml374/workspace/DIGITS/digits/jobs/20160704-085910-0cc9/val_db
I0704 23:29:26.384012 32436 data_layer.cpp:45] output data size: 400,3,227,227
I0704 23:29:26.900185 32436 net.cpp:153] Setting up val-data
I0704 23:29:26.900221 32436 net.cpp:160] Top shape: 400 3 227 227 (61834800)
I0704 23:29:26.900229 32436 net.cpp:160] Top shape: 400 (400)
I0704 23:29:26.900233 32436 net.cpp:168] Memory required for data: 247340800
I0704 23:29:26.900240 32436 layer_factory.hpp:76] Creating layer label_val-data_1_split
I0704 23:29:26.900262 32436 net.cpp:109] Creating Layer label_val-data_1_split
I0704 23:29:26.900267 32436 net.cpp:457] label_val-data_1_split <- label
I0704 23:29:26.900277 32436 net.cpp:414] label_val-data_1_split -> label_val-data_1_split_0
I0704 23:29:26.900290 32436 net.cpp:414] label_val-data_1_split -> label_val-data_1_split_1
I0704 23:29:26.900415 32436 net.cpp:153] Setting up label_val-data_1_split
I0704 23:29:26.900424 32436 net.cpp:160] Top shape: 400 (400)
I0704 23:29:26.900429 32436 net.cpp:160] Top shape: 400 (400)
I0704 23:29:26.900432 32436 net.cpp:168] Memory required for data: 247344000
I0704 23:29:26.900436 32436 layer_factory.hpp:76] Creating layer conv1
I0704 23:29:26.900451 32436 net.cpp:109] Creating Layer conv1
I0704 23:29:26.900455 32436 net.cpp:457] conv1 <- data
I0704 23:29:26.900462 32436 net.cpp:414] conv1 -> conv1
I0704 23:29:26.901962 32436 net.cpp:153] Setting up conv1
I0704 23:29:26.901973 32436 net.cpp:160] Top shape: 400 96 55 55 (116160000)
I0704 23:29:26.901978 32436 net.cpp:168] Memory required for data: 711984000
I0704 23:29:26.901990 32436 layer_factory.hpp:76] Creating layer relu1
I0704 23:29:26.901999 32436 net.cpp:109] Creating Layer relu1
I0704 23:29:26.902004 32436 net.cpp:457] relu1 <- conv1
I0704 23:29:26.902011 32436 net.cpp:400] relu1 -> conv1 (in-place)
I0704 23:29:26.902020 32436 net.cpp:153] Setting up relu1
I0704 23:29:26.902025 32436 net.cpp:160] Top shape: 400 96 55 55 (116160000)
I0704 23:29:26.902029 32436 net.cpp:168] Memory required for data: 1176624000
I0704 23:29:26.902034 32436 layer_factory.hpp:76] Creating layer norm1
I0704 23:29:26.902043 32436 net.cpp:109] Creating Layer norm1
I0704 23:29:26.902047 32436 net.cpp:457] norm1 <- conv1
I0704 23:29:26.902055 32436 net.cpp:414] norm1 -> norm1
I0704 23:29:26.902110 32436 net.cpp:153] Setting up norm1
I0704 23:29:26.902118 32436 net.cpp:160] Top shape: 400 96 55 55 (116160000)
I0704 23:29:26.902122 32436 net.cpp:168] Memory required for data: 1641264000
I0704 23:29:26.902127 32436 layer_factory.hpp:76] Creating layer pool1
I0704 23:29:26.902137 32436 net.cpp:109] Creating Layer pool1
I0704 23:29:26.902140 32436 net.cpp:457] pool1 <- norm1
I0704 23:29:26.902148 32436 net.cpp:414] pool1 -> pool1
I0704 23:29:26.902195 32436 net.cpp:153] Setting up pool1
I0704 23:29:26.902202 32436 net.cpp:160] Top shape: 400 96 27 27 (27993600)
I0704 23:29:26.902206 32436 net.cpp:168] Memory required for data: 1753238400
I0704 23:29:26.902245 32436 layer_factory.hpp:76] Creating layer conv2
I0704 23:29:26.902256 32436 net.cpp:109] Creating Layer conv2
I0704 23:29:26.902261 32436 net.cpp:457] conv2 <- pool1
I0704 23:29:26.902266 32436 net.cpp:414] conv2 -> conv2
I0704 23:29:26.925721 32436 net.cpp:153] Setting up conv2
I0704 23:29:26.925736 32436 net.cpp:160] Top shape: 400 256 27 27 (74649600)
I0704 23:29:26.925740 32436 net.cpp:168] Memory required for data: 2051836800
I0704 23:29:26.925750 32436 layer_factory.hpp:76] Creating layer relu2
I0704 23:29:26.925758 32436 net.cpp:109] Creating Layer relu2
I0704 23:29:26.925762 32436 net.cpp:457] relu2 <- conv2
I0704 23:29:26.925768 32436 net.cpp:400] relu2 -> conv2 (in-place)
I0704 23:29:26.925776 32436 net.cpp:153] Setting up relu2
I0704 23:29:26.925781 32436 net.cpp:160] Top shape: 400 256 27 27 (74649600)
I0704 23:29:26.925786 32436 net.cpp:168] Memory required for data: 2350435200
I0704 23:29:26.925789 32436 layer_factory.hpp:76] Creating layer norm2
I0704 23:29:26.925798 32436 net.cpp:109] Creating Layer norm2
I0704 23:29:26.925802 32436 net.cpp:457] norm2 <- conv2
I0704 23:29:26.925808 32436 net.cpp:414] norm2 -> norm2
I0704 23:29:26.925848 32436 net.cpp:153] Setting up norm2
I0704 23:29:26.925855 32436 net.cpp:160] Top shape: 400 256 27 27 (74649600)
I0704 23:29:26.925859 32436 net.cpp:168] Memory required for data: 2649033600
I0704 23:29:26.925863 32436 layer_factory.hpp:76] Creating layer pool2
I0704 23:29:26.925871 32436 net.cpp:109] Creating Layer pool2
I0704 23:29:26.925874 32436 net.cpp:457] pool2 <- norm2
I0704 23:29:26.925880 32436 net.cpp:414] pool2 -> pool2
I0704 23:29:26.925915 32436 net.cpp:153] Setting up pool2
I0704 23:29:26.925921 32436 net.cpp:160] Top shape: 400 256 13 13 (17305600)
I0704 23:29:26.925925 32436 net.cpp:168] Memory required for data: 2718256000
I0704 23:29:26.925928 32436 layer_factory.hpp:76] Creating layer conv3
I0704 23:29:26.925937 32436 net.cpp:109] Creating Layer conv3
I0704 23:29:26.925941 32436 net.cpp:457] conv3 <- pool2
I0704 23:29:26.925948 32436 net.cpp:414] conv3 -> conv3
I0704 23:29:26.951905 32436 net.cpp:153] Setting up conv3
I0704 23:29:26.951916 32436 net.cpp:160] Top shape: 400 384 13 13 (25958400)
I0704 23:29:26.951920 32436 net.cpp:168] Memory required for data: 2822089600
I0704 23:29:26.951930 32436 layer_factory.hpp:76] Creating layer relu3
I0704 23:29:26.951936 32436 net.cpp:109] Creating Layer relu3
I0704 23:29:26.951941 32436 net.cpp:457] relu3 <- conv3
I0704 23:29:26.951946 32436 net.cpp:400] relu3 -> conv3 (in-place)
I0704 23:29:26.951953 32436 net.cpp:153] Setting up relu3
I0704 23:29:26.951958 32436 net.cpp:160] Top shape: 400 384 13 13 (25958400)
I0704 23:29:26.951961 32436 net.cpp:168] Memory required for data: 2925923200
I0704 23:29:26.951964 32436 layer_factory.hpp:76] Creating layer conv4
I0704 23:29:26.951973 32436 net.cpp:109] Creating Layer conv4
I0704 23:29:26.951977 32436 net.cpp:457] conv4 <- conv3
I0704 23:29:26.951983 32436 net.cpp:414] conv4 -> conv4
I0704 23:29:26.971287 32436 net.cpp:153] Setting up conv4
I0704 23:29:26.971299 32436 net.cpp:160] Top shape: 400 384 13 13 (25958400)
I0704 23:29:26.971302 32436 net.cpp:168] Memory required for data: 3029756800
I0704 23:29:26.971309 32436 layer_factory.hpp:76] Creating layer relu4
I0704 23:29:26.971316 32436 net.cpp:109] Creating Layer relu4
I0704 23:29:26.971320 32436 net.cpp:457] relu4 <- conv4
I0704 23:29:26.971325 32436 net.cpp:400] relu4 -> conv4 (in-place)
I0704 23:29:26.971333 32436 net.cpp:153] Setting up relu4
I0704 23:29:26.971338 32436 net.cpp:160] Top shape: 400 384 13 13 (25958400)
I0704 23:29:26.971341 32436 net.cpp:168] Memory required for data: 3133590400
I0704 23:29:26.971344 32436 layer_factory.hpp:76] Creating layer conv5
I0704 23:29:26.971354 32436 net.cpp:109] Creating Layer conv5
I0704 23:29:26.971357 32436 net.cpp:457] conv5 <- conv4
I0704 23:29:26.971364 32436 net.cpp:414] conv5 -> conv5
I0704 23:29:26.984303 32436 net.cpp:153] Setting up conv5
I0704 23:29:26.984315 32436 net.cpp:160] Top shape: 400 256 13 13 (17305600)
I0704 23:29:26.984333 32436 net.cpp:168] Memory required for data: 3202812800
I0704 23:29:26.984343 32436 layer_factory.hpp:76] Creating layer relu5
I0704 23:29:26.984349 32436 net.cpp:109] Creating Layer relu5
I0704 23:29:26.984352 32436 net.cpp:457] relu5 <- conv5
I0704 23:29:26.984359 32436 net.cpp:400] relu5 -> conv5 (in-place)
I0704 23:29:26.984365 32436 net.cpp:153] Setting up relu5
I0704 23:29:26.984369 32436 net.cpp:160] Top shape: 400 256 13 13 (17305600)
I0704 23:29:26.984374 32436 net.cpp:168] Memory required for data: 3272035200
I0704 23:29:26.984376 32436 layer_factory.hpp:76] Creating layer pool5
I0704 23:29:26.984385 32436 net.cpp:109] Creating Layer pool5
I0704 23:29:26.984387 32436 net.cpp:457] pool5 <- conv5
I0704 23:29:26.984392 32436 net.cpp:414] pool5 -> pool5
I0704 23:29:26.984431 32436 net.cpp:153] Setting up pool5
I0704 23:29:26.984437 32436 net.cpp:160] Top shape: 400 256 6 6 (3686400)
I0704 23:29:26.984441 32436 net.cpp:168] Memory required for data: 3286780800
I0704 23:29:26.984444 32436 layer_factory.hpp:76] Creating layer fc6_clean
I0704 23:29:26.984454 32436 net.cpp:109] Creating Layer fc6_clean
I0704 23:29:26.984457 32436 net.cpp:457] fc6_clean <- pool5
I0704 23:29:26.984464 32436 net.cpp:414] fc6_clean -> fc6_clean
I0704 23:29:28.092882 32436 net.cpp:153] Setting up fc6_clean
I0704 23:29:28.092916 32436 net.cpp:160] Top shape: 400 4096 (1638400)
I0704 23:29:28.092921 32436 net.cpp:168] Memory required for data: 3293334400
I0704 23:29:28.092932 32436 layer_factory.hpp:76] Creating layer relu6
I0704 23:29:28.092946 32436 net.cpp:109] Creating Layer relu6
I0704 23:29:28.092952 32436 net.cpp:457] relu6 <- fc6_clean
I0704 23:29:28.092960 32436 net.cpp:400] relu6 -> fc6_clean (in-place)
I0704 23:29:28.092974 32436 net.cpp:153] Setting up relu6
I0704 23:29:28.092979 32436 net.cpp:160] Top shape: 400 4096 (1638400)
I0704 23:29:28.092983 32436 net.cpp:168] Memory required for data: 3299888000
I0704 23:29:28.092986 32436 layer_factory.hpp:76] Creating layer drop6
I0704 23:29:28.092996 32436 net.cpp:109] Creating Layer drop6
I0704 23:29:28.092999 32436 net.cpp:457] drop6 <- fc6_clean
I0704 23:29:28.093005 32436 net.cpp:400] drop6 -> fc6_clean (in-place)
I0704 23:29:28.093031 32436 net.cpp:153] Setting up drop6
I0704 23:29:28.093039 32436 net.cpp:160] Top shape: 400 4096 (1638400)
I0704 23:29:28.093041 32436 net.cpp:168] Memory required for data: 3306441600
I0704 23:29:28.093045 32436 layer_factory.hpp:76] Creating layer fc7_clean
I0704 23:29:28.093055 32436 net.cpp:109] Creating Layer fc7_clean
I0704 23:29:28.093060 32436 net.cpp:457] fc7_clean <- fc6_clean
I0704 23:29:28.093065 32436 net.cpp:414] fc7_clean -> fc7_clean
I0704 23:29:28.586742 32436 net.cpp:153] Setting up fc7_clean
I0704 23:29:28.586777 32436 net.cpp:160] Top shape: 400 4096 (1638400)
I0704 23:29:28.586782 32436 net.cpp:168] Memory required for data: 3312995200
I0704 23:29:28.586793 32436 layer_factory.hpp:76] Creating layer relu7
I0704 23:29:28.586807 32436 net.cpp:109] Creating Layer relu7
I0704 23:29:28.586812 32436 net.cpp:457] relu7 <- fc7_clean
I0704 23:29:28.586823 32436 net.cpp:400] relu7 -> fc7_clean (in-place)
I0704 23:29:28.586838 32436 net.cpp:153] Setting up relu7
I0704 23:29:28.586843 32436 net.cpp:160] Top shape: 400 4096 (1638400)
I0704 23:29:28.586846 32436 net.cpp:168] Memory required for data: 3319548800
I0704 23:29:28.586850 32436 layer_factory.hpp:76] Creating layer drop7
I0704 23:29:28.586858 32436 net.cpp:109] Creating Layer drop7
I0704 23:29:28.586863 32436 net.cpp:457] drop7 <- fc7_clean
I0704 23:29:28.586868 32436 net.cpp:400] drop7 -> fc7_clean (in-place)
I0704 23:29:28.586906 32436 net.cpp:153] Setting up drop7
I0704 23:29:28.586913 32436 net.cpp:160] Top shape: 400 4096 (1638400)
I0704 23:29:28.586917 32436 net.cpp:168] Memory required for data: 3326102400
I0704 23:29:28.586921 32436 layer_factory.hpp:76] Creating layer fc8_clean
I0704 23:29:28.586931 32436 net.cpp:109] Creating Layer fc8_clean
I0704 23:29:28.586935 32436 net.cpp:457] fc8_clean <- fc7_clean
I0704 23:29:28.586941 32436 net.cpp:414] fc8_clean -> fc8_clean
I0704 23:29:28.701581 32436 net.cpp:153] Setting up fc8_clean
I0704 23:29:28.701599 32436 net.cpp:160] Top shape: 400 967 (386800)
I0704 23:29:28.701603 32436 net.cpp:168] Memory required for data: 3327649600
I0704 23:29:28.701612 32436 layer_factory.hpp:76] Creating layer fc8_clean_fc8_clean_0_split
I0704 23:29:28.701622 32436 net.cpp:109] Creating Layer fc8_clean_fc8_clean_0_split
I0704 23:29:28.701627 32436 net.cpp:457] fc8_clean_fc8_clean_0_split <- fc8_clean
I0704 23:29:28.701634 32436 net.cpp:414] fc8_clean_fc8_clean_0_split -> fc8_clean_fc8_clean_0_split_0
I0704 23:29:28.701642 32436 net.cpp:414] fc8_clean_fc8_clean_0_split -> fc8_clean_fc8_clean_0_split_1
I0704 23:29:28.701680 32436 net.cpp:153] Setting up fc8_clean_fc8_clean_0_split
I0704 23:29:28.701686 32436 net.cpp:160] Top shape: 400 967 (386800)
I0704 23:29:28.701691 32436 net.cpp:160] Top shape: 400 967 (386800)
I0704 23:29:28.701694 32436 net.cpp:168] Memory required for data: 3330744000
I0704 23:29:28.701699 32436 layer_factory.hpp:76] Creating layer accuracy
I0704 23:29:28.701706 32436 net.cpp:109] Creating Layer accuracy
I0704 23:29:28.701710 32436 net.cpp:457] accuracy <- fc8_clean_fc8_clean_0_split_0
I0704 23:29:28.701715 32436 net.cpp:457] accuracy <- label_val-data_1_split_0
I0704 23:29:28.701722 32436 net.cpp:414] accuracy -> accuracy
…
