…
I0703 16:47:41.969612  2338 net.cpp:325] The NetState phase (0) differed from the phase (1) specified by a rule in layer accuracy
I0703 16:47:41.969712  2338 net.cpp:52] Initializing net from parameters:
state {
phase: TRAIN
}
layer {
name: "data"
type: "Data"
top: "data"
include {
phase: TRAIN
}
data_param {
source: "/home/ffw/scratch/plantClef/scatnet_output/train/a4_m1_s1_f2/lmdb_data"
batch_size: 32
backend: LMDB
}
}
layer {
name: "label"
type: "Data"
top: "label"
include {
phase: TRAIN
}
data_param {
source: "/home/ffw/scratch/plantClef/scatnet_output/train/a4_m1_s1_f2/lmdb_labels"
batch_size: 32
backend: LMDB
}
}
layer {
name: "conv1"
type: "Convolution"
bottom: "data"
top: "conv1"
param {
lr_mult: 1
decay_mult: 1
}
param {
lr_mult: 2
decay_mult: 0
}
convolution_param {
num_output: 96
kernel_size: 11
stride: 4
weight_filler {
type: "gaussian"
std: 0.01
}
bias_filler {
type: "constant"
value: 0
}
}
}
layer {
name: "relu1"
type: "ReLU"
bottom: "conv1"
top: "conv1"
}
layer {
name: "norm1"
type: "LRN"
bottom: "conv1"
top: "norm1"
lrn_param {
local_size: 5
alpha: 0.0001
beta: 0.75
}
}
layer {
name: "pool1"
type: "Pooling"
bottom: "norm1"
top: "pool1"
pooling_param {
pool: MAX
kernel_size: 3
stride: 2
}
}
layer {
name: "conv2"
type: "Convolution"
bottom: "pool1"
top: "conv2"
param {
lr_mult: 1
decay_mult: 1
}
param {
lr_mult: 2
decay_mult: 0
}
convolution_param {
num_output: 256
pad: 2
kernel_size: 5
group: 2
weight_filler {
type: "gaussian"
std: 0.01
}
bias_filler {
type: "constant"
value: 0.1
}
}
}
layer {
name: "relu2"
type: "ReLU"
bottom: "conv2"
top: "conv2"
}
layer {
name: "norm2"
type: "LRN"
bottom: "conv2"
top: "norm2"
lrn_param {
local_size: 5
alpha: 0.0001
beta: 0.75
}
}
layer {
name: "pool2"
type: "Pooling"
bottom: "norm2"
top: "pool2"
pooling_param {
pool: MAX
kernel_size: 3
stride: 2
}
}
layer {
name: "conv3"
type: "Convolution"
bottom: "pool2"
top: "conv3"
param {
lr_mult: 1
decay_mult: 1
}
param {
lr_mult: 2
decay_mult: 0
}
convolution_param {
num_output: 384
pad: 1
kernel_size: 3
weight_filler {
type: "gaussian"
std: 0.01
}
bias_filler {
type: "constant"
value: 0
}
}
}
layer {
name: "relu3"
type: "ReLU"
bottom: "conv3"
top: "conv3"
}
layer {
name: "conv4"
type: "Convolution"
bottom: "conv3"
top: "conv4"
param {
lr_mult: 1
decay_mult: 1
}
param {
lr_mult: 2
decay_mult: 0
}
convolution_param {
num_output: 384
pad: 1
kernel_size: 3
group: 2
weight_filler {
type: "gaussian"
std: 0.01
}
bias_filler {
type: "constant"
value: 0.1
}
}
}
layer {
name: "relu4"
type: "ReLU"
bottom: "conv4"
top: "conv4"
}
layer {
name: "conv5"
type: "Convolution"
bottom: "conv4"
top: "conv5"
param {
lr_mult: 1
decay_mult: 1
}
param {
lr_mult: 2
decay_mult: 0
}
convolution_param {
num_output: 256
pad: 1
kernel_size: 3
group: 1
weight_filler {
type: "gaussian"
std: 0.01
}
bias_filler {
type: "constant"
value: 0.1
}
}
}
layer {
name: "relu5"
type: "ReLU"
bottom: "conv5"
top: "conv5"
}
layer {
name: "pool5"
type: "Pooling"
bottom: "conv5"
top: "pool5"
pooling_param {
pool: MAX
kernel_size: 3
stride: 2
}
}
layer {
name: "fc6"
type: "InnerProduct"
bottom: "pool5"
top: "fc6"
param {
lr_mult: 1
decay_mult: 1
}
param {
lr_mult: 2
decay_mult: 0
}
inner_product_param {
num_output: 4096
weight_filler {
type: "gaussian"
std: 0.005
}
bias_filler {
type: "constant"
value: 0.1
}
}
}
layer {
name: "relu6"
type: "ReLU"
bottom: "fc6"
top: "fc6"
}
layer {
name: "drop6"
type: "Dropout"
bottom: "fc6"
top: "fc6"
dropout_param {
dropout_ratio: 0.5
}
}
layer {
name: "fc7"
type: "InnerProduct"
bottom: "fc6"
top: "fc7"
param {
lr_mult: 1
decay_mult: 1
}
param {
lr_mult: 2
decay_mult: 0
}
inner_product_param {
num_output: 4096
weight_filler {
type: "gaussian"
std: 0.005
}
bias_filler {
type: "constant"
value: 0.1
}
}
}
layer {
name: "relu7"
type: "ReLU"
bottom: "fc7"
top: "fc7"
}
layer {
name: "drop7"
type: "Dropout"
bottom: "fc7"
top: "fc7"
dropout_param {
dropout_ratio: 0.5
}
}
layer {
name: "fc8_species"
type: "InnerProduct"
bottom: "fc7"
top: "fc8_species"
param {
lr_mult: 1
decay_mult: 1
}
param {
lr_mult: 2
decay_mult: 0
}
inner_product_param {
num_output: 967
weight_filler {
type: "gaussian"
std: 0.005
}
bias_filler {
type: "constant"
value: 0.1
}
}
}
layer {
name: "loss"
type: "SoftmaxWithLoss"
bottom: "fc8_species"
bottom: "label"
top: "loss"
}
I0703 16:47:41.969781  2338 layer_factory.hpp:76] Creating layer data
I0703 16:47:41.970912  2338 net.cpp:109] Creating Layer data
I0703 16:47:41.970918  2338 net.cpp:414] data -> data
I0703 16:47:41.972086  2350 db_lmdb.cpp:36] Opened lmdb /home/ffw/scratch/plantClef/scatnet_output/train/a4_m1_s1_f2/lmdb_data
I0703 16:47:41.974349  2338 data_layer.cpp:45] output data size: 32,15,221,221
I0703 16:47:42.076805  2338 net.cpp:153] Setting up data
I0703 16:47:42.076834  2338 net.cpp:160] Top shape: 32 15 221 221 (23443680)
I0703 16:47:42.076838  2338 net.cpp:168] Memory required for data: 93774720
I0703 16:47:42.076844  2338 layer_factory.hpp:76] Creating layer label
I0703 16:47:42.076886  2338 net.cpp:109] Creating Layer label
I0703 16:47:42.076901  2338 net.cpp:414] label -> label
I0703 16:47:42.081557  2352 db_lmdb.cpp:36] Opened lmdb /home/ffw/scratch/plantClef/scatnet_output/train/a4_m1_s1_f2/lmdb_labels
I0703 16:47:42.086422  2338 data_layer.cpp:45] output data size: 32,1,1,1
I0703 16:47:42.087707  2338 net.cpp:153] Setting up label
I0703 16:47:42.087720  2338 net.cpp:160] Top shape: 32 1 1 1 (32)
I0703 16:47:42.087723  2338 net.cpp:168] Memory required for data: 93774848
I0703 16:47:42.087726  2338 layer_factory.hpp:76] Creating layer conv1
I0703 16:47:42.087738  2338 net.cpp:109] Creating Layer conv1
I0703 16:47:42.087741  2338 net.cpp:457] conv1 <- data
I0703 16:47:42.087751  2338 net.cpp:414] conv1 -> conv1
I0703 16:47:42.093144  2338 net.cpp:153] Setting up conv1
I0703 16:47:42.093161  2338 net.cpp:160] Top shape: 32 96 53 53 (8629248)
I0703 16:47:42.093164  2338 net.cpp:168] Memory required for data: 128291840
I0703 16:47:42.093175  2338 layer_factory.hpp:76] Creating layer relu1
I0703 16:47:42.093183  2338 net.cpp:109] Creating Layer relu1
I0703 16:47:42.093186  2338 net.cpp:457] relu1 <- conv1
I0703 16:47:42.093190  2338 net.cpp:400] relu1 -> conv1 (in-place)
I0703 16:47:42.093199  2338 net.cpp:153] Setting up relu1
I0703 16:47:42.093202  2338 net.cpp:160] Top shape: 32 96 53 53 (8629248)
I0703 16:47:42.093204  2338 net.cpp:168] Memory required for data: 162808832
I0703 16:47:42.093206  2338 layer_factory.hpp:76] Creating layer norm1
I0703 16:47:42.093737  2338 net.cpp:109] Creating Layer norm1
I0703 16:47:42.093768  2338 net.cpp:457] norm1 <- conv1
I0703 16:47:42.093772  2338 net.cpp:414] norm1 -> norm1
I0703 16:47:42.093811  2338 net.cpp:153] Setting up norm1
I0703 16:47:42.093813  2338 net.cpp:160] Top shape: 32 96 53 53 (8629248)
I0703 16:47:42.093816  2338 net.cpp:168] Memory required for data: 197325824
I0703 16:47:42.093817  2338 layer_factory.hpp:76] Creating layer pool1
I0703 16:47:42.093822  2338 net.cpp:109] Creating Layer pool1
I0703 16:47:42.093823  2338 net.cpp:457] pool1 <- norm1
I0703 16:47:42.093827  2338 net.cpp:414] pool1 -> pool1
I0703 16:47:42.093847  2338 net.cpp:153] Setting up pool1
I0703 16:47:42.093852  2338 net.cpp:160] Top shape: 32 96 26 26 (2076672)
I0703 16:47:42.093853  2338 net.cpp:168] Memory required for data: 205632512
I0703 16:47:42.093854  2338 layer_factory.hpp:76] Creating layer conv2
I0703 16:47:42.093859  2338 net.cpp:109] Creating Layer conv2
I0703 16:47:42.093861  2338 net.cpp:457] conv2 <- pool1
I0703 16:47:42.093863  2338 net.cpp:414] conv2 -> conv2
I0703 16:47:42.100680  2338 net.cpp:153] Setting up conv2
I0703 16:47:42.100697  2338 net.cpp:160] Top shape: 32 256 26 26 (5537792)
I0703 16:47:42.100698  2338 net.cpp:168] Memory required for data: 227783680
I0703 16:47:42.100706  2338 layer_factory.hpp:76] Creating layer relu2
I0703 16:47:42.100713  2338 net.cpp:109] Creating Layer relu2
I0703 16:47:42.100716  2338 net.cpp:457] relu2 <- conv2
I0703 16:47:42.100720  2338 net.cpp:400] relu2 -> conv2 (in-place)
I0703 16:47:42.100726  2338 net.cpp:153] Setting up relu2
I0703 16:47:42.100728  2338 net.cpp:160] Top shape: 32 256 26 26 (5537792)
I0703 16:47:42.100730  2338 net.cpp:168] Memory required for data: 249934848
I0703 16:47:42.100733  2338 layer_factory.hpp:76] Creating layer norm2
I0703 16:47:42.100738  2338 net.cpp:109] Creating Layer norm2
I0703 16:47:42.100739  2338 net.cpp:457] norm2 <- conv2
I0703 16:47:42.100741  2338 net.cpp:414] norm2 -> norm2
I0703 16:47:42.100765  2338 net.cpp:153] Setting up norm2
I0703 16:47:42.100769  2338 net.cpp:160] Top shape: 32 256 26 26 (5537792)
I0703 16:47:42.100770  2338 net.cpp:168] Memory required for data: 272086016
I0703 16:47:42.100771  2338 layer_factory.hpp:76] Creating layer pool2
I0703 16:47:42.100775  2338 net.cpp:109] Creating Layer pool2
I0703 16:47:42.100777  2338 net.cpp:457] pool2 <- norm2
I0703 16:47:42.100780  2338 net.cpp:414] pool2 -> pool2
I0703 16:47:42.100797  2338 net.cpp:153] Setting up pool2
I0703 16:47:42.100800  2338 net.cpp:160] Top shape: 32 256 13 13 (1384448)
I0703 16:47:42.100801  2338 net.cpp:168] Memory required for data: 277623808
I0703 16:47:42.100803  2338 layer_factory.hpp:76] Creating layer conv3
I0703 16:47:42.100808  2338 net.cpp:109] Creating Layer conv3
I0703 16:47:42.100810  2338 net.cpp:457] conv3 <- pool2
I0703 16:47:42.100812  2338 net.cpp:414] conv3 -> conv3
I0703 16:47:42.119851  2338 net.cpp:153] Setting up conv3
I0703 16:47:42.119880  2338 net.cpp:160] Top shape: 32 384 13 13 (2076672)
I0703 16:47:42.119892  2338 net.cpp:168] Memory required for data: 285930496
I0703 16:47:42.119900  2338 layer_factory.hpp:76] Creating layer relu3
I0703 16:47:42.119907  2338 net.cpp:109] Creating Layer relu3
I0703 16:47:42.119910  2338 net.cpp:457] relu3 <- conv3
I0703 16:47:42.119913  2338 net.cpp:400] relu3 -> conv3 (in-place)
I0703 16:47:42.119920  2338 net.cpp:153] Setting up relu3
I0703 16:47:42.119921  2338 net.cpp:160] Top shape: 32 384 13 13 (2076672)
I0703 16:47:42.119923  2338 net.cpp:168] Memory required for data: 294237184
I0703 16:47:42.119925  2338 layer_factory.hpp:76] Creating layer conv4
I0703 16:47:42.119930  2338 net.cpp:109] Creating Layer conv4
I0703 16:47:42.119931  2338 net.cpp:457] conv4 <- conv3
I0703 16:47:42.119935  2338 net.cpp:414] conv4 -> conv4
I0703 16:47:42.134929  2338 net.cpp:153] Setting up conv4
I0703 16:47:42.134948  2338 net.cpp:160] Top shape: 32 384 13 13 (2076672)
I0703 16:47:42.134950  2338 net.cpp:168] Memory required for data: 302543872
I0703 16:47:42.134955  2338 layer_factory.hpp:76] Creating layer relu4
I0703 16:47:42.134963  2338 net.cpp:109] Creating Layer relu4
I0703 16:47:42.134981  2338 net.cpp:457] relu4 <- conv4
I0703 16:47:42.134986  2338 net.cpp:400] relu4 -> conv4 (in-place)
I0703 16:47:42.134991  2338 net.cpp:153] Setting up relu4
I0703 16:47:42.134994  2338 net.cpp:160] Top shape: 32 384 13 13 (2076672)
I0703 16:47:42.134996  2338 net.cpp:168] Memory required for data: 310850560
I0703 16:47:42.134999  2338 layer_factory.hpp:76] Creating layer conv5
I0703 16:47:42.135004  2338 net.cpp:109] Creating Layer conv5
I0703 16:47:42.135005  2338 net.cpp:457] conv5 <- conv4
I0703 16:47:42.135009  2338 net.cpp:414] conv5 -> conv5
I0703 16:47:42.154026  2338 net.cpp:153] Setting up conv5
I0703 16:47:42.154044  2338 net.cpp:160] Top shape: 32 256 13 13 (1384448)
I0703 16:47:42.154047  2338 net.cpp:168] Memory required for data: 316388352
I0703 16:47:42.154069  2338 layer_factory.hpp:76] Creating layer relu5
I0703 16:47:42.154080  2338 net.cpp:109] Creating Layer relu5
I0703 16:47:42.154084  2338 net.cpp:457] relu5 <- conv5
I0703 16:47:42.154091  2338 net.cpp:400] relu5 -> conv5 (in-place)
I0703 16:47:42.154100  2338 net.cpp:153] Setting up relu5
I0703 16:47:42.154104  2338 net.cpp:160] Top shape: 32 256 13 13 (1384448)
I0703 16:47:42.154108  2338 net.cpp:168] Memory required for data: 321926144
I0703 16:47:42.154110  2338 layer_factory.hpp:76] Creating layer pool5
I0703 16:47:42.154119  2338 net.cpp:109] Creating Layer pool5
I0703 16:47:42.154121  2338 net.cpp:457] pool5 <- conv5
I0703 16:47:42.154126  2338 net.cpp:414] pool5 -> pool5
I0703 16:47:42.154181  2338 net.cpp:153] Setting up pool5
I0703 16:47:42.154184  2338 net.cpp:160] Top shape: 32 256 6 6 (294912)
I0703 16:47:42.154186  2338 net.cpp:168] Memory required for data: 323105792
I0703 16:47:42.154188  2338 layer_factory.hpp:76] Creating layer fc6
I0703 16:47:42.154193  2338 net.cpp:109] Creating Layer fc6
I0703 16:47:42.154196  2338 net.cpp:457] fc6 <- pool5
I0703 16:47:42.154198  2338 net.cpp:414] fc6 -> fc6
I0703 16:47:42.876245  2338 net.cpp:153] Setting up fc6
I0703 16:47:42.876265  2338 net.cpp:160] Top shape: 32 4096 (131072)
I0703 16:47:42.876266  2338 net.cpp:168] Memory required for data: 323630080
I0703 16:47:42.876271  2338 layer_factory.hpp:76] Creating layer relu6
I0703 16:47:42.876278  2338 net.cpp:109] Creating Layer relu6
I0703 16:47:42.876281  2338 net.cpp:457] relu6 <- fc6
I0703 16:47:42.876284  2338 net.cpp:400] relu6 -> fc6 (in-place)
I0703 16:47:42.876291  2338 net.cpp:153] Setting up relu6
I0703 16:47:42.876293  2338 net.cpp:160] Top shape: 32 4096 (131072)
I0703 16:47:42.876296  2338 net.cpp:168] Memory required for data: 324154368
I0703 16:47:42.876296  2338 layer_factory.hpp:76] Creating layer drop6
I0703 16:47:42.878157  2338 net.cpp:109] Creating Layer drop6
I0703 16:47:42.878161  2338 net.cpp:457] drop6 <- fc6
I0703 16:47:42.878165  2338 net.cpp:400] drop6 -> fc6 (in-place)
I0703 16:47:42.878181  2338 net.cpp:153] Setting up drop6
I0703 16:47:42.878185  2338 net.cpp:160] Top shape: 32 4096 (131072)
I0703 16:47:42.878187  2338 net.cpp:168] Memory required for data: 324678656
I0703 16:47:42.878190  2338 layer_factory.hpp:76] Creating layer fc7
I0703 16:47:42.878195  2338 net.cpp:109] Creating Layer fc7
I0703 16:47:42.878196  2338 net.cpp:457] fc7 <- fc6
I0703 16:47:42.878199  2338 net.cpp:414] fc7 -> fc7
I0703 16:47:43.180481  2338 net.cpp:153] Setting up fc7
I0703 16:47:43.180498  2338 net.cpp:160] Top shape: 32 4096 (131072)
I0703 16:47:43.180501  2338 net.cpp:168] Memory required for data: 325202944
I0703 16:47:43.180507  2338 layer_factory.hpp:76] Creating layer relu7
I0703 16:47:43.180513  2338 net.cpp:109] Creating Layer relu7
I0703 16:47:43.180516  2338 net.cpp:457] relu7 <- fc7
I0703 16:47:43.180521  2338 net.cpp:400] relu7 -> fc7 (in-place)
I0703 16:47:43.180527  2338 net.cpp:153] Setting up relu7
I0703 16:47:43.180529  2338 net.cpp:160] Top shape: 32 4096 (131072)
I0703 16:47:43.180531  2338 net.cpp:168] Memory required for data: 325727232
I0703 16:47:43.180532  2338 layer_factory.hpp:76] Creating layer drop7
I0703 16:47:43.180536  2338 net.cpp:109] Creating Layer drop7
I0703 16:47:43.180557  2338 net.cpp:457] drop7 <- fc7
I0703 16:47:43.180562  2338 net.cpp:400] drop7 -> fc7 (in-place)
I0703 16:47:43.180577  2338 net.cpp:153] Setting up drop7
I0703 16:47:43.180580  2338 net.cpp:160] Top shape: 32 4096 (131072)
I0703 16:47:43.180582  2338 net.cpp:168] Memory required for data: 326251520
I0703 16:47:43.180583  2338 layer_factory.hpp:76] Creating layer fc8_species
I0703 16:47:43.180588  2338 net.cpp:109] Creating Layer fc8_species
I0703 16:47:43.180589  2338 net.cpp:457] fc8_species <- fc7
I0703 16:47:43.180593  2338 net.cpp:414] fc8_species -> fc8_species
I0703 16:47:43.253027  2338 net.cpp:153] Setting up fc8_species
I0703 16:47:43.253043  2338 net.cpp:160] Top shape: 32 967 (30944)
I0703 16:47:43.253046  2338 net.cpp:168] Memory required for data: 326375296
I0703 16:47:43.253051  2338 layer_factory.hpp:76] Creating layer loss
I0703 16:47:43.254642  2338 net.cpp:109] Creating Layer loss
I0703 16:47:43.254647  2338 net.cpp:457] loss <- fc8_species
I0703 16:47:43.254652  2338 net.cpp:457] loss <- label
I0703 16:47:43.254654  2338 net.cpp:414] loss -> loss
I0703 16:47:43.254662  2338 layer_factory.hpp:76] Creating layer loss
…
I0703 16:47:43.255664  2338 net.cpp:325] The NetState phase (1) differed from the phase (0) specified by a rule in layer label
I0703 16:47:43.255772  2338 net.cpp:52] Initializing net from parameters:
state {
phase: TEST
}
layer {
name: "data"
type: "Data"
top: "data"
include {
phase: TEST
}
data_param {
source: "/home/ffw/scratch/plantClef/scatnet_output/test/a4_m1_s1_f2/lmdb_data"
batch_size: 32
backend: LMDB
}
}
layer {
name: "label"
type: "Data"
top: "label"
include {
phase: TEST
}
data_param {
source: "/home/ffw/scratch/plantClef/scatnet_output/test/a4_m1_s1_f2/lmdb_labels"
batch_size: 32
backend: LMDB
}
}
layer {
name: "conv1"
type: "Convolution"
bottom: "data"
top: "conv1"
param {
lr_mult: 1
decay_mult: 1
}
param {
lr_mult: 2
decay_mult: 0
}
convolution_param {
num_output: 96
kernel_size: 11
stride: 4
weight_filler {
type: "gaussian"
std: 0.01
}
bias_filler {
type: "constant"
value: 0
}
}
}
layer {
name: "relu1"
type: "ReLU"
bottom: "conv1"
top: "conv1"
}
layer {
name: "norm1"
type: "LRN"
bottom: "conv1"
top: "norm1"
lrn_param {
local_size: 5
alpha: 0.0001
beta: 0.75
}
}
layer {
name: "pool1"
type: "Pooling"
bottom: "norm1"
top: "pool1"
pooling_param {
pool: MAX
kernel_size: 3
stride: 2
}
}
layer {
name: "conv2"
type: "Convolution"
bottom: "pool1"
top: "conv2"
param {
lr_mult: 1
decay_mult: 1
}
param {
lr_mult: 2
decay_mult: 0
}
convolution_param {
num_output: 256
pad: 2
kernel_size: 5
group: 2
weight_filler {
type: "gaussian"
std: 0.01
}
bias_filler {
type: "constant"
value: 0.1
}
}
}
layer {
name: "relu2"
type: "ReLU"
bottom: "conv2"
top: "conv2"
}
layer {
name: "norm2"
type: "LRN"
bottom: "conv2"
top: "norm2"
lrn_param {
local_size: 5
alpha: 0.0001
beta: 0.75
}
}
layer {
name: "pool2"
type: "Pooling"
bottom: "norm2"
top: "pool2"
pooling_param {
pool: MAX
kernel_size: 3
stride: 2
}
}
layer {
name: "conv3"
type: "Convolution"
bottom: "pool2"
top: "conv3"
param {
lr_mult: 1
decay_mult: 1
}
param {
lr_mult: 2
decay_mult: 0
}
convolution_param {
num_output: 384
pad: 1
kernel_size: 3
weight_filler {
type: "gaussian"
std: 0.01
}
bias_filler {
type: "constant"
value: 0
}
}
}
layer {
name: "relu3"
type: "ReLU"
bottom: "conv3"
top: "conv3"
}
layer {
name: "conv4"
type: "Convolution"
bottom: "conv3"
top: "conv4"
param {
lr_mult: 1
decay_mult: 1
}
param {
lr_mult: 2
decay_mult: 0
}
convolution_param {
num_output: 384
pad: 1
kernel_size: 3
group: 2
weight_filler {
type: "gaussian"
std: 0.01
}
bias_filler {
type: "constant"
value: 0.1
}
}
}
layer {
name: "relu4"
type: "ReLU"
bottom: "conv4"
top: "conv4"
}
layer {
name: "conv5"
type: "Convolution"
bottom: "conv4"
top: "conv5"
param {
lr_mult: 1
decay_mult: 1
}
param {
lr_mult: 2
decay_mult: 0
}
convolution_param {
num_output: 256
pad: 1
kernel_size: 3
group: 1
weight_filler {
type: "gaussian"
std: 0.01
}
bias_filler {
type: "constant"
value: 0.1
}
}
}
layer {
name: "relu5"
type: "ReLU"
bottom: "conv5"
top: "conv5"
}
layer {
name: "pool5"
type: "Pooling"
bottom: "conv5"
top: "pool5"
pooling_param {
pool: MAX
kernel_size: 3
stride: 2
}
}
layer {
name: "fc6"
type: "InnerProduct"
bottom: "pool5"
top: "fc6"
param {
lr_mult: 1
decay_mult: 1
}
param {
lr_mult: 2
decay_mult: 0
}
inner_product_param {
num_output: 4096
weight_filler {
type: "gaussian"
std: 0.005
}
bias_filler {
type: "constant"
value: 0.1
}
}
}
layer {
name: "relu6"
type: "ReLU"
bottom: "fc6"
top: "fc6"
}
layer {
name: "drop6"
type: "Dropout"
bottom: "fc6"
top: "fc6"
dropout_param {
dropout_ratio: 0.5
}
}
layer {
name: "fc7"
type: "InnerProduct"
bottom: "fc6"
top: "fc7"
param {
lr_mult: 1
decay_mult: 1
}
param {
lr_mult: 2
decay_mult: 0
}
inner_product_param {
num_output: 4096
weight_filler {
type: "gaussian"
std: 0.005
}
bias_filler {
type: "constant"
value: 0.1
}
}
}
layer {
name: "relu7"
type: "ReLU"
bottom: "fc7"
top: "fc7"
}
layer {
name: "drop7"
type: "Dropout"
bottom: "fc7"
top: "fc7"
dropout_param {
dropout_ratio: 0.5
}
}
layer {
name: "fc8_species"
type: "InnerProduct"
bottom: "fc7"
top: "fc8_species"
param {
lr_mult: 1
decay_mult: 1
}
param {
lr_mult: 2
decay_mult: 0
}
inner_product_param {
num_output: 967
weight_filler {
type: "gaussian"
std: 0.005
}
bias_filler {
type: "constant"
value: 0.1
}
}
}
layer {
name: "loss"
type: "SoftmaxWithLoss"
bottom: "fc8_species"
bottom: "label"
top: "loss"
}
layer {
name: "accuracy"
type: "Accuracy"
bottom: "fc8_species"
bottom: "label"
top: "accuracy"
include {
phase: TEST
}
}
I0703 16:47:43.255847  2338 layer_factory.hpp:76] Creating layer data
I0703 16:47:43.255897  2338 net.cpp:109] Creating Layer data
I0703 16:47:43.255902  2338 net.cpp:414] data -> data
I0703 16:47:43.257153  2354 db_lmdb.cpp:36] Opened lmdb /home/ffw/scratch/plantClef/scatnet_output/test/a4_m1_s1_f2/lmdb_data
I0703 16:47:43.261262  2338 data_layer.cpp:45] output data size: 32,15,221,221
I0703 16:47:43.361862  2338 net.cpp:153] Setting up data
I0703 16:47:43.361881  2338 net.cpp:160] Top shape: 32 15 221 221 (23443680)
I0703 16:47:43.361884  2338 net.cpp:168] Memory required for data: 93774720
I0703 16:47:43.361888  2338 layer_factory.hpp:76] Creating layer label
I0703 16:47:43.361929  2338 net.cpp:109] Creating Layer label
I0703 16:47:43.361934  2338 net.cpp:414] label -> label
I0703 16:47:43.363813  2356 db_lmdb.cpp:36] Opened lmdb /home/ffw/scratch/plantClef/scatnet_output/test/a4_m1_s1_f2/lmdb_labels
I0703 16:47:43.371098  2338 data_layer.cpp:45] output data size: 32,1,1,1
I0703 16:47:43.371242  2338 net.cpp:153] Setting up label
I0703 16:47:43.371250  2338 net.cpp:160] Top shape: 32 1 1 1 (32)
I0703 16:47:43.371253  2338 net.cpp:168] Memory required for data: 93774848
I0703 16:47:43.371255  2338 layer_factory.hpp:76] Creating layer label_label_0_split
I0703 16:47:43.371263  2338 net.cpp:109] Creating Layer label_label_0_split
I0703 16:47:43.371266  2338 net.cpp:457] label_label_0_split <- label
I0703 16:47:43.371270  2338 net.cpp:414] label_label_0_split -> label_label_0_split_0
I0703 16:47:43.371275  2338 net.cpp:414] label_label_0_split -> label_label_0_split_1
I0703 16:47:43.371327  2338 net.cpp:153] Setting up label_label_0_split
I0703 16:47:43.371342  2338 net.cpp:160] Top shape: 32 1 1 1 (32)
I0703 16:47:43.371345  2338 net.cpp:160] Top shape: 32 1 1 1 (32)
I0703 16:47:43.371346  2338 net.cpp:168] Memory required for data: 93775104
I0703 16:47:43.371348  2338 layer_factory.hpp:76] Creating layer conv1
I0703 16:47:43.371356  2338 net.cpp:109] Creating Layer conv1
I0703 16:47:43.371358  2338 net.cpp:457] conv1 <- data
I0703 16:47:43.371361  2338 net.cpp:414] conv1 -> conv1
I0703 16:47:43.375183  2338 net.cpp:153] Setting up conv1
I0703 16:47:43.375200  2338 net.cpp:160] Top shape: 32 96 53 53 (8629248)
I0703 16:47:43.375203  2338 net.cpp:168] Memory required for data: 128292096
I0703 16:47:43.375212  2338 layer_factory.hpp:76] Creating layer relu1
I0703 16:47:43.375221  2338 net.cpp:109] Creating Layer relu1
I0703 16:47:43.375223  2338 net.cpp:457] relu1 <- conv1
I0703 16:47:43.375228  2338 net.cpp:400] relu1 -> conv1 (in-place)
I0703 16:47:43.375234  2338 net.cpp:153] Setting up relu1
I0703 16:47:43.375237  2338 net.cpp:160] Top shape: 32 96 53 53 (8629248)
I0703 16:47:43.375239  2338 net.cpp:168] Memory required for data: 162809088
I0703 16:47:43.375241  2338 layer_factory.hpp:76] Creating layer norm1
I0703 16:47:43.375247  2338 net.cpp:109] Creating Layer norm1
I0703 16:47:43.375249  2338 net.cpp:457] norm1 <- conv1
I0703 16:47:43.375252  2338 net.cpp:414] norm1 -> norm1
I0703 16:47:43.375283  2338 net.cpp:153] Setting up norm1
I0703 16:47:43.375301  2338 net.cpp:160] Top shape: 32 96 53 53 (8629248)
I0703 16:47:43.375324  2338 net.cpp:168] Memory required for data: 197326080
I0703 16:47:43.375327  2338 layer_factory.hpp:76] Creating layer pool1
I0703 16:47:43.375334  2338 net.cpp:109] Creating Layer pool1
I0703 16:47:43.375335  2338 net.cpp:457] pool1 <- norm1
I0703 16:47:43.375339  2338 net.cpp:414] pool1 -> pool1
I0703 16:47:43.375380  2338 net.cpp:153] Setting up pool1
I0703 16:47:43.375385  2338 net.cpp:160] Top shape: 32 96 26 26 (2076672)
I0703 16:47:43.375386  2338 net.cpp:168] Memory required for data: 205632768
I0703 16:47:43.375388  2338 layer_factory.hpp:76] Creating layer conv2
I0703 16:47:43.375403  2338 net.cpp:109] Creating Layer conv2
I0703 16:47:43.375406  2338 net.cpp:457] conv2 <- pool1
I0703 16:47:43.375409  2338 net.cpp:414] conv2 -> conv2
I0703 16:47:43.382038  2338 net.cpp:153] Setting up conv2
I0703 16:47:43.382055  2338 net.cpp:160] Top shape: 32 256 26 26 (5537792)
I0703 16:47:43.382058  2338 net.cpp:168] Memory required for data: 227783936
I0703 16:47:43.382066  2338 layer_factory.hpp:76] Creating layer relu2
I0703 16:47:43.382074  2338 net.cpp:109] Creating Layer relu2
I0703 16:47:43.382077  2338 net.cpp:457] relu2 <- conv2
I0703 16:47:43.382081  2338 net.cpp:400] relu2 -> conv2 (in-place)
I0703 16:47:43.382087  2338 net.cpp:153] Setting up relu2
I0703 16:47:43.382091  2338 net.cpp:160] Top shape: 32 256 26 26 (5537792)
I0703 16:47:43.382092  2338 net.cpp:168] Memory required for data: 249935104
I0703 16:47:43.382094  2338 layer_factory.hpp:76] Creating layer norm2
I0703 16:47:43.382099  2338 net.cpp:109] Creating Layer norm2
I0703 16:47:43.382102  2338 net.cpp:457] norm2 <- conv2
I0703 16:47:43.382104  2338 net.cpp:414] norm2 -> norm2
I0703 16:47:43.382135  2338 net.cpp:153] Setting up norm2
I0703 16:47:43.382139  2338 net.cpp:160] Top shape: 32 256 26 26 (5537792)
I0703 16:47:43.382141  2338 net.cpp:168] Memory required for data: 272086272
I0703 16:47:43.382143  2338 layer_factory.hpp:76] Creating layer pool2
I0703 16:47:43.382148  2338 net.cpp:109] Creating Layer pool2
I0703 16:47:43.382149  2338 net.cpp:457] pool2 <- norm2
I0703 16:47:43.382151  2338 net.cpp:414] pool2 -> pool2
I0703 16:47:43.382171  2338 net.cpp:153] Setting up pool2
I0703 16:47:43.382174  2338 net.cpp:160] Top shape: 32 256 13 13 (1384448)
I0703 16:47:43.382176  2338 net.cpp:168] Memory required for data: 277624064
I0703 16:47:43.382179  2338 layer_factory.hpp:76] Creating layer conv3
I0703 16:47:43.382184  2338 net.cpp:109] Creating Layer conv3
I0703 16:47:43.382185  2338 net.cpp:457] conv3 <- pool2
I0703 16:47:43.382189  2338 net.cpp:414] conv3 -> conv3
I0703 16:47:43.400161  2338 net.cpp:153] Setting up conv3
I0703 16:47:43.400177  2338 net.cpp:160] Top shape: 32 384 13 13 (2076672)
I0703 16:47:43.400178  2338 net.cpp:168] Memory required for data: 285930752
I0703 16:47:43.400188  2338 layer_factory.hpp:76] Creating layer relu3
I0703 16:47:43.400199  2338 net.cpp:109] Creating Layer relu3
I0703 16:47:43.400204  2338 net.cpp:457] relu3 <- conv3
I0703 16:47:43.400210  2338 net.cpp:400] relu3 -> conv3 (in-place)
I0703 16:47:43.400218  2338 net.cpp:153] Setting up relu3
I0703 16:47:43.400221  2338 net.cpp:160] Top shape: 32 384 13 13 (2076672)
I0703 16:47:43.400223  2338 net.cpp:168] Memory required for data: 294237440
I0703 16:47:43.400224  2338 layer_factory.hpp:76] Creating layer conv4
I0703 16:47:43.400241  2338 net.cpp:109] Creating Layer conv4
I0703 16:47:43.400243  2338 net.cpp:457] conv4 <- conv3
I0703 16:47:43.400246  2338 net.cpp:414] conv4 -> conv4
I0703 16:47:43.413702  2338 net.cpp:153] Setting up conv4
I0703 16:47:43.413730  2338 net.cpp:160] Top shape: 32 384 13 13 (2076672)
I0703 16:47:43.413733  2338 net.cpp:168] Memory required for data: 302544128
I0703 16:47:43.413739  2338 layer_factory.hpp:76] Creating layer relu4
I0703 16:47:43.413748  2338 net.cpp:109] Creating Layer relu4
I0703 16:47:43.413750  2338 net.cpp:457] relu4 <- conv4
I0703 16:47:43.413755  2338 net.cpp:400] relu4 -> conv4 (in-place)
I0703 16:47:43.413763  2338 net.cpp:153] Setting up relu4
I0703 16:47:43.413765  2338 net.cpp:160] Top shape: 32 384 13 13 (2076672)
I0703 16:47:43.413785  2338 net.cpp:168] Memory required for data: 310850816
I0703 16:47:43.413799  2338 layer_factory.hpp:76] Creating layer conv5
I0703 16:47:43.413805  2338 net.cpp:109] Creating Layer conv5
I0703 16:47:43.413806  2338 net.cpp:457] conv5 <- conv4
I0703 16:47:43.413810  2338 net.cpp:414] conv5 -> conv5
I0703 16:47:43.433318  2338 net.cpp:153] Setting up conv5
I0703 16:47:43.433336  2338 net.cpp:160] Top shape: 32 256 13 13 (1384448)
I0703 16:47:43.433339  2338 net.cpp:168] Memory required for data: 316388608
I0703 16:47:43.433348  2338 layer_factory.hpp:76] Creating layer relu5
I0703 16:47:43.433357  2338 net.cpp:109] Creating Layer relu5
I0703 16:47:43.433360  2338 net.cpp:457] relu5 <- conv5
I0703 16:47:43.433364  2338 net.cpp:400] relu5 -> conv5 (in-place)
I0703 16:47:43.433372  2338 net.cpp:153] Setting up relu5
I0703 16:47:43.433374  2338 net.cpp:160] Top shape: 32 256 13 13 (1384448)
I0703 16:47:43.433377  2338 net.cpp:168] Memory required for data: 321926400
I0703 16:47:43.433378  2338 layer_factory.hpp:76] Creating layer pool5
I0703 16:47:43.433382  2338 net.cpp:109] Creating Layer pool5
I0703 16:47:43.433384  2338 net.cpp:457] pool5 <- conv5
I0703 16:47:43.433387  2338 net.cpp:414] pool5 -> pool5
I0703 16:47:43.433419  2338 net.cpp:153] Setting up pool5
I0703 16:47:43.433423  2338 net.cpp:160] Top shape: 32 256 6 6 (294912)
I0703 16:47:43.433425  2338 net.cpp:168] Memory required for data: 323106048
I0703 16:47:43.433428  2338 layer_factory.hpp:76] Creating layer fc6
I0703 16:47:43.433432  2338 net.cpp:109] Creating Layer fc6
I0703 16:47:43.433434  2338 net.cpp:457] fc6 <- pool5
I0703 16:47:43.433437  2338 net.cpp:414] fc6 -> fc6
I0703 16:47:44.143429  2338 net.cpp:153] Setting up fc6
I0703 16:47:44.143446  2338 net.cpp:160] Top shape: 32 4096 (131072)
I0703 16:47:44.143450  2338 net.cpp:168] Memory required for data: 323630336
I0703 16:47:44.143455  2338 layer_factory.hpp:76] Creating layer relu6
I0703 16:47:44.143462  2338 net.cpp:109] Creating Layer relu6
I0703 16:47:44.143465  2338 net.cpp:457] relu6 <- fc6
I0703 16:47:44.143470  2338 net.cpp:400] relu6 -> fc6 (in-place)
I0703 16:47:44.143476  2338 net.cpp:153] Setting up relu6
I0703 16:47:44.143479  2338 net.cpp:160] Top shape: 32 4096 (131072)
I0703 16:47:44.143481  2338 net.cpp:168] Memory required for data: 324154624
I0703 16:47:44.143482  2338 layer_factory.hpp:76] Creating layer drop6
I0703 16:47:44.143486  2338 net.cpp:109] Creating Layer drop6
I0703 16:47:44.143488  2338 net.cpp:457] drop6 <- fc6
I0703 16:47:44.143491  2338 net.cpp:400] drop6 -> fc6 (in-place)
I0703 16:47:44.143510  2338 net.cpp:153] Setting up drop6
I0703 16:47:44.143514  2338 net.cpp:160] Top shape: 32 4096 (131072)
I0703 16:47:44.143515  2338 net.cpp:168] Memory required for data: 324678912
I0703 16:47:44.143517  2338 layer_factory.hpp:76] Creating layer fc7
I0703 16:47:44.143522  2338 net.cpp:109] Creating Layer fc7
I0703 16:47:44.143523  2338 net.cpp:457] fc7 <- fc6
I0703 16:47:44.143527  2338 net.cpp:414] fc7 -> fc7
I0703 16:47:44.448916  2338 net.cpp:153] Setting up fc7
I0703 16:47:44.448933  2338 net.cpp:160] Top shape: 32 4096 (131072)
I0703 16:47:44.448936  2338 net.cpp:168] Memory required for data: 325203200
I0703 16:47:44.448942  2338 layer_factory.hpp:76] Creating layer relu7
I0703 16:47:44.448950  2338 net.cpp:109] Creating Layer relu7
I0703 16:47:44.448952  2338 net.cpp:457] relu7 <- fc7
I0703 16:47:44.448957  2338 net.cpp:400] relu7 -> fc7 (in-place)
I0703 16:47:44.448963  2338 net.cpp:153] Setting up relu7
I0703 16:47:44.448966  2338 net.cpp:160] Top shape: 32 4096 (131072)
I0703 16:47:44.448968  2338 net.cpp:168] Memory required for data: 325727488
I0703 16:47:44.448971  2338 layer_factory.hpp:76] Creating layer drop7
I0703 16:47:44.448974  2338 net.cpp:109] Creating Layer drop7
I0703 16:47:44.448976  2338 net.cpp:457] drop7 <- fc7
I0703 16:47:44.448978  2338 net.cpp:400] drop7 -> fc7 (in-place)
I0703 16:47:44.448998  2338 net.cpp:153] Setting up drop7
I0703 16:47:44.449002  2338 net.cpp:160] Top shape: 32 4096 (131072)
I0703 16:47:44.449019  2338 net.cpp:168] Memory required for data: 326251776
I0703 16:47:44.449021  2338 layer_factory.hpp:76] Creating layer fc8_species
I0703 16:47:44.449026  2338 net.cpp:109] Creating Layer fc8_species
I0703 16:47:44.449028  2338 net.cpp:457] fc8_species <- fc7
I0703 16:47:44.449031  2338 net.cpp:414] fc8_species -> fc8_species
I0703 16:47:44.521574  2338 net.cpp:153] Setting up fc8_species
I0703 16:47:44.521590  2338 net.cpp:160] Top shape: 32 967 (30944)
I0703 16:47:44.521592  2338 net.cpp:168] Memory required for data: 326375552
I0703 16:47:44.521598  2338 layer_factory.hpp:76] Creating layer fc8_species_fc8_species_0_split
I0703 16:47:44.521605  2338 net.cpp:109] Creating Layer fc8_species_fc8_species_0_split
I0703 16:47:44.521607  2338 net.cpp:457] fc8_species_fc8_species_0_split <- fc8_species
I0703 16:47:44.521611  2338 net.cpp:414] fc8_species_fc8_species_0_split -> fc8_species_fc8_species_0_split_0
I0703 16:47:44.521617  2338 net.cpp:414] fc8_species_fc8_species_0_split -> fc8_species_fc8_species_0_split_1
I0703 16:47:44.521646  2338 net.cpp:153] Setting up fc8_species_fc8_species_0_split
I0703 16:47:44.521649  2338 net.cpp:160] Top shape: 32 967 (30944)
I0703 16:47:44.521651  2338 net.cpp:160] Top shape: 32 967 (30944)
I0703 16:47:44.521653  2338 net.cpp:168] Memory required for data: 326623104
I0703 16:47:44.521656  2338 layer_factory.hpp:76] Creating layer loss
I0703 16:47:44.521658  2338 net.cpp:109] Creating Layer loss
I0703 16:47:44.521661  2338 net.cpp:457] loss <- fc8_species_fc8_species_0_split_0
I0703 16:47:44.521663  2338 net.cpp:457] loss <- label_label_0_split_0
I0703 16:47:44.521667  2338 net.cpp:414] loss -> loss
…
