…
state {
phase: TRAIN
}
layer {
name: "data"
type: "Data"
top: "data"
include {
phase: TRAIN
}
transform_param {
mean_file: "/home/ffw/scratch/plantClef/scatnet_output/train/a4_m2_s1s2s4s8_f2/lmdb_mean_coeff.binaryproto"
}
data_param {
source: "/home/ffw/scratch/plantClef/scatnet_output/train/a4_m2_s1s2s4s8_f2/lmdb_data"
batch_size: 200
backend: LMDB
}
}
layer {
name: "label"
type: "Data"
top: "label"
include {
phase: TRAIN
}
data_param {
source: "/home/ffw/scratch/plantClef/scatnet_output/train/a4_m2_s1s2s4s8_f2/lmdb_labels"
batch_size: 200
backend: LMDB
}
}
layer {
name: "pool1"
type: "Pooling"
bottom: "data"
top: "pool1"
pooling_param {
pool: MAX
kernel_size: 3
stride: 2
}
}
layer {
name: "conv5"
type: "Convolution"
bottom: "pool1"
top: "conv5"
param {
lr_mult: 1
decay_mult: 1
}
param {
lr_mult: 2
decay_mult: 0
}
convolution_param {
num_output: 256
pad: 1
kernel_size: 3
group: 1
weight_filler {
type: "gaussian"
std: 0.01
}
bias_filler {
type: "constant"
value: 0.1
}
}
}
layer {
name: "relu5"
type: "ReLU"
bottom: "conv5"
top: "conv5"
}
layer {
name: "pool5"
type: "Pooling"
bottom: "conv5"
top: "pool5"
pooling_param {
pool: MAX
kernel_size: 3
stride: 2
}
}
layer {
name: "fc6"
type: "InnerProduct"
bottom: "pool5"
top: "fc6"
param {
lr_mult: 1
decay_mult: 1
}
param {
lr_mult: 2
decay_mult: 0
}
inner_product_param {
num_output: 4096
weight_filler {
type: "gaussian"
std: 0.005
}
bias_filler {
type: "constant"
value: 0.1
}
}
}
layer {
name: "relu6"
type: "ReLU"
bottom: "fc6"
top: "fc6"
}
layer {
name: "drop6"
type: "Dropout"
bottom: "fc6"
top: "fc6"
dropout_param {
dropout_ratio: 0.5
}
}
layer {
name: "fc7"
type: "InnerProduct"
bottom: "fc6"
top: "fc7"
param {
lr_mult: 1
decay_mult: 1
}
param {
lr_mult: 2
decay_mult: 0
}
inner_product_param {
num_output: 4096
weight_filler {
type: "gaussian"
std: 0.005
}
bias_filler {
type: "constant"
value: 0.1
}
}
}
layer {
name: "relu7"
type: "ReLU"
bottom: "fc7"
top: "fc7"
}
layer {
name: "drop7"
type: "Dropout"
bottom: "fc7"
top: "fc7"
dropout_param {
dropout_ratio: 0.5
}
}
layer {
name: "fc8_species"
type: "InnerProduct"
bottom: "fc7"
top: "fc8_species"
param {
lr_mult: 1
decay_mult: 1
}
param {
lr_mult: 2
decay_mult: 0
}
inner_product_param {
num_output: 967
weight_filler {
type: "gaussian"
std: 0.005
}
bias_filler {
type: "constant"
value: 0.1
}
}
}
layer {
name: "loss"
type: "SoftmaxWithLoss"
bottom: "fc8_species"
bottom: "label"
top: "loss"
}
I0705 13:05:02.569648 10639 layer_factory.hpp:76] Creating layer data
I0705 13:05:02.569754 10639 net.cpp:109] Creating Layer data
I0705 13:05:02.569758 10639 net.cpp:414] data -> data
I0705 13:05:02.569768 10639 data_transformer.cpp:25] Loading mean file from: /home/ffw/scratch/plantClef/scatnet_output/train/a4_m2_s1s2s4s8_f2/lmdb_mean_coeff.binaryproto
I0705 13:05:02.570735 10651 db_lmdb.cpp:36] Opened lmdb /home/ffw/scratch/plantClef/scatnet_output/train/a4_m2_s1s2s4s8_f2/lmdb_data
I0705 13:05:02.571167 10639 data_layer.cpp:45] output data size: 200,339,19,19
I0705 13:05:02.675844 10639 net.cpp:153] Setting up data
I0705 13:05:02.675865 10639 net.cpp:160] Top shape: 200 339 19 19 (24475800)
I0705 13:05:02.675868 10639 net.cpp:168] Memory required for data: 97903200
I0705 13:05:02.675874 10639 layer_factory.hpp:76] Creating layer label
I0705 13:05:02.675966 10639 net.cpp:109] Creating Layer label
I0705 13:05:02.675979 10639 net.cpp:414] label -> label
I0705 13:05:02.677259 10653 db_lmdb.cpp:36] Opened lmdb /home/ffw/scratch/plantClef/scatnet_output/train/a4_m2_s1s2s4s8_f2/lmdb_labels
I0705 13:05:02.684885 10639 data_layer.cpp:45] output data size: 200,1,1,1
I0705 13:05:02.684959 10639 net.cpp:153] Setting up label
I0705 13:05:02.684965 10639 net.cpp:160] Top shape: 200 1 1 1 (200)
I0705 13:05:02.684967 10639 net.cpp:168] Memory required for data: 97904000
I0705 13:05:02.684969 10639 layer_factory.hpp:76] Creating layer pool1
I0705 13:05:02.684975 10639 net.cpp:109] Creating Layer pool1
I0705 13:05:02.684978 10639 net.cpp:457] pool1 <- data
I0705 13:05:02.684983 10639 net.cpp:414] pool1 -> pool1
I0705 13:05:02.685019 10639 net.cpp:153] Setting up pool1
I0705 13:05:02.685024 10639 net.cpp:160] Top shape: 200 339 9 9 (5491800)
I0705 13:05:02.685024 10639 net.cpp:168] Memory required for data: 119871200
I0705 13:05:02.685026 10639 layer_factory.hpp:76] Creating layer conv5
I0705 13:05:02.685032 10639 net.cpp:109] Creating Layer conv5
I0705 13:05:02.685034 10639 net.cpp:457] conv5 <- pool1
I0705 13:05:02.685037 10639 net.cpp:414] conv5 -> conv5
I0705 13:05:02.699635 10639 net.cpp:153] Setting up conv5
I0705 13:05:02.699653 10639 net.cpp:160] Top shape: 200 256 9 9 (4147200)
I0705 13:05:02.699656 10639 net.cpp:168] Memory required for data: 136460000
I0705 13:05:02.699666 10639 layer_factory.hpp:76] Creating layer relu5
I0705 13:05:02.699672 10639 net.cpp:109] Creating Layer relu5
I0705 13:05:02.699676 10639 net.cpp:457] relu5 <- conv5
I0705 13:05:02.699679 10639 net.cpp:400] relu5 -> conv5 (in-place)
I0705 13:05:02.699690 10639 net.cpp:153] Setting up relu5
I0705 13:05:02.699693 10639 net.cpp:160] Top shape: 200 256 9 9 (4147200)
I0705 13:05:02.699695 10639 net.cpp:168] Memory required for data: 153048800
I0705 13:05:02.699697 10639 layer_factory.hpp:76] Creating layer pool5
I0705 13:05:02.699702 10639 net.cpp:109] Creating Layer pool5
I0705 13:05:02.699702 10639 net.cpp:457] pool5 <- conv5
I0705 13:05:02.699705 10639 net.cpp:414] pool5 -> pool5
I0705 13:05:02.699730 10639 net.cpp:153] Setting up pool5
I0705 13:05:02.699733 10639 net.cpp:160] Top shape: 200 256 4 4 (819200)
I0705 13:05:02.699735 10639 net.cpp:168] Memory required for data: 156325600
I0705 13:05:02.699738 10639 layer_factory.hpp:76] Creating layer fc6
I0705 13:05:02.699743 10639 net.cpp:109] Creating Layer fc6
I0705 13:05:02.699743 10639 net.cpp:457] fc6 <- pool5
I0705 13:05:02.699746 10639 net.cpp:414] fc6 -> fc6
I0705 13:05:03.017305 10639 net.cpp:153] Setting up fc6
I0705 13:05:03.017324 10639 net.cpp:160] Top shape: 200 4096 (819200)
I0705 13:05:03.017326 10639 net.cpp:168] Memory required for data: 159602400
I0705 13:05:03.017334 10639 layer_factory.hpp:76] Creating layer relu6
I0705 13:05:03.017341 10639 net.cpp:109] Creating Layer relu6
I0705 13:05:03.017343 10639 net.cpp:457] relu6 <- fc6
I0705 13:05:03.017348 10639 net.cpp:400] relu6 -> fc6 (in-place)
I0705 13:05:03.017354 10639 net.cpp:153] Setting up relu6
I0705 13:05:03.017356 10639 net.cpp:160] Top shape: 200 4096 (819200)
I0705 13:05:03.017359 10639 net.cpp:168] Memory required for data: 162879200
I0705 13:05:03.017360 10639 layer_factory.hpp:76] Creating layer drop6
I0705 13:05:03.017370 10639 net.cpp:109] Creating Layer drop6
I0705 13:05:03.017371 10639 net.cpp:457] drop6 <- fc6
I0705 13:05:03.017374 10639 net.cpp:400] drop6 -> fc6 (in-place)
I0705 13:05:03.017405 10639 net.cpp:153] Setting up drop6
I0705 13:05:03.017407 10639 net.cpp:160] Top shape: 200 4096 (819200)
I0705 13:05:03.017410 10639 net.cpp:168] Memory required for data: 166156000
I0705 13:05:03.017411 10639 layer_factory.hpp:76] Creating layer fc7
I0705 13:05:03.017416 10639 net.cpp:109] Creating Layer fc7
I0705 13:05:03.017417 10639 net.cpp:457] fc7 <- fc6
I0705 13:05:03.017421 10639 net.cpp:414] fc7 -> fc7
I0705 13:05:03.328502 10639 net.cpp:153] Setting up fc7
I0705 13:05:03.328521 10639 net.cpp:160] Top shape: 200 4096 (819200)
I0705 13:05:03.328523 10639 net.cpp:168] Memory required for data: 169432800
I0705 13:05:03.328531 10639 layer_factory.hpp:76] Creating layer relu7
I0705 13:05:03.328537 10639 net.cpp:109] Creating Layer relu7
I0705 13:05:03.328539 10639 net.cpp:457] relu7 <- fc7
I0705 13:05:03.328543 10639 net.cpp:400] relu7 -> fc7 (in-place)
I0705 13:05:03.328550 10639 net.cpp:153] Setting up relu7
I0705 13:05:03.328552 10639 net.cpp:160] Top shape: 200 4096 (819200)
I0705 13:05:03.328554 10639 net.cpp:168] Memory required for data: 172709600
I0705 13:05:03.328557 10639 layer_factory.hpp:76] Creating layer drop7
I0705 13:05:03.328560 10639 net.cpp:109] Creating Layer drop7
I0705 13:05:03.328562 10639 net.cpp:457] drop7 <- fc7
I0705 13:05:03.328564 10639 net.cpp:400] drop7 -> fc7 (in-place)
I0705 13:05:03.328579 10639 net.cpp:153] Setting up drop7
I0705 13:05:03.328583 10639 net.cpp:160] Top shape: 200 4096 (819200)
I0705 13:05:03.328584 10639 net.cpp:168] Memory required for data: 175986400
I0705 13:05:03.328586 10639 layer_factory.hpp:76] Creating layer fc8_species
I0705 13:05:03.328590 10639 net.cpp:109] Creating Layer fc8_species
I0705 13:05:03.328593 10639 net.cpp:457] fc8_species <- fc7
I0705 13:05:03.328595 10639 net.cpp:414] fc8_species -> fc8_species
I0705 13:05:03.402443 10639 net.cpp:153] Setting up fc8_species
I0705 13:05:03.402459 10639 net.cpp:160] Top shape: 200 967 (193400)
I0705 13:05:03.402462 10639 net.cpp:168] Memory required for data: 176760000
I0705 13:05:03.402467 10639 layer_factory.hpp:76] Creating layer loss
I0705 13:05:03.402472 10639 net.cpp:109] Creating Layer loss
I0705 13:05:03.402475 10639 net.cpp:457] loss <- fc8_species
I0705 13:05:03.402478 10639 net.cpp:457] loss <- label
I0705 13:05:03.402482 10639 net.cpp:414] loss -> loss
I0705 13:05:03.402489 10639 layer_factory.hpp:76] Creating layer loss
…
I0705 13:05:03.403331 10639 net.cpp:52] Initializing net from parameters:
state {
phase: TEST
}
layer {
name: "data"
type: "Data"
top: "data"
include {
phase: TEST
}
transform_param {
mean_file: "/home/ffw/scratch/plantClef/scatnet_output/train/a4_m2_s1s2s4s8_f2/lmdb_mean_coeff.binaryproto"
}
data_param {
source: "/home/ffw/scratch/plantClef/scatnet_output/test/a4_m2_s1s2s4s8_f2/lmdb_data"
batch_size: 200
backend: LMDB
}
}
layer {
name: "label"
type: "Data"
top: "label"
include {
phase: TEST
}
data_param {
source: "/home/ffw/scratch/plantClef/scatnet_output/test/a4_m2_s1s2s4s8_f2/lmdb_labels"
batch_size: 200
backend: LMDB
}
}
layer {
name: "pool1"
type: "Pooling"
bottom: "data"
top: "pool1"
pooling_param {
pool: MAX
kernel_size: 3
stride: 2
}
}
layer {
name: "conv5"
type: "Convolution"
bottom: "pool1"
top: "conv5"
param {
lr_mult: 1
decay_mult: 1
}
param {
lr_mult: 2
decay_mult: 0
}
convolution_param {
num_output: 256
pad: 1
kernel_size: 3
group: 1
weight_filler {
type: "gaussian"
std: 0.01
}
bias_filler {
type: "constant"
value: 0.1
}
}
}
layer {
name: "relu5"
type: "ReLU"
bottom: "conv5"
top: "conv5"
}
layer {
name: "pool5"
type: "Pooling"
bottom: "conv5"
top: "pool5"
pooling_param {
pool: MAX
kernel_size: 3
stride: 2
}
}
layer {
name: "fc6"
type: "InnerProduct"
bottom: "pool5"
top: "fc6"
param {
lr_mult: 1
decay_mult: 1
}
param {
lr_mult: 2
decay_mult: 0
}
inner_product_param {
num_output: 4096
weight_filler {
type: "gaussian"
std: 0.005
}
bias_filler {
type: "constant"
value: 0.1
}
}
}
layer {
name: "relu6"
type: "ReLU"
bottom: "fc6"
top: "fc6"
}
layer {
name: "drop6"
type: "Dropout"
bottom: "fc6"
top: "fc6"
dropout_param {
dropout_ratio: 0.5
}
}
layer {
name: "fc7"
type: "InnerProduct"
bottom: "fc6"
top: "fc7"
param {
lr_mult: 1
decay_mult: 1
}
param {
lr_mult: 2
decay_mult: 0
}
inner_product_param {
num_output: 4096
weight_filler {
type: "gaussian"
std: 0.005
}
bias_filler {
type: "constant"
value: 0.1
}
}
}
layer {
name: "relu7"
type: "ReLU"
bottom: "fc7"
top: "fc7"
}
layer {
name: "drop7"
type: "Dropout"
bottom: "fc7"
top: "fc7"
dropout_param {
dropout_ratio: 0.5
}
}
layer {
name: "fc8_species"
type: "InnerProduct"
bottom: "fc7"
top: "fc8_species"
param {
lr_mult: 1
decay_mult: 1
}
param {
lr_mult: 2
decay_mult: 0
}
inner_product_param {
num_output: 967
weight_filler {
type: "gaussian"
std: 0.005
}
bias_filler {
type: "constant"
value: 0.1
}
}
}
layer {
name: "loss"
type: "SoftmaxWithLoss"
bottom: "fc8_species"
bottom: "label"
top: "loss"
}
layer {
name: "accuracy"
type: "Accuracy"
bottom: "fc8_species"
bottom: "label"
top: "accuracy"
include {
phase: TEST
}
}
I0705 13:05:03.403372 10639 layer_factory.hpp:76] Creating layer data
I0705 13:05:03.403470 10639 net.cpp:109] Creating Layer data
I0705 13:05:03.403484 10639 net.cpp:414] data -> data
I0705 13:05:03.403489 10639 data_transformer.cpp:25] Loading mean file from: /home/ffw/scratch/plantClef/scatnet_output/train/a4_m2_s1s2s4s8_f2/lmdb_mean_coeff.binaryproto
I0705 13:05:03.404441 10655 db_lmdb.cpp:36] Opened lmdb /home/ffw/scratch/plantClef/scatnet_output/test/a4_m2_s1s2s4s8_f2/lmdb_data
I0705 13:05:03.404570 10639 data_layer.cpp:45] output data size: 200,339,19,19
I0705 13:05:03.510017 10639 net.cpp:153] Setting up data
I0705 13:05:03.510035 10639 net.cpp:160] Top shape: 200 339 19 19 (24475800)
I0705 13:05:03.510038 10639 net.cpp:168] Memory required for data: 97903200
I0705 13:05:03.510042 10639 layer_factory.hpp:76] Creating layer label
I0705 13:05:03.510249 10639 net.cpp:109] Creating Layer label
I0705 13:05:03.510257 10639 net.cpp:414] label -> label
I0705 13:05:03.511061 10657 db_lmdb.cpp:36] Opened lmdb /home/ffw/scratch/plantClef/scatnet_output/test/a4_m2_s1s2s4s8_f2/lmdb_labels
I0705 13:05:03.518718 10639 data_layer.cpp:45] output data size: 200,1,1,1
I0705 13:05:03.518812 10639 net.cpp:153] Setting up label
I0705 13:05:03.518820 10639 net.cpp:160] Top shape: 200 1 1 1 (200)
I0705 13:05:03.518821 10639 net.cpp:168] Memory required for data: 97904000
I0705 13:05:03.518823 10639 layer_factory.hpp:76] Creating layer label_label_0_split
I0705 13:05:03.518832 10639 net.cpp:109] Creating Layer label_label_0_split
I0705 13:05:03.518834 10639 net.cpp:457] label_label_0_split <- label
I0705 13:05:03.518838 10639 net.cpp:414] label_label_0_split -> label_label_0_split_0
I0705 13:05:03.518842 10639 net.cpp:414] label_label_0_split -> label_label_0_split_1
I0705 13:05:03.518890 10639 net.cpp:153] Setting up label_label_0_split
I0705 13:05:03.518895 10639 net.cpp:160] Top shape: 200 1 1 1 (200)
I0705 13:05:03.518898 10639 net.cpp:160] Top shape: 200 1 1 1 (200)
I0705 13:05:03.518899 10639 net.cpp:168] Memory required for data: 97905600
I0705 13:05:03.518901 10639 layer_factory.hpp:76] Creating layer pool1
I0705 13:05:03.518906 10639 net.cpp:109] Creating Layer pool1
I0705 13:05:03.518908 10639 net.cpp:457] pool1 <- data
I0705 13:05:03.518911 10639 net.cpp:414] pool1 -> pool1
I0705 13:05:03.518930 10639 net.cpp:153] Setting up pool1
I0705 13:05:03.518934 10639 net.cpp:160] Top shape: 200 339 9 9 (5491800)
I0705 13:05:03.518935 10639 net.cpp:168] Memory required for data: 119872800
I0705 13:05:03.518937 10639 layer_factory.hpp:76] Creating layer conv5
I0705 13:05:03.518944 10639 net.cpp:109] Creating Layer conv5
I0705 13:05:03.518945 10639 net.cpp:457] conv5 <- pool1
I0705 13:05:03.518949 10639 net.cpp:414] conv5 -> conv5
I0705 13:05:03.534564 10639 net.cpp:153] Setting up conv5
I0705 13:05:03.534582 10639 net.cpp:160] Top shape: 200 256 9 9 (4147200)
I0705 13:05:03.534585 10639 net.cpp:168] Memory required for data: 136461600
I0705 13:05:03.534593 10639 layer_factory.hpp:76] Creating layer relu5
I0705 13:05:03.534600 10639 net.cpp:109] Creating Layer relu5
I0705 13:05:03.534603 10639 net.cpp:457] relu5 <- conv5
I0705 13:05:03.534607 10639 net.cpp:400] relu5 -> conv5 (in-place)
I0705 13:05:03.534613 10639 net.cpp:153] Setting up relu5
I0705 13:05:03.534617 10639 net.cpp:160] Top shape: 200 256 9 9 (4147200)
I0705 13:05:03.534620 10639 net.cpp:168] Memory required for data: 153050400
I0705 13:05:03.534621 10639 layer_factory.hpp:76] Creating layer pool5
I0705 13:05:03.534626 10639 net.cpp:109] Creating Layer pool5
I0705 13:05:03.534627 10639 net.cpp:457] pool5 <- conv5
I0705 13:05:03.534631 10639 net.cpp:414] pool5 -> pool5
I0705 13:05:03.534659 10639 net.cpp:153] Setting up pool5
I0705 13:05:03.534663 10639 net.cpp:160] Top shape: 200 256 4 4 (819200)
I0705 13:05:03.534664 10639 net.cpp:168] Memory required for data: 156327200
I0705 13:05:03.534667 10639 layer_factory.hpp:76] Creating layer fc6
I0705 13:05:03.534672 10639 net.cpp:109] Creating Layer fc6
I0705 13:05:03.534673 10639 net.cpp:457] fc6 <- pool5
I0705 13:05:03.534687 10639 net.cpp:414] fc6 -> fc6
I0705 13:05:03.963588 10639 net.cpp:153] Setting up fc6
I0705 13:05:03.963606 10639 net.cpp:160] Top shape: 200 4096 (819200)
I0705 13:05:03.963609 10639 net.cpp:168] Memory required for data: 159604000
I0705 13:05:03.963618 10639 layer_factory.hpp:76] Creating layer relu6
I0705 13:05:03.963625 10639 net.cpp:109] Creating Layer relu6
I0705 13:05:03.963629 10639 net.cpp:457] relu6 <- fc6
I0705 13:05:03.963632 10639 net.cpp:400] relu6 -> fc6 (in-place)
I0705 13:05:03.963639 10639 net.cpp:153] Setting up relu6
I0705 13:05:03.963641 10639 net.cpp:160] Top shape: 200 4096 (819200)
I0705 13:05:03.963642 10639 net.cpp:168] Memory required for data: 162880800
I0705 13:05:03.963644 10639 layer_factory.hpp:76] Creating layer drop6
I0705 13:05:03.963649 10639 net.cpp:109] Creating Layer drop6
I0705 13:05:03.963667 10639 net.cpp:457] drop6 <- fc6
I0705 13:05:03.963670 10639 net.cpp:400] drop6 -> fc6 (in-place)
I0705 13:05:03.963691 10639 net.cpp:153] Setting up drop6
I0705 13:05:03.963695 10639 net.cpp:160] Top shape: 200 4096 (819200)
I0705 13:05:03.963696 10639 net.cpp:168] Memory required for data: 166157600
I0705 13:05:03.963698 10639 layer_factory.hpp:76] Creating layer fc7
I0705 13:05:03.963702 10639 net.cpp:109] Creating Layer fc7
I0705 13:05:03.963704 10639 net.cpp:457] fc7 <- fc6
I0705 13:05:03.963707 10639 net.cpp:414] fc7 -> fc7
I0705 13:05:04.285456 10639 net.cpp:153] Setting up fc7
I0705 13:05:04.285473 10639 net.cpp:160] Top shape: 200 4096 (819200)
I0705 13:05:04.285475 10639 net.cpp:168] Memory required for data: 169434400
I0705 13:05:04.285482 10639 layer_factory.hpp:76] Creating layer relu7
I0705 13:05:04.285490 10639 net.cpp:109] Creating Layer relu7
I0705 13:05:04.285491 10639 net.cpp:457] relu7 <- fc7
I0705 13:05:04.285495 10639 net.cpp:400] relu7 -> fc7 (in-place)
I0705 13:05:04.285501 10639 net.cpp:153] Setting up relu7
I0705 13:05:04.285504 10639 net.cpp:160] Top shape: 200 4096 (819200)
I0705 13:05:04.285506 10639 net.cpp:168] Memory required for data: 172711200
I0705 13:05:04.285507 10639 layer_factory.hpp:76] Creating layer drop7
I0705 13:05:04.285511 10639 net.cpp:109] Creating Layer drop7
I0705 13:05:04.285513 10639 net.cpp:457] drop7 <- fc7
I0705 13:05:04.285516 10639 net.cpp:400] drop7 -> fc7 (in-place)
I0705 13:05:04.285531 10639 net.cpp:153] Setting up drop7
I0705 13:05:04.285534 10639 net.cpp:160] Top shape: 200 4096 (819200)
I0705 13:05:04.285537 10639 net.cpp:168] Memory required for data: 175988000
I0705 13:05:04.285537 10639 layer_factory.hpp:76] Creating layer fc8_species
I0705 13:05:04.285542 10639 net.cpp:109] Creating Layer fc8_species
I0705 13:05:04.285543 10639 net.cpp:457] fc8_species <- fc7
I0705 13:05:04.285547 10639 net.cpp:414] fc8_species -> fc8_species
I0705 13:05:04.358211 10639 net.cpp:153] Setting up fc8_species
I0705 13:05:04.358227 10639 net.cpp:160] Top shape: 200 967 (193400)
I0705 13:05:04.358229 10639 net.cpp:168] Memory required for data: 176761600
I0705 13:05:04.358235 10639 layer_factory.hpp:76] Creating layer fc8_species_fc8_species_0_split
I0705 13:05:04.358242 10639 net.cpp:109] Creating Layer fc8_species_fc8_species_0_split
I0705 13:05:04.358244 10639 net.cpp:457] fc8_species_fc8_species_0_split <- fc8_species
I0705 13:05:04.358248 10639 net.cpp:414] fc8_species_fc8_species_0_split -> fc8_species_fc8_species_0_split_0
I0705 13:05:04.358253 10639 net.cpp:414] fc8_species_fc8_species_0_split -> fc8_species_fc8_species_0_split_1
I0705 13:05:04.358281 10639 net.cpp:153] Setting up fc8_species_fc8_species_0_split
I0705 13:05:04.358284 10639 net.cpp:160] Top shape: 200 967 (193400)
I0705 13:05:04.358286 10639 net.cpp:160] Top shape: 200 967 (193400)
I0705 13:05:04.358289 10639 net.cpp:168] Memory required for data: 178308800
I0705 13:05:04.358290 10639 layer_factory.hpp:76] Creating layer loss
I0705 13:05:04.358294 10639 net.cpp:109] Creating Layer loss
I0705 13:05:04.358295 10639 net.cpp:457] loss <- fc8_species_fc8_species_0_split_0
I0705 13:05:04.358297 10639 net.cpp:457] loss <- label_label_0_split_0
I0705 13:05:04.358300 10639 net.cpp:414] loss -> loss
…
