…
I0706 05:52:52.794989 22636 net.cpp:52] Initializing net from parameters:
state {
phase: TRAIN
}
layer {
name: "data"
type: "Data"
top: "data"
include {
phase: TRAIN
}
transform_param {
mean_file: "/home/ffw/scratch/plantClef/scatnet_output/train/a4_m2_s1s2_f2/lmdb_mean_coeff.binaryproto"
}
data_param {
source: "/home/ffw/scratch/plantClef/scatnet_output/train/a4_m2_s1s2_f2/lmdb_data"
batch_size: 64
backend: LMDB
}
}
layer {
name: "label"
type: "Data"
top: "label"
include {
phase: TRAIN
}
data_param {
source: "/home/ffw/scratch/plantClef/scatnet_output/train/a4_m2_s1s2_f2/lmdb_labels"
batch_size: 64
backend: LMDB
}
}
layer {
name: "pool1"
type: "Pooling"
bottom: "data"
top: "pool1"
pooling_param {
pool: MAX
kernel_size: 4
stride: 3
}
}
layer {
name: "conv2"
type: "Convolution"
bottom: "pool1"
top: "conv2"
param {
lr_mult: 1
decay_mult: 1
}
param {
lr_mult: 2
decay_mult: 0
}
convolution_param {
num_output: 256
pad: 2
kernel_size: 5
group: 1
weight_filler {
type: "gaussian"
std: 0.01
}
bias_filler {
type: "constant"
value: 0.1
}
}
}
layer {
name: "relu2"
type: "ReLU"
bottom: "conv2"
top: "conv2"
}
layer {
name: "norm2"
type: "LRN"
bottom: "conv2"
top: "norm2"
lrn_param {
local_size: 5
alpha: 0.0001
beta: 0.75
}
}
layer {
name: "pool2"
type: "Pooling"
bottom: "norm2"
top: "pool2"
pooling_param {
pool: MAX
kernel_size: 3
stride: 2
}
}
layer {
name: "conv3"
type: "Convolution"
bottom: "pool2"
top: "conv3"
param {
lr_mult: 1
decay_mult: 1
}
param {
lr_mult: 2
decay_mult: 0
}
convolution_param {
num_output: 384
pad: 1
kernel_size: 3
weight_filler {
type: "gaussian"
std: 0.01
}
bias_filler {
type: "constant"
value: 0
}
}
}
layer {
name: "relu3"
type: "ReLU"
bottom: "conv3"
top: "conv3"
}
layer {
name: "conv4"
type: "Convolution"
bottom: "conv3"
top: "conv4"
param {
lr_mult: 1
decay_mult: 1
}
param {
lr_mult: 2
decay_mult: 0
}
convolution_param {
num_output: 384
pad: 1
kernel_size: 3
group: 2
weight_filler {
type: "gaussian"
std: 0.01
}
bias_filler {
type: "constant"
value: 0.1
}
}
}
layer {
name: "relu4"
type: "ReLU"
bottom: "conv4"
top: "conv4"
}
layer {
name: "conv5"
type: "Convolution"
bottom: "conv4"
top: "conv5"
param {
lr_mult: 1
decay_mult: 1
}
param {
lr_mult: 2
decay_mult: 0
}
convolution_param {
num_output: 256
pad: 1
kernel_size: 3
group: 1
weight_filler {
type: "gaussian"
std: 0.01
}
bias_filler {
type: "constant"
value: 0.1
}
}
}
layer {
name: "relu5"
type: "ReLU"
bottom: "conv5"
top: "conv5"
}
layer {
name: "pool5"
type: "Pooling"
bottom: "conv5"
top: "pool5"
pooling_param {
pool: MAX
kernel_size: 3
stride: 2
}
}
layer {
name: "fc6"
type: "InnerProduct"
bottom: "pool5"
top: "fc6"
param {
lr_mult: 1
decay_mult: 1
}
param {
lr_mult: 2
decay_mult: 0
}
inner_product_param {
num_output: 4096
weight_filler {
type: "gaussian"
std: 0.005
}
bias_filler {
type: "constant"
value: 0.1
}
}
}
layer {
name: "relu6"
type: "ReLU"
bottom: "fc6"
top: "fc6"
}
layer {
name: "drop6"
type: "Dropout"
bottom: "fc6"
top: "fc6"
dropout_param {
dropout_ratio: 0.5
}
}
layer {
name: "fc7"
type: "InnerProduct"
bottom: "fc6"
top: "fc7"
param {
lr_mult: 1
decay_mult: 1
}
param {
lr_mult: 2
decay_mult: 0
}
inner_product_param {
num_output: 4096
weight_filler {
type: "gaussian"
std: 0.005
}
bias_filler {
type: "constant"
value: 0.1
}
}
}
layer {
name: "relu7"
type: "ReLU"
bottom: "fc7"
top: "fc7"
}
layer {
name: "drop7"
type: "Dropout"
bottom: "fc7"
top: "fc7"
dropout_param {
dropout_ratio: 0.5
}
}
layer {
name: "fc8_species"
type: "InnerProduct"
bottom: "fc7"
top: "fc8_species"
param {
lr_mult: 1
decay_mult: 1
}
param {
lr_mult: 2
decay_mult: 0
}
inner_product_param {
num_output: 967
weight_filler {
type: "gaussian"
std: 0.005
}
bias_filler {
type: "constant"
value: 0.1
}
}
}
layer {
name: "loss"
type: "SoftmaxWithLoss"
bottom: "fc8_species"
bottom: "label"
top: "loss"
}
I0706 05:52:52.795052 22636 layer_factory.hpp:76] Creating layer data
I0706 05:52:52.795125 22636 net.cpp:109] Creating Layer data
I0706 05:52:52.795130 22636 net.cpp:414] data -> data
I0706 05:52:52.795140 22636 data_transformer.cpp:25] Loading mean file from: /home/ffw/scratch/plantClef/scatnet_output/train/a4_m2_s1s2_f2/lmdb_mean_coeff.binaryproto
I0706 05:52:52.798149 22648 db_lmdb.cpp:36] Opened lmdb /home/ffw/scratch/plantClef/scatnet_output/train/a4_m2_s1s2_f2/lmdb_data
I0706 05:52:52.813454 22636 data_layer.cpp:45] output data size: 64,75,105,105
I0706 05:52:53.037533 22636 net.cpp:153] Setting up data
I0706 05:52:53.037556 22636 net.cpp:160] Top shape: 64 75 105 105 (52920000)
I0706 05:52:53.037559 22636 net.cpp:168] Memory required for data: 211680000
I0706 05:52:53.037564 22636 layer_factory.hpp:76] Creating layer label
I0706 05:52:53.037705 22636 net.cpp:109] Creating Layer label
I0706 05:52:53.037709 22636 net.cpp:414] label -> label
I0706 05:52:53.040904 22650 db_lmdb.cpp:36] Opened lmdb /home/ffw/scratch/plantClef/scatnet_output/train/a4_m2_s1s2_f2/lmdb_labels
I0706 05:52:53.056452 22636 data_layer.cpp:45] output data size: 64,1,1,1
I0706 05:52:53.056581 22636 net.cpp:153] Setting up label
I0706 05:52:53.056601 22636 net.cpp:160] Top shape: 64 1 1 1 (64)
I0706 05:52:53.056604 22636 net.cpp:168] Memory required for data: 211680256
I0706 05:52:53.056609 22636 layer_factory.hpp:76] Creating layer pool1
I0706 05:52:53.056630 22636 net.cpp:109] Creating Layer pool1
I0706 05:52:53.056634 22636 net.cpp:457] pool1 <- data
I0706 05:52:53.056648 22636 net.cpp:414] pool1 -> pool1
I0706 05:52:53.056695 22636 net.cpp:153] Setting up pool1
I0706 05:52:53.056700 22636 net.cpp:160] Top shape: 64 75 35 35 (5880000)
I0706 05:52:53.056702 22636 net.cpp:168] Memory required for data: 235200256
I0706 05:52:53.056704 22636 layer_factory.hpp:76] Creating layer conv2
I0706 05:52:53.056710 22636 net.cpp:109] Creating Layer conv2
I0706 05:52:53.056712 22636 net.cpp:457] conv2 <- pool1
I0706 05:52:53.056715 22636 net.cpp:414] conv2 -> conv2
I0706 05:52:53.067433 22636 net.cpp:153] Setting up conv2
I0706 05:52:53.067456 22636 net.cpp:160] Top shape: 64 256 35 35 (20070400)
I0706 05:52:53.067459 22636 net.cpp:168] Memory required for data: 315481856
I0706 05:52:53.067479 22636 layer_factory.hpp:76] Creating layer relu2
I0706 05:52:53.067487 22636 net.cpp:109] Creating Layer relu2
I0706 05:52:53.067489 22636 net.cpp:457] relu2 <- conv2
I0706 05:52:53.067493 22636 net.cpp:400] relu2 -> conv2 (in-place)
I0706 05:52:53.067502 22636 net.cpp:153] Setting up relu2
I0706 05:52:53.067504 22636 net.cpp:160] Top shape: 64 256 35 35 (20070400)
I0706 05:52:53.067520 22636 net.cpp:168] Memory required for data: 395763456
I0706 05:52:53.067523 22636 layer_factory.hpp:76] Creating layer norm2
I0706 05:52:53.067528 22636 net.cpp:109] Creating Layer norm2
I0706 05:52:53.067529 22636 net.cpp:457] norm2 <- conv2
I0706 05:52:53.067531 22636 net.cpp:414] norm2 -> norm2
I0706 05:52:53.067558 22636 net.cpp:153] Setting up norm2
I0706 05:52:53.067561 22636 net.cpp:160] Top shape: 64 256 35 35 (20070400)
I0706 05:52:53.067564 22636 net.cpp:168] Memory required for data: 476045056
I0706 05:52:53.067565 22636 layer_factory.hpp:76] Creating layer pool2
I0706 05:52:53.067569 22636 net.cpp:109] Creating Layer pool2
I0706 05:52:53.067570 22636 net.cpp:457] pool2 <- norm2
I0706 05:52:53.067574 22636 net.cpp:414] pool2 -> pool2
I0706 05:52:53.067591 22636 net.cpp:153] Setting up pool2
I0706 05:52:53.067595 22636 net.cpp:160] Top shape: 64 256 17 17 (4734976)
I0706 05:52:53.067596 22636 net.cpp:168] Memory required for data: 494984960
I0706 05:52:53.067597 22636 layer_factory.hpp:76] Creating layer conv3
I0706 05:52:53.067602 22636 net.cpp:109] Creating Layer conv3
I0706 05:52:53.067605 22636 net.cpp:457] conv3 <- pool2
I0706 05:52:53.067607 22636 net.cpp:414] conv3 -> conv3
I0706 05:52:53.086431 22636 net.cpp:153] Setting up conv3
I0706 05:52:53.086447 22636 net.cpp:160] Top shape: 64 384 17 17 (7102464)
I0706 05:52:53.086449 22636 net.cpp:168] Memory required for data: 523394816
I0706 05:52:53.086457 22636 layer_factory.hpp:76] Creating layer relu3
I0706 05:52:53.086464 22636 net.cpp:109] Creating Layer relu3
I0706 05:52:53.086467 22636 net.cpp:457] relu3 <- conv3
I0706 05:52:53.086470 22636 net.cpp:400] relu3 -> conv3 (in-place)
I0706 05:52:53.086477 22636 net.cpp:153] Setting up relu3
I0706 05:52:53.086478 22636 net.cpp:160] Top shape: 64 384 17 17 (7102464)
I0706 05:52:53.086480 22636 net.cpp:168] Memory required for data: 551804672
I0706 05:52:53.086482 22636 layer_factory.hpp:76] Creating layer conv4
I0706 05:52:53.086488 22636 net.cpp:109] Creating Layer conv4
I0706 05:52:53.086488 22636 net.cpp:457] conv4 <- conv3
I0706 05:52:53.086493 22636 net.cpp:414] conv4 -> conv4
I0706 05:52:53.100558 22636 net.cpp:153] Setting up conv4
I0706 05:52:53.100576 22636 net.cpp:160] Top shape: 64 384 17 17 (7102464)
I0706 05:52:53.100579 22636 net.cpp:168] Memory required for data: 580214528
I0706 05:52:53.100586 22636 layer_factory.hpp:76] Creating layer relu4
I0706 05:52:53.100592 22636 net.cpp:109] Creating Layer relu4
I0706 05:52:53.100595 22636 net.cpp:457] relu4 <- conv4
I0706 05:52:53.100600 22636 net.cpp:400] relu4 -> conv4 (in-place)
I0706 05:52:53.100605 22636 net.cpp:153] Setting up relu4
I0706 05:52:53.100607 22636 net.cpp:160] Top shape: 64 384 17 17 (7102464)
I0706 05:52:53.100610 22636 net.cpp:168] Memory required for data: 608624384
I0706 05:52:53.100610 22636 layer_factory.hpp:76] Creating layer conv5
I0706 05:52:53.100616 22636 net.cpp:109] Creating Layer conv5
I0706 05:52:53.100618 22636 net.cpp:457] conv5 <- conv4
I0706 05:52:53.100621 22636 net.cpp:414] conv5 -> conv5
I0706 05:52:53.119657 22636 net.cpp:153] Setting up conv5
I0706 05:52:53.119675 22636 net.cpp:160] Top shape: 64 256 17 17 (4734976)
I0706 05:52:53.119678 22636 net.cpp:168] Memory required for data: 627564288
I0706 05:52:53.119683 22636 layer_factory.hpp:76] Creating layer relu5
I0706 05:52:53.119689 22636 net.cpp:109] Creating Layer relu5
I0706 05:52:53.119691 22636 net.cpp:457] relu5 <- conv5
I0706 05:52:53.119695 22636 net.cpp:400] relu5 -> conv5 (in-place)
I0706 05:52:53.119701 22636 net.cpp:153] Setting up relu5
I0706 05:52:53.119704 22636 net.cpp:160] Top shape: 64 256 17 17 (4734976)
I0706 05:52:53.119705 22636 net.cpp:168] Memory required for data: 646504192
I0706 05:52:53.119707 22636 layer_factory.hpp:76] Creating layer pool5
I0706 05:52:53.119710 22636 net.cpp:109] Creating Layer pool5
I0706 05:52:53.119712 22636 net.cpp:457] pool5 <- conv5
I0706 05:52:53.119715 22636 net.cpp:414] pool5 -> pool5
I0706 05:52:53.119735 22636 net.cpp:153] Setting up pool5
I0706 05:52:53.119738 22636 net.cpp:160] Top shape: 64 256 8 8 (1048576)
I0706 05:52:53.119755 22636 net.cpp:168] Memory required for data: 650698496
I0706 05:52:53.119756 22636 layer_factory.hpp:76] Creating layer fc6
I0706 05:52:53.119761 22636 net.cpp:109] Creating Layer fc6
I0706 05:52:53.119763 22636 net.cpp:457] fc6 <- pool5
I0706 05:52:53.119766 22636 net.cpp:414] fc6 -> fc6
I0706 05:52:54.425999 22636 net.cpp:153] Setting up fc6
I0706 05:52:54.426020 22636 net.cpp:160] Top shape: 64 4096 (262144)
I0706 05:52:54.426023 22636 net.cpp:168] Memory required for data: 651747072
I0706 05:52:54.426031 22636 layer_factory.hpp:76] Creating layer relu6
I0706 05:52:54.426038 22636 net.cpp:109] Creating Layer relu6
I0706 05:52:54.426040 22636 net.cpp:457] relu6 <- fc6
I0706 05:52:54.426044 22636 net.cpp:400] relu6 -> fc6 (in-place)
I0706 05:52:54.426051 22636 net.cpp:153] Setting up relu6
I0706 05:52:54.426054 22636 net.cpp:160] Top shape: 64 4096 (262144)
I0706 05:52:54.426056 22636 net.cpp:168] Memory required for data: 652795648
I0706 05:52:54.426059 22636 layer_factory.hpp:76] Creating layer drop6
I0706 05:52:54.426070 22636 net.cpp:109] Creating Layer drop6
I0706 05:52:54.426072 22636 net.cpp:457] drop6 <- fc6
I0706 05:52:54.426075 22636 net.cpp:400] drop6 -> fc6 (in-place)
I0706 05:52:54.426092 22636 net.cpp:153] Setting up drop6
I0706 05:52:54.426095 22636 net.cpp:160] Top shape: 64 4096 (262144)
I0706 05:52:54.426096 22636 net.cpp:168] Memory required for data: 653844224
I0706 05:52:54.426098 22636 layer_factory.hpp:76] Creating layer fc7
I0706 05:52:54.426102 22636 net.cpp:109] Creating Layer fc7
I0706 05:52:54.426105 22636 net.cpp:457] fc7 <- fc6
I0706 05:52:54.426107 22636 net.cpp:414] fc7 -> fc7
I0706 05:52:54.728427 22636 net.cpp:153] Setting up fc7
I0706 05:52:54.728447 22636 net.cpp:160] Top shape: 64 4096 (262144)
I0706 05:52:54.728451 22636 net.cpp:168] Memory required for data: 654892800
I0706 05:52:54.728456 22636 layer_factory.hpp:76] Creating layer relu7
I0706 05:52:54.728462 22636 net.cpp:109] Creating Layer relu7
I0706 05:52:54.728466 22636 net.cpp:457] relu7 <- fc7
I0706 05:52:54.728468 22636 net.cpp:400] relu7 -> fc7 (in-place)
I0706 05:52:54.728476 22636 net.cpp:153] Setting up relu7
I0706 05:52:54.728477 22636 net.cpp:160] Top shape: 64 4096 (262144)
I0706 05:52:54.728479 22636 net.cpp:168] Memory required for data: 655941376
I0706 05:52:54.728480 22636 layer_factory.hpp:76] Creating layer drop7
I0706 05:52:54.728484 22636 net.cpp:109] Creating Layer drop7
I0706 05:52:54.728487 22636 net.cpp:457] drop7 <- fc7
I0706 05:52:54.728488 22636 net.cpp:400] drop7 -> fc7 (in-place)
I0706 05:52:54.728500 22636 net.cpp:153] Setting up drop7
I0706 05:52:54.728503 22636 net.cpp:160] Top shape: 64 4096 (262144)
I0706 05:52:54.728504 22636 net.cpp:168] Memory required for data: 656989952
I0706 05:52:54.728507 22636 layer_factory.hpp:76] Creating layer fc8_species
I0706 05:52:54.728512 22636 net.cpp:109] Creating Layer fc8_species
I0706 05:52:54.728513 22636 net.cpp:457] fc8_species <- fc7
I0706 05:52:54.728515 22636 net.cpp:414] fc8_species -> fc8_species
I0706 05:52:54.800410 22636 net.cpp:153] Setting up fc8_species
I0706 05:52:54.800426 22636 net.cpp:160] Top shape: 64 967 (61888)
I0706 05:52:54.800428 22636 net.cpp:168] Memory required for data: 657237504
I0706 05:52:54.800433 22636 layer_factory.hpp:76] Creating layer loss
I0706 05:52:54.800446 22636 net.cpp:109] Creating Layer loss
I0706 05:52:54.800448 22636 net.cpp:457] loss <- fc8_species
I0706 05:52:54.800451 22636 net.cpp:457] loss <- label
I0706 05:52:54.800454 22636 net.cpp:414] loss -> loss
I0706 05:52:54.800460 22636 layer_factory.hpp:76] Creating layer loss
…
I0706 05:52:54.801455 22636 net.cpp:52] Initializing net from parameters:
state {
phase: TEST
}
layer {
name: "data"
type: "Data"
top: "data"
include {
phase: TEST
}
transform_param {
mean_file: "/home/ffw/scratch/plantClef/scatnet_output/train/a4_m2_s1s2_f2/lmdb_mean_coeff.binaryproto"
}
data_param {
source: "/home/ffw/scratch/plantClef/scatnet_output/test/a4_m2_s1s2_f2/lmdb_data"
batch_size: 64
backend: LMDB
}
}
layer {
name: "label"
type: "Data"
top: "label"
include {
phase: TEST
}
data_param {
source: "/home/ffw/scratch/plantClef/scatnet_output/test/a4_m2_s1s2_f2/lmdb_labels"
batch_size: 64
backend: LMDB
}
}
layer {
name: "pool1"
type: "Pooling"
bottom: "data"
top: "pool1"
pooling_param {
pool: MAX
kernel_size: 4
stride: 3
}
}
layer {
name: "conv2"
type: "Convolution"
bottom: "pool1"
top: "conv2"
param {
lr_mult: 1
decay_mult: 1
}
param {
lr_mult: 2
decay_mult: 0
}
convolution_param {
num_output: 256
pad: 2
kernel_size: 5
group: 1
weight_filler {
type: "gaussian"
std: 0.01
}
bias_filler {
type: "constant"
value: 0.1
}
}
}
layer {
name: "relu2"
type: "ReLU"
bottom: "conv2"
top: "conv2"
}
layer {
name: "norm2"
type: "LRN"
bottom: "conv2"
top: "norm2"
lrn_param {
local_size: 5
alpha: 0.0001
beta: 0.75
}
}
layer {
name: "pool2"
type: "Pooling"
bottom: "norm2"
top: "pool2"
pooling_param {
pool: MAX
kernel_size: 3
stride: 2
}
}
layer {
name: "conv3"
type: "Convolution"
bottom: "pool2"
top: "conv3"
param {
lr_mult: 1
decay_mult: 1
}
param {
lr_mult: 2
decay_mult: 0
}
convolution_param {
num_output: 384
pad: 1
kernel_size: 3
weight_filler {
type: "gaussian"
std: 0.01
}
bias_filler {
type: "constant"
value: 0
}
}
}
layer {
name: "relu3"
type: "ReLU"
bottom: "conv3"
top: "conv3"
}
layer {
name: "conv4"
type: "Convolution"
bottom: "conv3"
top: "conv4"
param {
lr_mult: 1
decay_mult: 1
}
param {
lr_mult: 2
decay_mult: 0
}
convolution_param {
num_output: 384
pad: 1
kernel_size: 3
group: 2
weight_filler {
type: "gaussian"
std: 0.01
}
bias_filler {
type: "constant"
value: 0.1
}
}
}
layer {
name: "relu4"
type: "ReLU"
bottom: "conv4"
top: "conv4"
}
layer {
name: "conv5"
type: "Convolution"
bottom: "conv4"
top: "conv5"
param {
lr_mult: 1
decay_mult: 1
}
param {
lr_mult: 2
decay_mult: 0
}
convolution_param {
num_output: 256
pad: 1
kernel_size: 3
group: 1
weight_filler {
type: "gaussian"
std: 0.01
}
bias_filler {
type: "constant"
value: 0.1
}
}
}
layer {
name: "relu5"
type: "ReLU"
bottom: "conv5"
top: "conv5"
}
layer {
name: "pool5"
type: "Pooling"
bottom: "conv5"
top: "pool5"
pooling_param {
pool: MAX
kernel_size: 3
stride: 2
}
}
layer {
name: "fc6"
type: "InnerProduct"
bottom: "pool5"
top: "fc6"
param {
lr_mult: 1
decay_mult: 1
}
param {
lr_mult: 2
decay_mult: 0
}
inner_product_param {
num_output: 4096
weight_filler {
type: "gaussian"
std: 0.005
}
bias_filler {
type: "constant"
value: 0.1
}
}
}
layer {
name: "relu6"
type: "ReLU"
bottom: "fc6"
top: "fc6"
}
layer {
name: "drop6"
type: "Dropout"
bottom: "fc6"
top: "fc6"
dropout_param {
dropout_ratio: 0.5
}
}
layer {
name: "fc7"
type: "InnerProduct"
bottom: "fc6"
top: "fc7"
param {
lr_mult: 1
decay_mult: 1
}
param {
lr_mult: 2
decay_mult: 0
}
inner_product_param {
num_output: 4096
weight_filler {
type: "gaussian"
std: 0.005
}
bias_filler {
type: "constant"
value: 0.1
}
}
}
layer {
name: "relu7"
type: "ReLU"
bottom: "fc7"
top: "fc7"
}
layer {
name: "drop7"
type: "Dropout"
bottom: "fc7"
top: "fc7"
dropout_param {
dropout_ratio: 0.5
}
}
layer {
name: "fc8_species"
type: "InnerProduct"
bottom: "fc7"
top: "fc8_species"
param {
lr_mult: 1
decay_mult: 1
}
param {
lr_mult: 2
decay_mult: 0
}
inner_product_param {
num_output: 967
weight_filler {
type: "gaussian"
std: 0.005
}
bias_filler {
type: "constant"
value: 0.1
}
}
}
layer {
name: "loss"
type: "SoftmaxWithLoss"
bottom: "fc8_species"
bottom: "label"
top: "loss"
}
layer {
name: "accuracy"
type: "Accuracy"
bottom: "fc8_species"
bottom: "label"
top: "accuracy"
include {
phase: TEST
}
}
I0706 05:52:54.801512 22636 layer_factory.hpp:76] Creating layer data
I0706 05:52:54.801568 22636 net.cpp:109] Creating Layer data
I0706 05:52:54.801573 22636 net.cpp:414] data -> data
I0706 05:52:54.801578 22636 data_transformer.cpp:25] Loading mean file from: /home/ffw/scratch/plantClef/scatnet_output/train/a4_m2_s1s2_f2/lmdb_mean_coeff.binaryproto
I0706 05:52:54.802314 22653 db_lmdb.cpp:36] Opened lmdb /home/ffw/scratch/plantClef/scatnet_output/test/a4_m2_s1s2_f2/lmdb_data
I0706 05:52:54.806179 22636 data_layer.cpp:45] output data size: 64,75,105,105
I0706 05:52:55.037149 22636 net.cpp:153] Setting up data
I0706 05:52:55.037166 22636 net.cpp:160] Top shape: 64 75 105 105 (52920000)
I0706 05:52:55.037169 22636 net.cpp:168] Memory required for data: 211680000
I0706 05:52:55.037173 22636 layer_factory.hpp:76] Creating layer label
I0706 05:52:55.037226 22636 net.cpp:109] Creating Layer label
I0706 05:52:55.037241 22636 net.cpp:414] label -> label
I0706 05:52:55.038722 22655 db_lmdb.cpp:36] Opened lmdb /home/ffw/scratch/plantClef/scatnet_output/test/a4_m2_s1s2_f2/lmdb_labels
I0706 05:52:55.055315 22636 data_layer.cpp:45] output data size: 64,1,1,1
I0706 05:52:55.055408 22636 net.cpp:153] Setting up label
I0706 05:52:55.055423 22636 net.cpp:160] Top shape: 64 1 1 1 (64)
I0706 05:52:55.055424 22636 net.cpp:168] Memory required for data: 211680256
I0706 05:52:55.055428 22636 layer_factory.hpp:76] Creating layer label_label_0_split
I0706 05:52:55.055444 22636 net.cpp:109] Creating Layer label_label_0_split
I0706 05:52:55.055445 22636 net.cpp:457] label_label_0_split <- label
I0706 05:52:55.055449 22636 net.cpp:414] label_label_0_split -> label_label_0_split_0
I0706 05:52:55.055452 22636 net.cpp:414] label_label_0_split -> label_label_0_split_1
I0706 05:52:55.055506 22636 net.cpp:153] Setting up label_label_0_split
I0706 05:52:55.055521 22636 net.cpp:160] Top shape: 64 1 1 1 (64)
I0706 05:52:55.055523 22636 net.cpp:160] Top shape: 64 1 1 1 (64)
I0706 05:52:55.055524 22636 net.cpp:168] Memory required for data: 211680768
I0706 05:52:55.055526 22636 layer_factory.hpp:76] Creating layer pool1
I0706 05:52:55.055531 22636 net.cpp:109] Creating Layer pool1
I0706 05:52:55.055533 22636 net.cpp:457] pool1 <- data
I0706 05:52:55.055536 22636 net.cpp:414] pool1 -> pool1
I0706 05:52:55.055557 22636 net.cpp:153] Setting up pool1
I0706 05:52:55.055560 22636 net.cpp:160] Top shape: 64 75 35 35 (5880000)
I0706 05:52:55.055562 22636 net.cpp:168] Memory required for data: 235200768
I0706 05:52:55.055564 22636 layer_factory.hpp:76] Creating layer conv2
I0706 05:52:55.055569 22636 net.cpp:109] Creating Layer conv2
I0706 05:52:55.055572 22636 net.cpp:457] conv2 <- pool1
I0706 05:52:55.055574 22636 net.cpp:414] conv2 -> conv2
I0706 05:52:55.064795 22636 net.cpp:153] Setting up conv2
I0706 05:52:55.064813 22636 net.cpp:160] Top shape: 64 256 35 35 (20070400)
I0706 05:52:55.064815 22636 net.cpp:168] Memory required for data: 315482368
I0706 05:52:55.064823 22636 layer_factory.hpp:76] Creating layer relu2
I0706 05:52:55.064829 22636 net.cpp:109] Creating Layer relu2
I0706 05:52:55.064832 22636 net.cpp:457] relu2 <- conv2
I0706 05:52:55.064836 22636 net.cpp:400] relu2 -> conv2 (in-place)
I0706 05:52:55.064841 22636 net.cpp:153] Setting up relu2
I0706 05:52:55.064843 22636 net.cpp:160] Top shape: 64 256 35 35 (20070400)
I0706 05:52:55.064844 22636 net.cpp:168] Memory required for data: 395763968
I0706 05:52:55.064846 22636 layer_factory.hpp:76] Creating layer norm2
I0706 05:52:55.064851 22636 net.cpp:109] Creating Layer norm2
I0706 05:52:55.064852 22636 net.cpp:457] norm2 <- conv2
I0706 05:52:55.064856 22636 net.cpp:414] norm2 -> norm2
I0706 05:52:55.064877 22636 net.cpp:153] Setting up norm2
I0706 05:52:55.064879 22636 net.cpp:160] Top shape: 64 256 35 35 (20070400)
I0706 05:52:55.064880 22636 net.cpp:168] Memory required for data: 476045568
I0706 05:52:55.064882 22636 layer_factory.hpp:76] Creating layer pool2
I0706 05:52:55.064887 22636 net.cpp:109] Creating Layer pool2
I0706 05:52:55.064888 22636 net.cpp:457] pool2 <- norm2
I0706 05:52:55.064890 22636 net.cpp:414] pool2 -> pool2
I0706 05:52:55.064908 22636 net.cpp:153] Setting up pool2
I0706 05:52:55.064910 22636 net.cpp:160] Top shape: 64 256 17 17 (4734976)
I0706 05:52:55.064911 22636 net.cpp:168] Memory required for data: 494985472
I0706 05:52:55.064913 22636 layer_factory.hpp:76] Creating layer conv3
I0706 05:52:55.064919 22636 net.cpp:109] Creating Layer conv3
I0706 05:52:55.064921 22636 net.cpp:457] conv3 <- pool2
I0706 05:52:55.064924 22636 net.cpp:414] conv3 -> conv3
I0706 05:52:55.082165 22636 net.cpp:153] Setting up conv3
I0706 05:52:55.082185 22636 net.cpp:160] Top shape: 64 384 17 17 (7102464)
I0706 05:52:55.082187 22636 net.cpp:168] Memory required for data: 523395328
I0706 05:52:55.082195 22636 layer_factory.hpp:76] Creating layer relu3
I0706 05:52:55.082201 22636 net.cpp:109] Creating Layer relu3
I0706 05:52:55.082203 22636 net.cpp:457] relu3 <- conv3
I0706 05:52:55.082207 22636 net.cpp:400] relu3 -> conv3 (in-place)
I0706 05:52:55.082212 22636 net.cpp:153] Setting up relu3
I0706 05:52:55.082216 22636 net.cpp:160] Top shape: 64 384 17 17 (7102464)
I0706 05:52:55.082216 22636 net.cpp:168] Memory required for data: 551805184
I0706 05:52:55.082222 22636 layer_factory.hpp:76] Creating layer conv4
I0706 05:52:55.082228 22636 net.cpp:109] Creating Layer conv4
I0706 05:52:55.082229 22636 net.cpp:457] conv4 <- conv3
I0706 05:52:55.082232 22636 net.cpp:414] conv4 -> conv4
I0706 05:52:55.109937 22636 net.cpp:153] Setting up conv4
I0706 05:52:55.109957 22636 net.cpp:160] Top shape: 64 384 17 17 (7102464)
I0706 05:52:55.109961 22636 net.cpp:168] Memory required for data: 580215040
I0706 05:52:55.109971 22636 layer_factory.hpp:76] Creating layer relu4
I0706 05:52:55.109978 22636 net.cpp:109] Creating Layer relu4
I0706 05:52:55.109982 22636 net.cpp:457] relu4 <- conv4
I0706 05:52:55.109987 22636 net.cpp:400] relu4 -> conv4 (in-place)
I0706 05:52:55.109992 22636 net.cpp:153] Setting up relu4
I0706 05:52:55.109995 22636 net.cpp:160] Top shape: 64 384 17 17 (7102464)
I0706 05:52:55.109998 22636 net.cpp:168] Memory required for data: 608624896
I0706 05:52:55.110000 22636 layer_factory.hpp:76] Creating layer conv5
I0706 05:52:55.110007 22636 net.cpp:109] Creating Layer conv5
I0706 05:52:55.110008 22636 net.cpp:457] conv5 <- conv4
I0706 05:52:55.110013 22636 net.cpp:414] conv5 -> conv5
I0706 05:52:55.127194 22636 net.cpp:153] Setting up conv5
I0706 05:52:55.127214 22636 net.cpp:160] Top shape: 64 256 17 17 (4734976)
I0706 05:52:55.127218 22636 net.cpp:168] Memory required for data: 627564800
I0706 05:52:55.127224 22636 layer_factory.hpp:76] Creating layer relu5
I0706 05:52:55.127230 22636 net.cpp:109] Creating Layer relu5
I0706 05:52:55.127234 22636 net.cpp:457] relu5 <- conv5
I0706 05:52:55.127238 22636 net.cpp:400] relu5 -> conv5 (in-place)
I0706 05:52:55.127244 22636 net.cpp:153] Setting up relu5
I0706 05:52:55.127249 22636 net.cpp:160] Top shape: 64 256 17 17 (4734976)
I0706 05:52:55.127250 22636 net.cpp:168] Memory required for data: 646504704
I0706 05:52:55.127252 22636 layer_factory.hpp:76] Creating layer pool5
I0706 05:52:55.127255 22636 net.cpp:109] Creating Layer pool5
I0706 05:52:55.127257 22636 net.cpp:457] pool5 <- conv5
I0706 05:52:55.127261 22636 net.cpp:414] pool5 -> pool5
I0706 05:52:55.127297 22636 net.cpp:153] Setting up pool5
I0706 05:52:55.127301 22636 net.cpp:160] Top shape: 64 256 8 8 (1048576)
I0706 05:52:55.127303 22636 net.cpp:168] Memory required for data: 650699008
I0706 05:52:55.127305 22636 layer_factory.hpp:76] Creating layer fc6
I0706 05:52:55.127310 22636 net.cpp:109] Creating Layer fc6
I0706 05:52:55.127312 22636 net.cpp:457] fc6 <- pool5
I0706 05:52:55.127315 22636 net.cpp:414] fc6 -> fc6
I0706 05:52:56.394131 22636 net.cpp:153] Setting up fc6
I0706 05:52:56.394150 22636 net.cpp:160] Top shape: 64 4096 (262144)
I0706 05:52:56.394155 22636 net.cpp:168] Memory required for data: 651747584
I0706 05:52:56.394163 22636 layer_factory.hpp:76] Creating layer relu6
I0706 05:52:56.394172 22636 net.cpp:109] Creating Layer relu6
I0706 05:52:56.394176 22636 net.cpp:457] relu6 <- fc6
I0706 05:52:56.394179 22636 net.cpp:400] relu6 -> fc6 (in-place)
I0706 05:52:56.394186 22636 net.cpp:153] Setting up relu6
I0706 05:52:56.394188 22636 net.cpp:160] Top shape: 64 4096 (262144)
I0706 05:52:56.394191 22636 net.cpp:168] Memory required for data: 652796160
I0706 05:52:56.394192 22636 layer_factory.hpp:76] Creating layer drop6
I0706 05:52:56.394196 22636 net.cpp:109] Creating Layer drop6
I0706 05:52:56.394198 22636 net.cpp:457] drop6 <- fc6
I0706 05:52:56.394201 22636 net.cpp:400] drop6 -> fc6 (in-place)
I0706 05:52:56.394217 22636 net.cpp:153] Setting up drop6
I0706 05:52:56.394222 22636 net.cpp:160] Top shape: 64 4096 (262144)
I0706 05:52:56.394222 22636 net.cpp:168] Memory required for data: 653844736
I0706 05:52:56.394224 22636 layer_factory.hpp:76] Creating layer fc7
I0706 05:52:56.394228 22636 net.cpp:109] Creating Layer fc7
I0706 05:52:56.394230 22636 net.cpp:457] fc7 <- fc6
I0706 05:52:56.394233 22636 net.cpp:414] fc7 -> fc7
I0706 05:52:56.699519 22636 net.cpp:153] Setting up fc7
I0706 05:52:56.699538 22636 net.cpp:160] Top shape: 64 4096 (262144)
I0706 05:52:56.699542 22636 net.cpp:168] Memory required for data: 654893312
I0706 05:52:56.699548 22636 layer_factory.hpp:76] Creating layer relu7
I0706 05:52:56.699554 22636 net.cpp:109] Creating Layer relu7
I0706 05:52:56.699558 22636 net.cpp:457] relu7 <- fc7
I0706 05:52:56.699561 22636 net.cpp:400] relu7 -> fc7 (in-place)
I0706 05:52:56.699589 22636 net.cpp:153] Setting up relu7
I0706 05:52:56.699592 22636 net.cpp:160] Top shape: 64 4096 (262144)
I0706 05:52:56.699594 22636 net.cpp:168] Memory required for data: 655941888
I0706 05:52:56.699596 22636 layer_factory.hpp:76] Creating layer drop7
I0706 05:52:56.699600 22636 net.cpp:109] Creating Layer drop7
I0706 05:52:56.699602 22636 net.cpp:457] drop7 <- fc7
I0706 05:52:56.699604 22636 net.cpp:400] drop7 -> fc7 (in-place)
I0706 05:52:56.699622 22636 net.cpp:153] Setting up drop7
I0706 05:52:56.699625 22636 net.cpp:160] Top shape: 64 4096 (262144)
I0706 05:52:56.699627 22636 net.cpp:168] Memory required for data: 656990464
I0706 05:52:56.699628 22636 layer_factory.hpp:76] Creating layer fc8_species
I0706 05:52:56.699633 22636 net.cpp:109] Creating Layer fc8_species
I0706 05:52:56.699635 22636 net.cpp:457] fc8_species <- fc7
I0706 05:52:56.699638 22636 net.cpp:414] fc8_species -> fc8_species
I0706 05:52:56.772506 22636 net.cpp:153] Setting up fc8_species
I0706 05:52:56.772524 22636 net.cpp:160] Top shape: 64 967 (61888)
I0706 05:52:56.772526 22636 net.cpp:168] Memory required for data: 657238016
I0706 05:52:56.772531 22636 layer_factory.hpp:76] Creating layer fc8_species_fc8_species_0_split
I0706 05:52:56.772537 22636 net.cpp:109] Creating Layer fc8_species_fc8_species_0_split
I0706 05:52:56.772541 22636 net.cpp:457] fc8_species_fc8_species_0_split <- fc8_species
I0706 05:52:56.772544 22636 net.cpp:414] fc8_species_fc8_species_0_split -> fc8_species_fc8_species_0_split_0
I0706 05:52:56.772549 22636 net.cpp:414] fc8_species_fc8_species_0_split -> fc8_species_fc8_species_0_split_1
I0706 05:52:56.772570 22636 net.cpp:153] Setting up fc8_species_fc8_species_0_split
I0706 05:52:56.772573 22636 net.cpp:160] Top shape: 64 967 (61888)
I0706 05:52:56.772577 22636 net.cpp:160] Top shape: 64 967 (61888)
I0706 05:52:56.772578 22636 net.cpp:168] Memory required for data: 657733120
I0706 05:52:56.772579 22636 layer_factory.hpp:76] Creating layer loss
I0706 05:52:56.772583 22636 net.cpp:109] Creating Layer loss
I0706 05:52:56.772584 22636 net.cpp:457] loss <- fc8_species_fc8_species_0_split_0
I0706 05:52:56.772588 22636 net.cpp:457] loss <- label_label_0_split_0
I0706 05:52:56.772589 22636 net.cpp:414] loss -> loss
…
