…
I0704 03:19:43.850127 14294 net.cpp:52] Initializing net from parameters:
state {
phase: TRAIN
}
layer {
name: "data"
type: "Data"
top: "data"
include {
phase: TRAIN
}
transform_param {
mean_file: "/home/ffw/scratch/plantClef/scatnet_output/train/a4_m3_s1s2s4_f2/lmdb_mean_coeff.binaryproto"
}
data_param {
source: "/home/ffw/scratch/plantClef/scatnet_output/train/a4_m3_s1s2s4_f2/lmdb_data"
batch_size: 64
backend: LMDB
}
}
layer {
name: "label"
type: "Data"
top: "label"
include {
phase: TRAIN
}
data_param {
source: "/home/ffw/scratch/plantClef/scatnet_output/train/a4_m3_s1s2s4_f2/lmdb_labels"
batch_size: 64
backend: LMDB
}
}
layer {
name: "pool1"
type: "Pooling"
bottom: "data"
top: "pool1"
pooling_param {
pool: MAX
kernel_size: 7
stride: 6
}
}
layer {
name: "fc6"
type: "InnerProduct"
bottom: "pool1"
top: "fc6"
param {
lr_mult: 1
decay_mult: 1
}
param {
lr_mult: 2
decay_mult: 0
}
inner_product_param {
num_output: 4096
weight_filler {
type: "gaussian"
std: 0.005
}
bias_filler {
type: "constant"
value: 0.1
}
}
}
layer {
name: "relu6"
type: "ReLU"
bottom: "fc6"
top: "fc6"
}
layer {
name: "drop6"
type: "Dropout"
bottom: "fc6"
top: "fc6"
dropout_param {
dropout_ratio: 0.5
}
}
layer {
name: "fc7"
type: "InnerProduct"
bottom: "fc6"
top: "fc7"
param {
lr_mult: 1
decay_mult: 1
}
param {
lr_mult: 2
decay_mult: 0
}
inner_product_param {
num_output: 4096
weight_filler {
type: "gaussian"
std: 0.005
}
bias_filler {
type: "constant"
value: 0.1
}
}
}
layer {
name: "relu7"
type: "ReLU"
bottom: "fc7"
top: "fc7"
}
layer {
name: "drop7"
type: "Dropout"
bottom: "fc7"
top: "fc7"
dropout_param {
dropout_ratio: 0.5
}
}
layer {
name: "fc8_species"
type: "InnerProduct"
bottom: "fc7"
top: "fc8_species"
param {
lr_mult: 1
decay_mult: 1
}
param {
lr_mult: 2
decay_mult: 0
}
inner_product_param {
num_output: 967
weight_filler {
type: "gaussian"
std: 0.005
}
bias_filler {
type: "constant"
value: 0.1
}
}
}
layer {
name: "loss"
type: "SoftmaxWithLoss"
bottom: "fc8_species"
bottom: "label"
top: "loss"
}
I0704 03:19:43.850153 14294 layer_factory.hpp:76] Creating layer data
I0704 03:19:43.850221 14294 net.cpp:109] Creating Layer data
I0704 03:19:43.850225 14294 net.cpp:414] data -> data
I0704 03:19:43.850397 14294 data_transformer.cpp:25] Loading mean file from: /home/ffw/scratch/plantClef/scatnet_output/train/a4_m3_s1s2s4_f2/lmdb_mean_coeff.binaryproto
I0704 03:19:43.853675 14306 db_lmdb.cpp:36] Opened lmdb /home/ffw/scratch/plantClef/scatnet_output/train/a4_m3_s1s2s4_f2/lmdb_data
I0704 03:19:43.862042 14294 data_layer.cpp:45] output data size: 64,375,47,47
I0704 03:19:44.084821 14294 net.cpp:153] Setting up data
I0704 03:19:44.084844 14294 net.cpp:160] Top shape: 64 375 47 47 (53016000)
I0704 03:19:44.084847 14294 net.cpp:168] Memory required for data: 212064000
I0704 03:19:44.084851 14294 layer_factory.hpp:76] Creating layer label
I0704 03:19:44.084900 14294 net.cpp:109] Creating Layer label
I0704 03:19:44.084923 14294 net.cpp:414] label -> label
I0704 03:19:44.087105 14308 db_lmdb.cpp:36] Opened lmdb /home/ffw/scratch/plantClef/scatnet_output/train/a4_m3_s1s2s4_f2/lmdb_labels
I0704 03:19:44.103894 14294 data_layer.cpp:45] output data size: 64,1,1,1
I0704 03:19:44.104044 14294 net.cpp:153] Setting up label
I0704 03:19:44.104054 14294 net.cpp:160] Top shape: 64 1 1 1 (64)
I0704 03:19:44.104058 14294 net.cpp:168] Memory required for data: 212064256
I0704 03:19:44.104061 14294 layer_factory.hpp:76] Creating layer pool1
I0704 03:19:44.104071 14294 net.cpp:109] Creating Layer pool1
I0704 03:19:44.104074 14294 net.cpp:457] pool1 <- data
I0704 03:19:44.104084 14294 net.cpp:414] pool1 -> pool1
I0704 03:19:44.104214 14294 net.cpp:153] Setting up pool1
I0704 03:19:44.104225 14294 net.cpp:160] Top shape: 64 375 8 8 (1536000)
I0704 03:19:44.104228 14294 net.cpp:168] Memory required for data: 218208256
I0704 03:19:44.104230 14294 layer_factory.hpp:76] Creating layer fc6
I0704 03:19:44.104241 14294 net.cpp:109] Creating Layer fc6
I0704 03:19:44.104243 14294 net.cpp:457] fc6 <- pool1
I0704 03:19:44.104249 14294 net.cpp:414] fc6 -> fc6
I0704 03:19:46.309542 14294 net.cpp:153] Setting up fc6
I0704 03:19:46.309566 14294 net.cpp:160] Top shape: 64 4096 (262144)
I0704 03:19:46.309569 14294 net.cpp:168] Memory required for data: 219256832
I0704 03:19:46.309584 14294 layer_factory.hpp:76] Creating layer relu6
I0704 03:19:46.309594 14294 net.cpp:109] Creating Layer relu6
I0704 03:19:46.309598 14294 net.cpp:457] relu6 <- fc6
I0704 03:19:46.309603 14294 net.cpp:400] relu6 -> fc6 (in-place)
I0704 03:19:46.309620 14294 net.cpp:153] Setting up relu6
I0704 03:19:46.309625 14294 net.cpp:160] Top shape: 64 4096 (262144)
I0704 03:19:46.309628 14294 net.cpp:168] Memory required for data: 220305408
I0704 03:19:46.309631 14294 layer_factory.hpp:76] Creating layer drop6
I0704 03:19:46.309643 14294 net.cpp:109] Creating Layer drop6
I0704 03:19:46.309646 14294 net.cpp:457] drop6 <- fc6
I0704 03:19:46.309649 14294 net.cpp:400] drop6 -> fc6 (in-place)
I0704 03:19:46.309669 14294 net.cpp:153] Setting up drop6
I0704 03:19:46.309674 14294 net.cpp:160] Top shape: 64 4096 (262144)
I0704 03:19:46.309675 14294 net.cpp:168] Memory required for data: 221353984
I0704 03:19:46.309679 14294 layer_factory.hpp:76] Creating layer fc7
I0704 03:19:46.309684 14294 net.cpp:109] Creating Layer fc7
I0704 03:19:46.309687 14294 net.cpp:457] fc7 <- fc6
I0704 03:19:46.309691 14294 net.cpp:414] fc7 -> fc7
I0704 03:19:46.643148 14294 net.cpp:153] Setting up fc7
I0704 03:19:46.643167 14294 net.cpp:160] Top shape: 64 4096 (262144)
I0704 03:19:46.643170 14294 net.cpp:168] Memory required for data: 222402560
I0704 03:19:46.643178 14294 layer_factory.hpp:76] Creating layer relu7
I0704 03:19:46.643185 14294 net.cpp:109] Creating Layer relu7
I0704 03:19:46.643188 14294 net.cpp:457] relu7 <- fc7
I0704 03:19:46.643193 14294 net.cpp:400] relu7 -> fc7 (in-place)
I0704 03:19:46.643198 14294 net.cpp:153] Setting up relu7
I0704 03:19:46.643201 14294 net.cpp:160] Top shape: 64 4096 (262144)
I0704 03:19:46.643203 14294 net.cpp:168] Memory required for data: 223451136
I0704 03:19:46.643205 14294 layer_factory.hpp:76] Creating layer drop7
I0704 03:19:46.643210 14294 net.cpp:109] Creating Layer drop7
I0704 03:19:46.643213 14294 net.cpp:457] drop7 <- fc7
I0704 03:19:46.643215 14294 net.cpp:400] drop7 -> fc7 (in-place)
I0704 03:19:46.643230 14294 net.cpp:153] Setting up drop7
I0704 03:19:46.643234 14294 net.cpp:160] Top shape: 64 4096 (262144)
I0704 03:19:46.643235 14294 net.cpp:168] Memory required for data: 224499712
I0704 03:19:46.643237 14294 layer_factory.hpp:76] Creating layer fc8_species
I0704 03:19:46.643241 14294 net.cpp:109] Creating Layer fc8_species
I0704 03:19:46.643244 14294 net.cpp:457] fc8_species <- fc7
I0704 03:19:46.643246 14294 net.cpp:414] fc8_species -> fc8_species
I0704 03:19:46.719655 14294 net.cpp:153] Setting up fc8_species
I0704 03:19:46.719672 14294 net.cpp:160] Top shape: 64 967 (61888)
I0704 03:19:46.719676 14294 net.cpp:168] Memory required for data: 224747264
I0704 03:19:46.719699 14294 layer_factory.hpp:76] Creating layer loss
I0704 03:19:46.719707 14294 net.cpp:109] Creating Layer loss
I0704 03:19:46.719709 14294 net.cpp:457] loss <- fc8_species
I0704 03:19:46.719713 14294 net.cpp:457] loss <- label
I0704 03:19:46.719717 14294 net.cpp:414] loss -> loss
I0704 03:19:46.719723 14294 layer_factory.hpp:76] Creating layer loss
…
I0704 03:19:46.720579 14294 net.cpp:52] Initializing net from parameters:
state {
phase: TEST
}
layer {
name: "data"
type: "Data"
top: "data"
include {
phase: TEST
}
transform_param {
mean_file: "/home/ffw/scratch/plantClef/scatnet_output/train/a4_m3_s1s2s4_f2/lmdb_mean_coeff.binaryproto"
}
data_param {
source: "/home/ffw/scratch/plantClef/scatnet_output/test/a4_m3_s1s2s4_f2/lmdb_data"
batch_size: 64
backend: LMDB
}
}
layer {
name: "label"
type: "Data"
top: "label"
include {
phase: TEST
}
data_param {
source: "/home/ffw/scratch/plantClef/scatnet_output/test/a4_m3_s1s2s4_f2/lmdb_labels"
batch_size: 64
backend: LMDB
}
}
layer {
name: "pool1"
type: "Pooling"
bottom: "data"
top: "pool1"
pooling_param {
pool: MAX
kernel_size: 7
stride: 6
}
}
layer {
name: "fc6"
type: "InnerProduct"
bottom: "pool1"
top: "fc6"
param {
lr_mult: 1
decay_mult: 1
}
param {
lr_mult: 2
decay_mult: 0
}
inner_product_param {
num_output: 4096
weight_filler {
type: "gaussian"
std: 0.005
}
bias_filler {
type: "constant"
value: 0.1
}
}
}
layer {
name: "relu6"
type: "ReLU"
bottom: "fc6"
top: "fc6"
}
layer {
name: "drop6"
type: "Dropout"
bottom: "fc6"
top: "fc6"
dropout_param {
dropout_ratio: 0.5
}
}
layer {
name: "fc7"
type: "InnerProduct"
bottom: "fc6"
top: "fc7"
param {
lr_mult: 1
decay_mult: 1
}
param {
lr_mult: 2
decay_mult: 0
}
inner_product_param {
num_output: 4096
weight_filler {
type: "gaussian"
std: 0.005
}
bias_filler {
type: "constant"
value: 0.1
}
}
}
layer {
name: "relu7"
type: "ReLU"
bottom: "fc7"
top: "fc7"
}
layer {
name: "drop7"
type: "Dropout"
bottom: "fc7"
top: "fc7"
dropout_param {
dropout_ratio: 0.5
}
}
layer {
name: "fc8_species"
type: "InnerProduct"
bottom: "fc7"
top: "fc8_species"
param {
lr_mult: 1
decay_mult: 1
}
param {
lr_mult: 2
decay_mult: 0
}
inner_product_param {
num_output: 967
weight_filler {
type: "gaussian"
std: 0.005
}
bias_filler {
type: "constant"
value: 0.1
}
}
}
layer {
name: "loss"
type: "SoftmaxWithLoss"
bottom: "fc8_species"
bottom: "label"
top: "loss"
}
layer {
name: "accuracy"
type: "Accuracy"
bottom: "fc8_species"
bottom: "label"
top: "accuracy"
include {
phase: TEST
}
}
I0704 03:19:46.720625 14294 layer_factory.hpp:76] Creating layer data
I0704 03:19:46.720685 14294 net.cpp:109] Creating Layer data
I0704 03:19:46.720688 14294 net.cpp:414] data -> data
I0704 03:19:46.720695 14294 data_transformer.cpp:25] Loading mean file from: /home/ffw/scratch/plantClef/scatnet_output/train/a4_m3_s1s2s4_f2/lmdb_mean_coeff.binaryproto
I0704 03:19:46.722940 14311 db_lmdb.cpp:36] Opened lmdb /home/ffw/scratch/plantClef/scatnet_output/test/a4_m3_s1s2s4_f2/lmdb_data
I0704 03:19:46.727550 14294 data_layer.cpp:45] output data size: 64,375,47,47
I0704 03:19:46.950640 14294 net.cpp:153] Setting up data
I0704 03:19:46.950659 14294 net.cpp:160] Top shape: 64 375 47 47 (53016000)
I0704 03:19:46.950661 14294 net.cpp:168] Memory required for data: 212064000
I0704 03:19:46.950665 14294 layer_factory.hpp:76] Creating layer label
I0704 03:19:46.950798 14294 net.cpp:109] Creating Layer label
I0704 03:19:46.950801 14294 net.cpp:414] label -> label
I0704 03:19:46.955205 14313 db_lmdb.cpp:36] Opened lmdb /home/ffw/scratch/plantClef/scatnet_output/test/a4_m3_s1s2s4_f2/lmdb_labels
I0704 03:19:46.968683 14294 data_layer.cpp:45] output data size: 64,1,1,1
I0704 03:19:46.968771 14294 net.cpp:153] Setting up label
I0704 03:19:46.968778 14294 net.cpp:160] Top shape: 64 1 1 1 (64)
I0704 03:19:46.968780 14294 net.cpp:168] Memory required for data: 212064256
I0704 03:19:46.968782 14294 layer_factory.hpp:76] Creating layer label_label_0_split
I0704 03:19:46.971957 14294 net.cpp:109] Creating Layer label_label_0_split
I0704 03:19:46.971969 14294 net.cpp:457] label_label_0_split <- label
I0704 03:19:46.971974 14294 net.cpp:414] label_label_0_split -> label_label_0_split_0
I0704 03:19:46.971979 14294 net.cpp:414] label_label_0_split -> label_label_0_split_1
I0704 03:19:46.972024 14294 net.cpp:153] Setting up label_label_0_split
I0704 03:19:46.972029 14294 net.cpp:160] Top shape: 64 1 1 1 (64)
I0704 03:19:46.972033 14294 net.cpp:160] Top shape: 64 1 1 1 (64)
I0704 03:19:46.972034 14294 net.cpp:168] Memory required for data: 212064768
I0704 03:19:46.972036 14294 layer_factory.hpp:76] Creating layer pool1
I0704 03:19:46.972041 14294 net.cpp:109] Creating Layer pool1
I0704 03:19:46.972043 14294 net.cpp:457] pool1 <- data
I0704 03:19:46.972046 14294 net.cpp:414] pool1 -> pool1
I0704 03:19:46.972064 14294 net.cpp:153] Setting up pool1
I0704 03:19:46.972067 14294 net.cpp:160] Top shape: 64 375 8 8 (1536000)
I0704 03:19:46.972069 14294 net.cpp:168] Memory required for data: 218208768
I0704 03:19:46.972071 14294 layer_factory.hpp:76] Creating layer fc6
I0704 03:19:46.972077 14294 net.cpp:109] Creating Layer fc6
I0704 03:19:46.972079 14294 net.cpp:457] fc6 <- pool1
I0704 03:19:46.972082 14294 net.cpp:414] fc6 -> fc6
I0704 03:19:48.829540 14294 net.cpp:153] Setting up fc6
I0704 03:19:48.829562 14294 net.cpp:160] Top shape: 64 4096 (262144)
I0704 03:19:48.829566 14294 net.cpp:168] Memory required for data: 219257344
I0704 03:19:48.829576 14294 layer_factory.hpp:76] Creating layer relu6
I0704 03:19:48.829584 14294 net.cpp:109] Creating Layer relu6
I0704 03:19:48.829588 14294 net.cpp:457] relu6 <- fc6
I0704 03:19:48.829593 14294 net.cpp:400] relu6 -> fc6 (in-place)
I0704 03:19:48.829602 14294 net.cpp:153] Setting up relu6
I0704 03:19:48.829605 14294 net.cpp:160] Top shape: 64 4096 (262144)
I0704 03:19:48.829608 14294 net.cpp:168] Memory required for data: 220305920
I0704 03:19:48.829610 14294 layer_factory.hpp:76] Creating layer drop6
I0704 03:19:48.829617 14294 net.cpp:109] Creating Layer drop6
I0704 03:19:48.829619 14294 net.cpp:457] drop6 <- fc6
I0704 03:19:48.829622 14294 net.cpp:400] drop6 -> fc6 (in-place)
I0704 03:19:48.829663 14294 net.cpp:153] Setting up drop6
I0704 03:19:48.829668 14294 net.cpp:160] Top shape: 64 4096 (262144)
I0704 03:19:48.829670 14294 net.cpp:168] Memory required for data: 221354496
I0704 03:19:48.829674 14294 layer_factory.hpp:76] Creating layer fc7
I0704 03:19:48.829680 14294 net.cpp:109] Creating Layer fc7
I0704 03:19:48.829684 14294 net.cpp:457] fc7 <- fc6
I0704 03:19:48.829687 14294 net.cpp:414] fc7 -> fc7
I0704 03:19:49.144707 14294 net.cpp:153] Setting up fc7
I0704 03:19:49.144726 14294 net.cpp:160] Top shape: 64 4096 (262144)
I0704 03:19:49.144728 14294 net.cpp:168] Memory required for data: 222403072
I0704 03:19:49.144737 14294 layer_factory.hpp:76] Creating layer relu7
I0704 03:19:49.144745 14294 net.cpp:109] Creating Layer relu7
I0704 03:19:49.144748 14294 net.cpp:457] relu7 <- fc7
I0704 03:19:49.144752 14294 net.cpp:400] relu7 -> fc7 (in-place)
I0704 03:19:49.144759 14294 net.cpp:153] Setting up relu7
I0704 03:19:49.144762 14294 net.cpp:160] Top shape: 64 4096 (262144)
I0704 03:19:49.144763 14294 net.cpp:168] Memory required for data: 223451648
I0704 03:19:49.144765 14294 layer_factory.hpp:76] Creating layer drop7
I0704 03:19:49.144769 14294 net.cpp:109] Creating Layer drop7
I0704 03:19:49.144772 14294 net.cpp:457] drop7 <- fc7
I0704 03:19:49.144774 14294 net.cpp:400] drop7 -> fc7 (in-place)
I0704 03:19:49.144791 14294 net.cpp:153] Setting up drop7
I0704 03:19:49.144794 14294 net.cpp:160] Top shape: 64 4096 (262144)
I0704 03:19:49.144795 14294 net.cpp:168] Memory required for data: 224500224
I0704 03:19:49.144798 14294 layer_factory.hpp:76] Creating layer fc8_species
I0704 03:19:49.144803 14294 net.cpp:109] Creating Layer fc8_species
I0704 03:19:49.144804 14294 net.cpp:457] fc8_species <- fc7
I0704 03:19:49.144809 14294 net.cpp:414] fc8_species -> fc8_species
I0704 03:19:49.245919 14294 net.cpp:153] Setting up fc8_species
I0704 03:19:49.245939 14294 net.cpp:160] Top shape: 64 967 (61888)
I0704 03:19:49.245942 14294 net.cpp:168] Memory required for data: 224747776
I0704 03:19:49.245950 14294 layer_factory.hpp:76] Creating layer fc8_species_fc8_species_0_split
I0704 03:19:49.245957 14294 net.cpp:109] Creating Layer fc8_species_fc8_species_0_split
I0704 03:19:49.245960 14294 net.cpp:457] fc8_species_fc8_species_0_split <- fc8_species
I0704 03:19:49.245965 14294 net.cpp:414] fc8_species_fc8_species_0_split -> fc8_species_fc8_species_0_split_0
I0704 03:19:49.245971 14294 net.cpp:414] fc8_species_fc8_species_0_split -> fc8_species_fc8_species_0_split_1
I0704 03:19:49.245995 14294 net.cpp:153] Setting up fc8_species_fc8_species_0_split
I0704 03:19:49.246000 14294 net.cpp:160] Top shape: 64 967 (61888)
I0704 03:19:49.246001 14294 net.cpp:160] Top shape: 64 967 (61888)
I0704 03:19:49.246003 14294 net.cpp:168] Memory required for data: 225242880
I0704 03:19:49.246006 14294 layer_factory.hpp:76] Creating layer loss
I0704 03:19:49.246008 14294 net.cpp:109] Creating Layer loss
I0704 03:19:49.246011 14294 net.cpp:457] loss <- fc8_species_fc8_species_0_split_0
I0704 03:19:49.246013 14294 net.cpp:457] loss <- label_label_0_split_0
I0704 03:19:49.246016 14294 net.cpp:414] loss -> loss
…
