…
I0703 21:20:06.982910  7490 net.cpp:52] Initializing net from parameters:
state {
phase: TRAIN
}
layer {
name: "data"
type: "Data"
top: "data"
include {
phase: TRAIN
}
transform_param {
mean_file: "/home/ffw/scratch/plantClef/scatnet_output/train/a4_m2_s1s2_f2/lmdb_mean_coeff.binaryproto"
}
data_param {
source: "/home/ffw/scratch/plantClef/scatnet_output/train/a4_m2_s1s2_f2/lmdb_data"
batch_size: 32
backend: LMDB
}
}
layer {
name: "label"
type: "Data"
top: "label"
include {
phase: TRAIN
}
data_param {
source: "/home/ffw/scratch/plantClef/scatnet_output/train/a4_m2_s1s2_f2/lmdb_labels"
batch_size: 32
backend: LMDB
}
}
layer {
name: "pool1"
type: "Pooling"
bottom: "data"
top: "pool1"
pooling_param {
pool: MAX
kernel_size: 6
stride: 5
}
}
layer {
name: "conv5"
type: "Convolution"
bottom: "pool1"
top: "conv5"
param {
lr_mult: 1
decay_mult: 1
}
param {
lr_mult: 2
decay_mult: 0
}
convolution_param {
num_output: 256
pad: 1
kernel_size: 3
group: 1
weight_filler {
type: "gaussian"
std: 0.01
}
bias_filler {
type: "constant"
value: 0.1
}
}
}
layer {
name: "relu5"
type: "ReLU"
bottom: "conv5"
top: "conv5"
}
layer {
name: "pool5"
type: "Pooling"
bottom: "conv5"
top: "pool5"
pooling_param {
pool: MAX
kernel_size: 3
stride: 2
}
}
layer {
name: "fc6"
type: "InnerProduct"
bottom: "pool5"
top: "fc6"
param {
lr_mult: 1
decay_mult: 1
}
param {
lr_mult: 2
decay_mult: 0
}
inner_product_param {
num_output: 4096
weight_filler {
type: "gaussian"
std: 0.005
}
bias_filler {
type: "constant"
value: 0.1
}
}
}
layer {
name: "relu6"
type: "ReLU"
bottom: "fc6"
top: "fc6"
}
layer {
name: "drop6"
type: "Dropout"
bottom: "fc6"
top: "fc6"
dropout_param {
dropout_ratio: 0.5
}
}
layer {
name: "fc7"
type: "InnerProduct"
bottom: "fc6"
top: "fc7"
param {
lr_mult: 1
decay_mult: 1
}
param {
lr_mult: 2
decay_mult: 0
}
inner_product_param {
num_output: 4096
weight_filler {
type: "gaussian"
std: 0.005
}
bias_filler {
type: "constant"
value: 0.1
}
}
}
layer {
name: "relu7"
type: "ReLU"
bottom: "fc7"
top: "fc7"
}
layer {
name: "drop7"
type: "Dropout"
bottom: "fc7"
top: "fc7"
dropout_param {
dropout_ratio: 0.5
}
}
layer {
name: "fc8_species"
type: "InnerProduct"
bottom: "fc7"
top: "fc8_species"
param {
lr_mult: 1
decay_mult: 1
}
param {
lr_mult: 2
decay_mult: 0
}
inner_product_param {
num_output: 967
weight_filler {
type: "gaussian"
std: 0.005
}
bias_filler {
type: "constant"
value: 0.1
}
}
}
layer {
name: "loss"
type: "SoftmaxWithLoss"
bottom: "fc8_species"
bottom: "label"
top: "loss"
}
I0703 21:20:06.982952  7490 layer_factory.hpp:76] Creating layer data
I0703 21:20:06.983011  7490 net.cpp:109] Creating Layer data
I0703 21:20:06.983016  7490 net.cpp:414] data -> data
I0703 21:20:06.983027  7490 data_transformer.cpp:25] Loading mean file from: /home/ffw/scratch/plantClef/scatnet_output/train/a4_m2_s1s2_f2/lmdb_mean_coeff.binaryproto
I0703 21:20:06.985775  7502 db_lmdb.cpp:36] Opened lmdb /home/ffw/scratch/plantClef/scatnet_output/train/a4_m2_s1s2_f2/lmdb_data
I0703 21:20:06.992625  7490 data_layer.cpp:45] output data size: 32,75,105,105
I0703 21:20:07.105271  7490 net.cpp:153] Setting up data
I0703 21:20:07.105296  7490 net.cpp:160] Top shape: 32 75 105 105 (26460000)
I0703 21:20:07.105299  7490 net.cpp:168] Memory required for data: 105840000
I0703 21:20:07.105304  7490 layer_factory.hpp:76] Creating layer label
I0703 21:20:07.105340  7490 net.cpp:109] Creating Layer label
I0703 21:20:07.105345  7490 net.cpp:414] label -> label
I0703 21:20:07.106575  7504 db_lmdb.cpp:36] Opened lmdb /home/ffw/scratch/plantClef/scatnet_output/train/a4_m2_s1s2_f2/lmdb_labels
I0703 21:20:07.114859  7490 data_layer.cpp:45] output data size: 32,1,1,1
I0703 21:20:07.114948  7490 net.cpp:153] Setting up label
I0703 21:20:07.114954  7490 net.cpp:160] Top shape: 32 1 1 1 (32)
I0703 21:20:07.114958  7490 net.cpp:168] Memory required for data: 105840128
I0703 21:20:07.114959  7490 layer_factory.hpp:76] Creating layer pool1
I0703 21:20:07.114964  7490 net.cpp:109] Creating Layer pool1
I0703 21:20:07.114966  7490 net.cpp:457] pool1 <- data
I0703 21:20:07.114974  7490 net.cpp:414] pool1 -> pool1
I0703 21:20:07.115011  7490 net.cpp:153] Setting up pool1
I0703 21:20:07.115015  7490 net.cpp:160] Top shape: 32 75 21 21 (1058400)
I0703 21:20:07.115016  7490 net.cpp:168] Memory required for data: 110073728
I0703 21:20:07.115018  7490 layer_factory.hpp:76] Creating layer conv5
I0703 21:20:07.115023  7490 net.cpp:109] Creating Layer conv5
I0703 21:20:07.115025  7490 net.cpp:457] conv5 <- pool1
I0703 21:20:07.115028  7490 net.cpp:414] conv5 -> conv5
I0703 21:20:07.118844  7490 net.cpp:153] Setting up conv5
I0703 21:20:07.118863  7490 net.cpp:160] Top shape: 32 256 21 21 (3612672)
I0703 21:20:07.118865  7490 net.cpp:168] Memory required for data: 124524416
I0703 21:20:07.118875  7490 layer_factory.hpp:76] Creating layer relu5
I0703 21:20:07.118882  7490 net.cpp:109] Creating Layer relu5
I0703 21:20:07.118885  7490 net.cpp:457] relu5 <- conv5
I0703 21:20:07.118888  7490 net.cpp:400] relu5 -> conv5 (in-place)
I0703 21:20:07.118896  7490 net.cpp:153] Setting up relu5
I0703 21:20:07.118899  7490 net.cpp:160] Top shape: 32 256 21 21 (3612672)
I0703 21:20:07.118901  7490 net.cpp:168] Memory required for data: 138975104
I0703 21:20:07.118902  7490 layer_factory.hpp:76] Creating layer pool5
I0703 21:20:07.118906  7490 net.cpp:109] Creating Layer pool5
I0703 21:20:07.118908  7490 net.cpp:457] pool5 <- conv5
I0703 21:20:07.118911  7490 net.cpp:414] pool5 -> pool5
I0703 21:20:07.118933  7490 net.cpp:153] Setting up pool5
I0703 21:20:07.118937  7490 net.cpp:160] Top shape: 32 256 10 10 (819200)
I0703 21:20:07.118938  7490 net.cpp:168] Memory required for data: 142251904
I0703 21:20:07.118940  7490 layer_factory.hpp:76] Creating layer fc6
I0703 21:20:07.118945  7490 net.cpp:109] Creating Layer fc6
I0703 21:20:07.118947  7490 net.cpp:457] fc6 <- pool5
I0703 21:20:07.118949  7490 net.cpp:414] fc6 -> fc6
I0703 21:20:09.151401  7490 net.cpp:153] Setting up fc6
I0703 21:20:09.151418  7490 net.cpp:160] Top shape: 32 4096 (131072)
I0703 21:20:09.151422  7490 net.cpp:168] Memory required for data: 142776192
I0703 21:20:09.151429  7490 layer_factory.hpp:76] Creating layer relu6
I0703 21:20:09.151435  7490 net.cpp:109] Creating Layer relu6
I0703 21:20:09.151438  7490 net.cpp:457] relu6 <- fc6
I0703 21:20:09.151443  7490 net.cpp:400] relu6 -> fc6 (in-place)
I0703 21:20:09.151448  7490 net.cpp:153] Setting up relu6
I0703 21:20:09.151451  7490 net.cpp:160] Top shape: 32 4096 (131072)
I0703 21:20:09.151453  7490 net.cpp:168] Memory required for data: 143300480
I0703 21:20:09.151454  7490 layer_factory.hpp:76] Creating layer drop6
I0703 21:20:09.151464  7490 net.cpp:109] Creating Layer drop6
I0703 21:20:09.151466  7490 net.cpp:457] drop6 <- fc6
I0703 21:20:09.151469  7490 net.cpp:400] drop6 -> fc6 (in-place)
I0703 21:20:09.151485  7490 net.cpp:153] Setting up drop6
I0703 21:20:09.151504  7490 net.cpp:160] Top shape: 32 4096 (131072)
I0703 21:20:09.151506  7490 net.cpp:168] Memory required for data: 143824768
I0703 21:20:09.151509  7490 layer_factory.hpp:76] Creating layer fc7
I0703 21:20:09.151512  7490 net.cpp:109] Creating Layer fc7
I0703 21:20:09.151515  7490 net.cpp:457] fc7 <- fc6
I0703 21:20:09.151517  7490 net.cpp:414] fc7 -> fc7
I0703 21:20:09.454453  7490 net.cpp:153] Setting up fc7
I0703 21:20:09.454470  7490 net.cpp:160] Top shape: 32 4096 (131072)
I0703 21:20:09.454473  7490 net.cpp:168] Memory required for data: 144349056
I0703 21:20:09.454480  7490 layer_factory.hpp:76] Creating layer relu7
I0703 21:20:09.454486  7490 net.cpp:109] Creating Layer relu7
I0703 21:20:09.454489  7490 net.cpp:457] relu7 <- fc7
I0703 21:20:09.454493  7490 net.cpp:400] relu7 -> fc7 (in-place)
I0703 21:20:09.454499  7490 net.cpp:153] Setting up relu7
I0703 21:20:09.454501  7490 net.cpp:160] Top shape: 32 4096 (131072)
I0703 21:20:09.454504  7490 net.cpp:168] Memory required for data: 144873344
I0703 21:20:09.454505  7490 layer_factory.hpp:76] Creating layer drop7
I0703 21:20:09.454509  7490 net.cpp:109] Creating Layer drop7
I0703 21:20:09.454510  7490 net.cpp:457] drop7 <- fc7
I0703 21:20:09.454514  7490 net.cpp:400] drop7 -> fc7 (in-place)
I0703 21:20:09.454527  7490 net.cpp:153] Setting up drop7
I0703 21:20:09.454530  7490 net.cpp:160] Top shape: 32 4096 (131072)
I0703 21:20:09.454531  7490 net.cpp:168] Memory required for data: 145397632
I0703 21:20:09.454533  7490 layer_factory.hpp:76] Creating layer fc8_species
I0703 21:20:09.454537  7490 net.cpp:109] Creating Layer fc8_species
I0703 21:20:09.454540  7490 net.cpp:457] fc8_species <- fc7
I0703 21:20:09.454542  7490 net.cpp:414] fc8_species -> fc8_species
I0703 21:20:09.526734  7490 net.cpp:153] Setting up fc8_species
I0703 21:20:09.526751  7490 net.cpp:160] Top shape: 32 967 (30944)
I0703 21:20:09.526752  7490 net.cpp:168] Memory required for data: 145521408
I0703 21:20:09.526758  7490 layer_factory.hpp:76] Creating layer loss
I0703 21:20:09.526763  7490 net.cpp:109] Creating Layer loss
I0703 21:20:09.526767  7490 net.cpp:457] loss <- fc8_species
I0703 21:20:09.526769  7490 net.cpp:457] loss <- label
I0703 21:20:09.526772  7490 net.cpp:414] loss -> loss
I0703 21:20:09.526780  7490 layer_factory.hpp:76] Creating layer loss
…
I0703 21:20:09.527639  7490 net.cpp:52] Initializing net from parameters:
state {
phase: TEST
}
layer {
name: "data"
type: "Data"
top: "data"
include {
phase: TEST
}
transform_param {
mean_file: "/home/ffw/scratch/plantClef/scatnet_output/train/a4_m2_s1s2_f2/lmdb_mean_coeff.binaryproto"
}
data_param {
source: "/home/ffw/scratch/plantClef/scatnet_output/test/a4_m2_s1s2_f2/lmdb_data"
batch_size: 32
backend: LMDB
}
}
layer {
name: "label"
type: "Data"
top: "label"
include {
phase: TEST
}
data_param {
source: "/home/ffw/scratch/plantClef/scatnet_output/test/a4_m2_s1s2_f2/lmdb_labels"
batch_size: 32
backend: LMDB
}
}
layer {
name: "pool1"
type: "Pooling"
bottom: "data"
top: "pool1"
pooling_param {
pool: MAX
kernel_size: 6
stride: 5
}
}
layer {
name: "conv5"
type: "Convolution"
bottom: "pool1"
top: "conv5"
param {
lr_mult: 1
decay_mult: 1
}
param {
lr_mult: 2
decay_mult: 0
}
convolution_param {
num_output: 256
pad: 1
kernel_size: 3
group: 1
weight_filler {
type: "gaussian"
std: 0.01
}
bias_filler {
type: "constant"
value: 0.1
}
}
}
layer {
name: "relu5"
type: "ReLU"
bottom: "conv5"
top: "conv5"
}
layer {
name: "pool5"
type: "Pooling"
bottom: "conv5"
top: "pool5"
pooling_param {
pool: MAX
kernel_size: 3
stride: 2
}
}
layer {
name: "fc6"
type: "InnerProduct"
bottom: "pool5"
top: "fc6"
param {
lr_mult: 1
decay_mult: 1
}
param {
lr_mult: 2
decay_mult: 0
}
inner_product_param {
num_output: 4096
weight_filler {
type: "gaussian"
std: 0.005
}
bias_filler {
type: "constant"
value: 0.1
}
}
}
layer {
name: "relu6"
type: "ReLU"
bottom: "fc6"
top: "fc6"
}
layer {
name: "drop6"
type: "Dropout"
bottom: "fc6"
top: "fc6"
dropout_param {
dropout_ratio: 0.5
}
}
layer {
name: "fc7"
type: "InnerProduct"
bottom: "fc6"
top: "fc7"
param {
lr_mult: 1
decay_mult: 1
}
param {
lr_mult: 2
decay_mult: 0
}
inner_product_param {
num_output: 4096
weight_filler {
type: "gaussian"
std: 0.005
}
bias_filler {
type: "constant"
value: 0.1
}
}
}
layer {
name: "relu7"
type: "ReLU"
bottom: "fc7"
top: "fc7"
}
layer {
name: "drop7"
type: "Dropout"
bottom: "fc7"
top: "fc7"
dropout_param {
dropout_ratio: 0.5
}
}
layer {
name: "fc8_species"
type: "InnerProduct"
bottom: "fc7"
top: "fc8_species"
param {
lr_mult: 1
decay_mult: 1
}
param {
lr_mult: 2
decay_mult: 0
}
inner_product_param {
num_output: 967
weight_filler {
type: "gaussian"
std: 0.005
}
bias_filler {
type: "constant"
value: 0.1
}
}
}
layer {
name: "loss"
type: "SoftmaxWithLoss"
bottom: "fc8_species"
bottom: "label"
top: "loss"
}
layer {
name: "accuracy"
type: "Accuracy"
bottom: "fc8_species"
bottom: "label"
top: "accuracy"
include {
phase: TEST
}
}
I0703 21:20:09.527679  7490 layer_factory.hpp:76] Creating layer data
I0703 21:20:09.527727  7490 net.cpp:109] Creating Layer data
I0703 21:20:09.527741  7490 net.cpp:414] data -> data
I0703 21:20:09.527746  7490 data_transformer.cpp:25] Loading mean file from: /home/ffw/scratch/plantClef/scatnet_output/train/a4_m2_s1s2_f2/lmdb_mean_coeff.binaryproto
I0703 21:20:09.528476  7507 db_lmdb.cpp:36] Opened lmdb /home/ffw/scratch/plantClef/scatnet_output/test/a4_m2_s1s2_f2/lmdb_data
I0703 21:20:09.532335  7490 data_layer.cpp:45] output data size: 32,75,105,105
I0703 21:20:09.644508  7490 net.cpp:153] Setting up data
I0703 21:20:09.644525  7490 net.cpp:160] Top shape: 32 75 105 105 (26460000)
I0703 21:20:09.644527  7490 net.cpp:168] Memory required for data: 105840000
I0703 21:20:09.644531  7490 layer_factory.hpp:76] Creating layer label
I0703 21:20:09.644609  7490 net.cpp:109] Creating Layer label
I0703 21:20:09.644623  7490 net.cpp:414] label -> label
I0703 21:20:09.646114  7509 db_lmdb.cpp:36] Opened lmdb /home/ffw/scratch/plantClef/scatnet_output/test/a4_m2_s1s2_f2/lmdb_labels
I0703 21:20:09.654394  7490 data_layer.cpp:45] output data size: 32,1,1,1
I0703 21:20:09.654487  7490 net.cpp:153] Setting up label
I0703 21:20:09.654494  7490 net.cpp:160] Top shape: 32 1 1 1 (32)
I0703 21:20:09.654495  7490 net.cpp:168] Memory required for data: 105840128
I0703 21:20:09.654497  7490 layer_factory.hpp:76] Creating layer label_label_0_split
I0703 21:20:09.654501  7490 net.cpp:109] Creating Layer label_label_0_split
I0703 21:20:09.654503  7490 net.cpp:457] label_label_0_split <- label
I0703 21:20:09.654507  7490 net.cpp:414] label_label_0_split -> label_label_0_split_0
I0703 21:20:09.654511  7490 net.cpp:414] label_label_0_split -> label_label_0_split_1
I0703 21:20:09.654603  7490 net.cpp:153] Setting up label_label_0_split
I0703 21:20:09.654611  7490 net.cpp:160] Top shape: 32 1 1 1 (32)
I0703 21:20:09.654613  7490 net.cpp:160] Top shape: 32 1 1 1 (32)
I0703 21:20:09.654615  7490 net.cpp:168] Memory required for data: 105840384
I0703 21:20:09.654618  7490 layer_factory.hpp:76] Creating layer pool1
I0703 21:20:09.654623  7490 net.cpp:109] Creating Layer pool1
I0703 21:20:09.654624  7490 net.cpp:457] pool1 <- data
I0703 21:20:09.654628  7490 net.cpp:414] pool1 -> pool1
I0703 21:20:09.654650  7490 net.cpp:153] Setting up pool1
I0703 21:20:09.654654  7490 net.cpp:160] Top shape: 32 75 21 21 (1058400)
I0703 21:20:09.654655  7490 net.cpp:168] Memory required for data: 110073984
I0703 21:20:09.654656  7490 layer_factory.hpp:76] Creating layer conv5
I0703 21:20:09.654662  7490 net.cpp:109] Creating Layer conv5
I0703 21:20:09.654664  7490 net.cpp:457] conv5 <- pool1
I0703 21:20:09.654667  7490 net.cpp:414] conv5 -> conv5
I0703 21:20:09.658138  7490 net.cpp:153] Setting up conv5
I0703 21:20:09.658154  7490 net.cpp:160] Top shape: 32 256 21 21 (3612672)
I0703 21:20:09.658155  7490 net.cpp:168] Memory required for data: 124524672
I0703 21:20:09.658162  7490 layer_factory.hpp:76] Creating layer relu5
I0703 21:20:09.658169  7490 net.cpp:109] Creating Layer relu5
I0703 21:20:09.658170  7490 net.cpp:457] relu5 <- conv5
I0703 21:20:09.658174  7490 net.cpp:400] relu5 -> conv5 (in-place)
I0703 21:20:09.658179  7490 net.cpp:153] Setting up relu5
I0703 21:20:09.658181  7490 net.cpp:160] Top shape: 32 256 21 21 (3612672)
I0703 21:20:09.658184  7490 net.cpp:168] Memory required for data: 138975360
I0703 21:20:09.658185  7490 layer_factory.hpp:76] Creating layer pool5
I0703 21:20:09.658188  7490 net.cpp:109] Creating Layer pool5
I0703 21:20:09.658190  7490 net.cpp:457] pool5 <- conv5
I0703 21:20:09.658193  7490 net.cpp:414] pool5 -> pool5
I0703 21:20:09.658212  7490 net.cpp:153] Setting up pool5
I0703 21:20:09.658215  7490 net.cpp:160] Top shape: 32 256 10 10 (819200)
I0703 21:20:09.658217  7490 net.cpp:168] Memory required for data: 142252160
I0703 21:20:09.658220  7490 layer_factory.hpp:76] Creating layer fc6
I0703 21:20:09.658223  7490 net.cpp:109] Creating Layer fc6
I0703 21:20:09.658226  7490 net.cpp:457] fc6 <- pool5
I0703 21:20:09.658228  7490 net.cpp:414] fc6 -> fc6
I0703 21:20:11.576767  7490 net.cpp:153] Setting up fc6
I0703 21:20:11.576786  7490 net.cpp:160] Top shape: 32 4096 (131072)
I0703 21:20:11.576789  7490 net.cpp:168] Memory required for data: 142776448
I0703 21:20:11.576797  7490 layer_factory.hpp:76] Creating layer relu6
I0703 21:20:11.576804  7490 net.cpp:109] Creating Layer relu6
I0703 21:20:11.576807  7490 net.cpp:457] relu6 <- fc6
I0703 21:20:11.576810  7490 net.cpp:400] relu6 -> fc6 (in-place)
I0703 21:20:11.576817  7490 net.cpp:153] Setting up relu6
I0703 21:20:11.576819  7490 net.cpp:160] Top shape: 32 4096 (131072)
I0703 21:20:11.576822  7490 net.cpp:168] Memory required for data: 143300736
I0703 21:20:11.576822  7490 layer_factory.hpp:76] Creating layer drop6
I0703 21:20:11.576827  7490 net.cpp:109] Creating Layer drop6
I0703 21:20:11.576828  7490 net.cpp:457] drop6 <- fc6
I0703 21:20:11.576853  7490 net.cpp:400] drop6 -> fc6 (in-place)
I0703 21:20:11.576869  7490 net.cpp:153] Setting up drop6
I0703 21:20:11.576871  7490 net.cpp:160] Top shape: 32 4096 (131072)
I0703 21:20:11.576874  7490 net.cpp:168] Memory required for data: 143825024
I0703 21:20:11.576875  7490 layer_factory.hpp:76] Creating layer fc7
I0703 21:20:11.576879  7490 net.cpp:109] Creating Layer fc7
I0703 21:20:11.576881  7490 net.cpp:457] fc7 <- fc6
I0703 21:20:11.576884  7490 net.cpp:414] fc7 -> fc7
I0703 21:20:11.883496  7490 net.cpp:153] Setting up fc7
I0703 21:20:11.883515  7490 net.cpp:160] Top shape: 32 4096 (131072)
I0703 21:20:11.883517  7490 net.cpp:168] Memory required for data: 144349312
I0703 21:20:11.883527  7490 layer_factory.hpp:76] Creating layer relu7
I0703 21:20:11.883533  7490 net.cpp:109] Creating Layer relu7
I0703 21:20:11.883536  7490 net.cpp:457] relu7 <- fc7
I0703 21:20:11.883539  7490 net.cpp:400] relu7 -> fc7 (in-place)
I0703 21:20:11.883548  7490 net.cpp:153] Setting up relu7
I0703 21:20:11.883550  7490 net.cpp:160] Top shape: 32 4096 (131072)
I0703 21:20:11.883553  7490 net.cpp:168] Memory required for data: 144873600
I0703 21:20:11.883553  7490 layer_factory.hpp:76] Creating layer drop7
I0703 21:20:11.883558  7490 net.cpp:109] Creating Layer drop7
I0703 21:20:11.883559  7490 net.cpp:457] drop7 <- fc7
I0703 21:20:11.883563  7490 net.cpp:400] drop7 -> fc7 (in-place)
I0703 21:20:11.883581  7490 net.cpp:153] Setting up drop7
I0703 21:20:11.883584  7490 net.cpp:160] Top shape: 32 4096 (131072)
I0703 21:20:11.883585  7490 net.cpp:168] Memory required for data: 145397888
I0703 21:20:11.883587  7490 layer_factory.hpp:76] Creating layer fc8_species
I0703 21:20:11.883592  7490 net.cpp:109] Creating Layer fc8_species
I0703 21:20:11.883594  7490 net.cpp:457] fc8_species <- fc7
I0703 21:20:11.883597  7490 net.cpp:414] fc8_species -> fc8_species
I0703 21:20:11.956823  7490 net.cpp:153] Setting up fc8_species
I0703 21:20:11.956840  7490 net.cpp:160] Top shape: 32 967 (30944)
I0703 21:20:11.956842  7490 net.cpp:168] Memory required for data: 145521664
I0703 21:20:11.956848  7490 layer_factory.hpp:76] Creating layer fc8_species_fc8_species_0_split
I0703 21:20:11.956853  7490 net.cpp:109] Creating Layer fc8_species_fc8_species_0_split
I0703 21:20:11.956856  7490 net.cpp:457] fc8_species_fc8_species_0_split <- fc8_species
I0703 21:20:11.956861  7490 net.cpp:414] fc8_species_fc8_species_0_split -> fc8_species_fc8_species_0_split_0
I0703 21:20:11.956866  7490 net.cpp:414] fc8_species_fc8_species_0_split -> fc8_species_fc8_species_0_split_1
I0703 21:20:11.956893  7490 net.cpp:153] Setting up fc8_species_fc8_species_0_split
I0703 21:20:11.956897  7490 net.cpp:160] Top shape: 32 967 (30944)
I0703 21:20:11.956898  7490 net.cpp:160] Top shape: 32 967 (30944)
I0703 21:20:11.956900  7490 net.cpp:168] Memory required for data: 145769216
I0703 21:20:11.956902  7490 layer_factory.hpp:76] Creating layer loss
I0703 21:20:11.956905  7490 net.cpp:109] Creating Layer loss
I0703 21:20:11.956907  7490 net.cpp:457] loss <- fc8_species_fc8_species_0_split_0
I0703 21:20:11.956910  7490 net.cpp:457] loss <- label_label_0_split_0
I0703 21:20:11.956912  7490 net.cpp:414] loss -> loss
…
