…
I0706 11:00:46.341455 29783 net.cpp:52] Initializing net from parameters:
state {
phase: TRAIN
}
layer {
name: "data"
type: "Data"
top: "data"
include {
phase: TRAIN
}
transform_param {
mean_file: "/home/ffw/scratch/plantClef/scatnet_output/train/a4_m2_s1s2_f2/lmdb_mean_coeff.binaryproto"
}
data_param {
source: "/home/ffw/scratch/plantClef/scatnet_output/train/a4_m2_s1s2_f2/lmdb_data"
batch_size: 64
backend: LMDB
}
}
layer {
name: "label"
type: "Data"
top: "label"
include {
phase: TRAIN
}
data_param {
source: "/home/ffw/scratch/plantClef/scatnet_output/train/a4_m2_s1s2_f2/lmdb_labels"
batch_size: 64
backend: LMDB
}
}
layer {
name: "conv1"
type: "Convolution"
bottom: "data"
top: "conv1"
param {
lr_mult: 1
decay_mult: 1
}
param {
lr_mult: 2
decay_mult: 0
}
convolution_param {
num_output: 96
kernel_size: 11
stride: 4
weight_filler {
type: "gaussian"
std: 0.01
}
bias_filler {
type: "constant"
value: 0
}
}
}
layer {
name: "relu1"
type: "ReLU"
bottom: "conv1"
top: "conv1"
}
layer {
name: "norm1"
type: "LRN"
bottom: "conv1"
top: "norm1"
lrn_param {
local_size: 5
alpha: 0.0001
beta: 0.75
}
}
layer {
name: "pool1"
type: "Pooling"
bottom: "norm1"
top: "pool1"
pooling_param {
pool: MAX
kernel_size: 3
stride: 2
}
}
layer {
name: "conv2"
type: "Convolution"
bottom: "pool1"
top: "conv2"
param {
lr_mult: 1
decay_mult: 1
}
param {
lr_mult: 2
decay_mult: 0
}
convolution_param {
num_output: 256
pad: 2
kernel_size: 5
group: 2
weight_filler {
type: "gaussian"
std: 0.01
}
bias_filler {
type: "constant"
value: 0.1
}
}
}
layer {
name: "relu2"
type: "ReLU"
bottom: "conv2"
top: "conv2"
}
layer {
name: "norm2"
type: "LRN"
bottom: "conv2"
top: "norm2"
lrn_param {
local_size: 5
alpha: 0.0001
beta: 0.75
}
}
layer {
name: "pool2"
type: "Pooling"
bottom: "norm2"
top: "pool2"
pooling_param {
pool: MAX
kernel_size: 3
stride: 2
}
}
layer {
name: "conv3"
type: "Convolution"
bottom: "pool2"
top: "conv3"
param {
lr_mult: 1
decay_mult: 1
}
param {
lr_mult: 2
decay_mult: 0
}
convolution_param {
num_output: 384
pad: 1
kernel_size: 3
weight_filler {
type: "gaussian"
std: 0.01
}
bias_filler {
type: "constant"
value: 0
}
}
}
layer {
name: "relu3"
type: "ReLU"
bottom: "conv3"
top: "conv3"
}
layer {
name: "conv4"
type: "Convolution"
bottom: "conv3"
top: "conv4"
param {
lr_mult: 1
decay_mult: 1
}
param {
lr_mult: 2
decay_mult: 0
}
convolution_param {
num_output: 384
pad: 1
kernel_size: 3
group: 2
weight_filler {
type: "gaussian"
std: 0.01
}
bias_filler {
type: "constant"
value: 0.1
}
}
}
layer {
name: "relu4"
type: "ReLU"
bottom: "conv4"
top: "conv4"
}
layer {
name: "conv5"
type: "Convolution"
bottom: "conv4"
top: "conv5"
param {
lr_mult: 1
decay_mult: 1
}
param {
lr_mult: 2
decay_mult: 0
}
convolution_param {
num_output: 256
pad: 1
kernel_size: 3
group: 1
weight_filler {
type: "gaussian"
std: 0.01
}
bias_filler {
type: "constant"
value: 0.1
}
}
}
layer {
name: "relu5"
type: "ReLU"
bottom: "conv5"
top: "conv5"
}
layer {
name: "pool5"
type: "Pooling"
bottom: "conv5"
top: "pool5"
pooling_param {
pool: MAX
kernel_size: 3
stride: 2
}
}
layer {
name: "fc6"
type: "InnerProduct"
bottom: "pool5"
top: "fc6"
param {
lr_mult: 1
decay_mult: 1
}
param {
lr_mult: 2
decay_mult: 0
}
inner_product_param {
num_output: 4096
weight_filler {
type: "gaussian"
std: 0.005
}
bias_filler {
type: "constant"
value: 0.1
}
}
}
layer {
name: "relu6"
type: "ReLU"
bottom: "fc6"
top: "fc6"
}
layer {
name: "drop6"
type: "Dropout"
bottom: "fc6"
top: "fc6"
dropout_param {
dropout_ratio: 0.5
}
}
layer {
name: "fc7"
type: "InnerProduct"
bottom: "fc6"
top: "fc7"
param {
lr_mult: 1
decay_mult: 1
}
param {
lr_mult: 2
decay_mult: 0
}
inner_product_param {
num_output: 4096
weight_filler {
type: "gaussian"
std: 0.005
}
bias_filler {
type: "constant"
value: 0.1
}
}
}
layer {
name: "relu7"
type: "ReLU"
bottom: "fc7"
top: "fc7"
}
layer {
name: "drop7"
type: "Dropout"
bottom: "fc7"
top: "fc7"
dropout_param {
dropout_ratio: 0.5
}
}
layer {
name: "fc8_species"
type: "InnerProduct"
bottom: "fc7"
top: "fc8_species"
param {
lr_mult: 1
decay_mult: 1
}
param {
lr_mult: 2
decay_mult: 0
}
inner_product_param {
num_output: 967
weight_filler {
type: "gaussian"
std: 0.005
}
bias_filler {
type: "constant"
value: 0.1
}
}
}
layer {
name: "loss"
type: "SoftmaxWithLoss"
bottom: "fc8_species"
bottom: "label"
top: "loss"
}
I0706 11:00:46.341516 29783 layer_factory.hpp:76] Creating layer data
I0706 11:00:46.341583 29783 net.cpp:109] Creating Layer data
I0706 11:00:46.341586 29783 net.cpp:414] data -> data
I0706 11:00:46.341596 29783 data_transformer.cpp:25] Loading mean file from: /home/ffw/scratch/plantClef/scatnet_output/train/a4_m2_s1s2_f2/lmdb_mean_coeff.binaryproto
I0706 11:00:46.345067 29796 db_lmdb.cpp:36] Opened lmdb /home/ffw/scratch/plantClef/scatnet_output/train/a4_m2_s1s2_f2/lmdb_data
I0706 11:00:46.359725 29783 data_layer.cpp:45] output data size: 64,75,105,105
I0706 11:00:46.581948 29783 net.cpp:153] Setting up data
I0706 11:00:46.581971 29783 net.cpp:160] Top shape: 64 75 105 105 (52920000)
I0706 11:00:46.581974 29783 net.cpp:168] Memory required for data: 211680000
I0706 11:00:46.581980 29783 layer_factory.hpp:76] Creating layer label
I0706 11:00:46.582231 29783 net.cpp:109] Creating Layer label
I0706 11:00:46.582242 29783 net.cpp:414] label -> label
I0706 11:00:46.586463 29798 db_lmdb.cpp:36] Opened lmdb /home/ffw/scratch/plantClef/scatnet_output/train/a4_m2_s1s2_f2/lmdb_labels
I0706 11:00:46.601574 29783 data_layer.cpp:45] output data size: 64,1,1,1
I0706 11:00:46.601727 29783 net.cpp:153] Setting up label
I0706 11:00:46.601748 29783 net.cpp:160] Top shape: 64 1 1 1 (64)
I0706 11:00:46.601761 29783 net.cpp:168] Memory required for data: 211680256
I0706 11:00:46.601765 29783 layer_factory.hpp:76] Creating layer conv1
I0706 11:00:46.601776 29783 net.cpp:109] Creating Layer conv1
I0706 11:00:46.601778 29783 net.cpp:457] conv1 <- data
I0706 11:00:46.601788 29783 net.cpp:414] conv1 -> conv1
I0706 11:00:46.620910 29783 net.cpp:153] Setting up conv1
I0706 11:00:46.620932 29783 net.cpp:160] Top shape: 64 96 24 24 (3538944)
I0706 11:00:46.620934 29783 net.cpp:168] Memory required for data: 225836032
I0706 11:00:46.620944 29783 layer_factory.hpp:76] Creating layer relu1
I0706 11:00:46.620951 29783 net.cpp:109] Creating Layer relu1
I0706 11:00:46.620954 29783 net.cpp:457] relu1 <- conv1
I0706 11:00:46.620957 29783 net.cpp:400] relu1 -> conv1 (in-place)
I0706 11:00:46.620990 29783 net.cpp:153] Setting up relu1
I0706 11:00:46.620993 29783 net.cpp:160] Top shape: 64 96 24 24 (3538944)
I0706 11:00:46.620995 29783 net.cpp:168] Memory required for data: 239991808
I0706 11:00:46.620996 29783 layer_factory.hpp:76] Creating layer norm1
I0706 11:00:46.621002 29783 net.cpp:109] Creating Layer norm1
I0706 11:00:46.621004 29783 net.cpp:457] norm1 <- conv1
I0706 11:00:46.621006 29783 net.cpp:414] norm1 -> norm1
I0706 11:00:46.621034 29783 net.cpp:153] Setting up norm1
I0706 11:00:46.621037 29783 net.cpp:160] Top shape: 64 96 24 24 (3538944)
I0706 11:00:46.621039 29783 net.cpp:168] Memory required for data: 254147584
I0706 11:00:46.621040 29783 layer_factory.hpp:76] Creating layer pool1
I0706 11:00:46.621044 29783 net.cpp:109] Creating Layer pool1
I0706 11:00:46.621047 29783 net.cpp:457] pool1 <- norm1
I0706 11:00:46.621048 29783 net.cpp:414] pool1 -> pool1
I0706 11:00:46.621078 29783 net.cpp:153] Setting up pool1
I0706 11:00:46.621080 29783 net.cpp:160] Top shape: 64 96 12 12 (884736)
I0706 11:00:46.621083 29783 net.cpp:168] Memory required for data: 257686528
I0706 11:00:46.621084 29783 layer_factory.hpp:76] Creating layer conv2
I0706 11:00:46.621088 29783 net.cpp:109] Creating Layer conv2
I0706 11:00:46.621090 29783 net.cpp:457] conv2 <- pool1
I0706 11:00:46.621093 29783 net.cpp:414] conv2 -> conv2
I0706 11:00:46.627862 29783 net.cpp:153] Setting up conv2
I0706 11:00:46.627879 29783 net.cpp:160] Top shape: 64 256 12 12 (2359296)
I0706 11:00:46.627882 29783 net.cpp:168] Memory required for data: 267123712
I0706 11:00:46.627888 29783 layer_factory.hpp:76] Creating layer relu2
I0706 11:00:46.627894 29783 net.cpp:109] Creating Layer relu2
I0706 11:00:46.627897 29783 net.cpp:457] relu2 <- conv2
I0706 11:00:46.627902 29783 net.cpp:400] relu2 -> conv2 (in-place)
I0706 11:00:46.627908 29783 net.cpp:153] Setting up relu2
I0706 11:00:46.627910 29783 net.cpp:160] Top shape: 64 256 12 12 (2359296)
I0706 11:00:46.627912 29783 net.cpp:168] Memory required for data: 276560896
I0706 11:00:46.627913 29783 layer_factory.hpp:76] Creating layer norm2
I0706 11:00:46.627918 29783 net.cpp:109] Creating Layer norm2
I0706 11:00:46.627920 29783 net.cpp:457] norm2 <- conv2
I0706 11:00:46.627923 29783 net.cpp:414] norm2 -> norm2
I0706 11:00:46.627943 29783 net.cpp:153] Setting up norm2
I0706 11:00:46.627946 29783 net.cpp:160] Top shape: 64 256 12 12 (2359296)
I0706 11:00:46.627948 29783 net.cpp:168] Memory required for data: 285998080
I0706 11:00:46.627949 29783 layer_factory.hpp:76] Creating layer pool2
I0706 11:00:46.627953 29783 net.cpp:109] Creating Layer pool2
I0706 11:00:46.627954 29783 net.cpp:457] pool2 <- norm2
I0706 11:00:46.627956 29783 net.cpp:414] pool2 -> pool2
I0706 11:00:46.627974 29783 net.cpp:153] Setting up pool2
I0706 11:00:46.627975 29783 net.cpp:160] Top shape: 64 256 6 6 (589824)
I0706 11:00:46.627976 29783 net.cpp:168] Memory required for data: 288357376
I0706 11:00:46.627979 29783 layer_factory.hpp:76] Creating layer conv3
I0706 11:00:46.627984 29783 net.cpp:109] Creating Layer conv3
I0706 11:00:46.627985 29783 net.cpp:457] conv3 <- pool2
I0706 11:00:46.627987 29783 net.cpp:414] conv3 -> conv3
I0706 11:00:46.647188 29783 net.cpp:153] Setting up conv3
I0706 11:00:46.647207 29783 net.cpp:160] Top shape: 64 384 6 6 (884736)
I0706 11:00:46.647208 29783 net.cpp:168] Memory required for data: 291896320
I0706 11:00:46.647215 29783 layer_factory.hpp:76] Creating layer relu3
I0706 11:00:46.647222 29783 net.cpp:109] Creating Layer relu3
I0706 11:00:46.647224 29783 net.cpp:457] relu3 <- conv3
I0706 11:00:46.647228 29783 net.cpp:400] relu3 -> conv3 (in-place)
I0706 11:00:46.647234 29783 net.cpp:153] Setting up relu3
I0706 11:00:46.647238 29783 net.cpp:160] Top shape: 64 384 6 6 (884736)
I0706 11:00:46.647239 29783 net.cpp:168] Memory required for data: 295435264
I0706 11:00:46.647243 29783 layer_factory.hpp:76] Creating layer conv4
I0706 11:00:46.647249 29783 net.cpp:109] Creating Layer conv4
I0706 11:00:46.647253 29783 net.cpp:457] conv4 <- conv3
I0706 11:00:46.647258 29783 net.cpp:414] conv4 -> conv4
I0706 11:00:46.661669 29783 net.cpp:153] Setting up conv4
I0706 11:00:46.661686 29783 net.cpp:160] Top shape: 64 384 6 6 (884736)
I0706 11:00:46.661689 29783 net.cpp:168] Memory required for data: 298974208
I0706 11:00:46.661694 29783 layer_factory.hpp:76] Creating layer relu4
I0706 11:00:46.661700 29783 net.cpp:109] Creating Layer relu4
I0706 11:00:46.661702 29783 net.cpp:457] relu4 <- conv4
I0706 11:00:46.661706 29783 net.cpp:400] relu4 -> conv4 (in-place)
I0706 11:00:46.661712 29783 net.cpp:153] Setting up relu4
I0706 11:00:46.661715 29783 net.cpp:160] Top shape: 64 384 6 6 (884736)
I0706 11:00:46.661716 29783 net.cpp:168] Memory required for data: 302513152
I0706 11:00:46.661718 29783 layer_factory.hpp:76] Creating layer conv5
I0706 11:00:46.661723 29783 net.cpp:109] Creating Layer conv5
I0706 11:00:46.661725 29783 net.cpp:457] conv5 <- conv4
I0706 11:00:46.661727 29783 net.cpp:414] conv5 -> conv5
I0706 11:00:46.680932 29783 net.cpp:153] Setting up conv5
I0706 11:00:46.680949 29783 net.cpp:160] Top shape: 64 256 6 6 (589824)
I0706 11:00:46.680951 29783 net.cpp:168] Memory required for data: 304872448
I0706 11:00:46.680959 29783 layer_factory.hpp:76] Creating layer relu5
I0706 11:00:46.680965 29783 net.cpp:109] Creating Layer relu5
I0706 11:00:46.680968 29783 net.cpp:457] relu5 <- conv5
I0706 11:00:46.680972 29783 net.cpp:400] relu5 -> conv5 (in-place)
I0706 11:00:46.680979 29783 net.cpp:153] Setting up relu5
I0706 11:00:46.680980 29783 net.cpp:160] Top shape: 64 256 6 6 (589824)
I0706 11:00:46.680982 29783 net.cpp:168] Memory required for data: 307231744
I0706 11:00:46.680984 29783 layer_factory.hpp:76] Creating layer pool5
I0706 11:00:46.680989 29783 net.cpp:109] Creating Layer pool5
I0706 11:00:46.680990 29783 net.cpp:457] pool5 <- conv5
I0706 11:00:46.680994 29783 net.cpp:414] pool5 -> pool5
I0706 11:00:46.681015 29783 net.cpp:153] Setting up pool5
I0706 11:00:46.681018 29783 net.cpp:160] Top shape: 64 256 3 3 (147456)
I0706 11:00:46.681020 29783 net.cpp:168] Memory required for data: 307821568
I0706 11:00:46.681021 29783 layer_factory.hpp:76] Creating layer fc6
I0706 11:00:46.681025 29783 net.cpp:109] Creating Layer fc6
I0706 11:00:46.681027 29783 net.cpp:457] fc6 <- pool5
I0706 11:00:46.681030 29783 net.cpp:414] fc6 -> fc6
I0706 11:00:46.875366 29783 net.cpp:153] Setting up fc6
I0706 11:00:46.875385 29783 net.cpp:160] Top shape: 64 4096 (262144)
I0706 11:00:46.875386 29783 net.cpp:168] Memory required for data: 308870144
I0706 11:00:46.875392 29783 layer_factory.hpp:76] Creating layer relu6
I0706 11:00:46.875399 29783 net.cpp:109] Creating Layer relu6
I0706 11:00:46.875401 29783 net.cpp:457] relu6 <- fc6
I0706 11:00:46.875406 29783 net.cpp:400] relu6 -> fc6 (in-place)
I0706 11:00:46.875411 29783 net.cpp:153] Setting up relu6
I0706 11:00:46.875413 29783 net.cpp:160] Top shape: 64 4096 (262144)
I0706 11:00:46.875416 29783 net.cpp:168] Memory required for data: 309918720
I0706 11:00:46.875417 29783 layer_factory.hpp:76] Creating layer drop6
I0706 11:00:46.875425 29783 net.cpp:109] Creating Layer drop6
I0706 11:00:46.875427 29783 net.cpp:457] drop6 <- fc6
I0706 11:00:46.875429 29783 net.cpp:400] drop6 -> fc6 (in-place)
I0706 11:00:46.875442 29783 net.cpp:153] Setting up drop6
I0706 11:00:46.875444 29783 net.cpp:160] Top shape: 64 4096 (262144)
I0706 11:00:46.875447 29783 net.cpp:168] Memory required for data: 310967296
I0706 11:00:46.875447 29783 layer_factory.hpp:76] Creating layer fc7
I0706 11:00:46.875452 29783 net.cpp:109] Creating Layer fc7
I0706 11:00:46.875453 29783 net.cpp:457] fc7 <- fc6
I0706 11:00:46.875457 29783 net.cpp:414] fc7 -> fc7
I0706 11:00:47.218793 29783 net.cpp:153] Setting up fc7
I0706 11:00:47.218811 29783 net.cpp:160] Top shape: 64 4096 (262144)
I0706 11:00:47.218823 29783 net.cpp:168] Memory required for data: 312015872
I0706 11:00:47.218828 29783 layer_factory.hpp:76] Creating layer relu7
I0706 11:00:47.218834 29783 net.cpp:109] Creating Layer relu7
I0706 11:00:47.218837 29783 net.cpp:457] relu7 <- fc7
I0706 11:00:47.218842 29783 net.cpp:400] relu7 -> fc7 (in-place)
I0706 11:00:47.218847 29783 net.cpp:153] Setting up relu7
I0706 11:00:47.218863 29783 net.cpp:160] Top shape: 64 4096 (262144)
I0706 11:00:47.218865 29783 net.cpp:168] Memory required for data: 313064448
I0706 11:00:47.218868 29783 layer_factory.hpp:76] Creating layer drop7
I0706 11:00:47.218871 29783 net.cpp:109] Creating Layer drop7
I0706 11:00:47.218873 29783 net.cpp:457] drop7 <- fc7
I0706 11:00:47.218875 29783 net.cpp:400] drop7 -> fc7 (in-place)
I0706 11:00:47.218888 29783 net.cpp:153] Setting up drop7
I0706 11:00:47.218890 29783 net.cpp:160] Top shape: 64 4096 (262144)
I0706 11:00:47.218893 29783 net.cpp:168] Memory required for data: 314113024
I0706 11:00:47.218894 29783 layer_factory.hpp:76] Creating layer fc8_species
I0706 11:00:47.218899 29783 net.cpp:109] Creating Layer fc8_species
I0706 11:00:47.218899 29783 net.cpp:457] fc8_species <- fc7
I0706 11:00:47.218902 29783 net.cpp:414] fc8_species -> fc8_species
I0706 11:00:47.298629 29783 net.cpp:153] Setting up fc8_species
I0706 11:00:47.298653 29783 net.cpp:160] Top shape: 64 967 (61888)
I0706 11:00:47.298656 29783 net.cpp:168] Memory required for data: 314360576
I0706 11:00:47.298662 29783 layer_factory.hpp:76] Creating layer loss
I0706 11:00:47.298676 29783 net.cpp:109] Creating Layer loss
I0706 11:00:47.298679 29783 net.cpp:457] loss <- fc8_species
I0706 11:00:47.298684 29783 net.cpp:457] loss <- label
I0706 11:00:47.298691 29783 net.cpp:414] loss -> loss
I0706 11:00:47.298703 29783 layer_factory.hpp:76] Creating layer loss
…
I0706 11:00:47.301404 29783 net.cpp:52] Initializing net from parameters:
state {
phase: TEST
}
layer {
name: "data"
type: "Data"
top: "data"
include {
phase: TEST
}
transform_param {
mean_file: "/home/ffw/scratch/plantClef/scatnet_output/train/a4_m2_s1s2_f2/lmdb_mean_coeff.binaryproto"
}
data_param {
source: "/home/ffw/scratch/plantClef/scatnet_output/test/a4_m2_s1s2_f2/lmdb_data"
batch_size: 64
backend: LMDB
}
}
layer {
name: "label"
type: "Data"
top: "label"
include {
phase: TEST
}
data_param {
source: "/home/ffw/scratch/plantClef/scatnet_output/test/a4_m2_s1s2_f2/lmdb_labels"
batch_size: 64
backend: LMDB
}
}
layer {
name: "conv1"
type: "Convolution"
bottom: "data"
top: "conv1"
param {
lr_mult: 1
decay_mult: 1
}
param {
lr_mult: 2
decay_mult: 0
}
convolution_param {
num_output: 96
kernel_size: 11
stride: 4
weight_filler {
type: "gaussian"
std: 0.01
}
bias_filler {
type: "constant"
value: 0
}
}
}
layer {
name: "relu1"
type: "ReLU"
bottom: "conv1"
top: "conv1"
}
layer {
name: "norm1"
type: "LRN"
bottom: "conv1"
top: "norm1"
lrn_param {
local_size: 5
alpha: 0.0001
beta: 0.75
}
}
layer {
name: "pool1"
type: "Pooling"
bottom: "norm1"
top: "pool1"
pooling_param {
pool: MAX
kernel_size: 3
stride: 2
}
}
layer {
name: "conv2"
type: "Convolution"
bottom: "pool1"
top: "conv2"
param {
lr_mult: 1
decay_mult: 1
}
param {
lr_mult: 2
decay_mult: 0
}
convolution_param {
num_output: 256
pad: 2
kernel_size: 5
group: 2
weight_filler {
type: "gaussian"
std: 0.01
}
bias_filler {
type: "constant"
value: 0.1
}
}
}
layer {
name: "relu2"
type: "ReLU"
bottom: "conv2"
top: "conv2"
}
layer {
name: "norm2"
type: "LRN"
bottom: "conv2"
top: "norm2"
lrn_param {
local_size: 5
alpha: 0.0001
beta: 0.75
}
}
layer {
name: "pool2"
type: "Pooling"
bottom: "norm2"
top: "pool2"
pooling_param {
pool: MAX
kernel_size: 3
stride: 2
}
}
layer {
name: "conv3"
type: "Convolution"
bottom: "pool2"
top: "conv3"
param {
lr_mult: 1
decay_mult: 1
}
param {
lr_mult: 2
decay_mult: 0
}
convolution_param {
num_output: 384
pad: 1
kernel_size: 3
weight_filler {
type: "gaussian"
std: 0.01
}
bias_filler {
type: "constant"
value: 0
}
}
}
layer {
name: "relu3"
type: "ReLU"
bottom: "conv3"
top: "conv3"
}
layer {
name: "conv4"
type: "Convolution"
bottom: "conv3"
top: "conv4"
param {
lr_mult: 1
decay_mult: 1
}
param {
lr_mult: 2
decay_mult: 0
}
convolution_param {
num_output: 384
pad: 1
kernel_size: 3
group: 2
weight_filler {
type: "gaussian"
std: 0.01
}
bias_filler {
type: "constant"
value: 0.1
}
}
}
layer {
name: "relu4"
type: "ReLU"
bottom: "conv4"
top: "conv4"
}
layer {
name: "conv5"
type: "Convolution"
bottom: "conv4"
top: "conv5"
param {
lr_mult: 1
decay_mult: 1
}
param {
lr_mult: 2
decay_mult: 0
}
convolution_param {
num_output: 256
pad: 1
kernel_size: 3
group: 1
weight_filler {
type: "gaussian"
std: 0.01
}
bias_filler {
type: "constant"
value: 0.1
}
}
}
layer {
name: "relu5"
type: "ReLU"
bottom: "conv5"
top: "conv5"
}
layer {
name: "pool5"
type: "Pooling"
bottom: "conv5"
top: "pool5"
pooling_param {
pool: MAX
kernel_size: 3
stride: 2
}
}
layer {
name: "fc6"
type: "InnerProduct"
bottom: "pool5"
top: "fc6"
param {
lr_mult: 1
decay_mult: 1
}
param {
lr_mult: 2
decay_mult: 0
}
inner_product_param {
num_output: 4096
weight_filler {
type: "gaussian"
std: 0.005
}
bias_filler {
type: "constant"
value: 0.1
}
}
}
layer {
name: "relu6"
type: "ReLU"
bottom: "fc6"
top: "fc6"
}
layer {
name: "drop6"
type: "Dropout"
bottom: "fc6"
top: "fc6"
dropout_param {
dropout_ratio: 0.5
}
}
layer {
name: "fc7"
type: "InnerProduct"
bottom: "fc6"
top: "fc7"
param {
lr_mult: 1
decay_mult: 1
}
param {
lr_mult: 2
decay_mult: 0
}
inner_product_param {
num_output: 4096
weight_filler {
type: "gaussian"
std: 0.005
}
bias_filler {
type: "constant"
value: 0.1
}
}
}
layer {
name: "relu7"
type: "ReLU"
bottom: "fc7"
top: "fc7"
}
layer {
name: "drop7"
type: "Dropout"
bottom: "fc7"
top: "fc7"
dropout_param {
dropout_ratio: 0.5
}
}
layer {
name: "fc8_species"
type: "InnerProduct"
bottom: "fc7"
top: "fc8_species"
param {
lr_mult: 1
decay_mult: 1
}
param {
lr_mult: 2
decay_mult: 0
}
inner_product_param {
num_output: 967
weight_filler {
type: "gaussian"
std: 0.005
}
bias_filler {
type: "constant"
value: 0.1
}
}
}
layer {
name: "loss"
type: "SoftmaxWithLoss"
bottom: "fc8_species"
bottom: "label"
top: "loss"
}
layer {
name: "accuracy"
type: "Accuracy"
bottom: "fc8_species"
bottom: "label"
top: "accuracy"
include {
phase: TEST
}
}
I0706 11:00:47.301473 29783 layer_factory.hpp:76] Creating layer data
I0706 11:00:47.301537 29783 net.cpp:109] Creating Layer data
I0706 11:00:47.301542 29783 net.cpp:414] data -> data
I0706 11:00:47.301548 29783 data_transformer.cpp:25] Loading mean file from: /home/ffw/scratch/plantClef/scatnet_output/train/a4_m2_s1s2_f2/lmdb_mean_coeff.binaryproto
I0706 11:00:47.305266 29800 db_lmdb.cpp:36] Opened lmdb /home/ffw/scratch/plantClef/scatnet_output/test/a4_m2_s1s2_f2/lmdb_data
I0706 11:00:47.307826 29783 data_layer.cpp:45] output data size: 64,75,105,105
I0706 11:00:47.553865 29783 net.cpp:153] Setting up data
I0706 11:00:47.553886 29783 net.cpp:160] Top shape: 64 75 105 105 (52920000)
I0706 11:00:47.553889 29783 net.cpp:168] Memory required for data: 211680000
I0706 11:00:47.553892 29783 layer_factory.hpp:76] Creating layer label
I0706 11:00:47.553997 29783 net.cpp:109] Creating Layer label
I0706 11:00:47.554004 29783 net.cpp:414] label -> label
I0706 11:00:47.556478 29802 db_lmdb.cpp:36] Opened lmdb /home/ffw/scratch/plantClef/scatnet_output/test/a4_m2_s1s2_f2/lmdb_labels
I0706 11:00:47.572932 29783 data_layer.cpp:45] output data size: 64,1,1,1
I0706 11:00:47.573127 29783 net.cpp:153] Setting up label
I0706 11:00:47.573148 29783 net.cpp:160] Top shape: 64 1 1 1 (64)
I0706 11:00:47.573154 29783 net.cpp:168] Memory required for data: 211680256
I0706 11:00:47.573160 29783 layer_factory.hpp:76] Creating layer label_label_0_split
I0706 11:00:47.573173 29783 net.cpp:109] Creating Layer label_label_0_split
I0706 11:00:47.573177 29783 net.cpp:457] label_label_0_split <- label
I0706 11:00:47.573194 29783 net.cpp:414] label_label_0_split -> label_label_0_split_0
I0706 11:00:47.573200 29783 net.cpp:414] label_label_0_split -> label_label_0_split_1
I0706 11:00:47.573395 29783 net.cpp:153] Setting up label_label_0_split
I0706 11:00:47.573400 29783 net.cpp:160] Top shape: 64 1 1 1 (64)
I0706 11:00:47.573402 29783 net.cpp:160] Top shape: 64 1 1 1 (64)
I0706 11:00:47.573405 29783 net.cpp:168] Memory required for data: 211680768
I0706 11:00:47.573406 29783 layer_factory.hpp:76] Creating layer conv1
I0706 11:00:47.573413 29783 net.cpp:109] Creating Layer conv1
I0706 11:00:47.573416 29783 net.cpp:457] conv1 <- data
I0706 11:00:47.573421 29783 net.cpp:414] conv1 -> conv1
I0706 11:00:47.592550 29783 net.cpp:153] Setting up conv1
I0706 11:00:47.592567 29783 net.cpp:160] Top shape: 64 96 24 24 (3538944)
I0706 11:00:47.592569 29783 net.cpp:168] Memory required for data: 225836544
I0706 11:00:47.592576 29783 layer_factory.hpp:76] Creating layer relu1
I0706 11:00:47.592584 29783 net.cpp:109] Creating Layer relu1
I0706 11:00:47.592586 29783 net.cpp:457] relu1 <- conv1
I0706 11:00:47.592591 29783 net.cpp:400] relu1 -> conv1 (in-place)
I0706 11:00:47.592622 29783 net.cpp:153] Setting up relu1
I0706 11:00:47.592628 29783 net.cpp:160] Top shape: 64 96 24 24 (3538944)
I0706 11:00:47.592630 29783 net.cpp:168] Memory required for data: 239992320
I0706 11:00:47.592633 29783 layer_factory.hpp:76] Creating layer norm1
I0706 11:00:47.592639 29783 net.cpp:109] Creating Layer norm1
I0706 11:00:47.592643 29783 net.cpp:457] norm1 <- conv1
I0706 11:00:47.592648 29783 net.cpp:414] norm1 -> norm1
I0706 11:00:47.592703 29783 net.cpp:153] Setting up norm1
I0706 11:00:47.592710 29783 net.cpp:160] Top shape: 64 96 24 24 (3538944)
I0706 11:00:47.592712 29783 net.cpp:168] Memory required for data: 254148096
I0706 11:00:47.592715 29783 layer_factory.hpp:76] Creating layer pool1
I0706 11:00:47.592720 29783 net.cpp:109] Creating Layer pool1
I0706 11:00:47.592721 29783 net.cpp:457] pool1 <- norm1
I0706 11:00:47.592723 29783 net.cpp:414] pool1 -> pool1
I0706 11:00:47.592744 29783 net.cpp:153] Setting up pool1
I0706 11:00:47.592747 29783 net.cpp:160] Top shape: 64 96 12 12 (884736)
I0706 11:00:47.592748 29783 net.cpp:168] Memory required for data: 257687040
I0706 11:00:47.592751 29783 layer_factory.hpp:76] Creating layer conv2
I0706 11:00:47.592756 29783 net.cpp:109] Creating Layer conv2
I0706 11:00:47.592756 29783 net.cpp:457] conv2 <- pool1
I0706 11:00:47.592759 29783 net.cpp:414] conv2 -> conv2
I0706 11:00:47.599843 29783 net.cpp:153] Setting up conv2
I0706 11:00:47.599861 29783 net.cpp:160] Top shape: 64 256 12 12 (2359296)
I0706 11:00:47.599864 29783 net.cpp:168] Memory required for data: 267124224
I0706 11:00:47.599871 29783 layer_factory.hpp:76] Creating layer relu2
I0706 11:00:47.599879 29783 net.cpp:109] Creating Layer relu2
I0706 11:00:47.599881 29783 net.cpp:457] relu2 <- conv2
I0706 11:00:47.599884 29783 net.cpp:400] relu2 -> conv2 (in-place)
I0706 11:00:47.599890 29783 net.cpp:153] Setting up relu2
I0706 11:00:47.599892 29783 net.cpp:160] Top shape: 64 256 12 12 (2359296)
I0706 11:00:47.599895 29783 net.cpp:168] Memory required for data: 276561408
I0706 11:00:47.599895 29783 layer_factory.hpp:76] Creating layer norm2
I0706 11:00:47.599900 29783 net.cpp:109] Creating Layer norm2
I0706 11:00:47.599901 29783 net.cpp:457] norm2 <- conv2
I0706 11:00:47.599905 29783 net.cpp:414] norm2 -> norm2
I0706 11:00:47.599930 29783 net.cpp:153] Setting up norm2
I0706 11:00:47.599933 29783 net.cpp:160] Top shape: 64 256 12 12 (2359296)
I0706 11:00:47.599934 29783 net.cpp:168] Memory required for data: 285998592
I0706 11:00:47.599936 29783 layer_factory.hpp:76] Creating layer pool2
I0706 11:00:47.599941 29783 net.cpp:109] Creating Layer pool2
I0706 11:00:47.599941 29783 net.cpp:457] pool2 <- norm2
I0706 11:00:47.599943 29783 net.cpp:414] pool2 -> pool2
I0706 11:00:47.599961 29783 net.cpp:153] Setting up pool2
I0706 11:00:47.599963 29783 net.cpp:160] Top shape: 64 256 6 6 (589824)
I0706 11:00:47.599966 29783 net.cpp:168] Memory required for data: 288357888
I0706 11:00:47.599967 29783 layer_factory.hpp:76] Creating layer conv3
I0706 11:00:47.599972 29783 net.cpp:109] Creating Layer conv3
I0706 11:00:47.599973 29783 net.cpp:457] conv3 <- pool2
I0706 11:00:47.599975 29783 net.cpp:414] conv3 -> conv3
I0706 11:00:47.621750 29783 net.cpp:153] Setting up conv3
I0706 11:00:47.621801 29783 net.cpp:160] Top shape: 64 384 6 6 (884736)
I0706 11:00:47.621809 29783 net.cpp:168] Memory required for data: 291896832
I0706 11:00:47.621825 29783 layer_factory.hpp:76] Creating layer relu3
I0706 11:00:47.621840 29783 net.cpp:109] Creating Layer relu3
I0706 11:00:47.621843 29783 net.cpp:457] relu3 <- conv3
I0706 11:00:47.621848 29783 net.cpp:400] relu3 -> conv3 (in-place)
I0706 11:00:47.621857 29783 net.cpp:153] Setting up relu3
I0706 11:00:47.621860 29783 net.cpp:160] Top shape: 64 384 6 6 (884736)
I0706 11:00:47.621862 29783 net.cpp:168] Memory required for data: 295435776
I0706 11:00:47.621865 29783 layer_factory.hpp:76] Creating layer conv4
I0706 11:00:47.621870 29783 net.cpp:109] Creating Layer conv4
I0706 11:00:47.621873 29783 net.cpp:457] conv4 <- conv3
I0706 11:00:47.621876 29783 net.cpp:414] conv4 -> conv4
I0706 11:00:47.637553 29783 net.cpp:153] Setting up conv4
I0706 11:00:47.637570 29783 net.cpp:160] Top shape: 64 384 6 6 (884736)
I0706 11:00:47.637573 29783 net.cpp:168] Memory required for data: 298974720
I0706 11:00:47.637578 29783 layer_factory.hpp:76] Creating layer relu4
I0706 11:00:47.637583 29783 net.cpp:109] Creating Layer relu4
I0706 11:00:47.637586 29783 net.cpp:457] relu4 <- conv4
I0706 11:00:47.637590 29783 net.cpp:400] relu4 -> conv4 (in-place)
I0706 11:00:47.637596 29783 net.cpp:153] Setting up relu4
I0706 11:00:47.637598 29783 net.cpp:160] Top shape: 64 384 6 6 (884736)
I0706 11:00:47.637600 29783 net.cpp:168] Memory required for data: 302513664
I0706 11:00:47.637603 29783 layer_factory.hpp:76] Creating layer conv5
I0706 11:00:47.637608 29783 net.cpp:109] Creating Layer conv5
I0706 11:00:47.637609 29783 net.cpp:457] conv5 <- conv4
I0706 11:00:47.637612 29783 net.cpp:414] conv5 -> conv5
I0706 11:00:47.658504 29783 net.cpp:153] Setting up conv5
I0706 11:00:47.658522 29783 net.cpp:160] Top shape: 64 256 6 6 (589824)
I0706 11:00:47.658524 29783 net.cpp:168] Memory required for data: 304872960
I0706 11:00:47.658534 29783 layer_factory.hpp:76] Creating layer relu5
I0706 11:00:47.658545 29783 net.cpp:109] Creating Layer relu5
I0706 11:00:47.658550 29783 net.cpp:457] relu5 <- conv5
I0706 11:00:47.658556 29783 net.cpp:400] relu5 -> conv5 (in-place)
I0706 11:00:47.658565 29783 net.cpp:153] Setting up relu5
I0706 11:00:47.658570 29783 net.cpp:160] Top shape: 64 256 6 6 (589824)
I0706 11:00:47.658572 29783 net.cpp:168] Memory required for data: 307232256
I0706 11:00:47.658576 29783 layer_factory.hpp:76] Creating layer pool5
I0706 11:00:47.658581 29783 net.cpp:109] Creating Layer pool5
I0706 11:00:47.658584 29783 net.cpp:457] pool5 <- conv5
I0706 11:00:47.658589 29783 net.cpp:414] pool5 -> pool5
I0706 11:00:47.658641 29783 net.cpp:153] Setting up pool5
I0706 11:00:47.658648 29783 net.cpp:160] Top shape: 64 256 3 3 (147456)
I0706 11:00:47.658650 29783 net.cpp:168] Memory required for data: 307822080
I0706 11:00:47.658653 29783 layer_factory.hpp:76] Creating layer fc6
I0706 11:00:47.658658 29783 net.cpp:109] Creating Layer fc6
I0706 11:00:47.658669 29783 net.cpp:457] fc6 <- pool5
I0706 11:00:47.658673 29783 net.cpp:414] fc6 -> fc6
I0706 11:00:47.853550 29783 net.cpp:153] Setting up fc6
I0706 11:00:47.853570 29783 net.cpp:160] Top shape: 64 4096 (262144)
I0706 11:00:47.853574 29783 net.cpp:168] Memory required for data: 308870656
I0706 11:00:47.853579 29783 layer_factory.hpp:76] Creating layer relu6
I0706 11:00:47.853586 29783 net.cpp:109] Creating Layer relu6
I0706 11:00:47.853590 29783 net.cpp:457] relu6 <- fc6
I0706 11:00:47.853593 29783 net.cpp:400] relu6 -> fc6 (in-place)
I0706 11:00:47.853601 29783 net.cpp:153] Setting up relu6
I0706 11:00:47.853605 29783 net.cpp:160] Top shape: 64 4096 (262144)
I0706 11:00:47.853606 29783 net.cpp:168] Memory required for data: 309919232
I0706 11:00:47.853608 29783 layer_factory.hpp:76] Creating layer drop6
I0706 11:00:47.853612 29783 net.cpp:109] Creating Layer drop6
I0706 11:00:47.853615 29783 net.cpp:457] drop6 <- fc6
I0706 11:00:47.853617 29783 net.cpp:400] drop6 -> fc6 (in-place)
I0706 11:00:47.853639 29783 net.cpp:153] Setting up drop6
I0706 11:00:47.853643 29783 net.cpp:160] Top shape: 64 4096 (262144)
I0706 11:00:47.853644 29783 net.cpp:168] Memory required for data: 310967808
I0706 11:00:47.853646 29783 layer_factory.hpp:76] Creating layer fc7
I0706 11:00:47.853652 29783 net.cpp:109] Creating Layer fc7
I0706 11:00:47.853653 29783 net.cpp:457] fc7 <- fc6
I0706 11:00:47.853657 29783 net.cpp:414] fc7 -> fc7
I0706 11:00:48.174365 29783 net.cpp:153] Setting up fc7
I0706 11:00:48.174383 29783 net.cpp:160] Top shape: 64 4096 (262144)
I0706 11:00:48.174386 29783 net.cpp:168] Memory required for data: 312016384
I0706 11:00:48.174391 29783 layer_factory.hpp:76] Creating layer relu7
I0706 11:00:48.174398 29783 net.cpp:109] Creating Layer relu7
I0706 11:00:48.174401 29783 net.cpp:457] relu7 <- fc7
I0706 11:00:48.174406 29783 net.cpp:400] relu7 -> fc7 (in-place)
I0706 11:00:48.174437 29783 net.cpp:153] Setting up relu7
I0706 11:00:48.174439 29783 net.cpp:160] Top shape: 64 4096 (262144)
I0706 11:00:48.174441 29783 net.cpp:168] Memory required for data: 313064960
I0706 11:00:48.174443 29783 layer_factory.hpp:76] Creating layer drop7
I0706 11:00:48.174448 29783 net.cpp:109] Creating Layer drop7
I0706 11:00:48.174449 29783 net.cpp:457] drop7 <- fc7
I0706 11:00:48.174451 29783 net.cpp:400] drop7 -> fc7 (in-place)
I0706 11:00:48.174470 29783 net.cpp:153] Setting up drop7
I0706 11:00:48.174474 29783 net.cpp:160] Top shape: 64 4096 (262144)
I0706 11:00:48.174474 29783 net.cpp:168] Memory required for data: 314113536
I0706 11:00:48.174476 29783 layer_factory.hpp:76] Creating layer fc8_species
I0706 11:00:48.174480 29783 net.cpp:109] Creating Layer fc8_species
I0706 11:00:48.174482 29783 net.cpp:457] fc8_species <- fc7
I0706 11:00:48.174485 29783 net.cpp:414] fc8_species -> fc8_species
I0706 11:00:48.362010 29783 net.cpp:153] Setting up fc8_species
I0706 11:00:48.362030 29783 net.cpp:160] Top shape: 64 967 (61888)
I0706 11:00:48.362032 29783 net.cpp:168] Memory required for data: 314361088
I0706 11:00:48.362037 29783 layer_factory.hpp:76] Creating layer fc8_species_fc8_species_0_split
I0706 11:00:48.362043 29783 net.cpp:109] Creating Layer fc8_species_fc8_species_0_split
I0706 11:00:48.362046 29783 net.cpp:457] fc8_species_fc8_species_0_split <- fc8_species
I0706 11:00:48.362051 29783 net.cpp:414] fc8_species_fc8_species_0_split -> fc8_species_fc8_species_0_split_0
I0706 11:00:48.362056 29783 net.cpp:414] fc8_species_fc8_species_0_split -> fc8_species_fc8_species_0_split_1
I0706 11:00:48.362081 29783 net.cpp:153] Setting up fc8_species_fc8_species_0_split
I0706 11:00:48.362083 29783 net.cpp:160] Top shape: 64 967 (61888)
I0706 11:00:48.362085 29783 net.cpp:160] Top shape: 64 967 (61888)
I0706 11:00:48.362087 29783 net.cpp:168] Memory required for data: 314856192
I0706 11:00:48.362089 29783 layer_factory.hpp:76] Creating layer loss
I0706 11:00:48.362092 29783 net.cpp:109] Creating Layer loss
I0706 11:00:48.362094 29783 net.cpp:457] loss <- fc8_species_fc8_species_0_split_0
I0706 11:00:48.362097 29783 net.cpp:457] loss <- label_label_0_split_0
I0706 11:00:48.362100 29783 net.cpp:414] loss -> loss
…
