…
state {
phase: TRAIN
}
layer {
name: "data"
type: "Data"
top: "data"
include {
phase: TRAIN
}
transform_param {
mean_file: "/home/ffw/scratch/plantClef/scatnet_output/train/a4_m2_s1s2s4s8_f2/lmdb_mean_coeff.binaryproto"
}
data_param {
source: "/home/ffw/scratch/plantClef/scatnet_output/train/a4_m2_s1s2s4s8_f2/lmdb_data"
batch_size: 32
backend: LMDB
}
}
layer {
name: "label"
type: "Data"
top: "label"
include {
phase: TRAIN
}
data_param {
source: "/home/ffw/scratch/plantClef/scatnet_output/train/a4_m2_s1s2s4s8_f2/lmdb_labels"
batch_size: 32
backend: LMDB
}
}
layer {
name: "conv4"
type: "Convolution"
bottom: "data"
top: "conv4"
param {
lr_mult: 1
decay_mult: 1
}
param {
lr_mult: 2
decay_mult: 0
}
convolution_param {
num_output: 384
pad: 1
kernel_size: 3
group: 1
weight_filler {
type: "gaussian"
std: 0.01
}
bias_filler {
type: "constant"
value: 0.1
}
}
}
layer {
name: "relu4"
type: "ReLU"
bottom: "conv4"
top: "conv4"
}
layer {
name: "conv5"
type: "Convolution"
bottom: "conv4"
top: "conv5"
param {
lr_mult: 1
decay_mult: 1
}
param {
lr_mult: 2
decay_mult: 0
}
convolution_param {
num_output: 256
pad: 1
kernel_size: 3
group: 1
weight_filler {
type: "gaussian"
std: 0.01
}
bias_filler {
type: "constant"
value: 0.1
}
}
}
layer {
name: "relu5"
type: "ReLU"
bottom: "conv5"
top: "conv5"
}
layer {
name: "pool5"
type: "Pooling"
bottom: "conv5"
top: "pool5"
pooling_param {
pool: MAX
kernel_size: 3
stride: 2
}
}
layer {
name: "fc6"
type: "InnerProduct"
bottom: "pool5"
top: "fc6"
param {
lr_mult: 1
decay_mult: 1
}
param {
lr_mult: 2
decay_mult: 0
}
inner_product_param {
num_output: 4096
weight_filler {
type: "gaussian"
std: 0.005
}
bias_filler {
type: "constant"
value: 0.1
}
}
}
layer {
name: "relu6"
type: "ReLU"
bottom: "fc6"
top: "fc6"
}
layer {
name: "drop6"
type: "Dropout"
bottom: "fc6"
top: "fc6"
dropout_param {
dropout_ratio: 0.5
}
}
layer {
name: "fc7"
type: "InnerProduct"
bottom: "fc6"
top: "fc7"
param {
lr_mult: 1
decay_mult: 1
}
param {
lr_mult: 2
decay_mult: 0
}
inner_product_param {
num_output: 4096
weight_filler {
type: "gaussian"
std: 0.005
}
bias_filler {
type: "constant"
value: 0.1
}
}
}
layer {
name: "relu7"
type: "ReLU"
bottom: "fc7"
top: "fc7"
}
layer {
name: "drop7"
type: "Dropout"
bottom: "fc7"
top: "fc7"
dropout_param {
dropout_ratio: 0.5
}
}
layer {
name: "fc8_species"
type: "InnerProduct"
bottom: "fc7"
top: "fc8_species"
param {
lr_mult: 1
decay_mult: 1
}
param {
lr_mult: 2
decay_mult: 0
}
inner_product_param {
num_output: 967
weight_filler {
type: "gaussian"
std: 0.005
}
bias_filler {
type: "constant"
value: 0.1
}
}
}
layer {
name: "loss"
type: "SoftmaxWithLoss"
bottom: "fc8_species"
bottom: "label"
top: "loss"
}
I0704 17:44:01.602219 26747 layer_factory.hpp:76] Creating layer data
I0704 17:44:01.602275 26747 net.cpp:109] Creating Layer data
I0704 17:44:01.602279 26747 net.cpp:414] data -> data
I0704 17:44:01.602293 26747 data_transformer.cpp:25] Loading mean file from: /home/ffw/scratch/plantClef/scatnet_output/train/a4_m2_s1s2s4s8_f2/lmdb_mean_coeff.binaryproto
I0704 17:44:01.604435 26760 db_lmdb.cpp:36] Opened lmdb /home/ffw/scratch/plantClef/scatnet_output/train/a4_m2_s1s2s4s8_f2/lmdb_data
I0704 17:44:01.606470 26747 data_layer.cpp:45] output data size: 32,339,19,19
I0704 17:44:01.624617 26747 net.cpp:153] Setting up data
I0704 17:44:01.624639 26747 net.cpp:160] Top shape: 32 339 19 19 (3916128)
I0704 17:44:01.624644 26747 net.cpp:168] Memory required for data: 15664512
I0704 17:44:01.624650 26747 layer_factory.hpp:76] Creating layer label
I0704 17:44:01.624691 26747 net.cpp:109] Creating Layer label
I0704 17:44:01.624696 26747 net.cpp:414] label -> label
I0704 17:44:01.626374 26762 db_lmdb.cpp:36] Opened lmdb /home/ffw/scratch/plantClef/scatnet_output/train/a4_m2_s1s2s4s8_f2/lmdb_labels
I0704 17:44:01.627553 26747 data_layer.cpp:45] output data size: 32,1,1,1
I0704 17:44:01.627766 26747 net.cpp:153] Setting up label
I0704 17:44:01.627774 26747 net.cpp:160] Top shape: 32 1 1 1 (32)
I0704 17:44:01.627776 26747 net.cpp:168] Memory required for data: 15664640
I0704 17:44:01.627779 26747 layer_factory.hpp:76] Creating layer conv4
I0704 17:44:01.627789 26747 net.cpp:109] Creating Layer conv4
I0704 17:44:01.627790 26747 net.cpp:457] conv4 <- data
I0704 17:44:01.627799 26747 net.cpp:414] conv4 -> conv4
I0704 17:44:01.651615 26747 net.cpp:153] Setting up conv4
I0704 17:44:01.651634 26747 net.cpp:160] Top shape: 32 384 19 19 (4435968)
I0704 17:44:01.651636 26747 net.cpp:168] Memory required for data: 33408512
I0704 17:44:01.651648 26747 layer_factory.hpp:76] Creating layer relu4
I0704 17:44:01.651656 26747 net.cpp:109] Creating Layer relu4
I0704 17:44:01.651659 26747 net.cpp:457] relu4 <- conv4
I0704 17:44:01.651664 26747 net.cpp:400] relu4 -> conv4 (in-place)
I0704 17:44:01.651672 26747 net.cpp:153] Setting up relu4
I0704 17:44:01.651675 26747 net.cpp:160] Top shape: 32 384 19 19 (4435968)
I0704 17:44:01.651676 26747 net.cpp:168] Memory required for data: 51152384
I0704 17:44:01.651679 26747 layer_factory.hpp:76] Creating layer conv5
I0704 17:44:01.651685 26747 net.cpp:109] Creating Layer conv5
I0704 17:44:01.651687 26747 net.cpp:457] conv5 <- conv4
I0704 17:44:01.651690 26747 net.cpp:414] conv5 -> conv5
I0704 17:44:01.669220 26747 net.cpp:153] Setting up conv5
I0704 17:44:01.669239 26747 net.cpp:160] Top shape: 32 256 19 19 (2957312)
I0704 17:44:01.669241 26747 net.cpp:168] Memory required for data: 62981632
I0704 17:44:01.669247 26747 layer_factory.hpp:76] Creating layer relu5
I0704 17:44:01.669253 26747 net.cpp:109] Creating Layer relu5
I0704 17:44:01.669256 26747 net.cpp:457] relu5 <- conv5
I0704 17:44:01.669260 26747 net.cpp:400] relu5 -> conv5 (in-place)
I0704 17:44:01.669265 26747 net.cpp:153] Setting up relu5
I0704 17:44:01.669268 26747 net.cpp:160] Top shape: 32 256 19 19 (2957312)
I0704 17:44:01.669270 26747 net.cpp:168] Memory required for data: 74810880
I0704 17:44:01.669271 26747 layer_factory.hpp:76] Creating layer pool5
I0704 17:44:01.669275 26747 net.cpp:109] Creating Layer pool5
I0704 17:44:01.669277 26747 net.cpp:457] pool5 <- conv5
I0704 17:44:01.669280 26747 net.cpp:414] pool5 -> pool5
I0704 17:44:01.669312 26747 net.cpp:153] Setting up pool5
I0704 17:44:01.669317 26747 net.cpp:160] Top shape: 32 256 9 9 (663552)
I0704 17:44:01.669317 26747 net.cpp:168] Memory required for data: 77465088
I0704 17:44:01.669319 26747 layer_factory.hpp:76] Creating layer fc6
I0704 17:44:01.669323 26747 net.cpp:109] Creating Layer fc6
I0704 17:44:01.669325 26747 net.cpp:457] fc6 <- pool5
I0704 17:44:01.669328 26747 net.cpp:414] fc6 -> fc6
I0704 17:44:03.203986 26747 net.cpp:153] Setting up fc6
I0704 17:44:03.204005 26747 net.cpp:160] Top shape: 32 4096 (131072)
I0704 17:44:03.204022 26747 net.cpp:168] Memory required for data: 77989376
I0704 17:44:03.204031 26747 layer_factory.hpp:76] Creating layer relu6
I0704 17:44:03.204038 26747 net.cpp:109] Creating Layer relu6
I0704 17:44:03.204041 26747 net.cpp:457] relu6 <- fc6
I0704 17:44:03.204046 26747 net.cpp:400] relu6 -> fc6 (in-place)
I0704 17:44:03.204052 26747 net.cpp:153] Setting up relu6
I0704 17:44:03.204054 26747 net.cpp:160] Top shape: 32 4096 (131072)
I0704 17:44:03.204056 26747 net.cpp:168] Memory required for data: 78513664
I0704 17:44:03.204057 26747 layer_factory.hpp:76] Creating layer drop6
I0704 17:44:03.204066 26747 net.cpp:109] Creating Layer drop6
I0704 17:44:03.204068 26747 net.cpp:457] drop6 <- fc6
I0704 17:44:03.204071 26747 net.cpp:400] drop6 -> fc6 (in-place)
I0704 17:44:03.204087 26747 net.cpp:153] Setting up drop6
I0704 17:44:03.204090 26747 net.cpp:160] Top shape: 32 4096 (131072)
I0704 17:44:03.204092 26747 net.cpp:168] Memory required for data: 79037952
I0704 17:44:03.204093 26747 layer_factory.hpp:76] Creating layer fc7
I0704 17:44:03.204098 26747 net.cpp:109] Creating Layer fc7
I0704 17:44:03.204099 26747 net.cpp:457] fc7 <- fc6
I0704 17:44:03.204102 26747 net.cpp:414] fc7 -> fc7
I0704 17:44:03.508221 26747 net.cpp:153] Setting up fc7
I0704 17:44:03.508240 26747 net.cpp:160] Top shape: 32 4096 (131072)
I0704 17:44:03.508244 26747 net.cpp:168] Memory required for data: 79562240
I0704 17:44:03.508249 26747 layer_factory.hpp:76] Creating layer relu7
I0704 17:44:03.508255 26747 net.cpp:109] Creating Layer relu7
I0704 17:44:03.508258 26747 net.cpp:457] relu7 <- fc7
I0704 17:44:03.508262 26747 net.cpp:400] relu7 -> fc7 (in-place)
I0704 17:44:03.508270 26747 net.cpp:153] Setting up relu7
I0704 17:44:03.508272 26747 net.cpp:160] Top shape: 32 4096 (131072)
I0704 17:44:03.508273 26747 net.cpp:168] Memory required for data: 80086528
I0704 17:44:03.508275 26747 layer_factory.hpp:76] Creating layer drop7
I0704 17:44:03.508280 26747 net.cpp:109] Creating Layer drop7
I0704 17:44:03.508281 26747 net.cpp:457] drop7 <- fc7
I0704 17:44:03.508283 26747 net.cpp:400] drop7 -> fc7 (in-place)
I0704 17:44:03.508301 26747 net.cpp:153] Setting up drop7
I0704 17:44:03.508304 26747 net.cpp:160] Top shape: 32 4096 (131072)
I0704 17:44:03.508306 26747 net.cpp:168] Memory required for data: 80610816
I0704 17:44:03.508307 26747 layer_factory.hpp:76] Creating layer fc8_species
I0704 17:44:03.508312 26747 net.cpp:109] Creating Layer fc8_species
I0704 17:44:03.508313 26747 net.cpp:457] fc8_species <- fc7
I0704 17:44:03.508316 26747 net.cpp:414] fc8_species -> fc8_species
I0704 17:44:03.581446 26747 net.cpp:153] Setting up fc8_species
I0704 17:44:03.581465 26747 net.cpp:160] Top shape: 32 967 (30944)
I0704 17:44:03.581468 26747 net.cpp:168] Memory required for data: 80734592
I0704 17:44:03.581476 26747 layer_factory.hpp:76] Creating layer loss
I0704 17:44:03.581490 26747 net.cpp:109] Creating Layer loss
I0704 17:44:03.581493 26747 net.cpp:457] loss <- fc8_species
I0704 17:44:03.581496 26747 net.cpp:457] loss <- label
I0704 17:44:03.581499 26747 net.cpp:414] loss -> loss
I0704 17:44:03.581506 26747 layer_factory.hpp:76] Creating layer loss
…
I0704 17:44:03.582468 26747 net.cpp:52] Initializing net from parameters:
state {
phase: TEST
}
layer {
name: "data"
type: "Data"
top: "data"
include {
phase: TEST
}
transform_param {
mean_file: "/home/ffw/scratch/plantClef/scatnet_output/train/a4_m2_s1s2s4s8_f2/lmdb_mean_coeff.binaryproto"
}
data_param {
source: "/home/ffw/scratch/plantClef/scatnet_output/test/a4_m2_s1s2s4s8_f2/lmdb_data"
batch_size: 32
backend: LMDB
}
}
layer {
name: "label"
type: "Data"
top: "label"
include {
phase: TEST
}
data_param {
source: "/home/ffw/scratch/plantClef/scatnet_output/test/a4_m2_s1s2s4s8_f2/lmdb_labels"
batch_size: 32
backend: LMDB
}
}
layer {
name: "conv4"
type: "Convolution"
bottom: "data"
top: "conv4"
param {
lr_mult: 1
decay_mult: 1
}
param {
lr_mult: 2
decay_mult: 0
}
convolution_param {
num_output: 384
pad: 1
kernel_size: 3
group: 1
weight_filler {
type: "gaussian"
std: 0.01
}
bias_filler {
type: "constant"
value: 0.1
}
}
}
layer {
name: "relu4"
type: "ReLU"
bottom: "conv4"
top: "conv4"
}
layer {
name: "conv5"
type: "Convolution"
bottom: "conv4"
top: "conv5"
param {
lr_mult: 1
decay_mult: 1
}
param {
lr_mult: 2
decay_mult: 0
}
convolution_param {
num_output: 256
pad: 1
kernel_size: 3
group: 1
weight_filler {
type: "gaussian"
std: 0.01
}
bias_filler {
type: "constant"
value: 0.1
}
}
}
layer {
name: "relu5"
type: "ReLU"
bottom: "conv5"
top: "conv5"
}
layer {
name: "pool5"
type: "Pooling"
bottom: "conv5"
top: "pool5"
pooling_param {
pool: MAX
kernel_size: 3
stride: 2
}
}
layer {
name: "fc6"
type: "InnerProduct"
bottom: "pool5"
top: "fc6"
param {
lr_mult: 1
decay_mult: 1
}
param {
lr_mult: 2
decay_mult: 0
}
inner_product_param {
num_output: 4096
weight_filler {
type: "gaussian"
std: 0.005
}
bias_filler {
type: "constant"
value: 0.1
}
}
}
layer {
name: "relu6"
type: "ReLU"
bottom: "fc6"
top: "fc6"
}
layer {
name: "drop6"
type: "Dropout"
bottom: "fc6"
top: "fc6"
dropout_param {
dropout_ratio: 0.5
}
}
layer {
name: "fc7"
type: "InnerProduct"
bottom: "fc6"
top: "fc7"
param {
lr_mult: 1
decay_mult: 1
}
param {
lr_mult: 2
decay_mult: 0
}
inner_product_param {
num_output: 4096
weight_filler {
type: "gaussian"
std: 0.005
}
bias_filler {
type: "constant"
value: 0.1
}
}
}
layer {
name: "relu7"
type: "ReLU"
bottom: "fc7"
top: "fc7"
}
layer {
name: "drop7"
type: "Dropout"
bottom: "fc7"
top: "fc7"
dropout_param {
dropout_ratio: 0.5
}
}
layer {
name: "fc8_species"
type: "InnerProduct"
bottom: "fc7"
top: "fc8_species"
param {
lr_mult: 1
decay_mult: 1
}
param {
lr_mult: 2
decay_mult: 0
}
inner_product_param {
num_output: 967
weight_filler {
type: "gaussian"
std: 0.005
}
bias_filler {
type: "constant"
value: 0.1
}
}
}
layer {
name: "loss"
type: "SoftmaxWithLoss"
bottom: "fc8_species"
bottom: "label"
top: "loss"
}
layer {
name: "accuracy"
type: "Accuracy"
bottom: "fc8_species"
bottom: "label"
top: "accuracy"
include {
phase: TEST
}
}
I0704 17:44:03.582517 26747 layer_factory.hpp:76] Creating layer data
I0704 17:44:03.582568 26747 net.cpp:109] Creating Layer data
I0704 17:44:03.582582 26747 net.cpp:414] data -> data
I0704 17:44:03.582587 26747 data_transformer.cpp:25] Loading mean file from: /home/ffw/scratch/plantClef/scatnet_output/train/a4_m2_s1s2s4s8_f2/lmdb_mean_coeff.binaryproto
I0704 17:44:03.585113 26765 db_lmdb.cpp:36] Opened lmdb /home/ffw/scratch/plantClef/scatnet_output/test/a4_m2_s1s2s4s8_f2/lmdb_data
I0704 17:44:03.585253 26747 data_layer.cpp:45] output data size: 32,339,19,19
I0704 17:44:03.602900 26747 net.cpp:153] Setting up data
I0704 17:44:03.602918 26747 net.cpp:160] Top shape: 32 339 19 19 (3916128)
I0704 17:44:03.602921 26747 net.cpp:168] Memory required for data: 15664512
I0704 17:44:03.602926 26747 layer_factory.hpp:76] Creating layer label
I0704 17:44:03.602965 26747 net.cpp:109] Creating Layer label
I0704 17:44:03.602980 26747 net.cpp:414] label -> label
I0704 17:44:03.604396 26767 db_lmdb.cpp:36] Opened lmdb /home/ffw/scratch/plantClef/scatnet_output/test/a4_m2_s1s2s4s8_f2/lmdb_labels
I0704 17:44:03.605607 26747 data_layer.cpp:45] output data size: 32,1,1,1
I0704 17:44:03.605706 26747 net.cpp:153] Setting up label
I0704 17:44:03.605713 26747 net.cpp:160] Top shape: 32 1 1 1 (32)
I0704 17:44:03.605715 26747 net.cpp:168] Memory required for data: 15664640
I0704 17:44:03.605718 26747 layer_factory.hpp:76] Creating layer label_label_0_split
I0704 17:44:03.605723 26747 net.cpp:109] Creating Layer label_label_0_split
I0704 17:44:03.605726 26747 net.cpp:457] label_label_0_split <- label
I0704 17:44:03.605729 26747 net.cpp:414] label_label_0_split -> label_label_0_split_0
I0704 17:44:03.605733 26747 net.cpp:414] label_label_0_split -> label_label_0_split_1
I0704 17:44:03.605789 26747 net.cpp:153] Setting up label_label_0_split
I0704 17:44:03.605794 26747 net.cpp:160] Top shape: 32 1 1 1 (32)
I0704 17:44:03.605797 26747 net.cpp:160] Top shape: 32 1 1 1 (32)
I0704 17:44:03.605798 26747 net.cpp:168] Memory required for data: 15664896
I0704 17:44:03.605800 26747 layer_factory.hpp:76] Creating layer conv4
I0704 17:44:03.605806 26747 net.cpp:109] Creating Layer conv4
I0704 17:44:03.605809 26747 net.cpp:457] conv4 <- data
I0704 17:44:03.605813 26747 net.cpp:414] conv4 -> conv4
I0704 17:44:03.629101 26747 net.cpp:153] Setting up conv4
I0704 17:44:03.629122 26747 net.cpp:160] Top shape: 32 384 19 19 (4435968)
I0704 17:44:03.629123 26747 net.cpp:168] Memory required for data: 33408768
I0704 17:44:03.629132 26747 layer_factory.hpp:76] Creating layer relu4
I0704 17:44:03.629139 26747 net.cpp:109] Creating Layer relu4
I0704 17:44:03.629143 26747 net.cpp:457] relu4 <- conv4
I0704 17:44:03.629147 26747 net.cpp:400] relu4 -> conv4 (in-place)
I0704 17:44:03.629153 26747 net.cpp:153] Setting up relu4
I0704 17:44:03.629155 26747 net.cpp:160] Top shape: 32 384 19 19 (4435968)
I0704 17:44:03.629158 26747 net.cpp:168] Memory required for data: 51152640
I0704 17:44:03.629159 26747 layer_factory.hpp:76] Creating layer conv5
I0704 17:44:03.629165 26747 net.cpp:109] Creating Layer conv5
I0704 17:44:03.629168 26747 net.cpp:457] conv5 <- conv4
I0704 17:44:03.629170 26747 net.cpp:414] conv5 -> conv5
I0704 17:44:03.646248 26747 net.cpp:153] Setting up conv5
I0704 17:44:03.646267 26747 net.cpp:160] Top shape: 32 256 19 19 (2957312)
I0704 17:44:03.646270 26747 net.cpp:168] Memory required for data: 62981888
I0704 17:44:03.646278 26747 layer_factory.hpp:76] Creating layer relu5
I0704 17:44:03.646284 26747 net.cpp:109] Creating Layer relu5
I0704 17:44:03.646287 26747 net.cpp:457] relu5 <- conv5
I0704 17:44:03.646291 26747 net.cpp:400] relu5 -> conv5 (in-place)
I0704 17:44:03.646297 26747 net.cpp:153] Setting up relu5
I0704 17:44:03.646317 26747 net.cpp:160] Top shape: 32 256 19 19 (2957312)
I0704 17:44:03.646319 26747 net.cpp:168] Memory required for data: 74811136
I0704 17:44:03.646322 26747 layer_factory.hpp:76] Creating layer pool5
I0704 17:44:03.646325 26747 net.cpp:109] Creating Layer pool5
I0704 17:44:03.646327 26747 net.cpp:457] pool5 <- conv5
I0704 17:44:03.646330 26747 net.cpp:414] pool5 -> pool5
I0704 17:44:03.646358 26747 net.cpp:153] Setting up pool5
I0704 17:44:03.646360 26747 net.cpp:160] Top shape: 32 256 9 9 (663552)
I0704 17:44:03.646363 26747 net.cpp:168] Memory required for data: 77465344
I0704 17:44:03.646363 26747 layer_factory.hpp:76] Creating layer fc6
I0704 17:44:03.646369 26747 net.cpp:109] Creating Layer fc6
I0704 17:44:03.646371 26747 net.cpp:457] fc6 <- pool5
I0704 17:44:03.646374 26747 net.cpp:414] fc6 -> fc6
I0704 17:44:05.176533 26747 net.cpp:153] Setting up fc6
I0704 17:44:05.176553 26747 net.cpp:160] Top shape: 32 4096 (131072)
I0704 17:44:05.176556 26747 net.cpp:168] Memory required for data: 77989632
I0704 17:44:05.176565 26747 layer_factory.hpp:76] Creating layer relu6
I0704 17:44:05.176571 26747 net.cpp:109] Creating Layer relu6
I0704 17:44:05.176574 26747 net.cpp:457] relu6 <- fc6
I0704 17:44:05.176578 26747 net.cpp:400] relu6 -> fc6 (in-place)
I0704 17:44:05.176585 26747 net.cpp:153] Setting up relu6
I0704 17:44:05.176589 26747 net.cpp:160] Top shape: 32 4096 (131072)
I0704 17:44:05.176590 26747 net.cpp:168] Memory required for data: 78513920
I0704 17:44:05.176591 26747 layer_factory.hpp:76] Creating layer drop6
I0704 17:44:05.176596 26747 net.cpp:109] Creating Layer drop6
I0704 17:44:05.176597 26747 net.cpp:457] drop6 <- fc6
I0704 17:44:05.176600 26747 net.cpp:400] drop6 -> fc6 (in-place)
I0704 17:44:05.176618 26747 net.cpp:153] Setting up drop6
I0704 17:44:05.176621 26747 net.cpp:160] Top shape: 32 4096 (131072)
I0704 17:44:05.176623 26747 net.cpp:168] Memory required for data: 79038208
I0704 17:44:05.176625 26747 layer_factory.hpp:76] Creating layer fc7
I0704 17:44:05.176630 26747 net.cpp:109] Creating Layer fc7
I0704 17:44:05.176631 26747 net.cpp:457] fc7 <- fc6
I0704 17:44:05.176635 26747 net.cpp:414] fc7 -> fc7
I0704 17:44:05.479632 26747 net.cpp:153] Setting up fc7
I0704 17:44:05.479650 26747 net.cpp:160] Top shape: 32 4096 (131072)
I0704 17:44:05.479653 26747 net.cpp:168] Memory required for data: 79562496
I0704 17:44:05.479658 26747 layer_factory.hpp:76] Creating layer relu7
I0704 17:44:05.479665 26747 net.cpp:109] Creating Layer relu7
I0704 17:44:05.479668 26747 net.cpp:457] relu7 <- fc7
I0704 17:44:05.479672 26747 net.cpp:400] relu7 -> fc7 (in-place)
I0704 17:44:05.479679 26747 net.cpp:153] Setting up relu7
I0704 17:44:05.479682 26747 net.cpp:160] Top shape: 32 4096 (131072)
I0704 17:44:05.479683 26747 net.cpp:168] Memory required for data: 80086784
I0704 17:44:05.479686 26747 layer_factory.hpp:76] Creating layer drop7
I0704 17:44:05.479689 26747 net.cpp:109] Creating Layer drop7
I0704 17:44:05.479692 26747 net.cpp:457] drop7 <- fc7
I0704 17:44:05.479694 26747 net.cpp:400] drop7 -> fc7 (in-place)
I0704 17:44:05.479713 26747 net.cpp:153] Setting up drop7
I0704 17:44:05.479715 26747 net.cpp:160] Top shape: 32 4096 (131072)
I0704 17:44:05.479717 26747 net.cpp:168] Memory required for data: 80611072
I0704 17:44:05.479719 26747 layer_factory.hpp:76] Creating layer fc8_species
I0704 17:44:05.479724 26747 net.cpp:109] Creating Layer fc8_species
I0704 17:44:05.479727 26747 net.cpp:457] fc8_species <- fc7
I0704 17:44:05.479728 26747 net.cpp:414] fc8_species -> fc8_species
I0704 17:44:05.553048 26747 net.cpp:153] Setting up fc8_species
I0704 17:44:05.553066 26747 net.cpp:160] Top shape: 32 967 (30944)
I0704 17:44:05.553069 26747 net.cpp:168] Memory required for data: 80734848
I0704 17:44:05.553076 26747 layer_factory.hpp:76] Creating layer fc8_species_fc8_species_0_split
I0704 17:44:05.553083 26747 net.cpp:109] Creating Layer fc8_species_fc8_species_0_split
I0704 17:44:05.553086 26747 net.cpp:457] fc8_species_fc8_species_0_split <- fc8_species
I0704 17:44:05.553089 26747 net.cpp:414] fc8_species_fc8_species_0_split -> fc8_species_fc8_species_0_split_0
I0704 17:44:05.553112 26747 net.cpp:414] fc8_species_fc8_species_0_split -> fc8_species_fc8_species_0_split_1
I0704 17:44:05.553143 26747 net.cpp:153] Setting up fc8_species_fc8_species_0_split
I0704 17:44:05.553145 26747 net.cpp:160] Top shape: 32 967 (30944)
I0704 17:44:05.553148 26747 net.cpp:160] Top shape: 32 967 (30944)
I0704 17:44:05.553149 26747 net.cpp:168] Memory required for data: 80982400
I0704 17:44:05.553151 26747 layer_factory.hpp:76] Creating layer loss
I0704 17:44:05.553156 26747 net.cpp:109] Creating Layer loss
I0704 17:44:05.553158 26747 net.cpp:457] loss <- fc8_species_fc8_species_0_split_0
I0704 17:44:05.553161 26747 net.cpp:457] loss <- label_label_0_split_0
I0704 17:44:05.553164 26747 net.cpp:414] loss -> loss
…
