…
I0625 00:13:24.437132  4687 net.cpp:325] The NetState phase (0) differed from the phase (1) specified by a rule in layer data
I0625 00:13:24.437144  4687 net.cpp:325] The NetState phase (0) differed from the phase (1) specified by a rule in layer accuracy
I0625 00:13:24.437238  4687 net.cpp:52] Initializing net from parameters:
state {
phase: TRAIN
}
layer {
name: "data"
type: "Data"
top: "data"
top: "label"
include {
phase: TRAIN
}
transform_param {
mirror: true
crop_size: 227
mean_file: "/usr/share/digits/digits/jobs/20160624-120053-bb9a/mean.binaryproto"
}
data_param {
source: "/usr/share/digits/digits/jobs/20160624-120053-bb9a/train_db"
batch_size: 100
backend: LMDB
}
}
layer {
name: "conv1"
type: "Convolution"
bottom: "data"
top: "conv1"
param {
lr_mult: 1
decay_mult: 1
}
param {
lr_mult: 2
decay_mult: 0
}
convolution_param {
num_output: 96
kernel_size: 11
stride: 4
weight_filler {
type: "gaussian"
std: 0.01
}
bias_filler {
type: "constant"
value: 0
}
}
}
layer {
name: "relu1"
type: "ReLU"
bottom: "conv1"
top: "conv1"
}
layer {
name: "norm1"
type: "LRN"
bottom: "conv1"
top: "norm1"
lrn_param {
local_size: 5
alpha: 0.0001
beta: 0.75
}
}
layer {
name: "pool1"
type: "Pooling"
bottom: "norm1"
top: "pool1"
pooling_param {
pool: MAX
kernel_size: 3
stride: 2
}
}
layer {
name: "conv2"
type: "Convolution"
bottom: "pool1"
top: "conv2"
param {
lr_mult: 1
decay_mult: 1
}
param {
lr_mult: 2
decay_mult: 0
}
convolution_param {
num_output: 256
pad: 2
kernel_size: 5
group: 2
weight_filler {
type: "gaussian"
std: 0.01
}
bias_filler {
type: "constant"
value: 0.1
}
}
}
layer {
name: "relu2"
type: "ReLU"
bottom: "conv2"
top: "conv2"
}
layer {
name: "norm2"
type: "LRN"
bottom: "conv2"
top: "norm2"
lrn_param {
local_size: 5
alpha: 0.0001
beta: 0.75
}
}
layer {
name: "pool2"
type: "Pooling"
bottom: "norm2"
top: "pool2"
pooling_param {
pool: MAX
kernel_size: 3
stride: 2
}
}
layer {
name: "conv3"
type: "Convolution"
bottom: "pool2"
top: "conv3"
param {
lr_mult: 1
decay_mult: 1
}
param {
lr_mult: 2
decay_mult: 0
}
convolution_param {
num_output: 384
pad: 1
kernel_size: 3
weight_filler {
type: "gaussian"
std: 0.01
}
bias_filler {
type: "constant"
value: 0
}
}
}
layer {
name: "relu3"
type: "ReLU"
bottom: "conv3"
top: "conv3"
}
layer {
name: "conv4"
type: "Convolution"
bottom: "conv3"
top: "conv4"
param {
lr_mult: 1
decay_mult: 1
}
param {
lr_mult: 2
decay_mult: 0
}
convolution_param {
num_output: 384
pad: 1
kernel_size: 3
group: 2
weight_filler {
type: "gaussian"
std: 0.01
}
bias_filler {
type: "constant"
value: 0.1
}
}
}
layer {
name: "relu4"
type: "ReLU"
bottom: "conv4"
top: "conv4"
}
layer {
name: "conv5_clean"
type: "Convolution"
bottom: "conv4"
top: "conv5_clean"
param {
lr_mult: 1
decay_mult: 1
}
param {
lr_mult: 2
decay_mult: 0
}
convolution_param {
num_output: 256
pad: 1
kernel_size: 3
group: 2
weight_filler {
type: "gaussian"
std: 0.01
}
bias_filler {
type: "constant"
value: 0.1
}
}
}
layer {
name: "relu5_clean"
type: "ReLU"
bottom: "conv5_clean"
top: "conv5_clean"
}
layer {
name: "pool5"
type: "Pooling"
bottom: "conv5_clean"
top: "pool5"
pooling_param {
pool: MAX
kernel_size: 3
stride: 2
}
}
layer {
name: "fc6_clean"
type: "InnerProduct"
bottom: "pool5"
top: "fc6_clean"
param {
lr_mult: 1
decay_mult: 1
}
param {
lr_mult: 2
decay_mult: 0
}
inner_product_param {
num_output: 4096
weight_filler {
type: "gaussian"
std: 0.005
}
bias_filler {
type: "constant"
value: 0.1
}
}
}
layer {
name: "relu6"
type: "ReLU"
bottom: "fc6_clean"
top: "fc6_clean"
}
layer {
name: "drop6"
type: "Dropout"
bottom: "fc6_clean"
top: "fc6_clean"
dropout_param {
dropout_ratio: 0.5
}
}
layer {
name: "fc7_clean"
type: "InnerProduct"
bottom: "fc6_clean"
top: "fc7_clean"
param {
lr_mult: 1
decay_mult: 1
}
param {
lr_mult: 2
decay_mult: 0
}
inner_product_param {
num_output: 4096
weight_filler {
type: "gaussian"
std: 0.005
}
bias_filler {
type: "constant"
value: 0.1
}
}
}
layer {
name: "relu7"
type: "ReLU"
bottom: "fc7_clean"
top: "fc7_clean"
}
layer {
name: "drop7"
type: "Dropout"
bottom: "fc7_clean"
top: "fc7_clean"
dropout_param {
dropout_ratio: 0.5
}
}
layer {
name: "fc8_species"
type: "InnerProduct"
bottom: "fc7_clean"
top: "fc8_species"
param {
lr_mult: 1
decay_mult: 1
}
param {
lr_mult: 2
decay_mult: 0
}
inner_product_param {
num_output: 967
weight_filler {
type: "gaussian"
std: 0.01
}
bias_filler {
type: "constant"
value: 0
}
}
}
layer {
name: "loss"
type: "SoftmaxWithLoss"
bottom: "fc8_species"
bottom: "label"
top: "loss"
}
I0625 00:13:24.437317  4687 layer_factory.hpp:76] Creating layer data
I0625 00:13:24.437392  4687 net.cpp:109] Creating Layer data
I0625 00:13:24.437397  4687 net.cpp:414] data -> data
I0625 00:13:24.437407  4687 net.cpp:414] data -> label
I0625 00:13:24.437412  4687 data_transformer.cpp:25] Loading mean file from: /usr/share/digits/digits/jobs/20160624-120053-bb9a/mean.binaryproto
I0625 00:13:24.438107  4699 db_lmdb.cpp:36] Opened lmdb /usr/share/digits/digits/jobs/20160624-120053-bb9a/train_db
I0625 00:13:24.441051  4687 data_layer.cpp:45] output data size: 100,3,227,227
I0625 00:13:24.504745  4687 net.cpp:153] Setting up data
I0625 00:13:24.504779  4687 net.cpp:160] Top shape: 100 3 227 227 (15458700)
I0625 00:13:24.504784  4687 net.cpp:160] Top shape: 100 (100)
I0625 00:13:24.504788  4687 net.cpp:168] Memory required for data: 61835200
I0625 00:13:24.504794  4687 layer_factory.hpp:76] Creating layer conv1
I0625 00:13:24.504803  4687 net.cpp:109] Creating Layer conv1
I0625 00:13:24.504807  4687 net.cpp:457] conv1 <- data
I0625 00:13:24.504815  4687 net.cpp:414] conv1 -> conv1
I0625 00:13:24.506219  4687 net.cpp:153] Setting up conv1
I0625 00:13:24.506229  4687 net.cpp:160] Top shape: 100 96 55 55 (29040000)
I0625 00:13:24.506232  4687 net.cpp:168] Memory required for data: 177995200
I0625 00:13:24.506240  4687 layer_factory.hpp:76] Creating layer relu1
I0625 00:13:24.506247  4687 net.cpp:109] Creating Layer relu1
I0625 00:13:24.506249  4687 net.cpp:457] relu1 <- conv1
I0625 00:13:24.506253  4687 net.cpp:400] relu1 -> conv1 (in-place)
I0625 00:13:24.506263  4687 net.cpp:153] Setting up relu1
I0625 00:13:24.506266  4687 net.cpp:160] Top shape: 100 96 55 55 (29040000)
I0625 00:13:24.506268  4687 net.cpp:168] Memory required for data: 294155200
I0625 00:13:24.506270  4687 layer_factory.hpp:76] Creating layer norm1
I0625 00:13:24.506278  4687 net.cpp:109] Creating Layer norm1
I0625 00:13:24.506278  4687 net.cpp:457] norm1 <- conv1
I0625 00:13:24.506281  4687 net.cpp:414] norm1 -> norm1
I0625 00:13:24.506306  4687 net.cpp:153] Setting up norm1
I0625 00:13:24.506309  4687 net.cpp:160] Top shape: 100 96 55 55 (29040000)
I0625 00:13:24.506311  4687 net.cpp:168] Memory required for data: 410315200
I0625 00:13:24.506314  4687 layer_factory.hpp:76] Creating layer pool1
I0625 00:13:24.506317  4687 net.cpp:109] Creating Layer pool1
I0625 00:13:24.506332  4687 net.cpp:457] pool1 <- norm1
I0625 00:13:24.506335  4687 net.cpp:414] pool1 -> pool1
I0625 00:13:24.506356  4687 net.cpp:153] Setting up pool1
I0625 00:13:24.506359  4687 net.cpp:160] Top shape: 100 96 27 27 (6998400)
I0625 00:13:24.506361  4687 net.cpp:168] Memory required for data: 438308800
I0625 00:13:24.506362  4687 layer_factory.hpp:76] Creating layer conv2
I0625 00:13:24.506368  4687 net.cpp:109] Creating Layer conv2
I0625 00:13:24.506369  4687 net.cpp:457] conv2 <- pool1
I0625 00:13:24.506372  4687 net.cpp:414] conv2 -> conv2
I0625 00:13:24.513077  4687 net.cpp:153] Setting up conv2
I0625 00:13:24.513087  4687 net.cpp:160] Top shape: 100 256 27 27 (18662400)
I0625 00:13:24.513088  4687 net.cpp:168] Memory required for data: 512958400
I0625 00:13:24.513094  4687 layer_factory.hpp:76] Creating layer relu2
I0625 00:13:24.513098  4687 net.cpp:109] Creating Layer relu2
I0625 00:13:24.513100  4687 net.cpp:457] relu2 <- conv2
I0625 00:13:24.513103  4687 net.cpp:400] relu2 -> conv2 (in-place)
I0625 00:13:24.513108  4687 net.cpp:153] Setting up relu2
I0625 00:13:24.513110  4687 net.cpp:160] Top shape: 100 256 27 27 (18662400)
I0625 00:13:24.513113  4687 net.cpp:168] Memory required for data: 587608000
I0625 00:13:24.513114  4687 layer_factory.hpp:76] Creating layer norm2
I0625 00:13:24.513118  4687 net.cpp:109] Creating Layer norm2
I0625 00:13:24.513120  4687 net.cpp:457] norm2 <- conv2
I0625 00:13:24.513123  4687 net.cpp:414] norm2 -> norm2
I0625 00:13:24.513144  4687 net.cpp:153] Setting up norm2
I0625 00:13:24.513146  4687 net.cpp:160] Top shape: 100 256 27 27 (18662400)
I0625 00:13:24.513147  4687 net.cpp:168] Memory required for data: 662257600
I0625 00:13:24.513149  4687 layer_factory.hpp:76] Creating layer pool2
I0625 00:13:24.513154  4687 net.cpp:109] Creating Layer pool2
I0625 00:13:24.513155  4687 net.cpp:457] pool2 <- norm2
I0625 00:13:24.513157  4687 net.cpp:414] pool2 -> pool2
I0625 00:13:24.513173  4687 net.cpp:153] Setting up pool2
I0625 00:13:24.513176  4687 net.cpp:160] Top shape: 100 256 13 13 (4326400)
I0625 00:13:24.513178  4687 net.cpp:168] Memory required for data: 679563200
I0625 00:13:24.513180  4687 layer_factory.hpp:76] Creating layer conv3
I0625 00:13:24.513185  4687 net.cpp:109] Creating Layer conv3
I0625 00:13:24.513185  4687 net.cpp:457] conv3 <- pool2
I0625 00:13:24.513190  4687 net.cpp:414] conv3 -> conv3
I0625 00:13:24.529400  4687 net.cpp:153] Setting up conv3
I0625 00:13:24.529414  4687 net.cpp:160] Top shape: 100 384 13 13 (6489600)
I0625 00:13:24.529417  4687 net.cpp:168] Memory required for data: 705521600
I0625 00:13:24.529425  4687 layer_factory.hpp:76] Creating layer relu3
I0625 00:13:24.529430  4687 net.cpp:109] Creating Layer relu3
I0625 00:13:24.529433  4687 net.cpp:457] relu3 <- conv3
I0625 00:13:24.529438  4687 net.cpp:400] relu3 -> conv3 (in-place)
I0625 00:13:24.529443  4687 net.cpp:153] Setting up relu3
I0625 00:13:24.529444  4687 net.cpp:160] Top shape: 100 384 13 13 (6489600)
I0625 00:13:24.529446  4687 net.cpp:168] Memory required for data: 731480000
I0625 00:13:24.529448  4687 layer_factory.hpp:76] Creating layer conv4
I0625 00:13:24.529453  4687 net.cpp:109] Creating Layer conv4
I0625 00:13:24.529455  4687 net.cpp:457] conv4 <- conv3
I0625 00:13:24.529458  4687 net.cpp:414] conv4 -> conv4
I0625 00:13:24.541757  4687 net.cpp:153] Setting up conv4
I0625 00:13:24.541771  4687 net.cpp:160] Top shape: 100 384 13 13 (6489600)
I0625 00:13:24.541774  4687 net.cpp:168] Memory required for data: 757438400
I0625 00:13:24.541779  4687 layer_factory.hpp:76] Creating layer relu4
I0625 00:13:24.541784  4687 net.cpp:109] Creating Layer relu4
I0625 00:13:24.541785  4687 net.cpp:457] relu4 <- conv4
I0625 00:13:24.541790  4687 net.cpp:400] relu4 -> conv4 (in-place)
I0625 00:13:24.541795  4687 net.cpp:153] Setting up relu4
I0625 00:13:24.541797  4687 net.cpp:160] Top shape: 100 384 13 13 (6489600)
I0625 00:13:24.541798  4687 net.cpp:168] Memory required for data: 783396800
I0625 00:13:24.541800  4687 layer_factory.hpp:76] Creating layer conv5_clean
I0625 00:13:24.541820  4687 net.cpp:109] Creating Layer conv5_clean
I0625 00:13:24.541822  4687 net.cpp:457] conv5_clean <- conv4
I0625 00:13:24.541826  4687 net.cpp:414] conv5_clean -> conv5_clean
I0625 00:13:24.550004  4687 net.cpp:153] Setting up conv5_clean
I0625 00:13:24.550014  4687 net.cpp:160] Top shape: 100 256 13 13 (4326400)
I0625 00:13:24.550014  4687 net.cpp:168] Memory required for data: 800702400
I0625 00:13:24.550021  4687 layer_factory.hpp:76] Creating layer relu5_clean
I0625 00:13:24.550026  4687 net.cpp:109] Creating Layer relu5_clean
I0625 00:13:24.550029  4687 net.cpp:457] relu5_clean <- conv5_clean
I0625 00:13:24.550031  4687 net.cpp:400] relu5_clean -> conv5_clean (in-place)
I0625 00:13:24.550035  4687 net.cpp:153] Setting up relu5_clean
I0625 00:13:24.550038  4687 net.cpp:160] Top shape: 100 256 13 13 (4326400)
I0625 00:13:24.550040  4687 net.cpp:168] Memory required for data: 818008000
I0625 00:13:24.550041  4687 layer_factory.hpp:76] Creating layer pool5
I0625 00:13:24.550045  4687 net.cpp:109] Creating Layer pool5
I0625 00:13:24.550046  4687 net.cpp:457] pool5 <- conv5_clean
I0625 00:13:24.550050  4687 net.cpp:414] pool5 -> pool5
I0625 00:13:24.550070  4687 net.cpp:153] Setting up pool5
I0625 00:13:24.550072  4687 net.cpp:160] Top shape: 100 256 6 6 (921600)
I0625 00:13:24.550074  4687 net.cpp:168] Memory required for data: 821694400
I0625 00:13:24.550076  4687 layer_factory.hpp:76] Creating layer fc6_clean
I0625 00:13:24.550081  4687 net.cpp:109] Creating Layer fc6_clean
I0625 00:13:24.550083  4687 net.cpp:457] fc6_clean <- pool5
I0625 00:13:24.550086  4687 net.cpp:414] fc6_clean -> fc6_clean
I0625 00:13:25.231257  4687 net.cpp:153] Setting up fc6_clean
I0625 00:13:25.231274  4687 net.cpp:160] Top shape: 100 4096 (409600)
I0625 00:13:25.231277  4687 net.cpp:168] Memory required for data: 823332800
I0625 00:13:25.231283  4687 layer_factory.hpp:76] Creating layer relu6
I0625 00:13:25.231289  4687 net.cpp:109] Creating Layer relu6
I0625 00:13:25.231292  4687 net.cpp:457] relu6 <- fc6_clean
I0625 00:13:25.231297  4687 net.cpp:400] relu6 -> fc6_clean (in-place)
I0625 00:13:25.231303  4687 net.cpp:153] Setting up relu6
I0625 00:13:25.231305  4687 net.cpp:160] Top shape: 100 4096 (409600)
I0625 00:13:25.231307  4687 net.cpp:168] Memory required for data: 824971200
I0625 00:13:25.231309  4687 layer_factory.hpp:76] Creating layer drop6
I0625 00:13:25.231319  4687 net.cpp:109] Creating Layer drop6
I0625 00:13:25.231323  4687 net.cpp:457] drop6 <- fc6_clean
I0625 00:13:25.231325  4687 net.cpp:400] drop6 -> fc6_clean (in-place)
I0625 00:13:25.231343  4687 net.cpp:153] Setting up drop6
I0625 00:13:25.231345  4687 net.cpp:160] Top shape: 100 4096 (409600)
I0625 00:13:25.231348  4687 net.cpp:168] Memory required for data: 826609600
I0625 00:13:25.231349  4687 layer_factory.hpp:76] Creating layer fc7_clean
I0625 00:13:25.231354  4687 net.cpp:109] Creating Layer fc7_clean
I0625 00:13:25.231356  4687 net.cpp:457] fc7_clean <- fc6_clean
I0625 00:13:25.231359  4687 net.cpp:414] fc7_clean -> fc7_clean
I0625 00:13:25.580044  4687 net.cpp:153] Setting up fc7_clean
I0625 00:13:25.580062  4687 net.cpp:160] Top shape: 100 4096 (409600)
I0625 00:13:25.580065  4687 net.cpp:168] Memory required for data: 828248000
I0625 00:13:25.580071  4687 layer_factory.hpp:76] Creating layer relu7
I0625 00:13:25.580077  4687 net.cpp:109] Creating Layer relu7
I0625 00:13:25.580080  4687 net.cpp:457] relu7 <- fc7_clean
I0625 00:13:25.580085  4687 net.cpp:400] relu7 -> fc7_clean (in-place)
I0625 00:13:25.580091  4687 net.cpp:153] Setting up relu7
I0625 00:13:25.580093  4687 net.cpp:160] Top shape: 100 4096 (409600)
I0625 00:13:25.580096  4687 net.cpp:168] Memory required for data: 829886400
I0625 00:13:25.580097  4687 layer_factory.hpp:76] Creating layer drop7
I0625 00:13:25.580102  4687 net.cpp:109] Creating Layer drop7
I0625 00:13:25.580104  4687 net.cpp:457] drop7 <- fc7_clean
I0625 00:13:25.580106  4687 net.cpp:400] drop7 -> fc7_clean (in-place)
I0625 00:13:25.580123  4687 net.cpp:153] Setting up drop7
I0625 00:13:25.580143  4687 net.cpp:160] Top shape: 100 4096 (409600)
I0625 00:13:25.580145  4687 net.cpp:168] Memory required for data: 831524800
I0625 00:13:25.580147  4687 layer_factory.hpp:76] Creating layer fc8_species
I0625 00:13:25.580152  4687 net.cpp:109] Creating Layer fc8_species
I0625 00:13:25.580154  4687 net.cpp:457] fc8_species <- fc7_clean
I0625 00:13:25.580157  4687 net.cpp:414] fc8_species -> fc8_species
I0625 00:13:25.651407  4687 net.cpp:153] Setting up fc8_species
I0625 00:13:25.651424  4687 net.cpp:160] Top shape: 100 967 (96700)
I0625 00:13:25.651427  4687 net.cpp:168] Memory required for data: 831911600
I0625 00:13:25.651433  4687 layer_factory.hpp:76] Creating layer loss
I0625 00:13:25.651439  4687 net.cpp:109] Creating Layer loss
I0625 00:13:25.651443  4687 net.cpp:457] loss <- fc8_species
I0625 00:13:25.651446  4687 net.cpp:457] loss <- label
I0625 00:13:25.651450  4687 net.cpp:414] loss -> loss
I0625 00:13:25.651458  4687 layer_factory.hpp:76] Creating layer loss
…
I0625 00:13:25.652349  4687 solver.cpp:187] Creating test net (#0) specified by net file: train_val.prototxt
I0625 00:13:25.652384  4687 net.cpp:325] The NetState phase (1) differed from the phase (0) specified by a rule in layer data
I0625 00:13:25.652509  4687 net.cpp:52] Initializing net from parameters:
state {
phase: TEST
}
layer {
name: "data"
type: "Data"
top: "data"
top: "label"
include {
phase: TEST
}
transform_param {
crop_size: 227
mean_file: "/usr/share/digits/digits/jobs/20160624-120053-bb9a/mean.binaryproto"
}
data_param {
source: "/usr/share/digits/digits/jobs/20160624-120053-bb9a/val_db"
batch_size: 100
backend: LMDB
}
}
layer {
name: "conv1"
type: "Convolution"
bottom: "data"
top: "conv1"
param {
lr_mult: 1
decay_mult: 1
}
param {
lr_mult: 2
decay_mult: 0
}
convolution_param {
num_output: 96
kernel_size: 11
stride: 4
weight_filler {
type: "gaussian"
std: 0.01
}
bias_filler {
type: "constant"
value: 0
}
}
}
layer {
name: "relu1"
type: "ReLU"
bottom: "conv1"
top: "conv1"
}
layer {
name: "norm1"
type: "LRN"
bottom: "conv1"
top: "norm1"
lrn_param {
local_size: 5
alpha: 0.0001
beta: 0.75
}
}
layer {
name: "pool1"
type: "Pooling"
bottom: "norm1"
top: "pool1"
pooling_param {
pool: MAX
kernel_size: 3
stride: 2
}
}
layer {
name: "conv2"
type: "Convolution"
bottom: "pool1"
top: "conv2"
param {
lr_mult: 1
decay_mult: 1
}
param {
lr_mult: 2
decay_mult: 0
}
convolution_param {
num_output: 256
pad: 2
kernel_size: 5
group: 2
weight_filler {
type: "gaussian"
std: 0.01
}
bias_filler {
type: "constant"
value: 0.1
}
}
}
layer {
name: "relu2"
type: "ReLU"
bottom: "conv2"
top: "conv2"
}
layer {
name: "norm2"
type: "LRN"
bottom: "conv2"
top: "norm2"
lrn_param {
local_size: 5
alpha: 0.0001
beta: 0.75
}
}
layer {
name: "pool2"
type: "Pooling"
bottom: "norm2"
top: "pool2"
pooling_param {
pool: MAX
kernel_size: 3
stride: 2
}
}
layer {
name: "conv3"
type: "Convolution"
bottom: "pool2"
top: "conv3"
param {
lr_mult: 1
decay_mult: 1
}
param {
lr_mult: 2
decay_mult: 0
}
convolution_param {
num_output: 384
pad: 1
kernel_size: 3
weight_filler {
type: "gaussian"
std: 0.01
}
bias_filler {
type: "constant"
value: 0
}
}
}
layer {
name: "relu3"
type: "ReLU"
bottom: "conv3"
top: "conv3"
}
layer {
name: "conv4"
type: "Convolution"
bottom: "conv3"
top: "conv4"
param {
lr_mult: 1
decay_mult: 1
}
param {
lr_mult: 2
decay_mult: 0
}
convolution_param {
num_output: 384
pad: 1
kernel_size: 3
group: 2
weight_filler {
type: "gaussian"
std: 0.01
}
bias_filler {
type: "constant"
value: 0.1
}
}
}
layer {
name: "relu4"
type: "ReLU"
bottom: "conv4"
top: "conv4"
}
layer {
name: "conv5_clean"
type: "Convolution"
bottom: "conv4"
top: "conv5_clean"
param {
lr_mult: 1
decay_mult: 1
}
param {
lr_mult: 2
decay_mult: 0
}
convolution_param {
num_output: 256
pad: 1
kernel_size: 3
group: 2
weight_filler {
type: "gaussian"
std: 0.01
}
bias_filler {
type: "constant"
value: 0.1
}
}
}
layer {
name: "relu5_clean"
type: "ReLU"
bottom: "conv5_clean"
top: "conv5_clean"
}
layer {
name: "pool5"
type: "Pooling"
bottom: "conv5_clean"
top: "pool5"
pooling_param {
pool: MAX
kernel_size: 3
stride: 2
}
}
layer {
name: "fc6_clean"
type: "InnerProduct"
bottom: "pool5"
top: "fc6_clean"
param {
lr_mult: 1
decay_mult: 1
}
param {
lr_mult: 2
decay_mult: 0
}
inner_product_param {
num_output: 4096
weight_filler {
type: "gaussian"
std: 0.005
}
bias_filler {
type: "constant"
value: 0.1
}
}
}
layer {
name: "relu6"
type: "ReLU"
bottom: "fc6_clean"
top: "fc6_clean"
}
layer {
name: "drop6"
type: "Dropout"
bottom: "fc6_clean"
top: "fc6_clean"
dropout_param {
dropout_ratio: 0.5
}
}
layer {
name: "fc7_clean"
type: "InnerProduct"
bottom: "fc6_clean"
top: "fc7_clean"
param {
lr_mult: 1
decay_mult: 1
}
param {
lr_mult: 2
decay_mult: 0
}
inner_product_param {
num_output: 4096
weight_filler {
type: "gaussian"
std: 0.005
}
bias_filler {
type: "constant"
value: 0.1
}
}
}
layer {
name: "relu7"
type: "ReLU"
bottom: "fc7_clean"
top: "fc7_clean"
}
layer {
name: "drop7"
type: "Dropout"
bottom: "fc7_clean"
top: "fc7_clean"
dropout_param {
dropout_ratio: 0.5
}
}
layer {
name: "fc8_species"
type: "InnerProduct"
bottom: "fc7_clean"
top: "fc8_species"
param {
lr_mult: 1
decay_mult: 1
}
param {
lr_mult: 2
decay_mult: 0
}
inner_product_param {
num_output: 967
weight_filler {
type: "gaussian"
std: 0.01
}
bias_filler {
type: "constant"
value: 0
}
}
}
layer {
name: "loss"
type: "SoftmaxWithLoss"
bottom: "fc8_species"
bottom: "label"
top: "loss"
}
layer {
name: "accuracy"
type: "Accuracy"
bottom: "fc8_species"
bottom: "label"
top: "accuracy"
include {
phase: TEST
}
}
I0625 00:13:25.652606  4687 layer_factory.hpp:76] Creating layer data
I0625 00:13:25.652680  4687 net.cpp:109] Creating Layer data
I0625 00:13:25.652684  4687 net.cpp:414] data -> data
I0625 00:13:25.652689  4687 net.cpp:414] data -> label
I0625 00:13:25.652693  4687 data_transformer.cpp:25] Loading mean file from: /usr/share/digits/digits/jobs/20160624-120053-bb9a/mean.binaryproto
I0625 00:13:25.653409  4701 db_lmdb.cpp:36] Opened lmdb /usr/share/digits/digits/jobs/20160624-120053-bb9a/val_db
I0625 00:13:25.656092  4687 data_layer.cpp:45] output data size: 100,3,227,227
I0625 00:13:25.718567  4687 net.cpp:153] Setting up data
I0625 00:13:25.718587  4687 net.cpp:160] Top shape: 100 3 227 227 (15458700)
I0625 00:13:25.718592  4687 net.cpp:160] Top shape: 100 (100)
I0625 00:13:25.718595  4687 net.cpp:168] Memory required for data: 61835200
I0625 00:13:25.718598  4687 layer_factory.hpp:76] Creating layer label_data_1_split
I0625 00:13:25.718610  4687 net.cpp:109] Creating Layer label_data_1_split
I0625 00:13:25.718612  4687 net.cpp:457] label_data_1_split <- label
I0625 00:13:25.718616  4687 net.cpp:414] label_data_1_split -> label_data_1_split_0
I0625 00:13:25.718621  4687 net.cpp:414] label_data_1_split -> label_data_1_split_1
I0625 00:13:25.718700  4687 net.cpp:153] Setting up label_data_1_split
I0625 00:13:25.718709  4687 net.cpp:160] Top shape: 100 (100)
I0625 00:13:25.718711  4687 net.cpp:160] Top shape: 100 (100)
I0625 00:13:25.718713  4687 net.cpp:168] Memory required for data: 61836000
I0625 00:13:25.718715  4687 layer_factory.hpp:76] Creating layer conv1
I0625 00:13:25.718722  4687 net.cpp:109] Creating Layer conv1
I0625 00:13:25.718724  4687 net.cpp:457] conv1 <- data
I0625 00:13:25.718729  4687 net.cpp:414] conv1 -> conv1
I0625 00:13:25.719521  4687 net.cpp:153] Setting up conv1
I0625 00:13:25.719524  4687 net.cpp:160] Top shape: 100 96 55 55 (29040000)
I0625 00:13:25.719527  4687 net.cpp:168] Memory required for data: 177996000
I0625 00:13:25.719532  4687 layer_factory.hpp:76] Creating layer relu1
I0625 00:13:25.719537  4687 net.cpp:109] Creating Layer relu1
I0625 00:13:25.719538  4687 net.cpp:457] relu1 <- conv1
I0625 00:13:25.719542  4687 net.cpp:400] relu1 -> conv1 (in-place)
I0625 00:13:25.719545  4687 net.cpp:153] Setting up relu1
I0625 00:13:25.719547  4687 net.cpp:160] Top shape: 100 96 55 55 (29040000)
I0625 00:13:25.719549  4687 net.cpp:168] Memory required for data: 294156000
I0625 00:13:25.719550  4687 layer_factory.hpp:76] Creating layer norm1
I0625 00:13:25.719555  4687 net.cpp:109] Creating Layer norm1
I0625 00:13:25.719557  4687 net.cpp:457] norm1 <- conv1
I0625 00:13:25.719559  4687 net.cpp:414] norm1 -> norm1
I0625 00:13:25.719578  4687 net.cpp:153] Setting up norm1
I0625 00:13:25.719581  4687 net.cpp:160] Top shape: 100 96 55 55 (29040000)
I0625 00:13:25.719583  4687 net.cpp:168] Memory required for data: 410316000
I0625 00:13:25.719584  4687 layer_factory.hpp:76] Creating layer pool1
I0625 00:13:25.719588  4687 net.cpp:109] Creating Layer pool1
I0625 00:13:25.719590  4687 net.cpp:457] pool1 <- norm1
I0625 00:13:25.719593  4687 net.cpp:414] pool1 -> pool1
I0625 00:13:25.719610  4687 net.cpp:153] Setting up pool1
I0625 00:13:25.719612  4687 net.cpp:160] Top shape: 100 96 27 27 (6998400)
I0625 00:13:25.719614  4687 net.cpp:168] Memory required for data: 438309600
I0625 00:13:25.719615  4687 layer_factory.hpp:76] Creating layer conv2
I0625 00:13:25.719619  4687 net.cpp:109] Creating Layer conv2
I0625 00:13:25.719621  4687 net.cpp:457] conv2 <- pool1
I0625 00:13:25.719640  4687 net.cpp:414] conv2 -> conv2
I0625 00:13:25.726362  4687 net.cpp:153] Setting up conv2
I0625 00:13:25.726371  4687 net.cpp:160] Top shape: 100 256 27 27 (18662400)
I0625 00:13:25.726372  4687 net.cpp:168] Memory required for data: 512959200
I0625 00:13:25.726377  4687 layer_factory.hpp:76] Creating layer relu2
I0625 00:13:25.726382  4687 net.cpp:109] Creating Layer relu2
I0625 00:13:25.726383  4687 net.cpp:457] relu2 <- conv2
I0625 00:13:25.726387  4687 net.cpp:400] relu2 -> conv2 (in-place)
I0625 00:13:25.726392  4687 net.cpp:153] Setting up relu2
I0625 00:13:25.726393  4687 net.cpp:160] Top shape: 100 256 27 27 (18662400)
I0625 00:13:25.726395  4687 net.cpp:168] Memory required for data: 587608800
I0625 00:13:25.726397  4687 layer_factory.hpp:76] Creating layer norm2
I0625 00:13:25.726402  4687 net.cpp:109] Creating Layer norm2
I0625 00:13:25.726403  4687 net.cpp:457] norm2 <- conv2
I0625 00:13:25.726405  4687 net.cpp:414] norm2 -> norm2
I0625 00:13:25.726426  4687 net.cpp:153] Setting up norm2
I0625 00:13:25.726429  4687 net.cpp:160] Top shape: 100 256 27 27 (18662400)
I0625 00:13:25.726431  4687 net.cpp:168] Memory required for data: 662258400
I0625 00:13:25.726433  4687 layer_factory.hpp:76] Creating layer pool2
I0625 00:13:25.726436  4687 net.cpp:109] Creating Layer pool2
I0625 00:13:25.726438  4687 net.cpp:457] pool2 <- norm2
I0625 00:13:25.726441  4687 net.cpp:414] pool2 -> pool2
I0625 00:13:25.726457  4687 net.cpp:153] Setting up pool2
I0625 00:13:25.726460  4687 net.cpp:160] Top shape: 100 256 13 13 (4326400)
I0625 00:13:25.726461  4687 net.cpp:168] Memory required for data: 679564000
I0625 00:13:25.726464  4687 layer_factory.hpp:76] Creating layer conv3
I0625 00:13:25.726467  4687 net.cpp:109] Creating Layer conv3
I0625 00:13:25.726469  4687 net.cpp:457] conv3 <- pool2
I0625 00:13:25.726472  4687 net.cpp:414] conv3 -> conv3
I0625 00:13:25.742620  4687 net.cpp:153] Setting up conv3
I0625 00:13:25.742636  4687 net.cpp:160] Top shape: 100 384 13 13 (6489600)
I0625 00:13:25.742640  4687 net.cpp:168] Memory required for data: 705522400
I0625 00:13:25.742648  4687 layer_factory.hpp:76] Creating layer relu3
I0625 00:13:25.742657  4687 net.cpp:109] Creating Layer relu3
I0625 00:13:25.742661  4687 net.cpp:457] relu3 <- conv3
I0625 00:13:25.742666  4687 net.cpp:400] relu3 -> conv3 (in-place)
I0625 00:13:25.742674  4687 net.cpp:153] Setting up relu3
I0625 00:13:25.742677  4687 net.cpp:160] Top shape: 100 384 13 13 (6489600)
I0625 00:13:25.742678  4687 net.cpp:168] Memory required for data: 731480800
I0625 00:13:25.742681  4687 layer_factory.hpp:76] Creating layer conv4
I0625 00:13:25.742686  4687 net.cpp:109] Creating Layer conv4
I0625 00:13:25.742687  4687 net.cpp:457] conv4 <- conv3
I0625 00:13:25.742691  4687 net.cpp:414] conv4 -> conv4
I0625 00:13:25.754919  4687 net.cpp:153] Setting up conv4
I0625 00:13:25.754932  4687 net.cpp:160] Top shape: 100 384 13 13 (6489600)
I0625 00:13:25.754935  4687 net.cpp:168] Memory required for data: 757439200
I0625 00:13:25.754938  4687 layer_factory.hpp:76] Creating layer relu4
I0625 00:13:25.754945  4687 net.cpp:109] Creating Layer relu4
I0625 00:13:25.754946  4687 net.cpp:457] relu4 <- conv4
I0625 00:13:25.754951  4687 net.cpp:400] relu4 -> conv4 (in-place)
I0625 00:13:25.754956  4687 net.cpp:153] Setting up relu4
I0625 00:13:25.754957  4687 net.cpp:160] Top shape: 100 384 13 13 (6489600)
I0625 00:13:25.754959  4687 net.cpp:168] Memory required for data: 783397600
I0625 00:13:25.754961  4687 layer_factory.hpp:76] Creating layer conv5_clean
I0625 00:13:25.754966  4687 net.cpp:109] Creating Layer conv5_clean
I0625 00:13:25.754967  4687 net.cpp:457] conv5_clean <- conv4
I0625 00:13:25.754971  4687 net.cpp:414] conv5_clean -> conv5_clean
I0625 00:13:25.763088  4687 net.cpp:153] Setting up conv5_clean
I0625 00:13:25.763098  4687 net.cpp:160] Top shape: 100 256 13 13 (4326400)
I0625 00:13:25.763098  4687 net.cpp:168] Memory required for data: 800703200
I0625 00:13:25.763105  4687 layer_factory.hpp:76] Creating layer relu5_clean
I0625 00:13:25.763109  4687 net.cpp:109] Creating Layer relu5_clean
I0625 00:13:25.763125  4687 net.cpp:457] relu5_clean <- conv5_clean
I0625 00:13:25.763128  4687 net.cpp:400] relu5_clean -> conv5_clean (in-place)
I0625 00:13:25.763133  4687 net.cpp:153] Setting up relu5_clean
I0625 00:13:25.763135  4687 net.cpp:160] Top shape: 100 256 13 13 (4326400)
I0625 00:13:25.763137  4687 net.cpp:168] Memory required for data: 818008800
I0625 00:13:25.763139  4687 layer_factory.hpp:76] Creating layer pool5
I0625 00:13:25.763144  4687 net.cpp:109] Creating Layer pool5
I0625 00:13:25.763145  4687 net.cpp:457] pool5 <- conv5_clean
I0625 00:13:25.763149  4687 net.cpp:414] pool5 -> pool5
I0625 00:13:25.763170  4687 net.cpp:153] Setting up pool5
I0625 00:13:25.763173  4687 net.cpp:160] Top shape: 100 256 6 6 (921600)
I0625 00:13:25.763175  4687 net.cpp:168] Memory required for data: 821695200
I0625 00:13:25.763176  4687 layer_factory.hpp:76] Creating layer fc6_clean
I0625 00:13:25.763181  4687 net.cpp:109] Creating Layer fc6_clean
I0625 00:13:25.763182  4687 net.cpp:457] fc6_clean <- pool5
I0625 00:13:25.763185  4687 net.cpp:414] fc6_clean -> fc6_clean
I0625 00:13:26.446157  4687 net.cpp:153] Setting up fc6_clean
I0625 00:13:26.446172  4687 net.cpp:160] Top shape: 100 4096 (409600)
I0625 00:13:26.446176  4687 net.cpp:168] Memory required for data: 823333600
I0625 00:13:26.446182  4687 layer_factory.hpp:76] Creating layer relu6
I0625 00:13:26.446187  4687 net.cpp:109] Creating Layer relu6
I0625 00:13:26.446190  4687 net.cpp:457] relu6 <- fc6_clean
I0625 00:13:26.446194  4687 net.cpp:400] relu6 -> fc6_clean (in-place)
I0625 00:13:26.446200  4687 net.cpp:153] Setting up relu6
I0625 00:13:26.446203  4687 net.cpp:160] Top shape: 100 4096 (409600)
I0625 00:13:26.446204  4687 net.cpp:168] Memory required for data: 824972000
I0625 00:13:26.446207  4687 layer_factory.hpp:76] Creating layer drop6
I0625 00:13:26.446211  4687 net.cpp:109] Creating Layer drop6
I0625 00:13:26.446213  4687 net.cpp:457] drop6 <- fc6_clean
I0625 00:13:26.446215  4687 net.cpp:400] drop6 -> fc6_clean (in-place)
I0625 00:13:26.446233  4687 net.cpp:153] Setting up drop6
I0625 00:13:26.446238  4687 net.cpp:160] Top shape: 100 4096 (409600)
I0625 00:13:26.446238  4687 net.cpp:168] Memory required for data: 826610400
I0625 00:13:26.446240  4687 layer_factory.hpp:76] Creating layer fc7_clean
I0625 00:13:26.446244  4687 net.cpp:109] Creating Layer fc7_clean
I0625 00:13:26.446246  4687 net.cpp:457] fc7_clean <- fc6_clean
I0625 00:13:26.446249  4687 net.cpp:414] fc7_clean -> fc7_clean
I0625 00:13:26.747938  4687 net.cpp:153] Setting up fc7_clean
I0625 00:13:26.747957  4687 net.cpp:160] Top shape: 100 4096 (409600)
I0625 00:13:26.747959  4687 net.cpp:168] Memory required for data: 828248800
I0625 00:13:26.747966  4687 layer_factory.hpp:76] Creating layer relu7
I0625 00:13:26.747972  4687 net.cpp:109] Creating Layer relu7
I0625 00:13:26.747975  4687 net.cpp:457] relu7 <- fc7_clean
I0625 00:13:26.747980  4687 net.cpp:400] relu7 -> fc7_clean (in-place)
I0625 00:13:26.747987  4687 net.cpp:153] Setting up relu7
I0625 00:13:26.747990  4687 net.cpp:160] Top shape: 100 4096 (409600)
I0625 00:13:26.747992  4687 net.cpp:168] Memory required for data: 829887200
I0625 00:13:26.747994  4687 layer_factory.hpp:76] Creating layer drop7
I0625 00:13:26.747998  4687 net.cpp:109] Creating Layer drop7
I0625 00:13:26.748002  4687 net.cpp:457] drop7 <- fc7_clean
I0625 00:13:26.748004  4687 net.cpp:400] drop7 -> fc7_clean (in-place)
I0625 00:13:26.748023  4687 net.cpp:153] Setting up drop7
I0625 00:13:26.748026  4687 net.cpp:160] Top shape: 100 4096 (409600)
I0625 00:13:26.748028  4687 net.cpp:168] Memory required for data: 831525600
I0625 00:13:26.748030  4687 layer_factory.hpp:76] Creating layer fc8_species
I0625 00:13:26.748034  4687 net.cpp:109] Creating Layer fc8_species
I0625 00:13:26.748036  4687 net.cpp:457] fc8_species <- fc7_clean
I0625 00:13:26.748039  4687 net.cpp:414] fc8_species -> fc8_species
I0625 00:13:26.820917  4687 net.cpp:153] Setting up fc8_species
I0625 00:13:26.820940  4687 net.cpp:160] Top shape: 100 967 (96700)
I0625 00:13:26.820965  4687 net.cpp:168] Memory required for data: 831912400
I0625 00:13:26.820973  4687 layer_factory.hpp:76] Creating layer fc8_species_fc8_species_0_split
I0625 00:13:26.820982  4687 net.cpp:109] Creating Layer fc8_species_fc8_species_0_split
I0625 00:13:26.820986  4687 net.cpp:457] fc8_species_fc8_species_0_split <- fc8_species
I0625 00:13:26.820992  4687 net.cpp:414] fc8_species_fc8_species_0_split -> fc8_species_fc8_species_0_split_0
I0625 00:13:26.820999  4687 net.cpp:414] fc8_species_fc8_species_0_split -> fc8_species_fc8_species_0_split_1
I0625 00:13:26.821033  4687 net.cpp:153] Setting up fc8_species_fc8_species_0_split
I0625 00:13:26.821038  4687 net.cpp:160] Top shape: 100 967 (96700)
I0625 00:13:26.821041  4687 net.cpp:160] Top shape: 100 967 (96700)
I0625 00:13:26.821044  4687 net.cpp:168] Memory required for data: 832686000
I0625 00:13:26.821048  4687 layer_factory.hpp:76] Creating layer loss
I0625 00:13:26.821053  4687 net.cpp:109] Creating Layer loss
I0625 00:13:26.821054  4687 net.cpp:457] loss <- fc8_species_fc8_species_0_split_0
I0625 00:13:26.821058  4687 net.cpp:457] loss <- label_data_1_split_0
I0625 00:13:26.821063  4687 net.cpp:414] loss -> loss
…
