…
I0706 07:02:44.793087 15356 net.cpp:325] The NetState phase (0) differed from the phase (1) specified by a rule in layer accuracy
I0706 07:02:44.793289 15356 net.cpp:52] Initializing net from parameters:
state {
phase: TRAIN
}
layer {
name: "train-data"
type: "Data"
top: "data"
top: "label"
include {
phase: TRAIN
}
transform_param {
mirror: true
crop_size: 227
mean_file: "/home/zml374/workspace/DIGITS/digits/jobs/20160704-085910-0cc9/mean.binaryproto"
}
data_param {
source: "/home/zml374/workspace/DIGITS/digits/jobs/20160704-085910-0cc9/train_db"
batch_size: 200
backend: LMDB
}
}
layer {
name: "conv1"
type: "Convolution"
bottom: "data"
top: "conv1"
param {
lr_mult: 0
decay_mult: 0
}
param {
lr_mult: 0
decay_mult: 0
}
convolution_param {
num_output: 96
kernel_size: 11
stride: 4
weight_filler {
type: "gaussian"
std: 0.01
}
bias_filler {
type: "constant"
value: 0
}
}
}
layer {
name: "relu1"
type: "ReLU"
bottom: "conv1"
top: "conv1"
}
layer {
name: "norm1"
type: "LRN"
bottom: "conv1"
top: "norm1"
lrn_param {
local_size: 5
alpha: 0.0001
beta: 0.75
}
}
layer {
name: "pool1"
type: "Pooling"
bottom: "norm1"
top: "pool1"
pooling_param {
pool: MAX
kernel_size: 3
stride: 2
}
}
layer {
name: "conv2"
type: "Convolution"
bottom: "pool1"
top: "conv2"
param {
lr_mult: 0
decay_mult: 0
}
param {
lr_mult: 0
decay_mult: 0
}
convolution_param {
num_output: 256
pad: 2
kernel_size: 5
group: 2
weight_filler {
type: "gaussian"
std: 0.01
}
bias_filler {
type: "constant"
value: 0.1
}
}
}
layer {
name: "relu2"
type: "ReLU"
bottom: "conv2"
top: "conv2"
}
layer {
name: "norm2"
type: "LRN"
bottom: "conv2"
top: "norm2"
lrn_param {
local_size: 5
alpha: 0.0001
beta: 0.75
}
}
layer {
name: "pool2"
type: "Pooling"
bottom: "norm2"
top: "pool2"
pooling_param {
pool: MAX
kernel_size: 3
stride: 2
}
}
layer {
name: "conv3"
type: "Convolution"
bottom: "pool2"
top: "conv3"
param {
lr_mult: 0
decay_mult: 0
}
param {
lr_mult: 0
decay_mult: 0
}
convolution_param {
num_output: 384
pad: 1
kernel_size: 3
weight_filler {
type: "gaussian"
std: 0.01
}
bias_filler {
type: "constant"
value: 0
}
}
}
layer {
name: "relu3"
type: "ReLU"
bottom: "conv3"
top: "conv3"
}
layer {
name: "conv4_clean"
type: "Convolution"
bottom: "conv3"
top: "conv4_clean"
param {
lr_mult: 1
decay_mult: 1
}
param {
lr_mult: 2
decay_mult: 0
}
convolution_param {
num_output: 384
pad: 1
kernel_size: 3
group: 2
weight_filler {
type: "gaussian"
std: 0.01
}
bias_filler {
type: "constant"
value: 0.1
}
}
}
layer {
name: "relu4"
type: "ReLU"
bottom: "conv4_clean"
top: "conv4_clean"
}
layer {
name: "conv5_clean"
type: "Convolution"
bottom: "conv4_clean"
top: "conv5_clean"
param {
lr_mult: 1
decay_mult: 1
}
param {
lr_mult: 2
decay_mult: 0
}
convolution_param {
num_output: 256
pad: 1
kernel_size: 3
group: 2
weight_filler {
type: "gaussian"
std: 0.01
}
bias_filler {
type: "constant"
value: 0.1
}
}
}
layer {
name: "relu5"
type: "ReLU"
bottom: "conv5_clean"
top: "conv5_clean"
}
layer {
name: "pool5"
type: "Pooling"
bottom: "conv5_clean"
top: "pool5"
pooling_param {
pool: MAX
kernel_size: 3
stride: 2
}
}
layer {
name: "fc6_clean"
type: "InnerProduct"
bottom: "pool5"
top: "fc6_clean"
param {
lr_mult: 1
decay_mult: 1
}
param {
lr_mult: 2
decay_mult: 0
}
inner_product_param {
num_output: 4096
weight_filler {
type: "gaussian"
std: 0.005
}
bias_filler {
type: "constant"
value: 0.1
}
}
}
layer {
name: "relu6"
type: "ReLU"
bottom: "fc6_clean"
top: "fc6_clean"
}
layer {
name: "drop6"
type: "Dropout"
bottom: "fc6_clean"
top: "fc6_clean"
dropout_param {
dropout_ratio: 0.5
}
}
layer {
name: "fc7_clean"
type: "InnerProduct"
bottom: "fc6_clean"
top: "fc7_clean"
param {
lr_mult: 1
decay_mult: 1
}
param {
lr_mult: 2
decay_mult: 0
}
inner_product_param {
num_output: 4096
weight_filler {
type: "gaussian"
std: 0.005
}
bias_filler {
type: "constant"
value: 0.1
}
}
}
layer {
name: "relu7"
type: "ReLU"
bottom: "fc7_clean"
top: "fc7_clean"
}
layer {
name: "drop7"
type: "Dropout"
bottom: "fc7_clean"
top: "fc7_clean"
dropout_param {
dropout_ratio: 0.5
}
}
layer {
name: "fc8_clean"
type: "InnerProduct"
bottom: "fc7_clean"
top: "fc8_clean"
param {
lr_mult: 1
decay_mult: 1
}
param {
lr_mult: 2
decay_mult: 0
}
inner_product_param {
num_output: 967
weight_filler {
type: "gaussian"
std: 0.01
}
bias_filler {
type: "constant"
value: 0
}
}
}
layer {
name: "loss"
type: "SoftmaxWithLoss"
bottom: "fc8_clean"
bottom: "label"
top: "loss"
}
I0706 07:02:44.793419 15356 layer_factory.hpp:76] Creating layer train-data
I0706 07:02:44.794039 15356 net.cpp:109] Creating Layer train-data
I0706 07:02:44.794054 15356 net.cpp:414] train-data -> data
I0706 07:02:44.794090 15356 net.cpp:414] train-data -> label
I0706 07:02:44.794104 15356 data_transformer.cpp:25] Loading mean file from: /home/zml374/workspace/DIGITS/digits/jobs/20160704-085910-0cc9/mean.binaryproto
I0706 07:02:44.796326 15384 db_lmdb.cpp:36] Opened lmdb /home/zml374/workspace/DIGITS/digits/jobs/20160704-085910-0cc9/train_db
I0706 07:02:44.802425 15356 data_layer.cpp:45] output data size: 200,3,227,227
I0706 07:02:45.128245 15356 net.cpp:153] Setting up train-data
I0706 07:02:45.128299 15356 net.cpp:160] Top shape: 200 3 227 227 (30917400)
I0706 07:02:45.128309 15356 net.cpp:160] Top shape: 200 (200)
I0706 07:02:45.128314 15356 net.cpp:168] Memory required for data: 123670400
I0706 07:02:45.128326 15356 layer_factory.hpp:76] Creating layer conv1
I0706 07:02:45.128352 15356 net.cpp:109] Creating Layer conv1
I0706 07:02:45.128358 15356 net.cpp:457] conv1 <- data
I0706 07:02:45.128376 15356 net.cpp:414] conv1 -> conv1
I0706 07:02:45.133008 15356 net.cpp:153] Setting up conv1
I0706 07:02:45.133025 15356 net.cpp:160] Top shape: 200 96 55 55 (58080000)
I0706 07:02:45.133031 15356 net.cpp:168] Memory required for data: 355990400
I0706 07:02:45.133049 15356 layer_factory.hpp:76] Creating layer relu1
I0706 07:02:45.133062 15356 net.cpp:109] Creating Layer relu1
I0706 07:02:45.133069 15356 net.cpp:457] relu1 <- conv1
I0706 07:02:45.133077 15356 net.cpp:400] relu1 -> conv1 (in-place)
I0706 07:02:45.133092 15356 net.cpp:153] Setting up relu1
I0706 07:02:45.133100 15356 net.cpp:160] Top shape: 200 96 55 55 (58080000)
I0706 07:02:45.133105 15356 net.cpp:168] Memory required for data: 588310400
I0706 07:02:45.133110 15356 layer_factory.hpp:76] Creating layer norm1
I0706 07:02:45.133121 15356 net.cpp:109] Creating Layer norm1
I0706 07:02:45.133126 15356 net.cpp:457] norm1 <- conv1
I0706 07:02:45.133131 15356 net.cpp:414] norm1 -> norm1
I0706 07:02:45.133194 15356 net.cpp:153] Setting up norm1
I0706 07:02:45.133204 15356 net.cpp:160] Top shape: 200 96 55 55 (58080000)
I0706 07:02:45.133209 15356 net.cpp:168] Memory required for data: 820630400
I0706 07:02:45.133258 15356 layer_factory.hpp:76] Creating layer pool1
I0706 07:02:45.133272 15356 net.cpp:109] Creating Layer pool1
I0706 07:02:45.133277 15356 net.cpp:457] pool1 <- norm1
I0706 07:02:45.133285 15356 net.cpp:414] pool1 -> pool1
I0706 07:02:45.133337 15356 net.cpp:153] Setting up pool1
I0706 07:02:45.133347 15356 net.cpp:160] Top shape: 200 96 27 27 (13996800)
I0706 07:02:45.133352 15356 net.cpp:168] Memory required for data: 876617600
I0706 07:02:45.133358 15356 layer_factory.hpp:76] Creating layer conv2
I0706 07:02:45.133368 15356 net.cpp:109] Creating Layer conv2
I0706 07:02:45.133373 15356 net.cpp:457] conv2 <- pool1
I0706 07:02:45.133380 15356 net.cpp:414] conv2 -> conv2
I0706 07:02:45.149231 15356 net.cpp:153] Setting up conv2
I0706 07:02:45.149247 15356 net.cpp:160] Top shape: 200 256 27 27 (37324800)
I0706 07:02:45.149252 15356 net.cpp:168] Memory required for data: 1025916800
I0706 07:02:45.149265 15356 layer_factory.hpp:76] Creating layer relu2
I0706 07:02:45.149274 15356 net.cpp:109] Creating Layer relu2
I0706 07:02:45.149279 15356 net.cpp:457] relu2 <- conv2
I0706 07:02:45.149286 15356 net.cpp:400] relu2 -> conv2 (in-place)
I0706 07:02:45.149296 15356 net.cpp:153] Setting up relu2
I0706 07:02:45.149302 15356 net.cpp:160] Top shape: 200 256 27 27 (37324800)
I0706 07:02:45.149307 15356 net.cpp:168] Memory required for data: 1175216000
I0706 07:02:45.149310 15356 layer_factory.hpp:76] Creating layer norm2
I0706 07:02:45.149319 15356 net.cpp:109] Creating Layer norm2
I0706 07:02:45.149323 15356 net.cpp:457] norm2 <- conv2
I0706 07:02:45.149330 15356 net.cpp:414] norm2 -> norm2
I0706 07:02:45.149374 15356 net.cpp:153] Setting up norm2
I0706 07:02:45.149381 15356 net.cpp:160] Top shape: 200 256 27 27 (37324800)
I0706 07:02:45.149386 15356 net.cpp:168] Memory required for data: 1324515200
I0706 07:02:45.149390 15356 layer_factory.hpp:76] Creating layer pool2
I0706 07:02:45.149401 15356 net.cpp:109] Creating Layer pool2
I0706 07:02:45.149405 15356 net.cpp:457] pool2 <- norm2
I0706 07:02:45.149413 15356 net.cpp:414] pool2 -> pool2
I0706 07:02:45.149453 15356 net.cpp:153] Setting up pool2
I0706 07:02:45.149461 15356 net.cpp:160] Top shape: 200 256 13 13 (8652800)
I0706 07:02:45.149466 15356 net.cpp:168] Memory required for data: 1359126400
I0706 07:02:45.149469 15356 layer_factory.hpp:76] Creating layer conv3
I0706 07:02:45.149480 15356 net.cpp:109] Creating Layer conv3
I0706 07:02:45.149485 15356 net.cpp:457] conv3 <- pool2
I0706 07:02:45.149499 15356 net.cpp:414] conv3 -> conv3
I0706 07:02:45.183166 15356 net.cpp:153] Setting up conv3
I0706 07:02:45.183182 15356 net.cpp:160] Top shape: 200 384 13 13 (12979200)
I0706 07:02:45.183187 15356 net.cpp:168] Memory required for data: 1411043200
I0706 07:02:45.183197 15356 layer_factory.hpp:76] Creating layer relu3
I0706 07:02:45.183207 15356 net.cpp:109] Creating Layer relu3
I0706 07:02:45.183218 15356 net.cpp:457] relu3 <- conv3
I0706 07:02:45.183226 15356 net.cpp:400] relu3 -> conv3 (in-place)
I0706 07:02:45.183236 15356 net.cpp:153] Setting up relu3
I0706 07:02:45.183243 15356 net.cpp:160] Top shape: 200 384 13 13 (12979200)
I0706 07:02:45.183248 15356 net.cpp:168] Memory required for data: 1462960000
I0706 07:02:45.183251 15356 layer_factory.hpp:76] Creating layer conv4_clean
I0706 07:02:45.183261 15356 net.cpp:109] Creating Layer conv4_clean
I0706 07:02:45.183265 15356 net.cpp:457] conv4_clean <- conv3
I0706 07:02:45.183274 15356 net.cpp:414] conv4_clean -> conv4_clean
I0706 07:02:45.208606 15356 net.cpp:153] Setting up conv4_clean
I0706 07:02:45.208621 15356 net.cpp:160] Top shape: 200 384 13 13 (12979200)
I0706 07:02:45.208626 15356 net.cpp:168] Memory required for data: 1514876800
I0706 07:02:45.208634 15356 layer_factory.hpp:76] Creating layer relu4
I0706 07:02:45.208643 15356 net.cpp:109] Creating Layer relu4
I0706 07:02:45.208648 15356 net.cpp:457] relu4 <- conv4_clean
I0706 07:02:45.208655 15356 net.cpp:400] relu4 -> conv4_clean (in-place)
I0706 07:02:45.208665 15356 net.cpp:153] Setting up relu4
I0706 07:02:45.208672 15356 net.cpp:160] Top shape: 200 384 13 13 (12979200)
I0706 07:02:45.208693 15356 net.cpp:168] Memory required for data: 1566793600
I0706 07:02:45.208698 15356 layer_factory.hpp:76] Creating layer conv5_clean
I0706 07:02:45.208710 15356 net.cpp:109] Creating Layer conv5_clean
I0706 07:02:45.208715 15356 net.cpp:457] conv5_clean <- conv4_clean
I0706 07:02:45.208724 15356 net.cpp:414] conv5_clean -> conv5_clean
I0706 07:02:45.225774 15356 net.cpp:153] Setting up conv5_clean
I0706 07:02:45.225788 15356 net.cpp:160] Top shape: 200 256 13 13 (8652800)
I0706 07:02:45.225793 15356 net.cpp:168] Memory required for data: 1601404800
I0706 07:02:45.225805 15356 layer_factory.hpp:76] Creating layer relu5
I0706 07:02:45.225813 15356 net.cpp:109] Creating Layer relu5
I0706 07:02:45.225818 15356 net.cpp:457] relu5 <- conv5_clean
I0706 07:02:45.225826 15356 net.cpp:400] relu5 -> conv5_clean (in-place)
I0706 07:02:45.225836 15356 net.cpp:153] Setting up relu5
I0706 07:02:45.225842 15356 net.cpp:160] Top shape: 200 256 13 13 (8652800)
I0706 07:02:45.225847 15356 net.cpp:168] Memory required for data: 1636016000
I0706 07:02:45.225850 15356 layer_factory.hpp:76] Creating layer pool5
I0706 07:02:45.225860 15356 net.cpp:109] Creating Layer pool5
I0706 07:02:45.225864 15356 net.cpp:457] pool5 <- conv5_clean
I0706 07:02:45.225870 15356 net.cpp:414] pool5 -> pool5
I0706 07:02:45.225915 15356 net.cpp:153] Setting up pool5
I0706 07:02:45.225924 15356 net.cpp:160] Top shape: 200 256 6 6 (1843200)
I0706 07:02:45.225929 15356 net.cpp:168] Memory required for data: 1643388800
I0706 07:02:45.225934 15356 layer_factory.hpp:76] Creating layer fc6_clean
I0706 07:02:45.225946 15356 net.cpp:109] Creating Layer fc6_clean
I0706 07:02:45.225951 15356 net.cpp:457] fc6_clean <- pool5
I0706 07:02:45.225960 15356 net.cpp:414] fc6_clean -> fc6_clean
I0706 07:02:46.674527 15356 net.cpp:153] Setting up fc6_clean
I0706 07:02:46.674571 15356 net.cpp:160] Top shape: 200 4096 (819200)
I0706 07:02:46.674577 15356 net.cpp:168] Memory required for data: 1646665600
I0706 07:02:46.674592 15356 layer_factory.hpp:76] Creating layer relu6
I0706 07:02:46.674607 15356 net.cpp:109] Creating Layer relu6
I0706 07:02:46.674613 15356 net.cpp:457] relu6 <- fc6_clean
I0706 07:02:46.674624 15356 net.cpp:400] relu6 -> fc6_clean (in-place)
I0706 07:02:46.674641 15356 net.cpp:153] Setting up relu6
I0706 07:02:46.674649 15356 net.cpp:160] Top shape: 200 4096 (819200)
I0706 07:02:46.674652 15356 net.cpp:168] Memory required for data: 1649942400
I0706 07:02:46.674657 15356 layer_factory.hpp:76] Creating layer drop6
I0706 07:02:46.674681 15356 net.cpp:109] Creating Layer drop6
I0706 07:02:46.674686 15356 net.cpp:457] drop6 <- fc6_clean
I0706 07:02:46.674695 15356 net.cpp:400] drop6 -> fc6_clean (in-place)
I0706 07:02:46.674731 15356 net.cpp:153] Setting up drop6
I0706 07:02:46.674739 15356 net.cpp:160] Top shape: 200 4096 (819200)
I0706 07:02:46.674744 15356 net.cpp:168] Memory required for data: 1653219200
I0706 07:02:46.674748 15356 layer_factory.hpp:76] Creating layer fc7_clean
I0706 07:02:46.674760 15356 net.cpp:109] Creating Layer fc7_clean
I0706 07:02:46.674765 15356 net.cpp:457] fc7_clean <- fc6_clean
I0706 07:02:46.674774 15356 net.cpp:414] fc7_clean -> fc7_clean
I0706 07:02:47.323537 15356 net.cpp:153] Setting up fc7_clean
I0706 07:02:47.323581 15356 net.cpp:160] Top shape: 200 4096 (819200)
I0706 07:02:47.323587 15356 net.cpp:168] Memory required for data: 1656496000
I0706 07:02:47.323601 15356 layer_factory.hpp:76] Creating layer relu7
I0706 07:02:47.323616 15356 net.cpp:109] Creating Layer relu7
I0706 07:02:47.323622 15356 net.cpp:457] relu7 <- fc7_clean
I0706 07:02:47.323633 15356 net.cpp:400] relu7 -> fc7_clean (in-place)
I0706 07:02:47.323649 15356 net.cpp:153] Setting up relu7
I0706 07:02:47.323657 15356 net.cpp:160] Top shape: 200 4096 (819200)
I0706 07:02:47.323662 15356 net.cpp:168] Memory required for data: 1659772800
I0706 07:02:47.323665 15356 layer_factory.hpp:76] Creating layer drop7
I0706 07:02:47.323675 15356 net.cpp:109] Creating Layer drop7
I0706 07:02:47.323680 15356 net.cpp:457] drop7 <- fc7_clean
I0706 07:02:47.323729 15356 net.cpp:400] drop7 -> fc7_clean (in-place)
I0706 07:02:47.323770 15356 net.cpp:153] Setting up drop7
I0706 07:02:47.323778 15356 net.cpp:160] Top shape: 200 4096 (819200)
I0706 07:02:47.323783 15356 net.cpp:168] Memory required for data: 1663049600
I0706 07:02:47.323788 15356 layer_factory.hpp:76] Creating layer fc8_clean
I0706 07:02:47.323801 15356 net.cpp:109] Creating Layer fc8_clean
I0706 07:02:47.323804 15356 net.cpp:457] fc8_clean <- fc7_clean
I0706 07:02:47.323813 15356 net.cpp:414] fc8_clean -> fc8_clean
I0706 07:02:47.474071 15356 net.cpp:153] Setting up fc8_clean
I0706 07:02:47.474088 15356 net.cpp:160] Top shape: 200 967 (193400)
I0706 07:02:47.474093 15356 net.cpp:168] Memory required for data: 1663823200
I0706 07:02:47.474102 15356 layer_factory.hpp:76] Creating layer loss
I0706 07:02:47.474124 15356 net.cpp:109] Creating Layer loss
I0706 07:02:47.474130 15356 net.cpp:457] loss <- fc8_clean
I0706 07:02:47.474138 15356 net.cpp:457] loss <- label
I0706 07:02:47.474145 15356 net.cpp:414] loss -> loss
I0706 07:02:47.474158 15356 layer_factory.hpp:76] Creating layer loss
…
I0706 07:02:47.476079 15356 net.cpp:325] The NetState phase (1) differed from the phase (0) specified by a rule in layer train-data
I0706 07:02:47.476299 15356 net.cpp:52] Initializing net from parameters:
state {
phase: TEST
}
layer {
name: "val-data"
type: "Data"
top: "data"
top: "label"
include {
phase: TEST
}
transform_param {
crop_size: 227
mean_file: "/home/zml374/workspace/DIGITS/digits/jobs/20160704-085910-0cc9/mean.binaryproto"
}
data_param {
source: "/home/zml374/workspace/DIGITS/digits/jobs/20160704-085910-0cc9/val_db"
batch_size: 200
backend: LMDB
}
}
layer {
name: "conv1"
type: "Convolution"
bottom: "data"
top: "conv1"
param {
lr_mult: 0
decay_mult: 0
}
param {
lr_mult: 0
decay_mult: 0
}
convolution_param {
num_output: 96
kernel_size: 11
stride: 4
weight_filler {
type: "gaussian"
std: 0.01
}
bias_filler {
type: "constant"
value: 0
}
}
}
layer {
name: "relu1"
type: "ReLU"
bottom: "conv1"
top: "conv1"
}
layer {
name: "norm1"
type: "LRN"
bottom: "conv1"
top: "norm1"
lrn_param {
local_size: 5
alpha: 0.0001
beta: 0.75
}
}
layer {
name: "pool1"
type: "Pooling"
bottom: "norm1"
top: "pool1"
pooling_param {
pool: MAX
kernel_size: 3
stride: 2
}
}
layer {
name: "conv2"
type: "Convolution"
bottom: "pool1"
top: "conv2"
param {
lr_mult: 0
decay_mult: 0
}
param {
lr_mult: 0
decay_mult: 0
}
convolution_param {
num_output: 256
pad: 2
kernel_size: 5
group: 2
weight_filler {
type: "gaussian"
std: 0.01
}
bias_filler {
type: "constant"
value: 0.1
}
}
}
layer {
name: "relu2"
type: "ReLU"
bottom: "conv2"
top: "conv2"
}
layer {
name: "norm2"
type: "LRN"
bottom: "conv2"
top: "norm2"
lrn_param {
local_size: 5
alpha: 0.0001
beta: 0.75
}
}
layer {
name: "pool2"
type: "Pooling"
bottom: "norm2"
top: "pool2"
pooling_param {
pool: MAX
kernel_size: 3
stride: 2
}
}
layer {
name: "conv3"
type: "Convolution"
bottom: "pool2"
top: "conv3"
param {
lr_mult: 0
decay_mult: 0
}
param {
lr_mult: 0
decay_mult: 0
}
convolution_param {
num_output: 384
pad: 1
kernel_size: 3
weight_filler {
type: "gaussian"
std: 0.01
}
bias_filler {
type: "constant"
value: 0
}
}
}
layer {
name: "relu3"
type: "ReLU"
bottom: "conv3"
top: "conv3"
}
layer {
name: "conv4_clean"
type: "Convolution"
bottom: "conv3"
top: "conv4_clean"
param {
lr_mult: 1
decay_mult: 1
}
param {
lr_mult: 2
decay_mult: 0
}
convolution_param {
num_output: 384
pad: 1
kernel_size: 3
group: 2
weight_filler {
type: "gaussian"
std: 0.01
}
bias_filler {
type: "constant"
value: 0.1
}
}
}
layer {
name: "relu4"
type: "ReLU"
bottom: "conv4_clean"
top: "conv4_clean"
}
layer {
name: "conv5_clean"
type: "Convolution"
bottom: "conv4_clean"
top: "conv5_clean"
param {
lr_mult: 1
decay_mult: 1
}
param {
lr_mult: 2
decay_mult: 0
}
convolution_param {
num_output: 256
pad: 1
kernel_size: 3
group: 2
weight_filler {
type: "gaussian"
std: 0.01
}
bias_filler {
type: "constant"
value: 0.1
}
}
}
layer {
name: "relu5"
type: "ReLU"
bottom: "conv5_clean"
top: "conv5_clean"
}
layer {
name: "pool5"
type: "Pooling"
bottom: "conv5_clean"
top: "pool5"
pooling_param {
pool: MAX
kernel_size: 3
stride: 2
}
}
layer {
name: "fc6_clean"
type: "InnerProduct"
bottom: "pool5"
top: "fc6_clean"
param {
lr_mult: 1
decay_mult: 1
}
param {
lr_mult: 2
decay_mult: 0
}
inner_product_param {
num_output: 4096
weight_filler {
type: "gaussian"
std: 0.005
}
bias_filler {
type: "constant"
value: 0.1
}
}
}
layer {
name: "relu6"
type: "ReLU"
bottom: "fc6_clean"
top: "fc6_clean"
}
layer {
name: "drop6"
type: "Dropout"
bottom: "fc6_clean"
top: "fc6_clean"
dropout_param {
dropout_ratio: 0.5
}
}
layer {
name: "fc7_clean"
type: "InnerProduct"
bottom: "fc6_clean"
top: "fc7_clean"
param {
lr_mult: 1
decay_mult: 1
}
param {
lr_mult: 2
decay_mult: 0
}
inner_product_param {
num_output: 4096
weight_filler {
type: "gaussian"
std: 0.005
}
bias_filler {
type: "constant"
value: 0.1
}
}
}
layer {
name: "relu7"
type: "ReLU"
bottom: "fc7_clean"
top: "fc7_clean"
}
layer {
name: "drop7"
type: "Dropout"
bottom: "fc7_clean"
top: "fc7_clean"
dropout_param {
dropout_ratio: 0.5
}
}
layer {
name: "fc8_clean"
type: "InnerProduct"
bottom: "fc7_clean"
top: "fc8_clean"
param {
lr_mult: 1
decay_mult: 1
}
param {
lr_mult: 2
decay_mult: 0
}
inner_product_param {
num_output: 967
weight_filler {
type: "gaussian"
std: 0.01
}
bias_filler {
type: "constant"
value: 0
}
}
}
layer {
name: "accuracy"
type: "Accuracy"
bottom: "fc8_clean"
bottom: "label"
top: "accuracy"
include {
phase: TEST
}
}
layer {
name: "loss"
type: "SoftmaxWithLoss"
bottom: "fc8_clean"
bottom: "label"
top: "loss"
}
I0706 07:02:47.476449 15356 layer_factory.hpp:76] Creating layer val-data
I0706 07:02:47.476677 15356 net.cpp:109] Creating Layer val-data
I0706 07:02:47.476691 15356 net.cpp:414] val-data -> data
I0706 07:02:47.476702 15356 net.cpp:414] val-data -> label
I0706 07:02:47.476713 15356 data_transformer.cpp:25] Loading mean file from: /home/zml374/workspace/DIGITS/digits/jobs/20160704-085910-0cc9/mean.binaryproto
I0706 07:02:47.478144 15386 db_lmdb.cpp:36] Opened lmdb /home/zml374/workspace/DIGITS/digits/jobs/20160704-085910-0cc9/val_db
I0706 07:02:47.483129 15356 data_layer.cpp:45] output data size: 200,3,227,227
I0706 07:02:47.804586 15356 net.cpp:153] Setting up val-data
I0706 07:02:47.804636 15356 net.cpp:160] Top shape: 200 3 227 227 (30917400)
I0706 07:02:47.804644 15356 net.cpp:160] Top shape: 200 (200)
I0706 07:02:47.804649 15356 net.cpp:168] Memory required for data: 123670400
I0706 07:02:47.804657 15356 layer_factory.hpp:76] Creating layer label_val-data_1_split
I0706 07:02:47.804675 15356 net.cpp:109] Creating Layer label_val-data_1_split
I0706 07:02:47.804682 15356 net.cpp:457] label_val-data_1_split <- label
I0706 07:02:47.804692 15356 net.cpp:414] label_val-data_1_split -> label_val-data_1_split_0
I0706 07:02:47.804705 15356 net.cpp:414] label_val-data_1_split -> label_val-data_1_split_1
I0706 07:02:47.804810 15356 net.cpp:153] Setting up label_val-data_1_split
I0706 07:02:47.804821 15356 net.cpp:160] Top shape: 200 (200)
I0706 07:02:47.804828 15356 net.cpp:160] Top shape: 200 (200)
I0706 07:02:47.804833 15356 net.cpp:168] Memory required for data: 123672000
I0706 07:02:47.804838 15356 layer_factory.hpp:76] Creating layer conv1
I0706 07:02:47.804854 15356 net.cpp:109] Creating Layer conv1
I0706 07:02:47.804859 15356 net.cpp:457] conv1 <- data
I0706 07:02:47.804868 15356 net.cpp:414] conv1 -> conv1
I0706 07:02:47.806550 15356 net.cpp:153] Setting up conv1
I0706 07:02:47.806563 15356 net.cpp:160] Top shape: 200 96 55 55 (58080000)
I0706 07:02:47.806568 15356 net.cpp:168] Memory required for data: 355992000
I0706 07:02:47.806583 15356 layer_factory.hpp:76] Creating layer relu1
I0706 07:02:47.806596 15356 net.cpp:109] Creating Layer relu1
I0706 07:02:47.806601 15356 net.cpp:457] relu1 <- conv1
I0706 07:02:47.806608 15356 net.cpp:400] relu1 -> conv1 (in-place)
I0706 07:02:47.806618 15356 net.cpp:153] Setting up relu1
I0706 07:02:47.806624 15356 net.cpp:160] Top shape: 200 96 55 55 (58080000)
I0706 07:02:47.806629 15356 net.cpp:168] Memory required for data: 588312000
I0706 07:02:47.806633 15356 layer_factory.hpp:76] Creating layer norm1
I0706 07:02:47.806646 15356 net.cpp:109] Creating Layer norm1
I0706 07:02:47.806650 15356 net.cpp:457] norm1 <- conv1
I0706 07:02:47.806658 15356 net.cpp:414] norm1 -> norm1
I0706 07:02:47.806707 15356 net.cpp:153] Setting up norm1
I0706 07:02:47.806716 15356 net.cpp:160] Top shape: 200 96 55 55 (58080000)
I0706 07:02:47.806720 15356 net.cpp:168] Memory required for data: 820632000
I0706 07:02:47.806725 15356 layer_factory.hpp:76] Creating layer pool1
I0706 07:02:47.806736 15356 net.cpp:109] Creating Layer pool1
I0706 07:02:47.806740 15356 net.cpp:457] pool1 <- norm1
I0706 07:02:47.806748 15356 net.cpp:414] pool1 -> pool1
I0706 07:02:47.806794 15356 net.cpp:153] Setting up pool1
I0706 07:02:47.806844 15356 net.cpp:160] Top shape: 200 96 27 27 (13996800)
I0706 07:02:47.806849 15356 net.cpp:168] Memory required for data: 876619200
I0706 07:02:47.806854 15356 layer_factory.hpp:76] Creating layer conv2
I0706 07:02:47.806866 15356 net.cpp:109] Creating Layer conv2
I0706 07:02:47.806870 15356 net.cpp:457] conv2 <- pool1
I0706 07:02:47.806879 15356 net.cpp:414] conv2 -> conv2
I0706 07:02:47.821158 15356 net.cpp:153] Setting up conv2
I0706 07:02:47.821194 15356 net.cpp:160] Top shape: 200 256 27 27 (37324800)
I0706 07:02:47.821200 15356 net.cpp:168] Memory required for data: 1025918400
I0706 07:02:47.821219 15356 layer_factory.hpp:76] Creating layer relu2
I0706 07:02:47.821234 15356 net.cpp:109] Creating Layer relu2
I0706 07:02:47.821241 15356 net.cpp:457] relu2 <- conv2
I0706 07:02:47.821252 15356 net.cpp:400] relu2 -> conv2 (in-place)
I0706 07:02:47.821265 15356 net.cpp:153] Setting up relu2
I0706 07:02:47.821272 15356 net.cpp:160] Top shape: 200 256 27 27 (37324800)
I0706 07:02:47.821277 15356 net.cpp:168] Memory required for data: 1175217600
I0706 07:02:47.821282 15356 layer_factory.hpp:76] Creating layer norm2
I0706 07:02:47.821295 15356 net.cpp:109] Creating Layer norm2
I0706 07:02:47.821300 15356 net.cpp:457] norm2 <- conv2
I0706 07:02:47.821307 15356 net.cpp:414] norm2 -> norm2
I0706 07:02:47.821365 15356 net.cpp:153] Setting up norm2
I0706 07:02:47.821375 15356 net.cpp:160] Top shape: 200 256 27 27 (37324800)
I0706 07:02:47.821380 15356 net.cpp:168] Memory required for data: 1324516800
I0706 07:02:47.821387 15356 layer_factory.hpp:76] Creating layer pool2
I0706 07:02:47.821398 15356 net.cpp:109] Creating Layer pool2
I0706 07:02:47.821403 15356 net.cpp:457] pool2 <- norm2
I0706 07:02:47.821409 15356 net.cpp:414] pool2 -> pool2
I0706 07:02:47.821458 15356 net.cpp:153] Setting up pool2
I0706 07:02:47.821467 15356 net.cpp:160] Top shape: 200 256 13 13 (8652800)
I0706 07:02:47.821472 15356 net.cpp:168] Memory required for data: 1359128000
I0706 07:02:47.821478 15356 layer_factory.hpp:76] Creating layer conv3
I0706 07:02:47.821491 15356 net.cpp:109] Creating Layer conv3
I0706 07:02:47.821496 15356 net.cpp:457] conv3 <- pool2
I0706 07:02:47.821506 15356 net.cpp:414] conv3 -> conv3
I0706 07:02:47.855926 15356 net.cpp:153] Setting up conv3
I0706 07:02:47.855943 15356 net.cpp:160] Top shape: 200 384 13 13 (12979200)
I0706 07:02:47.855949 15356 net.cpp:168] Memory required for data: 1411044800
I0706 07:02:47.855962 15356 layer_factory.hpp:76] Creating layer relu3
I0706 07:02:47.855972 15356 net.cpp:109] Creating Layer relu3
I0706 07:02:47.855976 15356 net.cpp:457] relu3 <- conv3
I0706 07:02:47.855984 15356 net.cpp:400] relu3 -> conv3 (in-place)
I0706 07:02:47.855995 15356 net.cpp:153] Setting up relu3
I0706 07:02:47.856001 15356 net.cpp:160] Top shape: 200 384 13 13 (12979200)
I0706 07:02:47.856005 15356 net.cpp:168] Memory required for data: 1462961600
I0706 07:02:47.856010 15356 layer_factory.hpp:76] Creating layer conv4_clean
I0706 07:02:47.856019 15356 net.cpp:109] Creating Layer conv4_clean
I0706 07:02:47.856024 15356 net.cpp:457] conv4_clean <- conv3
I0706 07:02:47.856031 15356 net.cpp:414] conv4_clean -> conv4_clean
I0706 07:02:47.881878 15356 net.cpp:153] Setting up conv4_clean
I0706 07:02:47.881896 15356 net.cpp:160] Top shape: 200 384 13 13 (12979200)
I0706 07:02:47.881901 15356 net.cpp:168] Memory required for data: 1514878400
I0706 07:02:47.881911 15356 layer_factory.hpp:76] Creating layer relu4
I0706 07:02:47.881920 15356 net.cpp:109] Creating Layer relu4
I0706 07:02:47.881927 15356 net.cpp:457] relu4 <- conv4_clean
I0706 07:02:47.881934 15356 net.cpp:400] relu4 -> conv4_clean (in-place)
I0706 07:02:47.881943 15356 net.cpp:153] Setting up relu4
I0706 07:02:47.881949 15356 net.cpp:160] Top shape: 200 384 13 13 (12979200)
I0706 07:02:47.881954 15356 net.cpp:168] Memory required for data: 1566795200
I0706 07:02:47.881959 15356 layer_factory.hpp:76] Creating layer conv5_clean
I0706 07:02:47.881969 15356 net.cpp:109] Creating Layer conv5_clean
I0706 07:02:47.881974 15356 net.cpp:457] conv5_clean <- conv4_clean
I0706 07:02:47.882012 15356 net.cpp:414] conv5_clean -> conv5_clean
I0706 07:02:47.899557 15356 net.cpp:153] Setting up conv5_clean
I0706 07:02:47.899574 15356 net.cpp:160] Top shape: 200 256 13 13 (8652800)
I0706 07:02:47.899580 15356 net.cpp:168] Memory required for data: 1601406400
I0706 07:02:47.899595 15356 layer_factory.hpp:76] Creating layer relu5
I0706 07:02:47.899603 15356 net.cpp:109] Creating Layer relu5
I0706 07:02:47.899608 15356 net.cpp:457] relu5 <- conv5_clean
I0706 07:02:47.899616 15356 net.cpp:400] relu5 -> conv5_clean (in-place)
I0706 07:02:47.899626 15356 net.cpp:153] Setting up relu5
I0706 07:02:47.899632 15356 net.cpp:160] Top shape: 200 256 13 13 (8652800)
I0706 07:02:47.899637 15356 net.cpp:168] Memory required for data: 1636017600
I0706 07:02:47.899642 15356 layer_factory.hpp:76] Creating layer pool5
I0706 07:02:47.899655 15356 net.cpp:109] Creating Layer pool5
I0706 07:02:47.899660 15356 net.cpp:457] pool5 <- conv5_clean
I0706 07:02:47.899669 15356 net.cpp:414] pool5 -> pool5
I0706 07:02:47.899720 15356 net.cpp:153] Setting up pool5
I0706 07:02:47.899729 15356 net.cpp:160] Top shape: 200 256 6 6 (1843200)
I0706 07:02:47.899734 15356 net.cpp:168] Memory required for data: 1643390400
I0706 07:02:47.899739 15356 layer_factory.hpp:76] Creating layer fc6_clean
I0706 07:02:47.899751 15356 net.cpp:109] Creating Layer fc6_clean
I0706 07:02:47.899756 15356 net.cpp:457] fc6_clean <- pool5
I0706 07:02:47.899765 15356 net.cpp:414] fc6_clean -> fc6_clean
I0706 07:02:49.391830 15356 net.cpp:153] Setting up fc6_clean
I0706 07:02:49.391876 15356 net.cpp:160] Top shape: 200 4096 (819200)
I0706 07:02:49.391882 15356 net.cpp:168] Memory required for data: 1646667200
I0706 07:02:49.391896 15356 layer_factory.hpp:76] Creating layer relu6
I0706 07:02:49.391912 15356 net.cpp:109] Creating Layer relu6
I0706 07:02:49.391921 15356 net.cpp:457] relu6 <- fc6_clean
I0706 07:02:49.391932 15356 net.cpp:400] relu6 -> fc6_clean (in-place)
I0706 07:02:49.391948 15356 net.cpp:153] Setting up relu6
I0706 07:02:49.391954 15356 net.cpp:160] Top shape: 200 4096 (819200)
I0706 07:02:49.391959 15356 net.cpp:168] Memory required for data: 1649944000
I0706 07:02:49.391964 15356 layer_factory.hpp:76] Creating layer drop6
I0706 07:02:49.391974 15356 net.cpp:109] Creating Layer drop6
I0706 07:02:49.391979 15356 net.cpp:457] drop6 <- fc6_clean
I0706 07:02:49.391985 15356 net.cpp:400] drop6 -> fc6_clean (in-place)
I0706 07:02:49.392025 15356 net.cpp:153] Setting up drop6
I0706 07:02:49.392033 15356 net.cpp:160] Top shape: 200 4096 (819200)
I0706 07:02:49.392038 15356 net.cpp:168] Memory required for data: 1653220800
I0706 07:02:49.392042 15356 layer_factory.hpp:76] Creating layer fc7_clean
I0706 07:02:49.392055 15356 net.cpp:109] Creating Layer fc7_clean
I0706 07:02:49.392060 15356 net.cpp:457] fc7_clean <- fc6_clean
I0706 07:02:49.392069 15356 net.cpp:414] fc7_clean -> fc7_clean
I0706 07:02:50.033537 15356 net.cpp:153] Setting up fc7_clean
I0706 07:02:50.033581 15356 net.cpp:160] Top shape: 200 4096 (819200)
I0706 07:02:50.033587 15356 net.cpp:168] Memory required for data: 1656497600
I0706 07:02:50.033601 15356 layer_factory.hpp:76] Creating layer relu7
I0706 07:02:50.033617 15356 net.cpp:109] Creating Layer relu7
I0706 07:02:50.033624 15356 net.cpp:457] relu7 <- fc7_clean
I0706 07:02:50.033635 15356 net.cpp:400] relu7 -> fc7_clean (in-place)
I0706 07:02:50.033653 15356 net.cpp:153] Setting up relu7
I0706 07:02:50.033658 15356 net.cpp:160] Top shape: 200 4096 (819200)
I0706 07:02:50.033663 15356 net.cpp:168] Memory required for data: 1659774400
I0706 07:02:50.033668 15356 layer_factory.hpp:76] Creating layer drop7
I0706 07:02:50.033679 15356 net.cpp:109] Creating Layer drop7
I0706 07:02:50.033682 15356 net.cpp:457] drop7 <- fc7_clean
I0706 07:02:50.033689 15356 net.cpp:400] drop7 -> fc7_clean (in-place)
I0706 07:02:50.033730 15356 net.cpp:153] Setting up drop7
I0706 07:02:50.033740 15356 net.cpp:160] Top shape: 200 4096 (819200)
I0706 07:02:50.033745 15356 net.cpp:168] Memory required for data: 1663051200
I0706 07:02:50.033748 15356 layer_factory.hpp:76] Creating layer fc8_clean
I0706 07:02:50.033809 15356 net.cpp:109] Creating Layer fc8_clean
I0706 07:02:50.033815 15356 net.cpp:457] fc8_clean <- fc7_clean
I0706 07:02:50.033825 15356 net.cpp:414] fc8_clean -> fc8_clean
I0706 07:02:50.183482 15356 net.cpp:153] Setting up fc8_clean
I0706 07:02:50.183502 15356 net.cpp:160] Top shape: 200 967 (193400)
I0706 07:02:50.183507 15356 net.cpp:168] Memory required for data: 1663824800
I0706 07:02:50.183516 15356 layer_factory.hpp:76] Creating layer fc8_clean_fc8_clean_0_split
I0706 07:02:50.183526 15356 net.cpp:109] Creating Layer fc8_clean_fc8_clean_0_split
I0706 07:02:50.183531 15356 net.cpp:457] fc8_clean_fc8_clean_0_split <- fc8_clean
I0706 07:02:50.183539 15356 net.cpp:414] fc8_clean_fc8_clean_0_split -> fc8_clean_fc8_clean_0_split_0
I0706 07:02:50.183548 15356 net.cpp:414] fc8_clean_fc8_clean_0_split -> fc8_clean_fc8_clean_0_split_1
I0706 07:02:50.183596 15356 net.cpp:153] Setting up fc8_clean_fc8_clean_0_split
I0706 07:02:50.183605 15356 net.cpp:160] Top shape: 200 967 (193400)
I0706 07:02:50.183611 15356 net.cpp:160] Top shape: 200 967 (193400)
I0706 07:02:50.183615 15356 net.cpp:168] Memory required for data: 1665372000
I0706 07:02:50.183619 15356 layer_factory.hpp:76] Creating layer accuracy
I0706 07:02:50.183630 15356 net.cpp:109] Creating Layer accuracy
I0706 07:02:50.183634 15356 net.cpp:457] accuracy <- fc8_clean_fc8_clean_0_split_0
I0706 07:02:50.183641 15356 net.cpp:457] accuracy <- label_val-data_1_split_0
I0706 07:02:50.183648 15356 net.cpp:414] accuracy -> accuracy
…
