…
I0708 12:29:59.968691  6878 net.cpp:325] The NetState phase (0) differed from the phase (1) specified by a rule in layer loss3/top-5
I0708 12:29:59.969750  6878 net.cpp:52] Initializing net from parameters:
state {
phase: TRAIN
}
layer {
name: "train-data"
type: "Data"
top: "data"
top: "label"
include {
phase: TRAIN
}
transform_param {
mirror: true
crop_size: 224
mean_file: "/home/zml374/workspace/DIGITS/digits/jobs/20160704-085910-0cc9/mean.binaryproto"
}
data_param {
source: "/home/zml374/workspace/DIGITS/digits/jobs/20160704-085910-0cc9/train_db"
batch_size: 100
backend: LMDB
}
}
layer {
name: "conv1/7x7_s2"
type: "Convolution"
bottom: "data"
top: "conv1/7x7_s2"
param {
lr_mult: 1
decay_mult: 1
}
param {
lr_mult: 2
decay_mult: 0
}
convolution_param {
num_output: 64
pad: 3
kernel_size: 7
stride: 2
weight_filler {
type: "xavier"
std: 0.1
}
bias_filler {
type: "constant"
value: 0.2
}
}
}
layer {
name: "conv1/relu_7x7"
type: "ReLU"
bottom: "conv1/7x7_s2"
top: "conv1/7x7_s2"
}
layer {
name: "pool1/3x3_s2"
type: "Pooling"
bottom: "conv1/7x7_s2"
top: "pool1/3x3_s2"
pooling_param {
pool: MAX
kernel_size: 3
stride: 2
}
}
layer {
name: "pool1/norm1"
type: "LRN"
bottom: "pool1/3x3_s2"
top: "pool1/norm1"
lrn_param {
local_size: 5
alpha: 0.0001
beta: 0.75
}
}
layer {
name: "conv2/3x3_reduce"
type: "Convolution"
bottom: "pool1/norm1"
top: "conv2/3x3_reduce"
param {
lr_mult: 1
decay_mult: 1
}
param {
lr_mult: 2
decay_mult: 0
}
convolution_param {
num_output: 64
kernel_size: 1
weight_filler {
type: "xavier"
std: 0.1
}
bias_filler {
type: "constant"
value: 0.2
}
}
}
layer {
name: "conv2/relu_3x3_reduce"
type: "ReLU"
bottom: "conv2/3x3_reduce"
top: "conv2/3x3_reduce"
}
layer {
name: "conv2/3x3"
type: "Convolution"
bottom: "conv2/3x3_reduce"
top: "conv2/3x3"
param {
lr_mult: 1
decay_mult: 1
}
param {
lr_mult: 2
decay_mult: 0
}
convolution_param {
num_output: 192
pad: 1
kernel_size: 3
weight_filler {
type: "xavier"
std: 0.03
}
bias_filler {
type: "constant"
value: 0.2
}
}
}
layer {
name: "conv2/relu_3x3"
type: "ReLU"
bottom: "conv2/3x3"
top: "conv2/3x3"
}
layer {
name: "conv2/norm2"
type: "LRN"
bottom: "conv2/3x3"
top: "conv2/norm2"
lrn_param {
local_size: 5
alpha: 0.0001
beta: 0.75
}
}
layer {
name: "pool2/3x3_s2"
type: "Pooling"
bottom: "conv2/norm2"
top: "pool2/3x3_s2"
pooling_param {
pool: MAX
kernel_size: 3
stride: 2
}
}
layer {
name: "inception_3a/1x1"
type: "Convolution"
bottom: "pool2/3x3_s2"
top: "inception_3a/1x1"
param {
lr_mult: 1
decay_mult: 1
}
param {
lr_mult: 2
decay_mult: 0
}
convolution_param {
num_output: 64
kernel_size: 1
weight_filler {
type: "xavier"
std: 0.03
}
bias_filler {
type: "constant"
value: 0.2
}
}
}
layer {
name: "inception_3a/relu_1x1"
type: "ReLU"
bottom: "inception_3a/1x1"
top: "inception_3a/1x1"
}
layer {
name: "inception_3a/3x3_reduce"
type: "Convolution"
bottom: "pool2/3x3_s2"
top: "inception_3a/3x3_reduce"
param {
lr_mult: 1
decay_mult: 1
}
param {
lr_mult: 2
decay_mult: 0
}
convolution_param {
num_output: 96
kernel_size: 1
weight_filler {
type: "xavier"
std: 0.09
}
bias_filler {
type: "constant"
value: 0.2
}
}
}
layer {
name: "inception_3a/relu_3x3_reduce"
type: "ReLU"
bottom: "inception_3a/3x3_reduce"
top: "inception_3a/3x3_reduce"
}
layer {
name: "inception_3a/3x3"
type: "Convolution"
bottom: "inception_3a/3x3_reduce"
top: "inception_3a/3x3"
param {
lr_mult: 1
decay_mult: 1
}
param {
lr_mult: 2
decay_mult: 0
}
convolution_param {
num_output: 128
pad: 1
kernel_size: 3
weight_filler {
type: "xavier"
std: 0.03
}
bias_filler {
type: "constant"
value: 0.2
}
}
}
layer {
name: "inception_3a/relu_3x3"
type: "ReLU"
bottom: "inception_3a/3x3"
top: "inception_3a/3x3"
}
layer {
name: "inception_3a/5x5_reduce"
type: "Convolution"
bottom: "pool2/3x3_s2"
top: "inception_3a/5x5_reduce"
param {
lr_mult: 1
decay_mult: 1
}
param {
lr_mult: 2
decay_mult: 0
}
convolution_param {
num_output: 16
kernel_size: 1
weight_filler {
type: "xavier"
std: 0.2
}
bias_filler {
type: "constant"
value: 0.2
}
}
}
layer {
name: "inception_3a/relu_5x5_reduce"
type: "ReLU"
bottom: "inception_3a/5x5_reduce"
top: "inception_3a/5x5_reduce"
}
layer {
name: "inception_3a/5x5"
type: "Convolution"
bottom: "inception_3a/5x5_reduce"
top: "inception_3a/5x5"
param {
lr_mult: 1
decay_mult: 1
}
param {
lr_mult: 2
decay_mult: 0
}
convolution_param {
num_output: 32
pad: 2
kernel_size: 5
weight_filler {
type: "xavier"
std: 0.03
}
bias_filler {
type: "constant"
value: 0.2
}
}
}
layer {
name: "inception_3a/relu_5x5"
type: "ReLU"
bottom: "inception_3a/5x5"
top: "inception_3a/5x5"
}
layer {
name: "inception_3a/pool"
type: "Pooling"
bottom: "pool2/3x3_s2"
top: "inception_3a/pool"
pooling_param {
pool: MAX
kernel_size: 3
stride: 1
pad: 1
}
}
layer {
name: "inception_3a/pool_proj"
type: "Convolution"
bottom: "inception_3a/pool"
top: "inception_3a/pool_proj"
param {
lr_mult: 1
decay_mult: 1
}
param {
lr_mult: 2
decay_mult: 0
}
convolution_param {
num_output: 32
kernel_size: 1
weight_filler {
type: "xavier"
std: 0.1
}
bias_filler {
type: "constant"
value: 0.2
}
}
}
layer {
name: "inception_3a/relu_pool_proj"
type: "ReLU"
bottom: "inception_3a/pool_proj"
top: "inception_3a/pool_proj"
}
layer {
name: "inception_3a/output"
type: "Concat"
bottom: "inception_3a/1x1"
bottom: "inception_3a/3x3"
bottom: "inception_3a/5x5"
bottom: "inception_3a/pool_proj"
top: "inception_3a/output"
}
layer {
name: "inception_3b/1x1"
type: "Convolution"
bottom: "inception_3a/output"
top: "inception_3b/1x1"
param {
lr_mult: 1
decay_mult: 1
}
param {
lr_mult: 2
decay_mult: 0
}
convolution_param {
num_output: 128
kernel_size: 1
weight_filler {
type: "xavier"
std: 0.03
}
bias_filler {
type: "constant"
value: 0.2
}
}
}
layer {
name: "inception_3b/relu_1x1"
type: "ReLU"
bottom: "inception_3b/1x1"
top: "inception_3b/1x1"
}
layer {
name: "inception_3b/3x3_reduce"
type: "Convolution"
bottom: "inception_3a/output"
top: "inception_3b/3x3_reduce"
param {
lr_mult: 1
decay_mult: 1
}
param {
lr_mult: 2
decay_mult: 0
}
convolution_param {
num_output: 128
kernel_size: 1
weight_filler {
type: "xavier"
std: 0.09
}
bias_filler {
type: "constant"
value: 0.2
}
}
}
layer {
name: "inception_3b/relu_3x3_reduce"
type: "ReLU"
bottom: "inception_3b/3x3_reduce"
top: "inception_3b/3x3_reduce"
}
layer {
name: "inception_3b/3x3"
type: "Convolution"
bottom: "inception_3b/3x3_reduce"
top: "inception_3b/3x3"
param {
lr_mult: 1
decay_mult: 1
}
param {
lr_mult: 2
decay_mult: 0
}
convolution_param {
num_output: 192
pad: 1
kernel_size: 3
weight_filler {
type: "xavier"
std: 0.03
}
bias_filler {
type: "constant"
value: 0.2
}
}
}
layer {
name: "inception_3b/relu_3x3"
type: "ReLU"
bottom: "inception_3b/3x3"
top: "inception_3b/3x3"
}
layer {
name: "inception_3b/5x5_reduce"
type: "Convolution"
bottom: "inception_3a/output"
top: "inception_3b/5x5_reduce"
param {
lr_mult: 1
decay_mult: 1
}
param {
lr_mult: 2
decay_mult: 0
}
convolution_param {
num_output: 32
kernel_size: 1
weight_filler {
type: "xavier"
std: 0.2
}
bias_filler {
type: "constant"
value: 0.2
}
}
}
layer {
name: "inception_3b/relu_5x5_reduce"
type: "ReLU"
bottom: "inception_3b/5x5_reduce"
top: "inception_3b/5x5_reduce"
}
layer {
name: "inception_3b/5x5"
type: "Convolution"
bottom: "inception_3b/5x5_reduce"
top: "inception_3b/5x5"
param {
lr_mult: 1
decay_mult: 1
}
param {
lr_mult: 2
decay_mult: 0
}
convolution_param {
num_output: 96
pad: 2
kernel_size: 5
weight_filler {
type: "xavier"
std: 0.03
}
bias_filler {
type: "constant"
value: 0.2
}
}
}
layer {
name: "inception_3b/relu_5x5"
type: "ReLU"
bottom: "inception_3b/5x5"
top: "inception_3b/5x5"
}
layer {
name: "inception_3b/pool"
type: "Pooling"
bottom: "inception_3a/output"
top: "inception_3b/pool"
pooling_param {
pool: MAX
kernel_size: 3
stride: 1
pad: 1
}
}
layer {
name: "inception_3b/pool_proj"
type: "Convolution"
bottom: "inception_3b/pool"
top: "inception_3b/pool_proj"
param {
lr_mult: 1
decay_mult: 1
}
param {
lr_mult: 2
decay_mult: 0
}
convolution_param {
num_output: 64
kernel_size: 1
weight_filler {
type: "xavier"
std: 0.1
}
bias_filler {
type: "constant"
value: 0.2
}
}
}
layer {
name: "inception_3b/relu_pool_proj"
type: "ReLU"
bottom: "inception_3b/pool_proj"
top: "inception_3b/pool_proj"
}
layer {
name: "inception_3b/output"
type: "Concat"
bottom: "inception_3b/1x1"
bottom: "inception_3b/3x3"
bottom: "inception_3b/5x5"
bottom: "inception_3b/pool_proj"
top: "inception_3b/output"
}
layer {
name: "pool3/3x3_s2"
type: "Pooling"
bottom: "inception_3b/output"
top: "pool3/3x3_s2"
pooling_param {
pool: MAX
kernel_size: 3
stride: 2
}
}
layer {
name: "inception_4a/1x1"
type: "Convolution"
bottom: "pool3/3x3_s2"
top: "inception_4a/1x1"
param {
lr_mult: 1
decay_mult: 1
}
param {
lr_mult: 2
decay_mult: 0
}
convolution_param {
num_output: 192
kernel_size: 1
weight_filler {
type: "xavier"
std: 0.03
}
bias_filler {
type: "constant"
value: 0.2
}
}
}
layer {
name: "inception_4a/relu_1x1"
type: "ReLU"
bottom: "inception_4a/1x1"
top: "inception_4a/1x1"
}
layer {
name: "inception_4a/3x3_reduce"
type: "Convolution"
bottom: "pool3/3x3_s2"
top: "inception_4a/3x3_reduce"
param {
lr_mult: 1
decay_mult: 1
}
param {
lr_mult: 2
decay_mult: 0
}
convolution_param {
num_output: 96
kernel_size: 1
weight_filler {
type: "xavier"
std: 0.09
}
bias_filler {
type: "constant"
value: 0.2
}
}
}
layer {
name: "inception_4a/relu_3x3_reduce"
type: "ReLU"
bottom: "inception_4a/3x3_reduce"
top: "inception_4a/3x3_reduce"
}
layer {
name: "inception_4a/3x3"
type: "Convolution"
bottom: "inception_4a/3x3_reduce"
top: "inception_4a/3x3"
param {
lr_mult: 1
decay_mult: 1
}
param {
lr_mult: 2
decay_mult: 0
}
convolution_param {
num_output: 208
pad: 1
kernel_size: 3
weight_filler {
type: "xavier"
std: 0.03
}
bias_filler {
type: "constant"
value: 0.2
}
}
}
layer {
name: "inception_4a/relu_3x3"
type: "ReLU"
bottom: "inception_4a/3x3"
top: "inception_4a/3x3"
}
layer {
name: "inception_4a/5x5_reduce"
type: "Convolution"
bottom: "pool3/3x3_s2"
top: "inception_4a/5x5_reduce"
param {
lr_mult: 1
decay_mult: 1
}
param {
lr_mult: 2
decay_mult: 0
}
convolution_param {
num_output: 16
kernel_size: 1
weight_filler {
type: "xavier"
std: 0.2
}
bias_filler {
type: "constant"
value: 0.2
}
}
}
layer {
name: "inception_4a/relu_5x5_reduce"
type: "ReLU"
bottom: "inception_4a/5x5_reduce"
top: "inception_4a/5x5_reduce"
}
layer {
name: "inception_4a/5x5"
type: "Convolution"
bottom: "inception_4a/5x5_reduce"
top: "inception_4a/5x5"
param {
lr_mult: 1
decay_mult: 1
}
param {
lr_mult: 2
decay_mult: 0
}
convolution_param {
num_output: 48
pad: 2
kernel_size: 5
weight_filler {
type: "xavier"
std: 0.03
}
bias_filler {
type: "constant"
value: 0.2
}
}
}
layer {
name: "inception_4a/relu_5x5"
type: "ReLU"
bottom: "inception_4a/5x5"
top: "inception_4a/5x5"
}
layer {
name: "inception_4a/pool"
type: "Pooling"
bottom: "pool3/3x3_s2"
top: "inception_4a/pool"
pooling_param {
pool: MAX
kernel_size: 3
stride: 1
pad: 1
}
}
layer {
name: "inception_4a/pool_proj"
type: "Convolution"
bottom: "inception_4a/pool"
top: "inception_4a/pool_proj"
param {
lr_mult: 1
decay_mult: 1
}
param {
lr_mult: 2
decay_mult: 0
}
convolution_param {
num_output: 64
kernel_size: 1
weight_filler {
type: "xavier"
std: 0.1
}
bias_filler {
type: "constant"
value: 0.2
}
}
}
layer {
name: "inception_4a/relu_pool_proj"
type: "ReLU"
bottom: "inception_4a/pool_proj"
top: "inception_4a/pool_proj"
}
layer {
name: "inception_4a/output"
type: "Concat"
bottom: "inception_4a/1x1"
bottom: "inception_4a/3x3"
bottom: "inception_4a/5x5"
bottom: "inception_4a/pool_proj"
top: "inception_4a/output"
}
layer {
name: "loss1/ave_pool"
type: "Pooling"
bottom: "inception_4a/output"
top: "loss1/ave_pool"
pooling_param {
pool: AVE
kernel_size: 5
stride: 3
}
}
layer {
name: "loss1/conv"
type: "Convolution"
bottom: "loss1/ave_pool"
top: "loss1/conv"
param {
lr_mult: 1
decay_mult: 1
}
param {
lr_mult: 2
decay_mult: 0
}
convolution_param {
num_output: 128
kernel_size: 1
weight_filler {
type: "xavier"
std: 0.08
}
bias_filler {
type: "constant"
value: 0.2
}
}
}
layer {
name: "loss1/relu_conv"
type: "ReLU"
bottom: "loss1/conv"
top: "loss1/conv"
}
layer {
name: "loss1/fc"
type: "InnerProduct"
bottom: "loss1/conv"
top: "loss1/fc"
param {
lr_mult: 1
decay_mult: 1
}
param {
lr_mult: 2
decay_mult: 0
}
inner_product_param {
num_output: 1024
weight_filler {
type: "xavier"
std: 0.02
}
bias_filler {
type: "constant"
value: 0.2
}
}
}
layer {
name: "loss1/relu_fc"
type: "ReLU"
bottom: "loss1/fc"
top: "loss1/fc"
}
layer {
name: "loss1/drop_fc"
type: "Dropout"
bottom: "loss1/fc"
top: "loss1/fc"
dropout_param {
dropout_ratio: 0.7
}
}
layer {
name: "loss1/classifier_clean"
type: "InnerProduct"
bottom: "loss1/fc"
top: "loss1/classifier_clean"
param {
lr_mult: 1
decay_mult: 1
}
param {
lr_mult: 2
decay_mult: 0
}
inner_product_param {
num_output: 967
weight_filler {
type: "xavier"
std: 0.0009765625
}
bias_filler {
type: "constant"
value: 0
}
}
}
layer {
name: "loss1/loss"
type: "SoftmaxWithLoss"
bottom: "loss1/classifier_clean"
bottom: "label"
top: "loss1/loss"
loss_weight: 0.3
}
layer {
name: "inception_4b/1x1"
type: "Convolution"
bottom: "inception_4a/output"
top: "inception_4b/1x1"
param {
lr_mult: 1
decay_mult: 1
}
param {
lr_mult: 2
decay_mult: 0
}
convolution_param {
num_output: 160
kernel_size: 1
weight_filler {
type: "xavier"
std: 0.03
}
bias_filler {
type: "constant"
value: 0.2
}
}
}
layer {
name: "inception_4b/relu_1x1"
type: "ReLU"
bottom: "inception_4b/1x1"
top: "inception_4b/1x1"
}
layer {
name: "inception_4b/3x3_reduce"
type: "Convolution"
bottom: "inception_4a/output"
top: "inception_4b/3x3_reduce"
param {
lr_mult: 1
decay_mult: 1
}
param {
lr_mult: 2
decay_mult: 0
}
convolution_param {
num_output: 112
kernel_size: 1
weight_filler {
type: "xavier"
std: 0.09
}
bias_filler {
type: "constant"
value: 0.2
}
}
}
layer {
name: "inception_4b/relu_3x3_reduce"
type: "ReLU"
bottom: "inception_4b/3x3_reduce"
top: "inception_4b/3x3_reduce"
}
layer {
name: "inception_4b/3x3"
type: "Convolution"
bottom: "inception_4b/3x3_reduce"
top: "inception_4b/3x3"
param {
lr_mult: 1
decay_mult: 1
}
param {
lr_mult: 2
decay_mult: 0
}
convolution_param {
num_output: 224
pad: 1
kernel_size: 3
weight_filler {
type: "xavier"
std: 0.03
}
bias_filler {
type: "constant"
value: 0.2
}
}
}
layer {
name: "inception_4b/relu_3x3"
type: "ReLU"
bottom: "inception_4b/3x3"
top: "inception_4b/3x3"
}
layer {
name: "inception_4b/5x5_reduce"
type: "Convolution"
bottom: "inception_4a/output"
top: "inception_4b/5x5_reduce"
param {
lr_mult: 1
decay_mult: 1
}
param {
lr_mult: 2
decay_mult: 0
}
convolution_param {
num_output: 24
kernel_size: 1
weight_filler {
type: "xavier"
std: 0.2
}
bias_filler {
type: "constant"
value: 0.2
}
}
}
layer {
name: "inception_4b/relu_5x5_reduce"
type: "ReLU"
bottom: "inception_4b/5x5_reduce"
top: "inception_4b/5x5_reduce"
}
layer {
name: "inception_4b/5x5"
type: "Convolution"
bottom: "inception_4b/5x5_reduce"
top: "inception_4b/5x5"
param {
lr_mult: 1
decay_mult: 1
}
param {
lr_mult: 2
decay_mult: 0
}
convolution_param {
num_output: 64
pad: 2
kernel_size: 5
weight_filler {
type: "xavier"
std: 0.03
}
bias_filler {
type: "constant"
value: 0.2
}
}
}
layer {
name: "inception_4b/relu_5x5"
type: "ReLU"
bottom: "inception_4b/5x5"
top: "inception_4b/5x5"
}
layer {
name: "inception_4b/pool"
type: "Pooling"
bottom: "inception_4a/output"
top: "inception_4b/pool"
pooling_param {
pool: MAX
kernel_size: 3
stride: 1
pad: 1
}
}
layer {
name: "inception_4b/pool_proj"
type: "Convolution"
bottom: "inception_4b/pool"
top: "inception_4b/pool_proj"
param {
lr_mult: 1
decay_mult: 1
}
param {
lr_mult: 2
decay_mult: 0
}
convolution_param {
num_output: 64
kernel_size: 1
weight_filler {
type: "xavier"
std: 0.1
}
bias_filler {
type: "constant"
value: 0.2
}
}
}
layer {
name: "inception_4b/relu_pool_proj"
type: "ReLU"
bottom: "inception_4b/pool_proj"
top: "inception_4b/pool_proj"
}
layer {
name: "inception_4b/output"
type: "Concat"
bottom: "inception_4b/1x1"
bottom: "inception_4b/3x3"
bottom: "inception_4b/5x5"
bottom: "inception_4b/pool_proj"
top: "inception_4b/output"
}
layer {
name: "inception_4c/1x1"
type: "Convolution"
bottom: "inception_4b/output"
top: "inception_4c/1x1"
param {
lr_mult: 1
decay_mult: 1
}
param {
lr_mult: 2
decay_mult: 0
}
convolution_param {
num_output: 128
kernel_size: 1
weight_filler {
type: "xavier"
std: 0.03
}
bias_filler {
type: "constant"
value: 0.2
}
}
}
layer {
name: "inception_4c/relu_1x1"
type: "ReLU"
bottom: "inception_4c/1x1"
top: "inception_4c/1x1"
}
layer {
name: "inception_4c/3x3_reduce"
type: "Convolution"
bottom: "inception_4b/output"
top: "inception_4c/3x3_reduce"
param {
lr_mult: 1
decay_mult: 1
}
param {
lr_mult: 2
decay_mult: 0
}
convolution_param {
num_output: 128
kernel_size: 1
weight_filler {
type: "xavier"
std: 0.09
}
bias_filler {
type: "constant"
value: 0.2
}
}
}
layer {
name: "inception_4c/relu_3x3_reduce"
type: "ReLU"
bottom: "inception_4c/3x3_reduce"
top: "inception_4c/3x3_reduce"
}
layer {
name: "inception_4c/3x3"
type: "Convolution"
bottom: "inception_4c/3x3_reduce"
top: "inception_4c/3x3"
param {
lr_mult: 1
decay_mult: 1
}
param {
lr_mult: 2
decay_mult: 0
}
convolution_param {
num_output: 256
pad: 1
kernel_size: 3
weight_filler {
type: "xavier"
std: 0.03
}
bias_filler {
type: "constant"
value: 0.2
}
}
}
layer {
name: "inception_4c/relu_3x3"
type: "ReLU"
bottom: "inception_4c/3x3"
top: "inception_4c/3x3"
}
layer {
name: "inception_4c/5x5_reduce"
type: "Convolution"
bottom: "inception_4b/output"
top: "inception_4c/5x5_reduce"
param {
lr_mult: 1
decay_mult: 1
}
param {
lr_mult: 2
decay_mult: 0
}
convolution_param {
num_output: 24
kernel_size: 1
weight_filler {
type: "xavier"
std: 0.2
}
bias_filler {
type: "constant"
value: 0.2
}
}
}
layer {
name: "inception_4c/relu_5x5_reduce"
type: "ReLU"
bottom: "inception_4c/5x5_reduce"
top: "inception_4c/5x5_reduce"
}
layer {
name: "inception_4c/5x5"
type: "Convolution"
bottom: "inception_4c/5x5_reduce"
top: "inception_4c/5x5"
param {
lr_mult: 1
decay_mult: 1
}
param {
lr_mult: 2
decay_mult: 0
}
convolution_param {
num_output: 64
pad: 2
kernel_size: 5
weight_filler {
type: "xavier"
std: 0.03
}
bias_filler {
type: "constant"
value: 0.2
}
}
}
layer {
name: "inception_4c/relu_5x5"
type: "ReLU"
bottom: "inception_4c/5x5"
top: "inception_4c/5x5"
}
layer {
name: "inception_4c/pool"
type: "Pooling"
bottom: "inception_4b/output"
top: "inception_4c/pool"
pooling_param {
pool: MAX
kernel_size: 3
stride: 1
pad: 1
}
}
layer {
name: "inception_4c/pool_proj"
type: "Convolution"
bottom: "inception_4c/pool"
top: "inception_4c/pool_proj"
param {
lr_mult: 1
decay_mult: 1
}
param {
lr_mult: 2
decay_mult: 0
}
convolution_param {
num_output: 64
kernel_size: 1
weight_filler {
type: "xavier"
std: 0.1
}
bias_filler {
type: "constant"
value: 0.2
}
}
}
layer {
name: "inception_4c/relu_pool_proj"
type: "ReLU"
bottom: "inception_4c/pool_proj"
top: "inception_4c/pool_proj"
}
layer {
name: "inception_4c/output"
type: "Concat"
bottom: "inception_4c/1x1"
bottom: "inception_4c/3x3"
bottom: "inception_4c/5x5"
bottom: "inception_4c/pool_proj"
top: "inception_4c/output"
}
layer {
name: "inception_4d/1x1"
type: "Convolution"
bottom: "inception_4c/output"
top: "inception_4d/1x1"
param {
lr_mult: 1
decay_mult: 1
}
param {
lr_mult: 2
decay_mult: 0
}
convolution_param {
num_output: 112
kernel_size: 1
weight_filler {
type: "xavier"
std: 0.03
}
bias_filler {
type: "constant"
value: 0.2
}
}
}
layer {
name: "inception_4d/relu_1x1"
type: "ReLU"
bottom: "inception_4d/1x1"
top: "inception_4d/1x1"
}
layer {
name: "inception_4d/3x3_reduce"
type: "Convolution"
bottom: "inception_4c/output"
top: "inception_4d/3x3_reduce"
param {
lr_mult: 1
decay_mult: 1
}
param {
lr_mult: 2
decay_mult: 0
}
convolution_param {
num_output: 144
kernel_size: 1
weight_filler {
type: "xavier"
std: 0.09
}
bias_filler {
type: "constant"
value: 0.2
}
}
}
layer {
name: "inception_4d/relu_3x3_reduce"
type: "ReLU"
bottom: "inception_4d/3x3_reduce"
top: "inception_4d/3x3_reduce"
}
layer {
name: "inception_4d/3x3"
type: "Convolution"
bottom: "inception_4d/3x3_reduce"
top: "inception_4d/3x3"
param {
lr_mult: 1
decay_mult: 1
}
param {
lr_mult: 2
decay_mult: 0
}
convolution_param {
num_output: 288
pad: 1
kernel_size: 3
weight_filler {
type: "xavier"
std: 0.03
}
bias_filler {
type: "constant"
value: 0.2
}
}
}
layer {
name: "inception_4d/relu_3x3"
type: "ReLU"
bottom: "inception_4d/3x3"
top: "inception_4d/3x3"
}
layer {
name: "inception_4d/5x5_reduce"
type: "Convolution"
bottom: "inception_4c/output"
top: "inception_4d/5x5_reduce"
param {
lr_mult: 1
decay_mult: 1
}
param {
lr_mult: 2
decay_mult: 0
}
convolution_param {
num_output: 32
kernel_size: 1
weight_filler {
type: "xavier"
std: 0.2
}
bias_filler {
type: "constant"
value: 0.2
}
}
}
layer {
name: "inception_4d/relu_5x5_reduce"
type: "ReLU"
bottom: "inception_4d/5x5_reduce"
top: "inception_4d/5x5_reduce"
}
layer {
name: "inception_4d/5x5"
type: "Convolution"
bottom: "inception_4d/5x5_reduce"
top: "inception_4d/5x5"
param {
lr_mult: 1
decay_mult: 1
}
param {
lr_mult: 2
decay_mult: 0
}
convolution_param {
num_output: 64
pad: 2
kernel_size: 5
weight_filler {
type: "xavier"
std: 0.03
}
bias_filler {
type: "constant"
value: 0.2
}
}
}
layer {
name: "inception_4d/relu_5x5"
type: "ReLU"
bottom: "inception_4d/5x5"
top: "inception_4d/5x5"
}
layer {
name: "inception_4d/pool"
type: "Pooling"
bottom: "inception_4c/output"
top: "inception_4d/pool"
pooling_param {
pool: MAX
kernel_size: 3
stride: 1
pad: 1
}
}
layer {
name: "inception_4d/pool_proj"
type: "Convolution"
bottom: "inception_4d/pool"
top: "inception_4d/pool_proj"
param {
lr_mult: 1
decay_mult: 1
}
param {
lr_mult: 2
decay_mult: 0
}
convolution_param {
num_output: 64
kernel_size: 1
weight_filler {
type: "xavier"
std: 0.1
}
bias_filler {
type: "constant"
value: 0.2
}
}
}
layer {
name: "inception_4d/relu_pool_proj"
type: "ReLU"
bottom: "inception_4d/pool_proj"
top: "inception_4d/pool_proj"
}
layer {
name: "inception_4d/output"
type: "Concat"
bottom: "inception_4d/1x1"
bottom: "inception_4d/3x3"
bottom: "inception_4d/5x5"
bottom: "inception_4d/pool_proj"
top: "inception_4d/output"
}
layer {
name: "loss2/ave_pool"
type: "Pooling"
bottom: "inception_4d/output"
top: "loss2/ave_pool"
pooling_param {
pool: AVE
kernel_size: 5
stride: 3
}
}
layer {
name: "loss2/conv"
type: "Convolution"
bottom: "loss2/ave_pool"
top: "loss2/conv"
param {
lr_mult: 1
decay_mult: 1
}
param {
lr_mult: 2
decay_mult: 0
}
convolution_param {
num_output: 128
kernel_size: 1
weight_filler {
type: "xavier"
std: 0.08
}
bias_filler {
type: "constant"
value: 0.2
}
}
}
layer {
name: "loss2/relu_conv"
type: "ReLU"
bottom: "loss2/conv"
top: "loss2/conv"
}
layer {
name: "loss2/fc"
type: "InnerProduct"
bottom: "loss2/conv"
top: "loss2/fc"
param {
lr_mult: 1
decay_mult: 1
}
param {
lr_mult: 2
decay_mult: 0
}
inner_product_param {
num_output: 1024
weight_filler {
type: "xavier"
std: 0.02
}
bias_filler {
type: "constant"
value: 0.2
}
}
}
layer {
name: "loss2/relu_fc"
type: "ReLU"
bottom: "loss2/fc"
top: "loss2/fc"
}
layer {
name: "loss2/drop_fc"
type: "Dropout"
bottom: "loss2/fc"
top: "loss2/fc"
dropout_param {
dropout_ratio: 0.7
}
}
layer {
name: "loss2/classifier_clean"
type: "InnerProduct"
bottom: "loss2/fc"
top: "loss2/classifier_clean"
param {
lr_mult: 1
decay_mult: 1
}
param {
lr_mult: 2
decay_mult: 0
}
inner_product_param {
num_output: 967
weight_filler {
type: "xavier"
std: 0.0009765625
}
bias_filler {
type: "constant"
value: 0
}
}
}
layer {
name: "loss2/loss"
type: "SoftmaxWithLoss"
bottom: "loss2/classifier_clean"
bottom: "label"
top: "loss2/loss"
loss_weight: 0.3
}
layer {
name: "inception_4e/1x1"
type: "Convolution"
bottom: "inception_4d/output"
top: "inception_4e/1x1"
param {
lr_mult: 1
decay_mult: 1
}
param {
lr_mult: 2
decay_mult: 0
}
convolution_param {
num_output: 256
kernel_size: 1
weight_filler {
type: "xavier"
std: 0.03
}
bias_filler {
type: "constant"
value: 0.2
}
}
}
layer {
name: "inception_4e/relu_1x1"
type: "ReLU"
bottom: "inception_4e/1x1"
top: "inception_4e/1x1"
}
layer {
name: "inception_4e/3x3_reduce"
type: "Convolution"
bottom: "inception_4d/output"
top: "inception_4e/3x3_reduce"
param {
lr_mult: 1
decay_mult: 1
}
param {
lr_mult: 2
decay_mult: 0
}
convolution_param {
num_output: 160
kernel_size: 1
weight_filler {
type: "xavier"
std: 0.09
}
bias_filler {
type: "constant"
value: 0.2
}
}
}
layer {
name: "inception_4e/relu_3x3_reduce"
type: "ReLU"
bottom: "inception_4e/3x3_reduce"
top: "inception_4e/3x3_reduce"
}
layer {
name: "inception_4e/3x3"
type: "Convolution"
bottom: "inception_4e/3x3_reduce"
top: "inception_4e/3x3"
param {
lr_mult: 1
decay_mult: 1
}
param {
lr_mult: 2
decay_mult: 0
}
convolution_param {
num_output: 320
pad: 1
kernel_size: 3
weight_filler {
type: "xavier"
std: 0.03
}
bias_filler {
type: "constant"
value: 0.2
}
}
}
layer {
name: "inception_4e/relu_3x3"
type: "ReLU"
bottom: "inception_4e/3x3"
top: "inception_4e/3x3"
}
layer {
name: "inception_4e/5x5_reduce"
type: "Convolution"
bottom: "inception_4d/output"
top: "inception_4e/5x5_reduce"
param {
lr_mult: 1
decay_mult: 1
}
param {
lr_mult: 2
decay_mult: 0
}
convolution_param {
num_output: 32
kernel_size: 1
weight_filler {
type: "xavier"
std: 0.2
}
bias_filler {
I0708 12:29:59.970552  6878 layer_factory.hpp:76] Creating layer train-data
I0708 12:29:59.971146  6878 net.cpp:109] Creating Layer train-data
I0708 12:29:59.971163  6878 net.cpp:414] train-data -> data
I0708 12:29:59.971199  6878 net.cpp:414] train-data -> label
I0708 12:29:59.971221  6878 data_transformer.cpp:25] Loading mean file from: /home/zml374/workspace/DIGITS/digits/jobs/20160704-085910-0cc9/mean.binaryproto
I0708 12:29:59.973547  6906 db_lmdb.cpp:36] Opened lmdb /home/zml374/workspace/DIGITS/digits/jobs/20160704-085910-0cc9/train_db
I0708 12:29:59.979459  6878 data_layer.cpp:45] output data size: 100,3,224,224
I0708 12:30:00.125316  6878 net.cpp:153] Setting up train-data
I0708 12:30:00.125370  6878 net.cpp:160] Top shape: 100 3 224 224 (15052800)
I0708 12:30:00.125380  6878 net.cpp:160] Top shape: 100 (100)
I0708 12:30:00.125385  6878 net.cpp:168] Memory required for data: 60211600
I0708 12:30:00.125404  6878 layer_factory.hpp:76] Creating layer label_train-data_1_split
I0708 12:30:00.125435  6878 net.cpp:109] Creating Layer label_train-data_1_split
I0708 12:30:00.125443  6878 net.cpp:457] label_train-data_1_split <- label
I0708 12:30:00.125463  6878 net.cpp:414] label_train-data_1_split -> label_train-data_1_split_0
I0708 12:30:00.125478  6878 net.cpp:414] label_train-data_1_split -> label_train-data_1_split_1
I0708 12:30:00.125486  6878 net.cpp:414] label_train-data_1_split -> label_train-data_1_split_2
I0708 12:30:00.125691  6878 net.cpp:153] Setting up label_train-data_1_split
I0708 12:30:00.125705  6878 net.cpp:160] Top shape: 100 (100)
I0708 12:30:00.125710  6878 net.cpp:160] Top shape: 100 (100)
I0708 12:30:00.125716  6878 net.cpp:160] Top shape: 100 (100)
I0708 12:30:00.125721  6878 net.cpp:168] Memory required for data: 60212800
I0708 12:30:00.125726  6878 layer_factory.hpp:76] Creating layer conv1/7x7_s2
I0708 12:30:00.125746  6878 net.cpp:109] Creating Layer conv1/7x7_s2
I0708 12:30:00.125751  6878 net.cpp:457] conv1/7x7_s2 <- data
I0708 12:30:00.125761  6878 net.cpp:414] conv1/7x7_s2 -> conv1/7x7_s2
I0708 12:30:00.127080  6878 net.cpp:153] Setting up conv1/7x7_s2
I0708 12:30:00.127096  6878 net.cpp:160] Top shape: 100 64 112 112 (80281600)
I0708 12:30:00.127101  6878 net.cpp:168] Memory required for data: 381339200
I0708 12:30:00.127120  6878 layer_factory.hpp:76] Creating layer conv1/relu_7x7
I0708 12:30:00.127131  6878 net.cpp:109] Creating Layer conv1/relu_7x7
I0708 12:30:00.127137  6878 net.cpp:457] conv1/relu_7x7 <- conv1/7x7_s2
I0708 12:30:00.127146  6878 net.cpp:400] conv1/relu_7x7 -> conv1/7x7_s2 (in-place)
I0708 12:30:00.127161  6878 net.cpp:153] Setting up conv1/relu_7x7
I0708 12:30:00.127167  6878 net.cpp:160] Top shape: 100 64 112 112 (80281600)
I0708 12:30:00.127171  6878 net.cpp:168] Memory required for data: 702465600
I0708 12:30:00.127177  6878 layer_factory.hpp:76] Creating layer pool1/3x3_s2
I0708 12:30:00.127188  6878 net.cpp:109] Creating Layer pool1/3x3_s2
I0708 12:30:00.127192  6878 net.cpp:457] pool1/3x3_s2 <- conv1/7x7_s2
I0708 12:30:00.127200  6878 net.cpp:414] pool1/3x3_s2 -> pool1/3x3_s2
I0708 12:30:00.127264  6878 net.cpp:153] Setting up pool1/3x3_s2
I0708 12:30:00.127280  6878 net.cpp:160] Top shape: 100 64 56 56 (20070400)
I0708 12:30:00.127285  6878 net.cpp:168] Memory required for data: 782747200
I0708 12:30:00.127290  6878 layer_factory.hpp:76] Creating layer pool1/norm1
I0708 12:30:00.127302  6878 net.cpp:109] Creating Layer pool1/norm1
I0708 12:30:00.127308  6878 net.cpp:457] pool1/norm1 <- pool1/3x3_s2
I0708 12:30:00.127315  6878 net.cpp:414] pool1/norm1 -> pool1/norm1
I0708 12:30:00.127364  6878 net.cpp:153] Setting up pool1/norm1
I0708 12:30:00.127377  6878 net.cpp:160] Top shape: 100 64 56 56 (20070400)
I0708 12:30:00.127382  6878 net.cpp:168] Memory required for data: 863028800
I0708 12:30:00.127388  6878 layer_factory.hpp:76] Creating layer conv2/3x3_reduce
I0708 12:30:00.127400  6878 net.cpp:109] Creating Layer conv2/3x3_reduce
I0708 12:30:00.127405  6878 net.cpp:457] conv2/3x3_reduce <- pool1/norm1
I0708 12:30:00.127415  6878 net.cpp:414] conv2/3x3_reduce -> conv2/3x3_reduce
I0708 12:30:00.129238  6878 net.cpp:153] Setting up conv2/3x3_reduce
I0708 12:30:00.129254  6878 net.cpp:160] Top shape: 100 64 56 56 (20070400)
I0708 12:30:00.129259  6878 net.cpp:168] Memory required for data: 943310400
I0708 12:30:00.129271  6878 layer_factory.hpp:76] Creating layer conv2/relu_3x3_reduce
I0708 12:30:00.129279  6878 net.cpp:109] Creating Layer conv2/relu_3x3_reduce
I0708 12:30:00.129286  6878 net.cpp:457] conv2/relu_3x3_reduce <- conv2/3x3_reduce
I0708 12:30:00.129292  6878 net.cpp:400] conv2/relu_3x3_reduce -> conv2/3x3_reduce (in-place)
I0708 12:30:00.129302  6878 net.cpp:153] Setting up conv2/relu_3x3_reduce
I0708 12:30:00.129309  6878 net.cpp:160] Top shape: 100 64 56 56 (20070400)
I0708 12:30:00.129314  6878 net.cpp:168] Memory required for data: 1023592000
I0708 12:30:00.129320  6878 layer_factory.hpp:76] Creating layer conv2/3x3
I0708 12:30:00.129333  6878 net.cpp:109] Creating Layer conv2/3x3
I0708 12:30:00.129338  6878 net.cpp:457] conv2/3x3 <- conv2/3x3_reduce
I0708 12:30:00.129345  6878 net.cpp:414] conv2/3x3 -> conv2/3x3
I0708 12:30:00.131168  6878 net.cpp:153] Setting up conv2/3x3
I0708 12:30:00.131182  6878 net.cpp:160] Top shape: 100 192 56 56 (60211200)
I0708 12:30:00.131187  6878 net.cpp:168] Memory required for data: 1264436800
I0708 12:30:00.131199  6878 layer_factory.hpp:76] Creating layer conv2/relu_3x3
I0708 12:30:00.131209  6878 net.cpp:109] Creating Layer conv2/relu_3x3
I0708 12:30:00.131247  6878 net.cpp:457] conv2/relu_3x3 <- conv2/3x3
I0708 12:30:00.131258  6878 net.cpp:400] conv2/relu_3x3 -> conv2/3x3 (in-place)
I0708 12:30:00.131268  6878 net.cpp:153] Setting up conv2/relu_3x3
I0708 12:30:00.131274  6878 net.cpp:160] Top shape: 100 192 56 56 (60211200)
I0708 12:30:00.131278  6878 net.cpp:168] Memory required for data: 1505281600
I0708 12:30:00.131283  6878 layer_factory.hpp:76] Creating layer conv2/norm2
I0708 12:30:00.131292  6878 net.cpp:109] Creating Layer conv2/norm2
I0708 12:30:00.131296  6878 net.cpp:457] conv2/norm2 <- conv2/3x3
I0708 12:30:00.131304  6878 net.cpp:414] conv2/norm2 -> conv2/norm2
I0708 12:30:00.131350  6878 net.cpp:153] Setting up conv2/norm2
I0708 12:30:00.131359  6878 net.cpp:160] Top shape: 100 192 56 56 (60211200)
I0708 12:30:00.131363  6878 net.cpp:168] Memory required for data: 1746126400
I0708 12:30:00.131368  6878 layer_factory.hpp:76] Creating layer pool2/3x3_s2
I0708 12:30:00.131376  6878 net.cpp:109] Creating Layer pool2/3x3_s2
I0708 12:30:00.131381  6878 net.cpp:457] pool2/3x3_s2 <- conv2/norm2
I0708 12:30:00.131388  6878 net.cpp:414] pool2/3x3_s2 -> pool2/3x3_s2
I0708 12:30:00.131428  6878 net.cpp:153] Setting up pool2/3x3_s2
I0708 12:30:00.131436  6878 net.cpp:160] Top shape: 100 192 28 28 (15052800)
I0708 12:30:00.131440  6878 net.cpp:168] Memory required for data: 1806337600
I0708 12:30:00.131445  6878 layer_factory.hpp:76] Creating layer pool2/3x3_s2_pool2/3x3_s2_0_split
I0708 12:30:00.131454  6878 net.cpp:109] Creating Layer pool2/3x3_s2_pool2/3x3_s2_0_split
I0708 12:30:00.131459  6878 net.cpp:457] pool2/3x3_s2_pool2/3x3_s2_0_split <- pool2/3x3_s2
I0708 12:30:00.131467  6878 net.cpp:414] pool2/3x3_s2_pool2/3x3_s2_0_split -> pool2/3x3_s2_pool2/3x3_s2_0_split_0
I0708 12:30:00.131475  6878 net.cpp:414] pool2/3x3_s2_pool2/3x3_s2_0_split -> pool2/3x3_s2_pool2/3x3_s2_0_split_1
I0708 12:30:00.131484  6878 net.cpp:414] pool2/3x3_s2_pool2/3x3_s2_0_split -> pool2/3x3_s2_pool2/3x3_s2_0_split_2
I0708 12:30:00.131491  6878 net.cpp:414] pool2/3x3_s2_pool2/3x3_s2_0_split -> pool2/3x3_s2_pool2/3x3_s2_0_split_3
I0708 12:30:00.131551  6878 net.cpp:153] Setting up pool2/3x3_s2_pool2/3x3_s2_0_split
I0708 12:30:00.131558  6878 net.cpp:160] Top shape: 100 192 28 28 (15052800)
I0708 12:30:00.131564  6878 net.cpp:160] Top shape: 100 192 28 28 (15052800)
I0708 12:30:00.131569  6878 net.cpp:160] Top shape: 100 192 28 28 (15052800)
I0708 12:30:00.131575  6878 net.cpp:160] Top shape: 100 192 28 28 (15052800)
I0708 12:30:00.131579  6878 net.cpp:168] Memory required for data: 2047182400
I0708 12:30:00.131583  6878 layer_factory.hpp:76] Creating layer inception_3a/1x1
I0708 12:30:00.131593  6878 net.cpp:109] Creating Layer inception_3a/1x1
I0708 12:30:00.131598  6878 net.cpp:457] inception_3a/1x1 <- pool2/3x3_s2_pool2/3x3_s2_0_split_0
I0708 12:30:00.131605  6878 net.cpp:414] inception_3a/1x1 -> inception_3a/1x1
I0708 12:30:00.132666  6878 net.cpp:153] Setting up inception_3a/1x1
I0708 12:30:00.132683  6878 net.cpp:160] Top shape: 100 64 28 28 (5017600)
I0708 12:30:00.132688  6878 net.cpp:168] Memory required for data: 2067252800
I0708 12:30:00.132695  6878 layer_factory.hpp:76] Creating layer inception_3a/relu_1x1
I0708 12:30:00.132704  6878 net.cpp:109] Creating Layer inception_3a/relu_1x1
I0708 12:30:00.132710  6878 net.cpp:457] inception_3a/relu_1x1 <- inception_3a/1x1
I0708 12:30:00.132719  6878 net.cpp:400] inception_3a/relu_1x1 -> inception_3a/1x1 (in-place)
I0708 12:30:00.132728  6878 net.cpp:153] Setting up inception_3a/relu_1x1
I0708 12:30:00.132735  6878 net.cpp:160] Top shape: 100 64 28 28 (5017600)
I0708 12:30:00.132740  6878 net.cpp:168] Memory required for data: 2087323200
I0708 12:30:00.132743  6878 layer_factory.hpp:76] Creating layer inception_3a/3x3_reduce
I0708 12:30:00.132755  6878 net.cpp:109] Creating Layer inception_3a/3x3_reduce
I0708 12:30:00.132760  6878 net.cpp:457] inception_3a/3x3_reduce <- pool2/3x3_s2_pool2/3x3_s2_0_split_1
I0708 12:30:00.132768  6878 net.cpp:414] inception_3a/3x3_reduce -> inception_3a/3x3_reduce
I0708 12:30:00.133901  6878 net.cpp:153] Setting up inception_3a/3x3_reduce
I0708 12:30:00.133916  6878 net.cpp:160] Top shape: 100 96 28 28 (7526400)
I0708 12:30:00.133920  6878 net.cpp:168] Memory required for data: 2117428800
I0708 12:30:00.133934  6878 layer_factory.hpp:76] Creating layer inception_3a/relu_3x3_reduce
I0708 12:30:00.133945  6878 net.cpp:109] Creating Layer inception_3a/relu_3x3_reduce
I0708 12:30:00.133950  6878 net.cpp:457] inception_3a/relu_3x3_reduce <- inception_3a/3x3_reduce
I0708 12:30:00.133958  6878 net.cpp:400] inception_3a/relu_3x3_reduce -> inception_3a/3x3_reduce (in-place)
I0708 12:30:00.133968  6878 net.cpp:153] Setting up inception_3a/relu_3x3_reduce
I0708 12:30:00.133975  6878 net.cpp:160] Top shape: 100 96 28 28 (7526400)
I0708 12:30:00.133978  6878 net.cpp:168] Memory required for data: 2147534400
I0708 12:30:00.133983  6878 layer_factory.hpp:76] Creating layer inception_3a/3x3
I0708 12:30:00.133993  6878 net.cpp:109] Creating Layer inception_3a/3x3
I0708 12:30:00.133997  6878 net.cpp:457] inception_3a/3x3 <- inception_3a/3x3_reduce
I0708 12:30:00.134006  6878 net.cpp:414] inception_3a/3x3 -> inception_3a/3x3
I0708 12:30:00.135043  6878 net.cpp:153] Setting up inception_3a/3x3
I0708 12:30:00.135056  6878 net.cpp:160] Top shape: 100 128 28 28 (10035200)
I0708 12:30:00.135059  6878 net.cpp:168] Memory required for data: 2187675200
I0708 12:30:00.135067  6878 layer_factory.hpp:76] Creating layer inception_3a/relu_3x3
I0708 12:30:00.135076  6878 net.cpp:109] Creating Layer inception_3a/relu_3x3
I0708 12:30:00.135082  6878 net.cpp:457] inception_3a/relu_3x3 <- inception_3a/3x3
I0708 12:30:00.135089  6878 net.cpp:400] inception_3a/relu_3x3 -> inception_3a/3x3 (in-place)
I0708 12:30:00.135098  6878 net.cpp:153] Setting up inception_3a/relu_3x3
I0708 12:30:00.135104  6878 net.cpp:160] Top shape: 100 128 28 28 (10035200)
I0708 12:30:00.135108  6878 net.cpp:168] Memory required for data: 2227816000
I0708 12:30:00.135113  6878 layer_factory.hpp:76] Creating layer inception_3a/5x5_reduce
I0708 12:30:00.135123  6878 net.cpp:109] Creating Layer inception_3a/5x5_reduce
I0708 12:30:00.135128  6878 net.cpp:457] inception_3a/5x5_reduce <- pool2/3x3_s2_pool2/3x3_s2_0_split_2
I0708 12:30:00.135138  6878 net.cpp:414] inception_3a/5x5_reduce -> inception_3a/5x5_reduce
I0708 12:30:00.135424  6878 net.cpp:153] Setting up inception_3a/5x5_reduce
I0708 12:30:00.135437  6878 net.cpp:160] Top shape: 100 16 28 28 (1254400)
I0708 12:30:00.135440  6878 net.cpp:168] Memory required for data: 2232833600
I0708 12:30:00.135448  6878 layer_factory.hpp:76] Creating layer inception_3a/relu_5x5_reduce
I0708 12:30:00.135457  6878 net.cpp:109] Creating Layer inception_3a/relu_5x5_reduce
I0708 12:30:00.135462  6878 net.cpp:457] inception_3a/relu_5x5_reduce <- inception_3a/5x5_reduce
I0708 12:30:00.135470  6878 net.cpp:400] inception_3a/relu_5x5_reduce -> inception_3a/5x5_reduce (in-place)
I0708 12:30:00.135479  6878 net.cpp:153] Setting up inception_3a/relu_5x5_reduce
I0708 12:30:00.135485  6878 net.cpp:160] Top shape: 100 16 28 28 (1254400)
I0708 12:30:00.135489  6878 net.cpp:168] Memory required for data: 2237851200
I0708 12:30:00.135493  6878 layer_factory.hpp:76] Creating layer inception_3a/5x5
I0708 12:30:00.135505  6878 net.cpp:109] Creating Layer inception_3a/5x5
I0708 12:30:00.135510  6878 net.cpp:457] inception_3a/5x5 <- inception_3a/5x5_reduce
I0708 12:30:00.135519  6878 net.cpp:414] inception_3a/5x5 -> inception_3a/5x5
I0708 12:30:00.135860  6878 net.cpp:153] Setting up inception_3a/5x5
I0708 12:30:00.135871  6878 net.cpp:160] Top shape: 100 32 28 28 (2508800)
I0708 12:30:00.135875  6878 net.cpp:168] Memory required for data: 2247886400
I0708 12:30:00.135884  6878 layer_factory.hpp:76] Creating layer inception_3a/relu_5x5
I0708 12:30:00.135892  6878 net.cpp:109] Creating Layer inception_3a/relu_5x5
I0708 12:30:00.135897  6878 net.cpp:457] inception_3a/relu_5x5 <- inception_3a/5x5
I0708 12:30:00.135905  6878 net.cpp:400] inception_3a/relu_5x5 -> inception_3a/5x5 (in-place)
I0708 12:30:00.135913  6878 net.cpp:153] Setting up inception_3a/relu_5x5
I0708 12:30:00.135936  6878 net.cpp:160] Top shape: 100 32 28 28 (2508800)
I0708 12:30:00.135941  6878 net.cpp:168] Memory required for data: 2257921600
I0708 12:30:00.135946  6878 layer_factory.hpp:76] Creating layer inception_3a/pool
I0708 12:30:00.135956  6878 net.cpp:109] Creating Layer inception_3a/pool
I0708 12:30:00.135960  6878 net.cpp:457] inception_3a/pool <- pool2/3x3_s2_pool2/3x3_s2_0_split_3
I0708 12:30:00.135968  6878 net.cpp:414] inception_3a/pool -> inception_3a/pool
I0708 12:30:00.136014  6878 net.cpp:153] Setting up inception_3a/pool
I0708 12:30:00.136023  6878 net.cpp:160] Top shape: 100 192 28 28 (15052800)
I0708 12:30:00.136028  6878 net.cpp:168] Memory required for data: 2318132800
I0708 12:30:00.136031  6878 layer_factory.hpp:76] Creating layer inception_3a/pool_proj
I0708 12:30:00.136044  6878 net.cpp:109] Creating Layer inception_3a/pool_proj
I0708 12:30:00.136049  6878 net.cpp:457] inception_3a/pool_proj <- inception_3a/pool
I0708 12:30:00.136057  6878 net.cpp:414] inception_3a/pool_proj -> inception_3a/pool_proj
I0708 12:30:00.136330  6878 net.cpp:153] Setting up inception_3a/pool_proj
I0708 12:30:00.136343  6878 net.cpp:160] Top shape: 100 32 28 28 (2508800)
I0708 12:30:00.136346  6878 net.cpp:168] Memory required for data: 2328168000
I0708 12:30:00.136359  6878 layer_factory.hpp:76] Creating layer inception_3a/relu_pool_proj
I0708 12:30:00.136369  6878 net.cpp:109] Creating Layer inception_3a/relu_pool_proj
I0708 12:30:00.136375  6878 net.cpp:457] inception_3a/relu_pool_proj <- inception_3a/pool_proj
I0708 12:30:00.136382  6878 net.cpp:400] inception_3a/relu_pool_proj -> inception_3a/pool_proj (in-place)
I0708 12:30:00.136391  6878 net.cpp:153] Setting up inception_3a/relu_pool_proj
I0708 12:30:00.136397  6878 net.cpp:160] Top shape: 100 32 28 28 (2508800)
I0708 12:30:00.136401  6878 net.cpp:168] Memory required for data: 2338203200
I0708 12:30:00.136405  6878 layer_factory.hpp:76] Creating layer inception_3a/output
I0708 12:30:00.136422  6878 net.cpp:109] Creating Layer inception_3a/output
I0708 12:30:00.136427  6878 net.cpp:457] inception_3a/output <- inception_3a/1x1
I0708 12:30:00.136433  6878 net.cpp:457] inception_3a/output <- inception_3a/3x3
I0708 12:30:00.136438  6878 net.cpp:457] inception_3a/output <- inception_3a/5x5
I0708 12:30:00.136443  6878 net.cpp:457] inception_3a/output <- inception_3a/pool_proj
I0708 12:30:00.136451  6878 net.cpp:414] inception_3a/output -> inception_3a/output
I0708 12:30:00.136484  6878 net.cpp:153] Setting up inception_3a/output
I0708 12:30:00.136492  6878 net.cpp:160] Top shape: 100 256 28 28 (20070400)
I0708 12:30:00.136497  6878 net.cpp:168] Memory required for data: 2418484800
I0708 12:30:00.136502  6878 layer_factory.hpp:76] Creating layer inception_3a/output_inception_3a/output_0_split
I0708 12:30:00.136510  6878 net.cpp:109] Creating Layer inception_3a/output_inception_3a/output_0_split
I0708 12:30:00.136515  6878 net.cpp:457] inception_3a/output_inception_3a/output_0_split <- inception_3a/output
I0708 12:30:00.136523  6878 net.cpp:414] inception_3a/output_inception_3a/output_0_split -> inception_3a/output_inception_3a/output_0_split_0
I0708 12:30:00.136533  6878 net.cpp:414] inception_3a/output_inception_3a/output_0_split -> inception_3a/output_inception_3a/output_0_split_1
I0708 12:30:00.136541  6878 net.cpp:414] inception_3a/output_inception_3a/output_0_split -> inception_3a/output_inception_3a/output_0_split_2
I0708 12:30:00.136549  6878 net.cpp:414] inception_3a/output_inception_3a/output_0_split -> inception_3a/output_inception_3a/output_0_split_3
I0708 12:30:00.136613  6878 net.cpp:153] Setting up inception_3a/output_inception_3a/output_0_split
I0708 12:30:00.136620  6878 net.cpp:160] Top shape: 100 256 28 28 (20070400)
I0708 12:30:00.136626  6878 net.cpp:160] Top shape: 100 256 28 28 (20070400)
I0708 12:30:00.136631  6878 net.cpp:160] Top shape: 100 256 28 28 (20070400)
I0708 12:30:00.136637  6878 net.cpp:160] Top shape: 100 256 28 28 (20070400)
I0708 12:30:00.136641  6878 net.cpp:168] Memory required for data: 2739611200
I0708 12:30:00.136661  6878 layer_factory.hpp:76] Creating layer inception_3b/1x1
I0708 12:30:00.136672  6878 net.cpp:109] Creating Layer inception_3b/1x1
I0708 12:30:00.136677  6878 net.cpp:457] inception_3b/1x1 <- inception_3a/output_inception_3a/output_0_split_0
I0708 12:30:00.136687  6878 net.cpp:414] inception_3b/1x1 -> inception_3b/1x1
I0708 12:30:00.137145  6878 net.cpp:153] Setting up inception_3b/1x1
I0708 12:30:00.137157  6878 net.cpp:160] Top shape: 100 128 28 28 (10035200)
I0708 12:30:00.137162  6878 net.cpp:168] Memory required for data: 2779752000
I0708 12:30:00.137171  6878 layer_factory.hpp:76] Creating layer inception_3b/relu_1x1
I0708 12:30:00.137179  6878 net.cpp:109] Creating Layer inception_3b/relu_1x1
I0708 12:30:00.137184  6878 net.cpp:457] inception_3b/relu_1x1 <- inception_3b/1x1
I0708 12:30:00.137192  6878 net.cpp:400] inception_3b/relu_1x1 -> inception_3b/1x1 (in-place)
I0708 12:30:00.137202  6878 net.cpp:153] Setting up inception_3b/relu_1x1
I0708 12:30:00.137207  6878 net.cpp:160] Top shape: 100 128 28 28 (10035200)
I0708 12:30:00.137212  6878 net.cpp:168] Memory required for data: 2819892800
I0708 12:30:00.137217  6878 layer_factory.hpp:76] Creating layer inception_3b/3x3_reduce
I0708 12:30:00.137228  6878 net.cpp:109] Creating Layer inception_3b/3x3_reduce
I0708 12:30:00.137231  6878 net.cpp:457] inception_3b/3x3_reduce <- inception_3a/output_inception_3a/output_0_split_1
I0708 12:30:00.137240  6878 net.cpp:414] inception_3b/3x3_reduce -> inception_3b/3x3_reduce
I0708 12:30:00.137696  6878 net.cpp:153] Setting up inception_3b/3x3_reduce
I0708 12:30:00.137708  6878 net.cpp:160] Top shape: 100 128 28 28 (10035200)
I0708 12:30:00.137712  6878 net.cpp:168] Memory required for data: 2860033600
I0708 12:30:00.137720  6878 layer_factory.hpp:76] Creating layer inception_3b/relu_3x3_reduce
I0708 12:30:00.137729  6878 net.cpp:109] Creating Layer inception_3b/relu_3x3_reduce
I0708 12:30:00.137734  6878 net.cpp:457] inception_3b/relu_3x3_reduce <- inception_3b/3x3_reduce
I0708 12:30:00.137742  6878 net.cpp:400] inception_3b/relu_3x3_reduce -> inception_3b/3x3_reduce (in-place)
I0708 12:30:00.137751  6878 net.cpp:153] Setting up inception_3b/relu_3x3_reduce
I0708 12:30:00.137758  6878 net.cpp:160] Top shape: 100 128 28 28 (10035200)
I0708 12:30:00.137761  6878 net.cpp:168] Memory required for data: 2900174400
I0708 12:30:00.137766  6878 layer_factory.hpp:76] Creating layer inception_3b/3x3
I0708 12:30:00.137779  6878 net.cpp:109] Creating Layer inception_3b/3x3
I0708 12:30:00.137784  6878 net.cpp:457] inception_3b/3x3 <- inception_3b/3x3_reduce
I0708 12:30:00.137794  6878 net.cpp:414] inception_3b/3x3 -> inception_3b/3x3
I0708 12:30:00.143602  6878 net.cpp:153] Setting up inception_3b/3x3
I0708 12:30:00.143622  6878 net.cpp:160] Top shape: 100 192 28 28 (15052800)
I0708 12:30:00.143627  6878 net.cpp:168] Memory required for data: 2960385600
I0708 12:30:00.143636  6878 layer_factory.hpp:76] Creating layer inception_3b/relu_3x3
I0708 12:30:00.143646  6878 net.cpp:109] Creating Layer inception_3b/relu_3x3
I0708 12:30:00.143652  6878 net.cpp:457] inception_3b/relu_3x3 <- inception_3b/3x3
I0708 12:30:00.143661  6878 net.cpp:400] inception_3b/relu_3x3 -> inception_3b/3x3 (in-place)
I0708 12:30:00.143671  6878 net.cpp:153] Setting up inception_3b/relu_3x3
I0708 12:30:00.143677  6878 net.cpp:160] Top shape: 100 192 28 28 (15052800)
I0708 12:30:00.143682  6878 net.cpp:168] Memory required for data: 3020596800
I0708 12:30:00.143687  6878 layer_factory.hpp:76] Creating layer inception_3b/5x5_reduce
I0708 12:30:00.143697  6878 net.cpp:109] Creating Layer inception_3b/5x5_reduce
I0708 12:30:00.143702  6878 net.cpp:457] inception_3b/5x5_reduce <- inception_3a/output_inception_3a/output_0_split_2
I0708 12:30:00.143710  6878 net.cpp:414] inception_3b/5x5_reduce -> inception_3b/5x5_reduce
I0708 12:30:00.144007  6878 net.cpp:153] Setting up inception_3b/5x5_reduce
I0708 12:30:00.144019  6878 net.cpp:160] Top shape: 100 32 28 28 (2508800)
I0708 12:30:00.144023  6878 net.cpp:168] Memory required for data: 3030632000
I0708 12:30:00.144053  6878 layer_factory.hpp:76] Creating layer inception_3b/relu_5x5_reduce
I0708 12:30:00.144063  6878 net.cpp:109] Creating Layer inception_3b/relu_5x5_reduce
I0708 12:30:00.144069  6878 net.cpp:457] inception_3b/relu_5x5_reduce <- inception_3b/5x5_reduce
I0708 12:30:00.144078  6878 net.cpp:400] inception_3b/relu_5x5_reduce -> inception_3b/5x5_reduce (in-place)
I0708 12:30:00.144086  6878 net.cpp:153] Setting up inception_3b/relu_5x5_reduce
I0708 12:30:00.144093  6878 net.cpp:160] Top shape: 100 32 28 28 (2508800)
I0708 12:30:00.144096  6878 net.cpp:168] Memory required for data: 3040667200
I0708 12:30:00.144101  6878 layer_factory.hpp:76] Creating layer inception_3b/5x5
I0708 12:30:00.144111  6878 net.cpp:109] Creating Layer inception_3b/5x5
I0708 12:30:00.144116  6878 net.cpp:457] inception_3b/5x5 <- inception_3b/5x5_reduce
I0708 12:30:00.144125  6878 net.cpp:414] inception_3b/5x5 -> inception_3b/5x5
I0708 12:30:00.145609  6878 net.cpp:153] Setting up inception_3b/5x5
I0708 12:30:00.145625  6878 net.cpp:160] Top shape: 100 96 28 28 (7526400)
I0708 12:30:00.145629  6878 net.cpp:168] Memory required for data: 3070772800
I0708 12:30:00.145638  6878 layer_factory.hpp:76] Creating layer inception_3b/relu_5x5
I0708 12:30:00.145647  6878 net.cpp:109] Creating Layer inception_3b/relu_5x5
I0708 12:30:00.145653  6878 net.cpp:457] inception_3b/relu_5x5 <- inception_3b/5x5
I0708 12:30:00.145660  6878 net.cpp:400] inception_3b/relu_5x5 -> inception_3b/5x5 (in-place)
I0708 12:30:00.145669  6878 net.cpp:153] Setting up inception_3b/relu_5x5
I0708 12:30:00.145675  6878 net.cpp:160] Top shape: 100 96 28 28 (7526400)
I0708 12:30:00.145679  6878 net.cpp:168] Memory required for data: 3100878400
I0708 12:30:00.145684  6878 layer_factory.hpp:76] Creating layer inception_3b/pool
I0708 12:30:00.145694  6878 net.cpp:109] Creating Layer inception_3b/pool
I0708 12:30:00.145699  6878 net.cpp:457] inception_3b/pool <- inception_3a/output_inception_3a/output_0_split_3
I0708 12:30:00.145705  6878 net.cpp:414] inception_3b/pool -> inception_3b/pool
I0708 12:30:00.145751  6878 net.cpp:153] Setting up inception_3b/pool
I0708 12:30:00.145761  6878 net.cpp:160] Top shape: 100 256 28 28 (20070400)
I0708 12:30:00.145764  6878 net.cpp:168] Memory required for data: 3181160000
I0708 12:30:00.145769  6878 layer_factory.hpp:76] Creating layer inception_3b/pool_proj
I0708 12:30:00.145779  6878 net.cpp:109] Creating Layer inception_3b/pool_proj
I0708 12:30:00.145783  6878 net.cpp:457] inception_3b/pool_proj <- inception_3b/pool
I0708 12:30:00.145792  6878 net.cpp:414] inception_3b/pool_proj -> inception_3b/pool_proj
I0708 12:30:00.146144  6878 net.cpp:153] Setting up inception_3b/pool_proj
I0708 12:30:00.146157  6878 net.cpp:160] Top shape: 100 64 28 28 (5017600)
I0708 12:30:00.146160  6878 net.cpp:168] Memory required for data: 3201230400
I0708 12:30:00.146169  6878 layer_factory.hpp:76] Creating layer inception_3b/relu_pool_proj
I0708 12:30:00.146178  6878 net.cpp:109] Creating Layer inception_3b/relu_pool_proj
I0708 12:30:00.146184  6878 net.cpp:457] inception_3b/relu_pool_proj <- inception_3b/pool_proj
I0708 12:30:00.146191  6878 net.cpp:400] inception_3b/relu_pool_proj -> inception_3b/pool_proj (in-place)
I0708 12:30:00.146200  6878 net.cpp:153] Setting up inception_3b/relu_pool_proj
I0708 12:30:00.146208  6878 net.cpp:160] Top shape: 100 64 28 28 (5017600)
I0708 12:30:00.146211  6878 net.cpp:168] Memory required for data: 3221300800
I0708 12:30:00.146215  6878 layer_factory.hpp:76] Creating layer inception_3b/output
I0708 12:30:00.146224  6878 net.cpp:109] Creating Layer inception_3b/output
I0708 12:30:00.146229  6878 net.cpp:457] inception_3b/output <- inception_3b/1x1
I0708 12:30:00.146234  6878 net.cpp:457] inception_3b/output <- inception_3b/3x3
I0708 12:30:00.146239  6878 net.cpp:457] inception_3b/output <- inception_3b/5x5
I0708 12:30:00.146245  6878 net.cpp:457] inception_3b/output <- inception_3b/pool_proj
I0708 12:30:00.146250  6878 net.cpp:414] inception_3b/output -> inception_3b/output
I0708 12:30:00.146281  6878 net.cpp:153] Setting up inception_3b/output
I0708 12:30:00.146306  6878 net.cpp:160] Top shape: 100 480 28 28 (37632000)
I0708 12:30:00.146311  6878 net.cpp:168] Memory required for data: 3371828800
I0708 12:30:00.146316  6878 layer_factory.hpp:76] Creating layer pool3/3x3_s2
I0708 12:30:00.146324  6878 net.cpp:109] Creating Layer pool3/3x3_s2
I0708 12:30:00.146329  6878 net.cpp:457] pool3/3x3_s2 <- inception_3b/output
I0708 12:30:00.146337  6878 net.cpp:414] pool3/3x3_s2 -> pool3/3x3_s2
I0708 12:30:00.146383  6878 net.cpp:153] Setting up pool3/3x3_s2
I0708 12:30:00.146391  6878 net.cpp:160] Top shape: 100 480 14 14 (9408000)
I0708 12:30:00.146395  6878 net.cpp:168] Memory required for data: 3409460800
I0708 12:30:00.146399  6878 layer_factory.hpp:76] Creating layer pool3/3x3_s2_pool3/3x3_s2_0_split
I0708 12:30:00.146409  6878 net.cpp:109] Creating Layer pool3/3x3_s2_pool3/3x3_s2_0_split
I0708 12:30:00.146414  6878 net.cpp:457] pool3/3x3_s2_pool3/3x3_s2_0_split <- pool3/3x3_s2
I0708 12:30:00.146421  6878 net.cpp:414] pool3/3x3_s2_pool3/3x3_s2_0_split -> pool3/3x3_s2_pool3/3x3_s2_0_split_0
I0708 12:30:00.146430  6878 net.cpp:414] pool3/3x3_s2_pool3/3x3_s2_0_split -> pool3/3x3_s2_pool3/3x3_s2_0_split_1
I0708 12:30:00.146436  6878 net.cpp:414] pool3/3x3_s2_pool3/3x3_s2_0_split -> pool3/3x3_s2_pool3/3x3_s2_0_split_2
I0708 12:30:00.146445  6878 net.cpp:414] pool3/3x3_s2_pool3/3x3_s2_0_split -> pool3/3x3_s2_pool3/3x3_s2_0_split_3
I0708 12:30:00.146504  6878 net.cpp:153] Setting up pool3/3x3_s2_pool3/3x3_s2_0_split
I0708 12:30:00.146512  6878 net.cpp:160] Top shape: 100 480 14 14 (9408000)
I0708 12:30:00.146518  6878 net.cpp:160] Top shape: 100 480 14 14 (9408000)
I0708 12:30:00.146523  6878 net.cpp:160] Top shape: 100 480 14 14 (9408000)
I0708 12:30:00.146529  6878 net.cpp:160] Top shape: 100 480 14 14 (9408000)
I0708 12:30:00.146533  6878 net.cpp:168] Memory required for data: 3559988800
I0708 12:30:00.146538  6878 layer_factory.hpp:76] Creating layer inception_4a/1x1
I0708 12:30:00.146548  6878 net.cpp:109] Creating Layer inception_4a/1x1
I0708 12:30:00.146553  6878 net.cpp:457] inception_4a/1x1 <- pool3/3x3_s2_pool3/3x3_s2_0_split_0
I0708 12:30:00.146561  6878 net.cpp:414] inception_4a/1x1 -> inception_4a/1x1
I0708 12:30:00.147441  6878 net.cpp:153] Setting up inception_4a/1x1
I0708 12:30:00.147454  6878 net.cpp:160] Top shape: 100 192 14 14 (3763200)
I0708 12:30:00.147459  6878 net.cpp:168] Memory required for data: 3575041600
I0708 12:30:00.147466  6878 layer_factory.hpp:76] Creating layer inception_4a/relu_1x1
I0708 12:30:00.147475  6878 net.cpp:109] Creating Layer inception_4a/relu_1x1
I0708 12:30:00.147480  6878 net.cpp:457] inception_4a/relu_1x1 <- inception_4a/1x1
I0708 12:30:00.147487  6878 net.cpp:400] inception_4a/relu_1x1 -> inception_4a/1x1 (in-place)
I0708 12:30:00.147495  6878 net.cpp:153] Setting up inception_4a/relu_1x1
I0708 12:30:00.147502  6878 net.cpp:160] Top shape: 100 192 14 14 (3763200)
I0708 12:30:00.147506  6878 net.cpp:168] Memory required for data: 3590094400
I0708 12:30:00.147511  6878 layer_factory.hpp:76] Creating layer inception_4a/3x3_reduce
I0708 12:30:00.147533  6878 net.cpp:109] Creating Layer inception_4a/3x3_reduce
I0708 12:30:00.147538  6878 net.cpp:457] inception_4a/3x3_reduce <- pool3/3x3_s2_pool3/3x3_s2_0_split_1
I0708 12:30:00.147547  6878 net.cpp:414] inception_4a/3x3_reduce -> inception_4a/3x3_reduce
I0708 12:30:00.148139  6878 net.cpp:153] Setting up inception_4a/3x3_reduce
I0708 12:30:00.148151  6878 net.cpp:160] Top shape: 100 96 14 14 (1881600)
I0708 12:30:00.148155  6878 net.cpp:168] Memory required for data: 3597620800
I0708 12:30:00.148170  6878 layer_factory.hpp:76] Creating layer inception_4a/relu_3x3_reduce
I0708 12:30:00.148180  6878 net.cpp:109] Creating Layer inception_4a/relu_3x3_reduce
I0708 12:30:00.148185  6878 net.cpp:457] inception_4a/relu_3x3_reduce <- inception_4a/3x3_reduce
I0708 12:30:00.148192  6878 net.cpp:400] inception_4a/relu_3x3_reduce -> inception_4a/3x3_reduce (in-place)
I0708 12:30:00.148202  6878 net.cpp:153] Setting up inception_4a/relu_3x3_reduce
I0708 12:30:00.148223  6878 net.cpp:160] Top shape: 100 96 14 14 (1881600)
I0708 12:30:00.148228  6878 net.cpp:168] Memory required for data: 3605147200
I0708 12:30:00.148233  6878 layer_factory.hpp:76] Creating layer inception_4a/3x3
I0708 12:30:00.148244  6878 net.cpp:109] Creating Layer inception_4a/3x3
I0708 12:30:00.148249  6878 net.cpp:457] inception_4a/3x3 <- inception_4a/3x3_reduce
I0708 12:30:00.148257  6878 net.cpp:414] inception_4a/3x3 -> inception_4a/3x3
I0708 12:30:00.150481  6878 net.cpp:153] Setting up inception_4a/3x3
I0708 12:30:00.150496  6878 net.cpp:160] Top shape: 100 208 14 14 (4076800)
I0708 12:30:00.150501  6878 net.cpp:168] Memory required for data: 3621454400
I0708 12:30:00.150509  6878 layer_factory.hpp:76] Creating layer inception_4a/relu_3x3
I0708 12:30:00.150517  6878 net.cpp:109] Creating Layer inception_4a/relu_3x3
I0708 12:30:00.150523  6878 net.cpp:457] inception_4a/relu_3x3 <- inception_4a/3x3
I0708 12:30:00.150530  6878 net.cpp:400] inception_4a/relu_3x3 -> inception_4a/3x3 (in-place)
I0708 12:30:00.150539  6878 net.cpp:153] Setting up inception_4a/relu_3x3
I0708 12:30:00.150545  6878 net.cpp:160] Top shape: 100 208 14 14 (4076800)
I0708 12:30:00.150549  6878 net.cpp:168] Memory required for data: 3637761600
I0708 12:30:00.150554  6878 layer_factory.hpp:76] Creating layer inception_4a/5x5_reduce
I0708 12:30:00.150563  6878 net.cpp:109] Creating Layer inception_4a/5x5_reduce
I0708 12:30:00.150568  6878 net.cpp:457] inception_4a/5x5_reduce <- pool3/3x3_s2_pool3/3x3_s2_0_split_2
I0708 12:30:00.150578  6878 net.cpp:414] inception_4a/5x5_reduce -> inception_4a/5x5_reduce
I0708 12:30:00.150874  6878 net.cpp:153] Setting up inception_4a/5x5_reduce
I0708 12:30:00.150887  6878 net.cpp:160] Top shape: 100 16 14 14 (313600)
I0708 12:30:00.150890  6878 net.cpp:168] Memory required for data: 3639016000
I0708 12:30:00.150898  6878 layer_factory.hpp:76] Creating layer inception_4a/relu_5x5_reduce
I0708 12:30:00.150907  6878 net.cpp:109] Creating Layer inception_4a/relu_5x5_reduce
I0708 12:30:00.150913  6878 net.cpp:457] inception_4a/relu_5x5_reduce <- inception_4a/5x5_reduce
I0708 12:30:00.150919  6878 net.cpp:400] inception_4a/relu_5x5_reduce -> inception_4a/5x5_reduce (in-place)
I0708 12:30:00.150928  6878 net.cpp:153] Setting up inception_4a/relu_5x5_reduce
I0708 12:30:00.150934  6878 net.cpp:160] Top shape: 100 16 14 14 (313600)
I0708 12:30:00.150938  6878 net.cpp:168] Memory required for data: 3640270400
I0708 12:30:00.150943  6878 layer_factory.hpp:76] Creating layer inception_4a/5x5
I0708 12:30:00.150952  6878 net.cpp:109] Creating Layer inception_4a/5x5
I0708 12:30:00.150957  6878 net.cpp:457] inception_4a/5x5 <- inception_4a/5x5_reduce
I0708 12:30:00.150966  6878 net.cpp:414] inception_4a/5x5 -> inception_4a/5x5
I0708 12:30:00.151376  6878 net.cpp:153] Setting up inception_4a/5x5
I0708 12:30:00.151389  6878 net.cpp:160] Top shape: 100 48 14 14 (940800)
I0708 12:30:00.151393  6878 net.cpp:168] Memory required for data: 3644033600
I0708 12:30:00.151402  6878 layer_factory.hpp:76] Creating layer inception_4a/relu_5x5
I0708 12:30:00.151410  6878 net.cpp:109] Creating Layer inception_4a/relu_5x5
I0708 12:30:00.151417  6878 net.cpp:457] inception_4a/relu_5x5 <- inception_4a/5x5
I0708 12:30:00.151422  6878 net.cpp:400] inception_4a/relu_5x5 -> inception_4a/5x5 (in-place)
I0708 12:30:00.151430  6878 net.cpp:153] Setting up inception_4a/relu_5x5
I0708 12:30:00.151437  6878 net.cpp:160] Top shape: 100 48 14 14 (940800)
I0708 12:30:00.151440  6878 net.cpp:168] Memory required for data: 3647796800
I0708 12:30:00.151444  6878 layer_factory.hpp:76] Creating layer inception_4a/pool
I0708 12:30:00.151453  6878 net.cpp:109] Creating Layer inception_4a/pool
I0708 12:30:00.151458  6878 net.cpp:457] inception_4a/pool <- pool3/3x3_s2_pool3/3x3_s2_0_split_3
I0708 12:30:00.151464  6878 net.cpp:414] inception_4a/pool -> inception_4a/pool
I0708 12:30:00.151510  6878 net.cpp:153] Setting up inception_4a/pool
I0708 12:30:00.151528  6878 net.cpp:160] Top shape: 100 480 14 14 (9408000)
I0708 12:30:00.151532  6878 net.cpp:168] Memory required for data: 3685428800
I0708 12:30:00.151554  6878 layer_factory.hpp:76] Creating layer inception_4a/pool_proj
I0708 12:30:00.151566  6878 net.cpp:109] Creating Layer inception_4a/pool_proj
I0708 12:30:00.151571  6878 net.cpp:457] inception_4a/pool_proj <- inception_4a/pool
I0708 12:30:00.151581  6878 net.cpp:414] inception_4a/pool_proj -> inception_4a/pool_proj
I0708 12:30:00.152062  6878 net.cpp:153] Setting up inception_4a/pool_proj
I0708 12:30:00.152076  6878 net.cpp:160] Top shape: 100 64 14 14 (1254400)
I0708 12:30:00.152079  6878 net.cpp:168] Memory required for data: 3690446400
I0708 12:30:00.152087  6878 layer_factory.hpp:76] Creating layer inception_4a/relu_pool_proj
I0708 12:30:00.152096  6878 net.cpp:109] Creating Layer inception_4a/relu_pool_proj
I0708 12:30:00.152101  6878 net.cpp:457] inception_4a/relu_pool_proj <- inception_4a/pool_proj
I0708 12:30:00.152108  6878 net.cpp:400] inception_4a/relu_pool_proj -> inception_4a/pool_proj (in-place)
I0708 12:30:00.152117  6878 net.cpp:153] Setting up inception_4a/relu_pool_proj
I0708 12:30:00.152123  6878 net.cpp:160] Top shape: 100 64 14 14 (1254400)
I0708 12:30:00.152127  6878 net.cpp:168] Memory required for data: 3695464000
I0708 12:30:00.152132  6878 layer_factory.hpp:76] Creating layer inception_4a/output
I0708 12:30:00.152139  6878 net.cpp:109] Creating Layer inception_4a/output
I0708 12:30:00.152144  6878 net.cpp:457] inception_4a/output <- inception_4a/1x1
I0708 12:30:00.152149  6878 net.cpp:457] inception_4a/output <- inception_4a/3x3
I0708 12:30:00.152154  6878 net.cpp:457] inception_4a/output <- inception_4a/5x5
I0708 12:30:00.152166  6878 net.cpp:457] inception_4a/output <- inception_4a/pool_proj
I0708 12:30:00.152173  6878 net.cpp:414] inception_4a/output -> inception_4a/output
I0708 12:30:00.152204  6878 net.cpp:153] Setting up inception_4a/output
I0708 12:30:00.152212  6878 net.cpp:160] Top shape: 100 512 14 14 (10035200)
I0708 12:30:00.152216  6878 net.cpp:168] Memory required for data: 3735604800
I0708 12:30:00.152221  6878 layer_factory.hpp:76] Creating layer inception_4a/output_inception_4a/output_0_split
I0708 12:30:00.152230  6878 net.cpp:109] Creating Layer inception_4a/output_inception_4a/output_0_split
I0708 12:30:00.152235  6878 net.cpp:457] inception_4a/output_inception_4a/output_0_split <- inception_4a/output
I0708 12:30:00.152242  6878 net.cpp:414] inception_4a/output_inception_4a/output_0_split -> inception_4a/output_inception_4a/output_0_split_0
I0708 12:30:00.152251  6878 net.cpp:414] inception_4a/output_inception_4a/output_0_split -> inception_4a/output_inception_4a/output_0_split_1
I0708 12:30:00.152261  6878 net.cpp:414] inception_4a/output_inception_4a/output_0_split -> inception_4a/output_inception_4a/output_0_split_2
I0708 12:30:00.152268  6878 net.cpp:414] inception_4a/output_inception_4a/output_0_split -> inception_4a/output_inception_4a/output_0_split_3
I0708 12:30:00.152276  6878 net.cpp:414] inception_4a/output_inception_4a/output_0_split -> inception_4a/output_inception_4a/output_0_split_4
I0708 12:30:00.152355  6878 net.cpp:153] Setting up inception_4a/output_inception_4a/output_0_split
I0708 12:30:00.152364  6878 net.cpp:160] Top shape: 100 512 14 14 (10035200)
I0708 12:30:00.152370  6878 net.cpp:160] Top shape: 100 512 14 14 (10035200)
I0708 12:30:00.152375  6878 net.cpp:160] Top shape: 100 512 14 14 (10035200)
I0708 12:30:00.152380  6878 net.cpp:160] Top shape: 100 512 14 14 (10035200)
I0708 12:30:00.152385  6878 net.cpp:160] Top shape: 100 512 14 14 (10035200)
I0708 12:30:00.152390  6878 net.cpp:168] Memory required for data: 3936308800
I0708 12:30:00.152395  6878 layer_factory.hpp:76] Creating layer loss1/ave_pool
I0708 12:30:00.152403  6878 net.cpp:109] Creating Layer loss1/ave_pool
I0708 12:30:00.152408  6878 net.cpp:457] loss1/ave_pool <- inception_4a/output_inception_4a/output_0_split_0
I0708 12:30:00.152415  6878 net.cpp:414] loss1/ave_pool -> loss1/ave_pool
I0708 12:30:00.152457  6878 net.cpp:153] Setting up loss1/ave_pool
I0708 12:30:00.152467  6878 net.cpp:160] Top shape: 100 512 4 4 (819200)
I0708 12:30:00.152484  6878 net.cpp:168] Memory required for data: 3939585600
I0708 12:30:00.152489  6878 layer_factory.hpp:76] Creating layer loss1/conv
I0708 12:30:00.152501  6878 net.cpp:109] Creating Layer loss1/conv
I0708 12:30:00.152506  6878 net.cpp:457] loss1/conv <- loss1/ave_pool
I0708 12:30:00.152514  6878 net.cpp:414] loss1/conv -> loss1/conv
I0708 12:30:00.153244  6878 net.cpp:153] Setting up loss1/conv
I0708 12:30:00.153256  6878 net.cpp:160] Top shape: 100 128 4 4 (204800)
I0708 12:30:00.153260  6878 net.cpp:168] Memory required for data: 3940404800
I0708 12:30:00.153269  6878 layer_factory.hpp:76] Creating layer loss1/relu_conv
I0708 12:30:00.153278  6878 net.cpp:109] Creating Layer loss1/relu_conv
I0708 12:30:00.153283  6878 net.cpp:457] loss1/relu_conv <- loss1/conv
I0708 12:30:00.153290  6878 net.cpp:400] loss1/relu_conv -> loss1/conv (in-place)
I0708 12:30:00.153300  6878 net.cpp:153] Setting up loss1/relu_conv
I0708 12:30:00.153306  6878 net.cpp:160] Top shape: 100 128 4 4 (204800)
I0708 12:30:00.153309  6878 net.cpp:168] Memory required for data: 3941224000
I0708 12:30:00.153314  6878 layer_factory.hpp:76] Creating layer loss1/fc
I0708 12:30:00.153324  6878 net.cpp:109] Creating Layer loss1/fc
I0708 12:30:00.153329  6878 net.cpp:457] loss1/fc <- loss1/conv
I0708 12:30:00.153337  6878 net.cpp:414] loss1/fc -> loss1/fc
I0708 12:30:00.173692  6878 net.cpp:153] Setting up loss1/fc
I0708 12:30:00.173738  6878 net.cpp:160] Top shape: 100 1024 (102400)
I0708 12:30:00.173744  6878 net.cpp:168] Memory required for data: 3941633600
I0708 12:30:00.173758  6878 layer_factory.hpp:76] Creating layer loss1/relu_fc
I0708 12:30:00.173774  6878 net.cpp:109] Creating Layer loss1/relu_fc
I0708 12:30:00.173780  6878 net.cpp:457] loss1/relu_fc <- loss1/fc
I0708 12:30:00.173792  6878 net.cpp:400] loss1/relu_fc -> loss1/fc (in-place)
I0708 12:30:00.173810  6878 net.cpp:153] Setting up loss1/relu_fc
I0708 12:30:00.173815  6878 net.cpp:160] Top shape: 100 1024 (102400)
I0708 12:30:00.173820  6878 net.cpp:168] Memory required for data: 3942043200
I0708 12:30:00.173825  6878 layer_factory.hpp:76] Creating layer loss1/drop_fc
I0708 12:30:00.173861  6878 net.cpp:109] Creating Layer loss1/drop_fc
I0708 12:30:00.173866  6878 net.cpp:457] loss1/drop_fc <- loss1/fc
I0708 12:30:00.173872  6878 net.cpp:400] loss1/drop_fc -> loss1/fc (in-place)
I0708 12:30:00.173913  6878 net.cpp:153] Setting up loss1/drop_fc
I0708 12:30:00.173923  6878 net.cpp:160] Top shape: 100 1024 (102400)
I0708 12:30:00.173926  6878 net.cpp:168] Memory required for data: 3942452800
I0708 12:30:00.173933  6878 layer_factory.hpp:76] Creating layer loss1/classifier_clean
I0708 12:30:00.173944  6878 net.cpp:109] Creating Layer loss1/classifier_clean
I0708 12:30:00.173949  6878 net.cpp:457] loss1/classifier_clean <- loss1/fc
I0708 12:30:00.173957  6878 net.cpp:414] loss1/classifier_clean -> loss1/classifier_clean
I0708 12:30:00.183815  6878 net.cpp:153] Setting up loss1/classifier_clean
I0708 12:30:00.183835  6878 net.cpp:160] Top shape: 100 967 (96700)
I0708 12:30:00.183840  6878 net.cpp:168] Memory required for data: 3942839600
I0708 12:30:00.183850  6878 layer_factory.hpp:76] Creating layer loss1/loss
I0708 12:30:00.183869  6878 net.cpp:109] Creating Layer loss1/loss
I0708 12:30:00.183876  6878 net.cpp:457] loss1/loss <- loss1/classifier_clean
I0708 12:30:00.183883  6878 net.cpp:457] loss1/loss <- label_train-data_1_split_0
I0708 12:30:00.183892  6878 net.cpp:414] loss1/loss -> loss1/loss
I0708 12:30:00.183904  6878 layer_factory.hpp:76] Creating layer loss1/loss
I0708 12:30:00.184787  6878 net.cpp:153] Setting up loss1/loss
I0708 12:30:00.184800  6878 net.cpp:160] Top shape: (1)
I0708 12:30:00.184805  6878 net.cpp:163]     with loss weight 0.3
I0708 12:30:00.184839  6878 net.cpp:168] Memory required for data: 3942839604
I0708 12:30:00.184844  6878 layer_factory.hpp:76] Creating layer inception_4b/1x1
I0708 12:30:00.184859  6878 net.cpp:109] Creating Layer inception_4b/1x1
I0708 12:30:00.184864  6878 net.cpp:457] inception_4b/1x1 <- inception_4a/output_inception_4a/output_0_split_1
I0708 12:30:00.184908  6878 net.cpp:414] inception_4b/1x1 -> inception_4b/1x1
I0708 12:30:00.185778  6878 net.cpp:153] Setting up inception_4b/1x1
I0708 12:30:00.185791  6878 net.cpp:160] Top shape: 100 160 14 14 (3136000)
I0708 12:30:00.185796  6878 net.cpp:168] Memory required for data: 3955383604
I0708 12:30:00.185803  6878 layer_factory.hpp:76] Creating layer inception_4b/relu_1x1
I0708 12:30:00.185812  6878 net.cpp:109] Creating Layer inception_4b/relu_1x1
I0708 12:30:00.185818  6878 net.cpp:457] inception_4b/relu_1x1 <- inception_4b/1x1
I0708 12:30:00.185825  6878 net.cpp:400] inception_4b/relu_1x1 -> inception_4b/1x1 (in-place)
I0708 12:30:00.185834  6878 net.cpp:153] Setting up inception_4b/relu_1x1
I0708 12:30:00.185842  6878 net.cpp:160] Top shape: 100 160 14 14 (3136000)
I0708 12:30:00.185845  6878 net.cpp:168] Memory required for data: 3967927604
I0708 12:30:00.185850  6878 layer_factory.hpp:76] Creating layer inception_4b/3x3_reduce
I0708 12:30:00.185859  6878 net.cpp:109] Creating Layer inception_4b/3x3_reduce
I0708 12:30:00.185864  6878 net.cpp:457] inception_4b/3x3_reduce <- inception_4a/output_inception_4a/output_0_split_2
I0708 12:30:00.185871  6878 net.cpp:414] inception_4b/3x3_reduce -> inception_4b/3x3_reduce
I0708 12:30:00.187242  6878 net.cpp:153] Setting up inception_4b/3x3_reduce
I0708 12:30:00.187265  6878 net.cpp:160] Top shape: 100 112 14 14 (2195200)
I0708 12:30:00.187270  6878 net.cpp:168] Memory required for data: 3976708404
I0708 12:30:00.187278  6878 layer_factory.hpp:76] Creating layer inception_4b/relu_3x3_reduce
I0708 12:30:00.187286  6878 net.cpp:109] Creating Layer inception_4b/relu_3x3_reduce
I0708 12:30:00.187293  6878 net.cpp:457] inception_4b/relu_3x3_reduce <- inception_4b/3x3_reduce
I0708 12:30:00.187300  6878 net.cpp:400] inception_4b/relu_3x3_reduce -> inception_4b/3x3_reduce (in-place)
I0708 12:30:00.187309  6878 net.cpp:153] Setting up inception_4b/relu_3x3_reduce
I0708 12:30:00.187315  6878 net.cpp:160] Top shape: 100 112 14 14 (2195200)
I0708 12:30:00.187320  6878 net.cpp:168] Memory required for data: 3985489204
I0708 12:30:00.187325  6878 layer_factory.hpp:76] Creating layer inception_4b/3x3
I0708 12:30:00.187335  6878 net.cpp:109] Creating Layer inception_4b/3x3
I0708 12:30:00.187340  6878 net.cpp:457] inception_4b/3x3 <- inception_4b/3x3_reduce
I0708 12:30:00.187350  6878 net.cpp:414] inception_4b/3x3 -> inception_4b/3x3
I0708 12:30:00.189934  6878 net.cpp:153] Setting up inception_4b/3x3
I0708 12:30:00.189949  6878 net.cpp:160] Top shape: 100 224 14 14 (4390400)
I0708 12:30:00.189954  6878 net.cpp:168] Memory required for data: 4003050804
I0708 12:30:00.189961  6878 layer_factory.hpp:76] Creating layer inception_4b/relu_3x3
I0708 12:30:00.189970  6878 net.cpp:109] Creating Layer inception_4b/relu_3x3
I0708 12:30:00.189975  6878 net.cpp:457] inception_4b/relu_3x3 <- inception_4b/3x3
I0708 12:30:00.189982  6878 net.cpp:400] inception_4b/relu_3x3 -> inception_4b/3x3 (in-place)
I0708 12:30:00.189991  6878 net.cpp:153] Setting up inception_4b/relu_3x3
I0708 12:30:00.189998  6878 net.cpp:160] Top shape: 100 224 14 14 (4390400)
I0708 12:30:00.190002  6878 net.cpp:168] Memory required for data: 4020612404
I0708 12:30:00.190006  6878 layer_factory.hpp:76] Creating layer inception_4b/5x5_reduce
I0708 12:30:00.190017  6878 net.cpp:109] Creating Layer inception_4b/5x5_reduce
I0708 12:30:00.190022  6878 net.cpp:457] inception_4b/5x5_reduce <- inception_4a/output_inception_4a/output_0_split_3
I0708 12:30:00.190031  6878 net.cpp:414] inception_4b/5x5_reduce -> inception_4b/5x5_reduce
I0708 12:30:00.190376  6878 net.cpp:153] Setting up inception_4b/5x5_reduce
I0708 12:30:00.190388  6878 net.cpp:160] Top shape: 100 24 14 14 (470400)
I0708 12:30:00.190392  6878 net.cpp:168] Memory required for data: 4022494004
I0708 12:30:00.190400  6878 layer_factory.hpp:76] Creating layer inception_4b/relu_5x5_reduce
I0708 12:30:00.190409  6878 net.cpp:109] Creating Layer inception_4b/relu_5x5_reduce
I0708 12:30:00.190414  6878 net.cpp:457] inception_4b/relu_5x5_reduce <- inception_4b/5x5_reduce
I0708 12:30:00.190438  6878 net.cpp:400] inception_4b/relu_5x5_reduce -> inception_4b/5x5_reduce (in-place)
I0708 12:30:00.190448  6878 net.cpp:153] Setting up inception_4b/relu_5x5_reduce
I0708 12:30:00.190454  6878 net.cpp:160] Top shape: 100 24 14 14 (470400)
I0708 12:30:00.190459  6878 net.cpp:168] Memory required for data: 4024375604
I0708 12:30:00.190464  6878 layer_factory.hpp:76] Creating layer inception_4b/5x5
I0708 12:30:00.190474  6878 net.cpp:109] Creating Layer inception_4b/5x5
I0708 12:30:00.190479  6878 net.cpp:457] inception_4b/5x5 <- inception_4b/5x5_reduce
I0708 12:30:00.190488  6878 net.cpp:414] inception_4b/5x5 -> inception_4b/5x5
I0708 12:30:00.191015  6878 net.cpp:153] Setting up inception_4b/5x5
I0708 12:30:00.191028  6878 net.cpp:160] Top shape: 100 64 14 14 (1254400)
I0708 12:30:00.191032  6878 net.cpp:168] Memory required for data: 4029393204
I0708 12:30:00.191040  6878 layer_factory.hpp:76] Creating layer inception_4b/relu_5x5
I0708 12:30:00.191050  6878 net.cpp:109] Creating Layer inception_4b/relu_5x5
I0708 12:30:00.191054  6878 net.cpp:457] inception_4b/relu_5x5 <- inception_4b/5x5
I0708 12:30:00.191061  6878 net.cpp:400] inception_4b/relu_5x5 -> inception_4b/5x5 (in-place)
I0708 12:30:00.191071  6878 net.cpp:153] Setting up inception_4b/relu_5x5
I0708 12:30:00.191076  6878 net.cpp:160] Top shape: 100 64 14 14 (1254400)
I0708 12:30:00.191081  6878 net.cpp:168] Memory required for data: 4034410804
I0708 12:30:00.191084  6878 layer_factory.hpp:76] Creating layer inception_4b/pool
I0708 12:30:00.191094  6878 net.cpp:109] Creating Layer inception_4b/pool
I0708 12:30:00.191099  6878 net.cpp:457] inception_4b/pool <- inception_4a/output_inception_4a/output_0_split_4
I0708 12:30:00.191107  6878 net.cpp:414] inception_4b/pool -> inception_4b/pool
I0708 12:30:00.191169  6878 net.cpp:153] Setting up inception_4b/pool
I0708 12:30:00.191179  6878 net.cpp:160] Top shape: 100 512 14 14 (10035200)
I0708 12:30:00.191184  6878 net.cpp:168] Memory required for data: 4074551604
I0708 12:30:00.191190  6878 layer_factory.hpp:76] Creating layer inception_4b/pool_proj
I0708 12:30:00.191200  6878 net.cpp:109] Creating Layer inception_4b/pool_proj
I0708 12:30:00.191205  6878 net.cpp:457] inception_4b/pool_proj <- inception_4b/pool
I0708 12:30:00.191220  6878 net.cpp:414] inception_4b/pool_proj -> inception_4b/pool_proj
I0708 12:30:00.191692  6878 net.cpp:153] Setting up inception_4b/pool_proj
I0708 12:30:00.191704  6878 net.cpp:160] Top shape: 100 64 14 14 (1254400)
I0708 12:30:00.191709  6878 net.cpp:168] Memory required for data: 4079569204
I0708 12:30:00.191716  6878 layer_factory.hpp:76] Creating layer inception_4b/relu_pool_proj
I0708 12:30:00.191725  6878 net.cpp:109] Creating Layer inception_4b/relu_pool_proj
I0708 12:30:00.191730  6878 net.cpp:457] inception_4b/relu_pool_proj <- inception_4b/pool_proj
I0708 12:30:00.191740  6878 net.cpp:400] inception_4b/relu_pool_proj -> inception_4b/pool_proj (in-place)
I0708 12:30:00.191747  6878 net.cpp:153] Setting up inception_4b/relu_pool_proj
I0708 12:30:00.191754  6878 net.cpp:160] Top shape: 100 64 14 14 (1254400)
I0708 12:30:00.191758  6878 net.cpp:168] Memory required for data: 4084586804
I0708 12:30:00.191762  6878 layer_factory.hpp:76] Creating layer inception_4b/output
I0708 12:30:00.191771  6878 net.cpp:109] Creating Layer inception_4b/output
I0708 12:30:00.191776  6878 net.cpp:457] inception_4b/output <- inception_4b/1x1
I0708 12:30:00.191781  6878 net.cpp:457] inception_4b/output <- inception_4b/3x3
I0708 12:30:00.191787  6878 net.cpp:457] inception_4b/output <- inception_4b/5x5
I0708 12:30:00.191792  6878 net.cpp:457] inception_4b/output <- inception_4b/pool_proj
I0708 12:30:00.191798  6878 net.cpp:414] inception_4b/output -> inception_4b/output
I0708 12:30:00.191830  6878 net.cpp:153] Setting up inception_4b/output
I0708 12:30:00.191838  6878 net.cpp:160] Top shape: 100 512 14 14 (10035200)
I0708 12:30:00.191843  6878 net.cpp:168] Memory required for data: 4124727604
I0708 12:30:00.191848  6878 layer_factory.hpp:76] Creating layer inception_4b/output_inception_4b/output_0_split
I0708 12:30:00.191872  6878 net.cpp:109] Creating Layer inception_4b/output_inception_4b/output_0_split
I0708 12:30:00.191879  6878 net.cpp:457] inception_4b/output_inception_4b/output_0_split <- inception_4b/output
I0708 12:30:00.191886  6878 net.cpp:414] inception_4b/output_inception_4b/output_0_split -> inception_4b/output_inception_4b/output_0_split_0
I0708 12:30:00.191895  6878 net.cpp:414] inception_4b/output_inception_4b/output_0_split -> inception_4b/output_inception_4b/output_0_split_1
I0708 12:30:00.191905  6878 net.cpp:414] inception_4b/output_inception_4b/output_0_split -> inception_4b/output_inception_4b/output_0_split_2
I0708 12:30:00.191912  6878 net.cpp:414] inception_4b/output_inception_4b/output_0_split -> inception_4b/output_inception_4b/output_0_split_3
I0708 12:30:00.191980  6878 net.cpp:153] Setting up inception_4b/output_inception_4b/output_0_split
I0708 12:30:00.191989  6878 net.cpp:160] Top shape: 100 512 14 14 (10035200)
I0708 12:30:00.191995  6878 net.cpp:160] Top shape: 100 512 14 14 (10035200)
I0708 12:30:00.192000  6878 net.cpp:160] Top shape: 100 512 14 14 (10035200)
I0708 12:30:00.192005  6878 net.cpp:160] Top shape: 100 512 14 14 (10035200)
I0708 12:30:00.192009  6878 net.cpp:168] Memory required for data: 4285290804
I0708 12:30:00.192014  6878 layer_factory.hpp:76] Creating layer inception_4c/1x1
I0708 12:30:00.192024  6878 net.cpp:109] Creating Layer inception_4c/1x1
I0708 12:30:00.192029  6878 net.cpp:457] inception_4c/1x1 <- inception_4b/output_inception_4b/output_0_split_0
I0708 12:30:00.192039  6878 net.cpp:414] inception_4c/1x1 -> inception_4c/1x1
I0708 12:30:00.192747  6878 net.cpp:153] Setting up inception_4c/1x1
I0708 12:30:00.192759  6878 net.cpp:160] Top shape: 100 128 14 14 (2508800)
I0708 12:30:00.192764  6878 net.cpp:168] Memory required for data: 4295326004
I0708 12:30:00.192771  6878 layer_factory.hpp:76] Creating layer inception_4c/relu_1x1
I0708 12:30:00.192780  6878 net.cpp:109] Creating Layer inception_4c/relu_1x1
I0708 12:30:00.192785  6878 net.cpp:457] inception_4c/relu_1x1 <- inception_4c/1x1
I0708 12:30:00.192791  6878 net.cpp:400] inception_4c/relu_1x1 -> inception_4c/1x1 (in-place)
I0708 12:30:00.192800  6878 net.cpp:153] Setting up inception_4c/relu_1x1
I0708 12:30:00.192806  6878 net.cpp:160] Top shape: 100 128 14 14 (2508800)
I0708 12:30:00.192811  6878 net.cpp:168] Memory required for data: 4305361204
I0708 12:30:00.192814  6878 layer_factory.hpp:76] Creating layer inception_4c/3x3_reduce
I0708 12:30:00.192823  6878 net.cpp:109] Creating Layer inception_4c/3x3_reduce
I0708 12:30:00.192828  6878 net.cpp:457] inception_4c/3x3_reduce <- inception_4b/output_inception_4b/output_0_split_1
I0708 12:30:00.192836  6878 net.cpp:414] inception_4c/3x3_reduce -> inception_4c/3x3_reduce
I0708 12:30:00.193553  6878 net.cpp:153] Setting up inception_4c/3x3_reduce
I0708 12:30:00.193564  6878 net.cpp:160] Top shape: 100 128 14 14 (2508800)
I0708 12:30:00.193569  6878 net.cpp:168] Memory required for data: 4315396404
I0708 12:30:00.193577  6878 layer_factory.hpp:76] Creating layer inception_4c/relu_3x3_reduce
I0708 12:30:00.193584  6878 net.cpp:109] Creating Layer inception_4c/relu_3x3_reduce
I0708 12:30:00.193590  6878 net.cpp:457] inception_4c/relu_3x3_reduce <- inception_4c/3x3_reduce
I0708 12:30:00.193598  6878 net.cpp:400] inception_4c/relu_3x3_reduce -> inception_4c/3x3_reduce (in-place)
I0708 12:30:00.193605  6878 net.cpp:153] Setting up inception_4c/relu_3x3_reduce
I0708 12:30:00.193611  6878 net.cpp:160] Top shape: 100 128 14 14 (2508800)
I0708 12:30:00.193615  6878 net.cpp:168] Memory required for data: 4325431604
I0708 12:30:00.193620  6878 layer_factory.hpp:76] Creating layer inception_4c/3x3
I0708 12:30:00.193629  6878 net.cpp:109] Creating Layer inception_4c/3x3
I0708 12:30:00.193634  6878 net.cpp:457] inception_4c/3x3 <- inception_4c/3x3_reduce
I0708 12:30:00.193642  6878 net.cpp:414] inception_4c/3x3 -> inception_4c/3x3
I0708 12:30:00.196787  6878 net.cpp:153] Setting up inception_4c/3x3
I0708 12:30:00.196804  6878 net.cpp:160] Top shape: 100 256 14 14 (5017600)
I0708 12:30:00.196825  6878 net.cpp:168] Memory required for data: 4345502004
I0708 12:30:00.196851  6878 layer_factory.hpp:76] Creating layer inception_4c/relu_3x3
I0708 12:30:00.196859  6878 net.cpp:109] Creating Layer inception_4c/relu_3x3
I0708 12:30:00.196866  6878 net.cpp:457] inception_4c/relu_3x3 <- inception_4c/3x3
I0708 12:30:00.196872  6878 net.cpp:400] inception_4c/relu_3x3 -> inception_4c/3x3 (in-place)
I0708 12:30:00.196882  6878 net.cpp:153] Setting up inception_4c/relu_3x3
I0708 12:30:00.196888  6878 net.cpp:160] Top shape: 100 256 14 14 (5017600)
I0708 12:30:00.196903  6878 net.cpp:168] Memory required for data: 4365572404
I0708 12:30:00.196908  6878 layer_factory.hpp:76] Creating layer inception_4c/5x5_reduce
I0708 12:30:00.196918  6878 net.cpp:109] Creating Layer inception_4c/5x5_reduce
I0708 12:30:00.196923  6878 net.cpp:457] inception_4c/5x5_reduce <- inception_4b/output_inception_4b/output_0_split_2
I0708 12:30:00.196931  6878 net.cpp:414] inception_4c/5x5_reduce -> inception_4c/5x5_reduce
I0708 12:30:00.197275  6878 net.cpp:153] Setting up inception_4c/5x5_reduce
I0708 12:30:00.197288  6878 net.cpp:160] Top shape: 100 24 14 14 (470400)
I0708 12:30:00.197293  6878 net.cpp:168] Memory required for data: 4367454004
I0708 12:30:00.197300  6878 layer_factory.hpp:76] Creating layer inception_4c/relu_5x5_reduce
I0708 12:30:00.197307  6878 net.cpp:109] Creating Layer inception_4c/relu_5x5_reduce
I0708 12:30:00.197312  6878 net.cpp:457] inception_4c/relu_5x5_reduce <- inception_4c/5x5_reduce
I0708 12:30:00.197320  6878 net.cpp:400] inception_4c/relu_5x5_reduce -> inception_4c/5x5_reduce (in-place)
I0708 12:30:00.197329  6878 net.cpp:153] Setting up inception_4c/relu_5x5_reduce
I0708 12:30:00.197335  6878 net.cpp:160] Top shape: 100 24 14 14 (470400)
I0708 12:30:00.197340  6878 net.cpp:168] Memory required for data: 4369335604
I0708 12:30:00.197343  6878 layer_factory.hpp:76] Creating layer inception_4c/5x5
I0708 12:30:00.197353  6878 net.cpp:109] Creating Layer inception_4c/5x5
I0708 12:30:00.197357  6878 net.cpp:457] inception_4c/5x5 <- inception_4c/5x5_reduce
I0708 12:30:00.197366  6878 net.cpp:414] inception_4c/5x5 -> inception_4c/5x5
I0708 12:30:00.198582  6878 net.cpp:153] Setting up inception_4c/5x5
I0708 12:30:00.198597  6878 net.cpp:160] Top shape: 100 64 14 14 (1254400)
I0708 12:30:00.198601  6878 net.cpp:168] Memory required for data: 4374353204
I0708 12:30:00.198609  6878 layer_factory.hpp:76] Creating layer inception_4c/relu_5x5
I0708 12:30:00.198618  6878 net.cpp:109] Creating Layer inception_4c/relu_5x5
I0708 12:30:00.198623  6878 net.cpp:457] inception_4c/relu_5x5 <- inception_4c/5x5
I0708 12:30:00.198632  6878 net.cpp:400] inception_4c/relu_5x5 -> inception_4c/5x5 (in-place)
I0708 12:30:00.198640  6878 net.cpp:153] Setting up inception_4c/relu_5x5
I0708 12:30:00.198647  6878 net.cpp:160] Top shape: 100 64 14 14 (1254400)
I0708 12:30:00.198652  6878 net.cpp:168] Memory required for data: 4379370804
I0708 12:30:00.198655  6878 layer_factory.hpp:76] Creating layer inception_4c/pool
I0708 12:30:00.198665  6878 net.cpp:109] Creating Layer inception_4c/pool
I0708 12:30:00.198669  6878 net.cpp:457] inception_4c/pool <- inception_4b/output_inception_4b/output_0_split_3
I0708 12:30:00.198678  6878 net.cpp:414] inception_4c/pool -> inception_4c/pool
I0708 12:30:00.198725  6878 net.cpp:153] Setting up inception_4c/pool
I0708 12:30:00.198734  6878 net.cpp:160] Top shape: 100 512 14 14 (10035200)
I0708 12:30:00.198739  6878 net.cpp:168] Memory required for data: 4419511604
I0708 12:30:00.198743  6878 layer_factory.hpp:76] Creating layer inception_4c/pool_proj
I0708 12:30:00.198755  6878 net.cpp:109] Creating Layer inception_4c/pool_proj
I0708 12:30:00.198760  6878 net.cpp:457] inception_4c/pool_proj <- inception_4c/pool
I0708 12:30:00.198768  6878 net.cpp:414] inception_4c/pool_proj -> inception_4c/pool_proj
I0708 12:30:00.199268  6878 net.cpp:153] Setting up inception_4c/pool_proj
I0708 12:30:00.199281  6878 net.cpp:160] Top shape: 100 64 14 14 (1254400)
I0708 12:30:00.199303  6878 net.cpp:168] Memory required for data: 4424529204
I0708 12:30:00.199312  6878 layer_factory.hpp:76] Creating layer inception_4c/relu_pool_proj
I0708 12:30:00.199321  6878 net.cpp:109] Creating Layer inception_4c/relu_pool_proj
I0708 12:30:00.199326  6878 net.cpp:457] inception_4c/relu_pool_proj <- inception_4c/pool_proj
I0708 12:30:00.199333  6878 net.cpp:400] inception_4c/relu_pool_proj -> inception_4c/pool_proj (in-place)
I0708 12:30:00.199342  6878 net.cpp:153] Setting up inception_4c/relu_pool_proj
I0708 12:30:00.199349  6878 net.cpp:160] Top shape: 100 64 14 14 (1254400)
I0708 12:30:00.199353  6878 net.cpp:168] Memory required for data: 4429546804
I0708 12:30:00.199357  6878 layer_factory.hpp:76] Creating layer inception_4c/output
I0708 12:30:00.199365  6878 net.cpp:109] Creating Layer inception_4c/output
I0708 12:30:00.199370  6878 net.cpp:457] inception_4c/output <- inception_4c/1x1
I0708 12:30:00.199376  6878 net.cpp:457] inception_4c/output <- inception_4c/3x3
I0708 12:30:00.199381  6878 net.cpp:457] inception_4c/output <- inception_4c/5x5
I0708 12:30:00.199388  6878 net.cpp:457] inception_4c/output <- inception_4c/pool_proj
I0708 12:30:00.199393  6878 net.cpp:414] inception_4c/output -> inception_4c/output
I0708 12:30:00.199429  6878 net.cpp:153] Setting up inception_4c/output
I0708 12:30:00.199437  6878 net.cpp:160] Top shape: 100 512 14 14 (10035200)
I0708 12:30:00.199441  6878 net.cpp:168] Memory required for data: 4469687604
I0708 12:30:00.199446  6878 layer_factory.hpp:76] Creating layer inception_4c/output_inception_4c/output_0_split
I0708 12:30:00.199456  6878 net.cpp:109] Creating Layer inception_4c/output_inception_4c/output_0_split
I0708 12:30:00.199461  6878 net.cpp:457] inception_4c/output_inception_4c/output_0_split <- inception_4c/output
I0708 12:30:00.199468  6878 net.cpp:414] inception_4c/output_inception_4c/output_0_split -> inception_4c/output_inception_4c/output_0_split_0
I0708 12:30:00.199478  6878 net.cpp:414] inception_4c/output_inception_4c/output_0_split -> inception_4c/output_inception_4c/output_0_split_1
I0708 12:30:00.199486  6878 net.cpp:414] inception_4c/output_inception_4c/output_0_split -> inception_4c/output_inception_4c/output_0_split_2
I0708 12:30:00.199496  6878 net.cpp:414] inception_4c/output_inception_4c/output_0_split -> inception_4c/output_inception_4c/output_0_split_3
I0708 12:30:00.199563  6878 net.cpp:153] Setting up inception_4c/output_inception_4c/output_0_split
I0708 12:30:00.199571  6878 net.cpp:160] Top shape: 100 512 14 14 (10035200)
I0708 12:30:00.199578  6878 net.cpp:160] Top shape: 100 512 14 14 (10035200)
I0708 12:30:00.199582  6878 net.cpp:160] Top shape: 100 512 14 14 (10035200)
I0708 12:30:00.199589  6878 net.cpp:160] Top shape: 100 512 14 14 (10035200)
I0708 12:30:00.199594  6878 net.cpp:168] Memory required for data: 4630250804
I0708 12:30:00.199597  6878 layer_factory.hpp:76] Creating layer inception_4d/1x1
I0708 12:30:00.199607  6878 net.cpp:109] Creating Layer inception_4d/1x1
I0708 12:30:00.199612  6878 net.cpp:457] inception_4d/1x1 <- inception_4c/output_inception_4c/output_0_split_0
I0708 12:30:00.199620  6878 net.cpp:414] inception_4d/1x1 -> inception_4d/1x1
I0708 12:30:00.200302  6878 net.cpp:153] Setting up inception_4d/1x1
I0708 12:30:00.200315  6878 net.cpp:160] Top shape: 100 112 14 14 (2195200)
I0708 12:30:00.200320  6878 net.cpp:168] Memory required for data: 4639031604
I0708 12:30:00.200327  6878 layer_factory.hpp:76] Creating layer inception_4d/relu_1x1
I0708 12:30:00.200335  6878 net.cpp:109] Creating Layer inception_4d/relu_1x1
I0708 12:30:00.200340  6878 net.cpp:457] inception_4d/relu_1x1 <- inception_4d/1x1
I0708 12:30:00.200347  6878 net.cpp:400] inception_4d/relu_1x1 -> inception_4d/1x1 (in-place)
I0708 12:30:00.200356  6878 net.cpp:153] Setting up inception_4d/relu_1x1
I0708 12:30:00.200362  6878 net.cpp:160] Top shape: 100 112 14 14 (2195200)
I0708 12:30:00.200366  6878 net.cpp:168] Memory required for data: 4647812404
I0708 12:30:00.200371  6878 layer_factory.hpp:76] Creating layer inception_4d/3x3_reduce
I0708 12:30:00.200397  6878 net.cpp:109] Creating Layer inception_4d/3x3_reduce
I0708 12:30:00.200402  6878 net.cpp:457] inception_4d/3x3_reduce <- inception_4c/output_inception_4c/output_0_split_1
I0708 12:30:00.200410  6878 net.cpp:414] inception_4d/3x3_reduce -> inception_4d/3x3_reduce
I0708 12:30:00.201232  6878 net.cpp:153] Setting up inception_4d/3x3_reduce
I0708 12:30:00.201244  6878 net.cpp:160] Top shape: 100 144 14 14 (2822400)
I0708 12:30:00.201249  6878 net.cpp:168] Memory required for data: 4659102004
I0708 12:30:00.201257  6878 layer_factory.hpp:76] Creating layer inception_4d/relu_3x3_reduce
I0708 12:30:00.201266  6878 net.cpp:109] Creating Layer inception_4d/relu_3x3_reduce
I0708 12:30:00.201272  6878 net.cpp:457] inception_4d/relu_3x3_reduce <- inception_4d/3x3_reduce
I0708 12:30:00.201278  6878 net.cpp:400] inception_4d/relu_3x3_reduce -> inception_4d/3x3_reduce (in-place)
I0708 12:30:00.201287  6878 net.cpp:153] Setting up inception_4d/relu_3x3_reduce
I0708 12:30:00.201293  6878 net.cpp:160] Top shape: 100 144 14 14 (2822400)
I0708 12:30:00.201297  6878 net.cpp:168] Memory required for data: 4670391604
I0708 12:30:00.201303  6878 layer_factory.hpp:76] Creating layer inception_4d/3x3
I0708 12:30:00.201311  6878 net.cpp:109] Creating Layer inception_4d/3x3
I0708 12:30:00.201315  6878 net.cpp:457] inception_4d/3x3 <- inception_4d/3x3_reduce
I0708 12:30:00.201323  6878 net.cpp:414] inception_4d/3x3 -> inception_4d/3x3
I0708 12:30:00.205348  6878 net.cpp:153] Setting up inception_4d/3x3
I0708 12:30:00.205382  6878 net.cpp:160] Top shape: 100 288 14 14 (5644800)
I0708 12:30:00.205387  6878 net.cpp:168] Memory required for data: 4692970804
I0708 12:30:00.205399  6878 layer_factory.hpp:76] Creating layer inception_4d/relu_3x3
I0708 12:30:00.205412  6878 net.cpp:109] Creating Layer inception_4d/relu_3x3
I0708 12:30:00.205420  6878 net.cpp:457] inception_4d/relu_3x3 <- inception_4d/3x3
I0708 12:30:00.205430  6878 net.cpp:400] inception_4d/relu_3x3 -> inception_4d/3x3 (in-place)
I0708 12:30:00.205441  6878 net.cpp:153] Setting up inception_4d/relu_3x3
I0708 12:30:00.205448  6878 net.cpp:160] Top shape: 100 288 14 14 (5644800)
I0708 12:30:00.205452  6878 net.cpp:168] Memory required for data: 4715550004
I0708 12:30:00.205456  6878 layer_factory.hpp:76] Creating layer inception_4d/5x5_reduce
I0708 12:30:00.205468  6878 net.cpp:109] Creating Layer inception_4d/5x5_reduce
I0708 12:30:00.205473  6878 net.cpp:457] inception_4d/5x5_reduce <- inception_4c/output_inception_4c/output_0_split_2
I0708 12:30:00.205482  6878 net.cpp:414] inception_4d/5x5_reduce -> inception_4d/5x5_reduce
I0708 12:30:00.205891  6878 net.cpp:153] Setting up inception_4d/5x5_reduce
I0708 12:30:00.205906  6878 net.cpp:160] Top shape: 100 32 14 14 (627200)
I0708 12:30:00.205910  6878 net.cpp:168] Memory required for data: 4718058804
I0708 12:30:00.205919  6878 layer_factory.hpp:76] Creating layer inception_4d/relu_5x5_reduce
I0708 12:30:00.205926  6878 net.cpp:109] Creating Layer inception_4d/relu_5x5_reduce
I0708 12:30:00.205932  6878 net.cpp:457] inception_4d/relu_5x5_reduce <- inception_4d/5x5_reduce
I0708 12:30:00.205938  6878 net.cpp:400] inception_4d/relu_5x5_reduce -> inception_4d/5x5_reduce (in-place)
I0708 12:30:00.205947  6878 net.cpp:153] Setting up inception_4d/relu_5x5_reduce
I0708 12:30:00.205953  6878 net.cpp:160] Top shape: 100 32 14 14 (627200)
I0708 12:30:00.205957  6878 net.cpp:168] Memory required for data: 4720567604
I0708 12:30:00.205962  6878 layer_factory.hpp:76] Creating layer inception_4d/5x5
I0708 12:30:00.205972  6878 net.cpp:109] Creating Layer inception_4d/5x5
I0708 12:30:00.205976  6878 net.cpp:457] inception_4d/5x5 <- inception_4d/5x5_reduce
I0708 12:30:00.205984  6878 net.cpp:414] inception_4d/5x5 -> inception_4d/5x5
I0708 12:30:00.206642  6878 net.cpp:153] Setting up inception_4d/5x5
I0708 12:30:00.206655  6878 net.cpp:160] Top shape: 100 64 14 14 (1254400)
I0708 12:30:00.206660  6878 net.cpp:168] Memory required for data: 4725585204
I0708 12:30:00.206666  6878 layer_factory.hpp:76] Creating layer inception_4d/relu_5x5
I0708 12:30:00.206707  6878 net.cpp:109] Creating Layer inception_4d/relu_5x5
I0708 12:30:00.206712  6878 net.cpp:457] inception_4d/relu_5x5 <- inception_4d/5x5
I0708 12:30:00.206720  6878 net.cpp:400] inception_4d/relu_5x5 -> inception_4d/5x5 (in-place)
I0708 12:30:00.206729  6878 net.cpp:153] Setting up inception_4d/relu_5x5
I0708 12:30:00.206735  6878 net.cpp:160] Top shape: 100 64 14 14 (1254400)
I0708 12:30:00.206739  6878 net.cpp:168] Memory required for data: 4730602804
I0708 12:30:00.206743  6878 layer_factory.hpp:76] Creating layer inception_4d/pool
I0708 12:30:00.206753  6878 net.cpp:109] Creating Layer inception_4d/pool
I0708 12:30:00.206758  6878 net.cpp:457] inception_4d/pool <- inception_4c/output_inception_4c/output_0_split_3
I0708 12:30:00.206765  6878 net.cpp:414] inception_4d/pool -> inception_4d/pool
I0708 12:30:00.206818  6878 net.cpp:153] Setting up inception_4d/pool
I0708 12:30:00.206827  6878 net.cpp:160] Top shape: 100 512 14 14 (10035200)
I0708 12:30:00.206831  6878 net.cpp:168] Memory required for data: 4770743604
I0708 12:30:00.206836  6878 layer_factory.hpp:76] Creating layer inception_4d/pool_proj
I0708 12:30:00.206847  6878 net.cpp:109] Creating Layer inception_4d/pool_proj
I0708 12:30:00.206852  6878 net.cpp:457] inception_4d/pool_proj <- inception_4d/pool
I0708 12:30:00.206861  6878 net.cpp:414] inception_4d/pool_proj -> inception_4d/pool_proj
I0708 12:30:00.207375  6878 net.cpp:153] Setting up inception_4d/pool_proj
I0708 12:30:00.207387  6878 net.cpp:160] Top shape: 100 64 14 14 (1254400)
I0708 12:30:00.207392  6878 net.cpp:168] Memory required for data: 4775761204
I0708 12:30:00.207399  6878 layer_factory.hpp:76] Creating layer inception_4d/relu_pool_proj
I0708 12:30:00.207408  6878 net.cpp:109] Creating Layer inception_4d/relu_pool_proj
I0708 12:30:00.207413  6878 net.cpp:457] inception_4d/relu_pool_proj <- inception_4d/pool_proj
I0708 12:30:00.207420  6878 net.cpp:400] inception_4d/relu_pool_proj -> inception_4d/pool_proj (in-place)
I0708 12:30:00.207429  6878 net.cpp:153] Setting up inception_4d/relu_pool_proj
I0708 12:30:00.207435  6878 net.cpp:160] Top shape: 100 64 14 14 (1254400)
I0708 12:30:00.207440  6878 net.cpp:168] Memory required for data: 4780778804
I0708 12:30:00.207444  6878 layer_factory.hpp:76] Creating layer inception_4d/output
I0708 12:30:00.207453  6878 net.cpp:109] Creating Layer inception_4d/output
I0708 12:30:00.207458  6878 net.cpp:457] inception_4d/output <- inception_4d/1x1
I0708 12:30:00.207463  6878 net.cpp:457] inception_4d/output <- inception_4d/3x3
I0708 12:30:00.207468  6878 net.cpp:457] inception_4d/output <- inception_4d/5x5
I0708 12:30:00.207473  6878 net.cpp:457] inception_4d/output <- inception_4d/pool_proj
I0708 12:30:00.207479  6878 net.cpp:414] inception_4d/output -> inception_4d/output
I0708 12:30:00.207515  6878 net.cpp:153] Setting up inception_4d/output
I0708 12:30:00.207522  6878 net.cpp:160] Top shape: 100 528 14 14 (10348800)
I0708 12:30:00.207527  6878 net.cpp:168] Memory required for data: 4822174004
I0708 12:30:00.207531  6878 layer_factory.hpp:76] Creating layer inception_4d/output_inception_4d/output_0_split
I0708 12:30:00.207541  6878 net.cpp:109] Creating Layer inception_4d/output_inception_4d/output_0_split
I0708 12:30:00.207546  6878 net.cpp:457] inception_4d/output_inception_4d/output_0_split <- inception_4d/output
I0708 12:30:00.207554  6878 net.cpp:414] inception_4d/output_inception_4d/output_0_split -> inception_4d/output_inception_4d/output_0_split_0
I0708 12:30:00.207563  6878 net.cpp:414] inception_4d/output_inception_4d/output_0_split -> inception_4d/output_inception_4d/output_0_split_1
I0708 12:30:00.207571  6878 net.cpp:414] inception_4d/output_inception_4d/output_0_split -> inception_4d/output_inception_4d/output_0_split_2
I0708 12:30:00.207579  6878 net.cpp:414] inception_4d/output_inception_4d/output_0_split -> inception_4d/output_inception_4d/output_0_split_3
I0708 12:30:00.207587  6878 net.cpp:414] inception_4d/output_inception_4d/output_0_split -> inception_4d/output_inception_4d/output_0_split_4
I0708 12:30:00.207687  6878 net.cpp:153] Setting up inception_4d/output_inception_4d/output_0_split
I0708 12:30:00.207697  6878 net.cpp:160] Top shape: 100 528 14 14 (10348800)
I0708 12:30:00.207702  6878 net.cpp:160] Top shape: 100 528 14 14 (10348800)
I0708 12:30:00.207708  6878 net.cpp:160] Top shape: 100 528 14 14 (10348800)
I0708 12:30:00.207713  6878 net.cpp:160] Top shape: 100 528 14 14 (10348800)
I0708 12:30:00.207718  6878 net.cpp:160] Top shape: 100 528 14 14 (10348800)
I0708 12:30:00.207722  6878 net.cpp:168] Memory required for data: 5029150004
I0708 12:30:00.207727  6878 layer_factory.hpp:76] Creating layer loss2/ave_pool
I0708 12:30:00.207736  6878 net.cpp:109] Creating Layer loss2/ave_pool
I0708 12:30:00.207741  6878 net.cpp:457] loss2/ave_pool <- inception_4d/output_inception_4d/output_0_split_0
I0708 12:30:00.207749  6878 net.cpp:414] loss2/ave_pool -> loss2/ave_pool
I0708 12:30:00.207784  6878 net.cpp:153] Setting up loss2/ave_pool
I0708 12:30:00.207793  6878 net.cpp:160] Top shape: 100 528 4 4 (844800)
I0708 12:30:00.207798  6878 net.cpp:168] Memory required for data: 5032529204
I0708 12:30:00.207801  6878 layer_factory.hpp:76] Creating layer loss2/conv
I0708 12:30:00.207811  6878 net.cpp:109] Creating Layer loss2/conv
I0708 12:30:00.207816  6878 net.cpp:457] loss2/conv <- loss2/ave_pool
I0708 12:30:00.207825  6878 net.cpp:414] loss2/conv -> loss2/conv
I0708 12:30:00.208598  6878 net.cpp:153] Setting up loss2/conv
I0708 12:30:00.208611  6878 net.cpp:160] Top shape: 100 128 4 4 (204800)
I0708 12:30:00.208614  6878 net.cpp:168] Memory required for data: 5033348404
I0708 12:30:00.208622  6878 layer_factory.hpp:76] Creating layer loss2/relu_conv
I0708 12:30:00.208631  6878 net.cpp:109] Creating Layer loss2/relu_conv
I0708 12:30:00.208636  6878 net.cpp:457] loss2/relu_conv <- loss2/conv
I0708 12:30:00.208643  6878 net.cpp:400] loss2/relu_conv -> loss2/conv (in-place)
I0708 12:30:00.208652  6878 net.cpp:153] Setting up loss2/relu_conv
I0708 12:30:00.208658  6878 net.cpp:160] Top shape: 100 128 4 4 (204800)
I0708 12:30:00.208662  6878 net.cpp:168] Memory required for data: 5034167604
I0708 12:30:00.208667  6878 layer_factory.hpp:76] Creating layer loss2/fc
I0708 12:30:00.208676  6878 net.cpp:109] Creating Layer loss2/fc
I0708 12:30:00.208681  6878 net.cpp:457] loss2/fc <- loss2/conv
I0708 12:30:00.208689  6878 net.cpp:414] loss2/fc -> loss2/fc
I0708 12:30:00.229604  6878 net.cpp:153] Setting up loss2/fc
I0708 12:30:00.229650  6878 net.cpp:160] Top shape: 100 1024 (102400)
I0708 12:30:00.229655  6878 net.cpp:168] Memory required for data: 5034577204
I0708 12:30:00.229671  6878 layer_factory.hpp:76] Creating layer loss2/relu_fc
I0708 12:30:00.229686  6878 net.cpp:109] Creating Layer loss2/relu_fc
I0708 12:30:00.229696  6878 net.cpp:457] loss2/relu_fc <- loss2/fc
I0708 12:30:00.229707  6878 net.cpp:400] loss2/relu_fc -> loss2/fc (in-place)
I0708 12:30:00.229723  6878 net.cpp:153] Setting up loss2/relu_fc
I0708 12:30:00.229730  6878 net.cpp:160] Top shape: 100 1024 (102400)
I0708 12:30:00.229734  6878 net.cpp:168] Memory required for data: 5034986804
I0708 12:30:00.229739  6878 layer_factory.hpp:76] Creating layer loss2/drop_fc
I0708 12:30:00.229749  6878 net.cpp:109] Creating Layer loss2/drop_fc
I0708 12:30:00.229753  6878 net.cpp:457] loss2/drop_fc <- loss2/fc
I0708 12:30:00.229760  6878 net.cpp:400] loss2/drop_fc -> loss2/fc (in-place)
I0708 12:30:00.229801  6878 net.cpp:153] Setting up loss2/drop_fc
I0708 12:30:00.229809  6878 net.cpp:160] Top shape: 100 1024 (102400)
I0708 12:30:00.229815  6878 net.cpp:168] Memory required for data: 5035396404
I0708 12:30:00.229820  6878 layer_factory.hpp:76] Creating layer loss2/classifier_clean
I0708 12:30:00.229830  6878 net.cpp:109] Creating Layer loss2/classifier_clean
I0708 12:30:00.229835  6878 net.cpp:457] loss2/classifier_clean <- loss2/fc
I0708 12:30:00.229843  6878 net.cpp:414] loss2/classifier_clean -> loss2/classifier_clean
I0708 12:30:00.239424  6878 net.cpp:153] Setting up loss2/classifier_clean
I0708 12:30:00.239440  6878 net.cpp:160] Top shape: 100 967 (96700)
I0708 12:30:00.239480  6878 net.cpp:168] Memory required for data: 5035783204
I0708 12:30:00.239490  6878 layer_factory.hpp:76] Creating layer loss2/loss
I0708 12:30:00.239500  6878 net.cpp:109] Creating Layer loss2/loss
I0708 12:30:00.239506  6878 net.cpp:457] loss2/loss <- loss2/classifier_clean
I0708 12:30:00.239512  6878 net.cpp:457] loss2/loss <- label_train-data_1_split_1
I0708 12:30:00.239521  6878 net.cpp:414] loss2/loss -> loss2/loss
I0708 12:30:00.239532  6878 layer_factory.hpp:76] Creating layer loss2/loss
I0708 12:30:00.240350  6878 net.cpp:153] Setting up loss2/loss
I0708 12:30:00.240365  6878 net.cpp:160] Top shape: (1)
I0708 12:30:00.240370  6878 net.cpp:163]     with loss weight 0.3
I0708 12:30:00.240386  6878 net.cpp:168] Memory required for data: 5035783208
I0708 12:30:00.240391  6878 layer_factory.hpp:76] Creating layer inception_4e/1x1
I0708 12:30:00.240404  6878 net.cpp:109] Creating Layer inception_4e/1x1
I0708 12:30:00.240411  6878 net.cpp:457] inception_4e/1x1 <- inception_4d/output_inception_4d/output_0_split_1
I0708 12:30:00.240422  6878 net.cpp:414] inception_4e/1x1 -> inception_4e/1x1
I0708 12:30:00.241683  6878 net.cpp:153] Setting up inception_4e/1x1
I0708 12:30:00.241696  6878 net.cpp:160] Top shape: 100 256 14 14 (5017600)
I0708 12:30:00.241701  6878 net.cpp:168] Memory required for data: 5055853608
I0708 12:30:00.241709  6878 layer_factory.hpp:76] Creating layer inception_4e/relu_1x1
I0708 12:30:00.241719  6878 net.cpp:109] Creating Layer inception_4e/relu_1x1
I0708 12:30:00.241724  6878 net.cpp:457] inception_4e/relu_1x1 <- inception_4e/1x1
I0708 12:30:00.241730  6878 net.cpp:400] inception_4e/relu_1x1 -> inception_4e/1x1 (in-place)
I0708 12:30:00.241739  6878 net.cpp:153] Setting up inception_4e/relu_1x1
I0708 12:30:00.241745  6878 net.cpp:160] Top shape: 100 256 14 14 (5017600)
I0708 12:30:00.241750  6878 net.cpp:168] Memory required for data: 5075924008
I0708 12:30:00.241756  6878 layer_factory.hpp:76] Creating layer inception_4e/3x3_reduce
I0708 12:30:00.241766  6878 net.cpp:109] Creating Layer inception_4e/3x3_reduce
I0708 12:30:00.241771  6878 net.cpp:457] inception_4e/3x3_reduce <- inception_4d/output_inception_4d/output_0_split_2
I0708 12:30:00.241780  6878 net.cpp:414] inception_4e/3x3_reduce -> inception_4e/3x3_reduce
I0708 12:30:00.242699  6878 net.cpp:153] Setting up inception_4e/3x3_reduce
I0708 12:30:00.242712  6878 net.cpp:160] Top shape: 100 160 14 14 (3136000)
I0708 12:30:00.242715  6878 net.cpp:168] Memory required for data: 5088468008
I0708 12:30:00.242724  6878 layer_factory.hpp:76] Creating layer inception_4e/relu_3x3_reduce
I0708 12:30:00.242733  6878 net.cpp:109] Creating Layer inception_4e/relu_3x3_reduce
I0708 12:30:00.242738  6878 net.cpp:457] inception_4e/relu_3x3_reduce <- inception_4e/3x3_reduce
I0708 12:30:00.242745  6878 net.cpp:400] inception_4e/relu_3x3_reduce -> inception_4e/3x3_reduce (in-place)
I0708 12:30:00.242754  6878 net.cpp:153] Setting up inception_4e/relu_3x3_reduce
I0708 12:30:00.242760  6878 net.cpp:160] Top shape: 100 160 14 14 (3136000)
I0708 12:30:00.242764  6878 net.cpp:168] Memory required for data: 5101012008
I0708 12:30:00.242769  6878 layer_factory.hpp:76] Creating layer inception_4e/3x3
I0708 12:30:00.242779  6878 net.cpp:109] Creating Layer inception_4e/3x3
I0708 12:30:00.242784  6878 net.cpp:457] inception_4e/3x3 <- inception_4e/3x3_reduce
I0708 12:30:00.242791  6878 net.cpp:414] inception_4e/3x3 -> inception_4e/3x3
I0708 12:30:00.247398  6878 net.cpp:153] Setting up inception_4e/3x3
I0708 12:30:00.247414  6878 net.cpp:160] Top shape: 100 320 14 14 (6272000)
I0708 12:30:00.247418  6878 net.cpp:168] Memory required for data: 5126100008
I0708 12:30:00.247427  6878 layer_factory.hpp:76] Creating layer inception_4e/relu_3x3
I0708 12:30:00.247436  6878 net.cpp:109] Creating Layer inception_4e/relu_3x3
I0708 12:30:00.247442  6878 net.cpp:457] inception_4e/relu_3x3 <- inception_4e/3x3
I0708 12:30:00.247448  6878 net.cpp:400] inception_4e/relu_3x3 -> inception_4e/3x3 (in-place)
I0708 12:30:00.247457  6878 net.cpp:153] Setting up inception_4e/relu_3x3
I0708 12:30:00.247481  6878 net.cpp:160] Top shape: 100 320 14 14 (6272000)
I0708 12:30:00.247486  6878 net.cpp:168] Memory required for data: 5151188008
I0708 12:30:00.247491  6878 layer_factory.hpp:76] Creating layer inception_4e/5x5_reduce
I0708 12:30:00.247501  6878 net.cpp:109] Creating Layer inception_4e/5x5_reduce
I0708 12:30:00.247506  6878 net.cpp:457] inception_4e/5x5_reduce <- inception_4d/output_inception_4d/output_0_split_3
I0708 12:30:00.247515  6878 net.cpp:414] inception_4e/5x5_reduce -> inception_4e/5x5_reduce
I0708 12:30:00.247911  6878 net.cpp:153] Setting up inception_4e/5x5_reduce
I0708 12:30:00.247923  6878 net.cpp:160] Top shape: 100 32 14 14 (627200)
I0708 12:30:00.247927  6878 net.cpp:168] Memory required for data: 5153696808
I0708 12:30:00.247936  6878 layer_factory.hpp:76] Creating layer inception_4e/relu_5x5_reduce
I0708 12:30:00.247944  6878 net.cpp:109] Creating Layer inception_4e/relu_5x5_reduce
I0708 12:30:00.247949  6878 net.cpp:457] inception_4e/relu_5x5_reduce <- inception_4e/5x5_reduce
I0708 12:30:00.247956  6878 net.cpp:400] inception_4e/relu_5x5_reduce -> inception_4e/5x5_reduce (in-place)
I0708 12:30:00.247966  6878 net.cpp:153] Setting up inception_4e/relu_5x5_reduce
I0708 12:30:00.247972  6878 net.cpp:160] Top shape: 100 32 14 14 (627200)
I0708 12:30:00.247975  6878 net.cpp:168] Memory required for data: 5156205608
I0708 12:30:00.247980  6878 layer_factory.hpp:76] Creating layer inception_4e/5x5
I0708 12:30:00.248018  6878 net.cpp:109] Creating Layer inception_4e/5x5
I0708 12:30:00.248023  6878 net.cpp:457] inception_4e/5x5 <- inception_4e/5x5_reduce
I0708 12:30:00.248031  6878 net.cpp:414] inception_4e/5x5 -> inception_4e/5x5
I0708 12:30:00.249686  6878 net.cpp:153] Setting up inception_4e/5x5
I0708 12:30:00.249701  6878 net.cpp:160] Top shape: 100 128 14 14 (2508800)
I0708 12:30:00.249706  6878 net.cpp:168] Memory required for data: 5166240808
I0708 12:30:00.249714  6878 layer_factory.hpp:76] Creating layer inception_4e/relu_5x5
I0708 12:30:00.249722  6878 net.cpp:109] Creating Layer inception_4e/relu_5x5
I0708 12:30:00.249727  6878 net.cpp:457] inception_4e/relu_5x5 <- inception_4e/5x5
I0708 12:30:00.249733  6878 net.cpp:400] inception_4e/relu_5x5 -> inception_4e/5x5 (in-place)
I0708 12:30:00.249742  6878 net.cpp:153] Setting up inception_4e/relu_5x5
I0708 12:30:00.249748  6878 net.cpp:160] Top shape: 100 128 14 14 (2508800)
I0708 12:30:00.249752  6878 net.cpp:168] Memory required for data: 5176276008
I0708 12:30:00.249758  6878 layer_factory.hpp:76] Creating layer inception_4e/pool
I0708 12:30:00.249770  6878 net.cpp:109] Creating Layer inception_4e/pool
I0708 12:30:00.249775  6878 net.cpp:457] inception_4e/pool <- inception_4d/output_inception_4d/output_0_split_4
I0708 12:30:00.249785  6878 net.cpp:414] inception_4e/pool -> inception_4e/pool
I0708 12:30:00.249837  6878 net.cpp:153] Setting up inception_4e/pool
I0708 12:30:00.249846  6878 net.cpp:160] Top shape: 100 528 14 14 (10348800)
I0708 12:30:00.249850  6878 net.cpp:168] Memory required for data: 5217671208
I0708 12:30:00.249855  6878 layer_factory.hpp:76] Creating layer inception_4e/pool_proj
I0708 12:30:00.249866  6878 net.cpp:109] Creating Layer inception_4e/pool_proj
I0708 12:30:00.249872  6878 net.cpp:457] inception_4e/pool_proj <- inception_4e/pool
I0708 12:30:00.249881  6878 net.cpp:414] inception_4e/pool_proj -> inception_4e/pool_proj
I0708 12:30:00.250635  6878 net.cpp:153] Setting up inception_4e/pool_proj
I0708 12:30:00.250648  6878 net.cpp:160] Top shape: 100 128 14 14 (2508800)
I0708 12:30:00.250653  6878 net.cpp:168] Memory required for data: 5227706408
I0708 12:30:00.250660  6878 layer_factory.hpp:76] Creating layer inception_4e/relu_pool_proj
I0708 12:30:00.250669  6878 net.cpp:109] Creating Layer inception_4e/relu_pool_proj
I0708 12:30:00.250674  6878 net.cpp:457] inception_4e/relu_pool_proj <- inception_4e/pool_proj
I0708 12:30:00.250684  6878 net.cpp:400] inception_4e/relu_pool_proj -> inception_4e/pool_proj (in-place)
I0708 12:30:00.250692  6878 net.cpp:153] Setting up inception_4e/relu_pool_proj
I0708 12:30:00.250712  6878 net.cpp:160] Top shape: 100 128 14 14 (2508800)
I0708 12:30:00.250717  6878 net.cpp:168] Memory required for data: 5237741608
I0708 12:30:00.250722  6878 layer_factory.hpp:76] Creating layer inception_4e/output
I0708 12:30:00.250731  6878 net.cpp:109] Creating Layer inception_4e/output
I0708 12:30:00.250735  6878 net.cpp:457] inception_4e/output <- inception_4e/1x1
I0708 12:30:00.250741  6878 net.cpp:457] inception_4e/output <- inception_4e/3x3
I0708 12:30:00.250746  6878 net.cpp:457] inception_4e/output <- inception_4e/5x5
I0708 12:30:00.250752  6878 net.cpp:457] inception_4e/output <- inception_4e/pool_proj
I0708 12:30:00.250758  6878 net.cpp:414] inception_4e/output -> inception_4e/output
I0708 12:30:00.250792  6878 net.cpp:153] Setting up inception_4e/output
I0708 12:30:00.250802  6878 net.cpp:160] Top shape: 100 832 14 14 (16307200)
I0708 12:30:00.250805  6878 net.cpp:168] Memory required for data: 5302970408
I0708 12:30:00.250810  6878 layer_factory.hpp:76] Creating layer pool4/3x3_s2
I0708 12:30:00.250821  6878 net.cpp:109] Creating Layer pool4/3x3_s2
I0708 12:30:00.250826  6878 net.cpp:457] pool4/3x3_s2 <- inception_4e/output
I0708 12:30:00.250834  6878 net.cpp:414] pool4/3x3_s2 -> pool4/3x3_s2
I0708 12:30:00.250883  6878 net.cpp:153] Setting up pool4/3x3_s2
I0708 12:30:00.250892  6878 net.cpp:160] Top shape: 100 832 7 7 (4076800)
I0708 12:30:00.250896  6878 net.cpp:168] Memory required for data: 5319277608
I0708 12:30:00.250900  6878 layer_factory.hpp:76] Creating layer pool4/3x3_s2_pool4/3x3_s2_0_split
I0708 12:30:00.250910  6878 net.cpp:109] Creating Layer pool4/3x3_s2_pool4/3x3_s2_0_split
I0708 12:30:00.250915  6878 net.cpp:457] pool4/3x3_s2_pool4/3x3_s2_0_split <- pool4/3x3_s2
I0708 12:30:00.250924  6878 net.cpp:414] pool4/3x3_s2_pool4/3x3_s2_0_split -> pool4/3x3_s2_pool4/3x3_s2_0_split_0
I0708 12:30:00.250932  6878 net.cpp:414] pool4/3x3_s2_pool4/3x3_s2_0_split -> pool4/3x3_s2_pool4/3x3_s2_0_split_1
I0708 12:30:00.250941  6878 net.cpp:414] pool4/3x3_s2_pool4/3x3_s2_0_split -> pool4/3x3_s2_pool4/3x3_s2_0_split_2
I0708 12:30:00.250947  6878 net.cpp:414] pool4/3x3_s2_pool4/3x3_s2_0_split -> pool4/3x3_s2_pool4/3x3_s2_0_split_3
I0708 12:30:00.251020  6878 net.cpp:153] Setting up pool4/3x3_s2_pool4/3x3_s2_0_split
I0708 12:30:00.251029  6878 net.cpp:160] Top shape: 100 832 7 7 (4076800)
I0708 12:30:00.251034  6878 net.cpp:160] Top shape: 100 832 7 7 (4076800)
I0708 12:30:00.251040  6878 net.cpp:160] Top shape: 100 832 7 7 (4076800)
I0708 12:30:00.251045  6878 net.cpp:160] Top shape: 100 832 7 7 (4076800)
I0708 12:30:00.251049  6878 net.cpp:168] Memory required for data: 5384506408
I0708 12:30:00.251055  6878 layer_factory.hpp:76] Creating layer inception_5a/1x1
I0708 12:30:00.251066  6878 net.cpp:109] Creating Layer inception_5a/1x1
I0708 12:30:00.251071  6878 net.cpp:457] inception_5a/1x1 <- pool4/3x3_s2_pool4/3x3_s2_0_split_0
I0708 12:30:00.251080  6878 net.cpp:414] inception_5a/1x1 -> inception_5a/1x1
I0708 12:30:00.253551  6878 net.cpp:153] Setting up inception_5a/1x1
I0708 12:30:00.253564  6878 net.cpp:160] Top shape: 100 256 7 7 (1254400)
I0708 12:30:00.253569  6878 net.cpp:168] Memory required for data: 5389524008
I0708 12:30:00.253578  6878 layer_factory.hpp:76] Creating layer inception_5a/relu_1x1
I0708 12:30:00.253587  6878 net.cpp:109] Creating Layer inception_5a/relu_1x1
I0708 12:30:00.253592  6878 net.cpp:457] inception_5a/relu_1x1 <- inception_5a/1x1
I0708 12:30:00.253598  6878 net.cpp:400] inception_5a/relu_1x1 -> inception_5a/1x1 (in-place)
I0708 12:30:00.253607  6878 net.cpp:153] Setting up inception_5a/relu_1x1
I0708 12:30:00.253613  6878 net.cpp:160] Top shape: 100 256 7 7 (1254400)
I0708 12:30:00.253618  6878 net.cpp:168] Memory required for data: 5394541608
I0708 12:30:00.253623  6878 layer_factory.hpp:76] Creating layer inception_5a/3x3_reduce
I0708 12:30:00.253635  6878 net.cpp:109] Creating Layer inception_5a/3x3_reduce
I0708 12:30:00.253641  6878 net.cpp:457] inception_5a/3x3_reduce <- pool4/3x3_s2_pool4/3x3_s2_0_split_1
I0708 12:30:00.253651  6878 net.cpp:414] inception_5a/3x3_reduce -> inception_5a/3x3_reduce
I0708 12:30:00.255589  6878 net.cpp:153] Setting up inception_5a/3x3_reduce
I0708 12:30:00.255605  6878 net.cpp:160] Top shape: 100 160 7 7 (784000)
I0708 12:30:00.255609  6878 net.cpp:168] Memory required for data: 5397677608
I0708 12:30:00.255619  6878 layer_factory.hpp:76] Creating layer inception_5a/relu_3x3_reduce
I0708 12:30:00.255630  6878 net.cpp:109] Creating Layer inception_5a/relu_3x3_reduce
I0708 12:30:00.255635  6878 net.cpp:457] inception_5a/relu_3x3_reduce <- inception_5a/3x3_reduce
I0708 12:30:00.255642  6878 net.cpp:400] inception_5a/relu_3x3_reduce -> inception_5a/3x3_reduce (in-place)
I0708 12:30:00.255652  6878 net.cpp:153] Setting up inception_5a/relu_3x3_reduce
I0708 12:30:00.255661  6878 net.cpp:160] Top shape: 100 160 7 7 (784000)
I0708 12:30:00.255666  6878 net.cpp:168] Memory required for data: 5400813608
I0708 12:30:00.255671  6878 layer_factory.hpp:76] Creating layer inception_5a/3x3
I0708 12:30:00.255679  6878 net.cpp:109] Creating Layer inception_5a/3x3
I0708 12:30:00.255684  6878 net.cpp:457] inception_5a/3x3 <- inception_5a/3x3_reduce
I0708 12:30:00.255694  6878 net.cpp:414] inception_5a/3x3 -> inception_5a/3x3
I0708 12:30:00.260370  6878 net.cpp:153] Setting up inception_5a/3x3
I0708 12:30:00.260385  6878 net.cpp:160] Top shape: 100 320 7 7 (1568000)
I0708 12:30:00.260390  6878 net.cpp:168] Memory required for data: 5407085608
I0708 12:30:00.260398  6878 layer_factory.hpp:76] Creating layer inception_5a/relu_3x3
I0708 12:30:00.260407  6878 net.cpp:109] Creating Layer inception_5a/relu_3x3
I0708 12:30:00.260413  6878 net.cpp:457] inception_5a/relu_3x3 <- inception_5a/3x3
I0708 12:30:00.260421  6878 net.cpp:400] inception_5a/relu_3x3 -> inception_5a/3x3 (in-place)
I0708 12:30:00.260429  6878 net.cpp:153] Setting up inception_5a/relu_3x3
I0708 12:30:00.260435  6878 net.cpp:160] Top shape: 100 320 7 7 (1568000)
I0708 12:30:00.260439  6878 net.cpp:168] Memory required for data: 5413357608
I0708 12:30:00.260444  6878 layer_factory.hpp:76] Creating layer inception_5a/5x5_reduce
I0708 12:30:00.260457  6878 net.cpp:109] Creating Layer inception_5a/5x5_reduce
I0708 12:30:00.260462  6878 net.cpp:457] inception_5a/5x5_reduce <- pool4/3x3_s2_pool4/3x3_s2_0_split_2
I0708 12:30:00.260473  6878 net.cpp:414] inception_5a/5x5_reduce -> inception_5a/5x5_reduce
I0708 12:30:00.260954  6878 net.cpp:153] Setting up inception_5a/5x5_reduce
I0708 12:30:00.260967  6878 net.cpp:160] Top shape: 100 32 7 7 (156800)
I0708 12:30:00.260970  6878 net.cpp:168] Memory required for data: 5413984808
I0708 12:30:00.260979  6878 layer_factory.hpp:76] Creating layer inception_5a/relu_5x5_reduce
I0708 12:30:00.260987  6878 net.cpp:109] Creating Layer inception_5a/relu_5x5_reduce
I0708 12:30:00.260993  6878 net.cpp:457] inception_5a/relu_5x5_reduce <- inception_5a/5x5_reduce
I0708 12:30:00.260998  6878 net.cpp:400] inception_5a/relu_5x5_reduce -> inception_5a/5x5_reduce (in-place)
I0708 12:30:00.261008  6878 net.cpp:153] Setting up inception_5a/relu_5x5_reduce
I0708 12:30:00.261013  6878 net.cpp:160] Top shape: 100 32 7 7 (156800)
I0708 12:30:00.261018  6878 net.cpp:168] Memory required for data: 5414612008
I0708 12:30:00.261023  6878 layer_factory.hpp:76] Creating layer inception_5a/5x5
I0708 12:30:00.261035  6878 net.cpp:109] Creating Layer inception_5a/5x5
I0708 12:30:00.261040  6878 net.cpp:457] inception_5a/5x5 <- inception_5a/5x5_reduce
I0708 12:30:00.261051  6878 net.cpp:414] inception_5a/5x5 -> inception_5a/5x5
I0708 12:30:00.262068  6878 net.cpp:153] Setting up inception_5a/5x5
I0708 12:30:00.262080  6878 net.cpp:160] Top shape: 100 128 7 7 (627200)
I0708 12:30:00.262084  6878 net.cpp:168] Memory required for data: 5417120808
I0708 12:30:00.262092  6878 layer_factory.hpp:76] Creating layer inception_5a/relu_5x5
I0708 12:30:00.262100  6878 net.cpp:109] Creating Layer inception_5a/relu_5x5
I0708 12:30:00.262105  6878 net.cpp:457] inception_5a/relu_5x5 <- inception_5a/5x5
I0708 12:30:00.262111  6878 net.cpp:400] inception_5a/relu_5x5 -> inception_5a/5x5 (in-place)
I0708 12:30:00.262137  6878 net.cpp:153] Setting up inception_5a/relu_5x5
I0708 12:30:00.262145  6878 net.cpp:160] Top shape: 100 128 7 7 (627200)
I0708 12:30:00.262150  6878 net.cpp:168] Memory required for data: 5419629608
I0708 12:30:00.262153  6878 layer_factory.hpp:76] Creating layer inception_5a/pool
I0708 12:30:00.262161  6878 net.cpp:109] Creating Layer inception_5a/pool
I0708 12:30:00.262166  6878 net.cpp:457] inception_5a/pool <- pool4/3x3_s2_pool4/3x3_s2_0_split_3
I0708 12:30:00.262173  6878 net.cpp:414] inception_5a/pool -> inception_5a/pool
I0708 12:30:00.262229  6878 net.cpp:153] Setting up inception_5a/pool
I0708 12:30:00.262238  6878 net.cpp:160] Top shape: 100 832 7 7 (4076800)
I0708 12:30:00.262243  6878 net.cpp:168] Memory required for data: 5435936808
I0708 12:30:00.262248  6878 layer_factory.hpp:76] Creating layer inception_5a/pool_proj
I0708 12:30:00.262259  6878 net.cpp:109] Creating Layer inception_5a/pool_proj
I0708 12:30:00.262265  6878 net.cpp:457] inception_5a/pool_proj <- inception_5a/pool
I0708 12:30:00.262275  6878 net.cpp:414] inception_5a/pool_proj -> inception_5a/pool_proj
I0708 12:30:00.264004  6878 net.cpp:153] Setting up inception_5a/pool_proj
I0708 12:30:00.264019  6878 net.cpp:160] Top shape: 100 128 7 7 (627200)
I0708 12:30:00.264024  6878 net.cpp:168] Memory required for data: 5438445608
I0708 12:30:00.264032  6878 layer_factory.hpp:76] Creating layer inception_5a/relu_pool_proj
I0708 12:30:00.264041  6878 net.cpp:109] Creating Layer inception_5a/relu_pool_proj
I0708 12:30:00.264046  6878 net.cpp:457] inception_5a/relu_pool_proj <- inception_5a/pool_proj
I0708 12:30:00.264056  6878 net.cpp:400] inception_5a/relu_pool_proj -> inception_5a/pool_proj (in-place)
I0708 12:30:00.264066  6878 net.cpp:153] Setting up inception_5a/relu_pool_proj
I0708 12:30:00.264072  6878 net.cpp:160] Top shape: 100 128 7 7 (627200)
I0708 12:30:00.264076  6878 net.cpp:168] Memory required for data: 5440954408
I0708 12:30:00.264081  6878 layer_factory.hpp:76] Creating layer inception_5a/output
I0708 12:30:00.264089  6878 net.cpp:109] Creating Layer inception_5a/output
I0708 12:30:00.264094  6878 net.cpp:457] inception_5a/output <- inception_5a/1x1
I0708 12:30:00.264099  6878 net.cpp:457] inception_5a/output <- inception_5a/3x3
I0708 12:30:00.264104  6878 net.cpp:457] inception_5a/output <- inception_5a/5x5
I0708 12:30:00.264109  6878 net.cpp:457] inception_5a/output <- inception_5a/pool_proj
I0708 12:30:00.264118  6878 net.cpp:414] inception_5a/output -> inception_5a/output
I0708 12:30:00.264153  6878 net.cpp:153] Setting up inception_5a/output
I0708 12:30:00.264161  6878 net.cpp:160] Top shape: 100 832 7 7 (4076800)
I0708 12:30:00.264165  6878 net.cpp:168] Memory required for data: 5457261608
I0708 12:30:00.264170  6878 layer_factory.hpp:76] Creating layer inception_5a/output_inception_5a/output_0_split
I0708 12:30:00.264183  6878 net.cpp:109] Creating Layer inception_5a/output_inception_5a/output_0_split
I0708 12:30:00.264188  6878 net.cpp:457] inception_5a/output_inception_5a/output_0_split <- inception_5a/output
I0708 12:30:00.264194  6878 net.cpp:414] inception_5a/output_inception_5a/output_0_split -> inception_5a/output_inception_5a/output_0_split_0
I0708 12:30:00.264204  6878 net.cpp:414] inception_5a/output_inception_5a/output_0_split -> inception_5a/output_inception_5a/output_0_split_1
I0708 12:30:00.264214  6878 net.cpp:414] inception_5a/output_inception_5a/output_0_split -> inception_5a/output_inception_5a/output_0_split_2
I0708 12:30:00.264222  6878 net.cpp:414] inception_5a/output_inception_5a/output_0_split -> inception_5a/output_inception_5a/output_0_split_3
I0708 12:30:00.264297  6878 net.cpp:153] Setting up inception_5a/output_inception_5a/output_0_split
I0708 12:30:00.264304  6878 net.cpp:160] Top shape: 100 832 7 7 (4076800)
I0708 12:30:00.264310  6878 net.cpp:160] Top shape: 100 832 7 7 (4076800)
I0708 12:30:00.264317  6878 net.cpp:160] Top shape: 100 832 7 7 (4076800)
I0708 12:30:00.264322  6878 net.cpp:160] Top shape: 100 832 7 7 (4076800)
I0708 12:30:00.264325  6878 net.cpp:168] Memory required for data: 5522490408
I0708 12:30:00.264348  6878 layer_factory.hpp:76] Creating layer inception_5b/1x1
I0708 12:30:00.264361  6878 net.cpp:109] Creating Layer inception_5b/1x1
I0708 12:30:00.264366  6878 net.cpp:457] inception_5b/1x1 <- inception_5a/output_inception_5a/output_0_split_0
I0708 12:30:00.264377  6878 net.cpp:414] inception_5b/1x1 -> inception_5b/1x1
I0708 12:30:00.267771  6878 net.cpp:153] Setting up inception_5b/1x1
I0708 12:30:00.267786  6878 net.cpp:160] Top shape: 100 384 7 7 (1881600)
I0708 12:30:00.267791  6878 net.cpp:168] Memory required for data: 5530016808
I0708 12:30:00.267799  6878 layer_factory.hpp:76] Creating layer inception_5b/relu_1x1
I0708 12:30:00.267808  6878 net.cpp:109] Creating Layer inception_5b/relu_1x1
I0708 12:30:00.267813  6878 net.cpp:457] inception_5b/relu_1x1 <- inception_5b/1x1
I0708 12:30:00.267820  6878 net.cpp:400] inception_5b/relu_1x1 -> inception_5b/1x1 (in-place)
I0708 12:30:00.267829  6878 net.cpp:153] Setting up inception_5b/relu_1x1
I0708 12:30:00.267835  6878 net.cpp:160] Top shape: 100 384 7 7 (1881600)
I0708 12:30:00.267839  6878 net.cpp:168] Memory required for data: 5537543208
I0708 12:30:00.267844  6878 layer_factory.hpp:76] Creating layer inception_5b/3x3_reduce
I0708 12:30:00.267855  6878 net.cpp:109] Creating Layer inception_5b/3x3_reduce
I0708 12:30:00.267861  6878 net.cpp:457] inception_5b/3x3_reduce <- inception_5a/output_inception_5a/output_0_split_1
I0708 12:30:00.267870  6878 net.cpp:414] inception_5b/3x3_reduce -> inception_5b/3x3_reduce
I0708 12:30:00.269978  6878 net.cpp:153] Setting up inception_5b/3x3_reduce
I0708 12:30:00.269991  6878 net.cpp:160] Top shape: 100 192 7 7 (940800)
I0708 12:30:00.269996  6878 net.cpp:168] Memory required for data: 5541306408
I0708 12:30:00.270005  6878 layer_factory.hpp:76] Creating layer inception_5b/relu_3x3_reduce
I0708 12:30:00.270014  6878 net.cpp:109] Creating Layer inception_5b/relu_3x3_reduce
I0708 12:30:00.270018  6878 net.cpp:457] inception_5b/relu_3x3_reduce <- inception_5b/3x3_reduce
I0708 12:30:00.270028  6878 net.cpp:400] inception_5b/relu_3x3_reduce -> inception_5b/3x3_reduce (in-place)
I0708 12:30:00.270038  6878 net.cpp:153] Setting up inception_5b/relu_3x3_reduce
I0708 12:30:00.270045  6878 net.cpp:160] Top shape: 100 192 7 7 (940800)
I0708 12:30:00.270048  6878 net.cpp:168] Memory required for data: 5545069608
I0708 12:30:00.270052  6878 layer_factory.hpp:76] Creating layer inception_5b/3x3
I0708 12:30:00.270064  6878 net.cpp:109] Creating Layer inception_5b/3x3
I0708 12:30:00.270069  6878 net.cpp:457] inception_5b/3x3 <- inception_5b/3x3_reduce
I0708 12:30:00.270076  6878 net.cpp:414] inception_5b/3x3 -> inception_5b/3x3
I0708 12:30:00.276657  6878 net.cpp:153] Setting up inception_5b/3x3
I0708 12:30:00.276677  6878 net.cpp:160] Top shape: 100 384 7 7 (1881600)
I0708 12:30:00.276682  6878 net.cpp:168] Memory required for data: 5552596008
I0708 12:30:00.276692  6878 layer_factory.hpp:76] Creating layer inception_5b/relu_3x3
I0708 12:30:00.276700  6878 net.cpp:109] Creating Layer inception_5b/relu_3x3
I0708 12:30:00.276707  6878 net.cpp:457] inception_5b/relu_3x3 <- inception_5b/3x3
I0708 12:30:00.276715  6878 net.cpp:400] inception_5b/relu_3x3 -> inception_5b/3x3 (in-place)
I0708 12:30:00.276723  6878 net.cpp:153] Setting up inception_5b/relu_3x3
I0708 12:30:00.276731  6878 net.cpp:160] Top shape: 100 384 7 7 (1881600)
I0708 12:30:00.276734  6878 net.cpp:168] Memory required for data: 5560122408
I0708 12:30:00.276738  6878 layer_factory.hpp:76] Creating layer inception_5b/5x5_reduce
I0708 12:30:00.276751  6878 net.cpp:109] Creating Layer inception_5b/5x5_reduce
I0708 12:30:00.276756  6878 net.cpp:457] inception_5b/5x5_reduce <- inception_5a/output_inception_5a/output_0_split_2
I0708 12:30:00.276765  6878 net.cpp:414] inception_5b/5x5_reduce -> inception_5b/5x5_reduce
I0708 12:30:00.278043  6878 net.cpp:153] Setting up inception_5b/5x5_reduce
I0708 12:30:00.278058  6878 net.cpp:160] Top shape: 100 48 7 7 (235200)
I0708 12:30:00.278062  6878 net.cpp:168] Memory required for data: 5561063208
I0708 12:30:00.278095  6878 layer_factory.hpp:76] Creating layer inception_5b/relu_5x5_reduce
I0708 12:30:00.278103  6878 net.cpp:109] Creating Layer inception_5b/relu_5x5_reduce
I0708 12:30:00.278110  6878 net.cpp:457] inception_5b/relu_5x5_reduce <- inception_5b/5x5_reduce
I0708 12:30:00.278115  6878 net.cpp:400] inception_5b/relu_5x5_reduce -> inception_5b/5x5_reduce (in-place)
I0708 12:30:00.278126  6878 net.cpp:153] Setting up inception_5b/relu_5x5_reduce
I0708 12:30:00.278131  6878 net.cpp:160] Top shape: 100 48 7 7 (235200)
I0708 12:30:00.278136  6878 net.cpp:168] Memory required for data: 5562004008
I0708 12:30:00.278141  6878 layer_factory.hpp:76] Creating layer inception_5b/5x5
I0708 12:30:00.278153  6878 net.cpp:109] Creating Layer inception_5b/5x5
I0708 12:30:00.278158  6878 net.cpp:457] inception_5b/5x5 <- inception_5b/5x5_reduce
I0708 12:30:00.278169  6878 net.cpp:414] inception_5b/5x5 -> inception_5b/5x5
I0708 12:30:00.279628  6878 net.cpp:153] Setting up inception_5b/5x5
I0708 12:30:00.279639  6878 net.cpp:160] Top shape: 100 128 7 7 (627200)
I0708 12:30:00.279644  6878 net.cpp:168] Memory required for data: 5564512808
I0708 12:30:00.279652  6878 layer_factory.hpp:76] Creating layer inception_5b/relu_5x5
I0708 12:30:00.279660  6878 net.cpp:109] Creating Layer inception_5b/relu_5x5
I0708 12:30:00.279665  6878 net.cpp:457] inception_5b/relu_5x5 <- inception_5b/5x5
I0708 12:30:00.279671  6878 net.cpp:400] inception_5b/relu_5x5 -> inception_5b/5x5 (in-place)
I0708 12:30:00.279680  6878 net.cpp:153] Setting up inception_5b/relu_5x5
I0708 12:30:00.279686  6878 net.cpp:160] Top shape: 100 128 7 7 (627200)
I0708 12:30:00.279691  6878 net.cpp:168] Memory required for data: 5567021608
I0708 12:30:00.279695  6878 layer_factory.hpp:76] Creating layer inception_5b/pool
I0708 12:30:00.279703  6878 net.cpp:109] Creating Layer inception_5b/pool
I0708 12:30:00.279708  6878 net.cpp:457] inception_5b/pool <- inception_5a/output_inception_5a/output_0_split_3
I0708 12:30:00.279718  6878 net.cpp:414] inception_5b/pool -> inception_5b/pool
I0708 12:30:00.279773  6878 net.cpp:153] Setting up inception_5b/pool
I0708 12:30:00.279783  6878 net.cpp:160] Top shape: 100 832 7 7 (4076800)
I0708 12:30:00.279786  6878 net.cpp:168] Memory required for data: 5583328808
I0708 12:30:00.279790  6878 layer_factory.hpp:76] Creating layer inception_5b/pool_proj
I0708 12:30:00.279803  6878 net.cpp:109] Creating Layer inception_5b/pool_proj
I0708 12:30:00.279808  6878 net.cpp:457] inception_5b/pool_proj <- inception_5b/pool
I0708 12:30:00.279819  6878 net.cpp:414] inception_5b/pool_proj -> inception_5b/pool_proj
I0708 12:30:00.281539  6878 net.cpp:153] Setting up inception_5b/pool_proj
I0708 12:30:00.281553  6878 net.cpp:160] Top shape: 100 128 7 7 (627200)
I0708 12:30:00.281558  6878 net.cpp:168] Memory required for data: 5585837608
I0708 12:30:00.281568  6878 layer_factory.hpp:76] Creating layer inception_5b/relu_pool_proj
I0708 12:30:00.281579  6878 net.cpp:109] Creating Layer inception_5b/relu_pool_proj
I0708 12:30:00.281584  6878 net.cpp:457] inception_5b/relu_pool_proj <- inception_5b/pool_proj
I0708 12:30:00.281590  6878 net.cpp:400] inception_5b/relu_pool_proj -> inception_5b/pool_proj (in-place)
I0708 12:30:00.281600  6878 net.cpp:153] Setting up inception_5b/relu_pool_proj
I0708 12:30:00.281606  6878 net.cpp:160] Top shape: 100 128 7 7 (627200)
I0708 12:30:00.281611  6878 net.cpp:168] Memory required for data: 5588346408
I0708 12:30:00.281615  6878 layer_factory.hpp:76] Creating layer inception_5b/output
I0708 12:30:00.281623  6878 net.cpp:109] Creating Layer inception_5b/output
I0708 12:30:00.281631  6878 net.cpp:457] inception_5b/output <- inception_5b/1x1
I0708 12:30:00.281638  6878 net.cpp:457] inception_5b/output <- inception_5b/3x3
I0708 12:30:00.281643  6878 net.cpp:457] inception_5b/output <- inception_5b/5x5
I0708 12:30:00.281649  6878 net.cpp:457] inception_5b/output <- inception_5b/pool_proj
I0708 12:30:00.281654  6878 net.cpp:414] inception_5b/output -> inception_5b/output
I0708 12:30:00.281689  6878 net.cpp:153] Setting up inception_5b/output
I0708 12:30:00.281714  6878 net.cpp:160] Top shape: 100 1024 7 7 (5017600)
I0708 12:30:00.281719  6878 net.cpp:168] Memory required for data: 5608416808
I0708 12:30:00.281724  6878 layer_factory.hpp:76] Creating layer pool5/7x7_s1
I0708 12:30:00.281736  6878 net.cpp:109] Creating Layer pool5/7x7_s1
I0708 12:30:00.281741  6878 net.cpp:457] pool5/7x7_s1 <- inception_5b/output
I0708 12:30:00.281752  6878 net.cpp:414] pool5/7x7_s1 -> pool5/7x7_s1
I0708 12:30:00.281790  6878 net.cpp:153] Setting up pool5/7x7_s1
I0708 12:30:00.281798  6878 net.cpp:160] Top shape: 100 1024 1 1 (102400)
I0708 12:30:00.281802  6878 net.cpp:168] Memory required for data: 5608826408
I0708 12:30:00.281807  6878 layer_factory.hpp:76] Creating layer pool5/drop_7x7_s1
I0708 12:30:00.281819  6878 net.cpp:109] Creating Layer pool5/drop_7x7_s1
I0708 12:30:00.281824  6878 net.cpp:457] pool5/drop_7x7_s1 <- pool5/7x7_s1
I0708 12:30:00.281831  6878 net.cpp:400] pool5/drop_7x7_s1 -> pool5/7x7_s1 (in-place)
I0708 12:30:00.281865  6878 net.cpp:153] Setting up pool5/drop_7x7_s1
I0708 12:30:00.281873  6878 net.cpp:160] Top shape: 100 1024 1 1 (102400)
I0708 12:30:00.281877  6878 net.cpp:168] Memory required for data: 5609236008
I0708 12:30:00.281883  6878 layer_factory.hpp:76] Creating layer loss3/classifier_clean
I0708 12:30:00.281893  6878 net.cpp:109] Creating Layer loss3/classifier_clean
I0708 12:30:00.281898  6878 net.cpp:457] loss3/classifier_clean <- pool5/7x7_s1
I0708 12:30:00.281908  6878 net.cpp:414] loss3/classifier_clean -> loss3/classifier_clean
I0708 12:30:00.291564  6878 net.cpp:153] Setting up loss3/classifier_clean
I0708 12:30:00.291602  6878 net.cpp:160] Top shape: 100 967 (96700)
I0708 12:30:00.291607  6878 net.cpp:168] Memory required for data: 5609622808
I0708 12:30:00.291620  6878 layer_factory.hpp:76] Creating layer loss3/loss
I0708 12:30:00.291635  6878 net.cpp:109] Creating Layer loss3/loss
I0708 12:30:00.291642  6878 net.cpp:457] loss3/loss <- loss3/classifier_clean
I0708 12:30:00.291651  6878 net.cpp:457] loss3/loss <- label_train-data_1_split_2
I0708 12:30:00.291659  6878 net.cpp:414] loss3/loss -> loss
…
I0708 12:30:00.297299  6878 net.cpp:325] The NetState phase (1) differed from the phase (0) specified by a rule in layer train-data
I0708 12:30:00.298523  6878 net.cpp:52] Initializing net from parameters:
state {
phase: TEST
}
layer {
name: "val-data"
type: "Data"
top: "data"
top: "label"
include {
phase: TEST
}
transform_param {
mirror: false
crop_size: 224
mean_file: "/home/zml374/workspace/DIGITS/digits/jobs/20160704-085910-0cc9/mean.binaryproto"
}
data_param {
source: "/home/zml374/workspace/DIGITS/digits/jobs/20160704-085910-0cc9/val_db"
batch_size: 100
backend: LMDB
}
}
layer {
name: "conv1/7x7_s2"
type: "Convolution"
bottom: "data"
top: "conv1/7x7_s2"
param {
lr_mult: 1
decay_mult: 1
}
param {
lr_mult: 2
decay_mult: 0
}
convolution_param {
num_output: 64
pad: 3
kernel_size: 7
stride: 2
weight_filler {
type: "xavier"
std: 0.1
}
bias_filler {
type: "constant"
value: 0.2
}
}
}
layer {
name: "conv1/relu_7x7"
type: "ReLU"
bottom: "conv1/7x7_s2"
top: "conv1/7x7_s2"
}
layer {
name: "pool1/3x3_s2"
type: "Pooling"
bottom: "conv1/7x7_s2"
top: "pool1/3x3_s2"
pooling_param {
pool: MAX
kernel_size: 3
stride: 2
}
}
layer {
name: "pool1/norm1"
type: "LRN"
bottom: "pool1/3x3_s2"
top: "pool1/norm1"
lrn_param {
local_size: 5
alpha: 0.0001
beta: 0.75
}
}
layer {
name: "conv2/3x3_reduce"
type: "Convolution"
bottom: "pool1/norm1"
top: "conv2/3x3_reduce"
param {
lr_mult: 1
decay_mult: 1
}
param {
lr_mult: 2
decay_mult: 0
}
convolution_param {
num_output: 64
kernel_size: 1
weight_filler {
type: "xavier"
std: 0.1
}
bias_filler {
type: "constant"
value: 0.2
}
}
}
layer {
name: "conv2/relu_3x3_reduce"
type: "ReLU"
bottom: "conv2/3x3_reduce"
top: "conv2/3x3_reduce"
}
layer {
name: "conv2/3x3"
type: "Convolution"
bottom: "conv2/3x3_reduce"
top: "conv2/3x3"
param {
lr_mult: 1
decay_mult: 1
}
param {
lr_mult: 2
decay_mult: 0
}
convolution_param {
num_output: 192
pad: 1
kernel_size: 3
weight_filler {
type: "xavier"
std: 0.03
}
bias_filler {
type: "constant"
value: 0.2
}
}
}
layer {
name: "conv2/relu_3x3"
type: "ReLU"
bottom: "conv2/3x3"
top: "conv2/3x3"
}
layer {
name: "conv2/norm2"
type: "LRN"
bottom: "conv2/3x3"
top: "conv2/norm2"
lrn_param {
local_size: 5
alpha: 0.0001
beta: 0.75
}
}
layer {
name: "pool2/3x3_s2"
type: "Pooling"
bottom: "conv2/norm2"
top: "pool2/3x3_s2"
pooling_param {
pool: MAX
kernel_size: 3
stride: 2
}
}
layer {
name: "inception_3a/1x1"
type: "Convolution"
bottom: "pool2/3x3_s2"
top: "inception_3a/1x1"
param {
lr_mult: 1
decay_mult: 1
}
param {
lr_mult: 2
decay_mult: 0
}
convolution_param {
num_output: 64
kernel_size: 1
weight_filler {
type: "xavier"
std: 0.03
}
bias_filler {
type: "constant"
value: 0.2
}
}
}
layer {
name: "inception_3a/relu_1x1"
type: "ReLU"
bottom: "inception_3a/1x1"
top: "inception_3a/1x1"
}
layer {
name: "inception_3a/3x3_reduce"
type: "Convolution"
bottom: "pool2/3x3_s2"
top: "inception_3a/3x3_reduce"
param {
lr_mult: 1
decay_mult: 1
}
param {
lr_mult: 2
decay_mult: 0
}
convolution_param {
num_output: 96
kernel_size: 1
weight_filler {
type: "xavier"
std: 0.09
}
bias_filler {
type: "constant"
value: 0.2
}
}
}
layer {
name: "inception_3a/relu_3x3_reduce"
type: "ReLU"
bottom: "inception_3a/3x3_reduce"
top: "inception_3a/3x3_reduce"
}
layer {
name: "inception_3a/3x3"
type: "Convolution"
bottom: "inception_3a/3x3_reduce"
top: "inception_3a/3x3"
param {
lr_mult: 1
decay_mult: 1
}
param {
lr_mult: 2
decay_mult: 0
}
convolution_param {
num_output: 128
pad: 1
kernel_size: 3
weight_filler {
type: "xavier"
std: 0.03
}
bias_filler {
type: "constant"
value: 0.2
}
}
}
layer {
name: "inception_3a/relu_3x3"
type: "ReLU"
bottom: "inception_3a/3x3"
top: "inception_3a/3x3"
}
layer {
name: "inception_3a/5x5_reduce"
type: "Convolution"
bottom: "pool2/3x3_s2"
top: "inception_3a/5x5_reduce"
param {
lr_mult: 1
decay_mult: 1
}
param {
lr_mult: 2
decay_mult: 0
}
convolution_param {
num_output: 16
kernel_size: 1
weight_filler {
type: "xavier"
std: 0.2
}
bias_filler {
type: "constant"
value: 0.2
}
}
}
layer {
name: "inception_3a/relu_5x5_reduce"
type: "ReLU"
bottom: "inception_3a/5x5_reduce"
top: "inception_3a/5x5_reduce"
}
layer {
name: "inception_3a/5x5"
type: "Convolution"
bottom: "inception_3a/5x5_reduce"
top: "inception_3a/5x5"
param {
lr_mult: 1
decay_mult: 1
}
param {
lr_mult: 2
decay_mult: 0
}
convolution_param {
num_output: 32
pad: 2
kernel_size: 5
weight_filler {
type: "xavier"
std: 0.03
}
bias_filler {
type: "constant"
value: 0.2
}
}
}
layer {
name: "inception_3a/relu_5x5"
type: "ReLU"
bottom: "inception_3a/5x5"
top: "inception_3a/5x5"
}
layer {
name: "inception_3a/pool"
type: "Pooling"
bottom: "pool2/3x3_s2"
top: "inception_3a/pool"
pooling_param {
pool: MAX
kernel_size: 3
stride: 1
pad: 1
}
}
layer {
name: "inception_3a/pool_proj"
type: "Convolution"
bottom: "inception_3a/pool"
top: "inception_3a/pool_proj"
param {
lr_mult: 1
decay_mult: 1
}
param {
lr_mult: 2
decay_mult: 0
}
convolution_param {
num_output: 32
kernel_size: 1
weight_filler {
type: "xavier"
std: 0.1
}
bias_filler {
type: "constant"
value: 0.2
}
}
}
layer {
name: "inception_3a/relu_pool_proj"
type: "ReLU"
bottom: "inception_3a/pool_proj"
top: "inception_3a/pool_proj"
}
layer {
name: "inception_3a/output"
type: "Concat"
bottom: "inception_3a/1x1"
bottom: "inception_3a/3x3"
bottom: "inception_3a/5x5"
bottom: "inception_3a/pool_proj"
top: "inception_3a/output"
}
layer {
name: "inception_3b/1x1"
type: "Convolution"
bottom: "inception_3a/output"
top: "inception_3b/1x1"
param {
lr_mult: 1
decay_mult: 1
}
param {
lr_mult: 2
decay_mult: 0
}
convolution_param {
num_output: 128
kernel_size: 1
weight_filler {
type: "xavier"
std: 0.03
}
bias_filler {
type: "constant"
value: 0.2
}
}
}
layer {
name: "inception_3b/relu_1x1"
type: "ReLU"
bottom: "inception_3b/1x1"
top: "inception_3b/1x1"
}
layer {
name: "inception_3b/3x3_reduce"
type: "Convolution"
bottom: "inception_3a/output"
top: "inception_3b/3x3_reduce"
param {
lr_mult: 1
decay_mult: 1
}
param {
lr_mult: 2
decay_mult: 0
}
convolution_param {
num_output: 128
kernel_size: 1
weight_filler {
type: "xavier"
std: 0.09
}
bias_filler {
type: "constant"
value: 0.2
}
}
}
layer {
name: "inception_3b/relu_3x3_reduce"
type: "ReLU"
bottom: "inception_3b/3x3_reduce"
top: "inception_3b/3x3_reduce"
}
layer {
name: "inception_3b/3x3"
type: "Convolution"
bottom: "inception_3b/3x3_reduce"
top: "inception_3b/3x3"
param {
lr_mult: 1
decay_mult: 1
}
param {
lr_mult: 2
decay_mult: 0
}
convolution_param {
num_output: 192
pad: 1
kernel_size: 3
weight_filler {
type: "xavier"
std: 0.03
}
bias_filler {
type: "constant"
value: 0.2
}
}
}
layer {
name: "inception_3b/relu_3x3"
type: "ReLU"
bottom: "inception_3b/3x3"
top: "inception_3b/3x3"
}
layer {
name: "inception_3b/5x5_reduce"
type: "Convolution"
bottom: "inception_3a/output"
top: "inception_3b/5x5_reduce"
param {
lr_mult: 1
decay_mult: 1
}
param {
lr_mult: 2
decay_mult: 0
}
convolution_param {
num_output: 32
kernel_size: 1
weight_filler {
type: "xavier"
std: 0.2
}
bias_filler {
type: "constant"
value: 0.2
}
}
}
layer {
name: "inception_3b/relu_5x5_reduce"
type: "ReLU"
bottom: "inception_3b/5x5_reduce"
top: "inception_3b/5x5_reduce"
}
layer {
name: "inception_3b/5x5"
type: "Convolution"
bottom: "inception_3b/5x5_reduce"
top: "inception_3b/5x5"
param {
lr_mult: 1
decay_mult: 1
}
param {
lr_mult: 2
decay_mult: 0
}
convolution_param {
num_output: 96
pad: 2
kernel_size: 5
weight_filler {
type: "xavier"
std: 0.03
}
bias_filler {
type: "constant"
value: 0.2
}
}
}
layer {
name: "inception_3b/relu_5x5"
type: "ReLU"
bottom: "inception_3b/5x5"
top: "inception_3b/5x5"
}
layer {
name: "inception_3b/pool"
type: "Pooling"
bottom: "inception_3a/output"
top: "inception_3b/pool"
pooling_param {
pool: MAX
kernel_size: 3
stride: 1
pad: 1
}
}
layer {
name: "inception_3b/pool_proj"
type: "Convolution"
bottom: "inception_3b/pool"
top: "inception_3b/pool_proj"
param {
lr_mult: 1
decay_mult: 1
}
param {
lr_mult: 2
decay_mult: 0
}
convolution_param {
num_output: 64
kernel_size: 1
weight_filler {
type: "xavier"
std: 0.1
}
bias_filler {
type: "constant"
value: 0.2
}
}
}
layer {
name: "inception_3b/relu_pool_proj"
type: "ReLU"
bottom: "inception_3b/pool_proj"
top: "inception_3b/pool_proj"
}
layer {
name: "inception_3b/output"
type: "Concat"
bottom: "inception_3b/1x1"
bottom: "inception_3b/3x3"
bottom: "inception_3b/5x5"
bottom: "inception_3b/pool_proj"
top: "inception_3b/output"
}
layer {
name: "pool3/3x3_s2"
type: "Pooling"
bottom: "inception_3b/output"
top: "pool3/3x3_s2"
pooling_param {
pool: MAX
kernel_size: 3
stride: 2
}
}
layer {
name: "inception_4a/1x1"
type: "Convolution"
bottom: "pool3/3x3_s2"
top: "inception_4a/1x1"
param {
lr_mult: 1
decay_mult: 1
}
param {
lr_mult: 2
decay_mult: 0
}
convolution_param {
num_output: 192
kernel_size: 1
weight_filler {
type: "xavier"
std: 0.03
}
bias_filler {
type: "constant"
value: 0.2
}
}
}
layer {
name: "inception_4a/relu_1x1"
type: "ReLU"
bottom: "inception_4a/1x1"
top: "inception_4a/1x1"
}
layer {
name: "inception_4a/3x3_reduce"
type: "Convolution"
bottom: "pool3/3x3_s2"
top: "inception_4a/3x3_reduce"
param {
lr_mult: 1
decay_mult: 1
}
param {
lr_mult: 2
decay_mult: 0
}
convolution_param {
num_output: 96
kernel_size: 1
weight_filler {
type: "xavier"
std: 0.09
}
bias_filler {
type: "constant"
value: 0.2
}
}
}
layer {
name: "inception_4a/relu_3x3_reduce"
type: "ReLU"
bottom: "inception_4a/3x3_reduce"
top: "inception_4a/3x3_reduce"
}
layer {
name: "inception_4a/3x3"
type: "Convolution"
bottom: "inception_4a/3x3_reduce"
top: "inception_4a/3x3"
param {
lr_mult: 1
decay_mult: 1
}
param {
lr_mult: 2
decay_mult: 0
}
convolution_param {
num_output: 208
pad: 1
kernel_size: 3
weight_filler {
type: "xavier"
std: 0.03
}
bias_filler {
type: "constant"
value: 0.2
}
}
}
layer {
name: "inception_4a/relu_3x3"
type: "ReLU"
bottom: "inception_4a/3x3"
top: "inception_4a/3x3"
}
layer {
name: "inception_4a/5x5_reduce"
type: "Convolution"
bottom: "pool3/3x3_s2"
top: "inception_4a/5x5_reduce"
param {
lr_mult: 1
decay_mult: 1
}
param {
lr_mult: 2
decay_mult: 0
}
convolution_param {
num_output: 16
kernel_size: 1
weight_filler {
type: "xavier"
std: 0.2
}
bias_filler {
type: "constant"
value: 0.2
}
}
}
layer {
name: "inception_4a/relu_5x5_reduce"
type: "ReLU"
bottom: "inception_4a/5x5_reduce"
top: "inception_4a/5x5_reduce"
}
layer {
name: "inception_4a/5x5"
type: "Convolution"
bottom: "inception_4a/5x5_reduce"
top: "inception_4a/5x5"
param {
lr_mult: 1
decay_mult: 1
}
param {
lr_mult: 2
decay_mult: 0
}
convolution_param {
num_output: 48
pad: 2
kernel_size: 5
weight_filler {
type: "xavier"
std: 0.03
}
bias_filler {
type: "constant"
value: 0.2
}
}
}
layer {
name: "inception_4a/relu_5x5"
type: "ReLU"
bottom: "inception_4a/5x5"
top: "inception_4a/5x5"
}
layer {
name: "inception_4a/pool"
type: "Pooling"
bottom: "pool3/3x3_s2"
top: "inception_4a/pool"
pooling_param {
pool: MAX
kernel_size: 3
stride: 1
pad: 1
}
}
layer {
name: "inception_4a/pool_proj"
type: "Convolution"
bottom: "inception_4a/pool"
top: "inception_4a/pool_proj"
param {
lr_mult: 1
decay_mult: 1
}
param {
lr_mult: 2
decay_mult: 0
}
convolution_param {
num_output: 64
kernel_size: 1
weight_filler {
type: "xavier"
std: 0.1
}
bias_filler {
type: "constant"
value: 0.2
}
}
}
layer {
name: "inception_4a/relu_pool_proj"
type: "ReLU"
bottom: "inception_4a/pool_proj"
top: "inception_4a/pool_proj"
}
layer {
name: "inception_4a/output"
type: "Concat"
bottom: "inception_4a/1x1"
bottom: "inception_4a/3x3"
bottom: "inception_4a/5x5"
bottom: "inception_4a/pool_proj"
top: "inception_4a/output"
}
layer {
name: "loss1/ave_pool"
type: "Pooling"
bottom: "inception_4a/output"
top: "loss1/ave_pool"
pooling_param {
pool: AVE
kernel_size: 5
stride: 3
}
}
layer {
name: "loss1/conv"
type: "Convolution"
bottom: "loss1/ave_pool"
top: "loss1/conv"
param {
lr_mult: 1
decay_mult: 1
}
param {
lr_mult: 2
decay_mult: 0
}
convolution_param {
num_output: 128
kernel_size: 1
weight_filler {
type: "xavier"
std: 0.08
}
bias_filler {
type: "constant"
value: 0.2
}
}
}
layer {
name: "loss1/relu_conv"
type: "ReLU"
bottom: "loss1/conv"
top: "loss1/conv"
}
layer {
name: "loss1/fc"
type: "InnerProduct"
bottom: "loss1/conv"
top: "loss1/fc"
param {
lr_mult: 1
decay_mult: 1
}
param {
lr_mult: 2
decay_mult: 0
}
inner_product_param {
num_output: 1024
weight_filler {
type: "xavier"
std: 0.02
}
bias_filler {
type: "constant"
value: 0.2
}
}
}
layer {
name: "loss1/relu_fc"
type: "ReLU"
bottom: "loss1/fc"
top: "loss1/fc"
}
layer {
name: "loss1/drop_fc"
type: "Dropout"
bottom: "loss1/fc"
top: "loss1/fc"
dropout_param {
dropout_ratio: 0.7
}
}
layer {
name: "loss1/classifier_clean"
type: "InnerProduct"
bottom: "loss1/fc"
top: "loss1/classifier_clean"
param {
lr_mult: 1
decay_mult: 1
}
param {
lr_mult: 2
decay_mult: 0
}
inner_product_param {
num_output: 967
weight_filler {
type: "xavier"
std: 0.0009765625
}
bias_filler {
type: "constant"
value: 0
}
}
}
layer {
name: "loss1/loss"
type: "SoftmaxWithLoss"
bottom: "loss1/classifier_clean"
bottom: "label"
top: "loss1/loss"
loss_weight: 0.3
}
layer {
name: "loss1/top-1"
type: "Accuracy"
bottom: "loss1/classifier_clean"
bottom: "label"
top: "loss1/accuracy"
include {
phase: TEST
}
}
layer {
name: "loss1/top-5"
type: "Accuracy"
bottom: "loss1/classifier_clean"
bottom: "label"
top: "loss1/accuracy-top5"
include {
phase: TEST
}
accuracy_param {
top_k: 5
}
}
layer {
name: "inception_4b/1x1"
type: "Convolution"
bottom: "inception_4a/output"
top: "inception_4b/1x1"
param {
lr_mult: 1
decay_mult: 1
}
param {
lr_mult: 2
decay_mult: 0
}
convolution_param {
num_output: 160
kernel_size: 1
weight_filler {
type: "xavier"
std: 0.03
}
bias_filler {
type: "constant"
value: 0.2
}
}
}
layer {
name: "inception_4b/relu_1x1"
type: "ReLU"
bottom: "inception_4b/1x1"
top: "inception_4b/1x1"
}
layer {
name: "inception_4b/3x3_reduce"
type: "Convolution"
bottom: "inception_4a/output"
top: "inception_4b/3x3_reduce"
param {
lr_mult: 1
decay_mult: 1
}
param {
lr_mult: 2
decay_mult: 0
}
convolution_param {
num_output: 112
kernel_size: 1
weight_filler {
type: "xavier"
std: 0.09
}
bias_filler {
type: "constant"
value: 0.2
}
}
}
layer {
name: "inception_4b/relu_3x3_reduce"
type: "ReLU"
bottom: "inception_4b/3x3_reduce"
top: "inception_4b/3x3_reduce"
}
layer {
name: "inception_4b/3x3"
type: "Convolution"
bottom: "inception_4b/3x3_reduce"
top: "inception_4b/3x3"
param {
lr_mult: 1
decay_mult: 1
}
param {
lr_mult: 2
decay_mult: 0
}
convolution_param {
num_output: 224
pad: 1
kernel_size: 3
weight_filler {
type: "xavier"
std: 0.03
}
bias_filler {
type: "constant"
value: 0.2
}
}
}
layer {
name: "inception_4b/relu_3x3"
type: "ReLU"
bottom: "inception_4b/3x3"
top: "inception_4b/3x3"
}
layer {
name: "inception_4b/5x5_reduce"
type: "Convolution"
bottom: "inception_4a/output"
top: "inception_4b/5x5_reduce"
param {
lr_mult: 1
decay_mult: 1
}
param {
lr_mult: 2
decay_mult: 0
}
convolution_param {
num_output: 24
kernel_size: 1
weight_filler {
type: "xavier"
std: 0.2
}
bias_filler {
type: "constant"
value: 0.2
}
}
}
layer {
name: "inception_4b/relu_5x5_reduce"
type: "ReLU"
bottom: "inception_4b/5x5_reduce"
top: "inception_4b/5x5_reduce"
}
layer {
name: "inception_4b/5x5"
type: "Convolution"
bottom: "inception_4b/5x5_reduce"
top: "inception_4b/5x5"
param {
lr_mult: 1
decay_mult: 1
}
param {
lr_mult: 2
decay_mult: 0
}
convolution_param {
num_output: 64
pad: 2
kernel_size: 5
weight_filler {
type: "xavier"
std: 0.03
}
bias_filler {
type: "constant"
value: 0.2
}
}
}
layer {
name: "inception_4b/relu_5x5"
type: "ReLU"
bottom: "inception_4b/5x5"
top: "inception_4b/5x5"
}
layer {
name: "inception_4b/pool"
type: "Pooling"
bottom: "inception_4a/output"
top: "inception_4b/pool"
pooling_param {
pool: MAX
kernel_size: 3
stride: 1
pad: 1
}
}
layer {
name: "inception_4b/pool_proj"
type: "Convolution"
bottom: "inception_4b/pool"
top: "inception_4b/pool_proj"
param {
lr_mult: 1
decay_mult: 1
}
param {
lr_mult: 2
decay_mult: 0
}
convolution_param {
num_output: 64
kernel_size: 1
weight_filler {
type: "xavier"
std: 0.1
}
bias_filler {
type: "constant"
value: 0.2
}
}
}
layer {
name: "inception_4b/relu_pool_proj"
type: "ReLU"
bottom: "inception_4b/pool_proj"
top: "inception_4b/pool_proj"
}
layer {
name: "inception_4b/output"
type: "Concat"
bottom: "inception_4b/1x1"
bottom: "inception_4b/3x3"
bottom: "inception_4b/5x5"
bottom: "inception_4b/pool_proj"
top: "inception_4b/output"
}
layer {
name: "inception_4c/1x1"
type: "Convolution"
bottom: "inception_4b/output"
top: "inception_4c/1x1"
param {
lr_mult: 1
decay_mult: 1
}
param {
lr_mult: 2
decay_mult: 0
}
convolution_param {
num_output: 128
kernel_size: 1
weight_filler {
type: "xavier"
std: 0.03
}
bias_filler {
type: "constant"
value: 0.2
}
}
}
layer {
name: "inception_4c/relu_1x1"
type: "ReLU"
bottom: "inception_4c/1x1"
top: "inception_4c/1x1"
}
layer {
name: "inception_4c/3x3_reduce"
type: "Convolution"
bottom: "inception_4b/output"
top: "inception_4c/3x3_reduce"
param {
lr_mult: 1
decay_mult: 1
}
param {
lr_mult: 2
decay_mult: 0
}
convolution_param {
num_output: 128
kernel_size: 1
weight_filler {
type: "xavier"
std: 0.09
}
bias_filler {
type: "constant"
value: 0.2
}
}
}
layer {
name: "inception_4c/relu_3x3_reduce"
type: "ReLU"
bottom: "inception_4c/3x3_reduce"
top: "inception_4c/3x3_reduce"
}
layer {
name: "inception_4c/3x3"
type: "Convolution"
bottom: "inception_4c/3x3_reduce"
top: "inception_4c/3x3"
param {
lr_mult: 1
decay_mult: 1
}
param {
lr_mult: 2
decay_mult: 0
}
convolution_param {
num_output: 256
pad: 1
kernel_size: 3
weight_filler {
type: "xavier"
std: 0.03
}
bias_filler {
type: "constant"
value: 0.2
}
}
}
layer {
name: "inception_4c/relu_3x3"
type: "ReLU"
bottom: "inception_4c/3x3"
top: "inception_4c/3x3"
}
layer {
name: "inception_4c/5x5_reduce"
type: "Convolution"
bottom: "inception_4b/output"
top: "inception_4c/5x5_reduce"
param {
lr_mult: 1
decay_mult: 1
}
param {
lr_mult: 2
decay_mult: 0
}
convolution_param {
num_output: 24
kernel_size: 1
weight_filler {
type: "xavier"
std: 0.2
}
bias_filler {
type: "constant"
value: 0.2
}
}
}
layer {
name: "inception_4c/relu_5x5_reduce"
type: "ReLU"
bottom: "inception_4c/5x5_reduce"
top: "inception_4c/5x5_reduce"
}
layer {
name: "inception_4c/5x5"
type: "Convolution"
bottom: "inception_4c/5x5_reduce"
top: "inception_4c/5x5"
param {
lr_mult: 1
decay_mult: 1
}
param {
lr_mult: 2
decay_mult: 0
}
convolution_param {
num_output: 64
pad: 2
kernel_size: 5
weight_filler {
type: "xavier"
std: 0.03
}
bias_filler {
type: "constant"
value: 0.2
}
}
}
layer {
name: "inception_4c/relu_5x5"
type: "ReLU"
bottom: "inception_4c/5x5"
top: "inception_4c/5x5"
}
layer {
name: "inception_4c/pool"
type: "Pooling"
bottom: "inception_4b/output"
top: "inception_4c/pool"
pooling_param {
pool: MAX
kernel_size: 3
stride: 1
pad: 1
}
}
layer {
name: "inception_4c/pool_proj"
type: "Convolution"
bottom: "inception_4c/pool"
top: "inception_4c/pool_proj"
param {
lr_mult: 1
decay_mult: 1
}
param {
lr_mult: 2
decay_mult: 0
}
convolution_param {
num_output: 64
kernel_size: 1
weight_filler {
type: "xavier"
std: 0.1
}
…
I0708 12:30:00.520905  6878 net.cpp:160] Top shape: 100 512 14 14 (10035200)
I0708 12:30:00.520910  6878 net.cpp:168] Memory required for data: 4420674412
I0708 12:30:00.520915  6878 layer_factory.hpp:76] Creating layer inception_4c/pool_proj
I0708 12:30:00.520925  6878 net.cpp:109] Creating Layer inception_4c/pool_proj
I0708 12:30:00.520931  6878 net.cpp:457] inception_4c/pool_proj <- inception_4c/pool
I0708 12:30:00.520939  6878 net.cpp:414] inception_4c/pool_proj -> inception_4c/pool_proj
I0708 12:30:00.521471  6878 net.cpp:153] Setting up inception_4c/pool_proj
I0708 12:30:00.521482  6878 net.cpp:160] Top shape: 100 64 14 14 (1254400)
I0708 12:30:00.521487  6878 net.cpp:168] Memory required for data: 4425692012
I0708 12:30:00.521510  6878 layer_factory.hpp:76] Creating layer inception_4c/relu_pool_proj
I0708 12:30:00.521519  6878 net.cpp:109] Creating Layer inception_4c/relu_pool_proj
I0708 12:30:00.521527  6878 net.cpp:457] inception_4c/relu_pool_proj <- inception_4c/pool_proj
I0708 12:30:00.521533  6878 net.cpp:400] inception_4c/relu_pool_proj -> inception_4c/pool_proj (in-place)
I0708 12:30:00.521543  6878 net.cpp:153] Setting up inception_4c/relu_pool_proj
I0708 12:30:00.521549  6878 net.cpp:160] Top shape: 100 64 14 14 (1254400)
I0708 12:30:00.521553  6878 net.cpp:168] Memory required for data: 4430709612
I0708 12:30:00.521559  6878 layer_factory.hpp:76] Creating layer inception_4c/output
I0708 12:30:00.521567  6878 net.cpp:109] Creating Layer inception_4c/output
I0708 12:30:00.521571  6878 net.cpp:457] inception_4c/output <- inception_4c/1x1
I0708 12:30:00.521577  6878 net.cpp:457] inception_4c/output <- inception_4c/3x3
I0708 12:30:00.521582  6878 net.cpp:457] inception_4c/output <- inception_4c/5x5
I0708 12:30:00.521589  6878 net.cpp:457] inception_4c/output <- inception_4c/pool_proj
I0708 12:30:00.521595  6878 net.cpp:414] inception_4c/output -> inception_4c/output
I0708 12:30:00.521636  6878 net.cpp:153] Setting up inception_4c/output
I0708 12:30:00.521644  6878 net.cpp:160] Top shape: 100 512 14 14 (10035200)
I0708 12:30:00.521649  6878 net.cpp:168] Memory required for data: 4470850412
I0708 12:30:00.521653  6878 layer_factory.hpp:76] Creating layer inception_4c/output_inception_4c/output_0_split
I0708 12:30:00.521663  6878 net.cpp:109] Creating Layer inception_4c/output_inception_4c/output_0_split
I0708 12:30:00.521668  6878 net.cpp:457] inception_4c/output_inception_4c/output_0_split <- inception_4c/output
I0708 12:30:00.521677  6878 net.cpp:414] inception_4c/output_inception_4c/output_0_split -> inception_4c/output_inception_4c/output_0_split_0
I0708 12:30:00.521684  6878 net.cpp:414] inception_4c/output_inception_4c/output_0_split -> inception_4c/output_inception_4c/output_0_split_1
I0708 12:30:00.521693  6878 net.cpp:414] inception_4c/output_inception_4c/output_0_split -> inception_4c/output_inception_4c/output_0_split_2
I0708 12:30:00.521702  6878 net.cpp:414] inception_4c/output_inception_4c/output_0_split -> inception_4c/output_inception_4c/output_0_split_3
I0708 12:30:00.521782  6878 net.cpp:153] Setting up inception_4c/output_inception_4c/output_0_split
I0708 12:30:00.521791  6878 net.cpp:160] Top shape: 100 512 14 14 (10035200)
I0708 12:30:00.521797  6878 net.cpp:160] Top shape: 100 512 14 14 (10035200)
I0708 12:30:00.521803  6878 net.cpp:160] Top shape: 100 512 14 14 (10035200)
I0708 12:30:00.521808  6878 net.cpp:160] Top shape: 100 512 14 14 (10035200)
I0708 12:30:00.521812  6878 net.cpp:168] Memory required for data: 4631413612
I0708 12:30:00.521816  6878 layer_factory.hpp:76] Creating layer inception_4d/1x1
I0708 12:30:00.521826  6878 net.cpp:109] Creating Layer inception_4d/1x1
I0708 12:30:00.521831  6878 net.cpp:457] inception_4d/1x1 <- inception_4c/output_inception_4c/output_0_split_0
I0708 12:30:00.521841  6878 net.cpp:414] inception_4d/1x1 -> inception_4d/1x1
I0708 12:30:00.522569  6878 net.cpp:153] Setting up inception_4d/1x1
I0708 12:30:00.522583  6878 net.cpp:160] Top shape: 100 112 14 14 (2195200)
I0708 12:30:00.522586  6878 net.cpp:168] Memory required for data: 4640194412
I0708 12:30:00.522594  6878 layer_factory.hpp:76] Creating layer inception_4d/relu_1x1
I0708 12:30:00.522603  6878 net.cpp:109] Creating Layer inception_4d/relu_1x1
I0708 12:30:00.522608  6878 net.cpp:457] inception_4d/relu_1x1 <- inception_4d/1x1
I0708 12:30:00.522616  6878 net.cpp:400] inception_4d/relu_1x1 -> inception_4d/1x1 (in-place)
I0708 12:30:00.522624  6878 net.cpp:153] Setting up inception_4d/relu_1x1
I0708 12:30:00.522630  6878 net.cpp:160] Top shape: 100 112 14 14 (2195200)
I0708 12:30:00.522634  6878 net.cpp:168] Memory required for data: 4648975212
I0708 12:30:00.522639  6878 layer_factory.hpp:76] Creating layer inception_4d/3x3_reduce
I0708 12:30:00.522649  6878 net.cpp:109] Creating Layer inception_4d/3x3_reduce
I0708 12:30:00.522670  6878 net.cpp:457] inception_4d/3x3_reduce <- inception_4c/output_inception_4c/output_0_split_1
I0708 12:30:00.522680  6878 net.cpp:414] inception_4d/3x3_reduce -> inception_4d/3x3_reduce
I0708 12:30:00.523556  6878 net.cpp:153] Setting up inception_4d/3x3_reduce
I0708 12:30:00.523569  6878 net.cpp:160] Top shape: 100 144 14 14 (2822400)
I0708 12:30:00.523573  6878 net.cpp:168] Memory required for data: 4660264812
I0708 12:30:00.523581  6878 layer_factory.hpp:76] Creating layer inception_4d/relu_3x3_reduce
I0708 12:30:00.523589  6878 net.cpp:109] Creating Layer inception_4d/relu_3x3_reduce
I0708 12:30:00.523596  6878 net.cpp:457] inception_4d/relu_3x3_reduce <- inception_4d/3x3_reduce
I0708 12:30:00.523602  6878 net.cpp:400] inception_4d/relu_3x3_reduce -> inception_4d/3x3_reduce (in-place)
I0708 12:30:00.523612  6878 net.cpp:153] Setting up inception_4d/relu_3x3_reduce
I0708 12:30:00.523617  6878 net.cpp:160] Top shape: 100 144 14 14 (2822400)
I0708 12:30:00.523622  6878 net.cpp:168] Memory required for data: 4671554412
I0708 12:30:00.523625  6878 layer_factory.hpp:76] Creating layer inception_4d/3x3
I0708 12:30:00.523635  6878 net.cpp:109] Creating Layer inception_4d/3x3
I0708 12:30:00.523640  6878 net.cpp:457] inception_4d/3x3 <- inception_4d/3x3_reduce
I0708 12:30:00.523648  6878 net.cpp:414] inception_4d/3x3 -> inception_4d/3x3
I0708 12:30:00.527547  6878 net.cpp:153] Setting up inception_4d/3x3
I0708 12:30:00.527562  6878 net.cpp:160] Top shape: 100 288 14 14 (5644800)
I0708 12:30:00.527567  6878 net.cpp:168] Memory required for data: 4694133612
I0708 12:30:00.527575  6878 layer_factory.hpp:76] Creating layer inception_4d/relu_3x3
I0708 12:30:00.527585  6878 net.cpp:109] Creating Layer inception_4d/relu_3x3
I0708 12:30:00.527590  6878 net.cpp:457] inception_4d/relu_3x3 <- inception_4d/3x3
I0708 12:30:00.527598  6878 net.cpp:400] inception_4d/relu_3x3 -> inception_4d/3x3 (in-place)
I0708 12:30:00.527607  6878 net.cpp:153] Setting up inception_4d/relu_3x3
I0708 12:30:00.527613  6878 net.cpp:160] Top shape: 100 288 14 14 (5644800)
I0708 12:30:00.527618  6878 net.cpp:168] Memory required for data: 4716712812
I0708 12:30:00.527622  6878 layer_factory.hpp:76] Creating layer inception_4d/5x5_reduce
I0708 12:30:00.527632  6878 net.cpp:109] Creating Layer inception_4d/5x5_reduce
I0708 12:30:00.527637  6878 net.cpp:457] inception_4d/5x5_reduce <- inception_4c/output_inception_4c/output_0_split_2
I0708 12:30:00.527647  6878 net.cpp:414] inception_4d/5x5_reduce -> inception_4d/5x5_reduce
I0708 12:30:00.528085  6878 net.cpp:153] Setting up inception_4d/5x5_reduce
I0708 12:30:00.528097  6878 net.cpp:160] Top shape: 100 32 14 14 (627200)
I0708 12:30:00.528101  6878 net.cpp:168] Memory required for data: 4719221612
I0708 12:30:00.528110  6878 layer_factory.hpp:76] Creating layer inception_4d/relu_5x5_reduce
I0708 12:30:00.528118  6878 net.cpp:109] Creating Layer inception_4d/relu_5x5_reduce
I0708 12:30:00.528125  6878 net.cpp:457] inception_4d/relu_5x5_reduce <- inception_4d/5x5_reduce
I0708 12:30:00.528131  6878 net.cpp:400] inception_4d/relu_5x5_reduce -> inception_4d/5x5_reduce (in-place)
I0708 12:30:00.528141  6878 net.cpp:153] Setting up inception_4d/relu_5x5_reduce
I0708 12:30:00.528146  6878 net.cpp:160] Top shape: 100 32 14 14 (627200)
I0708 12:30:00.528151  6878 net.cpp:168] Memory required for data: 4721730412
I0708 12:30:00.528156  6878 layer_factory.hpp:76] Creating layer inception_4d/5x5
I0708 12:30:00.528165  6878 net.cpp:109] Creating Layer inception_4d/5x5
I0708 12:30:00.528170  6878 net.cpp:457] inception_4d/5x5 <- inception_4d/5x5_reduce
I0708 12:30:00.528179  6878 net.cpp:414] inception_4d/5x5 -> inception_4d/5x5
I0708 12:30:00.528864  6878 net.cpp:153] Setting up inception_4d/5x5
I0708 12:30:00.528877  6878 net.cpp:160] Top shape: 100 64 14 14 (1254400)
I0708 12:30:00.528882  6878 net.cpp:168] Memory required for data: 4726748012
I0708 12:30:00.528889  6878 layer_factory.hpp:76] Creating layer inception_4d/relu_5x5
I0708 12:30:00.528898  6878 net.cpp:109] Creating Layer inception_4d/relu_5x5
I0708 12:30:00.528918  6878 net.cpp:457] inception_4d/relu_5x5 <- inception_4d/5x5
I0708 12:30:00.528928  6878 net.cpp:400] inception_4d/relu_5x5 -> inception_4d/5x5 (in-place)
I0708 12:30:00.528937  6878 net.cpp:153] Setting up inception_4d/relu_5x5
I0708 12:30:00.528944  6878 net.cpp:160] Top shape: 100 64 14 14 (1254400)
I0708 12:30:00.528947  6878 net.cpp:168] Memory required for data: 4731765612
I0708 12:30:00.528952  6878 layer_factory.hpp:76] Creating layer inception_4d/pool
I0708 12:30:00.528960  6878 net.cpp:109] Creating Layer inception_4d/pool
I0708 12:30:00.528964  6878 net.cpp:457] inception_4d/pool <- inception_4c/output_inception_4c/output_0_split_3
I0708 12:30:00.528972  6878 net.cpp:414] inception_4d/pool -> inception_4d/pool
I0708 12:30:00.529036  6878 net.cpp:153] Setting up inception_4d/pool
I0708 12:30:00.529047  6878 net.cpp:160] Top shape: 100 512 14 14 (10035200)
I0708 12:30:00.529050  6878 net.cpp:168] Memory required for data: 4771906412
I0708 12:30:00.529057  6878 layer_factory.hpp:76] Creating layer inception_4d/pool_proj
I0708 12:30:00.529067  6878 net.cpp:109] Creating Layer inception_4d/pool_proj
I0708 12:30:00.529072  6878 net.cpp:457] inception_4d/pool_proj <- inception_4d/pool
I0708 12:30:00.529080  6878 net.cpp:414] inception_4d/pool_proj -> inception_4d/pool_proj
I0708 12:30:00.529635  6878 net.cpp:153] Setting up inception_4d/pool_proj
I0708 12:30:00.529649  6878 net.cpp:160] Top shape: 100 64 14 14 (1254400)
I0708 12:30:00.529652  6878 net.cpp:168] Memory required for data: 4776924012
I0708 12:30:00.529660  6878 layer_factory.hpp:76] Creating layer inception_4d/relu_pool_proj
I0708 12:30:00.529670  6878 net.cpp:109] Creating Layer inception_4d/relu_pool_proj
I0708 12:30:00.529675  6878 net.cpp:457] inception_4d/relu_pool_proj <- inception_4d/pool_proj
I0708 12:30:00.529682  6878 net.cpp:400] inception_4d/relu_pool_proj -> inception_4d/pool_proj (in-place)
I0708 12:30:00.529691  6878 net.cpp:153] Setting up inception_4d/relu_pool_proj
I0708 12:30:00.529697  6878 net.cpp:160] Top shape: 100 64 14 14 (1254400)
I0708 12:30:00.529701  6878 net.cpp:168] Memory required for data: 4781941612
I0708 12:30:00.529706  6878 layer_factory.hpp:76] Creating layer inception_4d/output
I0708 12:30:00.529713  6878 net.cpp:109] Creating Layer inception_4d/output
I0708 12:30:00.529718  6878 net.cpp:457] inception_4d/output <- inception_4d/1x1
I0708 12:30:00.529723  6878 net.cpp:457] inception_4d/output <- inception_4d/3x3
I0708 12:30:00.529729  6878 net.cpp:457] inception_4d/output <- inception_4d/5x5
I0708 12:30:00.529734  6878 net.cpp:457] inception_4d/output <- inception_4d/pool_proj
I0708 12:30:00.529742  6878 net.cpp:414] inception_4d/output -> inception_4d/output
I0708 12:30:00.529779  6878 net.cpp:153] Setting up inception_4d/output
I0708 12:30:00.529788  6878 net.cpp:160] Top shape: 100 528 14 14 (10348800)
I0708 12:30:00.529793  6878 net.cpp:168] Memory required for data: 4823336812
I0708 12:30:00.529798  6878 layer_factory.hpp:76] Creating layer inception_4d/output_inception_4d/output_0_split
I0708 12:30:00.529806  6878 net.cpp:109] Creating Layer inception_4d/output_inception_4d/output_0_split
I0708 12:30:00.529811  6878 net.cpp:457] inception_4d/output_inception_4d/output_0_split <- inception_4d/output
I0708 12:30:00.529819  6878 net.cpp:414] inception_4d/output_inception_4d/output_0_split -> inception_4d/output_inception_4d/output_0_split_0
I0708 12:30:00.529829  6878 net.cpp:414] inception_4d/output_inception_4d/output_0_split -> inception_4d/output_inception_4d/output_0_split_1
I0708 12:30:00.529839  6878 net.cpp:414] inception_4d/output_inception_4d/output_0_split -> inception_4d/output_inception_4d/output_0_split_2
I0708 12:30:00.529846  6878 net.cpp:414] inception_4d/output_inception_4d/output_0_split -> inception_4d/output_inception_4d/output_0_split_3
I0708 12:30:00.529855  6878 net.cpp:414] inception_4d/output_inception_4d/output_0_split -> inception_4d/output_inception_4d/output_0_split_4
I0708 12:30:00.529947  6878 net.cpp:153] Setting up inception_4d/output_inception_4d/output_0_split
I0708 12:30:00.529971  6878 net.cpp:160] Top shape: 100 528 14 14 (10348800)
I0708 12:30:00.529978  6878 net.cpp:160] Top shape: 100 528 14 14 (10348800)
I0708 12:30:00.529983  6878 net.cpp:160] Top shape: 100 528 14 14 (10348800)
I0708 12:30:00.529989  6878 net.cpp:160] Top shape: 100 528 14 14 (10348800)
I0708 12:30:00.529994  6878 net.cpp:160] Top shape: 100 528 14 14 (10348800)
I0708 12:30:00.529997  6878 net.cpp:168] Memory required for data: 5030312812
I0708 12:30:00.530002  6878 layer_factory.hpp:76] Creating layer loss2/ave_pool
I0708 12:30:00.530012  6878 net.cpp:109] Creating Layer loss2/ave_pool
I0708 12:30:00.530017  6878 net.cpp:457] loss2/ave_pool <- inception_4d/output_inception_4d/output_0_split_0
I0708 12:30:00.530025  6878 net.cpp:414] loss2/ave_pool -> loss2/ave_pool
I0708 12:30:00.530066  6878 net.cpp:153] Setting up loss2/ave_pool
I0708 12:30:00.530076  6878 net.cpp:160] Top shape: 100 528 4 4 (844800)
I0708 12:30:00.530081  6878 net.cpp:168] Memory required for data: 5033692012
I0708 12:30:00.530086  6878 layer_factory.hpp:76] Creating layer loss2/conv
I0708 12:30:00.530097  6878 net.cpp:109] Creating Layer loss2/conv
I0708 12:30:00.530102  6878 net.cpp:457] loss2/conv <- loss2/ave_pool
I0708 12:30:00.530110  6878 net.cpp:414] loss2/conv -> loss2/conv
I0708 12:30:00.530912  6878 net.cpp:153] Setting up loss2/conv
I0708 12:30:00.530925  6878 net.cpp:160] Top shape: 100 128 4 4 (204800)
I0708 12:30:00.530930  6878 net.cpp:168] Memory required for data: 5034511212
I0708 12:30:00.530937  6878 layer_factory.hpp:76] Creating layer loss2/relu_conv
I0708 12:30:00.530946  6878 net.cpp:109] Creating Layer loss2/relu_conv
I0708 12:30:00.530951  6878 net.cpp:457] loss2/relu_conv <- loss2/conv
I0708 12:30:00.530958  6878 net.cpp:400] loss2/relu_conv -> loss2/conv (in-place)
I0708 12:30:00.530966  6878 net.cpp:153] Setting up loss2/relu_conv
I0708 12:30:00.530972  6878 net.cpp:160] Top shape: 100 128 4 4 (204800)
I0708 12:30:00.530977  6878 net.cpp:168] Memory required for data: 5035330412
I0708 12:30:00.530980  6878 layer_factory.hpp:76] Creating layer loss2/fc
I0708 12:30:00.530992  6878 net.cpp:109] Creating Layer loss2/fc
I0708 12:30:00.530995  6878 net.cpp:457] loss2/fc <- loss2/conv
I0708 12:30:00.531002  6878 net.cpp:414] loss2/fc -> loss2/fc
I0708 12:30:00.550499  6878 net.cpp:153] Setting up loss2/fc
I0708 12:30:00.550541  6878 net.cpp:160] Top shape: 100 1024 (102400)
I0708 12:30:00.550546  6878 net.cpp:168] Memory required for data: 5035740012
I0708 12:30:00.550559  6878 layer_factory.hpp:76] Creating layer loss2/relu_fc
I0708 12:30:00.550575  6878 net.cpp:109] Creating Layer loss2/relu_fc
I0708 12:30:00.550581  6878 net.cpp:457] loss2/relu_fc <- loss2/fc
I0708 12:30:00.550592  6878 net.cpp:400] loss2/relu_fc -> loss2/fc (in-place)
I0708 12:30:00.550607  6878 net.cpp:153] Setting up loss2/relu_fc
I0708 12:30:00.550613  6878 net.cpp:160] Top shape: 100 1024 (102400)
I0708 12:30:00.550618  6878 net.cpp:168] Memory required for data: 5036149612
I0708 12:30:00.550622  6878 layer_factory.hpp:76] Creating layer loss2/drop_fc
I0708 12:30:00.550632  6878 net.cpp:109] Creating Layer loss2/drop_fc
I0708 12:30:00.550637  6878 net.cpp:457] loss2/drop_fc <- loss2/fc
I0708 12:30:00.550643  6878 net.cpp:400] loss2/drop_fc -> loss2/fc (in-place)
I0708 12:30:00.550689  6878 net.cpp:153] Setting up loss2/drop_fc
I0708 12:30:00.550698  6878 net.cpp:160] Top shape: 100 1024 (102400)
I0708 12:30:00.550704  6878 net.cpp:168] Memory required for data: 5036559212
I0708 12:30:00.550707  6878 layer_factory.hpp:76] Creating layer loss2/classifier_clean
I0708 12:30:00.550720  6878 net.cpp:109] Creating Layer loss2/classifier_clean
I0708 12:30:00.550725  6878 net.cpp:457] loss2/classifier_clean <- loss2/fc
I0708 12:30:00.550734  6878 net.cpp:414] loss2/classifier_clean -> loss2/classifier_clean
I0708 12:30:00.560326  6878 net.cpp:153] Setting up loss2/classifier_clean
I0708 12:30:00.560349  6878 net.cpp:160] Top shape: 100 967 (96700)
I0708 12:30:00.560354  6878 net.cpp:168] Memory required for data: 5036946012
I0708 12:30:00.560400  6878 layer_factory.hpp:76] Creating layer loss2/classifier_clean_loss2/classifier_clean_0_split
I0708 12:30:00.560413  6878 net.cpp:109] Creating Layer loss2/classifier_clean_loss2/classifier_clean_0_split
I0708 12:30:00.560420  6878 net.cpp:457] loss2/classifier_clean_loss2/classifier_clean_0_split <- loss2/classifier_clean
I0708 12:30:00.560431  6878 net.cpp:414] loss2/classifier_clean_loss2/classifier_clean_0_split -> loss2/classifier_clean_loss2/classifier_clean_0_split_0
I0708 12:30:00.560441  6878 net.cpp:414] loss2/classifier_clean_loss2/classifier_clean_0_split -> loss2/classifier_clean_loss2/classifier_clean_0_split_1
I0708 12:30:00.560451  6878 net.cpp:414] loss2/classifier_clean_loss2/classifier_clean_0_split -> loss2/classifier_clean_loss2/classifier_clean_0_split_2
I0708 12:30:00.560526  6878 net.cpp:153] Setting up loss2/classifier_clean_loss2/classifier_clean_0_split
I0708 12:30:00.560535  6878 net.cpp:160] Top shape: 100 967 (96700)
I0708 12:30:00.560541  6878 net.cpp:160] Top shape: 100 967 (96700)
I0708 12:30:00.560546  6878 net.cpp:160] Top shape: 100 967 (96700)
I0708 12:30:00.560550  6878 net.cpp:168] Memory required for data: 5038106412
I0708 12:30:00.560555  6878 layer_factory.hpp:76] Creating layer loss2/loss
I0708 12:30:00.560565  6878 net.cpp:109] Creating Layer loss2/loss
I0708 12:30:00.560570  6878 net.cpp:457] loss2/loss <- loss2/classifier_clean_loss2/classifier_clean_0_split_0
I0708 12:30:00.560578  6878 net.cpp:457] loss2/loss <- label_val-data_1_split_3
…
I0708 12:30:00.561626  6878 net.cpp:153] Setting up loss2/top-5
I0708 12:30:00.561632  6878 net.cpp:160] Top shape: (1)
I0708 12:30:00.561636  6878 net.cpp:168] Memory required for data: 5038106424
I0708 12:30:00.561640  6878 layer_factory.hpp:76] Creating layer inception_4e/1x1
I0708 12:30:00.561653  6878 net.cpp:109] Creating Layer inception_4e/1x1
I0708 12:30:00.561658  6878 net.cpp:457] inception_4e/1x1 <- inception_4d/output_inception_4d/output_0_split_1
I0708 12:30:00.561667  6878 net.cpp:414] inception_4e/1x1 -> inception_4e/1x1
I0708 12:30:00.562985  6878 net.cpp:153] Setting up inception_4e/1x1
I0708 12:30:00.562999  6878 net.cpp:160] Top shape: 100 256 14 14 (5017600)
I0708 12:30:00.563004  6878 net.cpp:168] Memory required for data: 5058176824
I0708 12:30:00.563011  6878 layer_factory.hpp:76] Creating layer inception_4e/relu_1x1
I0708 12:30:00.563020  6878 net.cpp:109] Creating Layer inception_4e/relu_1x1
I0708 12:30:00.563026  6878 net.cpp:457] inception_4e/relu_1x1 <- inception_4e/1x1
I0708 12:30:00.563035  6878 net.cpp:400] inception_4e/relu_1x1 -> inception_4e/1x1 (in-place)
I0708 12:30:00.563045  6878 net.cpp:153] Setting up inception_4e/relu_1x1
I0708 12:30:00.563066  6878 net.cpp:160] Top shape: 100 256 14 14 (5017600)
I0708 12:30:00.563071  6878 net.cpp:168] Memory required for data: 5078247224
I0708 12:30:00.563076  6878 layer_factory.hpp:76] Creating layer inception_4e/3x3_reduce
I0708 12:30:00.563110  6878 net.cpp:109] Creating Layer inception_4e/3x3_reduce
I0708 12:30:00.563115  6878 net.cpp:457] inception_4e/3x3_reduce <- inception_4d/output_inception_4d/output_0_split_2
I0708 12:30:00.563124  6878 net.cpp:414] inception_4e/3x3_reduce -> inception_4e/3x3_reduce
I0708 12:30:00.564734  6878 net.cpp:153] Setting up inception_4e/3x3_reduce
I0708 12:30:00.564749  6878 net.cpp:160] Top shape: 100 160 14 14 (3136000)
I0708 12:30:00.564754  6878 net.cpp:168] Memory required for data: 5090791224
I0708 12:30:00.564762  6878 layer_factory.hpp:76] Creating layer inception_4e/relu_3x3_reduce
I0708 12:30:00.564771  6878 net.cpp:109] Creating Layer inception_4e/relu_3x3_reduce
I0708 12:30:00.564777  6878 net.cpp:457] inception_4e/relu_3x3_reduce <- inception_4e/3x3_reduce
I0708 12:30:00.564785  6878 net.cpp:400] inception_4e/relu_3x3_reduce -> inception_4e/3x3_reduce (in-place)
I0708 12:30:00.564795  6878 net.cpp:153] Setting up inception_4e/relu_3x3_reduce
I0708 12:30:00.564800  6878 net.cpp:160] Top shape: 100 160 14 14 (3136000)
I0708 12:30:00.564805  6878 net.cpp:168] Memory required for data: 5103335224
I0708 12:30:00.564810  6878 layer_factory.hpp:76] Creating layer inception_4e/3x3
I0708 12:30:00.564820  6878 net.cpp:109] Creating Layer inception_4e/3x3
I0708 12:30:00.564823  6878 net.cpp:457] inception_4e/3x3 <- inception_4e/3x3_reduce
I0708 12:30:00.564832  6878 net.cpp:414] inception_4e/3x3 -> inception_4e/3x3
I0708 12:30:00.569735  6878 net.cpp:153] Setting up inception_4e/3x3
I0708 12:30:00.569751  6878 net.cpp:160] Top shape: 100 320 14 14 (6272000)
I0708 12:30:00.569756  6878 net.cpp:168] Memory required for data: 5128423224
I0708 12:30:00.569764  6878 layer_factory.hpp:76] Creating layer inception_4e/relu_3x3
I0708 12:30:00.569772  6878 net.cpp:109] Creating Layer inception_4e/relu_3x3
I0708 12:30:00.569778  6878 net.cpp:457] inception_4e/relu_3x3 <- inception_4e/3x3
I0708 12:30:00.569785  6878 net.cpp:400] inception_4e/relu_3x3 -> inception_4e/3x3 (in-place)
I0708 12:30:00.569795  6878 net.cpp:153] Setting up inception_4e/relu_3x3
I0708 12:30:00.569802  6878 net.cpp:160] Top shape: 100 320 14 14 (6272000)
I0708 12:30:00.569805  6878 net.cpp:168] Memory required for data: 5153511224
I0708 12:30:00.569810  6878 layer_factory.hpp:76] Creating layer inception_4e/5x5_reduce
I0708 12:30:00.569826  6878 net.cpp:109] Creating Layer inception_4e/5x5_reduce
I0708 12:30:00.569833  6878 net.cpp:457] inception_4e/5x5_reduce <- inception_4d/output_inception_4d/output_0_split_3
I0708 12:30:00.569840  6878 net.cpp:414] inception_4e/5x5_reduce -> inception_4e/5x5_reduce
I0708 12:30:00.570277  6878 net.cpp:153] Setting up inception_4e/5x5_reduce
I0708 12:30:00.570289  6878 net.cpp:160] Top shape: 100 32 14 14 (627200)
I0708 12:30:00.570293  6878 net.cpp:168] Memory required for data: 5156020024
I0708 12:30:00.570302  6878 layer_factory.hpp:76] Creating layer inception_4e/relu_5x5_reduce
I0708 12:30:00.570310  6878 net.cpp:109] Creating Layer inception_4e/relu_5x5_reduce
I0708 12:30:00.570315  6878 net.cpp:457] inception_4e/relu_5x5_reduce <- inception_4e/5x5_reduce
I0708 12:30:00.570322  6878 net.cpp:400] inception_4e/relu_5x5_reduce -> inception_4e/5x5_reduce (in-place)
I0708 12:30:00.570330  6878 net.cpp:153] Setting up inception_4e/relu_5x5_reduce
I0708 12:30:00.570336  6878 net.cpp:160] Top shape: 100 32 14 14 (627200)
I0708 12:30:00.570341  6878 net.cpp:168] Memory required for data: 5158528824
I0708 12:30:00.570345  6878 layer_factory.hpp:76] Creating layer inception_4e/5x5
I0708 12:30:00.570358  6878 net.cpp:109] Creating Layer inception_4e/5x5
I0708 12:30:00.570363  6878 net.cpp:457] inception_4e/5x5 <- inception_4e/5x5_reduce
I0708 12:30:00.570372  6878 net.cpp:414] inception_4e/5x5 -> inception_4e/5x5
I0708 12:30:00.571441  6878 net.cpp:153] Setting up inception_4e/5x5
I0708 12:30:00.571471  6878 net.cpp:160] Top shape: 100 128 14 14 (2508800)
I0708 12:30:00.571476  6878 net.cpp:168] Memory required for data: 5168564024
I0708 12:30:00.571485  6878 layer_factory.hpp:76] Creating layer inception_4e/relu_5x5
I0708 12:30:00.571492  6878 net.cpp:109] Creating Layer inception_4e/relu_5x5
I0708 12:30:00.571497  6878 net.cpp:457] inception_4e/relu_5x5 <- inception_4e/5x5
I0708 12:30:00.571504  6878 net.cpp:400] inception_4e/relu_5x5 -> inception_4e/5x5 (in-place)
I0708 12:30:00.571512  6878 net.cpp:153] Setting up inception_4e/relu_5x5
I0708 12:30:00.571518  6878 net.cpp:160] Top shape: 100 128 14 14 (2508800)
I0708 12:30:00.571523  6878 net.cpp:168] Memory required for data: 5178599224
I0708 12:30:00.571527  6878 layer_factory.hpp:76] Creating layer inception_4e/pool
I0708 12:30:00.571535  6878 net.cpp:109] Creating Layer inception_4e/pool
I0708 12:30:00.571540  6878 net.cpp:457] inception_4e/pool <- inception_4d/output_inception_4d/output_0_split_4
I0708 12:30:00.571550  6878 net.cpp:414] inception_4e/pool -> inception_4e/pool
I0708 12:30:00.571620  6878 net.cpp:153] Setting up inception_4e/pool
I0708 12:30:00.571631  6878 net.cpp:160] Top shape: 100 528 14 14 (10348800)
I0708 12:30:00.571636  6878 net.cpp:168] Memory required for data: 5219994424
I0708 12:30:00.571641  6878 layer_factory.hpp:76] Creating layer inception_4e/pool_proj
I0708 12:30:00.571655  6878 net.cpp:109] Creating Layer inception_4e/pool_proj
I0708 12:30:00.571660  6878 net.cpp:457] inception_4e/pool_proj <- inception_4e/pool
I0708 12:30:00.571671  6878 net.cpp:414] inception_4e/pool_proj -> inception_4e/pool_proj
I0708 12:30:00.572470  6878 net.cpp:153] Setting up inception_4e/pool_proj
I0708 12:30:00.572482  6878 net.cpp:160] Top shape: 100 128 14 14 (2508800)
I0708 12:30:00.572487  6878 net.cpp:168] Memory required for data: 5230029624
I0708 12:30:00.572495  6878 layer_factory.hpp:76] Creating layer inception_4e/relu_pool_proj
I0708 12:30:00.572504  6878 net.cpp:109] Creating Layer inception_4e/relu_pool_proj
I0708 12:30:00.572509  6878 net.cpp:457] inception_4e/relu_pool_proj <- inception_4e/pool_proj
I0708 12:30:00.572515  6878 net.cpp:400] inception_4e/relu_pool_proj -> inception_4e/pool_proj (in-place)
I0708 12:30:00.572525  6878 net.cpp:153] Setting up inception_4e/relu_pool_proj
I0708 12:30:00.572530  6878 net.cpp:160] Top shape: 100 128 14 14 (2508800)
I0708 12:30:00.572535  6878 net.cpp:168] Memory required for data: 5240064824
I0708 12:30:00.572538  6878 layer_factory.hpp:76] Creating layer inception_4e/output
I0708 12:30:00.572547  6878 net.cpp:109] Creating Layer inception_4e/output
I0708 12:30:00.572552  6878 net.cpp:457] inception_4e/output <- inception_4e/1x1
I0708 12:30:00.572557  6878 net.cpp:457] inception_4e/output <- inception_4e/3x3
I0708 12:30:00.572563  6878 net.cpp:457] inception_4e/output <- inception_4e/5x5
I0708 12:30:00.572568  6878 net.cpp:457] inception_4e/output <- inception_4e/pool_proj
I0708 12:30:00.572577  6878 net.cpp:414] inception_4e/output -> inception_4e/output
I0708 12:30:00.572620  6878 net.cpp:153] Setting up inception_4e/output
I0708 12:30:00.572629  6878 net.cpp:160] Top shape: 100 832 14 14 (16307200)
I0708 12:30:00.572634  6878 net.cpp:168] Memory required for data: 5305293624
I0708 12:30:00.572638  6878 layer_factory.hpp:76] Creating layer pool4/3x3_s2
I0708 12:30:00.572648  6878 net.cpp:109] Creating Layer pool4/3x3_s2
I0708 12:30:00.572652  6878 net.cpp:457] pool4/3x3_s2 <- inception_4e/output
I0708 12:30:00.572660  6878 net.cpp:414] pool4/3x3_s2 -> pool4/3x3_s2
I0708 12:30:00.572717  6878 net.cpp:153] Setting up pool4/3x3_s2
I0708 12:30:00.572727  6878 net.cpp:160] Top shape: 100 832 7 7 (4076800)
I0708 12:30:00.572731  6878 net.cpp:168] Memory required for data: 5321600824
I0708 12:30:00.572737  6878 layer_factory.hpp:76] Creating layer pool4/3x3_s2_pool4/3x3_s2_0_split
I0708 12:30:00.572746  6878 net.cpp:109] Creating Layer pool4/3x3_s2_pool4/3x3_s2_0_split
I0708 12:30:00.572751  6878 net.cpp:457] pool4/3x3_s2_pool4/3x3_s2_0_split <- pool4/3x3_s2
I0708 12:30:00.572775  6878 net.cpp:414] pool4/3x3_s2_pool4/3x3_s2_0_split -> pool4/3x3_s2_pool4/3x3_s2_0_split_0
I0708 12:30:00.572784  6878 net.cpp:414] pool4/3x3_s2_pool4/3x3_s2_0_split -> pool4/3x3_s2_pool4/3x3_s2_0_split_1
I0708 12:30:00.572793  6878 net.cpp:414] pool4/3x3_s2_pool4/3x3_s2_0_split -> pool4/3x3_s2_pool4/3x3_s2_0_split_2
I0708 12:30:00.572825  6878 net.cpp:414] pool4/3x3_s2_pool4/3x3_s2_0_split -> pool4/3x3_s2_pool4/3x3_s2_0_split_3
I0708 12:30:00.572916  6878 net.cpp:153] Setting up pool4/3x3_s2_pool4/3x3_s2_0_split
I0708 12:30:00.572926  6878 net.cpp:160] Top shape: 100 832 7 7 (4076800)
I0708 12:30:00.572932  6878 net.cpp:160] Top shape: 100 832 7 7 (4076800)
I0708 12:30:00.572940  6878 net.cpp:160] Top shape: 100 832 7 7 (4076800)
I0708 12:30:00.572947  6878 net.cpp:160] Top shape: 100 832 7 7 (4076800)
I0708 12:30:00.572950  6878 net.cpp:168] Memory required for data: 5386829624
I0708 12:30:00.572955  6878 layer_factory.hpp:76] Creating layer inception_5a/1x1
I0708 12:30:00.572968  6878 net.cpp:109] Creating Layer inception_5a/1x1
I0708 12:30:00.572973  6878 net.cpp:457] inception_5a/1x1 <- pool4/3x3_s2_pool4/3x3_s2_0_split_0
I0708 12:30:00.572981  6878 net.cpp:414] inception_5a/1x1 -> inception_5a/1x1
I0708 12:30:00.575503  6878 net.cpp:153] Setting up inception_5a/1x1
I0708 12:30:00.575518  6878 net.cpp:160] Top shape: 100 256 7 7 (1254400)
I0708 12:30:00.575523  6878 net.cpp:168] Memory required for data: 5391847224
I0708 12:30:00.575531  6878 layer_factory.hpp:76] Creating layer inception_5a/relu_1x1
I0708 12:30:00.575542  6878 net.cpp:109] Creating Layer inception_5a/relu_1x1
I0708 12:30:00.575548  6878 net.cpp:457] inception_5a/relu_1x1 <- inception_5a/1x1
I0708 12:30:00.575554  6878 net.cpp:400] inception_5a/relu_1x1 -> inception_5a/1x1 (in-place)
I0708 12:30:00.575563  6878 net.cpp:153] Setting up inception_5a/relu_1x1
I0708 12:30:00.575572  6878 net.cpp:160] Top shape: 100 256 7 7 (1254400)
I0708 12:30:00.575577  6878 net.cpp:168] Memory required for data: 5396864824
I0708 12:30:00.575582  6878 layer_factory.hpp:76] Creating layer inception_5a/3x3_reduce
I0708 12:30:00.575590  6878 net.cpp:109] Creating Layer inception_5a/3x3_reduce
I0708 12:30:00.575597  6878 net.cpp:457] inception_5a/3x3_reduce <- pool4/3x3_s2_pool4/3x3_s2_0_split_1
I0708 12:30:00.575606  6878 net.cpp:414] inception_5a/3x3_reduce -> inception_5a/3x3_reduce
I0708 12:30:00.577563  6878 net.cpp:153] Setting up inception_5a/3x3_reduce
I0708 12:30:00.577577  6878 net.cpp:160] Top shape: 100 160 7 7 (784000)
I0708 12:30:00.577581  6878 net.cpp:168] Memory required for data: 5400000824
I0708 12:30:00.577590  6878 layer_factory.hpp:76] Creating layer inception_5a/relu_3x3_reduce
I0708 12:30:00.577599  6878 net.cpp:109] Creating Layer inception_5a/relu_3x3_reduce
I0708 12:30:00.577603  6878 net.cpp:457] inception_5a/relu_3x3_reduce <- inception_5a/3x3_reduce
I0708 12:30:00.577610  6878 net.cpp:400] inception_5a/relu_3x3_reduce -> inception_5a/3x3_reduce (in-place)
I0708 12:30:00.577620  6878 net.cpp:153] Setting up inception_5a/relu_3x3_reduce
I0708 12:30:00.577625  6878 net.cpp:160] Top shape: 100 160 7 7 (784000)
I0708 12:30:00.577630  6878 net.cpp:168] Memory required for data: 5403136824
I0708 12:30:00.577635  6878 layer_factory.hpp:76] Creating layer inception_5a/3x3
I0708 12:30:00.577646  6878 net.cpp:109] Creating Layer inception_5a/3x3
I0708 12:30:00.577651  6878 net.cpp:457] inception_5a/3x3 <- inception_5a/3x3_reduce
I0708 12:30:00.577661  6878 net.cpp:414] inception_5a/3x3 -> inception_5a/3x3
I0708 12:30:00.582397  6878 net.cpp:153] Setting up inception_5a/3x3
I0708 12:30:00.582417  6878 net.cpp:160] Top shape: 100 320 7 7 (1568000)
I0708 12:30:00.582422  6878 net.cpp:168] Memory required for data: 5409408824
I0708 12:30:00.582430  6878 layer_factory.hpp:76] Creating layer inception_5a/relu_3x3
I0708 12:30:00.582442  6878 net.cpp:109] Creating Layer inception_5a/relu_3x3
I0708 12:30:00.582448  6878 net.cpp:457] inception_5a/relu_3x3 <- inception_5a/3x3
I0708 12:30:00.582458  6878 net.cpp:400] inception_5a/relu_3x3 -> inception_5a/3x3 (in-place)
I0708 12:30:00.582494  6878 net.cpp:153] Setting up inception_5a/relu_3x3
I0708 12:30:00.582501  6878 net.cpp:160] Top shape: 100 320 7 7 (1568000)
I0708 12:30:00.582506  6878 net.cpp:168] Memory required for data: 5415680824
I0708 12:30:00.582511  6878 layer_factory.hpp:76] Creating layer inception_5a/5x5_reduce
I0708 12:30:00.582525  6878 net.cpp:109] Creating Layer inception_5a/5x5_reduce
I0708 12:30:00.582530  6878 net.cpp:457] inception_5a/5x5_reduce <- pool4/3x3_s2_pool4/3x3_s2_0_split_2
I0708 12:30:00.582548  6878 net.cpp:414] inception_5a/5x5_reduce -> inception_5a/5x5_reduce
I0708 12:30:00.583789  6878 net.cpp:153] Setting up inception_5a/5x5_reduce
I0708 12:30:00.583804  6878 net.cpp:160] Top shape: 100 32 7 7 (156800)
I0708 12:30:00.583809  6878 net.cpp:168] Memory required for data: 5416308024
I0708 12:30:00.583818  6878 layer_factory.hpp:76] Creating layer inception_5a/relu_5x5_reduce
I0708 12:30:00.583827  6878 net.cpp:109] Creating Layer inception_5a/relu_5x5_reduce
I0708 12:30:00.583832  6878 net.cpp:457] inception_5a/relu_5x5_reduce <- inception_5a/5x5_reduce
I0708 12:30:00.583839  6878 net.cpp:400] inception_5a/relu_5x5_reduce -> inception_5a/5x5_reduce (in-place)
I0708 12:30:00.583848  6878 net.cpp:153] Setting up inception_5a/relu_5x5_reduce
I0708 12:30:00.583854  6878 net.cpp:160] Top shape: 100 32 7 7 (156800)
I0708 12:30:00.583859  6878 net.cpp:168] Memory required for data: 5416935224
I0708 12:30:00.583863  6878 layer_factory.hpp:76] Creating layer inception_5a/5x5
I0708 12:30:00.583878  6878 net.cpp:109] Creating Layer inception_5a/5x5
I0708 12:30:00.583883  6878 net.cpp:457] inception_5a/5x5 <- inception_5a/5x5_reduce
I0708 12:30:00.583892  6878 net.cpp:414] inception_5a/5x5 -> inception_5a/5x5
I0708 12:30:00.584992  6878 net.cpp:153] Setting up inception_5a/5x5
I0708 12:30:00.585006  6878 net.cpp:160] Top shape: 100 128 7 7 (627200)
I0708 12:30:00.585011  6878 net.cpp:168] Memory required for data: 5419444024
I0708 12:30:00.585018  6878 layer_factory.hpp:76] Creating layer inception_5a/relu_5x5
I0708 12:30:00.585026  6878 net.cpp:109] Creating Layer inception_5a/relu_5x5
I0708 12:30:00.585031  6878 net.cpp:457] inception_5a/relu_5x5 <- inception_5a/5x5
I0708 12:30:00.585038  6878 net.cpp:400] inception_5a/relu_5x5 -> inception_5a/5x5 (in-place)
I0708 12:30:00.585047  6878 net.cpp:153] Setting up inception_5a/relu_5x5
I0708 12:30:00.585052  6878 net.cpp:160] Top shape: 100 128 7 7 (627200)
I0708 12:30:00.585057  6878 net.cpp:168] Memory required for data: 5421952824
I0708 12:30:00.585062  6878 layer_factory.hpp:76] Creating layer inception_5a/pool
I0708 12:30:00.585070  6878 net.cpp:109] Creating Layer inception_5a/pool
I0708 12:30:00.585075  6878 net.cpp:457] inception_5a/pool <- pool4/3x3_s2_pool4/3x3_s2_0_split_3
I0708 12:30:00.585083  6878 net.cpp:414] inception_5a/pool -> inception_5a/pool
I0708 12:30:00.585150  6878 net.cpp:153] Setting up inception_5a/pool
I0708 12:30:00.585160  6878 net.cpp:160] Top shape: 100 832 7 7 (4076800)
I0708 12:30:00.585165  6878 net.cpp:168] Memory required for data: 5438260024
I0708 12:30:00.585170  6878 layer_factory.hpp:76] Creating layer inception_5a/pool_proj
I0708 12:30:00.585181  6878 net.cpp:109] Creating Layer inception_5a/pool_proj
I0708 12:30:00.585187  6878 net.cpp:457] inception_5a/pool_proj <- inception_5a/pool
I0708 12:30:00.585196  6878 net.cpp:414] inception_5a/pool_proj -> inception_5a/pool_proj
I0708 12:30:00.586971  6878 net.cpp:153] Setting up inception_5a/pool_proj
I0708 12:30:00.586987  6878 net.cpp:160] Top shape: 100 128 7 7 (627200)
I0708 12:30:00.586992  6878 net.cpp:168] Memory required for data: 5440768824
I0708 12:30:00.586999  6878 layer_factory.hpp:76] Creating layer inception_5a/relu_pool_proj
I0708 12:30:00.587009  6878 net.cpp:109] Creating Layer inception_5a/relu_pool_proj
I0708 12:30:00.587015  6878 net.cpp:457] inception_5a/relu_pool_proj <- inception_5a/pool_proj
I0708 12:30:00.587025  6878 net.cpp:400] inception_5a/relu_pool_proj -> inception_5a/pool_proj (in-place)
I0708 12:30:00.587064  6878 net.cpp:153] Setting up inception_5a/relu_pool_proj
I0708 12:30:00.587070  6878 net.cpp:160] Top shape: 100 128 7 7 (627200)
I0708 12:30:00.587075  6878 net.cpp:168] Memory required for data: 5443277624
I0708 12:30:00.587080  6878 layer_factory.hpp:76] Creating layer inception_5a/output
I0708 12:30:00.587088  6878 net.cpp:109] Creating Layer inception_5a/output
I0708 12:30:00.587093  6878 net.cpp:457] inception_5a/output <- inception_5a/1x1
I0708 12:30:00.587100  6878 net.cpp:457] inception_5a/output <- inception_5a/3x3
I0708 12:30:00.587105  6878 net.cpp:457] inception_5a/output <- inception_5a/5x5
I0708 12:30:00.587110  6878 net.cpp:457] inception_5a/output <- inception_5a/pool_proj
I0708 12:30:00.587121  6878 net.cpp:414] inception_5a/output -> inception_5a/output
I0708 12:30:00.587162  6878 net.cpp:153] Setting up inception_5a/output
I0708 12:30:00.587170  6878 net.cpp:160] Top shape: 100 832 7 7 (4076800)
I0708 12:30:00.587174  6878 net.cpp:168] Memory required for data: 5459584824
I0708 12:30:00.587179  6878 layer_factory.hpp:76] Creating layer inception_5a/output_inception_5a/output_0_split
I0708 12:30:00.587193  6878 net.cpp:109] Creating Layer inception_5a/output_inception_5a/output_0_split
I0708 12:30:00.587198  6878 net.cpp:457] inception_5a/output_inception_5a/output_0_split <- inception_5a/output
I0708 12:30:00.587205  6878 net.cpp:414] inception_5a/output_inception_5a/output_0_split -> inception_5a/output_inception_5a/output_0_split_0
I0708 12:30:00.587222  6878 net.cpp:414] inception_5a/output_inception_5a/output_0_split -> inception_5a/output_inception_5a/output_0_split_1
I0708 12:30:00.587237  6878 net.cpp:414] inception_5a/output_inception_5a/output_0_split -> inception_5a/output_inception_5a/output_0_split_2
I0708 12:30:00.587246  6878 net.cpp:414] inception_5a/output_inception_5a/output_0_split -> inception_5a/output_inception_5a/output_0_split_3
I0708 12:30:00.587334  6878 net.cpp:153] Setting up inception_5a/output_inception_5a/output_0_split
I0708 12:30:00.587344  6878 net.cpp:160] Top shape: 100 832 7 7 (4076800)
I0708 12:30:00.587349  6878 net.cpp:160] Top shape: 100 832 7 7 (4076800)
I0708 12:30:00.587355  6878 net.cpp:160] Top shape: 100 832 7 7 (4076800)
I0708 12:30:00.587360  6878 net.cpp:160] Top shape: 100 832 7 7 (4076800)
I0708 12:30:00.587364  6878 net.cpp:168] Memory required for data: 5524813624
I0708 12:30:00.587369  6878 layer_factory.hpp:76] Creating layer inception_5b/1x1
I0708 12:30:00.587381  6878 net.cpp:109] Creating Layer inception_5b/1x1
I0708 12:30:00.587388  6878 net.cpp:457] inception_5b/1x1 <- inception_5a/output_inception_5a/output_0_split_0
I0708 12:30:00.587399  6878 net.cpp:414] inception_5b/1x1 -> inception_5b/1x1
I0708 12:30:00.590854  6878 net.cpp:153] Setting up inception_5b/1x1
I0708 12:30:00.590872  6878 net.cpp:160] Top shape: 100 384 7 7 (1881600)
I0708 12:30:00.590876  6878 net.cpp:168] Memory required for data: 5532340024
I0708 12:30:00.590885  6878 layer_factory.hpp:76] Creating layer inception_5b/relu_1x1
I0708 12:30:00.590893  6878 net.cpp:109] Creating Layer inception_5b/relu_1x1
I0708 12:30:00.590899  6878 net.cpp:457] inception_5b/relu_1x1 <- inception_5b/1x1
I0708 12:30:00.590906  6878 net.cpp:400] inception_5b/relu_1x1 -> inception_5b/1x1 (in-place)
I0708 12:30:00.590915  6878 net.cpp:153] Setting up inception_5b/relu_1x1
I0708 12:30:00.590921  6878 net.cpp:160] Top shape: 100 384 7 7 (1881600)
I0708 12:30:00.590926  6878 net.cpp:168] Memory required for data: 5539866424
I0708 12:30:00.590930  6878 layer_factory.hpp:76] Creating layer inception_5b/3x3_reduce
I0708 12:30:00.590942  6878 net.cpp:109] Creating Layer inception_5b/3x3_reduce
I0708 12:30:00.590947  6878 net.cpp:457] inception_5b/3x3_reduce <- inception_5a/output_inception_5a/output_0_split_1
I0708 12:30:00.590958  6878 net.cpp:414] inception_5b/3x3_reduce -> inception_5b/3x3_reduce
I0708 12:30:00.593351  6878 net.cpp:153] Setting up inception_5b/3x3_reduce
I0708 12:30:00.593366  6878 net.cpp:160] Top shape: 100 192 7 7 (940800)
I0708 12:30:00.593371  6878 net.cpp:168] Memory required for data: 5543629624
I0708 12:30:00.593405  6878 layer_factory.hpp:76] Creating layer inception_5b/relu_3x3_reduce
I0708 12:30:00.593413  6878 net.cpp:109] Creating Layer inception_5b/relu_3x3_reduce
I0708 12:30:00.593420  6878 net.cpp:457] inception_5b/relu_3x3_reduce <- inception_5b/3x3_reduce
I0708 12:30:00.593430  6878 net.cpp:400] inception_5b/relu_3x3_reduce -> inception_5b/3x3_reduce (in-place)
I0708 12:30:00.593439  6878 net.cpp:153] Setting up inception_5b/relu_3x3_reduce
I0708 12:30:00.593446  6878 net.cpp:160] Top shape: 100 192 7 7 (940800)
I0708 12:30:00.593451  6878 net.cpp:168] Memory required for data: 5547392824
I0708 12:30:00.593454  6878 layer_factory.hpp:76] Creating layer inception_5b/3x3
I0708 12:30:00.593466  6878 net.cpp:109] Creating Layer inception_5b/3x3
I0708 12:30:00.593472  6878 net.cpp:457] inception_5b/3x3 <- inception_5b/3x3_reduce
I0708 12:30:00.593478  6878 net.cpp:414] inception_5b/3x3 -> inception_5b/3x3
I0708 12:30:00.600186  6878 net.cpp:153] Setting up inception_5b/3x3
I0708 12:30:00.600222  6878 net.cpp:160] Top shape: 100 384 7 7 (1881600)
I0708 12:30:00.600229  6878 net.cpp:168] Memory required for data: 5554919224
I0708 12:30:00.600239  6878 layer_factory.hpp:76] Creating layer inception_5b/relu_3x3
I0708 12:30:00.600252  6878 net.cpp:109] Creating Layer inception_5b/relu_3x3
I0708 12:30:00.600260  6878 net.cpp:457] inception_5b/relu_3x3 <- inception_5b/3x3
I0708 12:30:00.600270  6878 net.cpp:400] inception_5b/relu_3x3 -> inception_5b/3x3 (in-place)
I0708 12:30:00.600283  6878 net.cpp:153] Setting up inception_5b/relu_3x3
I0708 12:30:00.600293  6878 net.cpp:160] Top shape: 100 384 7 7 (1881600)
I0708 12:30:00.600298  6878 net.cpp:168] Memory required for data: 5562445624
I0708 12:30:00.600302  6878 layer_factory.hpp:76] Creating layer inception_5b/5x5_reduce
I0708 12:30:00.600313  6878 net.cpp:109] Creating Layer inception_5b/5x5_reduce
I0708 12:30:00.600319  6878 net.cpp:457] inception_5b/5x5_reduce <- inception_5a/output_inception_5a/output_0_split_2
I0708 12:30:00.600330  6878 net.cpp:414] inception_5b/5x5_reduce -> inception_5b/5x5_reduce
I0708 12:30:00.601753  6878 net.cpp:153] Setting up inception_5b/5x5_reduce
I0708 12:30:00.601768  6878 net.cpp:160] Top shape: 100 48 7 7 (235200)
I0708 12:30:00.601773  6878 net.cpp:168] Memory required for data: 5563386424
I0708 12:30:00.601781  6878 layer_factory.hpp:76] Creating layer inception_5b/relu_5x5_reduce
I0708 12:30:00.601789  6878 net.cpp:109] Creating Layer inception_5b/relu_5x5_reduce
I0708 12:30:00.601795  6878 net.cpp:457] inception_5b/relu_5x5_reduce <- inception_5b/5x5_reduce
I0708 12:30:00.601802  6878 net.cpp:400] inception_5b/relu_5x5_reduce -> inception_5b/5x5_reduce (in-place)
I0708 12:30:00.601811  6878 net.cpp:153] Setting up inception_5b/relu_5x5_reduce
I0708 12:30:00.601817  6878 net.cpp:160] Top shape: 100 48 7 7 (235200)
I0708 12:30:00.601821  6878 net.cpp:168] Memory required for data: 5564327224
I0708 12:30:00.601826  6878 layer_factory.hpp:76] Creating layer inception_5b/5x5
I0708 12:30:00.601840  6878 net.cpp:109] Creating Layer inception_5b/5x5
I0708 12:30:00.601845  6878 net.cpp:457] inception_5b/5x5 <- inception_5b/5x5_reduce
I0708 12:30:00.601855  6878 net.cpp:414] inception_5b/5x5 -> inception_5b/5x5
I0708 12:30:00.603307  6878 net.cpp:153] Setting up inception_5b/5x5
I0708 12:30:00.603320  6878 net.cpp:160] Top shape: 100 128 7 7 (627200)
I0708 12:30:00.603325  6878 net.cpp:168] Memory required for data: 5566836024
I0708 12:30:00.603333  6878 layer_factory.hpp:76] Creating layer inception_5b/relu_5x5
I0708 12:30:00.603341  6878 net.cpp:109] Creating Layer inception_5b/relu_5x5
I0708 12:30:00.603348  6878 net.cpp:457] inception_5b/relu_5x5 <- inception_5b/5x5
I0708 12:30:00.603354  6878 net.cpp:400] inception_5b/relu_5x5 -> inception_5b/5x5 (in-place)
I0708 12:30:00.603363  6878 net.cpp:153] Setting up inception_5b/relu_5x5
I0708 12:30:00.603369  6878 net.cpp:160] Top shape: 100 128 7 7 (627200)
I0708 12:30:00.603374  6878 net.cpp:168] Memory required for data: 5569344824
I0708 12:30:00.603415  6878 layer_factory.hpp:76] Creating layer inception_5b/pool
I0708 12:30:00.603425  6878 net.cpp:109] Creating Layer inception_5b/pool
I0708 12:30:00.603430  6878 net.cpp:457] inception_5b/pool <- inception_5a/output_inception_5a/output_0_split_3
I0708 12:30:00.603438  6878 net.cpp:414] inception_5b/pool -> inception_5b/pool
I0708 12:30:00.603494  6878 net.cpp:153] Setting up inception_5b/pool
I0708 12:30:00.603504  6878 net.cpp:160] Top shape: 100 832 7 7 (4076800)
I0708 12:30:00.603508  6878 net.cpp:168] Memory required for data: 5585652024
I0708 12:30:00.603513  6878 layer_factory.hpp:76] Creating layer inception_5b/pool_proj
I0708 12:30:00.603525  6878 net.cpp:109] Creating Layer inception_5b/pool_proj
I0708 12:30:00.603530  6878 net.cpp:457] inception_5b/pool_proj <- inception_5b/pool
I0708 12:30:00.603544  6878 net.cpp:414] inception_5b/pool_proj -> inception_5b/pool_proj
I0708 12:30:00.605279  6878 net.cpp:153] Setting up inception_5b/pool_proj
I0708 12:30:00.605294  6878 net.cpp:160] Top shape: 100 128 7 7 (627200)
I0708 12:30:00.605299  6878 net.cpp:168] Memory required for data: 5588160824
I0708 12:30:00.605307  6878 layer_factory.hpp:76] Creating layer inception_5b/relu_pool_proj
I0708 12:30:00.605316  6878 net.cpp:109] Creating Layer inception_5b/relu_pool_proj
I0708 12:30:00.605322  6878 net.cpp:457] inception_5b/relu_pool_proj <- inception_5b/pool_proj
I0708 12:30:00.605331  6878 net.cpp:400] inception_5b/relu_pool_proj -> inception_5b/pool_proj (in-place)
I0708 12:30:00.605341  6878 net.cpp:153] Setting up inception_5b/relu_pool_proj
I0708 12:30:00.605347  6878 net.cpp:160] Top shape: 100 128 7 7 (627200)
I0708 12:30:00.605351  6878 net.cpp:168] Memory required for data: 5590669624
I0708 12:30:00.605356  6878 layer_factory.hpp:76] Creating layer inception_5b/output
I0708 12:30:00.605365  6878 net.cpp:109] Creating Layer inception_5b/output
I0708 12:30:00.605370  6878 net.cpp:457] inception_5b/output <- inception_5b/1x1
I0708 12:30:00.605376  6878 net.cpp:457] inception_5b/output <- inception_5b/3x3
I0708 12:30:00.605381  6878 net.cpp:457] inception_5b/output <- inception_5b/5x5
I0708 12:30:00.605386  6878 net.cpp:457] inception_5b/output <- inception_5b/pool_proj
I0708 12:30:00.605396  6878 net.cpp:414] inception_5b/output -> inception_5b/output
I0708 12:30:00.605430  6878 net.cpp:153] Setting up inception_5b/output
I0708 12:30:00.605438  6878 net.cpp:160] Top shape: 100 1024 7 7 (5017600)
I0708 12:30:00.605443  6878 net.cpp:168] Memory required for data: 5610740024
I0708 12:30:00.605448  6878 layer_factory.hpp:76] Creating layer pool5/7x7_s1
I0708 12:30:00.605459  6878 net.cpp:109] Creating Layer pool5/7x7_s1
I0708 12:30:00.605464  6878 net.cpp:457] pool5/7x7_s1 <- inception_5b/output
I0708 12:30:00.605473  6878 net.cpp:414] pool5/7x7_s1 -> pool5/7x7_s1
I0708 12:30:00.605509  6878 net.cpp:153] Setting up pool5/7x7_s1
I0708 12:30:00.605517  6878 net.cpp:160] Top shape: 100 1024 1 1 (102400)
I0708 12:30:00.605521  6878 net.cpp:168] Memory required for data: 5611149624
I0708 12:30:00.605526  6878 layer_factory.hpp:76] Creating layer pool5/drop_7x7_s1
I0708 12:30:00.605535  6878 net.cpp:109] Creating Layer pool5/drop_7x7_s1
I0708 12:30:00.605540  6878 net.cpp:457] pool5/drop_7x7_s1 <- pool5/7x7_s1
I0708 12:30:00.605550  6878 net.cpp:400] pool5/drop_7x7_s1 -> pool5/7x7_s1 (in-place)
I0708 12:30:00.605581  6878 net.cpp:153] Setting up pool5/drop_7x7_s1
I0708 12:30:00.605589  6878 net.cpp:160] Top shape: 100 1024 1 1 (102400)
I0708 12:30:00.605594  6878 net.cpp:168] Memory required for data: 5611559224
I0708 12:30:00.605598  6878 layer_factory.hpp:76] Creating layer loss3/classifier_clean
I0708 12:30:00.605609  6878 net.cpp:109] Creating Layer loss3/classifier_clean
I0708 12:30:00.605615  6878 net.cpp:457] loss3/classifier_clean <- pool5/7x7_s1
I0708 12:30:00.605625  6878 net.cpp:414] loss3/classifier_clean -> loss3/classifier_clean
I0708 12:30:00.615207  6878 net.cpp:153] Setting up loss3/classifier_clean
I0708 12:30:00.615245  6878 net.cpp:160] Top shape: 100 967 (96700)
I0708 12:30:00.615252  6878 net.cpp:168] Memory required for data: 5611946024
I0708 12:30:00.615299  6878 layer_factory.hpp:76] Creating layer loss3/classifier_clean_loss3/classifier_clean_0_split
I0708 12:30:00.615314  6878 net.cpp:109] Creating Layer loss3/classifier_clean_loss3/classifier_clean_0_split
I0708 12:30:00.615320  6878 net.cpp:457] loss3/classifier_clean_loss3/classifier_clean_0_split <- loss3/classifier_clean
I0708 12:30:00.615331  6878 net.cpp:414] loss3/classifier_clean_loss3/classifier_clean_0_split -> loss3/classifier_clean_loss3/classifier_clean_0_split_0
I0708 12:30:00.615341  6878 net.cpp:414] loss3/classifier_clean_loss3/classifier_clean_0_split -> loss3/classifier_clean_loss3/classifier_clean_0_split_1
I0708 12:30:00.615350  6878 net.cpp:414] loss3/classifier_clean_loss3/classifier_clean_0_split -> loss3/classifier_clean_loss3/classifier_clean_0_split_2
I0708 12:30:00.615427  6878 net.cpp:153] Setting up loss3/classifier_clean_loss3/classifier_clean_0_split
I0708 12:30:00.615437  6878 net.cpp:160] Top shape: 100 967 (96700)
I0708 12:30:00.615442  6878 net.cpp:160] Top shape: 100 967 (96700)
I0708 12:30:00.615447  6878 net.cpp:160] Top shape: 100 967 (96700)
I0708 12:30:00.615452  6878 net.cpp:168] Memory required for data: 5613106424
I0708 12:30:00.615456  6878 layer_factory.hpp:76] Creating layer loss3/loss
I0708 12:30:00.615464  6878 net.cpp:109] Creating Layer loss3/loss
I0708 12:30:00.615469  6878 net.cpp:457] loss3/loss <- loss3/classifier_clean_loss3/classifier_clean_0_split_0
I0708 12:30:00.615476  6878 net.cpp:457] loss3/loss <- label_val-data_1_split_6
…
